dev/pong/original/regular/pong_400.pth (torch_old, 191750 bytes, 20 tensors)

weight f4 [16, 1, 5, 5]
000000 a5 15 11 bd a3 4c 07 bd 56 0a 7f be e9 b2 97 3e
       -0.035421032 -0.03303207 -0.24906287 0.29628685
000010 92 bf b3 bd cf 69 e0 3d 73 f6 96 ba 3d 5f 8e be
       -0.087767735 0.109576814 -0.0011517539 -0.27807036
000020 fd 55 8d bd 83 71 35 3e 96 b8 7c be a7 88 47 be
       -0.069011666 0.17719083 -0.24679789 -0.19485722
000030 d0 d5 5a bd 64 84 12 bd 41 f7 22 3e 8b e0 80 be
       -0.053426564 -0.03577079 0.15914632 -0.25171313
000040 7a e2 fc 3d 72 f5 bb bd b2 56 8a bd e4 0d 53 be
       0.123478845 -0.09177674 -0.06754817 -0.20610768
000050 5f 94 28 be b5 a2 af 3d 5e 6d a2 3d 10 14 97 39
       -0.16462849 0.08575956 0.079310164 0.00028815912
000060 f9 88 82 3d 10 2e 74 bd 53 a2 9e 3d d8 93 4d bd
       0.06373782 -0.05961424 0.07745805 -0.050189823
000070 c1 3b 13 be 97 96 0a 3d f6 01 27 3c b3 5c 59 be
       -0.14378263 0.03383502 0.010193339 -0.21226768
000080 6e 31 63 3e 5a 41 25 bd 78 7e ed 3d f3 c5 90 bd
       0.22186825 -0.040345527 0.115963876 -0.07069006
000090 8e 7a 47 bd 88 8f f1 3d 0d 00 2f bd af de 2f b9
       -0.04870086 0.117949545 -0.042724658 -0.00016772257
0000a0 bb 81 3a bc a3 1a ad 3e 68 c8 ec bd 7f 80 ab 3e
       -0.011383469 0.33809385 -0.11561662 0.33496472
0000b0 4c d3 36 3e 60 27 ac 3d 11 c2 21 3d f3 2e 45 bc
       0.17854041 0.08405948 0.039491717 -0.012035119
0000c0 28 eb 1e be da 81 c0 3d 09 de 3c 3e a2 7b 4e 3e
       -0.15519392 0.09399767 0.18444075 0.2016435
0000d0 45 fc f2 bd 98 79 c5 bd 0a 16 82 3d 0b 84 b9 3d
       -0.11864523 -0.09642333 0.0635186 0.09058388
0000e0 01 23 01 3e 8b 76 66 3e c3 c6 31 be 9a 7c fd bd
       0.12611009 0.22506158 -0.17360978 -0.123772815
0000f0 63 b9 d7 bd 14 73 8e bd ac a3 fa bd 26 54 8a 3d
       -0.105334066 -0.06955543 -0.12238249 0.06754331
000100 e1 6a 96 3d 10 27 76 be 7f 34 97 be dd 4c 85 3e
       0.07344604 -0.24038339 -0.2953224 0.26035205
000110 13 54 69 3e 86 9c 0f be 59 a6 86 bc a6 cc 60 3e
       0.22785978 -0.14024553 -0.016436743 0.21953067
000120 11 d1 ee bd 0d ef 41 bd 9c 0b 70 3e c3 4b 6f 3d
       -0.1166097 -0.047347117 0.23441929 0.05842186
000130 1f 30 a4 bd 47 a2 27 be 7f 2e f3 bd 67 21 c3 3d
       -0.08016991 -0.16370498 -0.11874103 0.09527855
000140 70 90 6a be 01 88 7b be ae 5c 3b 3e 12 92 f1 bd
       -0.22906661 -0.245636 0.18297073 -0.11795439
000150 58 d7 16 be c0 1e 68 3c 86 40 d1 3d 85 3d 38 3d
       -0.14730585 0.014167488 0.10217385 0.044980545
000160 66 2d 61 be c2 4d 3f be 9d 17 70 3e e3 e5 d6 bd
       -0.21989974 -0.18682006 0.23446508 -0.10493066
000170 28 b0 48 3e 66 44 53 be d6 98 fb bd bb 44 45 bd
       0.19598448 -0.2063156 -0.122850105 -0.04816125
000180 c7 ce 3f 3e 9c c1 fb bc 4f cd 16 be fd 6a 8c 3b
       0.18731223 -0.030731969 -0.14726757 0.004285215
000190 7f 81 d0 3d 24 af 8f bd f4 48 48 3d 63 67 e0 3d
       0.101809494 -0.07015827 0.0488977 0.109572195
0001a0 b8 1c c6 3d 8b 00 1e be 92 04 92 3d 55 9d 25 be
       0.096734464 -0.15429895 0.07129778 -0.16173299
0001b0 6a 91 38 be ed af 94 3c 48 43 ee 3b 68 3a a1 bc
       -0.18024221 0.018150294 0.007271204 -0.01968117
0001c0 0e ef 1e 3e d6 06 5c be 69 a5 2e be fd c4 38 be
       0.1552088 -0.21486983 -0.17055286 -0.18043895
0001d0 9b e2 86 3e f8 5d 44 3e 3a 15 43 be 1e 0a 41 be
       0.2634476 0.19176471 -0.19051066 -0.18851516
0001e0 5c 8f 48 bd 0b 04 f6 bc df 35 40 3e f7 18 f9 bc
       -0.048964843 -0.030031225 0.1877055 -0.030407412
0001f0 a8 f2 ba bd 03 c3 89 bd 37 12 43 bd 6b b7 45 bc
       -0.09128314 -0.06726649 -0.047624793 -0.012067656
000200 b7 a9 49 bd 77 17 bf 3b 21 c5 89 3d 8b 55 1b be
       -0.04923412 0.0058316546 0.067270525 -0.15169351
000210 d9 75 10 3e 52 70 3a 3d 31 b4 90 3c 16 c3 6f be
       0.14107455 0.045517273 0.017664047 -0.23414263
000220 7c de 64 be 56 bc c7 bd 38 05 48 3d 55 81 b5 bd
       -0.22350496 -0.09752719 0.048833102 -0.08862559
000230 4a f6 b0 3e 13 4e a0 3e 53 b6 94 3d 41 de 84 be
       0.34562904 0.31309566 0.07261338 -0.25950816
000240 fe 74 59 3e dd 46 e0 bd b4 e1 eb 3d 6d c2 19 3e
       0.21236035 -0.10951016 0.11517659 0.15015574
000250 3e 7a bb bd 6d ca 8c 3d 3b aa 61 bd ac d5 8b bd
       -0.09154175 0.06874547 -0.055093985 -0.06827864
000260 07 74 ca 3d 61 28 fc 3d f6 c7 9e 3c 43 ea 74 be
       0.09885412 0.12312389 0.019382458 -0.23917489
000270 6f 8d f8 bd 12 13 58 be ac a5 ac 3d 16 8d e5 bd
       -0.12136351 -0.21101025 0.08430037 -0.11208551
000280 77 1c 0e 3e 96 79 22 bd 95 28 30 be a0 b1 fe bd
       0.13878046 -0.039666735 -0.17202981 -0.12436223
000290 2c dc f3 3b 1c aa 3c be 86 3d f7 3d 84 5f 95 3e
       0.007442018 -0.18424267 0.120722815 0.29174435
0002a0 9e 63 ef 3d e1 3d e2 bd 69 8d 35 3e 20 63 3a 3e
       0.11688922 -0.11046959 0.17729725 0.18201876
0002b0 9a 66 71 be 1a 51 01 3e 8b ac a6 bc d4 e9 05 be
       -0.23574296 0.12628594 -0.020345947 -0.1307748
0002c0 d9 82 01 3e 28 12 01 3e 11 df 38 be 2f 19 1e ba
       0.1264757 0.12604582 -0.18053843 -0.00060309743
0002d0 1f 5c 01 be fa d6 0e 3e 0b 39 98 bd 28 55 af 3c
       -0.12632798 0.13949195 -0.07432755 0.02140291
0002e0 e6 f0 89 be aa f7 98 bd 20 7b 92 3e 04 c3 2c 3e
       -0.26941603 -0.07469113 0.28609562 0.16871268
0002f0 d6 59 f6 bd 42 31 df bc ba 90 c8 3d c6 11 ab bd
       -0.120288536 -0.027245168 0.097932294 -0.083529994
000300 16 dd 96 be 8b b0 88 be 44 cc c0 3b 29 34 04 be
       -0.2946555 -0.26697192 0.0058837254 -0.12910523
000310 69 5a 30 be cd 76 f0 3d 12 bd 3d 39 56 9b 0b 3e
       -0.17221989 0.117414095 0.00018094879 0.13633475
000320 4c bf 0e bd d6 39 08 3d 05 ac d0 bd 80 9b c6 bd
       -0.034850404 0.03325828 -0.1018906 -0.09697628
000330 52 dc f6 3d a2 26 a6 3d cd 15 98 bd 23 de 8f bb
       0.120537415 0.081128374 -0.07426033 -0.0043904944
000340 00 16 af 3d df 90 46 3c a0 17 1a bc 3a 8a e0 3b
       0.08549118 0.012119501 -0.009405047 0.0068524154
000350 c8 30 18 be 67 4b ac 3c ed 42 dd 3d 72 7e 93 be
       -0.14862359 0.021032048 0.10803781 -0.28807408
000360 50 81 a7 be 0c 36 55 3e 17 b4 6a 3e 92 82 50 3e
       -0.32715845 0.20821398 0.22920261 0.20362309
000370 51 ab 00 3e 2a de 3c 3e 66 74 18 bd fe 0f 07 3d
       0.12565352 0.18444124 -0.03722038 0.032974236
000380 24 39 9b bc 10 e9 18 3c 30 d3 e9 bc fd 03 3e be
       -0.018948145 0.00933291 -0.028543085 -0.18556209
000390 dd c1 d8 3d 36 d3 46 be 21 32 23 3e 2b f3 1d be
       0.105838515 -0.19416508 0.15937091 -0.15424792
0003a0 92 99 ec 3d 13 a3 94 bc e3 f7 86 3d a4 81 b3 bd
       0.11552729 -0.018144166 0.065902494 -0.08764961
0003b0 9d ce 91 3d 61 b2 24 bd 34 6d 76 bd a2 2e 8b bd
       0.071194865 -0.040209178 -0.060162738 -0.06796004
0003c0 c6 65 ab bd 7b e0 02 3e 3b c1 48 bd b0 7f 91 3e
       -0.08369021 0.12780945 -0.049012404 0.2841773
0003d0 90 f1 89 bd 28 85 ac bd d6 ce 2c 3d 62 43 48 be
       -0.067355275 -0.08423835 0.04218944 -0.19556955
0003e0 15 f5 20 3d 66 4e 02 be 28 3c 91 3c c2 ae f9 3d
       0.03929623 -0.12725219 0.01772888 0.121915355
0003f0 3d 8b 55 be d7 4a 7f 3e e0 90 37 3e a0 69 51 3d
       -0.20853896 0.24930893 0.17926359 0.051126122

bias f4 [16]
000000 5d 3b 3a bc f7 fb d1 3d 41 40 a1 bd 89 9d dc 3c
       -0.011366692 0.102531366 -0.078735836 0.026930587
000010 47 97 3b 3e 41 b4 b8 3d 27 8d 33 bd ec 31 e3 bd
       0.18319426 0.09018756 -0.043835785 -0.11093506
000020 0f d6 8a 3d 4a ad e6 3d 7d bf c4 3d e4 46 52 3e
       0.0677911 0.11263521 0.09606836 0.20534855
000030 3f fc fd bd 7c f3 33 be 14 a3 66 3e 3a e1 eb 3d
       -0.12401628 -0.1757335 0.22523147 0.11517568

running_mean f4 [16]
000000 a8 08 b9 be ec 56 b1 3e ab 43 19 3d 59 a9 b8 be
       -0.36139417 0.3463663 0.03741805 -0.36066702
000010 81 da 2f 3c c1 55 1a 3e b2 7c ff bd 49 ad c0 be
       0.010733248 0.15071775 -0.124749556 -0.37632206
000020 05 96 37 3e 4b d3 25 bd ef 92 17 be 94 29 b1 3d
       0.17928322 -0.040484708 -0.14802144 0.086505085
000030 77 d4 11 3f 49 0c 65 be 87 85 f3 3e af a7 56 3e
       0.5696482 -0.22367968 0.4756281 0.20962404

running_var f4 [16]
000000 8a 10 15 3c 5c ec 5d 3b ba 00 f4 3a 85 0c 54 3c
       0.0090981815 0.0033862805 0.0018615939 0.012942438
000010 28 f8 fd 3a 9b 21 8f 39 23 b8 80 3b 6c d2 9f 3b
       0.0019376324 0.00027300123 0.003928201 0.004877379
000020 81 4a 56 3a a1 7d 8f 3a f7 4f c4 3b 8e 25 94 3a
       0.0008174554 0.0010947475 0.005990978 0.0011302696
000030 e1 52 cf 3c dc dd bf 3b 15 47 89 3b 97 2d ba 3b
       0.025308074 0.005855305 0.004189382 0.0056817043

weight f4 [16]
000000 23 d4 c6 3e 98 66 c8 3e 4b 59 50 3f 71 96 6b 3f
       0.38833722 0.39140773 0.8138625 0.9202643
000010 43 51 cc 3e 08 42 47 3e c3 7c e9 3e 34 47 72 3f
       0.39905748 0.19458783 0.45602998 0.946399
000020 9a cc 23 3f 6f 73 dd 3e 3d 43 a1 3e 51 91 b5 3e
       0.6398407 0.4325213 0.3149661 0.3546243
000030 7b 98 eb 3e e4 38 52 3f 62 04 21 3f c0 8b 6e 3f
       0.4601477 0.8211806 0.6289731 0.9318199

bias f4 [16]
000000 b3 cc 23 bd f4 e9 26 be d8 5f c9 be 21 a9 85 bd
       -0.03999014 -0.16300184 -0.39330935 -0.065263994
000010 50 81 e2 bd c3 ae 19 be 87 01 11 3d 44 85 81 bd
       -0.11059821 -0.15008073 0.035401847 -0.063242465
000020 b6 47 fa be 53 16 0f be fa 7f 4f bd 9e 27 a5 bd
       -0.48882836 -0.1397336 -0.050659157 -0.08064197
000030 cc cc 4c be ba ed 81 bd 82 3e 16 be 44 d9 1f 3b
       -0.19999999 -0.06344171 -0.14672282 0.0024390975

weight f4 [32, 16, 5, 5]
000000 49 ac 14 3e d9 b4 81 3d af 64 24 bd 48 d0 80 be
       0.14518847 0.06333322 -0.04013508 -0.25158906
000010 51 4e 7f be 85 5f 59 bd ac 24 20 3d c5 7c 94 3d
       -0.24932219 -0.05306961 0.039097473 0.072503604
000020 53 fe 82 3d 62 ff ac bd ab 9a c7 3d 3a 68 ab bb
       0.06396165 -0.08447148 0.097462974 -0.0052309306
000030 0b 93 61 bd da c5 61 3e a3 e0 d4 be b3 5d 62 3d
       -0.05507187 0.2204813 -0.41577634 0.05526514
000040 9a c4 79 3d ce bc 4c 3b 8f 8c e6 3d 6b 53 82 3e
       0.06097851 0.0031240466 0.11257278 0.25454268
000050 1c 02 b0 bd 6d 54 d9 bc 94 71 69 3a c6 2a 79 3b
       -0.08594152 -0.026529515 0.0008905169 0.003801988
000060 dd d1 cb bc ff d0 73 3d 68 5a dd bd f5 83 fd bc
       -0.024880344 0.059525486 -0.10808259 -0.030946711
000070 cd 6d a6 3d 4a f1 5f 3c 6e 67 12 bd 29 55 0f be
       0.081264116 0.013668368 -0.03574317 -0.1399733
000080 50 2e 4a be c3 de 54 3d fd fe 1b be fd 2f b8 3d
       -0.1974423 0.051970255 -0.15233989 0.08993528
000090 ba 7d a2 3d f0 0c 34 be a5 25 30 3d ad 6c 63 3d
       0.07934137 -0.1758306 0.04300465 0.055523563
0000a0 5c a8 33 bd f7 26 3c 3e 08 6d 1f bd 8b f2 03 3c
       -0.043861732 0.18374239 -0.03892234 0.008053432
0000b0 a7 73 38 3d ba ac 92 3d 9b 9a d1 3d 5c 5b 30 bd
       0.04503217 0.07161851 0.10234567 -0.043055877
0000c0 cc 5c 49 3e 5d 24 98 3e ee e2 c4 3d 89 e5 f9 3d
       0.19664305 0.29715243 0.09613596 0.122019835
0000d0 ff c3 7f 3e 9f aa 88 3d 30 4a 2f bb af cf 7d 3d
       0.2497711 0.066731684 -0.00267471 0.06196564
0000e0 29 47 0d 3d cf 17 37 bb e3 b7 c2 3b 36 90 a7 bc
       0.03449169 -0.0027937775 0.005942331 -0.020454507
0000f0 79 40 ca 3b 11 fe 92 3c 24 9a 95 3d e2 22 21 3d
       0.0061722365 0.017943414 0.073047906 0.039339907
000100 43 16 78 bd d7 90 93 3d ab 8f ed 3d 11 d9 49 3e
       -0.060568105 0.072053604 0.11599668 0.1971171
000110 c5 3c 34 3e 44 ec 91 3d 59 19 95 3d b2 a6 af bc
       0.17601307 0.07125142 0.07280225 -0.021441791
000120 13 5e 0e be 9e 6b ca bb e7 9a 4e 3e 60 18 ae bc
       -0.13903074 -0.0061773797 0.20176278 -0.021251857
000130 52 8e 92 bc 9e 68 48 be 4a 8b 16 bd 9f dd 1e 3d
       -0.01789013 -0.19571158 -0.03675393 0.038785573
000140 63 eb 1a be 60 b2 12 be 20 1a 07 be 22 fd 22 be
       -0.15128855 -0.14325857 -0.1319356 -0.15916875
000150 04 2a 8d bd 8e 5c a0 3d 17 f0 c5 3c a7 b8 d4 bd
       -0.068927795 0.078301534 0.024162335 -0.10386782
000160 62 9f c6 3c 23 d9 a3 3d 94 a7 8e bc 71 bb 14 3e
       0.024245922 0.080004 -0.017413892 0.14524628
000170 8f 9f 38 3d 5f bf 1f 3d 15 32 a1 be 9f 6a 32 3e
       0.045074042 0.039000865 -0.31483522 0.17423485
000180 b6 71 22 3e 32 f9 67 bd df 8a 53 3d 15 e7 91 3c
       0.1586369 -0.056634136 0.05164611 0.017810384
000190 f5 0c a0 3b 9a 25 32 be 43 79 b1 3c 47 3b e3 3d
       0.004884357 -0.17397156 0.021664267 0.11095291
0001a0 4f df 9a 3c 6b b0 1e 3d ff 45 b2 bd 8d a1 f6 bd
       0.01890531 0.038742464 -0.08704757 -0.12042532
0001b0 a0 19 29 be cc a2 88 be 70 81 28 3e 22 98 6f 3e
       -0.16513681 -0.26686704 0.16455626 0.23397878
0001c0 b0 3d b1 3d b4 be 9c 3d dc 4c 16 3e 49 a7 fc 3d
       0.08654344 0.07653561 0.14677757 0.123365946
0001d0 69 36 6d 3d ba a6 5a 3d 00 71 4e 3d cc 5a 3b 3e
       0.057913218 0.05338166 0.050400734 0.18296355
0001e0 c7 65 03 be 28 00 5b 3d 32 f7 e8 39 0e 08 93 3c
       -0.12831794 0.053466946 0.00044434663 0.017948177
0001f0 77 cf a7 3d 38 a6 6a 3d ab 63 35 3b ad 8f 32 be
       0.08193868 0.057287425 0.0027677815 -0.1743762
000200 a2 53 9f 3d 35 c2 81 3d 91 90 d9 3d c5 83 ba 3c
       0.077796236 0.0633587 0.10623277 0.02276791
000210 35 05 90 bc 0a 9f 66 bc 28 20 cc bd ca 85 81 3c
       -0.017580608 -0.014076004 -0.09967071 0.015810866
000220 3b 90 09 3e 8c 91 26 be 48 91 04 be 2a 6e 86 bd
       0.13433926 -0.16266459 -0.12946045 -0.06563981
000230 f3 7a ef 3d f2 3f f9 3d 1f 8a f3 3d af f4 04 3e
       0.116933726 0.121704 0.11891579 0.12983964
000240 9c 01 76 3d b8 96 e5 3d 3e 7e cd 3c d4 36 b5 3d
       0.06006013 0.11210388 0.025084611 0.08848348
000250 bd b3 00 3d 86 00 4f 3c a9 c9 c9 3c af 3d f4 bc
       0.03142141 0.012634402 0.024632292 -0.02981457
000260 94 70 1b be 08 56 16 be 1d 60 c2 bc e9 8e 8d 3c
       -0.15179664 -0.14681256 -0.023727471 0.017280059
000270 b6 28 64 3e a2 4c 84 bc 49 4e 26 be 7c 36 69 be
       0.22281155 -0.016149823 -0.16240801 -0.2277469
000280 e6 c1 83 bd 60 9c 1a 3e 50 ba 2b be 90 a6 0a 3a
       -0.064334676 0.15098715 -0.16770291 0.0005289102
000290 4c 4a 00 bd 94 a0 e6 3d 70 09 54 3d 8b 21 1a be
       -0.031320855 0.112610966 0.051766813 -0.15051858
0002a0 23 ef df bb 9d 2d b3 3b cd 9f 01 3b f3 db bf bd
       -0.0068339272 0.005468084 0.0019779087 -0.09368124
0002b0 ba 9a 3a bd aa 2b 83 bd aa ac ef 3d 40 f2 8f bb
       -0.045557715 -0.06404813 0.11702855 -0.004392892
0002c0 29 8f cd bd 6c e1 66 3d 74 d7 59 3d 72 04 f1 bd
       -0.10037071 0.056367323 0.053183988 -0.11768426
0002d0 d9 e0 5b bc 79 70 35 bd 02 fe 03 3d 59 80 b6 bd
       -0.013420307 -0.044296715 0.032224663 -0.08911199
0002e0 5b d7 b1 bd f5 c6 45 bc 91 c7 b0 3d 65 e6 90 3d
       -0.08683654 -0.012071361 0.08631814 0.07075194
0002f0 b8 93 42 bd 6b 65 06 3d 12 33 da b9 eb 2a 03 3d
       -0.047504157 0.032811563 -0.0004161825 0.03202335
000300 05 e5 80 bd ca 80 60 3e f0 85 84 3e 4e d8 02 3d
       -0.06293682 0.21924129 0.25883436 0.031944565
000310 64 9c 09 3e 37 3c 25 3e 45 a1 81 bd bf 1a 48 be
       0.13438565 0.16136251 -0.06329588 -0.19541453
000320 c1 5f 9a 3d 06 47 a7 3d b0 1c e2 3d a0 9e 22 3e
       0.07537795 0.081678435 0.11040628 0.15880823
000330 aa 11 ea bb 6e 63 d5 3d d0 d8 ad bc 94 b5 73 be
       -0.007143219 0.10419355 -0.021221548 -0.23799735
000340 2c 88 2a be e5 54 b6 bd 46 cc e3 3d ef d3 d3 bc
       -0.16653508 -0.08902911 0.111229464 -0.025857894
000350 98 37 ed 3d 90 65 1b 3e 6a 22 2c bd 71 6b 68 bd
       0.11582869 0.15175462 -0.042025007 -0.05674309
000360 2f 74 7c 3d 59 ae 06 be e4 2f c6 3d 54 ce ed 3a
       0.06163424 -0.13152446 0.09677103 0.0018143156
000370 cd 2b 8e bd a0 1f 2e bd 80 e6 5b 3c c7 d5 6b 3e
       -0.06941948 -0.04251063 0.013421655 0.23030768
000380 dc 81 01 3e cc 20 22 be 0c 8f 83 3d 15 eb f2 3c
       0.12647194 -0.15832824 0.064237684 0.029653111
000390 16 e5 33 3c cc 9d 33 be 19 15 9b bd 76 3a 65 bc
       0.010979911 -0.17540663 -0.075723834 -0.013990989
0003a0 26 7f e9 bd 40 2f 2d bd 22 cc 62 be 4f d1 9b 3d
       -0.11401205 -0.04228139 -0.22148183 0.07608282
0003b0 19 ab 19 3d dc 85 5b 3c c4 b2 7e 3b 6d ea 08 3e
       0.037516687 0.013398614 0.0038863877 0.13370676
0003c0 e6 02 4e 3d fa 7f e5 3d 01 41 3e bd 75 41 e2 bd
       0.050295733 0.1120605 -0.04644871 -0.11047641
0003d0 01 72 82 bd 1e a8 da bd 1d a9 a8 3d b7 5f 9d bd
       -0.06369401 -0.10676597 0.08235381 -0.07684272
0003e0 0c 35 02 bd d0 53 2e 3d 99 13 09 3e c3 44 c6 bd
       -0.03178887 0.0425604 0.13386382 -0.09681084
0003f0 23 e6 18 3e 11 ba d5 bd a0 28 0f b9 1a da ab 3e
       0.1493154 -0.1043588 -0.00013652677 0.33564836

bias f4 [32]
000000 50 17 16 3d c0 43 11 3d 2e 86 d8 3d 28 8a 3c bd
       0.036643326 0.035465002 0.10572468 -0.046030194
000010 67 93 b8 bd 58 ab 36 bd 72 96 86 bd 5a 2e f5 3b
       -0.0901249 -0.044597 -0.06571664 0.007482332
000020 cb d3 8b 3d a2 35 e8 bd 50 ad ea 3c b5 9d 4c bc
       0.06827506 -0.11338355 0.028647095 -0.012488772
000030 cf 88 10 3c 58 29 ae 3b fc e4 96 3d 8e 29 5c 3d
       0.00882168 0.005314987 0.07367894 0.053750567
000040 6a f2 9b 3c 60 3b 68 3c d6 21 94 bc 3e ab dd bc
       0.01903649 0.014174312 -0.01808254 -0.027059194
000050 64 86 ca 3d 75 56 39 3d c2 31 5d bd bb 1b c5 3a
       0.09888914 0.045248467 -0.05400253 0.0015038172
000060 3f d0 6e 3d 2e 1b 7d bb ab 68 f3 3c 9f 2a 7e bb
       0.058304068 -0.0038620937 0.029712996 -0.0038782728
000070 8b f6 12 3c b9 52 a5 3d d1 93 88 bc 6f 9d 93 bd
       0.008969913 0.08072419 -0.016672047 -0.072077624

running_mean f4 [32]
000000 11 c9 bf 3d 09 1c 24 3f 23 a4 17 3f b6 5f b5 3d
       0.09364522 0.6410528 0.5923483 0.08856146
000010 16 6f 6c be 4b c0 0e bf 74 e9 cc 3e 4b 1d da be
       -0.23089251 -0.55762166 0.4002186 -0.42600474
000020 66 bf e5 be 9e 1c 7a bf f4 e1 d1 3e a5 bb e7 bd
       -0.44872588 -0.97699916 0.409927 -0.11315087
000030 f5 29 1d bf 3a 4d 7f bf 75 19 1a 3f 1c 4a 8c be
       -0.61392146 -0.99727213 0.60195094 -0.2740029
000040 ea e6 81 be 9c 12 5b be 15 1b b4 be c7 04 20 3e
       -0.25371486 -0.21393818 -0.35176912 0.15626822
000050 df 62 04 3e c8 7a fa be a1 2c 61 be 83 6f 71 3f
       0.12928341 -0.489218 -0.21989681 0.9431078
000060 9e 6d 34 bf d8 fd 4c 3f 46 c2 8f bd 63 a2 8a bf
       -0.7047976 0.80074835 -0.070194766 -1.0830806
000070 86 24 ef 3e 12 3b ee 3d 15 8b db be 56 52 cc be
       0.46707553 0.116323605 -0.4287955 -0.39906567

running_var f4 [32]
000000 32 09 6e 3e a0 07 2b 3f bb 04 0c 40 dc 08 06 41
       0.23245695 0.6680851 2.1877887 8.377163
000010 a4 05 d9 3e 83 0f 65 3f b4 ef 23 40 d5 36 89 3e
       0.42387116 0.89476794 2.5615053 0.26799646
000020 91 28 37 40 1f 1c 20 3f 7f 03 8d 40 10 fc 41 40
       2.861851 0.6254291 4.406677 3.0310097
000030 ba 68 64 3f 3f ed d8 40 d2 96 e6 3f 84 d5 83 3e
       0.892223 6.7789607 1.8014777 0.25748837
000040 22 8a 23 3f 7b 04 7f 3f e5 53 ec 3e 48 17 35 40
       0.6388265 0.9961621 0.46157756 2.829546
000050 b5 a0 d9 3e fd 7e 63 3f 9a ae e4 3f cc e4 a5 3f
       0.42505422 0.88865644 1.7865784 1.2960448
000060 9a f8 d7 3f 6f b9 8a 40 cd 76 ce 3f f9 58 4d 40
       1.6872742 4.335136 1.6130005 3.2085555
000070 15 63 29 40 3e ac 73 3f dd f0 8c 40 ae d3 e7 3f
       2.6466725 0.95184696 4.4044023 1.8111475

weight f4 [32]
000000 06 c5 09 3e 40 13 4d 3e 69 41 33 3f 2f cc 4b 3f
       0.13454065 0.20026875 0.7002168 0.79608434
000010 da 2a 83 3f 68 ca 2e 3f cb b8 a6 3e ef 9f f8 3e
       1.0247452 0.682776 0.3256286 0.4855952
000020 f5 e1 40 3f 42 5d 3e 3f b9 0a 2e 3f 57 09 d3 3e
       0.75344783 0.7436105 0.6798511 0.41218063
000030 81 3d ab 3e 05 d9 59 3f 16 40 3b 3f bd 8c 1c 3e
       0.3344536 0.8509677 0.7314466 0.15288062
000040 3f ef 89 3f fb 00 16 3e 56 75 01 3f f9 ee 33 3f
       1.0776137 0.14648812 0.50569665 0.7028652
000050 14 5e 16 3e 9e b9 1a 3f a0 13 b7 3e 9d 72 4c 3e
       0.14684325 0.6043948 0.3575716 0.19965596
000060 da e7 18 3f 35 20 24 3f 46 5b 39 3e 25 16 6c 3f
       0.5972878 0.64111644 0.18101224 0.9222129
000070 a9 29 79 3e 83 d2 bd 3e 64 85 48 3f 4c bf 42 3f
       0.24332298 0.3707467 0.7832854 0.76073146

bias f4 [32]
000000 98 4d 7a be 0f 05 8f be 4e 54 5e be c9 59 82 bd
       -0.24443662 -0.27933547 -0.21711847 -0.063647814
000010 d1 d9 ec bd 13 6b f0 bd 8f de 8d bd d5 f0 d7 3c
       -0.11564983 -0.11739173 -0.06927215 0.026359955
000020 14 27 1e bb 68 b6 ed ba c7 d4 86 bc 1f da f9 bd
       -0.002413218 -0.0018136026 -0.016458882 -0.121998064
000030 aa 96 9f bd 47 5c 96 3d 76 f1 5a be 42 ca e1 bc
       -0.07792409 0.07341819 -0.21381173 -0.027562264
000040 0c d0 07 be 86 9f 42 be 53 11 51 be 42 0b 75 bd
       -0.13262957 -0.19006166 -0.20416765 -0.05982519
000050 7d 38 cb bd e3 3a 48 be 7b d1 ad 3c ff 1f 21 be
       -0.09922884 -0.19553714 0.021218052 -0.15734862
000060 28 a9 de 3b 79 2a 66 be 8f e5 7c bd b8 7d bf 3c
       0.0067950673 -0.2247714 -0.06174236 0.023375377
000070 3b 84 ed bd b1 32 bc 3d e6 a1 0e bc 7a c8 7e bd
       -0.115974866 0.09189356 -0.008705592 -0.062202908

weight f4 [32, 32, 5, 5]
000000 db fb 12 be 86 df d4 bc 7f a8 ea bd 59 61 98 3c
       -0.14353888 -0.02598549 -0.11457919 0.018601106
000010 f9 23 96 bc 7c 0b 11 ba 40 72 85 3d c9 f6 e7 3d
       -0.0183277 -0.00055330223 0.06515932 0.113263674
000020 ee 82 53 bd e9 24 23 bc d1 bd 2f 3e 14 eb 12 3d
       -0.051638536 -0.009957531 0.17162253 0.03586872
000030 2e bb 9e 3d 07 59 4c bd 94 f1 20 3e 32 50 a1 3c
       0.077505454 -0.04988959 0.15717155 0.01969156
000040 da 23 20 3e c6 f6 7c bc ab e0 d5 3d 91 50 88 3d
       0.15638676 -0.015439695 0.10443243 0.06655992
000050 20 bd a8 3d 22 96 41 bd 07 8c 0a bc 5b 08 52 bd
       0.08239198 -0.04726232 -0.008456237 -0.0512775
000060 d3 1e b6 3d 9d 33 e5 3c f4 61 9f be b8 ce 85 3d
       0.08892598 0.027978713 -0.3112942 0.06533569
000070 2f e8 1c be f4 98 32 be 72 6c 2e be b4 09 c8 3d
       -0.15322946 -0.1744116 -0.17033556 0.09767476
000080 37 b7 3f 3c e9 8e 56 3d de 16 92 bd 9b 23 74 be
       0.011701397 0.052382383 -0.07133268 -0.23841707
000090 3f 59 e8 3d 52 04 2f be 72 50 06 be e5 77 92 bd
       0.11345147 -0.17091492 -0.13116625 -0.07151774
0000a0 65 7a 99 3e 32 5d 00 3c 3d 65 39 bd d2 11 49 3d
       0.29976192 0.0078347195 -0.045262564 0.04908926
0000b0 98 bc bf bd 91 39 e0 bd 1f 63 d3 3d ab 7d 8f bd
       -0.09362143 -0.1094848 0.1032164 -0.07006391
0000c0 55 2f 45 bd b1 77 f4 bd d7 4e b7 bd 41 19 e3 bd
       -0.048140842 -0.11936892 -0.089505844 -0.11088801
0000d0 f8 46 f0 bd ad e1 02 be 71 e1 cc bd 48 6d 79 bd
       -0.11732286 -0.12781401 -0.10003937 -0.060895234
0000e0 f5 3e 35 be 3a 61 6d bb 01 c1 47 bd 50 cb 84 be
       -0.17699797 -0.0036221282 -0.048768047 -0.25936365
0000f0 46 b9 65 3e a0 e0 0f bd 28 4e 92 3e bd 37 14 be
       0.22433957 -0.03512633 0.28575253 -0.14474387
000100 9c cc 98 3d 49 b1 a2 3c 6f 80 e9 39 5a 64 2e 3e
       0.07460901 0.019859927 0.00044536914 0.17030469
000110 d5 f7 68 bd 48 d3 41 bd dd f4 95 bc 8d 2e 51 bd
       -0.056876976 -0.047320634 -0.018305236 -0.051069785
000120 87 ae 21 be 18 27 97 bd cd 31 80 3d 5b 0a 97 bd
       -0.15789233 -0.073805034 0.06259499 -0.07375022
000130 10 82 6c bc 16 4f 2a 3e e5 a3 07 be 7e 46 08 3e
       -0.014435306 0.16631731 -0.13246115 0.1330814
000140 8d 67 f0 3a e3 7e 13 be e8 9d 91 3d 29 e6 b7 3c
       0.0018341407 -0.14403872 0.07110196 0.022448616
000150 cf fb 84 3d b5 e1 ef bd 0e ca af 3c ed e2 25 bb
       0.06493341 -0.11712972 0.021458652 -0.002531226
000160 87 93 7f 3d 7f bf 0a 3d be 49 28 bd 8f 47 82 bd
       0.062396552 0.03387403 -0.04108595 -0.06361305
000170 5c 86 87 3c 71 94 6b bc 15 6b b3 bd 1a 37 2d 3d
       0.01654356 -0.014378653 -0.08760659 0.042288877
000180 df e3 25 bd 07 94 7e 3c c7 bf e9 bc 8e 9b 9f bd
       -0.040500518 0.015538222 -0.02853383 -0.077933416
000190 5a 0c 9c bd b6 13 ba bd a3 40 0a be 1f 2d 02 be
       -0.076195434 -0.09085791 -0.1350122 -0.12712525
0001a0 3e a6 8d bd c4 d0 19 be 18 2c 00 3d 09 5b cf bd
       -0.06916474 -0.15021044 0.03129205 -0.101247855
0001b0 3a 8b 74 3c 11 a9 14 bd 4c c4 65 3d d9 20 de 3d
       0.014925772 -0.036294047 0.056095406 0.10846109
0001c0 ef be a8 3d a5 5d c7 bc ca e4 64 3e cb 7f 09 3e
       0.08239543 -0.024336645 0.22352901 0.13427655
0001d0 42 66 91 be a2 00 9b 3c 2b fa 2d be a3 7b 38 bc
       -0.2839833 0.0189212 -0.16989963 -0.011259946
0001e0 64 9d 23 3e bc 1a 84 3e d3 22 f9 bc 5b 42 7f 3c
       0.15978009 0.25801647 -0.030412113 0.015579785
0001f0 68 ad 2b bd f3 07 13 3e 7c 94 ca 3d 4d 49 2d 3d
       -0.04191342 0.14358501 0.098916024 0.042306233
000200 2d 0b 00 3d 19 55 28 bd 53 69 56 3e ce a4 07 3e
       0.031260658 -0.04109678 0.20938616 0.13246462
000210 9a 54 1d be 5d 6e bd bd 46 f0 ad bd 71 03 f2 3d
       -0.15364304 -0.09249566 -0.08493094 0.11817063
000220 44 5f 00 3e bd d7 84 bd a2 4a 40 bd ac 43 d2 3c
       0.12536341 -0.06486461 -0.046946175 0.025667034
000230 8f a4 ca 3d 51 52 d9 3d da 64 79 bd 1d 5c 8a bd
       0.09894668 0.10611404 -0.060887195 -0.067558505
000240 fc e4 1a bc da e1 36 bc 57 9b 39 be f5 59 9b bd
       -0.009454008 -0.011162246 -0.18125664 -0.07585517
000250 65 c8 80 3c 59 e8 8a bd e1 e5 13 be e7 6f 81 bd
       0.015720556 -0.06782598 -0.1444316 -0.06320172
000260 6c 1a a6 bd 4c 75 95 bd 20 c7 60 bd 70 6a ab bd
       -0.08110508 -0.07297763 -0.0548774 -0.08369911
000270 7c 41 5c be 7b 1a 54 be 93 e4 c7 bd 60 9d 5e 3c
       -0.21509355 -0.20713226 -0.09760394 0.013587326
000280 8b 1e 73 be 56 62 ac 3d f8 a4 ff bd f3 85 0e be
       -0.2374212 0.084171936 -0.12482637 -0.13918285
000290 4d 06 0f be 4e db 20 3e a7 1f cc 3d 70 a9 24 bd
       -0.13967247 0.15708658 0.09966975 -0.04020065
0002a0 59 c4 87 bd 5f 2d 1c bd f5 57 3f be 6a 7b 0a 3e
       -0.06629247 -0.038129207 -0.18685897 0.13523641
0002b0 b2 ff ed 3d b9 2b b8 bc 80 10 82 3d 7c 35 af bd
       0.11621036 -0.022481786 0.063508034 -0.08555123
0002c0 a4 2e ba 3d 23 57 89 bd af d2 e7 3d b2 6b c5 3d
       0.09090927 -0.06706073 0.113194816 0.09639682
0002d0 f4 ce 81 bd 66 a3 4a 3e db b9 dc bc 99 72 a2 bc
       -0.06338301 0.19788894 -0.026944092 -0.019830035
0002e0 1e b2 0d be 47 b9 99 3e 06 ac b7 3c ba a0 85 bd
       -0.13837478 0.30024168 0.022420894 -0.06524797
0002f0 f3 db f0 bd 05 51 b8 bd 7d 82 7e bd 08 30 2c 3e
       -0.11760702 -0.08999828 -0.062136162 0.16815197
000300 75 1b 0c be 67 9f 81 bd a4 87 0a 3e 16 26 00 3d
       -0.13682349 -0.06329232 0.13528305 0.03128632
000310 4a ae cc bd 07 dc 96 b9 a6 6c 80 bd 24 54 d3 3c
       -0.099941805 -0.00028774163 -0.06270723 0.025796957
000320 49 87 d0 3d a3 81 45 3d ef b2 a8 3d d9 f0 75 3d
       0.101820536 0.048219334 0.08237254 0.060044143
000330 3e d6 9c 3c 40 1d 97 bd 6d 36 9f 3d d4 c5 cf bd
       0.019145127 -0.07378626 0.07774053 -0.101451546
000340 58 7e 15 be cd a3 a9 3a 81 57 0c 3c 3a 34 f7 3c
       -0.14598978 0.0012942493 0.008565784 0.03017627
000350 31 0d e7 bc 11 71 12 be ab 63 30 3e 02 1f 93 3d
       -0.028204532 -0.14300944 0.1722552 0.07183649
000360 6c 3b e8 bd 5f 70 f1 bc c6 13 c0 bd c6 2c d3 bd
       -0.11339459 -0.029472528 -0.093787715 -0.10311274
000370 17 39 93 3c e8 f1 25 3d 1e 79 b1 bd 43 a7 bf bd
       0.017971558 0.040513903 -0.086656794 -0.093580745
000380 e7 99 ad bd c6 d2 8c 3d 52 65 10 3d f8 6a eb 3d
       -0.0847662 0.06876139 0.035252877 0.11495012
000390 8e 88 8b 3d 4d a5 f2 3d ef f2 cd 3d 0f 9d d2 3d
       0.06813155 0.11847935 0.100561015 0.10283863
0003a0 c6 df 1f bc fa 78 e7 bc 72 92 c7 3d 30 97 d4 bb
       -0.009757942 -0.028255928 0.09744729 -0.0064877495
0003b0 e8 3b 47 3d 2f b8 bc 3c 21 8e 4a 3e 3d b3 29 3d
       0.048641115 0.023037044 0.1978078 0.0414307
0003c0 a6 9c 9b 3d 13 27 32 3e 9b c1 21 3e ef 3a 9f 3d
       0.07598238 0.17397718 0.15796511 0.077749126
0003d0 98 e5 d0 3c d9 13 8c bd bd c6 14 be 28 71 34 bd
       0.025500104 -0.06839723 -0.14528938 -0.044053227
0003e0 ba 64 9f be 2e 04 da bd 98 d9 9b bd 75 41 73 bd
       -0.31131536 -0.106453285 -0.07609862 -0.059388597
0003f0 35 2c 50 bd 0c 74 8e bc cd 98 17 bd 9f 6f b1 bd
       -0.05082341 -0.01738932 -0.037010957 -0.08663868

bias f4 [32]
000000 e0 63 2b be 07 8d bb bd 8c 1b 82 3d 06 4b 12 bd
       -0.16737318 -0.09157758 0.063529104 -0.03571608
000010 80 d2 9f 3c 47 76 ee 3c b2 9a 8a 3e 9f 51 c9 3d
       0.019509554 0.029109133 0.27071148 0.09830021
000020 1f 67 91 3e c5 cb 18 be 5e 71 73 3e 7a aa 30 3e
       0.28398988 -0.14921482 0.23773715 0.17252532
000030 94 81 42 3c 68 23 18 bd c4 63 88 3e 99 f8 d9 bd
       0.011871714 -0.03714314 0.26638615 -0.10643119
000040 29 93 29 be 54 32 81 bb 6c 2d 3b 3d 85 e0 cb 3c
       -0.16560043 -0.003942767 0.045697615 0.024887333
000050 eb 07 d8 bc e9 f3 a4 3c 61 53 c1 bd 18 c4 0d 3d
       -0.026370963 0.020135837 -0.094397314 0.034610838
000060 83 d5 f0 3d f1 8f c5 bd e1 eb 5a be 91 b0 a4 3e
       0.11759474 -0.09646595 -0.21379043 0.3216596
000070 af 6d 21 3e a0 de e6 3c 53 8d 04 be 44 75 10 3b
       0.15764497 0.028182328 -0.12944536 0.0022042552

running_mean f4 [32]
000000 6e 7e 16 bf 3d b0 34 bf a7 e8 6d be 41 fc 33 3e
       -0.58786666 -0.7058142 -0.23233281 0.17576696
000010 ff 3b c2 3d b4 1f d0 bf 57 0d 2f 3e 40 86 a3 bf
       0.094840996 -1.6259675 0.17094932 -1.2775345
000020 5c cd 68 3f b8 e8 2a bd 10 35 2f 3f de ab bf be
       0.90938354 -0.041725844 0.6844034 -0.37435812
000030 67 8f 36 3f 45 5e 6b 3e 1a 5a d0 3f 94 c5 6f 3f
       0.71312565 0.2298518 1.6277497 0.93660855
000040 0d 20 a5 3d 47 ee 0a bf 40 10 bb be 27 ce 57 3f
       0.08062754 -0.5426983 -0.36535835 0.8429894
000050 b7 7f 8a bf 21 f3 56 3f f9 c9 8b 3e 5a db f6 3f
       -1.0820225 0.83964735 0.2730253 1.9285691
000060 f4 2c 13 bf 94 63 dc be f1 45 57 bf b2 98 4d 3f
       -0.5749047 -0.43044722 -0.840911 0.8031112
000070 4c a6 3a 3f 97 5f c0 be 39 60 f9 3e 32 9d d8 bf
       0.7291 -0.3757293 0.48706225 -1.6922972

running_var f4 [32]
000000 ed 4e b5 40 1c fc 01 41 b6 24 b2 41 d6 96 95 40
       5.6658845 8.12405 22.267925 4.6746626
000010 03 6c 1e 41 aa b6 6e 42 2e d1 cb 40 5d 5d a9 41
       9.90137 59.678383 6.3692846 21.170588
000020 6a 94 0c 41 bd af 18 40 92 e8 b5 40 2b 92 fb 40
       8.786234 2.3857262 5.68464 7.861593
000030 1e 04 d2 40 66 16 a4 40 e7 b2 43 41 bb ff 99 40
       6.5630026 5.127734 12.231177 4.812467
000040 9a c7 10 41 c3 a7 fb 3f 6f e9 bc 40 ef c7 27 40
       9.048731 1.9660572 5.9034953 2.621578
000050 ff 78 0f 42 b1 ff 2e 40 7e 99 87 40 2f 12 94 41
       35.86816 2.7343562 4.237487 18.508879
000060 ab 8e ec 41 1d 32 00 41 8d 85 c9 40 10 f9 a7 40
       29.569662 8.012235 6.2975526 5.249153
000070 a5 23 27 41 1a 3e 85 40 b8 e8 db 3f 88 0e 0c 41
       10.446202 4.1638308 1.7180395 8.753548

weight f4 [32]
000000 32 9b 0d 3f b9 dd e3 3e 6c d5 34 3f b2 bd 24 3f
       0.55314934 0.44505098 0.70638156 0.6435195
000010 70 2a a6 3f b0 f9 a5 3f db a9 cc 3f 32 c8 33 3f
       1.2981701 1.2966824 1.5989336 0.7022735
000020 e4 02 dc 3f cf bb 8a 3f 1d c7 a1 3f 9a 21 42 3f
       1.7188382 1.0838565 1.263889 0.7583252
000030 ee 8d bb 3f d1 e7 95 3e 66 77 ee 3f 85 99 43 3f
       1.4652689 0.29278424 1.8630188 0.7640613
000040 45 0e a3 3f ec 6c 69 3f c0 a4 07 3f 73 72 7d 3f
       1.273873 0.91181827 0.52985764 0.9900276
000050 91 8e 45 3f 63 fd 9a 3f 25 06 36 3f da da fd 3e
       0.77170664 1.2108577 0.71103126 0.49581033
000060 f7 10 cf 3f 29 9e 96 3f cd 9c 71 3f 44 45 df 3f
       1.6177052 1.1767017 0.94379884 1.7443013
000070 3d 79 df 3f bf 1e 51 3f a2 53 5c 3f 60 d1 83 3f
       1.7458874 0.8168754 0.86065114 1.0298271

bias f4 [32]
000000 9f fb 74 be 79 c6 30 3e 18 2f 11 3e 4b df 5e 3e
       -0.23924111 0.17263211 0.14178121 0.21764867
000010 77 59 64 3e 68 c4 3a 3e c6 88 9b 3e a2 ac 1b 3e
       0.22299753 0.18238986 0.30377787 0.15202573
000020 dd dd b6 3e 3d 6e d2 3d fe af 8b 3e 50 0f 76 be
       0.35716143 0.102749325 0.2728271 -0.24029279
000030 72 fe e7 3e 80 96 2f 3e 9d 7d 0e 3f 88 77 38 3e
       0.45311314 0.17147255 0.5566042 0.18014348
000040 d6 3d 93 3e 1e 7d 27 3e f3 d7 3e 3e 45 7a 57 3e
       0.28758115 0.16356322 0.18637066 0.21042736
000050 2e 4e ff 3d ae 56 24 3e 49 ce 31 3e b9 28 41 3e
       0.124660835 0.1604869 0.17363848 0.1886319
000060 5f 42 83 3e 93 d8 71 3e ec 1a 27 3e 78 19 7e 3e
       0.25636575 0.23617773 0.16318864 0.24814403
000070 93 d6 bf 3e 98 58 38 3e 85 57 ef bc d3 ef c8 be
       0.37468395 0.18002546 -0.029216537 -0.3924547

weight f4 [3, 1536]
000000 cd 16 3c 3e 22 71 6a 3d 34 e7 1d 3e ef 93 a2 3d
       0.18368073 0.057236798 0.15420228 0.07938372
000010 aa 15 b9 3d 2f 1b b4 3d ce ef 6c 3e 78 b2 31 bd
       0.09037335 0.08794247 0.23138353 -0.04338309
000020 dc a8 09 3d 4c 66 4b 3e 36 61 1a 3d 04 63 a2 3b
       0.033608302 0.19863242 0.037690364 0.0049556512
000030 0e d8 22 be ce b5 08 bc 68 23 22 3e d9 51 a4 bd
       -0.15902731 -0.008344127 0.15833819 -0.08023424
000040 a0 39 c0 3c 39 9c 1b bd 97 ba 89 3e 8f ed 24 be
       0.023464978 -0.037990782 0.2690017 -0.16106246
000050 1b 2b 79 bd ea 63 3a 3d 2b 81 88 3e 4b 84 4a 3e
       -0.060832124 0.04550544 0.26661047 0.19777028
000060 5c c1 09 be 66 fd e9 3c fa f3 7e ba 56 01 0a 3f
       -0.13452667 0.028563213 -0.00097256864 0.5390829
000070 28 08 d3 3e 0b fe e9 bd c2 a8 f1 bc bf d7 92 3d
       0.4121716 -0.11425408 -0.029499415 0.071700566
000080 2c 7c 1c 3e 35 c8 6f bd e2 85 3e 3e 02 b4 7d 3e
       0.15281743 -0.05854054 0.1860576 0.24775699
000090 ba 18 87 3e bf 0d 29 be d2 55 dd 3b e9 9b 0b 3e
       0.26386052 -0.1650915 0.0067546153 0.13633694
0000a0 12 f5 c0 3d 44 11 8d 3e b6 61 03 3e 62 20 84 3c
       0.094217435 0.27552235 0.12830243 0.016128723
0000b0 a0 fe b7 bc 05 b1 36 bd ab 41 a2 3c cc d6 83 bd
       -0.022460282 -0.044602413 0.019806704 -0.06437454
0000c0 19 ae 4d be 38 82 c6 bd aa d4 47 be 1a b4 77 be
       -0.20085944 -0.09692806 -0.19514719 -0.24189797
0000d0 77 ab 42 be 8f c5 2b be 53 34 8d 3e 41 0e 1c 3e
       -0.19010721 -0.16774581 0.27578983 0.15239812
0000e0 8b 57 8e 3d 65 4b 8f bc 13 60 83 3d d5 a0 52 3d
       0.06950291 -0.017492006 0.06414809 0.051422913
0000f0 8d 06 b9 3d bb a4 12 3e 54 93 c5 3c 56 b1 4b 3d
       0.090344526 0.14320652 0.024118103 0.049729668
000100 ef c5 ce 3c d7 1e b9 bc d2 f8 b1 3d 47 d4 01 3e
       0.025240866 -0.022597713 0.08690037 0.12678634
000110 34 a6 87 3d bd 23 93 3d d7 8c 1f 3d 06 c2 3f 3d
       0.066234976 0.07184551 0.038952675 0.046815895
000120 0e ec 6b 3e 61 fa 31 3e e6 8c 04 3e 52 1c ae 3d
       0.23039266 0.17380668 0.12944373 0.085014954
000130 e0 27 af 3d 1b bc db 3d a7 1a 3d 3e cc 11 f8 3d
       0.085525274 0.10729238 0.18467198 0.121127695
000140 bd 4c 86 3e d7 79 45 3e c7 12 84 3d 0a 36 ce 3d
       0.26230422 0.1928476 0.06448894 0.10068901
000150 29 4e 77 3e d6 a1 37 3e 41 bb 32 3d 15 12 81 3b
       0.2415091 0.1793283 0.04363561 0.003938923
000160 3d 93 70 3e 8b b3 16 3e 52 53 46 3e ae 80 65 3c
       0.23493667 0.14716928 0.19367722 0.01400773
000170 e9 44 47 3d 65 f8 b2 bd 83 90 b2 bc f7 97 b2 3e
       0.048649702 -0.08738784 -0.021797424 0.34881565
000180 78 f5 91 bd 3e 28 e5 3c 07 c9 49 bd 7f 60 01 be
       -0.071268976 0.02797329 -0.04926398 -0.12634467
000190 9e 8b cc bd 3c 1d bc bd f5 0b 1a 3e ae ad 56 3e
       -0.09987567 -0.091852635 0.15043624 0.20964691
0001a0 35 6a 33 3e 15 c9 8b be df a5 64 bb 39 ba 98 3d
       0.17520984 -0.2730185 -0.0034888906 0.07457394
0001b0 2a d2 6f 3d 3b 9d a8 3d da 57 49 3e 29 34 23 3b
       0.058550037 0.08233114 0.19662419 0.0024902916
0001c0 0f 7a af bc 97 87 01 be f7 10 36 3e 54 6c 8d 3e
       -0.021420507 -0.1264938 0.17779909 0.2762171
0001d0 57 87 66 3e a1 7d c5 bd 86 d1 66 be ce 84 2b bd
       0.22512566 -0.096431024 -0.22540864 -0.0418747
0001e0 65 b5 97 3e e3 d4 c6 3e 49 ff ad 3e 58 82 45 3e
       0.2963058 0.38834295 0.3398383 0.19288003
0001f0 d8 c1 de be ce da f1 bd bf 8b 98 3e ca 37 b1 3e
       -0.43507266 -0.11809312 0.29794118 0.34612876
000200 df e1 8f 3e 9a 4e f8 3e 7f c4 c4 bd f3 24 29 be
       0.28102013 0.48497468 -0.09607791 -0.16518001
000210 fd 46 0c 3f 58 f3 03 3f 0f a0 db 3e de 1b 6b 3e
       0.5479582 0.5154319 0.42895553 0.22959849
000220 35 53 1c 3e 46 3d 06 be 27 d8 6b 3e 74 a6 1c bd
       0.15266116 -0.13109311 0.23031674 -0.03824468
000230 78 33 b8 3d 64 be 80 3d 56 41 84 3d df 48 51 3e
       0.08994192 0.06286314 0.06457774 0.20437954
000240 da 04 a7 3d 17 9f 87 3d 88 eb b2 3d 4a 87 8e 3d
       0.08155222 0.06622141 0.0873633 0.06959398
000250 d7 04 c2 3d ab c4 dd 3d 58 18 81 3e 44 00 90 3e
       0.094735794 0.10828527 0.25213885 0.28125203
000260 1a 4f dc 3d 0a 22 ff bd f7 79 dc bd 7f bc 16 3d
       0.10757275 -0.12457664 -0.107654504 0.036800858
000270 88 6d 9e 3e ab 63 44 3d e1 0f 2c 3a 9b 2a 67 3d
       0.3094294 0.047946613 0.00065636454 0.056437116
000280 c8 7d 14 bd 20 cb 04 bd f4 cd a7 3c e6 54 3a 3e
       -0.036252767 -0.032420278 0.020483948 0.18196449
000290 64 1a e1 bd ad b1 19 3e 16 6b 2d bd a3 95 9e 3d
       -0.10991362 0.15009184 -0.042338453 0.07743385
0002a0 99 c4 9a 3e 80 f0 95 3e 92 6c b5 be 9f 6b 9c be
       0.30228117 0.2928505 -0.35434395 -0.30550858
0002b0 d6 bc 81 be 0a 4d 58 bd 19 ec 7c 3d 3f 2f 18 3e
       -0.25339383 -0.052807845 0.061748598 0.14861773
0002c0 26 67 a5 3e e5 27 87 be 15 3a 7f be 0b 0b ce be
       0.3230526 -0.26397625 -0.249245 -0.402428
0002d0 08 f1 9e 3e d1 69 43 3e ce e7 a3 3e 94 4e 75 3e
       0.31043267 0.19083335 0.3201279 0.23955756
0002e0 15 28 a8 be cd b0 19 bf fa 68 36 3e b3 e4 22 3d
       -0.3284308 -0.600354 0.17813483 0.039768886
0002f0 0d db a6 3d 9c cb 37 bd d6 ce 20 bc 8b 2a 12 bf
       0.08147249 -0.04487191 -0.0098149385 -0.57096165
000300 fa 77 f2 3d 67 80 0c 3e c4 29 91 3d de ab 27 3d
       0.1183929 0.13720857 0.07088044 0.04093539
000310 fa ff d3 3d 18 48 c3 3d 23 46 0c bc 28 fb 5e 3e
       0.10351558 0.09535235 -0.008561644 0.21775496
000320 18 7e b1 bc 46 48 b8 be fe 00 ba 3d 87 12 3e be
       -0.021666571 -0.3599264 0.090822205 -0.18561755
000330 9b b0 a0 3d 82 b2 bd 3d c2 2d 80 bd fd 7f 90 bd
       0.07846185 0.09262563 -0.062587276 -0.07055662
000340 dc 97 10 be b4 d6 1c be 30 e8 20 3e cc 52 7f 3d
       -0.1412043 -0.15316278 0.15713573 0.06233482
000350 ea 94 4b be c7 99 60 be cd d2 f7 bd 4c b9 89 bd
       -0.19881025 -0.21933661 -0.12100754 -0.06724796
000360 59 96 25 3d 62 59 0f bc 6f 48 4d 3e 3b 2c a0 be
       0.040426586 -0.008749338 0.20047162 -0.31283745
000370 af 61 f9 be 38 31 92 bc 23 ce c0 3d 82 5e 50 3e
       -0.4870734 -0.017845735 0.094143175 0.20348552
000380 cc de be 3e e9 64 bf be 11 6b 93 be 66 98 4f be
       0.37279356 -0.37381676 -0.28792623 -0.20272979
000390 c2 b1 ad 3e 40 43 ca 3d 1e 3b 81 3e c9 28 78 3e
       0.3392468 0.09876108 0.25240415 0.24234308
0003a0 73 01 32 be 83 9d 49 be f5 ab 84 3e a9 37 64 3d
       -0.17383365 -0.19688992 0.25912443 0.055717144
0003b0 29 65 95 3d f3 97 92 3d 24 8c fb 3d 6f fa 9f bd
       0.072946854 0.07157888 0.12282589 -0.07811438
0003c0 45 b2 e3 3c 9c 4f db 3c 9b c8 43 bd c7 39 ff bd
       0.027794966 0.02677136 -0.047798734 -0.12462192
0003d0 0c 4d b4 bd 6e 25 33 be af 5b 65 bd 3c 8c ba 3e
       -0.08803758 -0.17494747 -0.05599564 0.36435115
0003e0 9c 6a d1 3d ac ca d0 bc 42 7f 5f bd 0c 29 7a bd
       0.10225412 -0.025487266 -0.054564722 -0.0610743
0003f0 46 7a 8b 3d 54 e1 63 3e e2 2a af 3b 05 82 46 bd
       0.06810431 0.22253925 0.005345688 -0.04846384

bias f4 [3]
000000 ae 64 ea 3d 85 ab a0 3d 5c a7 96 3d
       0.114449844 0.07845215 0.0735614
