dev/pong/original/regular/pong_500.pth (torch_old, 191750 bytes, 20 tensors)

weight f4 [16, 1, 5, 5]
000000 c1 30 22 bd 60 fd 87 bd 8a 7b 97 be 70 ca 93 3e
       -0.039597277 -0.06640124 -0.2958644 0.28865385
000010 77 82 bb bd 91 1c ec 3d f8 ce dd 3b cb 5d 8c be
       -0.091557436 0.11528886 0.0067690574 -0.27415308
000020 78 13 a6 bc ca 83 3c 3e a2 4f 84 be 78 2c 56 be
       -0.020272955 0.18409649 -0.25842005 -0.20915401
000030 88 d0 f0 bc 47 51 60 bd 06 40 30 3e 03 82 8a be
       -0.02939631 -0.054765012 0.17211923 -0.27052316
000040 a3 a9 ed 3d 30 0d ca bd 4e 21 7e bd 1f 00 6f be
       0.11604621 -0.098657966 -0.06204348 -0.2333989
000050 19 fa 27 be 36 37 c7 3d b7 f5 ba 3d e9 b6 0b 3c
       -0.16403998 0.097273275 0.09128898 0.008527496
000060 4c 7d 6b 3d 36 b3 1c bd 98 61 83 3d 11 ce 59 bd
       0.05749254 -0.038256846 0.06415099 -0.053175036
000070 e5 90 02 be 63 5d 2e 3d 45 b7 4f 3c 99 51 5f be
       -0.12750585 0.04256953 0.012677972 -0.21808471
000080 91 60 5e 3e 7e 41 39 bd 18 a8 f5 3d 3c 54 a4 bd
       0.21716525 -0.045228474 0.11994952 -0.08023879
000090 72 7f 56 bd 36 71 ff 3d 7d 14 2b bd 24 d7 7c bc
       -0.052367635 0.12472765 -0.041767586 -0.015432153
0000a0 89 fa be bc 06 bc bb 3e 37 20 0a be 06 38 c3 3e
       -0.023312824 0.36666888 -0.13488851 0.3812868
0000b0 49 03 69 3e 80 a3 c0 3d c3 21 57 3d ea 78 55 bc
       0.2275516 0.09406185 0.052522432 -0.013029316
0000c0 84 d9 17 be 66 8a b2 3d 53 13 3f 3e d8 27 50 3e
       -0.1482907 0.08717804 0.18659715 0.20327699
0000d0 ce b1 f0 bd 0f 3b c8 bd d8 9a 80 3d e0 f3 c8 3d
       -0.117526636 -0.097768895 0.06279534 0.098121405
0000e0 39 1d ff 3d 48 17 61 3e ec 0d 3c be 26 8e 0a be
       0.12456746 0.21981537 -0.18364686 -0.13530788
0000f0 c9 07 be bd 30 ba 98 bd 9a ab e4 bd 32 18 8a 3d
       -0.09278829 -0.074573874 -0.11165543 0.06742896
000100 17 85 a9 3d e3 67 83 be 07 d6 9a be 6d a8 8a 3e
       0.08277338 -0.25665197 -0.30241415 0.27081624
000110 fd a7 6e 3e c7 d5 0c be 94 b6 38 bc ea 03 76 3e
       0.2330627 -0.13753425 -0.011273999 0.2402493
000120 84 56 d5 bd 23 f9 1c bd 43 47 80 3e 8d 0b 51 3d
       -0.10416892 -0.038323533 0.25054368 0.051036406
000130 f3 de 96 bd a0 55 f1 bd d7 0d de bd 96 8c b8 3d
       -0.07366743 -0.1178391 -0.108424835 0.0901119
000140 b4 5e 5f be 4a af 75 be 3e 37 3e 3e c5 21 0e be
       -0.2181347 -0.23992649 0.1857576 -0.1388007
000150 e5 2c 23 be ae 80 91 3c 92 ec be 3d 57 82 6d 3c
       -0.15935095 0.017761555 0.09322466 0.0144964075
000160 1e 9e 70 be d7 5a 38 be 16 5f 6d 3e 62 17 d5 bd
       -0.23497817 -0.18003403 0.23180804 -0.104048505
000170 8a 62 71 3e d5 be 60 be b8 a9 0a be 01 47 7d bd
       0.23572746 -0.21947797 -0.13541305 -0.061835293
000180 0b c8 4f 3e 6f 1c d2 bc ac f0 24 be aa 07 1c 3b
       0.20291154 -0.025648324 -0.16107434 0.002380828
000190 8b a2 f1 3d 4a 54 94 bd 69 8c 9c 3d d3 5a 00 3e
       0.11798581 -0.07242639 0.076439686 0.12534647
0001a0 3d c9 b0 3d 62 d3 2c be ad df 94 3d b5 fb 21 be
       0.08632133 -0.16877511 0.07269225 -0.15818675
0001b0 8d 7b 25 be 1f df 9f 3b 4a 74 16 bc c3 2c 09 bd
       -0.16160412 0.004878893 -0.009182999 -0.033489954
0001c0 83 7b 27 3e cd dd 56 be 34 2d 4a be 9f b0 45 be
       0.1635571 -0.20983048 -0.19743806 -0.19305657
0001d0 ae d0 86 3e 82 fb 50 3e 36 5d 50 be c6 18 61 be
       0.26331085 0.20408443 -0.20348057 -0.21982107
0001e0 9d 6e 2b bd 1d e4 cc bc 7f 38 42 3e 27 b3 a4 bc
       -0.041853536 -0.025011117 0.18966864 -0.020104958
0001f0 75 04 c9 bd 9e be b4 bd 85 14 62 bd 76 1c 31 3b
       -0.09815303 -0.0882542 -0.05519535 0.002702502
000200 17 eb 25 bd e8 12 d6 b9 a7 e0 48 3d e1 45 26 be
       -0.040507402 -0.00040831347 0.04904237 -0.16237594
000210 00 3e 07 3e 94 18 6d 3d 4e 1f d2 bb 20 a1 76 be
       0.13207245 0.057884768 -0.006412423 -0.24084902
000220 a8 06 62 be 89 63 a2 bd 44 28 ab 3d c6 a9 c1 bd
       -0.22072852 -0.07929141 0.083572894 -0.0945621
000230 a8 2e b7 3e b7 b5 b1 3e aa ad c1 3d a1 4b 78 be
       0.35777783 0.3470895 0.09456952 -0.242476
000240 7d 3d 4f 3e 19 09 f5 bd a6 b3 f5 3d b7 85 1d 3e
       0.202383 -0.11964626 0.11997156 0.1538304
000250 77 21 b9 bd 8f 35 95 3d 20 df 8d bd 41 1d 72 bd
       -0.09039586 0.07285606 -0.06927323 -0.05910993
000260 e9 3c 89 3d 99 1a e8 3d cc 86 e3 3a 3d 9b 7c be
       0.06701071 0.11333198 0.0017358898 -0.24668594
000270 37 d3 08 be a7 44 77 be 9b 75 9a 3d bf a7 04 be
       -0.13361822 -0.24147283 0.07541963 -0.12954615
000280 5a 85 0d 3e 8e 3e 5d bd 76 b5 31 be f6 6f 06 be
       0.13820401 -0.054014735 -0.17354378 -0.13128647
000290 5c 7e 63 39 e2 01 31 be 64 52 0b 3e db ae a2 3e
       0.0002169548 -0.17285874 0.13605648 0.3177403
0002a0 69 a5 ff 3d 4a bf 01 be 28 18 36 3e 79 91 3e 3e
       0.12482721 -0.12670627 0.17782652 0.18610181
0002b0 12 a1 74 be 56 7d 00 3e 03 57 0a bd d3 1f 00 be
       -0.23889568 0.12547812 -0.033774387 -0.1251214
0002c0 2a bf 08 3e e7 78 06 3e 2d dd 4f be 75 86 47 bc
       0.13354173 0.13132058 -0.20299216 -0.012178053
0002d0 65 80 fe bd 08 b8 04 3e 3e e9 80 bd e9 70 db 3c
       -0.12426833 0.12960827 -0.062944874 0.026787238
0002e0 33 b8 97 be e8 f4 c4 bd b4 5f 96 3e ba d7 48 3e
       -0.2963272 -0.09617025 0.2936989 0.19613543
0002f0 7d 93 f5 bd 2b bd f8 bc 26 d6 cb 3d 6f 56 c7 bd
       -0.11991022 -0.03036364 0.09952955 -0.09733283
000300 78 8a 9d be b1 5f 8d be c8 23 7f bb 3b 28 06 be
       -0.30769706 -0.2761207 -0.003893124 -0.13101284
000310 ac aa 33 be 4d 19 da 3d 96 9c 01 3c 93 e3 14 3e
       -0.17545575 0.10649357 0.007910868 0.14539938
000320 25 21 2d bd d6 8d 31 3d 6c 10 ec bd fe 25 e8 bd
       -0.042267937 0.043348156 -0.1152657 -0.113353714
000330 6b 19 08 3e 83 91 9f 3d 42 4f 93 bd 47 2c 8c bb
       0.13290946 0.07791426 -0.071928516 -0.004277739
000340 ad 10 99 3d 18 97 c8 3c 5d 64 75 bb 50 5b a1 3b
       0.07473884 0.02448611 -0.0037443854 0.0049242154
000350 f4 ae 05 be ff e6 db 3c e6 39 d8 3d fe 69 95 be
       -0.1305502 0.026843546 0.10557918 -0.29182428
000360 d6 0f a4 be a5 d1 5b 3e b5 10 6b 3e 39 8c 4c 3e
       -0.32043332 0.21466692 0.22955592 0.19975366
000370 ef 7e 02 3e 57 da 48 3e 9c 71 41 bd 84 bb 3c 3d
       0.12743734 0.1961454 -0.047227487 0.046077266
000380 0b 9f b2 bc 38 d1 6a bb de ca 91 bc f7 3b 2b be
       -0.021804353 -0.003583027 -0.01779693 -0.16722094
000390 d7 d6 f1 3d 13 59 32 be 84 02 1e 3e fd 34 16 be
       0.118085556 -0.17416792 0.15430647 -0.14668651
0003a0 9d c3 dd 3d 33 e7 0f bd 61 1f a7 3d be ce 8c bd
       0.10828326 -0.035132598 0.08160282 -0.068753704
0003b0 6b 06 3b 3d 2f 86 89 bc d9 52 00 bd 72 0f df bd
       0.045660418 -0.016787617 -0.03132901 -0.10891618
0003c0 47 1d 9e bd e3 37 11 3e 67 c3 89 bd 42 19 96 3e
       -0.07720428 0.14181475 -0.06726723 0.29316145
0003d0 4c 41 65 bd b8 4b cc bd be ad 88 3d f5 08 5d be
       -0.055970475 -0.0997538 0.06673764 -0.21585448
0003e0 11 67 10 3d 18 94 10 be 97 e7 00 3c c4 ea f2 3d
       0.03525454 -0.14118993 0.007867715 0.11861184
0003f0 8e a2 40 be 48 a6 8c 3e ff 74 46 3e 65 f5 78 3d
       -0.1881201 0.27470613 0.19380568 0.0607809

bias f4 [16]
000000 28 db 4c bd 6e 3e b9 3d bc f4 b2 bd fb e7 cb bb
       -0.05001369 0.09045111 -0.08738086 -0.0062227226
000010 8c 03 31 3e 63 b6 16 3e 88 43 2b bd fb bf b9 bd
       0.1728651 0.14718013 -0.04181245 -0.090698205
000020 7a 21 02 3e d6 6a d1 3d 47 a3 17 3e fd 6a 24 3e
       0.12708083 0.102254555 0.14808379 0.16056438
000030 0f 1d 4b be 25 d0 37 be f3 7a 78 3e 70 70 0c 3e
       -0.19835304 -0.17950495 0.24265651 0.13714767

running_mean f4 [16]
000000 10 ff d7 be 62 5e c0 3e 6e 73 58 3d ea 8d c9 be
       -0.42186785 0.37572008 0.052844457 -0.39366084
000010 5b 96 1e bc cc 19 6a 3e 41 65 33 be 54 96 c2 be
       -0.009679402 0.22861403 -0.17519094 -0.38005316
000020 c0 3f 7f 3e e8 0c 15 bd b7 67 8c bd 0a a7 39 3d
       0.24926662 -0.03638926 -0.068557195 0.045325316
000030 20 c2 0d 3f 58 87 8b be 01 d0 08 3f 06 66 35 3e
       0.55374336 -0.27251697 0.5344239 0.177147

running_var f4 [16]
000000 14 4f 2f 3c 72 02 90 3b c0 ea 04 3b 0a 0c 4b 3c
       0.010700006 0.0043948228 0.0020281523 0.012393007
000010 c1 e1 12 3b 8f df d6 39 0b d6 c8 3b c0 a3 be 3b
       0.0022412392 0.00040983825 0.0061290315 0.0058178604
000020 81 df 62 3a c7 6d 92 3a 87 6a b4 3b cc a1 ac 3a
       0.00086545205 0.0011171632 0.005505863 0.0013170778
000030 8d a6 ea 3c d8 b9 e0 3b d7 c9 c2 3b 73 12 ae 3b
       0.02864387 0.006858092 0.0059444713 0.005312258

weight f4 [16]
000000 26 21 d1 3e 11 de d1 3e 0c f6 50 3f 04 7d 6c 3f
       0.40845603 0.40989736 0.8162544 0.9237826
000010 82 12 d0 3e 37 39 4c 3e f7 b5 f0 3e c0 ec 7a 3f
       0.4063912 0.199437 0.47013828 0.980175
000020 38 87 1f 3f 54 22 d8 3e 8a 05 af 3e 3e b0 bb 3e
       0.623157 0.4221369 0.34183913 0.366579
000030 eb 9d f3 3e e6 b0 4e 3f 8c 22 20 3f f8 6c 6b 3f
       0.4758142 0.80738676 0.62552714 0.9196315

bias f4 [16]
000000 9b da 17 bd 92 c2 38 be 3e 6c cd be de 30 85 bd
       -0.037073713 -0.18042973 -0.40121645 -0.06503461
000010 f8 a1 04 be 07 b3 20 be eb ec 9b 3c 40 b6 08 bd
       -0.12952411 -0.15693294 0.01903387 -0.033376932
000020 f0 a5 0f bf 48 39 59 be 40 a7 cb bc 1d 17 b8 bd
       -0.56112576 -0.21213257 -0.024860024 -0.089887835
000030 d2 bf 67 be 10 00 58 bd 69 f5 0c be 44 ca 92 3c
       -0.22631767 -0.052734435 -0.13765492 0.017918713

weight f4 [32, 16, 5, 5]
000000 7e 95 23 3e 8b 49 da 3d 98 e5 b4 bc c6 a9 97 be
       0.15974995 0.106585585 -0.022082135 -0.29621714
000010 f8 78 cf be 70 9e be bd b8 02 f3 3c 4f ee f0 3d
       -0.4052198 -0.09307563 0.029664382 0.11764204
000020 d3 9f ab 3d be eb dd bd 26 11 01 3d 13 fb 94 3d
       0.083800934 -0.1083598 0.031510495 0.07274451
000030 3e 55 90 bc 03 dd d1 3d 9a 52 00 bf a5 dc 4d 3d
       -0.017618772 0.10247233 -0.5012604 0.05025925
000040 01 6d bf 3c 04 74 88 3d 88 b8 1b 3e 92 84 a0 3e
       0.023367407 0.06662753 0.15207112 0.31351143
000050 0c 92 c4 bd 01 a3 08 bd a6 5b 11 bd 18 f4 50 3c
       -0.09598169 -0.033358578 -0.035487793 0.012753509
000060 fb 89 2d be 55 b5 78 3d 8e 0f e7 bd 41 b8 ff bc
       -0.16947167 0.060719807 -0.11282264 -0.031215789
000070 4e f3 a1 3d 4c 79 29 3c f3 11 52 bd f0 b7 25 be
       0.07907735 0.010343861 -0.05128665 -0.16183448
000080 19 95 94 be de 9b 92 3d 8c 9e f0 bd a0 99 a1 3d
       -0.29020002 0.071586356 -0.117489904 0.0789063
000090 b6 b6 3d bb 9a 40 40 be 5e e2 01 3d bf 33 09 3e
       -0.0028948016 -0.18774644 0.03171002 0.13398646
0000a0 2e 38 09 bd fb 61 2c 3e 6b 4f 2a bd 9d 57 1b 3d
       -0.033500843 0.16834252 -0.041579645 0.03792535
0000b0 15 49 48 3d c7 cf 0d 3e 69 74 f0 3c 87 5d 7d bd
       0.04889782 0.13848792 0.029352384 -0.061856773
0000c0 27 3e 1f 3e f0 f2 b6 3e 2f 47 a6 3d f4 67 31 3e
       0.15551053 0.35732222 0.08119046 0.17324811
0000d0 2d 4b 8b 3e f5 22 23 3e 66 3b 12 3d 70 07 92 3d
       0.27205792 0.15931304 0.035701178 0.07130325
0000e0 f6 7f d2 3c 02 d2 2a bc fb 56 a7 3c 64 b5 82 bc
       0.025695782 -0.010426046 0.020427218 -0.015955634
0000f0 98 9f 97 3d 91 73 0c 3d db 58 95 3d 69 ef 10 3d
       0.07403487 0.0342899 0.072923385 0.03538457
000100 47 ed 9d bd b5 91 15 3e ae de 00 3e 4d 43 4a 3e
       -0.07711273 0.14606364 0.12584946 0.19752236
000110 d1 20 71 3e 10 22 09 3d 1a 4e 73 3d b2 47 19 bd
       0.23547675 0.03347975 0.059400655 -0.03742189
000120 f4 ab d1 bd 4b 3c 11 bc 8c b4 88 3e f8 c7 16 bd
       -0.102378756 -0.008864473 0.26700246 -0.0368118
000130 7a c1 7a bd e6 29 60 be 46 58 76 3d 5e 08 76 3c
       -0.06121967 -0.21890983 0.060142778 0.015016643
000140 36 42 03 be b2 b0 34 be 2b 4d 43 be 47 af ff bd
       -0.12818226 -0.17645529 -0.19072406 -0.124846034
000150 82 c9 e0 bd 46 3e 07 3d a5 78 3a 3d f8 88 f5 bd
       -0.109759346 0.033018373 0.04552521 -0.11989015
000160 81 cb db 3c f1 50 03 3e 9a 0c 23 bc 32 66 ff 3d
       0.026830437 0.12823845 -0.009951735 0.12470664
000170 b5 9f 0b bd 4f 4f b9 3d 98 a9 b3 be 6e fe 01 3e
       -0.034087855 0.0904833 -0.35090327 0.12694713
000180 f7 f2 9e 3d db 00 09 bd 8a f4 db 3d 01 7a 50 3c
       0.077611856 -0.03344808 0.107400015 0.0127244005
000190 39 e1 c8 3c d4 ae 65 be a5 fa 8b 3c fe 56 b5 3d
       0.024521457 -0.22429973 0.01708729 0.08854483
0001a0 bc 7e 27 bd 39 ff f1 3c 47 78 c9 bd ba 20 ed bd
       -0.040892348 0.029540645 -0.09837394 -0.11578508
0001b0 12 3e f0 bd fd fe 89 be b6 e9 67 3e 75 9f 84 3e
       -0.11730589 -0.26952353 0.22647747 0.25902906
0001c0 c3 2e e8 3c 18 65 d1 3d 37 74 27 3e 72 41 a3 3d
       0.02834261 0.1022436 0.16352926 0.07971467
0001d0 88 4b bc 3d 03 fa d6 3c 8c 0d 7c 3d d9 52 6c 3e
       0.09194094 0.026242262 0.061536357 0.23078479
0001e0 ba 90 dd bd 4b 83 b5 3d a9 b0 9a bd ed 9c 99 3d
       -0.1081862 0.08862933 -0.075532265 0.07500634
0001f0 6d 75 26 3d be 05 ee 3d 15 f3 35 bd d1 5d 4d be
       0.04063933 0.11622189 -0.044421274 -0.2005532
000200 75 4e b0 3d fa 96 e4 3d 79 b4 ce 3d dd c8 07 3d
       0.086087145 0.11161609 0.10093016 0.033150543
000210 e0 5f 4e bd 0b 64 2b bd 78 0c d6 bd bd 80 51 bd
       -0.050384402 -0.041843455 -0.10451597 -0.051148165
000220 35 b5 2d 3e 38 42 3e be d7 57 16 be 50 79 7c bd
       0.16963656 -0.18579948 -0.14681946 -0.06163913
000230 b2 fa d2 3d 78 85 e9 3d a4 05 6a 3d 50 59 06 3e
       0.103017226 0.1140241 0.057134286 0.13120008
000240 3c 64 73 3d 9e ec 16 3e 82 3d d5 3c 38 92 e9 3d
       0.059421763 0.147387 0.026030306 0.11404842
000250 28 95 04 3d 12 d6 0b bb f9 4e c5 3c d4 4a 4e bd
       0.03236881 -0.0021337313 0.024085509 -0.05036433
000260 bf 45 ea bd ef 3e 21 be 14 d8 72 bd 93 d2 45 bc
       -0.11439084 -0.15746664 -0.0592881 -0.012074131
000270 bb 60 82 3e 98 d7 db bc 11 6e 33 be 68 42 5c be
       0.25464424 -0.026836202 -0.17522456 -0.21509707
000280 2f 7b be bd 3b a4 2b 3e 1e dd 4b be f2 b6 72 3c
       -0.09300839 0.16761868 -0.19908568 0.014814125
000290 a6 92 50 bc 06 e2 b5 3d 93 36 82 bd c1 ae ab bd
       -0.012730276 0.08881001 -0.063580655 -0.08382941
0002a0 61 52 e6 3c 78 71 91 bd 26 1d ca 3c 54 6b 89 bd
       0.028115453 -0.071017206 0.024672102 -0.06709924
0002b0 7f 42 78 bd ab ea 18 bd 61 a9 15 3e 3c ed ab bc
       -0.06061029 -0.03733317 0.14615394 -0.020987146
0002c0 1c e0 38 be 6d df 8f 3d 9e 50 9c 3d d3 d7 32 be
       -0.18054241 0.07025037 0.07632564 -0.17465143
0002d0 ae ba 80 3b ca 36 e1 bd 90 c2 4a 3d 6f a4 9f bd
       0.003928504 -0.10996778 0.049501956 -0.07795035
0002e0 73 54 ea bd 56 e7 f8 3c ce a3 ba 3d 4c 2a 30 3d
       -0.11441889 0.030383747 0.091132745 0.043009087
0002f0 76 c0 f3 bc 52 8e 09 bd ba da 65 bd 19 29 6e 3d
       -0.029754858 -0.033582993 -0.056116797 0.058144663
000300 69 2d 9a bd 66 25 92 3e 88 34 ac 3e 57 18 8b bc
       -0.075281925 0.28544158 0.33633828 -0.01697938
000310 ae 7f de 3d 62 30 1d 3e c3 73 49 bc e4 4a 23 be
       0.10864197 0.15350488 -0.012295666 -0.15946537
000320 89 5d 75 3d f4 26 07 3e bb 9f e4 3d 99 af 35 3e
       0.059903655 0.13198453 0.11163279 0.17742766
000330 56 9c 4c 3d 25 fc 0a 3e 11 9e 7b bd 86 b8 87 be
       0.04995378 0.13572748 -0.06143004 -0.26507968
000340 3d 34 fe bd 03 29 0d be b4 f1 12 3e a7 ad 88 bd
       -0.124123074 -0.13785176 0.14350015 -0.066737466
000350 e1 c9 9b 3d 5c cf 22 3e 62 9d e6 3b 3b c2 0e bc
       0.07606865 0.15899414 0.0070378045 -0.0087133
000360 92 a2 92 3c 18 ea 27 be 5a d3 e3 3d c7 9b 80 bc
       0.017899785 -0.16397893 0.111242965 -0.01569928
000370 ff a2 82 bd 49 e2 21 bd 7c 50 15 3d cd 33 79 3e
       -0.06378745 -0.039522443 0.03645371 0.24336167
000380 59 50 22 3e 3e cf 30 be 62 05 a2 3d 9a 22 1e 3c
       0.15850963 -0.17266557 0.07911183 0.009651804
000390 18 60 ea 3b 5f 85 11 be 6b ff a3 bd fb 56 c8 bc
       0.0071525685 -0.14211033 -0.080077015 -0.024455538
0003a0 98 31 0b be e5 d2 4d 3d 56 47 12 be f9 a4 60 3d
       -0.13593137 0.050249953 -0.14285025 0.05484483
0003b0 4a fa 22 bc 08 3c 8a bd 07 c6 db bc a0 42 5d 3e
       -0.009947369 -0.06749731 -0.026827825 0.21607447
0003c0 41 4a 08 3d e5 b1 08 3e 80 eb 17 bc 60 16 15 be
       0.03327394 0.13349111 -0.009272456 -0.14559317
0003d0 6d ef a8 bc 28 59 2e be 6c 93 f5 bc ce c7 12 be
       -0.02062198 -0.17026198 -0.029977523 -0.14334032
0003e0 61 55 3f bd b1 de ef 3d ba 89 01 3e bf ab a0 bd
       -0.046712283 0.11712397 0.12650195 -0.07845258
0003f0 a5 12 0c 3e fa 7e bc bd c4 0a e8 bd 1c d6 af 3e
       0.13678987 -0.09203906 -0.113301784 0.3434304

bias f4 [32]
000000 62 f4 49 3d a0 cd 19 3d 1b 22 f5 3d ed 90 3c bd
       0.049305327 0.037549615 0.11969396 -0.04603665
000010 fb e4 95 bd 35 1d d7 bc cf 2c 89 bd 84 ab c5 3c
       -0.07319065 -0.026259044 -0.06698 0.024129637
000020 c8 9b 92 3d 57 a5 c2 bd a2 35 1b 3c 1a 41 02 bb
       0.07158619 -0.09504192 0.009473236 -0.001987523
000030 44 f5 f0 bc 06 48 91 3c 09 0d 11 3d e3 46 7f 3d
       -0.029413827 0.017734539 0.035412822 0.062323462
000040 1c 0d 33 3d 8e 38 82 3c 26 42 05 bd 21 62 50 bc
       0.043713674 0.015896108 -0.032533787 -0.012718708
000050 79 8d df 3d ae bd f2 3c 77 9e 2d bd 91 73 17 bc
       0.10915656 0.029631462 -0.042387452 -0.009243862
000060 4a 82 5b 3d db f6 6b bb cb f5 0f 3d 27 e2 70 bb
       0.05359105 -0.0036005292 0.035146516 -0.003675589
000070 ee 24 85 3c 0b c9 b4 3d 4c 1b 66 3c b7 b5 b7 bd
       0.016252961 0.088274084 0.014044594 -0.08970206

running_mean f4 [32]
000000 bb ec af 3d 76 0a 25 3f 30 28 3b 3f 7c 22 4e 3e
       0.08590075 0.6446909 0.73108196 0.20130342
000010 c8 54 a2 be 85 6a 30 bf 4b 1e b6 3e b2 7d 16 bf
       -0.31705308 -0.68912536 0.35569987 -0.58785546
000020 6a 7a e7 be 73 d5 92 bf ce 67 cd 3e af 7c 53 be
       -0.45210582 -1.147139 0.4011826 -0.20653032
000030 19 f3 4d bf b8 c4 93 bf 9f b7 19 3f 43 cc da be
       -0.8044906 -1.1544409 0.6004581 -0.42733964
000040 ed 8b 66 be 89 34 91 be 0e 32 b8 be 05 9b 5b 3e
       -0.22514315 -0.28360394 -0.3597569 0.21445854
000050 e6 29 bf 3d fd ec 0f bf c3 09 93 be 28 83 82 3f
       0.09334163 -0.5622099 -0.28718385 1.0196276
000060 35 e5 63 bf c6 2d 59 3f 0c bc e8 3a bd 04 9c bf
       -0.8902162 0.8483547 0.0017756238 -1.2188946
000070 c6 80 ae 3e b7 53 ec 3a 34 7b 06 bf 99 59 12 bf
       0.3408262 0.001803032 -0.52531743 -0.57167965

running_var f4 [32]
000000 5a ba 93 3e 52 6f 1c 3f 8e a1 18 40 e4 1b 34 41
       0.28853112 0.6110736 2.3848605 11.256809
000010 43 77 22 3f 31 2d 67 3f b1 ec 30 40 84 ae a3 3e
       0.6346323 0.9030333 2.7644465 0.31969082
000020 aa c5 4a 40 8d 3f 59 3f b1 8e 9d 40 61 c2 6d 40
       3.1683145 0.84862596 4.9236684 3.714989
000030 8d 51 86 3f c7 ad e2 40 d8 3e 0b 40 16 2f 9d 3e
       1.0493637 7.083713 2.1757107 0.30699986
000040 f8 e3 8c 3f 7c f2 8e 3f e6 25 25 3f 75 39 44 40
       1.100707 1.116775 0.64510953 3.066007
000050 c6 04 e7 3e 71 26 5c 3f d1 bc 03 40 c2 cd a2 3f
       0.4512083 0.85996157 2.0583994 1.2719042
000060 85 d3 d0 3f 0f be 98 40 70 70 ba 3f 63 93 62 40
       1.6314551 4.7732005 1.4565563 3.5402458
000070 b1 af 2b 40 a7 00 93 3f a9 d4 ac 40 79 bc 36 40
       2.6825984 1.1484574 5.4009595 2.8552535

weight f4 [32]
000000 bd 40 18 3e e3 e8 2d 3e b1 cb 31 3f 04 ee 4b 3f
       0.14868446 0.1698337 0.69451433 0.7966006
000010 ec e0 84 3f 7d fe 31 3f ce d1 aa 3e 0a 0f 00 3f
       1.0381141 0.69528943 0.33363193 0.5002295
000020 51 aa 43 3f 3c 84 3f 3f 16 b7 2f 3f 22 af d5 3e
       0.7643176 0.7481115 0.6863874 0.41735178
000030 04 30 a8 3e 6f 61 64 3f 71 fa 36 3f 48 c8 3d 3e
       0.32849133 0.8921117 0.71475893 0.18533432
000040 48 ea 8b 3f 3c 90 23 3e 76 9a 02 3f 39 60 35 3f
       1.0930872 0.1597299 0.5101694 0.7084995
000050 48 26 2b 3e f0 c5 1d 3f b5 c9 bd 3e d8 74 3d 3e
       0.16713822 0.61630154 0.37067953 0.18501604
000060 14 d9 21 3f 4c 2d 22 3f 7b 33 4e 3e a2 ed 6f 3f
       0.6322186 0.6335037 0.20136826 0.93721974
000070 3b d8 79 3e 63 6a bc 3e ec 29 4a 3f a7 45 46 3f
       0.24398892 0.36799917 0.7897022 0.7745003

bias f4 [32]
000000 ec bf 8a be 72 57 92 be 81 b2 85 be 77 d4 4d bd
       -0.2709955 -0.2858234 -0.2611275 -0.05025145
000010 e9 56 fd bd 7b 72 f3 bd ea fd ce bd 00 0c 13 3d
       -0.123700924 -0.1188707 -0.10107024 0.035900116
000020 3e 8d b7 3b e2 58 0a 3b c6 9b 5e bc 8d 02 dc bd
       0.005601554 0.0021110107 -0.013586944 -0.10742674
000030 b2 00 9f bd 91 0d f7 3d 16 f6 6b be 38 56 67 bc
       -0.077638045 0.120631345 -0.23043093 -0.014119677
000040 95 f1 d6 bd a4 c8 4f be 3e da 47 be 9f 9e b5 bd
       -0.10495297 -0.20291382 -0.19516847 -0.08868145
000050 ec d9 d3 bd 62 cc 40 be 6d 53 19 3d 06 0c 1a be
       -0.103443 -0.18827966 0.037433077 -0.15043649
000060 88 90 12 3d bf dd 7e be 83 bd 4d bd f8 d8 1d 3d
       0.035782367 -0.24889277 -0.05022956 0.038536996
000070 f2 4f ee bd c0 85 c5 3d 9a 44 f8 3b d1 54 16 bd
       -0.11636342 0.096446514 0.0075765373 -0.03670198

weight f4 [32, 32, 5, 5]
000000 1f 6d 12 be 99 52 d7 3b 26 0d 3f be 4e 4f ca bc
       -0.14299439 0.0065711257 -0.1865736 -0.024696019
000010 0b 0c 64 3d 8c 7b 01 3d 11 99 31 bd 48 21 f5 3d
       0.055675548 0.031611964 -0.043358866 0.119692385
000020 aa ac b1 bc 33 b1 b3 bd 3e b9 26 3e 0f 14 90 3d
       -0.021688778 -0.087740324 0.16281602 0.07035076
000030 89 44 61 3d 6b 78 1e be 86 06 f5 3d 97 55 f2 3c
       0.054997 -0.15475623 0.11964135 0.029581828
000040 c5 8b 59 3e 3d db e4 bc 03 22 19 3e 4c c6 a8 3d
       0.21244724 -0.027936572 0.1495438 0.08240947
000050 54 8a 59 3e 0e a3 43 3d e5 9f 53 be 9a d0 d3 3b
       0.21244174 0.047762923 -0.20666464 0.006464076
000060 0e 12 0f 3e 3d 4e ec 3c bf 69 96 be e7 47 40 3e
       0.13971731 0.0288459 -0.29377553 0.18777429
000070 ab 64 91 be dd 46 94 be cd 12 43 be e3 d1 25 3d
       -0.28397116 -0.28960314 -0.1905014 0.040483367
000080 7a 98 a4 3c 2b ce ad 3d da 51 11 be f4 4a 82 be
       0.020092238 0.08486589 -0.1419138 -0.2544781
000090 ad 8a 2c 3d d2 76 1f be 84 fd 30 be 7a 5f 2b be
       0.04212444 -0.1557267 -0.17284209 -0.1673564
0000a0 28 99 95 3d 94 4b 81 bc 40 7c ce 3c 2e 66 0b bd
       0.07304603 -0.015783109 0.025205731 -0.034032993
0000b0 ae 92 43 bd 8c 3a 5c bd 1f e4 da 3d 52 76 aa bd
       -0.047747307 -0.053766772 0.10688042 -0.08323349
0000c0 48 0d 2a bd b6 d2 cf bd 86 76 79 bd 47 0f ac bd
       -0.041516572 -0.10147612 -0.06090405 -0.084013514
0000d0 c6 4d c4 bd a4 70 d9 bd 11 bd ad bd 9a 33 b2 bd
       -0.095851466 -0.106171876 -0.08483327 -0.087012485
0000e0 80 da 93 be 9e 57 6f 3d 27 49 41 bb 77 22 98 be
       -0.2887764 0.058433168 -0.0029493065 -0.29713795
0000f0 12 54 43 3e 77 9e d2 3d 0d 3c 30 3e 70 f9 6e be
       0.19075039 0.10284131 0.17210408 -0.2333734
000100 25 df 65 bb 95 61 00 3d 3f 9a 01 3d 5f eb 13 3e
       -0.0035075631 0.03134306 0.03164124 0.14445256
000110 36 07 f7 ba 37 36 c3 3c db c5 12 3e c4 4b 51 be
       -0.0018846754 0.023829563 0.14333288 -0.20439059
000120 9f ae 87 be 38 06 19 3a 4a 58 b0 3d c5 9b be bd
       -0.26500413 0.00058374135 0.0861059 -0.093070544
000130 c9 44 76 3a 08 e7 29 3e 6e 74 64 be 70 dd da 3d
       0.0009394405 0.16592038 -0.2231004 0.10686767
000140 95 94 7a bb b9 9e 1b be 45 61 c6 3d 96 4c 38 3d
       -0.0038235534 -0.15197267 0.096865214 0.044994913
000150 3a 20 39 3c 8e c5 07 be 8b c9 05 3c 43 c6 4d bc
       0.011299187 -0.13258955 0.008165727 -0.012559476
000160 82 5a 15 3d 71 6c 26 3d 9a 17 6e bd ac 0d a0 bd
       0.036463268 0.04063076 -0.058127977 -0.07815108
000170 6f 27 f9 3c 05 91 0e bc 66 aa 1f bc 3e 95 34 bd
       0.030414311 -0.008701568 -0.009745216 -0.04408764
000180 88 ae 84 bd b1 39 46 3d bd 8f 03 3d db 77 c2 bd
       -0.06478602 0.048394863 0.0321195 -0.09495517
000190 93 76 48 bd 2d dc 81 bd 3b 71 d5 bd bc a6 cc bd
       -0.048941206 -0.06340823 -0.104219876 -0.099927396
0001a0 66 92 32 bd 4e 1d c7 bd 64 62 d3 3c c5 a3 55 be
       -0.043596648 -0.09722386 0.025803752 -0.20863254
0001b0 2a 4a d3 3c 61 e2 be 3d d7 7c 91 bd 23 f2 20 3e
       0.0257922 0.09320522 -0.071038894 0.15717368
0001c0 29 82 42 bc 18 db d1 3b 2a 2a 42 3e 5e 95 ce 3d
       -0.011871853 0.006404292 0.18961397 0.10087083
0001d0 3b 79 ac be 58 75 ed bc 68 36 9f bd 6a 9d 60 3e
       -0.33686242 -0.028986618 -0.07774049 0.21935049
0001e0 20 bd c9 3d 21 79 0b 3e a8 f6 4c be b2 96 88 3d
       0.09850526 0.13620426 -0.20015967 0.06669368
0001f0 c0 f1 a0 3d d7 6b 0b 3e 46 8c c5 3d 2a ad fe bb
       0.0785861 0.13615356 0.09645896 -0.0077721076
000200 6a ed 30 3d 38 c1 c9 bd 46 2f 5c 3e 84 e6 22 3e
       0.043195166 -0.09851307 0.21502408 0.15908247
000210 b1 35 27 be a0 fb 2e be 7f 7a 21 be d1 30 00 3e
       -0.16329075 -0.17088175 -0.15769385 0.12518622
000220 b8 b5 10 3e 89 fa a0 bd fe 5f 95 bd 11 70 16 3d
       0.1413182 -0.07860286 -0.072937 0.03672797
000230 12 7d 0b 3e 8b d2 53 3e 7d a9 99 bd ac 71 d3 bd
       0.1362193 0.20685785 -0.075030304 -0.103244156
000240 51 95 09 bb db 74 86 bd 58 e2 1c be dc 38 56 bd
       -0.002099354 -0.06565257 -0.15320718 -0.05230032
000250 a9 0a a1 bc cf ee 48 bd af 21 ec bd 7b 1d 22 bd
       -0.019658403 -0.04905587 -0.11529862 -0.039578896
000260 98 0e 65 bd 1d a6 3a bd d7 f8 cf bc d0 c8 81 bd
       -0.05592212 -0.045568574 -0.02538721 -0.0633713
000270 2d 05 02 be 41 89 56 be c8 b3 f6 bd 57 e2 8d bd
       -0.12697287 -0.20950796 -0.12046009 -0.069279365
000280 10 9d 12 bf fb 72 90 bd 8c fb c1 bd 0c 23 08 bd
       -0.5727091 -0.07053181 -0.09471807 -0.03323655
000290 cf 4d 00 bc 96 61 cf 3e 2e 2d 97 bd 35 c2 1c be
       -0.007831051 0.4050414 -0.07381664 -0.15308459
0002a0 8d 8e 87 bd aa 32 05 be 05 ed 36 be 9f e7 68 3e
       -0.06618986 -0.13007608 -0.17863853 0.22744606
0002b0 9f 74 20 3e 55 a2 76 bc 59 e6 7f 3d ba 22 0f bd
       0.15669487 -0.015053351 0.062475536 -0.034945227
0002c0 38 74 ab 3d 20 3f 48 bd 02 41 d4 3d d4 0f ba 3b
       0.08371776 -0.048888326 0.10363962 0.0056781564
0002d0 06 d9 f2 bd f3 9a 51 3e 4f b4 18 bd ff f1 35 3d
       -0.118578 0.20469265 -0.03728133 0.04442024
0002e0 67 cb 3f be 58 b7 cc 3e 35 13 27 3d 6e 79 20 be
       -0.18729936 0.3998363 0.0407898 -0.15671322
0002f0 ea 7b ee bd ac dd 16 be 9e f9 39 be 41 57 7f 3e
       -0.116447285 -0.14732999 -0.18161628 0.24935628
000300 bb ea 1b be c9 ff 8f bd e9 d3 1c 3e e1 81 6a bd
       -0.15226261 -0.07031209 0.15315212 -0.05725277
000310 cf 21 03 be 44 71 c8 3c 18 24 ff bc 25 c0 b0 3c
       -0.12805866 0.024468072 -0.03114514 0.021575997
000320 5c 5a 73 3d 36 13 b1 3d 5a 8c a1 3d b0 00 d3 3d
       0.059412345 0.08646242 0.07888098 0.103028655
000330 8f 7a 86 3c e5 df 33 bd 7a 12 03 3e dd 80 ee bd
       0.016415862 -0.043914694 0.12800017 -0.116456725
000340 a1 fc cc bd 4d fd 8f bc bb c0 18 bd 2e f7 89 3d
       -0.10009123 -0.017576838 -0.037293177 0.06736599
000350 18 5b 13 bc 90 43 ed bd db 5d 45 3e 9e 33 78 3d
       -0.008993886 -0.11585152 0.19274084 0.0605961
000360 ec de a0 bd 50 51 b4 bc 76 74 07 be e5 8e 65 bd
       -0.07855019 -0.02201143 -0.1322802 -0.056044478
000370 76 f5 7d 3d 04 0c 85 3d 67 c5 ee bd 0c 22 18 be
       0.062001668 0.064964324 -0.11658745 -0.14856738
000380 0d eb 84 bd b0 ce 90 3c b2 9a 90 bc 56 2f da 3d
       -0.06490145 0.017676681 -0.01765189 0.1065356
000390 b8 c4 38 3d 11 70 ae 3d df ea ed 3d b1 a5 0d 3e
       0.04510948 0.08517469 0.11617064 0.13832738
0003a0 51 73 ca bc a5 59 f7 bc 1c 9b d3 3d fe 9f 25 bd
       -0.02471319 -0.030194113 0.10332319 -0.040435784
0003b0 74 25 c9 3c b5 65 03 3b 4b 7f 1e 3e e7 27 a3 3d
       0.024553992 0.0020049636 0.15478246 0.07966595
0003c0 8b 13 95 3d b7 7a 25 3e 23 10 11 3e a6 04 6b 3d
       0.07279118 0.16160093 0.14166312 0.05737748
0003d0 26 16 85 3d 9b cf 74 bd 54 4f 2a be 7e 49 88 bd
       0.06498365 -0.0597683 -0.16631824 -0.066546425
0003e0 2b 23 a7 be dd 15 fa bd 75 1e 65 bd 47 ef 37 bd
       -0.3264402 -0.12211201 -0.05593725 -0.044905927
0003f0 0d 1e 0d bd ac 5a ea 3b c3 e2 a2 bc 7b 39 80 bd
       -0.034452487 0.007151922 -0.019883519 -0.062609635

bias f4 [32]
000000 61 14 30 be 83 89 c8 bd f9 d6 80 3d 5c a1 2d bd
       -0.17195274 -0.09791853 0.06291003 -0.042390212
000010 ee 85 e4 3c 1b 8e 01 3d b1 ef 82 3e 52 46 d4 3d
       0.027895894 0.031629663 0.25573495 0.10364975
000020 43 60 90 3e 6b 8e 14 be 83 12 79 3e f5 14 2b 3e
       0.28198442 -0.14507453 0.24323468 0.16707213
000030 f0 f0 c3 3c e7 19 e8 bc c3 9f 89 3e 60 49 d8 bd
       0.023918599 -0.028332664 0.268797 -0.1056087
000040 99 06 2e be f1 e2 40 bc cc c4 49 3d d8 40 d9 3c
       -0.16994704 -0.011772857 0.049259946 0.026520178
000050 0a ba 0a bd 21 33 a0 3c b9 bd c4 bd 77 4d 12 3d
       -0.033868827 0.01955563 -0.09606499 0.035718407
000060 83 a9 f7 3d fe 3c cb bd 3c 5c 62 be 4d 69 a5 3e
       0.12092879 -0.09923743 -0.22105497 0.323069
000070 96 e5 22 3e 11 08 53 3d 79 40 02 be ab 3d b1 ba
       0.15907893 0.051521365 -0.12719907 -0.0013522407

running_mean f4 [32]
000000 0c d5 07 be 59 fe 30 bf 5d 38 c9 bc 9e 80 1f 3d
       -0.13264865 -0.69138104 -0.024563009 0.03894102
000010 1b 07 20 3f f0 c9 fd bf 6f 6b 77 3d e7 93 c8 bf
       0.6251084 -1.9827251 0.06040519 -1.5670136
000020 7a 3a 57 3f f0 ca 3c 3c 1a 51 6b 3f de 26 62 bf
       0.84073603 0.011522993 0.91920626 -0.88340557
000030 e4 ca 63 3f d4 f0 0e 3e 70 d9 d5 3f 5d e9 8e 3f
       0.8898146 0.13959056 1.6706982 1.1164967
000040 c4 23 76 3e 60 65 67 bf e2 a6 56 bf 94 71 62 3f
       0.24037081 -0.9038906 -0.8384839 0.88454556
000050 92 b0 63 bf dc 07 37 3f cd 5d 23 3e c3 53 f3 3f
       -0.889413 0.7149637 0.15953751 1.9009937
000060 9d 07 c4 be 84 f6 76 bf 7e bf 97 bf 3f 7a 62 3f
       -0.38287058 -0.96469903 -1.1855314 0.8846778
000070 33 76 5d 3f 22 13 de be 87 97 34 3f 9e 2e 0b c0
       0.8650848 -0.43373972 0.7054371 -2.1747203

running_var f4 [32]
000000 69 c9 38 40 6e 26 22 41 ca b2 de 41 a5 16 6d 40
       2.887293 10.134382 27.8373 3.704507
000010 2c fa 27 41 9d 1a a5 42 42 51 05 41 f1 3d e2 41
       10.498577 82.55198 8.332338 28.280245
000020 bf b9 40 41 9b 84 38 40 aa 44 01 41 3d d3 69 41
       12.045348 2.8830936 8.079264 14.614072
000030 d7 71 1b 41 88 28 0f 41 06 bf 84 41 9c 51 ae 40
       9.715293 8.947395 16.593273 5.447462
000040 12 3e 27 41 33 1e 02 40 84 33 8e 40 8e af 83 40
       10.452654 2.0330932 4.4437885 4.11518
000050 ec ab 3c 42 9e 2c 57 40 f9 38 93 40 8d b9 a3 41
       47.167892 3.3620982 4.6007047 20.465601
000060 92 53 14 42 9e ce 24 41 45 0a be 40 9f 2e 01 41
       37.08161 10.300444 5.9387536 8.073882
000070 f9 3b 5c 41 e6 e3 82 40 1e 5b b1 3f 57 dd 33 41
       13.764642 4.0903196 1.3855932 11.241538

weight f4 [32]
000000 c9 8b 0f 3f 39 30 da 3e 75 22 30 3f f1 ff 20 3f
       0.5607267 0.42614916 0.6880258 0.62890536
000010 e1 28 a2 3f ee 8e a3 3f c5 1e ca 3f 16 08 2f 3f
       1.2668725 1.2777994 1.579064 0.68371713
000020 c1 bd dc 3f 24 c4 87 3f 15 5b a2 3f 88 86 3c 3f
       1.7245408 1.0606732 1.2684046 0.7364278
000030 f4 9c bc 3f 1c cb 89 3e f5 f5 ef 3f e4 cb 42 3f
       1.4735398 0.26912773 1.8746935 0.7609236
000040 ad e7 a2 3f 5e 94 5a 3f 0d 1b dc 3e 59 73 76 3f
       1.2726952 0.8538264 0.42989388 0.96269757
000050 0d 98 40 3f ed 01 97 3f 1e ce 35 3f bd ba f3 3e
       0.7523201 1.1797463 0.71017635 0.47603408
000060 5e 64 cb 3f 5c 0c 94 3f b3 af 6c 3f 67 69 dd 3f
       1.5890005 1.1566272 0.92455596 1.7297791
000070 6c d1 dc 3f 57 74 4b 3f b4 35 47 3f 29 47 82 3f
       1.725141 0.79474396 0.7781632 1.0177966

bias f4 [32]
000000 f4 8b 7c be 06 f6 13 3e 6b 4e ee 3d fa 6f 40 3e
       -0.24662763 0.14449319 0.11636051 0.18792716
000010 5f 2c 40 3e 06 b9 1e 3e e5 fd 94 3e 10 5c 01 3e
       0.18766926 0.15500268 0.29099956 0.12632775
000020 9c 31 b1 3e 7c 61 97 3d 15 13 86 3e 56 1d 82 be
       0.3460816 0.073916405 0.26186433 -0.25413007
000030 41 a3 e2 3e 76 58 15 3e b4 17 0d 3f d2 f1 2d 3e
       0.44265178 0.14584526 0.55114293 0.16986778
000040 29 dc 89 3e 99 b9 ce 3d 39 f8 0d 3e a0 ac 3d 3e
       0.2692578 0.10093994 0.1386422 0.18522882
000050 35 da be 3d b8 11 ef 3d 8e 8b 15 3e 6e a2 3b 3e
       0.093189634 0.116733015 0.14604017 0.18323681
000060 ca 89 63 3e 51 24 66 3e 62 38 1e 3e 55 47 65 3e
       0.22220531 0.22474791 0.15451196 0.22390492
000070 48 64 bc 3e a1 27 2d 3e 4f 12 1e be a1 24 cc be
       0.3679526 0.16909648 -0.15436672 -0.39871696

weight f4 [3, 1536]
000000 eb 80 fd 3d 88 9c 2e bb a9 21 c1 3d fa 9a 9f 3c
       0.12378105 -0.0026643593 0.09430248 0.019483078
000010 f6 a1 f9 3c cb b7 e5 3c 99 1b 1d 3e dc 2f d6 bc
       0.030472737 0.02804174 0.15342559 -0.026145868
000020 e0 4f 21 bc 2e e0 bd 3d 8a a2 ba 3c 67 5b db 3c
       -0.009845704 0.092712745 0.022782583 0.026776982
000030 86 8c 2c be 91 3b 5b bb 03 5b 1c 3e da 86 00 be
       -0.1685048 -0.0033452252 0.15269093 -0.12551442
000040 00 84 54 bd fc 73 9c bd 17 c3 60 3e 09 f6 49 be
       -0.051883698 -0.0763931 0.21949421 -0.19722761
000050 37 26 12 be e2 0f c8 bc ea 71 b1 3e 49 09 29 3e
       -0.1427239 -0.024421636 0.34657222 0.16507448
000060 cd d2 19 be fb fa c8 3d 23 3d 51 bc 53 53 f2 3e
       -0.1502182 0.09813496 -0.012770924 0.47329196
000070 39 9c ce 3e 6b c9 e7 bd da fe 6a 3a c7 67 05 3d
       0.40353563 -0.11317714 0.00089643674 0.032569673
000080 6f bc 14 3e f0 d2 9f bd ad e4 6b 3d f9 d6 3a 3e
       0.14525007 -0.07803905 0.05759113 0.18246068
000090 fd 4f 59 3e e6 dc 1f be a9 9b bc 3d 0f 1a 12 3e
       0.2122192 -0.1561161 0.09209377 0.14267753
0000a0 18 5d 05 3e 36 f2 7c 3e 39 06 24 3e 01 1e 23 3b
       0.13023794 0.24701771 0.16017999 0.002488971
0000b0 a4 30 39 bd 17 ce 5f bd db db 7c 3c e4 10 89 bd
       -0.045212403 -0.054639902 0.015433277 -0.06692675
0000c0 dc a6 70 be 0e 3a 06 be 6d cd 6a be 85 56 8d be
       -0.23501152 -0.13108084 -0.22929926 -0.27605072
0000d0 3a a4 65 be 52 be 4e be d1 8a 8d 3e 46 38 18 3e
       -0.22425929 -0.20189789 0.2764497 0.14865217
0000e0 28 37 89 3d 0e 89 ad bc bc 06 7c 3d a7 bd 4c 3d
       0.06699973 -0.021183517 0.06152986 0.049985554
0000f0 a1 fa ae 3d 5f 43 10 3e 66 6e ae 3c 3a 26 3f 3d
       0.085438974 0.140882 0.021292876 0.046667315
000100 a2 2c b9 3c 0d eb d9 bc 86 0a a7 3d f3 f1 fc 3d
       0.02260429 -0.026601339 0.08156304 0.12350836
000110 e9 ee 83 3d fc fe 90 3d 14 0d 1e 3d eb f2 3a 3d
       0.06442053 0.070798844 0.03858669 0.04564182
000120 06 2b 68 3e 86 fd 2d 3e e1 64 01 3e 43 94 a6 3d
       0.22672662 0.16991243 0.12636138 0.081337474
000130 22 5a a8 3d 70 47 d7 3d 21 7e 39 3e 65 04 f2 3d
       0.082203165 0.105116725 0.1811452 0.118172444
000140 f2 4d 85 3e 7e af 41 3e ec 62 80 3d e4 57 cc 3d
       0.2603603 0.18914601 0.06268868 0.09977701
000150 64 ea 7d 3e 8c b2 34 3e 69 24 26 3d 49 f6 17 b9
       0.24796444 0.17646235 0.040562067 -0.0001449223
000160 be dc 6f 3e 89 4c 10 3e a9 11 35 3e d1 4d be 3c
       0.2342405 0.14091696 0.17682518 0.023230465
000170 a3 5c 4e 3d 6b f6 b9 bd 2f 13 d3 bc fd dc b3 3e
       0.050381314 -0.090802036 -0.025765983 0.35129538
000180 95 47 e4 bd bf 43 48 bc 12 37 b7 bd eb 89 2a be
       -0.11146466 -0.012223183 -0.08946051 -0.16654174
000190 f9 6e 0f be a2 37 07 be 87 54 19 3e 86 b5 52 3e
       -0.14007176 -0.13204816 0.14973651 0.20577058
0001a0 67 2e 30 3e 6b 00 8d be 58 38 b2 bb d1 b6 9d 3d
       0.17205201 -0.2753938 -0.0054388456 0.07700885
0001b0 d6 77 62 3d 85 22 a2 3d 19 c8 46 3e 5d c7 42 b8
       0.055290066 0.0791674 0.19412269 -4.6438876e-05
0001c0 18 f9 bc bc ea 0e 04 be 2b 44 35 3e 05 57 8c 3e
       -0.023067996 -0.12896314 0.17701785 0.2741014
0001d0 03 25 64 3e 12 81 c9 bd 56 89 69 be d6 5c 39 bd
       0.22279744 -0.09839071 -0.22806296 -0.04525455
0001e0 3d a7 97 3e ae af c5 3e a7 24 ad 3e d6 97 43 3e
       0.2961978 0.38610595 0.33817026 0.1910089
0001f0 d0 11 df be d1 b8 fa bd 56 7b 9a 3e f4 99 af 3e
       -0.43568277 -0.12242282 0.30172223 0.34297144
000200 0e 97 8e 3e 6b 1b f7 3e ee a5 c8 bd 1a 2b 2b be
       0.2784962 0.48263106 -0.097972736 -0.1671566
000210 f3 9c 0b 3f 83 5c 03 3f f9 08 da 3e b3 02 68 3e
       0.5453636 0.51313037 0.4258497 0.2265728
000220 f5 c0 1a 3e ad 9f 09 be ba 6c 66 3e b7 3c 04 bd
       0.1511267 -0.13439818 0.22502413 -0.032284465
000230 70 8f b9 3d 95 ba 86 3d b1 15 8d 3d 48 33 59 3e
       0.09060562 0.065785564 0.06888903 0.21210968
000240 5f 8e bd 3d 3c ea 87 3d b2 b8 b4 3d 06 06 8b 3d
       0.09255671 0.066364735 0.0882429 0.06788258
000250 a9 f2 c0 3d 86 a5 d8 3d 57 06 50 3e 52 7d 84 3e
       0.09421284 0.10578446 0.20314918 0.25876862
000260 ff 0e 13 3e 11 94 9f bd 62 93 9e bd 53 ae 02 bd
       0.1436119 -0.07791913 -0.07742955 -0.03190453
000270 b3 37 b5 3e d6 1a 32 bc 48 07 f8 bb 9a b2 2d bb
       0.35394058 -0.010870656 -0.0075692274 -0.002650416
000280 34 72 72 bd 2c ee 9a bc 92 15 82 3d 83 e3 0f 3e
       -0.059190944 -0.018912397 0.063517705 0.14051633
000290 36 dd eb bc 4a db 12 3e 92 f9 ea bc 42 11 24 3d
       -0.028792005 0.14341465 -0.028683458 0.04005552
0002a0 2e 98 91 3e 6d e8 76 3e 60 8c a9 be c1 35 8b be
       0.28436416 0.24112101 -0.3311491 -0.27189448
0002b0 ad 60 66 be c5 30 a2 bd 04 60 05 3e ae ff 5e 3e
       -0.22497816 -0.07919458 0.13024908 0.21777222
0002c0 b2 d1 a6 3e bd ea 1b be 65 48 55 be d4 ec e2 be
       0.3258186 -0.15226264 -0.20828398 -0.4432131
0002d0 77 1c 9b 3e 19 aa ff 3d 2d 19 a3 3e 79 97 60 3e
       0.30295154 0.124836154 0.31855145 0.21932782
0002e0 3d 23 94 be e0 6a fe be 16 5b 30 3e 00 72 e6 3c
       -0.28933135 -0.49690914 0.17222247 0.028130531
0002f0 89 2c fd 3c 64 85 56 bd b3 c9 f5 3c 98 17 06 bf
       0.030905025 -0.052373305 0.030003404 -0.5237975
000300 77 43 d5 3d 61 cd fb 3d da e9 67 3d 2a 85 da 3c
       0.104132585 0.12295032 0.056619503 0.026674826
000310 77 cb b6 3d 95 13 a6 3d 61 23 cc bb 1b 85 5f 3e
       0.089255266 0.08109204 -0.0062298034 0.2182812
000320 82 ca a9 bc 69 5d b7 be 1e 20 bc 3d c9 2d 3e be
       -0.020726446 -0.35813454 0.09185813 -0.18572153
000330 12 5a a0 3d d4 59 c0 3d bb 1b 79 bd 24 6a 89 bd
       0.078296795 0.09392133 -0.06081746 -0.06709698
000340 59 79 0e be f7 bd 19 be 6f da 2a 3e 13 a9 84 3d
       -0.13913478 -0.15013872 0.16684888 0.06477561
000350 36 16 49 be 07 6b 5d be 25 5d f2 bd 0d 09 87 bd
       -0.19637379 -0.21622859 -0.11834172 -0.06593523
000360 60 28 61 3d 8e db 02 bc 45 a1 4e 3e 09 1f 9e be
       0.054970145 -0.007986916 0.20178707 -0.30883053
000370 3b 0d f8 be e2 06 84 bc 1c c5 e2 3d af e5 51 3e
       -0.48447594 -0.016116563 0.11072752 0.20497774
000380 4e 8a be 3e d3 3a be be 14 3e 91 be 91 ff 4d be
       0.37214893 -0.37154254 -0.28367674 -0.20117022
000390 a5 6c ae 3e e1 40 ce 3d 0e 84 81 3e ff 51 7a 3e
       0.34067264 0.100709684 0.25296062 0.24445342
0003a0 5a 13 2f be 2a 49 43 be 08 7e 7c 3e bf cf 30 3d
       -0.17097226 -0.19070879 0.24657452 0.043166872
0003b0 20 62 77 3d 7c c7 71 3d b9 d7 e1 3d c9 ae b9 bd
       0.060396314 0.059028134 0.11027474 -0.09066541
0003c0 47 cf 1b 3c ff 09 0b 3c 58 56 87 bd 65 56 12 be
       0.009509868 0.00848627 -0.06608266 -0.1429077
0003d0 eb be d9 bd 03 df 45 be d6 3b 5f bd 5f 77 b9 3e
       -0.10632118 -0.19323353 -0.054500423 0.36223885
0003e0 c2 46 cd 3d ec 19 dd bc 3d 95 64 bd 6d ba 85 bd
       0.100232616 -0.0269899 -0.055806387 -0.065296985
0003f0 d9 67 8b 3d 6d c0 62 3e b4 17 86 3b f3 46 4b bd
       0.06806917 0.22143717 0.004092181 -0.04962821

bias f4 [3]
000000 fb a9 ed 3d 76 8f a2 3d 30 b2 9c 3d
       0.11604687 0.07937519 0.07651174
