dev/pong/original/regular/pong_1000.pth (torch_old, 191750 bytes, 20 tensors)

weight f4 [16, 1, 5, 5]
-0.016435502 -0.045380693 -0.3612486 0.2764711 -0.10437694 0.14682342 0.023011131 -0.27984983
0.051004566 0.23763168 -0.23600179 -0.22316232 -0.06459174 -0.015040282 0.2192637 -0.25893477
0.13585399 -0.17036358 -0.1308733 -0.33809403 -0.20198347 0.07991727 0.123164475 0.050584313
0.081840284 -0.04931918 0.074219145 -0.037620846 -0.16993609 0.0053977994 -0.022318428 -0.26840338
0.24831086 -0.13779436 0.10793109 -0.05791581 -0.09430971 0.16962314 -0.09999613 -0.012629758
-0.0276121 0.4837696 -0.16416559 0.46177945 0.31781703 0.08753623 0.056637455 0.0029658608
-0.17305641 0.09516791 0.23076093 0.25853088 -0.11445249 -0.101827875 0.05245634 0.083156794
0.10801774 0.2442315 -0.20471665 -0.13309895 -0.091150194 -0.055232715 -0.12970848 0.005595122
0.06322127 -0.3141131 -0.3153533 0.29785377 0.2468799 -0.13597104 -0.01578594 0.28527284
-0.10316919 -0.07959166 0.3207732 0.06201411 -0.09922979 -0.14057596 -0.107125595 0.08810597
-0.20379096 -0.24076022 0.18389 -0.11503064 -0.17688042 -0.017189292 0.13249663 -0.05496049
-0.19667797 -0.09503042 0.2565739 -0.17596968 0.29080707 -0.4200745 -0.08995234 -0.06389636
0.20514935 0.008271583 -0.17407198 -0.053714342 0.1579526 -0.120047785 0.13057819 0.11687389
0.09260783 -0.22243913 0.13578573 -0.11623507 -0.15191616 -0.013825554 0.012402725 -0.050237425
0.17420009 -0.25016853 -0.23490013 -0.2013021 0.3167009 0.19089155 -0.269014 -0.27468902
-0.03663716 -0.056391064 0.22304311 -0.0276253 -0.11407099 -0.13347852 -0.122667916 0.030720351
-0.05244539 0.006434776 0.023027264 -0.17810589 0.13329682 0.04093609 0.027866222 -0.32122928
-0.26057005 -0.05876492 0.08539691 -0.082788944 0.43657383 0.43287167 0.1183147 -0.23721895
0.22524853 -0.10091723 0.11364447 0.14329417 -0.10863358 0.100829 -0.07344425 -0.08429082
0.10750603 0.12317158 -0.038226765 -0.25076142 -0.16962716 -0.27225912 0.14851026 -0.123644836
0.17142928 -0.06848991 -0.24395543 -0.17978354 -0.007739423 -0.18344744 0.11850685 0.36923814
0.14173342 -0.11507309 0.20646264 0.1991783 -0.25914487 0.14799117 -0.061847836 -0.13125813
0.1508035 0.14945449 -0.2440834 -0.056933016 -0.099695444 0.10689532 -0.079166695 0.04713509
-0.37001285 -0.06982132 0.3140819 0.17114812 -0.20028466 0.009123063 0.12742049 -0.10480317
-0.36577222 -0.33696142 0.007806284 -0.18035498 -0.21876921 0.11269942 0.045218036 0.18398793
0.0073490404 0.024566595 -0.16203843 -0.14390433 0.14110233 0.054317944 -0.044170182 -0.033861827
0.14475977 0.02289286 -0.07987058 0.03363564 -0.1501323 0.03375932 0.09309926 -0.29991266
-0.3253683 0.25025868 0.23719767 0.21726783 0.12988892 0.217179 -0.049476255 0.039531544
-0.019946521 -0.018139727 -0.014439523 -0.16499422 0.16517076 -0.24677369 0.14329642 -0.15419777
0.119358666 -0.042891145 0.12007029 -0.09121449 0.10223584 -0.019353073 -0.01951209 -0.16847654
-0.050702255 0.11473942 -0.14272673 0.31981745 0.0710433 -0.1158907 0.0845264 -0.23355971
0.08051339 -0.17194515 -0.0459692 0.107177526 -0.22308883 0.2963195 0.27422026 0.039848033
00000000: bfa3 86bc 1be1 39bd 94f5 b8be 9f8d 8d3e
00000010: 94c3 d5bd e158 163e d781 bc3c 7a48 8fbe
00000020: 2aea 503d b855 733e 74aa 71be aa84 64be
00000030: ad48 84bd 846b 76bc aa86 603e 1993 84be
00000040: 4f1d 0b3e ca73 2ebe a603 06be a91a adbe
00000050: c1d4 4ebe aaab a33d a83d fc3d 7f31 4f3d
00000060: e19b a73d e902 4abd 3500 983d 5118 1abd
00000070: ba03 2ebe 06e0 b03b 23d5 b6bc 2b6c 89be
00000080: 3445 7e3e f719 0dbe fa0a dd3d 2139 6dbd
00000090: 7325 c1bd b0b1 2d3e c5ca ccbd 0bed 4ebc
000000a0: c532 e2bc a6b0 f73e 061b 28be 5b6e ec3e
000000b0: eab8 a23e 3246 b33d adfc 673d e35e 423b
000000c0: b335 31be 65e7 c23d 984c 6c3e 295e 843e
000000d0: 1166 eabd 228b d0bd 76dc 563d 1c4e aa3d
000000e0: 6838 dd3d d317 7a3e 3ea1 51be 174b 08be
000000f0: f4ac babd b33b 62bd 4dd2 04be 4957 b73b
00000100: 277a 813d 6fd3 a0be fd75 a1be 4a80 983e
00000110: 16ce 7c3e fe3b 0bbe 8451 81bc 480f 923e
00000120: 5e4a d3bd f400 a3bd 633c a43e 8202 7e3d
00000130: fd38 cbbd 25f3 0fbe aa64 dbbd e770 b43d
00000140: 94ae 50be d989 76be a94d 3c3e 2f95 ebbd
00000150: 2420 35be 8fd0 8cbc 32ad 073e 401e 61bd
00000160: f365 49be 4f9f c2bd a75d 833e 6531 34be
00000170: aae4 943e 0114 d7be ef38 b8bd 18dc 82bd
00000180: ac12 523e 8985 073c ed3f 32be 9203 5cbd
00000190: 54be 213e 9ddb f5bd 4ab6 053e 945b ef3d
000001a0: 2da9 bd3d 15c7 63be 6a0b 0b3e a70c eebd
000001b0: e98f 1bbe 9484 62bc cd34 4b3c c2c5 4dbd
000001c0: 8261 323e 1716 80be a989 70be 2322 4ebe
000001d0: 9f26 a23e 1379 433e 34bc 89be 0aa4 8cbe
000001e0: d910 16bd 51fa 66bd 6a65 643e 744e e2bc
000001f0: 0d9e e9bd 98ae 08be 5139 fbbd 3fa9 fb3c
00000200: fad0 56bd d0da d23b aca3 bc3c 6461 36be
00000210: f67e 083e 9aac 273d b447 e43c 2a78 a4be
00000220: 7069 85be 7cb3 70bd 93e4 ae3d 408d a9bd
00000230: 9b86 df3e 5ba1 dd3e fa4e f23d 86e9 72be
00000240: 8da7 663e b1ad cebd 6fbe e83d b5bb 123e
00000250: 487b debd 6f7f ce3d f069 96bd aaa0 acbd
00000260: 1f2c dc3d 6241 fc3d ab93 1cbd cd63 80be
00000270: beb2 2dbe 8c65 8bbe 1313 183e 8139 fdbd
00000280: 288b 2f3e 7044 8cbd 74cf 79be 2d19 38be
00000290: fc9a fdbb a5d9 3bbe b8b3 f23d c80c bd3e
000002a0: 9122 113e 71ab ebbd f16a 533e 65f5 4b3e
000002b0: a3ae 84be ff8a 173e 2854 7dbd 8868 06be
000002c0: 3c6c 1a3e 990a 193e 00f1 79be 9832 69bd
000002d0: 202d ccbd efeb da3d 2622 a2bd b910 413d
000002e0: 5372 bdbe 7bfe 8ebd 58cf a03e 7441 2f3e
000002f0: 6c17 4dbe e678 153c 847a 023e 0ba3 d6bd
00000300: 7f46 bbbe 3586 acbe dbcb ff3b faae 38be
00000310: 0905 60be f4ce e63d 8c36 393d 5567 3c3e
00000320: 38d0 f03b e23f c93c 67ed 25be a85b 13be
00000330: 217d 103e 7e7c 5e3d cbeb 34bd b3b2 0abd
00000340: e83b 143e cf89 bb3c 3093 a3bd 86c5 093d
00000350: 48bc 19be 3647 0a3d d3aa be3d 278e 99be
00000360: ac96 a6be e821 803e f2e3 723e 757b 5e3e
00000370: 9a01 053e 2c64 5e3e 9da7 4abd d4eb 213d
00000380: e366 a3bc c499 94bc c093 6cbc 3ff4 28be
00000390: 8622 293e 3eb2 7cbe 4cbc 123e 05e6 1dbe
000003a0: 5172 f43d a0ae 2fbd 6ae7 f53d aace babd
000003b0: 0661 d13d 568a 9ebc d2d7 9fbc 1d85 2cbe
000003c0: 2bad 4fbd 80fc ea3d f526 12be 1dbf a33e
000003d0: 267f 913d 1a58 edbd 2d1c ad3d 472a 6fbe
000003e0: 34e4 a43d 6412 30be 334a 3cbd e47f db3d
000003f0: 6671 64be 31b7 973e 9966 8c3e b137 233d

bias f4 [16]
0.0759269 0.18069103 0.0037811548 0.021707067 0.28321934 0.18522795 0.027143084 0.08021127
0.021062579 0.22916019 0.11133365 0.10317928 -0.04425684 -0.18038157 0.10478341 0.0832372
00000000: 907f 9b3d 1207 393e 40cd 773b 05d3 b13c
00000010: 2002 913e 65ac 3d3e 2c5b de3c ce45 a43d
00000020: 6e8b ac3c f8a8 6a3e e602 e43d a94f d33d
00000030: a946 35bd f2b5 38be af98 d63d 4478 aa3d

running_mean f4 [16]
-0.29005787 0.46157944 0.15337606 -0.41690308 0.07348429 0.27581003 -0.1241262 -0.29581055
0.1416659 0.10919811 -0.195431 -0.08369013 0.8645838 -0.30166018 0.42229384 0.08238346
00000000: 7782 94be 2454 ec3e 9d0e 1d3e 5274 d5be
00000010: ee7e 963d f936 8d3e e135 febd 7b74 97be
00000020: de10 113e 42a3 df3d 101f 48be bb65 abbd
00000030: 5d55 5d3f 3473 9abe e636 d83e a9b8 a83d

running_var f4 [16]
0.011187436 0.00502027 0.002864605 0.014494489 0.0028322332 0.0008245966 0.0069340845 0.009929421
0.0009624603 0.001155618 0.010921618 0.0018614074 0.041825123 0.009564579 0.0077160317 0.0062963055
00000000: 824b 373c 1481 a43b 19bc 3b3b 4b7a 6d3c
00000010: fd9c 393b be29 583a 5137 e33b 03af 223c
00000020: 9e4d 7c3a 1b78 973a 96f0 323c 78fa f33a
00000030: d250 2b3d c1b4 1c3c c4d6 fc3b 3d51 ce3b

weight f4 [16]
0.5107525 0.43892664 0.77879375 0.9792238 0.47541508 0.24780081 0.53167915 0.99292356
0.58070666 0.43305886 0.4865984 0.40049446 0.5528878 0.763595 0.59829456 0.86715037
00000000: adc0 023f feba e03e 075f 473f 69ae 7a3f
00000010: 9b69 f33e 7fbf 7d3e 201c 083f 3d30 7e3f
00000020: 31a9 143f e4b9 dd3e 6d23 f93e 9c0d cd3e
00000030: 0e8a 0d3f f67a 433f d529 193f 91fd 5d3f

bias f4 [16]
-0.040821303 -0.21777405 -0.49754077 -0.049093362 -0.17786029 -0.20228533 0.00865275 -0.025349572
-0.712824 -0.27427673 -0.041943084 -0.10201736 -0.30045137 -0.03716623 -0.1401795 -0.002898656
00000000: 3d34 27bd 2900 5fbe aabd febe 1f16 49bd
00000010: 0221 36be e323 4fbe 44c4 0d3c e8a9 cfbc
00000020: a27b 36bf 006e 8cbe 83cc 2bbd 7aee d0bd
00000030: c3d4 99be 9e3b 18bd 378b 0fbe 61f7 3dbb

weight f4 [32, 16, 5, 5]
0.19891523 0.11121448 0.16875687 -0.26887423 -0.76914406 -0.066942014 0.057669785 0.15412277
0.012795396 0.021204276 -0.1354487 -0.15200095 0.20984077 0.14733939 -0.57912004 0.023745928
0.010928403 0.0887712 0.30213505 0.48261783 -0.07722694 0.020031504 -0.122437604 -0.06632578
-0.4510243 0.05159368 -0.10721791 -0.04801116 0.09167427 0.0083491225 0.010603451 -0.30976212
-0.2841733 0.14325741 -0.23590125 0.027390728 -0.18414968 -0.2957845 0.08460341 0.1682962
0.13034374 0.14261566 -0.19937634 0.12149785 0.03072682 0.08927582 0.22048001 -0.10844271
0.1908232 0.50053394 0.051590238 0.24505793 0.30289364 0.20561326 0.12360692 0.06480369
0.031830978 -0.028958429 0.015160565 -0.018170595 -0.035711672 0.078099616 0.02708988 0.06369634
-0.0037264659 0.17225584 0.22150058 0.29983622 0.13056056 0.055134762 0.010200937 -0.007010815
-0.09286508 -0.056328956 0.32814878 -0.31361365 -0.19027658 -0.23059458 0.088580854 0.13522118
-0.028244881 -0.23337841 -0.24205115 -0.19545409 -0.16377157 -0.14687535 0.028585734 -0.20717593
0.06087941 0.14564309 -0.16561286 0.048917234 0.09974256 0.1992709 -0.25257224 0.26969585
0.11592107 -0.024455056 -0.10834444 -0.035527818 -0.3225066 -0.13200246 -0.1466883 0.032348987
-0.15938818 0.0733131 -0.07304666 -0.049147274 0.06631823 -0.14969094 0.31407312 0.21044081
0.11988004 0.21254063 0.18595284 0.11705133 0.0829103 0.014930705 0.15765217 0.48365158
-0.19461638 0.16229977 -0.033588942 -0.11161567 0.19033474 0.0400861 -0.034504354 -0.30834392
0.07180163 0.24210371 0.30499062 -0.06052236 -0.21073072 -0.049419347 -0.015186808 -0.16442545
0.04200439 -0.3016356 -0.090707496 -0.071087144 0.24762301 0.120691076 -0.01662276 0.27030373
-0.0038808808 0.20164336 0.04282975 0.15020093 -0.0012213847 -0.0012637781 -0.12004822 -0.3455493
-0.17399871 -0.11414256 -0.09852286 -0.09907612 0.24687655 -0.106335446 -0.3482509 -0.20981911
-0.16894709 0.25580698 -0.22446899 0.032482896 0.006481461 0.10650005 -0.0916397 0.01616128
0.3027682 -0.23017307 0.03733033 -0.054959074 -0.060660772 -0.06369248 0.35982686 0.0015519172
-0.22844273 0.05284625 0.028439062 -0.2685358 -0.06694378 -0.136246 0.06948568 -0.08521437
0.044211794 0.032576296 0.14978726 0.00747143 -0.16080703 0.06743479 -0.06999056 -0.025367448
-0.105982 0.2644499 0.50627714 0.14955963 0.10920568 0.10676695 0.111865565 -0.032378484
0.059087336 0.11931131 0.16843301 0.16949634 0.08293427 0.14281857 -0.27807057 -0.41692963
0.03807145 -0.2426106 0.15063578 -0.10936846 0.17477414 0.20362106 0.122482195 -0.026048541
0.17736714 -0.20842111 0.029791124 -0.01381791 -0.04506037 -0.039759506 0.0249594 0.28544068
0.35799485 -0.19785109 0.06221383 -0.061336022 0.24735309 -0.18914017 -0.16962619 -0.025427211
-0.3727454 -0.04612034 -0.39743567 -0.06961841 -0.12521538 -0.068281084 -0.035096098 0.39486805
-0.026104264 0.18597142 0.1576596 -0.25024155 0.07863546 -0.3329398 -0.10724719 -0.252935
-0.0069043837 0.19191027 0.28844917 -0.19191624 0.13296546 0.029467514 -0.29626906 0.43609512
00000000: 6fb0 4b3e 6bc4 e33d 9ace 2c3e e2a9 89be
00000010: a0e6 44bf e518 89bd 2737 6c3d 5cd2 1d3e
00000020: c8a3 513c 97b4 ad3c 10b3 0abe 23a6 1bbe
00000030: 80e0 563e 23e0 163e 3641 14bf d286 c23c
00000040: 0b0d 333c adcd b53d 72b1 9a3e af19 f73e
00000050: 2829 9ebd 1c19 a43c 91c0 fabd cfd5 87bd
00000060: a8ec e6be e553 533d 1095 dbbd 5aa7 44bd
00000070: b8bf bb3d c2ca 083c 19ba 2d3c 2499 9ebe
00000080: 2a7f 91be 12b2 123e 1990 71be 8562 e03c
00000090: bc91 3cbe 1171 97be 8d44 ad3d d755 2c3e
000000a0: d478 053e d709 123e 5029 4cbe ddd3 f83d
000000b0: d0b6 fb3c 3ed6 b63d 83c5 613e 3617 debd
000000c0: 2867 433e fe22 003f 4950 533d 77f0 7a3e
000000d0: e014 9b3e 488c 523e a025 fd3d ccb7 843d
000000e0: 3361 023d 3a3a edbc 0564 783c 80da 94bc
000000f0: 6746 12bd b1f2 9f3d 99eb dd3c 3a73 823d
00000100: b937 74bb d663 303e 0cd1 623e 2284 993e
00000110: abb1 053e fdd4 613d d521 273c fbba e5bb
00000120: 0c30 bebd 31b9 66bd 1e03 a83e f891 a0be
00000130: ddd7 42be fc20 6cbe e169 b53d 6c77 0a3e
00000140: cf61 e7bc c0fa 6ebe 42dc 77be 1e25 48be
00000150: bcb3 27be 7e66 16be a12c ea3c ed25 54be
00000160: b05c 793d 7623 153e 6b96 29be 705d 483d
00000170: d445 cc3d ac0d 4c3e 2651 81be 9315 8a3e
00000180: 0768 ed3d f855 c8bc b1e3 ddbd 9e85 11bd
00000190: 961f a5be a72b 07be 7535 16be 5f80 043d
000001a0: a836 23be 2e25 963d 7d99 95bd a74e 49bd
000001b0: dad1 873d 9548 19be 31ce a03e cc7d 573e
000001c0: ab83 f53d 40a4 593e 6c6a 3e3e 9cb8 ef3d
000001d0: e0cc a93d ea9f 743c 926f 213e 2ea1 f73e
000001e0: 8449 47be e931 263e 8f94 09bd c296 e4bd
000001f0: 1ce7 423e 5331 243d 7054 0dbd 41df 9dbe
00000200: bc0c 933d 09ea 773e bb27 9c3e 4be6 77bd
00000210: cbc9 57be f16b 4abd 17d2 78bc 255f 28be
00000220: cc0c 2c3d fb6f 9abe dac4 b9bd 2396 91bd
00000230: e390 7d3e e22c f73d 742c 88bc 4065 8a3e
00000240: 6056 7ebb 997b 4e3e 3f6e 2f3d 46ce 193e
00000250: df16 a0ba 5ba5 a5ba d7db f5bd d6eb b0be
00000260: b82c 32be 93c3 e9bd 5ac6 c9bd 6ce8 cabd
00000270: 35cd 7c3e 66c6 d9bd f14d b2be d2da 56be
00000280: 7700 2dbe 22f9 823e 33db 65be c90c 053d
00000290: 7062 d43b b31c da3d 98ad bbbd a964 843c
000002a0: 6f04 9b3e 7db2 6bbe b0e7 183d c41c 61bd
000002b0: 6e77 78bd 3471 82bd 3a3b b83e b369 cb3a
000002c0: e4ec 69be 4f75 583d 09f9 e83c 867d 89be
000002d0: d219 89bd 1284 0bbe 824e 8e3d df84 aebd
000002e0: 6d17 353d b96e 053d d561 193e e6d2 f43b
000002f0: 99aa 24be 401b 8a3d 3657 8fbd 65cf cfbc
00000300: 170d d9bd fa65 873e 619b 013f 2926 193e
00000310: 3aa7 df3d a1a8 da3d c619 e53d 4d9f 04bd
00000320: 9005 723d 7d59 f43d b479 2c3e 7390 2d3e
00000330: 71d9 a93d 083f 123e 445f 8ebe cd77 d5be
00000340: cff0 1b3d ea6e 78be 4440 1a3e 92fc dfbd
00000350: fef7 323e 0a82 503e f2d7 fa3d c063 d5bc
00000360: bb9f 353e 586c 55be 840c f43c 8464 62bc
00000370: 3991 38bd ddda 22bd a877 cc3c 4825 923e
00000380: 1a4b b73e 7a99 4abe eed3 7e3d 7b3b 7bbd
00000390: 214a 7d3e f6ad 41be 7db2 2dbe ba4c d0bc
000003a0: 7cd8 bebe aee8 3cbd b07c cbbe 1994 8ebd
000003b0: 7638 00be f4d6 8bbd edc0 0fbd 252c ca3e
000003c0: 9cd8 d5bc 4b6f 3e3e 8571 213e a91f 80be
000003d0: a10b a13d 1677 aabe 6aa4 dbbd b280 81be
000003e0: 2b3e e2bb 2084 443e 9caf 933e b185 44be
000003f0: 1928 083e db65 f13c 94b0 97be dc47 df3e

bias f4 [32]
0.038356893 0.03031667 0.12445263 -0.06534175 -0.1357802 -0.0527234 -0.05633859 0.030400204
0.09029342 -0.05726222 -0.01631764 -0.0107276775 0.004041991 0.012301993 0.04419283 0.06028786
0.03427957 0.013265028 -0.03294264 -0.07351026 0.07439845 0.04539941 -0.008707539 -0.01613836
0.018012013 -0.004982906 0.029417673 -0.010979873 0.037398607 0.14488587 0.042508405 -0.0502161
00000000: 1e1c 1d3d aa5a f83c 05e1 fe3d e5d1 85bd
00000010: f709 0bbe 7ef4 57bd 4bc3 66bd d909 f93c
00000020: c2eb b83d ca8b 6abd 92ac 85bc 24c3 2fbc
00000030: ae72 843b 4c8e 493c 8a03 353d 67f0 763d
00000040: bc68 0c3d 8f55 593c ddee 06bd 8c8c 96bd
00000050: 375e 983d bbf4 393d 11aa 0ebc 9834 84bc
00000060: ee8d 933c a547 a3bb 55fd f03c ede4 33bc
00000070: 482f 193d f65c 143e 4b1d 2e3d 66af 4dbd

running_mean f4 [32]
-0.07288234 0.9221782 0.8111352 0.23535736 -0.16611911 -1.0847269 0.27979955 -0.76210016
-0.6814561 -1.4205512 0.12736514 -0.30061716 -0.30754793 -1.4713539 0.937436 -0.6391683
-0.19984333 0.08045219 -0.5230409 -0.007892749 0.4982635 -0.649933 -0.33890823 0.93137735
-1.3636639 0.9909644 0.09673573 -1.4367753 0.26427495 0.013788427 -0.60214835 -0.71139085
00000000: 5643 95bd df13 6c3f 8ea6 4f3f 8501 713e
00000010: 211b 2abe 55d8 8abf e341 8f3e ff18 43bf
00000020: e873 2ebf 9fd4 b5bf 026c 023e 7eea 99be
00000030: ec76 9dbe 5355 bcbf cefb 6f3f 89a0 23bf
00000040: bba3 4cbe 1ec4 a43d 02e6 05bf 9750 01bc
00000050: 651c ff3e 0262 26bf 6185 adbe bf6e 6e3f
00000060: 8a8c aebf d8af 7d3f 621d c63d 41e8 b7bf
00000070: 0c4f 873e dbe8 613c 6526 1abf b61d 36bf

running_var f4 [32]
0.59922373 0.601758 3.8575158 14.451592 1.4009867 1.9473608 4.242274 0.6517739
4.9207187 1.9187816 7.721026 5.928364 1.2288201 7.2727613 3.86443 0.61326367
2.3826709 1.9109075 1.0301185 3.7116807 0.82678425 1.4818558 2.7873294 2.0689478
2.5205195 7.342272 1.8760759 5.5125046 3.0493093 1.621757 8.601512 4.36549
00000000: ba66 193f d00c 1a3f 8ae1 7640 b939 6741
00000010: 8853 b33f 1e43 f93f b5c0 8740 a8da 263f
00000020: 8776 9d40 a39a f53f a512 f740 28b5 bd40
00000030: fa49 9d3f 76ba e840 d252 7740 d9fe 1c3f
00000040: ae7d 1840 9e98 f43f ecda 833f 2d8c 6d40
00000050: 22a8 533f 73ad bd3f 9b63 3240 a469 0440
00000060: 3150 2140 e4f3 ea40 4123 f03f 7066 b040
00000070: e227 4340 bc95 cf3f cb9f 0941 18b2 8b40

weight f4 [32]
0.19168441 0.14891832 0.6570679 0.8188411 1.1107 0.7372719 0.2999201 0.5337845
0.757224 0.77069646 0.74727184 0.4187645 0.37761924 0.97452503 0.6730115 0.27742064
1.1280147 0.21143089 0.54748774 0.7102407 0.19924802 0.6257335 0.3928148 0.14856489
0.69970584 0.5804646 0.2327581 0.970825 0.24041611 0.3658585 0.7925203 0.79375404
00000000: eb48 443e 0b7e 183e 9a35 283f 929f 513f
00000010: 6b2b 8e3f dabd 3c3f 218f 993e 1aa6 083f
00000020: 6fd9 413f 5d4c 453f 354d 3f3f 4d68 d63e
00000030: 4f57 c13e 797a 793f 7b4a 2c3f 140a 8e3e
00000040: c962 903f 5781 583e 2828 0c3f 56d2 353f
00000050: ac07 4c3e 1230 203f 051f c93e 6521 183e
00000060: ec1f 333f 5499 143f 2458 6e3e fd87 783f
00000070: a42f 763e ce51 bb3e 9ce2 4a3f 7733 4b3f

bias f4 [32]
-0.3513097 -0.3760957 -0.32101208 -0.033051487 -0.15699355 -0.11659983 -0.105668 0.029507848
-0.0081905 0.015432096 0.0031896003 -0.11500724 -0.066015266 0.23041405 -0.32909942 0.00072098355
-0.07179212 -0.31202692 -0.20210725 -0.13228245 -0.13832535 -0.21007822 0.03851011 -0.16052055
0.11315962 -0.33263615 -0.03201576 0.068409026 -0.19009387 0.08663798 0.015165952 -0.03837083
00000000: ddde b3be 9e8f c0be b25b a4be ff60 07bd
00000010: ebc2 20be e4cb eebd 7768 d8bd 71ba f13c
00000020: 7231 06bc e7d6 7c3c 9d08 513b ea88 ebbd
00000030: 0333 87bd a9f1 6b3e b87f a8be 6300 3d3a
00000040: bf07 93bd fec1 9fbe 34f5 4ebe 0d75 07be
00000050: 29a5 0dbe bf1e 57be c7bc 1d3d 805f 24be
00000060: 3bc0 e73d 494f aabe f522 03bd 081a 8c3d
00000070: f8a7 42be 416f b13d 9d7a 783c bb2a 1dbd

weight f4 [32, 32, 5, 5]
-0.05964589 -0.13033037 -0.19605066 0.019055312 0.10890068 0.13756615 -0.009867231 0.1750303
-0.112325475 -0.08606507 0.29023585 -0.0096366415 -0.13345562 -0.23126373 0.336154 0.06194981
0.2528803 0.08549415 -0.042203 -0.17696054 0.35266656 0.2191042 -0.28090885 0.08138608
0.1282016 -0.21928003 -0.57421225 0.082125895 -0.6965852 -0.5230888 -0.19154924 0.4433782
-0.22820765 0.107445575 -0.22155093 -0.8967135 0.10284126 -0.007359403 -0.09956478 -0.12824808
0.016006043 0.057956953 -0.051457178 0.062305648 -0.16388862 0.025301317 -0.040458474 0.008566325
0.05701481 -0.08605935 -0.07173648 -0.11125745 -0.1208632 -0.12300629 -0.06953751 -0.21487907
-0.64341515 0.08741829 0.13119774 -0.4583825 0.0024267472 -0.0935647 0.048647374 -0.12732984
0.08671482 0.08117174 0.07258319 0.37126634 -0.053294558 0.021742024 -0.008622372 -0.20898877
-0.5039979 0.26871863 0.17011413 -0.0220648 0.050984096 0.01761179 -0.41646412 0.05956023
-0.034954347 -0.17225176 0.117454 0.09678247 -0.06753516 -0.14403307 -0.046446893 0.038822383
0.025425024 0.10038009 -0.18853343 -0.17625289 0.16178833 -0.004755428 0.1239342 -0.018259794
-0.10046693 0.037754063 0.12139858 -0.17794839 -0.07388344 -0.085257806 -0.12598106 -0.13113774
-0.05882571 -0.29679734 0.15943708 -0.10796451 -0.27207142 0.1311015 0.019186556 0.28346685
0.29503787 0.17670265 0.18874702 -0.6148707 -0.3984996 -0.093106285 0.017434306 -0.028498039
0.45951122 0.09387206 -0.11193239 0.11611134 -0.023770478 0.09089719 0.18914428 -0.07053748
0.21642493 0.10823665 0.28532976 0.1291266 -0.15371002 -0.27708316 -0.07499413 0.11595488
0.13984239 -0.05158796 -0.20192665 -0.045546986 0.16754517 0.17106609 -0.16439752 -0.20780025
-0.11754223 -0.16759734 -0.3078381 -0.07075597 0.06703223 -0.02845881 -0.13595714 -0.05817086
-0.074381135 -0.086681604 0.062149502 -0.31307846 -0.042290732 -0.15047012 -0.13843355 -0.12267642
-0.17092335 -0.0075799413 0.03712565 0.04204594 -0.0073292875 0.55626994 -0.18533473 -0.2588541
-0.04103989 -0.17881359 -0.19948576 0.082023166 0.18195118 0.10172855 0.11216006 0.062218253
0.18609662 -0.034081317 0.07242106 0.032106366 -0.19790052 0.1894892 -0.16240515 -0.20926443
-0.059927214 0.28699064 0.121875755 -0.3174736 -0.17683582 0.06216796 -0.4404639 0.19370146
-0.1718333 -0.02740888 0.25809446 -0.06004526 -0.19509935 0.046150975 -0.076851085 0.029783735
0.036251076 0.1100252 0.18321338 0.2788587 0.12223469 -0.017668629 0.3018488 -0.08046132
-0.09351745 0.013041826 -0.1436442 0.03499913 -0.044593245 -0.07358555 0.21926357 0.028119506
0.061062694 0.010435338 -0.0554081 -0.10091029 0.09996511 0.077132255 -0.15823993 -0.23620607
0.030484362 0.069977745 -0.07370975 0.08163032 0.0058098533 0.07097793 0.11847006 0.23493779
0.00072509353 -0.048212856 0.043672472 -0.08304238 0.012133269 0.013477417 0.0037076687 0.19517201
-0.06711778 0.18982908 0.07043241 0.02960741 0.04199216 -0.07387367 -0.19381823 -0.12072616
-0.28457767 -0.30883566 -0.11636462 -0.0713803 -0.06898485 -0.01589696 -0.06798851 -0.21620524
00000000: 404f 74bd 5375 05be 81c1 48be e319 9c3c
00000010: 5207 df3d 24de 0c3e 2baa 21bc 253b 333e
00000020: e60a e6bd e242 b0bd cb99 943e 01e3 1dbc
00000030: 97a8 08be 66d0 6cbe 611c ac3e 15bf 7d3d
00000040: 8779 813e 8f17 af3d 0edd 2cbd 2535 35be
00000050: b690 b43e da5c 603e 49d3 8fbe bfad a63d
00000060: 4847 033e f28a 60be 93ff 12bf 9f31 a83d
00000070: 6853 32bf 26e9 05bf 7c25 44be 7802 e33e
00000080: 44af 69be 6d0c dc3d 3fde 62be 048f 65bf
00000090: 709e d23d 2627 f1bb 9fe8 cbbd 7753 03be
000000a0: 1b1f 833c 4564 6d3d c3c4 52bd 3534 7f3d
000000b0: 6bd2 27be b544 cf3c c9b7 25bd c559 0c3c
000000c0: 5d88 693d e23f b0bd 93ea 92bd f2da e3bd
000000d0: 2087 f7bd b9ea fbbd af69 8ebd 4209 5cbe
000000e0: dbb6 24bf 5c08 b33d b358 063e 1cb1 eabe
000000f0: 100a 1f3b d99e bfbd 7842 473d c162 02be
00000100: 8a97 b13d 5f3d a63d 7fa6 943d 9f16 be3e
00000110: 654b 5abd 541c b23c d944 0dbc 2701 56be
00000120: 0206 01bf 7d95 893e 6632 2e3e 3dc1 b4bc
00000130: b3d4 503d 9a46 903c c93a d5be 6df5 733d
00000140: 4a2c 0fbd c462 30be b98b f03d e335 c63d
00000150: e04f 8abd 687d 13be 193f 3ebd 3804 1f3d
00000160: 2448 d03c 1494 cd3d e80e 41be a37b 34be
00000170: d7ab 253e 6cd3 9bbb 37d1 fd3d 9095 95bc
00000180: 9bc1 cdbd 01a4 1a3d d29f f83d 1a38 36be
00000190: 3350 97bd a59b aebd 2e01 01be f948 06be
000001a0: 3af3 70bd d2f5 97be 7943 233e 7f1c ddbd
000001b0: f24c 8bbe 793f 063e 202d 9d3c 9122 913e
000001c0: 340f 973e 8af1 343e e646 413e 2b68 1dbf
000001d0: 2408 ccbe 82ae bebd 64d2 8e3c b874 e9bc
000001e0: 0e45 eb3e ff3f c03d cf3c e5bd c8cb ed3d
000001f0: 4eba c2bc 4e28 ba3d 0aaf 413e f475 90bd
00000200: 7f9e 5d3e 2dab dd3d be16 923e c339 043e
00000210: 2966 1dbe d8dd 8dbe 8696 99bd c179 ed3d
00000220: d832 0f3e e64d 53bd dcc5 4ebe 7a8f 3abd
00000230: f690 2b3e f32b 2f3e d357 28be 97c9 54be
00000240: fbb9 f0bd a39e 2bbe f59c 9dbe 82e8 90bd
00000250: 3248 893d 7322 e9bc 5938 0bbe 9144 6ebd
00000260: 2355 98bd 2086 b1bd 7a90 7e3d d24b a0be
00000270: 0c39 2dbd d714 1abe 86c1 0dbe c63d fbbd
00000280: 8806 2fbe 2861 f8bb 1111 183d 5d38 2c3d
00000290: 852a f0bb b567 0e3f 63c8 3dbe 8688 84be
000002a0: 7219 28bd e91a 37be ff45 4cbe c3fb a73d
000002b0: 6951 3a3e 0f57 d03d 2cb4 e53d 91d8 7e3d
000002c0: 1d90 3e3e da98 0bbd 7e51 943d f781 033d
000002d0: 6fa6 4abe 7509 423e 894d 26be 6a49 56be
000002e0: 3d76 75bd 70f0 923e ff99 f93d e68b a2be
000002f0: 7314 35be d5a3 7e3d 7c84 e1be ad59 463e
00000300: 12f5 2fbe 9688 e0bc f524 843e 05f2 75bd
00000310: 20c8 47be ce08 3d3d 1a64 9dbd 05fd f33c
00000320: 027c 143d e454 e13d 4a9c 3b3e 91c6 8e3e
00000330: 2e56 fa3d cdbd 90bc ed8b 9a3e e8c8 a4bd
00000340: 1486 bfbd 62ad 553c 7717 13be 3f5b 0f3d
00000350: 68a7 36bd 05b4 96bd a186 603e e15a e63c
00000360: e01c 7a3d fbf8 2a3c 9bf3 62bd 0eaa cebd
00000370: 82ba cc3d 84f7 9d3d a609 22be 01e0 71be
00000380: 57ba f93c 7e50 8f3d 23f5 96bd cc2d a73d
00000390: 9560 be3b e15c 913d 6ea0 f23d 8893 703e
000003a0: 3414 3e3a d87a 45bd e8e1 323d 2012 aabd
000003b0: 9eca 463c 62d0 5c3c 5cfc 723b 2cdb 473e
000003c0: 0c75 89bd 8e62 423e de3e 903d 3d8b f23c
000003d0: f9ff 2b3d 144b 97bd 4978 46be 473f f7bd
000003e0: 2ab4 91be b51f 9ebe 9350 eebd d62f 92bd
000003f0: ee47 8dbd 573a 82bc 8f3d 8bbd e864 5dbe

bias f4 [32]
-0.16995102 -0.091249645 0.05603492 -0.053795617 0.041241005 0.01779145 0.24414179 0.12276318
0.29019895 -0.15402368 0.23799205 0.15085289 0.008110185 -0.029290663 0.2794151 -0.12206417
-0.16492593 0.0033382897 0.048282005 0.027320432 -0.052244425 0.034541078 -0.097137846 0.040377125
0.121397 -0.08076636 -0.19653878 0.31465837 0.17243126 0.052265424 -0.13594368 0.0037115656
00000000: a407 2ebe 18e1 babd df84 653d cb58 5cbd
00000010: 54ec 283d 60bf 913c 4e00 7a3e 436b fb3d
00000020: f594 943e 62b8 1dbe 30b4 733e 2e79 1a3e
00000030: 95e0 043c f9f2 efbc 7f0f 8f3e c8fc f9bd
00000040: 58e2 28be 35c7 5a3b 5ac3 453d 19cf df3c
00000050: 40fe 55bd f27a 0d3d 35f0 c6bd 7c62 253d
00000060: fe9e f83d d568 a5bd 7641 49be e71a a13e
00000070: d291 303e 4514 563d d234 0bbe bd3d 733b

running_mean f4 [32]
-0.11624961 -2.5385451 -2.142493 -1.0485497 1.8352041 -3.0819058 0.2598483 -3.26065
0.44192317 -0.6543375 0.85726607 -0.8378531 1.1894153 -1.177337 1.9266741 1.2252018
-1.5020034 -1.7434735 -1.6560248 1.5433505 -0.3542796 1.0745697 0.33751652 2.2039542
0.6035207 -2.6770122 -2.3410017 1.5753274 1.2959071 -0.5370615 2.2653258 -3.30971
00000000: 4714 eebd 8677 22c0 9b1e 09c0 e036 86bf
00000010: f8e7 ea3f f23d 45c0 d60a 853e 7dae 50c0
00000020: c143 e23e aa82 27bf ca75 5b3f 8a7d 56bf
00000030: c33e 983f fbb2 96bf 429d f63f 6ad3 9c3f
00000040: a641 c0bf 242a dfbf 9ff8 d3bf 828c c53f
00000050: 2364 b5be 808b 893f f7ce ac3e 960d 0d40
00000060: 5580 1a3f 2b54 2bc0 f9d2 15c0 54a4 c93f
00000070: 49e0 a53f dd7c 09bf 19fb 1040 4ad2 53c0

running_var f4 [32]
5.9790983 21.048565 71.63299 7.2991896 22.484344 136.3489 14.005421 78.055534
22.555342 2.7574158 18.925705 11.083489 26.041468 8.981966 47.14501 8.104285
16.360224 1.3203093 1.9623215 7.6843815 99.53553 6.1461573 6.2546945 20.923866
51.33724 20.357164 11.628219 14.110529 25.861748 8.043212 0.9156994 20.481537
00000000: c654 bf40 7663 a841 1744 8f42 f692 e940
00000010: f0df b341 5259 0843 3416 6041 6f1c 9c42
00000020: 5771 b441 8079 3040 d867 9741 f955 3141
00000030: ed54 d041 22b6 0f41 7e94 3c42 27ab 0141
00000040: bde1 8241 e5ff a83f 5a2d fb3f 74e6 f540
00000050: 3112 c742 52ad c440 7526 c840 1464 a741
00000060: 5559 4d42 79db a241 2f0d 3a41 bac4 6141
00000070: dce4 ce41 ffb0 0041 476b 6a3f 30da a341

weight f4 [32]
0.5749278 0.3514541 0.61199486 0.5596655 0.9800678 1.2011638 1.5001549 0.60734826
1.7295369 0.8833814 1.2637674 0.70208675 1.4868127 0.17951806 1.9095237 0.70378894
1.2401347 0.3001616 0.17434901 0.87101126 0.6815919 1.0539318 0.65553194 0.40041336
1.4944606 1.0572716 0.84602314 1.6410671 1.6479242 0.70568174 0.41732755 0.99611974
00000000: 782e 133f cbf1 b33e b2ab 1c3f 3d46 0f3f
00000010: b9e5 7a3f bcbf 993f 1305 c03f 2d7b 1b3f
00000020: 7761 dd3f 4925 623f 21c3 a13f f5bb 333f
00000030: e14f be3f 95d3 373e 466b f43f 832b 343f
00000040: bcbc 9e3f c8ae 993e 8c88 323e 98fa 5e3f
00000050: cf7c 2e3f 3de7 863f f1d0 273f fb02 cd3e
00000060: 7c4a bf3f ad54 873f f994 583f 7d0e d23f
00000070: 2eef d23f 8fa7 343f f5ab d53e b401 7f3f

bias f4 [32]
-0.22267027 0.018944385 -0.0043382994 0.13565424 -0.1232557 0.02684027 0.25735378 0.00351366
0.2886161 -0.11963014 0.18265386 -0.2888442 0.3955082 0.023017215 0.5272435 0.103898555
0.18872951 -0.11154194 0.03219029 0.11265765 -0.031297054 0.020039506 0.071679965 0.15453793
0.08130697 0.18084633 0.14125437 0.12713784 0.3487966 0.14005259 -0.36559308 -0.39787933
00000000: ad03 64be 4131 9b3c 4b28 8ebb f2e8 0a3e
00000010: 7c6d fcbd 20e0 db3c e0c3 833e 6f45 663b
00000020: 7dc5 933e a600 f5bd 9d09 3b3e 63e3 93be
00000030: 0d80 ca3e 998e bc3c 6ef9 063f c4c8 d43d
00000040: 4f42 413e 1a70 e4bd f7d9 033d 0eb9 e63d
00000050: 5731 00bd e429 a43c f2cc 923d 313f 1e3e
00000060: 4584 a63d c82f 393e fca4 103e 6c30 023e
00000070: 7895 b23e f269 0f3e 042f bbbe d7b6 cbbe

weight f4 [3, 1536]
0.005796625 -0.120649 -0.023682488 -0.098501846 -0.08751217 -0.08994318 -0.004156656 -0.0015587896
0.11440042 0.0857626 0.004236794 -0.00987201 -0.12206568 -0.047638267 0.067491874 -0.080923215
-0.124462135 -0.1051038 0.27135962 -0.12937242 -0.11409175 -0.12818265 0.50019974 0.16474064
-0.14764747 0.086457305 -0.03158673 0.6722388 0.36581755 -0.17245547 0.058491103 0.09316466
0.074655265 -0.18160675 -0.34944302 0.129424 0.13876195 -0.28083807 0.25925857 0.19847642
0.08022361 0.261872 0.018755365 -0.007907598 -0.081468426 -0.019560058 0.114138976 0.008283914
-0.30331823 -0.19938633 -0.2976051 -0.34435913 -0.29256555 -0.27020636 0.28660536 0.14041263
0.059074193 -0.0320016 0.056675214 0.04082826 0.07901094 0.13262734 0.01310276 0.041875742
0.020773858 -0.036660224 0.06724524 0.119818754 0.06359423 0.066658475 0.03295846 0.04333372
0.23709758 0.15751852 0.12424571 0.079681 0.07452422 0.098717295 0.1648924 0.104875185
0.25666252 0.18824092 0.061603326 0.088499926 0.23912226 0.17338924 0.03671419 -0.0040583666
0.23148479 0.14066514 0.14949846 0.022282062 0.06760642 -0.074114494 -0.0591483 0.44455534
-0.2506673 -0.15142909 -0.22866687 -0.3057442 -0.27927387 -0.27125096 0.1758196 0.2017579
0.1715733 -0.27374822 -0.003783652 0.10500603 0.056753725 0.07603428 0.19576998 -0.0008600988
-0.021663584 -0.12958375 0.18660595 0.27220067 0.22708875 -0.095405824 -0.22366227 -0.043363485
0.30236658 0.38461918 0.34051096 0.19293058 -0.4286854 -0.122429766 0.2940317 0.34274048
0.2758072 0.4845634 -0.09564932 -0.15990391 0.5449796 0.516936 0.4257012 0.22804703
0.15433331 -0.13673477 0.27697763 -0.029268447 0.09503547 0.06768798 0.060725905 0.20906927
0.11382211 0.08535083 0.105590194 0.08727651 0.11323279 0.12376247 0.3057352 0.2790733
0.0142100295 0.016595546 -0.046852686 -0.1498161 0.34192893 -0.045282964 0.008438586 -0.0026498362
-0.027986012 -0.102969855 0.031104313 -0.020375397 -0.06463028 0.25633594 0.06902616 -0.1079064
0.23035982 0.2622972 -0.21819036 -0.2330904 -0.32806653 -0.35754398 0.213173 0.0708103
0.3266808 0.007948324 -0.009990001 -0.5255378 0.39165187 0.029664857 0.12762012 0.3124747
-0.20089039 -0.78378624 0.23679762 0.016702946 0.105917506 -0.027792288 0.036345825 -0.46681166
0.036037415 0.04274938 -0.027549142 -0.052376002 0.009205285 0.008734521 0.09178985 0.23745066
0.00048577835 -0.33628863 0.117631994 -0.15622362 0.14383417 0.11588317 -0.033020947 -0.037377845
-0.105389014 -0.1118544 0.22952385 0.08730179 -0.15989164 -0.18434164 -0.08615926 -0.027499884
0.13493691 0.014841851 0.22721742 -0.277199 -0.45350432 0.015465565 0.16238132 0.23218925
0.3940394 -0.33990952 -0.2527083 -0.16297081 0.3664497 0.13498907 0.27876928 0.26734886
-0.13754204 -0.15809621 0.22508419 0.021671593 0.03890263 0.03753454 0.08878417 -0.11215588
-0.10761872 -0.10864267 -0.18320458 -0.26003206 -0.22344154 -0.310359 -0.03480758 0.3657044
0.10175744 -0.021116236 -0.049436104 -0.0679352 0.06609334 0.2286728 0.013681969 -0.039867565
00000000: 9df1 bd3b d316 f7bd c701 c2bc 56bb c9bd
00000010: 9539 b3bd 2134 b8bd 8f34 88bb 4d50 ccba
00000020: c44a ea3d 4da4 af3d ced4 8a3b 36be 21bc
00000030: 92fd f9bd 5820 43bd 2e39 8a3d 12bb a5bd
00000040: 01e6 febd a940 d7bd a6ef 8a3e 347a 04be
00000050: efa8 e9bd 5042 03be 170d 003f c5b1 283e
00000060: e630 17be 8710 b13d 1661 01bd d817 2c3f
00000070: 704c bb3e 2b98 30be 5e94 6f3d 1dcd be3d
00000080: dce4 983d 1ff7 39be 32ea b2be ba87 043e
00000090: 9d17 0e3e 02ca 8fbe 8abd 843e 673d 4b3e
000000a0: 474c a43d 1614 863e daa4 993c df8e 01bc
000000b0: ebd8 a6bd 6a3c a0bc b2c1 e93d 41b9 073c
000000c0: 874c 9bbe ee2b 4cbe b25f 98be d74f b0be
000000d0: 27cb 95be 7d58 8abe f0bd 923e 54c8 0f3e
000000e0: c8f7 713d 1c14 03bd 4524 683d 893b 273d
000000f0: 7dd0 a13d 76cf 073e f5ac 563c e685 2b3d
00000100: f02d aa3c 0829 16bd dfb7 893d 8963 f53d
00000110: b13d 823d 3d84 883d 73ff 063d b37e 313d
00000120: b5c9 723e 894c 213e 8974 fe3d cb2f a33d
00000130: 27a0 983d 4b2c ca3d 8ed9 283e cdc8 d63d
00000140: 4569 833e 3ac2 403e c553 7c3d 733f b53d
00000150: 77dc 743e f38c 313e 9e61 163d 0cfc 84bb
00000160: 590a 6d3e 860a 103e 2016 193e df88 b63c
00000170: 3c75 8a3d 57c9 97bd 7d45 72bd c29c e33e
00000180: 7757 80be 3a10 1bbe a627 6abe 818a 9cbe
00000190: fcfc 8ebe 68e1 8abe 0e0a 343e 9f99 4e3e
000001a0: e9b0 2f3e ba28 8cbe 26f7 77bb 670d d73d
000001b0: 9876 683d dcb7 9b3d ed77 483e 4178 61ba
000001c0: d477 b1bc 9ab1 04be a115 3f3e e35d 8b3e
000001d0: f489 683e 2164 c3bd b907 65be e99d 31bd
000001e0: cbcf 9a3e ceec c43e 7457 ae3e 988f 453e
000001f0: a77c dbbe 75bc fabd 538b 963e ae7b af3e
00000200: 9a36 8d3e b218 f83e cae3 c3bd dabd 23be
00000210: c883 0b3f eb55 043f 82f5 d93e 2985 693e
00000220: 8d09 1e3e 3304 0cbe 03d0 8d3e 62c4 efbc
00000230: f5a1 c23d ff9f 8a3d babb 783d 4116 563e
00000240: 911b e93d 6acc ae3d ac3f d83d 07be b23d
00000250: 98e6 e73d 2e77 fd3d 5389 9c3e b2e2 8e3e
00000260: 2fd1 683c 62f3 873c 9ae8 3fbd 6469 19be
00000270: 4f11 af3e a17a 39bd ff41 0a3c e0a8 2dbb
00000280: ec42 e5bc dce1 d2bd 79ce fe3c 4eea a6bc
00000290: e15c 84bd 773e 833e 965d 8d3d 08fe dcbd
000002a0: 72e3 6b3e d24b 863e 4b6d 5fbe 40af 6ebe
000002b0: 56f8 a7be 0110 b7be 064a 5a3e fe04 913d
000002c0: b542 a73e b039 023c 1aad 23bc a589 06bf
000002d0: 9886 c83e b703 f33c d9ae 023e affc 9f3e
000002e0: 36b6 4dbe 37a6 48bf 137b 723e 9ed4 883c
000002f0: 47eb d83d a7ac e3bc 5cdf 143d f001 efbe
00000300: f89b 133d f919 2f3d bdae e1bc 3888 56bd
00000310: c4d1 163c 3d1b 0f3c 51fc bb3d 4426 733e
00000320: 11b0 fe39 062e acbe 0be9 f03d 16f9 1fbe
00000330: 4449 133e 2854 ed3d f940 07bd 8319 19bd
00000340: 32d6 d7bd eb13 e5bd 4d08 6b3e 48cb b23d
00000350: a2ba 23be 0ec4 3cbe 4474 b0bd 7047 e1bc
00000360: e72c 0a3e 3c2b 733c afab 683e 07ed 8dbe
00000370: b831 e8be 4863 7d3c 4a47 263e 05c3 6d3e
00000380: 88bf c93e 9f08 aebe fb62 81be d2e1 26be
00000390: 4c9f bb3e 933a 0a3e d9ba 8e3e f3e1 883e
000003a0: d2d7 0cbe f9e3 21be 787c 663e a088 b13c
000003b0: 5d58 1f3d d1bd 193d 7ad4 b53d fbb1 e5bd
000003c0: 3467 dcbd 0c80 debd fb99 3bbe ec22 85be
000003d0: dccd 64be 60e7 9ebe 6592 0ebd 9b3d bb3e
000003e0: 3466 d03d f5fb acbc 837d 4abd 9c21 8bbd
000003f0: f25b 873d 3429 6a3e 562a 603c 2c4c 23bd

bias f4 [3]
0.13956325 0.095701545 0.106118806
00000000: abe9 0e3e 2cff c33d d154 d93d
