dev/pong/original/regular/pong_0.pth (torch_old, 191806 bytes, 20 tensors)

weight f4 [16, 1, 5, 5]
0.0684044 0.0604181 -0.18337262 0.17616613 -0.0049559223 0.19736747 0.103091426 -0.18842292
-0.08970861 0.17983407 -0.18566325 -0.13330208 -0.037006173 0.023840459 0.1732881 -0.19321169
0.108358234 -0.077876955 0.008003098 -0.10741586 -0.10788345 0.13948432 0.10692632 0.08896666
0.09726676 -0.049036395 0.038716324 -0.13001661 -0.17107593 0.061013814 0.018555023 -0.18789408
0.10524474 -0.014943506 0.08446851 -0.052847523 0.06875489 0.039713506 -0.08842267 0.123154745
-0.03789511 0.19702768 -0.06815701 0.117981814 0.14396115 0.041738145 0.03399071 -0.027222438
-0.15113337 0.115909085 0.16568597 0.16422911 -0.19664451 -0.14870396 0.11972052 0.07711326
0.13433228 0.17692666 -0.13117266 -0.15767351 -0.1752876 -0.13886155 -0.13017966 0.16221908
-0.07850593 -0.10678692 -0.15139504 0.15360764 0.1562277 -0.08322816 -0.07463299 0.187064
-0.092692696 -0.010215508 0.19101459 0.08679533 -0.05738108 -0.11972858 -0.051345322 0.13920574
-0.15750393 -0.16135058 0.19334097 -0.00092892244 -0.11686213 0.103095025 0.14118923 0.14308129
-0.049066544 -0.1498939 0.17735702 -0.098479964 0.16926299 0.00067807396 -0.06202989 -0.15259977
0.0592701 -0.14449975 -0.20389117 -0.08474447 0.075964406 -0.048891727 0.09249299 0.06005676
0.10212087 -0.16309923 0.016779603 -0.130206 -0.19369139 0.047541842 0.022355888 -0.008631879
0.16166851 -0.1702522 -0.11050176 -0.17674132 0.12201893 0.18227208 -0.095706545 -0.13880266
-0.09311935 -0.087070204 0.18959792 -0.033172846 -0.10254693 -0.019378254 -0.03107049 0.06890662
-0.05221855 -0.08152633 0.09935988 -0.1357663 0.16842636 0.051818483 -0.050261427 -0.17789492
-0.18088013 -0.12844273 0.02698772 -0.16411039 0.18513893 0.16907686 0.09696378 -0.15086865
0.1850455 -0.15333214 0.13761856 0.15174966 -0.08430916 0.1159457 -0.028543057 -0.050683063
0.12057241 0.12088446 0.02708497 -0.19184777 -0.095300324 -0.17025279 0.10756321 -0.116178654
0.11246123 -0.049424052 -0.18615216 -0.06934243 -0.03144909 -0.12182423 0.14894877 0.15316415
-0.006376124 -0.084084146 0.12609808 0.1872012 -0.14598218 0.18998285 0.008208032 -0.10523929
0.13195884 0.18247852 -0.061201707 0.14853327 -0.09869513 0.14147678 -0.07643248 0.13606206
-0.17519362 -0.048487816 0.19315016 0.16308978 -0.008660171 -0.011704167 0.073602386 -0.009797813
-0.16376975 -0.16021188 -0.0064816247 -0.14559045 -0.17904937 0.19148353 -0.016994953 0.13046283
-0.05792911 -0.045272924 -0.11632606 -0.12154876 0.18965466 0.09131943 -0.1336766 0.08769642
0.08883888 0.023027025 -0.12816666 -0.049570158 -0.12066543 0.109431565 0.19006109 -0.066722825
-0.098938674 0.15674108 0.17506902 0.13682097 0.051299438 0.090816125 -0.0534988 0.024137296
-0.04703159 0.0013913638 -0.06407668 -0.1255368 0.019956894 -0.19268066 0.13309883 -0.15960819
0.16412267 0.009348706 0.104378074 -0.14869258 0.12746873 -0.03411413 -0.026526283 -0.0049151503
-0.16212696 -0.015338873 -0.011175676 0.1677179 -0.09905435 -0.011901146 0.014087513 -0.1902596
-0.086924985 -0.09966866 0.064797916 0.12994282 -0.17059872 0.16997543 0.1444752 0.034754533
00000000: 9b17 8c3d f878 773d 08c6 3bbe e564 343e
00000010: 4a65 a2bb b31a 4a3e 9921 d33d f0f1 40be
00000020: 26b9 b7bd 6c26 383e 821e 3ebe 5780 08be
00000030: c993 17bd 114d c33c 7072 313e 49d9 45be
00000040: ecea dd3d f47d 9fbd 6d1f 033c d9fc dbbd
00000050: 00f2 dcbd fad4 0e3e 30fc da3d 2734 b63d
00000060: cc33 c73d 63da 48bd 0295 1e3d 1323 05be
00000070: 872e 2fbe 9fe9 793d b400 983c 4e67 40be
00000080: 8e8a d73d 9bd5 74bc d3fd ac3d a576 58bd
00000090: 5dcf 8c3d a1aa 223d f216 b5bd 8e38 fc3d
000000a0: e737 1bbd a0c1 493e e795 8bbd 73a0 f13d
000000b0: 8d6a 133e 9ef5 2a3d d839 0b3d 9701 dfbc
000000c0: b5c2 1abe be61 ed3d 95a9 293e ad2b 283e
000000d0: 2e5d 49be da45 18be 0830 f53d 8fed 9d3d
000000e0: 678e 093e 432c 353e 2052 06be 2a75 21be
000000f0: 987e 33be b931 0ebe d14d 05be c21c 263e
00000100: b8c7 a0bd 1ab3 dabd 4d07 1bbe 524b 1d3e
00000110: 27fa 1f3e 8773 aabd 2ed9 98bd b58d 3f3e
00000120: abd5 bdbd f25e 27bc 5499 433e c0c1 b13d
00000130: 6c08 6bbd 4234 f5bd 794f 52bd f38b 0e3e
00000140: b648 21be 1639 25be 2dfb 453e ee82 73ba
00000150: 6a55 efbd 7c23 d33d e993 103e e783 123e
00000160: 00fa 48bd c97d 19be 149d 353e ddaf c9bd
00000170: 4753 2d3e c6c0 313a 0e13 7ebd 1d43 1cbe
00000180: 34c5 723d bef7 13be d9c8 50be 828e adbd
00000190: 3a93 9b3d b142 48bd f76c bd3d 14fe 753d
000001a0: bf24 d13d 7c03 27be 6175 893c b954 05be
000001b0: 0957 46be 3cbb 423d b223 b73c ba6c 0dbc
000001c0: 6e8c 253e 9856 2ebe bf4e e2bd adfb 34be
000001d0: 10e5 f93d 88a5 3a3e cb01 c4bd 4922 0ebe
000001e0: 5cb5 bebd dd51 b2bd f525 423e 40e0 07bd
000001f0: 2004 d2bd 25bf 9ebc 8a87 febc ea1e 8d3d
00000200: 1ee3 55bd 47f7 a6bd 317d cb3d 5206 0bbe
00000210: f677 2c3e 9e3f 543d edde 4dbd 162a 36be
00000220: a438 39be 7e86 03be 5a15 dd3c 8e0c 28be
00000230: 0f95 3d3e 7c22 2d3e f294 c63d 507d 1abe
00000240: 917c 3d3e 1a03 1dbe e1eb 0c3e 4364 1b3e
00000250: 48aa acbd f074 ed3d 21d3 e9bc 0b99 4fbd
00000260: abee f63d 4692 f73d 4de1 dd3c be73 44be
00000270: d12c c3bd bf56 2ebe 1a4a dc3d 13ef edbd
00000280: 1352 e63d e070 4abd ac9e 3ebe 6703 8ebd
00000290: c3d0 00bd fb7e f9bd 0786 183e 10d7 1c3e
000002a0: ceee d0bb 4f34 acbd db1f 013e acb1 3f3e
000002b0: 5a7c 15be dd8a 423e fb7a 063c b287 d7bd
000002c0: 3820 073e a6db 3a3e a4ae 7abd 1b19 183e
000002d0: ac20 cabd 4adf 103e a288 9cbd da53 0b3e
000002e0: f565 33be 299b 46bd 28c9 453e 0201 273e
000002f0: 64e3 0dbc d6c2 3fbc d9bc 963d 0287 20bc
00000300: 42b3 27be 950e 24be cf63 d4bb aa15 15be
00000310: b858 37be 4214 443e 0039 8bbc 0c98 053e
00000320: 1347 6dbd 1a70 39bd 5b3c eebd 8eee f8bd
00000330: d534 423e ae05 bb3d 85e2 08be 2e9a b33d
00000340: 29f1 b53d 2ca3 bc3c 1f3e 03be 140a 4bbd
00000350: 701f f7bd a81d e03d 609f 423e faa5 88bd
00000360: 5ca0 cabd bc80 203e 4b45 333e cc1a 0c3e
00000370: 5c1f 523d cefd b93d 8f21 5bbd 94bb c53c
00000380: 32a4 40bd 6c5e b63a a23a 83bd b88c 00be
00000390: a47c a33c 144e 45be 0f4b 083e 5470 23be
000003a0: c60f 283e 512b 193c 2cc4 d53d de42 18be
000003b0: 2a87 023e 42bb 0bbd a64d d9bc 450f a1bb
000003c0: 9c04 26be e54f 7bbc 2f1a 37bc 3ebe 2b3e
000003d0: 02dd cabd 06fd 42bc 50cf 663c 6ad3 42be
000003e0: ba05 b2bd 151f ccbd c5b4 843d bb0f 053e
000003f0: 6eb1 2ebe 0a0e 2e3e 4ff1 133e c55a 0e3d

bias f4 [16]
-0.10889602 0.017187132 -0.09660535 0.10519909 0.12695907 0.13493456 0.049220208 -0.0180307
0.07172682 0.11674587 0.02729746 0.14940429 -0.13780744 -0.13679264 0.029938305 0.13814297
00000000: e004 dfbd 07cc 8c3c 07d9 c5bd 9f72 d73d
00000010: 8f01 023e 492c 0a3e 219b 493d 1eb5 93bc
00000020: 83e5 923d 7518 ef3d ec9e df3c 70fd 183e
00000030: 651d 0dbe 5f13 0cbe 2d41 f53c 5a75 0d3e

weight f4 [16]
0.4527221 0.2880352 0.84603703 0.87976635 0.340124 0.015701493 0.39088896 0.9122854
0.54904133 0.43508065 0.29106 0.35453567 0.3941991 0.8834666 0.73467046 0.904116
00000000: 31cb e73e 5a79 933e e295 583f 5e38 613f
00000010: bc24 ae3e 6ba0 803c 9922 c83e 898b 693f
00000020: f98d 0c3f e4c2 de3e d105 953e b385 b53e
00000030: 77d4 c93e de2a 623f 5d13 3c3f 2574 673f

bias f4 [16]
-0.00015498624 -0.00386201 0.0061624604 0.00042765753 0.0035168056 0.0043013417 0.0066493307 -0.0035659487
-0.0007227461 0.0053405277 -0.0019412327 0.0010813288 -0.0016630578 -0.0017674515 -0.0026095917 -0.0014279899
00000000: cd83 22b9 c719 7dbb 77ee c93b 3937 e039
00000010: 357a 663b 45f2 8c3b a1e2 d93b b1b2 69bb
00000020: ab76 3dba 98ff ae3b f670 feba 60bb 8d3a
00000030: f6fa d9ba d5a9 e7ba af05 2bbb 642b bbba

running_mean f4 [16]
-0.024504784 0.08894482 -0.0906044 -0.039741226 -0.04591746 0.15216425 0.02861354 0.06488735
0.20634887 -0.1326574 0.0028027045 -0.0062182145 0.15346345 -0.21465145 0.22859558 -0.0009530467
00000000: 42be c8bc b428 b63d cd8e b9bd b2c7 22bd
00000010: f213 3cbd f2d0 1b3e f166 ea3c a9e3 843d
00000020: 1e4d 533e 57d7 07be 94ad 373b 2ac2 cbbb
00000030: 8625 1d3e 97cd 5bbe f614 6a3e e2d5 79ba

running_var f4 [16]
0.0018191196 0.0009213082 0.0010353437 0.0028979366 0.0013298226 0.0004077589 0.0031629417 0.00091249263
0.0009348017 0.0020401832 0.00097344647 0.0009894068 0.0030551942 0.0013021668 0.002354728 0.0022263606
00000000: 866f ee3a f283 713a 5fb4 873a 4feb 3d3b
00000010: 714d ae3a 79c8 d539 5b49 4f3b 5834 6f3a
00000020: 7b0d 753a 98b4 053b e32e 7f3a fcae 813a
00000030: a739 483b 78ad aa3a c851 1a3b 22e8 113b

weight f4 [32, 16, 5, 5]
0.025796818 0.028413674 -0.02584499 0.007998649 0.027051095 -0.034928717 0.051272824 -0.025276044
0.011926286 -0.026662847 -0.027630867 -0.0019479439 -0.005096855 0.053122193 -0.033948924 0.031571582
-0.017026426 0.026084237 0.048143394 -0.027002249 -0.0008543391 0.011107773 0.006631489 -0.014782942
-0.032554805 -0.019718109 -0.033325758 -0.017585427 0.046609502 0.011978917 -0.01658702 0.042619128
0.0026625847 0.028634423 -0.006736814 0.015621828 -0.025125936 0.0033644193 0.009535689 0.025249442
0.01446759 0.027309189 0.0011870875 -0.0283256 0.021225333 0.03636386 0.04140751 0.028526476
0.0444018 -0.010127812 0.05281206 -0.0042304727 0.021020515 -0.023028508 -0.019763969 -0.015419085
0.025383977 0.013098451 0.038619973 -0.024670813 0.017737417 -0.022740593 0.027340233 -0.0071412334
0.0121350335 0.040543232 -0.013559913 0.028825577 -0.0025373779 -0.038101498 0.012162837 -0.03145314
-0.03028751 0.042172566 0.012434046 0.0032113635 0.004900846 0.002894377 0.046951637 -0.03953116
0.016651595 0.04619263 0.0039472356 -0.060158536 -0.03661007 0.045419663 -0.036699094 0.036517695
0.00452527 -0.029174276 0.05177602 0.034179006 -0.004333983 0.016635627 -0.040294692 -0.006844009
0.007014487 0.04110313 0.02117446 -0.013199573 0.021029498 0.038023967 -0.013337758 0.025337275
-0.015222857 -0.0032023117 -0.052219313 0.002796361 0.0011215265 -0.023472307 -0.005784289 -0.014692964
0.016402984 -0.0064092926 0.026719848 -0.042034563 0.013110003 0.005020745 -0.043027706 0.0005872085
0.012408513 0.020907713 0.050834667 0.023809822 0.0032625 0.0041366066 0.007247625 -0.06391959
0.031569444 0.047432207 0.035541743 0.056412585 0.03815243 -0.03785 0.033456195 -0.03604045
0.022385605 -0.01391844 -0.00659587 0.030615231 -0.049645368 -0.007754501 -0.007113521 0.0007010193
-0.017201936 0.0064246147 0.0023013202 -0.006779634 -0.028148191 0.031128919 -0.06589589 -0.057901282
0.031398043 -0.03642513 0.017713299 0.03296698 0.05682728 0.029391417 -0.034043737 -0.02545791
-0.010096126 0.036007047 -0.020923648 -0.019828046 -0.048571043 0.058806714 -0.028272502 -0.06494272
0.003077428 4.7005356e-05 -0.009242046 -0.031714845 0.029913671 -0.030402057 0.019023718 0.038584523
-0.0053365007 -0.016610699 0.0071474602 -0.00286719 -0.009620841 -0.004450048 0.013938369 -0.037521794
-0.027872011 -0.0424337 0.015054392 0.04599444 0.043232717 -0.03265107 -0.06495284 0.01201323
0.0375363 -0.015288963 0.021913834 0.04214548 -0.04360075 -0.0081788525 -0.017158063 -0.01072759
-0.012407102 -0.012348064 0.006178044 0.040473495 0.037754297 -0.022342065 0.015286092 -0.037626356
-0.02495806 0.039152507 0.028936232 -0.030135822 0.018660754 -0.025125125 0.005114861 -0.035358984
0.053286124 -0.05093788 0.046934485 -0.019986888 -0.06987386 -0.009390138 0.017060904 0.050126348
-0.041894693 -0.058770157 -0.024926063 -0.0011934444 0.0032575498 0.0054245535 -0.025151074 0.016489256
-0.05160877 0.035465237 -0.005024909 -0.0076829214 -0.020571949 0.0066328817 -0.040940244 -0.024658136
-0.013384967 0.022539709 -0.020413036 0.034867436 -0.008477939 0.044860598 -0.0022226826 0.0115103675
0.020959156 0.04698658 0.011931835 -0.024640847 0.045610525 0.045286268 0.031090949 0.015189389
00000000: d953 d33c cbc3 e83c dfb8 d3bc c40c 033c
00000010: 429a dd3c 6a11 0fbd 7403 523d b50f cfbc
00000020: 7866 433c 0b6c dabc 215a e2bc 2752 ffba
00000030: 8503 a7bb a896 593d 070e 0bbd 3451 013d
00000040: 017b 8bbc 9cae d53c 0232 453d d233 ddbc
00000050: baf5 5fba 60fd 353c f64c d93b 2734 72bc
00000060: 3058 05bd df87 a1bc 9780 08bd 500f 90bc
00000070: 9be9 3e3d 3843 443c 81e1 87bc 6591 2e3d
00000080: c27e 2e3b bd92 ea3c 7ec0 dcbb b2f2 7f3c
00000090: e8d4 cdbc 977d 5c3b 943b 1c3c ebd7 ce3c
000000a0: 7809 6d3c 85b7 df3c 0c98 9b3a 170b e8bc
000000b0: c0e0 ad3c 45f2 143d ec9a 293d 5bb0 e93c
000000c0: a9de 353d 1fef 25bc 7551 583d c79f 8abb
000000d0: 3733 ac3c 48a6 bcbc 0ce8 a1bc 54a0 7cbc
000000e0: 0ff2 cf3c e39a 563c fa2f 1e3d 721a cabc
000000f0: 0f4e 913c 7b4a babc a0f8 df3c 0201 eabb
00000100: 05d2 463c a910 263d 662a 5ebc 9e23 ec3c
00000110: 234a 26bb 5110 1cbd a346 473c 02d5 00bd
00000120: 831d f8bc 24bd 2c3d 2bb8 4b3c bd75 523b
00000130: 4797 a03b 97af 3d3b 5c50 403d 6deb 21bd
00000140: ed68 883c 7c34 3d3d d057 813b cc68 76bd
00000150: 71f4 15bd f809 3a3d ca51 16bd 9493 153d
00000160: b748 943b e4fe eebc 1813 543d 49ff 0b3d
00000170: 1604 8ebb 7047 883c 0c0c 25bd b543 e0bb
00000180: c8d9 e53b c15b 283d 1076 ad3c 0643 58bc
00000190: 0e46 ac3c 05bf 1b3d 9d86 5abc 1e90 cf3c
000001a0: 4a69 79bc e0dd 51bb ebe3 55bd 2743 373b
000001b0: 2f00 933a ff48 c0bc 228a bdbb c2ba 70bc
000001c0: 8d5f 863c 0b05 d2bb 95e3 da3c 6f2c 2cbd
000001d0: 57cb 563c 1085 a43b d23d 30bd e5ee 193a
000001e0: 134d 4b3c a746 ab3c 0338 503d d10c c33c
000001f0: abcf 553b 5f8c 873b 7c7d ed3b 46e8 82bd
00000200: f64e 013d 4648 423d 3894 113d e210 673d
00000210: b945 1c3d 9a08 1bbd 5d09 093d 279f 13bd
00000220: 0462 b73c 2b0a 64bc 2b22 d8bb cbcc fa3c
00000230: f158 4bbd 7819 febb 8a18 e9bb 9cc4 373a
00000240: 13eb 8cbc 9385 d23b bfd1 163b b127 debb
00000250: 0997 e6bc 1302 ff3c 6df4 86bd e529 6dbd
00000260: 3c9b 003d 8432 15bd 7b1b 913c 6208 073d
00000270: b9c3 683d 45c6 f03c 7271 0bbd 1b8d d0bc
00000280: 396a 25bc 207c 133d 1268 abbc 6d6e a2bc
00000290: 6ef2 46bd 4fdf 703d bc9b e7bc b000 85bd
000002a0: adae 493b 9e27 4538 f36b 17bc 6de7 01bd
000002b0: 840d f53c bc0d f9bc a1d7 9b3c ce0a 1e3d
000002c0: d0dd aebb 2913 88bc 3e35 ea3b 77e7 3bbb
000002d0: bba0 1dbc b5d1 91bb c25d 643c 74b0 19bd
000002e0: d853 e4bc f6ce 2dbd b2a6 763c aa64 3c3d
000002f0: ca14 313d 21bd 05bd ff05 85bd 23d3 443c
00000300: aabf 193d 8f7e 7abc a484 b33c bda0 2c3d
00000310: b396 32bd 9800 06bc 118f 8cbc c6c2 2fbc
00000320: 2847 4bbc 894f 4abc 3071 ca3b 89c7 253d
00000330: 40a4 1a3d b506 b7bc 8472 7a3c 181e 1abd
00000340: d874 ccbc 615e 203d ad0b ed3c 66df f6bc
00000350: 70de 983c 35d3 cdbc 909a a73b 95d4 10bd
00000360: 8d42 5a3d 3da4 50bd 603e 403d 8bbb a3bc
00000370: 071a 8fbd 18d9 19bc 4fc3 8b3c 4951 4d3d
00000380: c599 2bbd fab8 70bd be31 ccbc 596d 9cba
00000390: 9e7c 553b 74c0 b13b a009 cebc 7a14 873c
000003a0: b863 53bd ff43 113d fea7 a4bb 04c1 fbbb
000003b0: 8186 a8bc a558 d93b f5b0 27bd dcff c9bc
000003c0: 9f4c 5bbc 32a5 b83c 3d39 a7bc 28d1 0e3d
000003d0: 0ee7 0abc bfbf 373d 6daa 11bb fb95 3c3c
000003e0: 89b2 ab3c 0075 403d be7d 433c 9adb c9bc
000003f0: 1ad2 3a3d 187e 393d 72b2 fe3c eadc 783c

bias f4 [32]
0.023850087 -0.008367828 0.050155327 -0.0049779494 0.011870118 0.0147348335 -0.044983976 -0.0047263214
0.034943182 -0.013752877 0.020383235 -0.0112441 0.03612574 0.03223812 0.013490963 0.009750324
0.012292953 -0.008854909 0.038171627 0.03126334 0.026896821 -0.008790602 -0.043696042 -0.0032275743
-0.00018916526 0.042372163 -0.0052262126 -0.02364425 0.013838626 0.035254244 0.008573285 -0.019962532
00000000: 4261 c33c 3719 09bc ac6f 4d3d 111e a3bb
00000010: e27a 423c 5f6a 713c 1e41 38bd 42df 9abb
00000020: 9520 0f3d bf53 61bc befa a63c 2c39 38bc
00000030: 95f8 133d 1e0c 043d 3309 5d3c d3bf 1f3c
00000040: 6268 493c 2e14 11bc da59 1c3d fd0d 003d
00000050: b956 dc3c 7506 10bc 9ffa 32bd b685 53bb
00000060: aa5a 46b9 6f8e 2d3d a640 abbb 96b1 c1bc
00000070: 68bb 623c c166 103d f776 0c3c 7788 a3bc

weight f4 [32]
0.227466 0.15051912 0.580933 0.86589545 0.98273736 0.79098475 0.2572139 0.48190343
0.91220576 0.6736976 0.69793874 0.38793826 0.3596527 0.79810095 0.7397276 0.03456392
0.94245404 0.08848357 0.45766047 0.6372806 0.06011707 0.66785055 0.30319118 0.1790861
0.61537176 0.7358213 0.25986826 0.8696275 0.23859212 0.20144624 0.87012625 0.8224332
00000000: d9ec 683e af21 1a3e 06b8 143f 53ab 5d3f
00000010: ad94 7b3f fa7d 4a3f 8ab1 833e 0cbc f63e
00000020: 5186 693f 7277 2c3f 1dac 323f d89f c63e
00000030: 6624 b83e 5850 4c3f ca5e 3d3f e692 0d3d
00000040: ab44 713f e036 b53d 7952 ea3e d224 233f
00000050: 513d 763d 41f8 2a3f e03b 9b3e 5962 373e
00000060: 0189 1d3f c95e 3c3f 740d 853e e89f 5e3f
00000070: 7e51 743e ec47 4e3e 98c0 5e3f fb8a 523f

bias f4 [32]
-0.0019282545 -0.00060777203 0.0018804108 -0.00026106348 -0.0050566182 0.00271496 0.0030139757 0.002483752
0.0050632334 0.0026309355 -0.0019476812 0.0016483298 -0.0023173387 -0.0004334345 0.004323489 0.0022884118
-0.0016218809 0.005079835 -0.0036993285 0.001904123 0.00010477502 -0.0027375491 0.0029428944 0.004459828
-0.0038267677 0.0010822202 -0.002742617 -0.0048805466 0.0052049705 3.4711582e-05 7.943172e-05 0.00076435605
00000000: 7cbd fcba e452 1fba 1e78 f63a 59df 88b9
00000010: fdb1 a5bb 78ed 313b 1f86 453b 72c6 223b
00000020: 7be9 a53b c66b 2c3b 5649 ffba c50c d83a
00000030: 7ede 17bb 983e e3b9 0eac 8d3b 2ef9 153b
00000040: 4b95 d4ba bf74 a63b 6f70 72bb c493 f93a
00000050: a9ba db38 7468 33bb 93dd 403b c023 923b
00000060: 82ca 7abb 49d9 8d3a 7abd 33bb feec 9fbb
00000070: 758e aa3b 4797 1138 9494 a638 115f 483a

running_mean f4 [32]
0.035418175 -0.02749536 0.11682007 0.08420659 -0.00021854191 -0.06846089 -0.0049214917 0.042815298
0.08622136 -0.16561238 -0.08174585 -0.021903453 -0.030978436 0.021247663 0.05449717 0.070274286
0.024989156 -0.0027712274 -0.027969278 -0.03897814 0.08084526 0.035020955 0.030358713 -0.0728929
-0.05176583 0.12613122 0.036771767 -0.038002998 0.018868117 -0.031457357 0.09100132 -0.13177538
00000000: a612 113d f33d e1bc 5c3f ef3d 8174 ac3d
00000010: 6628 65b9 3935 8cbd 7744 a1bb 185f 2f3d
00000020: d394 b03d 4b96 29be 5e6a a7bd df6e b3bc
00000030: 7dc6 fdbc 940f ae3c 6d38 5f3d f7eb 8f3d
00000040: 0fb6 cc3c 7b9d 35bb d41f e5bc 8ba7 1fbd
00000050: 3392 a53d 2272 0f3d d6b2 f83c df48 95bd
00000060: 6808 54bd 8b28 013e fe9d 163d 08a9 1bbd
00000070: 4f91 9a3c 6ed9 00bd e65e ba3d 20f0 06be

running_var f4 [32]
0.0037615895 0.015550134 0.054646306 0.03677985 0.017317133 0.018914867 0.016541008 0.009947908
0.036511958 0.05847505 0.058530357 0.0043635797 0.031096118 0.029123185 0.02573859 0.022631772
0.031442072 0.0027234834 0.0014444143 0.005666255 0.0040699565 0.0058913655 0.013705839 0.010501458
0.02428637 0.025877722 0.012033511 0.0053844363 0.027970113 0.022916304 0.031938355 0.069477186
00000000: 0085 763b fdc5 7e3c ced4 5f3d 78a6 163d
00000010: a9dc 8d3c 5af3 9a3c 0281 873c 8dfc 223c
00000020: 908d 153d 8983 6f3d 87bd 6f3d 5cfc 8e3b
00000030: 49bd fe3c bf93 ee3c bcd9 d23c 4466 b93c
00000040: 67c9 003d 787c 323b 8052 bd3a feab b93b
00000050: 455d 853b 5b0c c13b 758e 603c 4f0e 2c3c
00000060: 36f4 c63c 84fd d33c 3428 453c ed6f b03b
00000070: 9421 e53c f9ba bb3c cbd1 023d 0e4a 8e3d

weight f4 [32, 32, 5, 5]
-0.020277264 -0.03576633 -0.010688203 0.032776114 -0.0012571239 0.02259027 0.019616446 0.02519966
-0.007809304 0.013519736 0.027736144 -0.027128898 -0.023128133 0.020538732 0.015118824 -0.012049753
0.024712516 0.007263398 -0.016263774 0.014307682 0.016883424 0.017642336 -0.019903786 0.025995946
0.011395586 0.03387205 -0.038895886 0.012304297 -0.025111565 0.004815992 -0.010243574 -0.010523037
0.009667572 -0.035696167 -0.025637412 -0.03064134 0.023501305 0.028875366 0.017131113 -0.0014545788
-0.020428514 0.0032088703 -0.015096419 0.019674927 -0.015301948 0.017371763 -0.0058305506 0.02986424
0.0096432315 -0.008461381 0.035178985 -0.03162558 0.022136196 -0.028700747 -0.005228601 -0.033367958
0.021408014 0.012255314 -0.02901681 0.0051580574 0.03176568 0.016475067 -0.009565903 -0.024346264
-0.030040555 0.01255005 -0.02266593 -0.01667229 0.03046221 0.020604651 0.013747932 0.019945849
0.030110309 -0.03455404 -0.0015256812 -0.028740069 -0.017557304 0.015302264 -0.02779112 0.007714147
-0.003109851 -0.018597472 0.0027618574 -0.027474543 -0.0055551804 0.007441459 0.010282763 -0.0033102145
-0.008904984 -0.02545706 0.0036939739 -0.019620566 0.022325715 -0.021029044 -0.035931006 -0.024425846
-0.027588522 0.016335836 -0.023047317 0.0008198288 -0.023701055 -0.017583268 -0.030110585 0.0038747226
-0.025995206 -0.011116261 0.004646336 0.0025670119 -0.0041924785 0.0017681179 -0.00083166605 -0.031163407
-0.025682276 -0.015272298 0.0067167026 -0.0069443905 -0.032210007 -0.022006027 -0.0265212 0.017453656
0.013482098 -0.0039244047 -0.018743021 -0.018904392 -0.01144123 0.002841784 0.021900041 0.01621013
-0.027827743 0.030370142 0.02958205 0.019655945 -0.020425742 -0.03351084 -0.02605519 -0.0019718327
0.005830576 0.021736475 -0.008871932 0.034250278 0.023574954 0.022416418 -0.0117557775 0.011361791
0.0072046076 0.027969861 9.853584e-05 -0.020259332 0.01606521 0.013683957 -0.038876176 0.010082065
-0.024558881 0.020589707 -0.028834058 0.0072543696 -0.009969039 -0.01749811 -0.016701514 -0.032693785
0.028621111 0.009978478 -0.0026095358 -0.020372989 0.03498351 -0.0021011282 0.023714233 0.0072761383
0.009715143 0.009335613 -0.03380033 -0.0010569323 0.028468609 -0.034154154 0.0032726624 -0.037941676
0.017588152 0.002608827 0.031540483 0.025140304 -0.011728487 0.033639934 0.0055100643 -0.018517155
-0.03859876 -0.023806091 -0.028559228 -0.00598232 -0.011688628 -0.025150336 0.027041292 0.011069313
-0.033714317 0.023395253 -0.010870706 -0.03556231 -0.0023593206 0.009736308 -0.029895099 0.017078673
-0.01789167 0.02230832 -0.013356126 -0.009412287 -0.021477675 -0.033371765 -0.004666199 0.026984977
0.012815625 -0.02130078 -0.03710036 -0.021872044 -0.026528155 0.010615221 -0.037526373 -0.014521333
0.005765219 0.009548238 -0.020604404 -0.033443995 -0.039343927 0.015743556 -0.026696332 0.007678107
-0.026139509 -0.033461813 -0.012328049 0.023716815 0.00365715 -0.0030270738 -0.02335478 0.019247415
0.0050016427 -0.031498805 0.0054940595 -0.017532669 0.007500685 -0.021055344 0.018447796 -0.013027803
0.010235385 0.032938477 0.030743603 -0.02645005 0.023143524 -0.0073450003 0.024227614 0.015273171
-0.018711084 -0.015358492 -0.0009877007 -0.019264875 0.031271156 0.0081389025 -0.02569168 -0.03419355
00000000: 811c a6bc b77f 12bd 931d 2fbc 3f40 063d
00000010: 14c6 a4ba 3b0f b93c abb2 a03c 846f ce3c
00000020: 31e5 ffbb e281 5d3c e936 e33c 6c3d debc
00000030: 3677 bdbc d840 a83c f2b4 773c 546c 45bc
00000040: e771 ca3c cc01 ee3b 9b3b 85bc c56a 6a3c
00000050: 1b4f 8a3c a986 903c 440d a3bc 73f5 d43c
00000060: 8db4 3a3c 6bbd 0a3d 4b51 1fbd f697 493c
00000070: c5b6 cdbc 78cf 9d3b aad4 27bc d168 2cbc
00000080: bc64 1e3c 2536 12bd 8d05 d2bc 8c03 fbbc
00000090: cf85 c03c 088c ec3c 8c56 8c3c 91a7 beba
000000a0: b359 a7bc e94b 523b f856 77bc 502d a13c
000000b0: 06b5 7abc 3a4f 8e3c 340e bfbb daa5 f43c
000000c0: a5fe 1d3c 9ba1 0abc d717 103d d389 01bd
000000d0: f856 b53c d41d ebbc af54 abbb d7ac 08bd
000000e0: dc5f af3c 83ca 483c a9b4 edbc ec04 a93b
000000f0: bb1c 023d b8f6 863c 4eba 1cbc d171 c7bc
00000100: 9c17 f6bc ba9e 4d3c e7ad b9bc 5494 88bc
00000110: e28b f93c 16cb a83c 023f 613c 7a65 a33c
00000120: e5a9 f63c 8988 0dbd 5ef9 c7ba 4b70 ebbc
00000130: 56d4 8fbc 59b6 7a3c 34aa e3bc f5c6 fc3b
00000140: a4ce 4bbb ba59 98bc 4700 353b 4b12 e1bc
00000150: 3b08 b6bb 7cd7 f33b 0979 283c 2ff0 58bb
00000160: 36e6 11bc 538b d0bc 9916 723b 4fbb a0bc
00000170: 6be4 b63c 1a45 acbc 642c 13bd b618 c8bc
00000180: 5301 e2bc bbd2 853c bacd bcbc c8e9 563a
00000190: b728 c2bc c90a 90bc 79aa f6bc 0fef 7d3b
000001a0: e6f3 d4bc fa20 36bc 4b40 983b 503b 283b
000001b0: 0f61 89bb 31c0 e73a 2a04 5aba 674a ffbc
000001c0: a363 d2bc a938 7abc c917 dc3b c58d e3bb
000001d0: a4ee 03bd fc45 b4bc fd42 d9bc f8fa 8e3c
000001e0: 04e4 5c3c 4b98 80bb f78a 99bc 62dd 9abc
000001f0: ff73 3bbc 393d 3a3b b767 b33c 1bcb 843c
00000200: 02f7 e3bc ceca f83c 0e56 f23c 8105 a13c
00000210: e353 a7bc aa42 09bd b271 d5bc dd39 01bb
00000220: 6b0e bf3b b110 b23c 945b 11bc 054a 0c3d
00000230: 4320 c13c a3a2 b73c 4e9b 40bc ce26 3a3c
00000240: a114 ec3b 0d21 e53c 07a5 ce38 e6f6 a5bc
00000250: 309b 833c ad32 603c a03c 1fbd 3f2f 253c
00000260: b52f c9bc bfab a83c 6735 ecbc 10b6 ed3b
00000270: 2e55 23bc 3258 8fbc 9dd1 88bc ebe9 05bd
00000280: d276 ea3c c57c 233c bf04 2bbb 41e5 a6bc
00000290: de4a 0f3d 15b3 09bb 5a44 c23c ac6c ee3b
000002a0: 432c 1f3c 66f4 183c 3772 0abd c388 8aba
000002b0: 0037 e93c 3ae5 0bbd 2a7a 563b bb68 1bbd
000002c0: 0715 903c dbf8 2a3b 9830 013d 0af3 cd3c
000002d0: d728 40bc 07ca 093d c58d b43b 4ab1 97bc
000002e0: bc19 1ebd fe04 c3bc 0bf5 e9bc 5607 c4bb
000002f0: a981 3fbc 1408 cebc b385 dd3c 105c 353c
00000300: 0618 0abd 67a7 bf3c 0c1b 32bc c9a9 11bd
00000310: d59e 1abb 0985 1f3c 91e6 f4bc 93e8 8b3c
00000320: 8d91 92bc f0bf b63c a7d3 5abc fe35 1abc
00000330: f3f1 afbc d5b0 08bd eae6 98bb 990f dd3c
00000340: a1f8 513c f97e aebc 8cf6 17bd 002d b3bc
00000350: 9351 d9bc 77eb 2d3c 41b5 19bd e3ea 6dbc
00000360: 2aea bc3b 3670 1c3c 91ca a8bc 92fc 08bd
00000370: 1927 21bd a1f8 803c 44b2 dabc a198 fb3b
00000380: 8622 d6bc 410f 09bd 96fb 49bc c449 c23c
00000390: ccac 6f3b df61 46bb 8652 bfbc c1ac 9d3c
000003a0: d2e4 a33b e404 01bd 8307 b43b aca0 8fbc
000003b0: 4ec8 f53b 427c acbc d51f 973c 9172 55bc
000003c0: 51b2 273c 7fea 063d 02da fb3c c6ad d8bc
000003d0: 7d97 bd3c 54ae f0bb fd78 c63c 523c 7a3c
000003e0: fd47 99bc 2fa2 7bbc bc75 81ba 5fd1 9dbc
000003f0: 2f16 003d 0859 053c 5c77 d2bc 890e 0cbd

bias f4 [32]
-0.03205011 -0.02204998 0.033620413 0.003505439 0.028526288 -0.023842266 0.017534276 -0.0017702566
0.019454058 0.0056424793 0.030214569 -0.027689852 0.032984816 -0.014089446 0.016157944 0.029799046
0.021606056 -0.029152267 -0.020559289 -0.0009935295 0.002657303 -0.004994551 0.0066440706 0.010498144
-0.030538585 0.0033383796 -0.030877601 0.031651393 0.004818546 0.006025247 -0.013239311 0.0015594397
00000000: fa46 03bd 29a2 b4bc 8fb5 093d 82bb 653b
00000010: f6af e93c db50 c3bc 0ba4 8f3c f407 e8ba
00000020: 1e5e 9f3c 8ce4 b83b 8b84 f73c d4d5 e2bc
00000030: 161b 073d 6bd7 66bc aa5d 843c 211d f43c
00000040: 2fff b03c bcd0 eebc f46b a8bc 5139 82ba
00000050: 2526 2e3b 55a9 a3bb 81b6 d93b 6800 2c3c
00000060: 0e2c fabc b7c8 5a3b 06f3 fcbc e4a4 013d
00000070: e5e4 9d3b 6f6f c53b b2e9 58bc 1d66 cc3a

weight f4 [32]
0.73505455 0.2676341 0.41225362 0.21089382 0.96623385 0.69442475 0.94954973 0.29971215
0.68683517 0.8819107 0.11549274 0.30319807 0.50391465 0.034555495 0.7251856 0.22540855
0.81828487 0.17715183 0.40321726 0.32275862 0.21643952 0.94043094 0.09642147 0.1726398
0.7903849 0.8890717 0.76331234 0.7107033 0.97203916 0.3967263 0.75720894 0.9063641
00000000: 892c 3c3f 5607 893e e812 d33e 8df4 573e
00000010: 1a5b 773f d2c5 313f b115 733f df73 993e
00000020: 6ed4 2f3f e6c4 613f 7587 ec3d c73c 9b3e
00000030: 8d00 013f 108a 0d3d c3a5 393f 80d1 663e
00000040: 1e7b 513f 4a67 353e 7e72 ce3e 9e40 a53e
00000050: 52a2 5d3e 15c0 703f 9f78 c53d 7dc8 303e
00000060: aa56 4a3f 349a 633f 7068 433f a7f0 353f
00000070: 8fd7 783f b61f cb3e 72d8 413f 7a07 683f

bias f4 [32]
-0.00016503528 -0.00821861 0.0004212691 0.004937716 -0.0046367724 -0.0033760804 -0.008356635 -0.0036292053
-0.0015513975 -0.0019200457 -5.7306002e-05 0.0003413569 -0.005319534 0.0053513204 -0.0013375621 -0.0019299609
-0.005771919 0.001380674 0.0061944476 -0.0024539107 -0.00035537477 -0.003543773 0.0048023975 -0.0010810362
-0.0041258084 -0.0085444935 -0.0040681 -0.0036450147 7.186093e-05 -0.0075193373 -5.5678654e-05 -0.004532472
00000000: 520d 2db9 59a7 06bc c8dd dc39 90cc a13b
00000010: 11f0 97bb 3b41 5dbb 45ea 08bc f6d7 6dbb
00000020: 4358 cbba 0baa fbba da5b 70b8 26f8 b239
00000030: 7c4f aebb 215a af3b 2351 afba bef6 fcba
00000040: 5e22 bdbb bbf7 b43a cbfa ca3b cad1 20bb
00000050: 9851 bab9 a53e 68bb 6e5d 9d3b 8eb1 8dba
00000060: ca31 87bb 34fe 0bbc b24d 85bb 33e1 6ebb
00000070: 0bb4 9638 c664 f6bb 8088 69b8 2285 94bb

running_mean f4 [32]
-0.13388376 0.00030778136 0.08347106 0.05419587 -0.07551124 -0.037833054 0.11947272 0.1122013
0.08257571 -0.047519233 0.14573424 -0.10878878 0.06651645 0.21238293 -0.021842197 -0.073667675
-0.0365686 -0.005228823 0.10846064 0.0037064182 0.023973804 -0.040730104 0.02344097 0.18246794
-0.26185107 -0.17083728 0.03521254 -0.0029973076 0.11272537 -0.07634724 0.040979415 -0.2119076
00000000: d318 09be b75d a139 e0f2 aa3d 7dfc 5d3d
00000010: a3a5 9abd d5f6 1abd 1dae f43d ccc9 e53d
00000020: 741d a93d 87a3 42bd 5b3b 153e a7cc debd
00000030: c739 883d e97a 593e 68ee b2bc 14df 96bd
00000040: f5c8 15bd 8c56 abbb 9d20 de3d 61e7 723b
00000050: b664 c43c 9cd4 26bd 4707 c03c e0d8 3a3e
00000060: 5811 86be f8ef 2ebe 063b 103d 7a6e 44bb
00000070: 8fdc e63d f15b 9cbd 08da 273d 4efe 58be

running_var f4 [32]
0.047385916 0.0053373673 0.02843816 0.027162626 0.13115297 0.08020658 0.0752814 0.019417398
0.0065006404 0.1128364 0.0084289275 0.058486376 0.02807763 0.013085964 0.032379538 0.016316673
0.04676445 0.027794657 0.023886973 0.023516066 0.012283079 0.040339414 0.004286662 0.007604414
0.182322 0.121705525 0.031802807 0.011097041 0.10101367 0.0318275 0.085551515 0.07276062
00000000: bc17 423d 15e5 ae3b 25f7 e83c 2884 de3c
00000010: f74c 063e 5943 a43d 222d 9a3d 3c11 9f3c
00000020: 5303 d53b c516 e73d 7c19 0a3c 698f 6f3d
00000030: 0f03 e63c 8366 563c 68a0 043d 8baa 853c
00000040: 148c 3f3d 9fb1 e33c 9dae c33c c4a4 c03c
00000050: f83e 493c f13a 253d 2177 8c3b 732e f93b
00000060: 9eb2 3a3e bf40 f93d a943 023d 5dd0 353c
00000070: 41e0 ce3d 8d5d 023d a235 af3d 8503 953d

weight f4 [3, 1536]
0.023465198 -0.0072205784 -0.0037738336 0.005709872 -0.012154445 0.017969508 0.004227187 -0.0062592793
0.0021731497 -0.017887797 0.021711284 0.0054753623 -0.014100969 -0.013729823 0.023694934 0.017366838
-0.013671209 -0.0033381565 0.010889873 -0.023614632 0.018860545 -0.018971205 0.0062685246 0.0066673514
-0.017839868 0.016945269 -0.00898453 0.007093453 0.006485252 -0.011092603 -0.011430577 0.01502889
0.021484356 0.008738986 0.008559554 0.011067801 0.00807144 0.022119492 -0.022878323 0.0048157
0.02133055 0.0036448373 -0.002641214 -0.0047642207 -0.0017077446 -0.024499815 0.019283703 0.023931304
-0.010663942 -0.006961282 -0.02087281 -0.009613528 -0.0064950255 0.0036733504 -0.004773392 0.027675658
-0.003889104 -0.011084837 0.0067546153 0.0010292545 -0.016066592 0.02154268 -0.027544364 0.0226026
0.022998173 -0.015134275 -0.012264866 0.010622495 -0.019817498 0.0077819065 -0.018208865 -0.020554645
0.013515902 0.015930623 -0.001484634 0.00204686 0.01884364 0.020157017 0.0042044795 -0.010564479
0.014237765 0.01961697 -0.027468944 0.02782038 -0.0077037136 0.027512021 -0.02219043 0.008105276
-0.0018825637 -0.015925203 -0.032471918 -0.0060789417 0.014016167 -0.00697736 -0.013273247 0.013915954
0.018965844 -0.016622148 -0.008101661 -0.019586625 0.0049031144 0.018392084 -0.0080821095 0.0037106187
0.02105917 0.011168014 -0.005824143 -0.003210572 -0.0024572352 -0.013079548 0.0045225816 -0.019782886
-0.015572037 -0.017225286 0.01831521 -0.021055304 0.019435346 0.0010939427 0.026050681 0.0022182108
0.026668271 -0.014310187 0.023741674 0.015842423 0.018566657 0.0131872455 -0.013650477 0.0061178277
-0.013953266 0.024072288 0.020861413 0.019076653 0.017891835 0.024407348 -0.022334341 -0.022052035
-0.011242471 0.011291512 0.025221432 -0.018173814 0.011223495 -0.012011005 0.015877465 0.0048047923
0.023756132 0.0020946343 -0.004454596 0.0052136206 0.012645938 0.025965218 0.034322113 -0.008751774
-0.017750274 0.004660305 -0.006969466 -0.011969765 0.04073867 -0.014315234 0.014701044 -0.015757687
0.00040079857 0.013213817 0.009126672 0.015753089 0.0007480441 -0.00037838015 0.020882545 0.015366703
-0.0049896864 -0.013527244 -0.00822299 -0.00381043 -0.0044898097 0.0047581587 0.021866499 0.014404025
-0.011090766 -0.01771473 -0.011031773 0.02314324 0.012670655 -0.019235985 -0.020926043 0.012679142
-0.012525067 0.0062560886 0.027278164 -0.018902596 -0.0012488422 -0.012792323 0.007224162 0.009586527
0.022327237 -0.014760731 0.015274062 0.0149310175 0.023351712 -0.008324812 -0.012079303 -0.0077586537
-0.01888242 -0.012896222 0.015651854 -0.010668811 0.011325409 -0.022233933 -0.012159499 -0.0017201948
0.023291735 -0.019679824 -0.01961654 0.0026091628 0.00752458 -0.016028054 0.02502078 0.010125108
0.0006748728 -0.012202748 0.01339545 -0.0043547656 -0.022748576 -0.012797092 0.009876753 0.014334545
-0.014895054 -0.015240979 -0.021931345 -0.010680266 0.01068789 -0.014550594 0.011996218 -0.0020937035
-0.009424211 0.013690552 0.0040943203 -0.021639599 0.01758418 -0.0029595469 0.022144722 -0.0043398016
-0.004538317 -0.0015136373 -0.024177209 0.016188944 -0.0014624435 -0.0028365715 -0.0020680763 0.015738856
-0.013148946 0.023048218 -0.019982513 -0.010138762 -0.021340905 0.011844357 0.014223555 -0.0071324417
00000000: 163a c03c 9a9a ecbb 6c52 77bb e119 bb3b
00000010: 7023 47bc ca34 933c 3784 8a3b a41a cdbb
00000020: 676b 0e3b 6e89 92bc dddb b13c ab6a b33b
00000030: c007 67bc 0df3 60bc e11b c23c e644 8e3c
00000040: 35fd 5fbc f9c4 5abb 706b 323c 7973 c1bc
00000050: 6e81 9a3c 8069 9bbc 3268 cd3b cc79 da3b
00000060: ea24 92bc ced0 8a3c da33 13bc 3270 e83b
00000070: 3d82 d43b c0bd 35bc 5147 3bbc bc3b 763c
00000080: f6ff af3c f72d 0f3c 5f3d 0c3c b955 353c
00000090: 133e 043c f033 b53c 526b bbbc 05cd 9d3b
000000a0: 68bd ae3c 39de 6e3b 3818 2dbb 2e1d 9cbb
000000b0: 66d6 dfba d6b3 c8bc dbf8 9d3c 950b c43c
000000c0: d1b7 2ebc 771b e4bb 75fd aabc 0f82 1dbc
000000d0: 39d4 d4bb 98bc 703b 1d6a 9cbb 10b8 e23c
000000e0: 56e0 7ebb 2d9d 35bc d255 dd3b 0de8 863a
000000f0: 169e 83bc 467a b03c b8a4 e1bc 1629 b93c
00000100: aa66 bc3c c0f5 77bc 94f2 48bc f909 2e3c
00000110: 4e58 a2bc 5dff fe3b c22a 95bc 3762 a8bc
00000120: cd71 5d3c f080 823c 0d98 c2ba 9d24 063b
00000130: fa5d 9a3c 5420 a53c bbc5 893b a316 2dbc
00000140: 8445 693c c5b3 a03c 8d06 e1bc 91e7 e33c
00000150: 6f6f fcbb e460 e13c b4c8 b5bc fecb 043c
00000160: 5bc0 f6ba 9275 82bc 4601 05bd dc31 c7bb
00000170: 11a4 653c 57a2 e4bb 0878 59bc beff 633c
00000180: 425e 9b3c 2c2b 88bc d4bc 04bc 2174 a0bc
00000190: 4eaa a03b ffaa 963c d36a 04bc da2d 733b
000001a0: 4884 ac3c 0cfa 363c 74d8 bebb 7668 52bb
000001b0: 9109 21bb 9a4b 56bc 2a32 943b b80f a2bc
000001c0: db21 7fbc 0b1c 8dbc c709 963c 2c7c acbc
000001d0: e036 9f3c a062 8f3a 3d68 d53c 675f 113b
000001e0: 6b77 da3c 4675 6abc e67d c23c f8c7 813c
000001f0: 1a19 983c 510f 583c 40a6 5fbc 0f78 c83b
00000200: 3d9c 64bc 3f33 c53c 8ee5 aa3c a446 9c3c
00000210: e691 923c ebf1 c73c 82f6 b6bc 78a6 b4bc
00000220: 5732 38bc 0900 393c 2d9d ce3c 40e1 94bc
00000230: c0e2 373c cec9 44bc 7511 823c 8571 9d3b
00000240: 389c c23c 2246 093b dcf7 91bb 05d7 aa3b
00000250: e930 4f3c 02b5 d43c 5895 0c3d 9a63 0fbc
00000260: 0669 91bc 79b5 983b 1e60 e4bb d51c 44bc
00000270: 97dd 263d 718a 6abc a6dc 703c 4416 81bc
00000280: 4622 d239 c47e 583c 0988 153c 9f0c 813c
00000290: 6418 443a 5361 c6b9 df11 ab3c a0c4 7b3c
000002a0: 8680 a3bb 60a1 5dbc b8b9 06bc 68b8 79bb
000002b0: 411f 93bb 54ea 9b3b 5f21 b33c dcfe 6b3c
000002c0: 0bb6 35bc 7b1e 91bc 9cbe 34bc e496 bd3c
000002d0: 9498 4f3c c994 9dbc 186d abbc 2dbc 4f3c
000002e0: f035 4dbc e0ff cc3b 7576 df3c 9ed9 9abc
000002f0: 31b0 a3ba e496 51bc aab8 ec3b cf10 1d3c
00000300: 9ce7 b63c fed6 71bc 0f40 7a3c 3aa1 743c
00000310: 174c bf3c cb64 08bc 45e8 45bc 4e3c febb
00000320: 4eaf 9abc ad4a 53bc 5138 803c 3dcc 2ebc
00000330: 358e 393c f023 b6bc a338 47bc 2978 e1ba
00000340: 4fce be3c 9537 a1bc deb2 a0bc 7dfe 2a3b
00000350: c190 f63b 444d 83bc 61f8 cc3c c8e3 253c
00000360: f2e9 303a 09ee 47bc 9778 5b3c 6cb2 8ebb
00000370: 395b babc e5aa 51bc 1bd2 213c 70db 6a3c
00000380: 620a 74bc 4db5 79bc 5da9 b3bc 48fc 2ebc
00000390: 431c 2f3c 9d65 6ebc c98b 443c 8436 09bb
000003a0: 0268 1abc 564e 603c a629 863b 8745 b1bc
000003b0: b30c 903c f5f4 41bb d968 b53c e534 8ebb
000003c0: 2ab6 94bb 3d65 c6ba 480f c6bc ad9e 843c
000003d0: 76af bfba c6e5 39bb 9088 07bb c6ee 803c
000003e0: ad6e 57bc 9ecf bc3c 5eb2 a3bc 0d1d 26bc
000003f0: 1fd3 aebc d50e 423c ea09 693c 42b7 e9bb

bias f4 [3]
0.011662034 -0.0077790176 -0.024873592
00000000: 1e12 3f3c 21e7 febb b4c3 cbbc
