dev/pong/original/regular/pong_600.pth (torch_old, 191750 bytes, 20 tensors)

weight f4 [16, 1, 5, 5]
00000000: d2aa 87b8 7d6d 69bd 5eb7 98be 77b8 9c3e
00000010: 2c68 dfbd 2812 0d3e 5e90 a93c ef43 80be
00000020: 63bf 70bc 28f3 2e3e 1949 68be f17d 4bbe
00000030: 9b7b 83bd b093 a2bd 324b 3f3e 2458 81be
00000040: cc53 023e 2ffc efbd e572 96bd 03f0 86be
00000050: 4618 30be 578e e03d f6b7 b63d f30c f13c
00000060: 4279 933d 55d1 26bd df6d 583d 3098 8ebd
00000070: e848 12be f834 b03c c5d5 053c c495 6dbe
00000080: d362 573e ac62 91bd 2a1a eb3d 9d4c a4bd
00000090: b7bb 72bd fe89 053e 9f85 8bbd 002a 34ba
000000a0: 551d 04bd 9d5b cc3e 38f0 0fbe 3ba1 cb3e
000000b0: f3c8 853e edb9 cc3d 4ae6 323d 6669 80bb
000000c0: 04ab 21be b63a a23d 8eba 503e 94cc 593e
000000d0: b3d3 fabd c25d c5bd b83e 7d3d cae0 bf3d
000000e0: 5ab0 023e ad7f 5e3e 109b 3dbe 19d5 09be
000000f0: ed83 b4bd dcfe 82bd 5438 f3bd 53ed 3f3d
00000100: 1b3e 953d 8c6f 90be 58a6 a2be 2e9c 8d3e
00000110: 893f 793e 5287 0cbe 4a14 21bc 8cdd 803e
00000120: e219 e7bd f2e7 56bd 946c 863e 8d46 903d
00000130: 3bf0 81bd bd7a f8bd f951 cdbd 3be3 b03d
00000140: 02ce 61be 9868 73be 8351 4a3e fcf7 00be
00000150: 4816 3cbe 1a95 8b3c 16ae b13d ad4a 473c
00000160: c6e3 7abe 049a 25be 415a 6a3e 4cfc 0abe
00000170: 7bc5 773e 7de2 9abe 87b4 fabd 1570 73bd
00000180: 616e 4b3e 7252 9cbc 06f1 2abe 1a04 613b
00000190: 5c48 ee3d e3c2 afbd fbff fc3d 776d ed3d
000001a0: a780 a63d dc1d 38be fcc5 a03d 5583 16be
000001b0: 0189 1abe f636 9fbb 2b31 8bbb d48b 17bc
000001c0: 7058 113e ff92 6ebe 0b4a 4dbe 4e57 49be
000001d0: 932e 963e f3fc 523e 3bf1 64be 974c 69be
000001e0: 73bf d7bc dd3c 27bd 7469 463e d043 9cbc
000001f0: 184d c5bd 6060 b8bd 5425 80bd 79fa 1e3c
00000200: c1e3 35bd f239 57bc fca0 473d d80e 2ebe
00000210: 7554 043e a107 573d e7fa b93a 78ac 83be
00000220: 1818 76be eb12 91bd 0f47 ac3d 9efb afbd
00000230: e940 c43e 16b1 b73e a818 ba3d 91eb 7ebe
00000240: 0b08 5d3e a1dd d2bd 5a86 e63d aaa4 1e3e
00000250: 58a9 afbd a1da a13d dd9b 5ebd c9cb 82bd
00000260: 6559 aa3d 34dc fe3d c090 d23c 5110 89be
00000270: 7d34 10be 1d0b 7fbe 7497 943d 90ee ccbd
00000280: 308d 153e dfae 1fbd 7d65 4ebe 67c5 20be
00000290: 08b0 d93a d7d8 24be 4a51 103e 198d a53e
000002a0: 9725 f03d 813e f9bd 9113 3a3e 31ac 3c3e
000002b0: c191 82be 218d 003e 604e 22bd e195 09be
000002c0: 0894 f93d a7e6 0c3e 748a 70be d167 a9bc
000002d0: 1499 d4bd 9649 fa3d 2d1b 99bd 8ffd e53c
000002e0: 811b aabe 4b61 98bd 7124 9c3e 5de0 453e
000002f0: 7304 07be 601f 30bd 15b2 b33d bc8b e4bd
00000300: c9df a8be 5567 99be 456a 863a f971 11be
00000310: c9f9 33be 4640 c43d a6ea c73c 0336 1c3e
00000320: fa5b d4bc 5498 dc3c 46cb 03be 76c6 f5bd
00000330: 36bc 0b3e 5a3c a63d 3bcd 5abd 2536 25bc
00000340: 4599 b53d 383e ae3c 541a bcbc dd65 d73c
00000350: 97f0 15be e00e 763c dd33 e63d 89d3 92be
00000360: 135f 9fbe 09f7 633e e399 623e 4ab8 4c3e
00000370: 62c8 0e3e c2f0 4e3e 6529 66bd 1c72 283d
00000380: 6b83 bfbc 6804 273c ad43 85bc a515 2dbe
00000390: c0d9 133e d969 5abe 26e0 1f3e 603d 27be
000003a0: 4d05 c73d 8185 48bd 7c06 a53d 7531 91bd
000003b0: 960c 463d 45dc 79bc 7e4f 9bbc ab4a abbd
000003c0: 0c96 86bd 5a19 0e3e 7b29 abbd c857 943e
000003d0: 09e4 a6bc 00fe dcbd 9079 a13d 0d0e 6dbe
000003e0: a341 3f3d 9b3f 05be 1c50 6fbc 8f0e dc3d
000003f0: 4e26 3dbe 59ca 943e e1ab 6f3e 98f9 6f3d
-6.4691194e-05 -0.05698918 -0.29827398 0.30609486 -0.10908541 0.13776457 0.020698722 -0.2505183
-0.014694068 0.17084944 -0.22684135 -0.19872262 -0.0642006 -0.079383254 0.18681028 -0.25262558
0.12727278 -0.11718022 -0.07346133 -0.2635499 -0.1719676 0.10964649 0.089218065 0.02942512
0.072008625 -0.04072698 0.052839156 -0.06962621 -0.14285624 0.021509632 0.008168642 -0.23201662
0.21033792 -0.07098898 0.114796 -0.08022425 -0.05926105 0.13040921 -0.068125956 -0.00068727136
-0.032254536 0.39913645 -0.1405648 0.39771447 0.26129875 0.099964 0.043676652 -0.0039188145
-0.15787894 0.079213545 0.20383665 0.21269447 -0.1224741 -0.096370235 0.06182739 0.09369047
0.12762585 0.21728392 -0.18516183 -0.13460197 -0.08814225 -0.06396267 -0.11875978 0.04685719
0.07287236 -0.28210104 -0.31767535 0.27658218 0.24340643 -0.13723496 -0.009831497 0.25169027
-0.11284234 -0.052467294 0.26254714 0.070447065 -0.063446485 -0.121327855 -0.10025401 0.08637091
-0.22051242 -0.23770368 0.19757657 -0.12594599 -0.18367875 0.01703887 0.086757824 0.0121638
-0.24500951 -0.16172034 0.22885992 -0.13572806 0.24196427 -0.30250922 -0.12241464 -0.05943306
0.19866325 -0.019082282 -0.16693506 0.003433472 0.11634895 -0.085820936 0.12353512 0.115931444
0.08130007 -0.1798014 0.078502625 -0.14698537 -0.15091325 -0.004858847 -0.0042478046 -0.009249646
0.14193892 -0.23298262 -0.20047776 -0.1966221 0.29332408 0.20604305 -0.22357647 -0.22783123
-0.026336407 -0.040829528 0.19376165 -0.019075304 -0.09633845 -0.09002757 -0.0625712 0.009703272
-0.044406656 -0.013136374 0.04873751 -0.1699785 0.12922843 0.05249751 0.0014189155 -0.2571752
-0.24032629 -0.070836864 0.08411991 -0.08592914 0.38330773 0.35877293 0.09086734 -0.24894549
0.215851 -0.102961786 0.11256094 0.15492502 -0.08577222 0.07903028 -0.05434786 -0.06386525
0.08317832 0.12444344 0.025703788 -0.2677026 -0.14082523 -0.24906583 0.0725545 -0.1000644
0.1460464 -0.03898513 -0.20155902 -0.15700303 0.0016608248 -0.16098343 0.1409351 0.3233421
0.1172592 -0.12170125 0.18171526 0.18425061 -0.25501826 0.12553836 -0.039625525 -0.1343608
0.12186438 0.13759862 -0.23490316 -0.020679386 -0.1038076 0.12221067 -0.074758865 0.028075008
-0.3322411 -0.07440432 0.30496553 0.19323869 -0.13185291 -0.04299867 0.08774201 -0.11159465
-0.32983235 -0.2996165 0.001025506 -0.14203633 -0.17575754 0.09582572 0.024403881 0.15254979
-0.025922764 0.026928104 -0.12870511 -0.12000744 0.13646016 0.0811698 -0.05341838 -0.01008371
0.088671245 0.021269903 -0.022961773 0.02629369 -0.14642559 0.015018195 0.11240361 -0.28677014
-0.31127223 0.22262205 0.22129016 0.19992176 0.13943627 0.2020903 -0.05619182 0.04112445
-0.023378095 0.010193922 -0.016267622 -0.16902788 0.14438534 -0.2132944 0.1561285 -0.16332006
0.09717808 -0.048955444 0.080578774 -0.07089511 0.048351847 -0.01525027 -0.018958803 -0.08363851
-0.06571588 0.13876858 -0.08357521 0.28973222 -0.020372408 -0.10790634 0.07884514 -0.23149891
0.046693455 -0.13012545 -0.014606502 0.10744964 -0.18471643 0.2906063 0.2340541 0.05858764

bias f4 [16]
00000000: 6b78 f2bb af53 e33d 8b7d c7bd 4227 c03a
00000010: 0055 2c3e f840 173e d28e 98b8 2ddd acbd
00000020: 085d e63d 571a 133e 5243 063e 724f e93d
00000030: d19c 4dbe 649f 25be 5337 313e 8a08 c03d
-0.007399609 0.11099946 -0.09740742 0.0014660137 0.168293 0.14770877 -7.274527e-05 -0.084406234
0.11248213 0.14365517 0.13111618 0.11392106 -0.20079352 -0.16174084 0.17306261 0.09376629

running_mean f4 [16]
00000000: 7fba aebe 3e68 bb3e d266 053d 4d67 d1be
00000010: 535a 0cbc dc53 703e a1ac fdbd 5932 dabe
00000020: cc24 733e bf66 8d3c 512a bfbd 2245 0bbd
00000030: 8cdd 1d3f c718 8abe 4c3d e83e fb59 0a3e
-0.3412666 0.36602968 0.03256876 -0.40899125 -0.008566457 0.2346949 -0.12386442 -0.42616537
0.23744506 0.017260907 -0.09334243 -0.034001477 0.6166618 -0.2697203 0.45359266 0.13510887

running_var f4 [16]
00000000: 6cb6 193c c5c8 7a3b 724b 0a3b d2f6 563c
00000010: 5bc0 0c3b 563e 023a baba a83b 9454 083c
00000020: 9fe9 5d3a 4049 903a ed0c bc3b b068 9e3a
00000030: c077 0d3d a7eb 013c dda0 b83b d79d b13b
0.009381872 0.003826664 0.0021102098 0.01312037 0.0021476957 0.0004968395 0.0051492127 0.008320946
0.0008465293 0.0011008158 0.0057388456 0.0012085643 0.03453803 0.007929719 0.005634411 0.0054204273

weight f4 [16]
00000000: 0537 e63e 5020 d43e 6568 4c3f 06ad 6f3f
00000010: ae69 d43e 256c 5a3e 16ae ff3e 16a0 783f
00000020: 32e3 1d3f 44ff db3e 051b bd3e 1cec bf3e
00000030: 6419 ff3e 2bbf 4a3f 1f39 1d3f 5a08 673f
0.44963852 0.41430902 0.79846793 0.9362339 0.41486877 0.21330316 0.49937505 0.9711927
0.616748 0.4296819 0.36934677 0.37484825 0.4982406 0.7919795 0.61415285 0.9024712

bias f4 [16]
00000000: 8a6e 43bd a84b 5fbe 99bd dbbe ce52 88bd
00000010: ac18 21be d262 30be c8de 373c d991 edbc
00000020: 394a 1fbf 2244 7abe c489 f1bc 466b cdbd
00000030: abfe 7ebe b95e 67bd a9a2 14be d359 59bb
-0.04771284 -0.21806204 -0.4291809 -0.06656419 -0.15732068 -0.17225197 0.011222549 -0.02900021
-0.6222263 -0.24440053 -0.029484637 -0.100302264 -0.24901836 -0.05648682 -0.14515175 -0.0033165112

weight f4 [32, 16, 5, 5]
00000000: e8ef 1d3e d63c ac3d 4f49 65bc 315b aabe
00000010: 818a 0cbf 11aa 18be 1f94 3b3d 5e6a 1d3e
00000020: c69c b13d 9855 c4bd 6556 79bc 4ac5 473d
00000030: 8b1e e83c f6c7 ea3d 2f33 11bf 8152 863d
00000040: 74d9 103d 904a 46bc beee 573e 436c c33e
00000050: d786 11be c5bd 95ba 0ab3 eebc dcb1 09bd
00000060: 2aa0 52be bed7 6c3d 0e9c dfbd 8625 febc
00000070: 15cd c13d c1cc 6a3c ef74 9ebd 8df7 25be
00000080: 8454 a1be 6c70 3d3d a51f 0cbe 8b2d 523d
00000090: d689 26bd 715f 36be 2e67 393d 3cde d03d
000000a0: 25e9 6bbc 7fdf 2f3e 9a8d 24bd 92f9 8e3d
000000b0: 1982 9e3d ec9f 483e 21d4 a73d 77db 35bd
000000c0: 8c93 203e cd3d f73e b94c e93d 690b 0f3e
000000d0: 8415 853e 6021 523e 47c2 de3c 6a97 483d
000000e0: 52d0 093d 0493 a0bc 78ee 903c 7f39 013b
000000f0: 46eb 843d afd6 9d3c 154d 533d d47e 733d
00000100: aa45 f1bd 8604 fe3d ee5a 063e 27f3 6d3e
00000110: e67a 673e a7b7 8c3d 4de7 4b3d 3fb2 5bbd
00000120: 3855 99bd 322c 8d3b 2ba6 943e 048a 9abd
00000130: 9267 d1bd 8714 74be e614 0f3d 2b1b 6e3d
00000140: 0822 1abe ac51 33be abe4 21be c602 35be
00000150: 5292 0bbe b4ad fa3c 117a 533d a701 23be
00000160: 5e39 423d 78d7 a73d ab32 babc fbd4 f93d
00000170: 7530 c1bc 636f 3b3e 851c aabe 9db4 033e
00000180: 7dc0 083d 7447 95bd 64aa dd3d f67f 1cbd
00000190: 140b 92bd 2c99 69be 3cd0 06bd 2f88 a83d
000001a0: 37f0 dbbc b7f4 f2bc b1ab bbbd 34ff b3bd
000001b0: aa14 0abe e483 9fbe 75a2 5a3e f1fe 683e
000001c0: 6ef9 843d 0ca9 093e 7173 253e 0587 be3d
000001d0: f35b 583d 671e f23c d9e4 463d ef49 a63e
000001e0: 26c5 0dbe 97bd ca3d b211 cabd 9b9c 913d
000001f0: 3e6d 6b3d fc61 a93d 2edb a2bd 7083 69be
00000200: a533 6a3d e081 393e 48a7 b23d 879e 403c
00000210: fe60 03bd f8f9 d2bd b350 cebd 250e 88bd
00000220: 1b1a 073e ab81 6ebe 0565 1cbe 293d 91bd
00000230: d195 323e cb60 3d3e 0217 343d 5713 3f3e
00000240: 5373 c63d ea3f 133e 9282 d93b c93d 023e
00000250: dc54 14bd 1fc2 29bb e7de 17bd 6627 2abe
00000260: c43c 0dbe f947 0fbe d61e 5bbd 7b1c 98bc
00000270: 7ab4 9c3e 0d21 c4bc 7b27 7cbe bc19 58be
00000280: 87ea 08be 4f67 d03d 2bc2 3ebe 7e4a 633d
00000290: 88d4 5cbd 9d7a 753d 3537 94bd e62c 5ebd
000002a0: 05de 0f3e 717b 0bbe 703e 2b3b f01c 81bd
000002b0: 704d afbd a3e8 33bd b9b9 403e 0435 963c
000002c0: 7844 39be 90fc 403d 45f1 813d ec54 3ebe
000002d0: 5168 8abb 045c 0abe caa4 363d 52a4 a6bd
000002e0: 244e 9cbc 049f 68bd 9d7d d93d 3ae6 a33b
000002f0: 6720 15be 5ae0 103b de5b debd 1d85 d23c
00000300: 4031 77bd ef3e 9c3e 77a3 bf3e 36a0 60bc
00000310: bff5 de3d d6ac ef3d b0bd ab3c 165d 05be
00000320: bc82 273d 3bba ce3d 2af8 1a3e 4780 6c3e
00000330: ceb4 8e3d 4527 0c3e 5c7a 81bd cdd0 87be
00000340: 5add c0bd 3b8a 1dbe 9b49 1b3e 09c5 dfbd
00000350: c982 c53d 8e24 3e3e b105 4f3d f172 913c
00000360: fa7d 713d 3c97 0fbe 7450 c03d 062c 4fbd
00000370: 9baa 7ebd 0eaf 18bd e228 9b3c ccb5 863e
00000380: abc1 693e 472e 62be bf3d 903d bbfb a3bc
00000390: 6433 933d cd5b efbd c3d8 0abe 64a1 b6bb
000003a0: 1f25 50be 2fc7 eebc 015b 29be 99cd 40bc
000003b0: 7ecb 2fbd a62e d2bc a907 49bd 9a0c 523e
000003c0: f3ed 1d3d f05a 133e e4ca 343d 2c19 f9bd
000003d0: 0bfb 07bc 85c1 25be b91b 913d 4f5d 92bd
000003e0: e5f3 8abc c7ed 253e 3cae 363e 9cb1 f4bd
000003f0: cfbd da3d a235 b8bd ed46 31be a4d0 a33e
0.15423548 0.08410041 -0.013994529 -0.332727 -0.5489884 -0.14908625 0.045795556 0.15372607
0.0867248 -0.09586638 -0.015218352 0.048772134 0.028334877 0.11463921 -0.56718725 0.06558705
0.03536363 -0.012102738 0.21087167 0.38168535 -0.14211594 -0.0011424354 -0.029138107 -0.033616886
-0.2056891 0.057822935 -0.10918437 -0.031023752 0.094629444 0.014331044 -0.07737147 -0.16207714
-0.31509793 0.046249792 -0.13683946 0.051312964 -0.040658794 -0.17809846 0.045264415 0.10198638
-0.014398848 0.171751 -0.040174104 0.069811955 0.07739658 0.19592255 0.08194757 -0.04439875
0.15681285 0.48289338 0.11391587 0.13969196 0.25992978 0.20520544 0.027192248 0.048972525
0.033645935 -0.019601353 0.017691836 0.0019718108 0.06490187 0.019267408 0.051587183 0.059447125
-0.117808655 0.124032065 0.13120624 0.23237287 0.22605476 0.068709664 0.049781132 -0.053636786
-0.07486957 0.004308247 0.29033026 -0.07545856 -0.102248326 -0.23835956 0.03493204 0.05813138
-0.15052044 -0.17511624 -0.15809886 -0.17676839 -0.13630036 0.030600406 0.051630083 -0.15918599
0.04741799 0.08195394 -0.022729238 0.12198826 -0.023582676 0.1830421 -0.33224884 0.12861867
0.033386696 -0.07289019 0.10823515 -0.03820797 -0.07131019 -0.22812337 -0.03291343 0.082291
-0.026847942 -0.029657705 -0.09163607 -0.087889105 -0.13484445 -0.31155312 0.21351035 0.22753502
0.064928874 0.13443393 0.16157319 0.09303097 0.052822065 0.029555513 0.04855809 0.32478282
-0.13844737 0.09899443 -0.09866656 0.07109948 0.05747723 0.08270642 -0.079519615 -0.22804046
0.05717816 0.1811595 0.087233126 0.011756546 -0.03207492 -0.10301584 -0.10073986 -0.06643323
0.13193552 -0.23291652 -0.15272911 -0.070917435 0.17439963 0.18493955 0.043967254 0.18659721
0.09689965 0.1437985 0.0066378796 0.12718882 -0.03621374 -0.0025903059 -0.03707781 -0.16616592
-0.13792711 -0.13992299 -0.053496204 -0.018568268 0.30606443 -0.023941541 -0.24624436 -0.21103567
-0.13370715 0.101759546 -0.18628757 0.055490963 -0.053913623 0.059931386 -0.072370924 -0.054242037
0.14049537 -0.13621308 0.0026129745 -0.063043475 -0.08559692 -0.04392303 0.18820848 0.018335827
-0.18092525 0.047115862 0.06344847 -0.18587083 -0.0042238613 -0.13511664 0.04459075 -0.0813681
-0.01908023 -0.056792274 0.10619662 0.0050018104 -0.14563142 0.002210638 -0.10857366 0.025698239
-0.060349703 0.30516765 0.374294 -0.013710072 0.10886716 0.11702888 0.020964473 -0.1302379
0.040896162 0.100941144 0.1513373 0.23095809 0.069680795 0.13686855 -0.06322166 -0.2652649
-0.094172195 -0.15384762 0.15164797 -0.10926253 0.09644086 0.18568632 0.050542537 0.017755004
0.05895803 -0.14022535 0.09390345 -0.050579093 -0.06217442 -0.03727632 0.018940393 0.26310575
0.22827785 -0.22087966 0.07043027 -0.020017495 0.07187536 -0.116874315 -0.1355925 -0.0055734385
-0.2032666 -0.029147713 -0.16538621 -0.011767768 -0.042918675 -0.02565701 -0.04907957 0.2051262
0.038557004 0.14390159 0.044138804 -0.12163004 -0.008299599 -0.16187103 0.07085366 -0.071467035
-0.016962001 0.16203986 0.17839903 -0.11947939 0.10680734 -0.08994605 -0.17312212 0.31995118

bias f4 [32]
00000000: 415f 2d3d 08ec 0c3d 674a de3d f003 6ebd
00000010: fac7 acbd 4062 40bd 6090 5fbd 181f 5fbc
00000020: d840 ad3d 74d8 68bd ddcc 9f3c 823a cbbb
00000030: 0322 c2bc c072 b73c 527a 8a3c 7ddf 483d
00000040: 9096 5c3c c40f 803c 2d3f e0bc abe7 6cbd
00000050: 8e58 cc3d 070f 5a3d 2a87 4bbd a58b 5cbc
00000060: 61ce 153c abd6 67bc 487d 043d 651f efbc
00000070: 0bfb be3c 2436 c63d ebf1 823c a703 2cbd
0.04232717 0.034404784 0.10854035 -0.058109224 -0.0843658 -0.0469687 -0.054581046 -0.013618253
0.084596336 -0.05684705 0.019506866 -0.006202043 -0.023697859 0.022393584 0.01690403 0.04904126
0.013463631 0.015632518 -0.027373875 -0.057838123 0.09977828 0.053236987 -0.04968945 -0.013461028
0.009143443 -0.014150302 0.03234604 -0.029189775 0.023313066 0.09678295 0.015984496 -0.04199567

running_mean f4 [32]
00000000: b428 1ebd f4df 1e3f 983d 323f 98eb 853e
00000010: b561 93be b0ed 5fbf eb3b c33e 5819 0dbf
00000020: 3850 f2be 18fd 93bf 1c62 d83e ad6a 6cbe
00000030: 6356 07bf 6353 99bf 4cc8 203f 5201 eebe
00000040: 2093 5abe 2e20 e7bd 9e12 b1be 5f6e 643d
00000050: 8afb d03d 5f90 ecbe 6f3f adbe 08eb 7e3f
00000060: cb04 8abf 5adb 4f3f 499e 353c d65e 96bf
00000070: 1072 933e 620b 4b3d a722 12bf 41a4 febe
-0.038613036 0.62060475 0.69625235 0.26156306 -0.28785482 -0.8747206 0.3813165 -0.55116796
-0.47326827 -1.1561613 0.42262352 -0.23087569 -0.5286619 -1.1978573 0.6280563 -0.46485382
-0.21345186 -0.11285435 -0.34584516 0.05576932 0.10204227 -0.46203896 -0.33837458 0.9957738
-1.0782713 0.8119408 0.011085101 -1.1747692 0.2879796 0.049571402 -0.57084125 -0.4973469

running_var f4 [32]
00000000: d0d2 ab3e 5c56 dd3e 915a 3040 2a7c 3a41
00000010: 7bf0 103f 469a 9a3f 9aa1 2240 fb5d dc3e
00000020: 8748 3e40 f900 7a3f 9834 aa40 e49d 8e40
00000030: e741 6d3f 4393 e240 6ce5 2a40 a2ee c73e
00000040: deac 6d3f a639 8c3f aa56 f03e 841a 4840
00000050: 9e63 f83e 24e0 813f 44f7 1540 de4c b93f
00000060: 0f54 e93f 9991 b240 9bb6 c23f c207 7940
00000070: 20ad 1c40 bc50 963f afe9 c440 6b80 4a40
0.33559275 0.4322995 2.7555277 11.6553135 0.56616944 1.207833 2.5411134 0.4304045
2.9731767 0.97657734 5.31892 4.4567738 0.92678684 7.0804763 2.6702528 0.3904925
0.928419 1.0955093 0.4694112 3.1266184 0.48513502 1.0146527 2.343217 1.4476583
1.8228778 5.580273 1.5211977 3.8910985 2.4480667 1.1743388 6.153526 3.164088

weight f4 [32]
00000000: 871d 263e 859e 2a3e c126 303f c06b 4a3f
00000010: ef5e 873f 5030 353f d023 ab3e 7af4 033f
00000020: 4eb7 473f 84ee 403f 3e87 303f 9d5e d63e
00000030: 19a9 af3e e481 693f 7c1b 333f b443 4e3e
00000040: 1be2 8c3f 58fb 313e d808 053f 4d73 363f
00000050: 920f 273e 6df0 1f3f 8bce bf3e cce9 333e
00000060: 75d3 273f 7859 1e3f c0ab 583e 28cb 733f
00000070: 161b 823e 9099 b93e 8244 493f 4904 453f
0.16222201 0.16662033 0.68809134 0.79070663 1.0575846 0.70776844 0.3342576 0.51544917
0.78014076 0.75363946 0.68956363 0.4186906 0.343087 0.9121382 0.6996381 0.20143014
1.1006502 0.17381036 0.5196662 0.71269685 0.16314533 0.62476236 0.37462267 0.17569655
0.6555703 0.6185527 0.21159267 0.95231867 0.2541129 0.3624997 0.7862016 0.76959664

bias f4 [32]
00000000: fff5 99be ddec a1be f1c9 92be d2ec 63bd
00000010: 1787 0dbe 7df1 eebd 0f7b ccbd 0cf4 1b3d
00000020: 0826 4c3c 81a9 073c bb29 17bc 671a cdbd
00000030: 7d2c 95bd 9c79 1e3e c9b6 84be 8980 a1bb
00000040: 1943 e5bd a715 76be f41a 68be 1a39 d9bd
00000050: 4462 e7bd b86f 3ebe 732a 3f3d 59ce 13be
00000060: aee4 863d d40a 77be 63eb 3cbd 9556 663d
00000070: e0cc 0cbe b9f3 b63d e1b0 5d3b f041 40bd
-0.30070493 -0.31626025 -0.28669694 -0.05564577 -0.13821064 -0.11667154 -0.09984409 0.038074538
0.012460239 0.008280159 -0.009226258 -0.100148015 -0.07283876 0.15476078 -0.25920704 -0.0049286527
-0.111944385 -0.24031697 -0.22666532 -0.106065944 -0.112980396 -0.18597305 0.046671342 -0.14434184
0.06586586 -0.24125224 -0.04612292 0.056234915 -0.13750029 0.08933205 0.0033827352 -0.046937883

weight f4 [32, 32, 5, 5]
00000000: 8fd7 dfbd 0dc4 a0bc 589b 21be f997 d73c
00000010: e977 f43c 9356 603c c0c6 5ebd 4ac0 0b3e
00000020: 325b 70be 0aff 24bd daee 513e 05aa 113d
00000030: a743 5fbc c76a bbbe 8ffe 783e 7ab2 263d
00000040: 3097 883e 982b 7e3b df30 1c3e 1538 183c
00000050: db15 7b3e 1f94 fc3d 4c69 48be 8635 073e
00000060: 1a75 e03d 12f4 543d 7354 02bf 40bb 723e
00000070: 4bd9 05bf c694 6ebe 3ff0 9bbe cd05 773e
00000080: adb5 233c f84b d23d 76f1 73be 1793 e0be
00000090: d83b ecbb 9082 eabd 8685 2cbe 5ef6 16be
000000a0: b30b 2d3c d299 1b3c a010 7cbc 7e6b a7bc
000000b0: 8bd4 f1bd 2fbd 37bd 1a28 ca3d 0fc5 bcbd
000000c0: 7c12 973b 9aff 8bbd 5197 52bd 6c0f a1bd
000000d0: e5af b5bd 3de9 c6bd b20e 8cbd aade 0cbe
000000e0: 7a06 e2be 92e3 813d f427 8c3c ed20 c5be
000000f0: 59c6 f53d bca1 dd3c 55df 043e 80af 90be
00000100: 4236 cfbd 946b ae3d 859e 043e 52a7 7c3e
00000110: 4518 d83c e1c3 ec3b ad7a bf3c 7efe bfbe
00000120: 4735 a2be 37ca 333d dd45 cb3d 7a52 6ebd
00000130: 5acb 9bb9 51c8 5c3d 73e0 adbe 9d35 503d
00000140: b4ef 02bd 0156 35be f5a3 c53d 2324 7d3d
00000150: 6299 993b 6d2d 11be 07bf 94bb 4d8a d73c
00000160: b7ad 85bd 6ea8 a43d 9ea9 afbd 84cb dcbd
00000170: 128a 243d e671 353c f7a3 c13d 86b3 79bd
00000180: 8177 91bd fda9 393d 2e37 363d bf8e dabd
00000190: 486e 32bd 8e13 65bd 36e6 c3bd 3a79 c5bd
000001a0: 16b2 25bd 220f 22be a27c 6d3d 77d5 24be
000001b0: 962e 61bc 0fa4 b93c 4ff9 cdbd 75b4 193e
000001c0: ad45 773c 26c5 4e3d d6ba b43d d3e7 1e3d
000001d0: fa5a c4be b9a7 49bd 7c8d 17bc c3f5 323e
000001e0: 3f48 153e 2635 563e 3053 5cbe 140b 113d
000001f0: 5887 1f3e 69bc fa3d ba98 083e eea1 1f3b
00000200: fd57 e43d caae 6e3b 8929 6b3e c635 483e
00000210: 4833 49be 887a 60be 83b9 44be 98fc 093e
00000220: 65ee 133e 75a2 aabd db85 f6bd 536f 463c
00000230: 1b94 123e 4ea2 573e c41b d6bd d09a d5bd
00000240: ecb2 10bd d39e aabd 869c 59be e43b 29bd
00000250: 7144 10bc f049 ecbd 32ff e1bd c233 f7bc
00000260: bfd9 47bd bb70 37bd 70c8 163d 5b45 0bbe
00000270: 8455 72be 04cd 82be 488f 20be a5a9 cbbd
00000280: 7077 0fbf a2b6 5bbd cf5a f5bc d5fe 3abd
00000290: 424a 863c 5fb1 ef3e 91a5 23be 5b5a 55be
000002a0: 783a b13b 5fdf 53be d798 94be bd46 953e
000002b0: 1b0a 333e 78c6 2f3d aa45 8a3d 574e ad3b
000002c0: 2da7 e73d 7e39 ddbd 11af 053e 54c8 063e
000002d0: 98a0 2dbe c28d 5a3e 80f4 85bc 9c60 6abd
000002e0: 2b01 1abe 945a c73e 42e8 553d 1fa8 bfbd
000002f0: 8195 09be 2848 0ebe aef2 11be b2d4 623e
00000300: 176a 0abe 50eb ec3c 833a 2e3e e440 28bd
00000310: fc45 08be 3821 033d b95f edbc 823f ccba
00000320: 6d52 a03c 25d7 7f3d b067 f93d db08 313e
00000330: 3966 853d 5882 5fbd e641 2d3e d0ef a8bd
00000340: 1c60 90bd 2631 4fbc 174a 9bbd ec7f 9b3d
00000350: a3ca ebbc fbc9 b8bd 6406 553e 00af 383d
00000360: 3f61 06bd afb7 973c da0a d9bd d6e6 40bd
00000370: d7d0 c23d d966 a33d d8ab b4bd 6c29 20be
00000380: 4467 45bc ea30 d73b 3510 7bbd 6a1b d33d
00000390: 0498 573d 14bc b23d aa17 173e 9ad0 243e
000003a0: 9eef e2bb 0c74 b8bd fbdc bf3d 0c6c afbd
000003b0: ca34 95bb 4932 e7bc 1c5a f13d 971b ce3d
000003c0: 831e cbbb b4a2 313e fa81 f33d e880 673d
000003d0: 1d1f 843c 83fd 36bd ea64 14be 358d fabd
000003e0: 7ca8 a0be eb5d e2bd 3a07 46bd eefc 2ebd
000003f0: 1b41 06bd dba1 6b3c 079d bdbc b1f5 c4bd
-0.109297864 -0.019624734 -0.15781915 0.026317583 0.029842334 0.013692516 -0.05438876 0.13647571
-0.23472288 -0.040282287 0.20501271 0.035562534 -0.013626969 -0.36604902 0.24315856 0.040697552
0.26677847 0.0038783308 0.15253018 0.009290715 0.24520056 0.12332939 -0.19571418 0.13204011
0.10959835 0.051990576 -0.5091011 0.23704243 -0.5228469 -0.2329894 -0.3045673 0.24123307
0.009992045 0.10268396 -0.23822579 -0.4386222 -0.0072092824 -0.11450684 -0.1684781 -0.14742419
0.010561871 0.009497123 -0.015384823 -0.020436998 -0.118081175 -0.044858154 0.0987093 -0.092172734
0.004610358 -0.068358615 -0.051413838 -0.078642696 -0.0887144 -0.097124554 -0.068387404 -0.13756815
-0.44145566 0.06342234 0.017108895 -0.38501683 0.120007224 0.02705466 0.1297582 -0.28258896
-0.10117771 0.08516613 0.12951095 0.24673203 0.02637876 0.007225499 0.023373926 -0.3749885
-0.31681272 0.04389402 0.09925435 -0.058184125 -0.00029715413 0.053901974 -0.33960304 0.05083238
-0.03196688 -0.17708589 0.09650413 0.06180204 0.004687474 -0.14177485 -0.004539374 0.026311064
-0.06527274 0.08039938 -0.08577274 -0.10781005 0.040170737 0.011074519 0.09455102 -0.060962223
-0.07102872 0.04532813 0.044486217 -0.10671758 -0.043562204 -0.055926852 -0.095653936 -0.09642263
-0.04045304 -0.15826085 0.057980187 -0.16097055 -0.013744017 0.022661237 -0.100573175 0.15010245
0.015092296 0.050480984 0.088246986 0.038795304 -0.3835066 -0.04923222 -0.009250041 0.17476563
0.14578341 0.20918712 -0.21516109 0.035410956 0.15578973 0.12242968 0.1333951 0.0024357992
0.11149595 0.00364201 0.22965063 0.19551763 -0.19648468 -0.21921742 -0.19211392 0.13475263
0.14446409 -0.083317675 -0.1203725 0.012111503 0.1431431 0.21058008 -0.104545146 -0.10429919
-0.035326883 -0.083310746 -0.21251115 -0.04131688 -0.00880538 -0.1153754 -0.11035003 -0.030176047
-0.048791643 -0.044785243 0.036812246 -0.13600676 -0.23665434 -0.2554704 -0.15679657 -0.099444665
-0.5604162 -0.05364097 -0.029950527 -0.045653183 0.01639283 0.4681501 -0.15981127 -0.20835249
0.0054085813 -0.20690678 -0.29022858 0.29155532 0.17484324 0.042913884 0.067515686 0.00528888
0.11311183 -0.108019814 0.13055064 0.13162357 -0.16955793 0.21343139 -0.016351938 -0.05722104
-0.15039508 0.38936293 0.05222345 -0.093582384 -0.13435937 -0.13894713 -0.14252731 0.2215145
-0.13517033 0.0289208 0.17014508 -0.04107751 -0.13307947 0.0320141 -0.028976308 -0.0015582892
0.019570554 0.062461037 0.1217798 0.17288534 0.06513638 -0.054567665 0.1691967 -0.082488656
-0.070495814 -0.012645995 -0.07582491 0.075927585 -0.028783148 -0.090229 0.20803219 0.045088768
-0.032807585 0.018520204 -0.10597773 -0.047095142 0.09512489 0.07978601 -0.08821839 -0.15640801
-0.012048546 0.0065671103 -0.061294753 0.10307963 0.052635208 0.08727279 0.14755121 0.160952
-0.0069255373 -0.09006509 0.093683206 -0.0856553 -0.004553412 -0.02822222 0.11784765 0.10063856
-0.0061987056 0.17347223 0.118900254 0.05651942 0.016128117 -0.04467536 -0.1449162 -0.12233964
-0.31378543 -0.1105307 -0.048346736 -0.04272168 -0.032776933 0.014381851 -0.023146166 -0.096171744

bias f4 [32]
00000000: 4b70 32be 9da5 ddbd efee 583d 4bfb 3bbd
00000010: 870f 243d 572c d73c ff68 713e 5b11 f33d
00000020: 662d 913e c22f 14be 73cf 783e 091d 293e
00000030: 0e29 563c 8d90 afbc f779 833e 4646 e0bd
00000040: 1988 2ebe 6819 00bc 7be7 453d 4e17 a83c
00000050: 9cf0 22bd 5c4f 9e3c bfe0 c7bd 25ff 153d
00000060: 1ca9 073e dd44 dcbd 3093 58be a82c ab3e
00000070: 6fea 343e ec92 5a3d 1c33 02be dfa8 b0bb
-0.17425649 -0.10822604 0.05296224 -0.04589395 0.04005387 0.02626626 0.23575209 0.11868545
0.2835495 -0.14471343 0.24297886 0.16514982 0.013071312 -0.021431232 0.2567899 -0.109509036
-0.17044105 -0.007818557 0.04831646 0.020518925 -0.039780244 0.01932495 -0.09759664 0.036620278
0.13248104 -0.10755322 -0.21149898 0.33432508 0.17667554 0.053362772 -0.12714809 -0.0053912248

running_mean f4 [32]
00000000: 0358 f73d 43ce 9ebf 4c02 edbe 19a5 87be
00000010: 7cdb 5b3f fba3 12c0 d37b 8b3d aad6 d1bf
00000020: 1107 3b3f 1274 7dbe eafa 353f 55fc a7bf
00000030: 07f7 633f 7997 63be 9b18 cb3f 6a14 743f
00000040: 0325 db3d 7944 6bbf 374c 67bf 3e7c a63f
00000050: 3478 2cbf ad36 583f 9682 8c3e e16c f93f
00000060: 15f7 b3bc f552 cbbf 39c7 c9bf 8292 903f
00000070: ce4d 913f 0630 debe 696f 933f 55dc 10c0
0.12077334 -1.2406696 -0.46290815 -0.26493147 0.8588178 -2.2912586 0.06810727 -1.6393635
0.7305766 -0.24751309 0.7108599 -1.3123881 0.8904881 -0.22225751 1.5866884 0.9534365
0.10700419 -0.91901356 -0.9035067 1.3006666 -0.67370915 0.8445843 0.2744338 1.9486352
-0.021968404 -1.5884691 -1.5763923 1.1294711 1.1351869 -0.43396014 1.1518375 -2.263448

running_var f4 [32]
00000000: c672 1140 9861 5b41 ca97 1542 2236 7240
00000010: b0a6 4041 6cd0 c042 5638 1f41 0fbc 1342
00000020: f0a1 6241 ff4d 3f40 51d8 3141 91e4 3d41
00000030: 5692 6841 bb2c 3541 545e b841 15a7 ba40
00000040: ee35 4941 22a3 0d40 fea2 8240 aac7 7440
00000050: ff4c 6042 028a 6840 d03d 9540 caea a241
00000060: b513 2042 d591 4a41 967f f440 9d38 0141
00000070: 5a7b 8641 1bbe b140 00bd 103f 7d6c 4d41
2.2726302 13.711327 37.39823 3.784554 12.040695 96.407074 9.951254 36.93365
14.1645355 2.9891355 11.115312 11.868302 14.535727 11.323421 23.046059 5.8328958
12.575666 2.2130818 4.0823965 3.8246865 56.07519 3.6334233 4.6637955 20.364643
40.019245 12.660604 7.6405745 8.076322 16.81023 5.554456 0.5653839 12.838986

weight f4 [32]
00000000: 1304 133f 36f0 d03e 0695 2b3f 21c0 1c3f
00000010: c269 9d3f 583b a13f 7599 c73f 9873 2a3f
00000020: 68b8 dc3f ee57 843f 2541 a23f 9a97 363f
00000030: 0cbd bc3f 5863 803e cd90 f03f 1828 413f
00000040: 8658 a23f 38f8 413f e2b7 b33e e919 703f
00000050: 3be9 3b3f d401 933f ba67 343f dfbd ea3e
00000060: 1610 c83f f8d7 913f 0769 683f f165 db3f
00000070: 9db6 da3f 7564 473f d310 133f c118 813f
0.5742809 0.40808266 0.67024267 0.61230665 1.22979 1.2596235 1.5593706 0.6658263
1.7243776 1.0339334 1.267613 0.71325076 1.4745193 0.25075793 1.879419 0.75451803
1.2683265 0.75769377 0.3510123 0.93789536 0.73402756 1.1484933 0.70470774 0.45847985
1.5629909 1.1394033 0.9078526 1.7140485 1.7086979 0.7788766 0.57447547 1.0085679

bias f4 [32]
00000000: 9e0e 74be 1872 f83d 2dd9 c03d d83f 333e
00000010: 955e 163e 5497 063e b403 8f3e a86e d43d
00000020: c60e ac3e 91a4 2e3d e1b0 7c3e 802e 8ebe
00000030: cc2a df3e ee8d fd3d c2b9 0b3f 4d12 253e
00000040: 3135 823e 8aba 603d 3347 d23d 882e 2b3e
00000050: 40d2 8b3d 61e6 b83d 78f8 073e 8846 333e
00000060: 9673 423e 0f2a 5c3e 5fb6 1b3e 9acf 503e
00000070: 1813 b93e 5153 223e 8f6b 83be b60b cfbe
-0.23833701 0.12131137 0.09416423 0.17504823 0.14684518 0.13143665 0.27932513 0.103726685
0.3360502 0.04263741 0.24676849 -0.27769852 0.4358734 0.123805866 0.5458032 0.16120262
0.25431207 0.054865398 0.102674864 0.16716969 0.068272114 0.09028316 0.13278377 0.17507374
0.18989405 0.21500419 0.15206288 0.20391694 0.3614738 0.15852095 -0.25667998 -0.40438622

weight f4 [3, 1536]
00000000: ce0a 9e3d 91d6 49bd fc56 433d 043f debc
00000010: 1138 84bc 3a22 98bc c121 f53d 3bd9 e9bc
00000020: f75c 583b 6b05 cc3d f744 e23c 561c 91bc
00000030: cdae 40be 1b21 76bd 4627 3c3e 451d 10be
00000040: 73f9 d7bd 878b d4bd 3477 6d3e d856 47be
00000050: f576 91bd 1201 9ebb c740 9d3e b812 2b3e
00000060: 8cff 1bbe 05d6 e63d fc0e 36bd 50f6 0b3f
00000070: 1f05 8b3e 256b 20be 32c1 c83c 93ba 9c3d
00000080: 180a 223e 8a52 ebbd 5d16 85bc c3bc 293e
00000090: bdb0 3b3e 02c6 1ebe 35ad 3d3e ec76 d13d
000000a0: cbe3 ff3d f1f2 773e 1483 093e 5ff1 1abb
000000b0: 1ef3 29bd a8f5 73bd 200f 473d db98 80bd
000000c0: 2540 84be 4513 1ebe 5753 81be 7543 99be
000000d0: 6a7d 7dbe 7397 66be 8311 8e3e 5964 153e
000000e0: 6b45 863d e2a6 bebc 814f 753d 747f 3f3d
000000f0: 3fa0 ac3d 391f 0d3e ea49 9b3c 15d7 323d
00000100: 0dfc ad3c ae3f f2bc e797 9a3d 59a7 f93d
00000110: f57b 7f3d 1078 8b3d 3012 183d c9b9 3c3d
00000120: b2fa 673e bcb6 2a3e b6e8 013e 2d62 a73d
00000130: 00a4 9f3d 5308 d63d 7c0c 363e 599a e83d
00000140: 10ef 833e 4f64 413e c7ff 733d 4b10 c83d
00000150: 9c66 7c3e 34b4 323e 4c4f 1f3d e5d5 58bb
00000160: dc1b 703e 1216 0d3e 7db5 2b3e 1df3 de3c
00000170: f2bf 453d e6a9 bebd 64b5 e2bc fb03 c63e
00000180: ecea 0fbe 392d 29bd acc5 f2bd c350 48be
00000190: d135 2dbe 9dfe 24be 9011 1b3e 968d 4f3e
000001a0: 7205 2e3e 7a89 8dbe e24e cfbb de1d a83d
000001b0: 2dde 5b3d 36cc 9c3d 9644 453e 044b 03bb
000001c0: a14b c9bc dc44 07be c160 333e 7623 8b3e
000001d0: 0d4b 633e b574 cbbd 2e2f 6abe 93f5 45bd
000001e0: 3365 973e 9d9c c43e 42bb ac3e 4fbe 423e
000001f0: 9144 dfbe 90af febd cd2c 993e c480 ae3e
00000200: 6255 8d3e 50f5 f53e 71d4 cabd 8df2 29be
00000210: 8f12 0a3f 3631 033f 3838 d93e 2863 663e
00000220: 0d6d 193e 33ec 0abe 079a 783e 05dd 00bd
00000230: 2113 b93d 74a9 843d 6314 8c3d 145e 5d3e
00000240: 4151 ca3d 7628 8b3d 085a b83d 93ad 8b3d
00000250: bd1d c63d c6bd d93d 404b 223e 61cf 7e3e
00000260: d2c7 d43d 6e01 6ebd 8b4e c2bd 198a 94bd
00000270: 895b 9f3e d030 9f3b 419a 80bc 396d 593c
00000280: bb38 d2bc 483c 68bd 02d5 cc3d 34a7 893d
00000290: d2be 89bc bb54 313e 659e 0c3c 81f1 99ba
000002a0: 0fec 603e 54f6 6f3e ffca 94be 0ea7 87be
000002b0: 909d 83be e0a8 e8bd ff05 2b3e dce5 413e
000002c0: cc36 ab3e acd9 0bbe 771f 17be 1283 d5be
000002d0: f0d2 a73e b968 c63d ef69 7b3e 8ff9 8b3e
000002e0: 5a11 95be a6a9 e8be 7278 673e a280 523d
000002f0: 02ae 2e3d 017b 9fbd aad6 443d 3743 eabe
00000300: 893e cb3d 67c8 f13d eade 533d 6f6f b23c
00000310: 89c6 ac3d a20e 9c3d 5acb a3b9 000c 5f3e
00000320: b040 a4bc a741 b6be c1f1 c03d ef88 3cbe
00000330: 12f8 a53d 9be3 c33d 30af 70bd 4375 81bd
00000340: 5716 0abe e21e 15be d3eb 343e af62 873d
00000350: 0249 46be c6e9 59be f533 ecbd cb3c 80bd
00000360: 250f 8c3d e234 ddbb 2a92 503e be0d 9cbe
00000370: fc11 f6be 6837 5bbc 0efd ec3d 0c19 553e
00000380: ee37 bf3e 42a5 bdbe ecdb 8fbe 3934 46be
00000390: 76bf ad3e c08f d73d 7133 823e 4066 7b3e
000003a0: 5969 2bbe 9cd1 3ebe 6026 793e 4f6f 233d
000003b0: 1502 6a3d 5f67 643d b627 db3d cc5e c0bd
000003c0: f33a 93bb 8ec5 b4bb 4004 a4bd 16ad 20be
000003d0: c76c f6bd b435 54be 72b1 59bd 180a b93e
000003e0: 8812 cb3d b734 ddbc 0e12 69bd 47a1 8abd
000003f0: 2ab6 8d3d 7a8d 623e b1df 953b 2305 4cbd
0.077169046 -0.049276892 0.047690377 -0.027129658 -0.016140016 -0.018571008 0.11969329 -0.028545966
0.0033014396 0.09961971 0.027620776 -0.017713707 -0.18816681 -0.060090166 0.18374357 -0.14073665
-0.105456255 -0.10378175 0.23190004 -0.19466722 -0.071027674 -0.004821905 0.30713484 0.1670636
-0.15234202 0.1127129 -0.044447884 0.5467272 0.27152345 -0.15665872 0.024506185 0.07652774
0.15824163 -0.114903525 -0.016246015 0.16575913 0.18329139 -0.15505221 0.18523104 0.10227761
0.1249462 0.24213769 0.13428909 -0.0023642404 -0.04149162 -0.059560448 0.04859841 -0.06279155
-0.25830188 -0.15437038 -0.25258896 -0.29934278 -0.24754873 -0.22518711 0.27747735 0.14589061
0.06556209 -0.023272935 0.059890274 0.04675241 0.08429002 0.13781442 0.018956143 0.04366215
0.021238351 -0.02957138 0.07548504 0.12190122 0.062374074 0.068100095 0.03712672 0.046075616
0.22654226 0.1667127 0.12686428 0.081730224 0.077949524 0.104508065 0.177782 0.113575645
0.25768328 0.18885921 0.0595701 0.09768733 0.24648517 0.17451555 0.038893983 -0.0033086475
0.23448128 0.1377795 0.16768451 0.027215535 0.048278756 -0.09309749 -0.027674384 0.38674912
-0.1405446 -0.041302893 -0.11854109 -0.19562058 -0.1691506 -0.16112752 0.15143418 0.20268854
0.16994265 -0.2764395 -0.0063265422 0.08208822 0.05367868 0.07656138 0.19264445 -0.0020033726
-0.024572195 -0.13209862 0.17517377 0.27175492 0.22196598 -0.099343695 -0.2286956 -0.0483299
0.29569396 0.38400736 0.33736616 0.1901791 -0.43607 -0.1243583 0.29916993 0.34082615
0.27604204 0.4803872 -0.09903801 -0.16596432 0.5393457 0.51246965 0.42425704 0.22498763
0.14983006 -0.13566665 0.24277507 -0.03146078 0.09036852 0.06477633 0.06839826 0.21617919
0.09878779 0.06794827 0.09001547 0.06820216 0.09673641 0.106318995 0.15849018 0.24883796
0.10389675 -0.058106832 -0.09487637 -0.072529025 0.31124523 0.004858114 -0.015698554 0.01327067
-0.025661817 -0.056698114 0.100015655 0.067213446 -0.016814623 0.17317478 0.008582686 -0.0011744947
0.21965049 0.2343381 -0.29061124 -0.2649464 -0.25706148 -0.11360335 0.16701506 0.1893534
0.33440244 -0.13657254 -0.14758097 -0.4170156 0.3277812 0.09687943 0.24552129 0.27338836
-0.291148 -0.4544193 0.2260454 0.051392205 0.042646416 -0.07787133 0.048056282 -0.45754406
0.09924037 0.11805802 0.05172626 0.021781651 0.08436305 0.076199785 -0.0003124129 0.21781921
-0.020050377 -0.35596964 0.09421111 -0.18411611 0.08103956 0.09564897 -0.05876082 -0.06321194
-0.13485084 -0.14562562 0.17668085 0.06610619 -0.19363788 -0.21280584 -0.115333475 -0.06261595
0.06838826 -0.006750689 0.20368257 -0.30479234 -0.48060596 -0.013379909 0.11571704 0.20810336
0.37347358 -0.37040144 -0.28097475 -0.19355859 0.33935136 0.10525465 0.25429872 0.24550724
-0.16739406 -0.18634647 0.24331045 0.039901074 0.05713089 0.055762645 0.10700934 -0.09393081
-0.0044931113 -0.0055167144 -0.08008623 -0.15691027 -0.120324664 -0.20723611 -0.05314774 0.36140513
0.09915644 -0.027002675 -0.056901984 -0.067690425 0.06919511 0.22124282 0.0045737852 -0.049809586

bias f4 [3]
00000000: 8298 f33d 8293 a53d 3bbb a33d
0.11894323 0.080847755 0.07994696
