dev/breakout_7500.pth (torch_old, 199616 bytes, 20 tensors)

weight f4 [16, 2, 5, 5]
00000000: ff8b f03d cbf9 873d 755b 23bd da77 9c3c
00000010: 2d07 4abc 0a87 e53d ae49 afbd 7f81 77be
00000020: 5ba5 563c 59e3 31bd 7f84 32be 74ac 163b
00000030: 0d09 b3bd e626 bcbd 523c 85be 81bd 033e
00000040: f19d 633e 2099 c03d 9356 dabd f93d 143e
00000050: cd8c b4bd f82e 183d f8d6 c8bd b553 863e
00000060: a675 963c 286e 6e3e 1b17 2fbe 8265 b93e
00000070: f8e2 01bf 2562 853c fbee 80be 11d8 f1bc
00000080: 50c5 403d b4da 6d3d deb2 c7be a3e2 36be
00000090: e58c 8bbe 1789 d2bc 8914 423e 7a39 93be
000000a0: a4a1 a03e db22 80bd a8c6 0ebe 5fd3 c3bd
000000b0: 101a d43d 764d 35bd 3e40 59be f4ae b6bc
000000c0: 53f4 843e 69c3 14bc e931 a3bc ce07 473e
000000d0: a832 38bd 7a92 45be f08d f6bc 0630 dd3d
000000e0: 6883 293e c9fe b6bd 224c 05be 7671 b23d
000000f0: 7a80 55bb 720d 98be 9bae 88be 25b9 f7bd
00000100: abfc 0bbe ccdd 0c3d db1d 8b3e 30dd 2d3e
00000110: 0fb6 d1bd 97bf 3f3e bf79 0ebd 1460 a4bc
00000120: 187a 5cbd 48c3 723d b93b 363e 3373 1dbd
00000130: 0741 903e 3bf9 b13e 04dd bc3c 0f46 24be
00000140: a5f6 ad3e 287e 9fbe 474d 58bd 12c0 7b3e
00000150: 5217 8a3d b0fd c03d 0215 9dbe c97a 89bd
00000160: fd82 de3d e71b 3b3d 0957 44bb af9b 8b3e
00000170: 7f83 363e 5560 7ebd 52fb b63d 6155 7fbd
00000180: 0e2b 4b3e 0fa4 9b3e 83a0 683e c58a 403d
00000190: 7dcc 643e a712 d93d be81 ae3d e9e4 02be
000001a0: 664b 203d 7a6e 813d a305 d13d 5a92 a3bd
000001b0: aeed 8bbe ee0e 0fbe d9f7 f43a 78f9 50be
000001c0: ee5e 95bd 8e46 0a3d cccc 753e 71c6 e53c
000001d0: c27e 16be b4a1 203c 9bc2 b0bb 836f 2bbe
000001e0: f9ea 3f3e 7d90 433e 1fd2 1abd c83f 7e3d
000001f0: c9d8 5bbd e91d 853e 7406 b43e 0ae1 863e
00000200: 7ee6 bb3e 0406 903e 2406 953e 888b 933e
00000210: 2a93 463e 7801 8e3d 6af9 4e3d defd d5bd
00000220: 000a 423e 4767 103e aac3 1f3e 3904 913d
00000230: 731d fe3c 1181 2fbb f994 5e3e d8a6 883e
00000240: 0e0c 633e 5a6f 503d bbde 2bbd 3a39 89bc
00000250: 3ac7 a4bd c141 02be 5aca 82be 278b 34be
00000260: 8488 913e 40de 6b3e 8fb6 cc3b 6b2f 27bd
00000270: 3a0f 89be 60ab 653d 284b 8e3d 3b07 8f3d
00000280: fa4f bfbd 99e6 293d a97c 0abe d5b9 afbd
00000290: dc96 84be bea2 cabc 8128 223e eae4 8abd
000002a0: a540 343e 2e46 0a3e 90cc 153e 4598 debb
000002b0: ce35 5b3e 5ccb 233c 9d93 5fbe 4f4a aabd
000002c0: 6df0 1abe 7f73 d43c 6fc2 6e3e 54a4 46be
000002d0: fe63 9e3e 2020 753e a918 6ebe f994 05bd
000002e0: ba3a 4b3e 5e17 7d3e e4fa 0a3e f83d 113e
000002f0: 1ea2 133d 2c2d d73d 1448 043c c8f5 a1bb
00000300: d64d 9bbb 93ce 6d3e 0451 e73d 803a 1b3e
00000310: 8a57 8b3e 0349 ea3d c79a 33bd 4074 53bd
00000320: e03c 80be ec91 a3bd d25d b13d 7d52 243e
00000330: 3ca3 0f3e ada0 9dbe d050 68be 46d0 44bd
00000340: a5b3 db3b e583 e63d bb84 ff3d 1ecd 5e3e
00000350: 0044 ee3d f4dd 3e3e f20f ff3d f883 4b3d
00000360: d1e9 93bd 31ed d8bb 40f8 acbd 4ef9 75be
00000370: 4948 4f3e 08bd 89bd 0ce2 96bc af20 8fbd
00000380: ba89 25be e4e8 013e 171e 413e 7936 56bd
00000390: a737 b53d 8ab3 033e 43ed e53d 9ecc 02be
000003a0: 363b af3e 126c d63e f0c2 5dbd 8c42 15be
000003b0: 95b5 d03d 30f0 1fbe 2b19 8c3e 426e 3cbe
000003c0: 782f 75bd 2b6a 163e e14e 12be cbff 8d3d
000003d0: 731a 073e 76ae 97bc 893b ec3e a9c1 623e
000003e0: f7a2 ba3e 001e f43d 23f3 0a3e 231f d3bd
000003f0: 008e 1b3d 1ea7 e53d 295b be3d 2b1a b93d
0.11745452 0.06639441 -0.039882142 0.019100118 -0.012330812 0.11207397 -0.08558975 -0.24170493
0.013100947 -0.043429706 -0.17433356 0.0022990974 -0.08741961 -0.09187107 -0.26022583 0.12865259
0.22228219 0.09404206 -0.10661044 0.14476766 -0.08815918 0.037154168 -0.09806627 0.26235738
0.018366646 0.23284209 -0.17098658 0.36210257 -0.5073695 0.01628215 -0.25182328 -0.029521974
0.047063172 0.0580699 -0.39003652 -0.17859893 -0.27255931 -0.025700135 0.18953146 -0.2875479
0.31373322 -0.06256648 -0.13942969 -0.095618 0.103565335 -0.044263326 -0.21215913 -0.022300221
0.25967655 -0.009079793 -0.01992126 0.19436571 -0.044970185 -0.19294158 -0.030096978 0.10800175
0.16554034 -0.08935315 -0.13017324 0.08713047 -0.0032577799 -0.29697758 -0.26695713 -0.120958604
-0.13670604 0.03439121 0.27171215 0.16978908 -0.10239803 0.1872543 -0.034784075 -0.020065345
-0.053827375 0.059268266 0.1779622 -0.03843994 0.28174612 0.3476046 0.023054607 -0.1604235
0.33977237 -0.31150937 -0.052808072 0.24584988 0.06742729 0.09423387 -0.3068009 -0.067128725
0.10864828 0.045680907 -0.0029959104 0.27267215 0.178236 -0.062103588 0.08934654 -0.062337283
0.19840643 0.30398604 0.2271748 0.04700734 0.22343631 0.10599261 0.0852084 -0.12782635
0.039134406 0.063199 0.10206153 -0.07986899 -0.27329773 -0.13970539 0.0018689587 -0.20407665
-0.07293497 0.033758692 0.24003905 0.028048726 -0.14696792 0.009804178 -0.0053942925 -0.16741757
0.18741979 0.19098087 -0.037798043 0.062072545 -0.05367354 0.25999382 0.35161173 0.26343566
0.3669929 0.2812959 0.29106247 0.2881739 0.19392076 0.06933874 0.05053083 -0.10448812
0.18949127 0.14101897 0.15601984 0.070808835 0.031019902 -0.002677981 0.21736516 0.26689792
0.22172567 0.050887443 -0.04196046 -0.01675092 -0.08045812 -0.12720396 -0.25545007 -0.17631207
0.28424466 0.23034 0.0062473486 -0.040816706 -0.2676943 0.05607164 0.06947929 0.06983801
-0.09341426 0.04147968 -0.13524117 -0.085803665 -0.25896347 -0.024735805 0.15835764 -0.06781943
0.17602785 0.13503334 0.14628816 -0.0067930543 0.21407244 0.009997215 -0.21833654 -0.083149545
-0.15130778 0.02593398 0.23316358 -0.19398624 0.30935663 0.23938036 -0.23251595 -0.032612775
0.19846621 0.24715945 0.1357227 0.14183795 0.03604328 0.10506663 0.008073825 -0.0049426295
-0.0047395034 0.23223333 0.112947494 0.15159035 0.27215225 0.11439707 -0.04384878 -0.051624537
-0.25046444 -0.07986817 0.08660473 0.16047092 0.14027113 -0.30786648 -0.22687078 -0.048050188
0.006704765 0.11255626 0.12476488 0.21757933 0.11634064 0.18639356 0.12454213 0.049686402
-0.07222331 -0.0066200723 -0.084457874 -0.24020883 0.20242418 -0.06725508 -0.018418334 -0.06988656
-0.1616582 0.12686497 0.18859135 -0.052298043 0.088485055 0.12861457 0.11226895 -0.12773368
0.34224862 0.41879326 -0.054140985 -0.14576167 0.10190884 -0.15618968 0.27362952 -0.18401435
-0.059859723 0.14688937 -0.14287902 0.06933554 0.13193683 -0.018515807 0.46139172 0.22144188
0.36452457 0.119197845 0.13569312 -0.10308673 0.03797722 0.11213516 0.09294731 0.09038194

bias f4 [16]
00000000: 9daa 48bc 46c1 b4bd a954 a2bd 6456 643c
00000010: 5257 4fbe 59a8 b8bb 4c7d 363c 44d5 c4bd
00000020: 5b32 d9bd 6f78 9d3d 13f5 b03c 9c21 da3d
00000030: 5a85 32be 6c28 143e d058 27be d1c9 24bd
-0.012247709 -0.088259265 -0.07926304 0.013936613 -0.20248154 -0.005635303 0.011138272 -0.0961099
-0.10605308 0.076889865 0.021601235 0.10650942 -0.17433682 0.14468545 -0.16342473 -0.04023153

running_mean f4 [16]
00000000: d9ab f0bc 5f39 e1bd 27cd 89bd c91a 803b
00000010: 261e 54be a6f3 383d 3877 113c 3526 bcbd
00000020: ebc9 f1bd 4714 8e3d 71b1 0cbe 8991 bb3d
00000030: 554a 4abe 5f02 043e 96e0 22be cb8a 95bd
-0.029378818 -0.10997271 -0.06728583 0.003909443 -0.20714626 0.045154236 0.008878522 -0.09186975
-0.11806091 0.06937461 -0.13739564 0.09158618 -0.19754918 0.1289153 -0.15905985 -0.07301863

running_var f4 [16]
00000000: e382 a03b 1fa4 b73b 5870 ed3a 8618 4e3b
00000010: 3d09 493b 26af ea3b 627b 433b 9e45 5a3b
00000020: 251c 203b 6ba2 1f3c 4d49 9e3d bdb9 7f3b
00000030: 87a0 4c3b ee28 853b f6c8 383b b3cd 313c
0.0048984154 0.0056042816 0.0018115146 0.0031447723 0.0030675672 0.0071619926 0.002982818 0.0033305655
0.0024430838 0.009743313 0.07728825 0.003902062 0.0031223611 0.004063717 0.0028195954 0.010852265

weight f4 [16]
00000000: bc6a 253f 05c5 303f 94c8 323f 8902 603f
00000010: 128d 8c3e 5aa1 c03e 9234 bc3e 7980 da3e
00000020: 4b7b e63e 9418 eb3e 563e 653f d831 c33e
00000030: 7e64 2c3f 6267 7f3f 9c20 983e 5f6f de3e
0.6461599 0.6905063 0.6983731 0.8750387 0.27451378 0.376231 0.36758858 0.42676142
0.4501594 0.4591719 0.8954824 0.38123965 0.6734084 0.99767125 0.2971238 0.43444344

bias f4 [16]
00000000: 8d59 80be 0e12 d1be 22b1 81be a42d 05bf
00000010: 2c56 2bbe 2323 fcbe 4786 b2be c11a 01bf
00000020: 450f 13be 8070 05be 6cdf ffbd b60b 86be
00000030: 92fb b3be bc23 95be d27b 5ebe 4fab 1dbe
-0.25068322 -0.40834087 -0.25330454 -0.5202277 -0.1673209 -0.49245557 -0.3486807 -0.5043145
-0.14361294 -0.13031197 -0.12493786 -0.2618081 -0.3515287 -0.29128826 -0.21726921 -0.1539738

weight f4 [32, 16, 5, 5]
00000000: 61ff 7a3e 05f5 2ebe 213e 02be cabf 9bbe
00000010: 0c4e aa3d 0d48 8b3d 1745 063e 53f8 41bd
00000020: fc18 553d e53c 2f3c 49e1 e93d b302 b2bd
00000030: 04e6 26bd ffc2 943e 5ca8 4c3e 33ca 8d3d
00000040: 817a 223e fdea a9bd 5717 573d ba93 11be
00000050: 9e13 5cbe 6440 393e 314b 193e 2160 373e
00000060: ca95 c13d eab1 243d bf84 a2be a8fd 54be
00000070: 5351 75bd 2d40 77be 846e 72bc ca2c 063e
00000080: f24a 0cbd ef39 843d 92fd 433e ba1f 5ebe
00000090: e516 1b3e 3b77 1a3e 9585 653e efa1 0a3e
000000a0: f2d3 1c3d d448 13bd 4101 0d3e d088 353e
000000b0: 9dd3 fdbc f962 7ebe 288a b9be 680e 863d
000000c0: 654d 01bd a44e 20bc 5090 9a3e e6f6 0f3e
000000d0: 6a8e d9bb d954 873e c94a 06bc d05d 79bb
000000e0: 29ed bdbd ba5e 9b3c 1213 fc3c d276 e43d
000000f0: 090f e6bc 12d6 443e 0bfa 02ba 3b80 273e
00000100: b05b 3bbc 9a6c a6be 8d22 c4bd e85d 99bd
00000110: 896f 273d f013 583d 4fb2 a3bc 6d40 f8bd
00000120: be7d 733c 7d0c 163e 74ae 63bc dd2a 9cbe
00000130: 40fd 403e 7e6d e23b a3b8 593e 2454 773d
00000140: 2a5a dc3d 3c29 24bd 1db3 ec3c fa18 023e
00000150: cbe4 cb3d 7ba5 d2bd 760f cc3d 8f34 00be
00000160: 4b7a c33d adcf 023e 12c3 a0bd 32b8 60be
00000170: b9be d0bd b03f fbbd ca13 86be b140 66be
00000180: b97c dbbd 1e55 2bbe 0331 9bbd 84fe 87be
00000190: 890a 253e 9fb1 3e3e 7652 383c e387 953c
000001a0: 7ea8 0e3b 24bc 703d c21e c43d 04dc 26bd
000001b0: 6289 763d 4a5b cf3d f7d5 263e 7b98 e63c
000001c0: e479 bbbc a4b9 1e3e 6cfe a53d 0bdd cf3c
000001d0: df3a ec3b 4a42 d0be 9850 e8be 555f 6fbe
000001e0: c750 84be e9d8 25be 9bce 04bd 7bd5 f3bd
000001f0: 8076 1bbd d964 89be ad6c f8bc 9153 31bd
00000200: 671f 853c da42 f1bd e2bd 31be 7982 6fbd
00000210: 4907 09bd 6f05 8dbd c286 bfbd 8a19 aebd
00000220: 9aed 67bd ed42 eabc 9a78 cfbc 0301 bcbd
00000230: 4c23 673e 4f3b 2a3c b2c8 3b3e 2a50 213e
00000240: 8b03 82bd 033b c23d 8e6b 3bbd 56e5 d63b
00000250: b543 613d b1b9 e0bd 87d5 2b3d 3cdb 163e
00000260: 5151 18bc 57f5 47be 7707 09be 2b23 b73c
00000270: 996b 173d 001a 943c 5e2b 2e3d 7795 303e
00000280: 8cb6 a13e 8911 ef3c 547b 42be 0a3b 363d
00000290: 6477 9ebe b0e7 4c3c 4af4 3f3d e8c2 ecbc
000002a0: 83db 39be 4522 fdbd 9c6e 733d fa12 a83d
000002b0: df22 a63e e901 2c3e 3c5c ebbd 3c72 a13d
000002c0: 2c6d 90bd 0cbc 8e3d 1ba5 adbc 0440 953d
000002d0: a0c7 27bd 3cbe 473d 4f35 c03c 7e6d 573d
000002e0: cd19 6d3e e1c3 0f3e 839d 5cbe 05aa 473e
000002f0: 878d 1d3e 2021 723c 6149 6c3e 94de 343c
00000300: b01d f53d bf1c 12be f44b 593d bcf2 56bd
00000310: 04c3 113e 7bcf a13d 3c5a 2c3e fb11 ac3c
00000320: c8b1 a8bd f260 d73d 053a c8be c133 90be
00000330: ec3d ebbe 84b5 f13d e11e 183e 7b48 013d
00000340: 5c6f 90bd b514 2cbd 0169 353e b48f 44be
00000350: 85f3 65be 6a67 5cbc 80f5 1d3e 4d44 213d
00000360: 58fb ee3d b0e0 8cbd fa17 61be 8710 143c
00000370: ed12 fc3d fb90 e03c f7cb 553e 2951 cd3d
00000380: 1c1c d8bd db51 03be b4f2 fcbe 0761 14bf
00000390: ecda a1bd f5df 40be 1c1d f83c bfc9 d63d
000003a0: ae1c 643d ed04 92bc f0c5 1c3e 892b 33bd
000003b0: 3075 393e 8ef3 62bc aa8a 4c3e a69b f83d
000003c0: f6f9 f8bd a4aa 61bd c8ee 763e 0b42 4bbd
000003d0: 15a6 0f3e 56b7 d7bc 5238 e13d 440b aabd
000003e0: 6e41 283e 8ada fb3d 8efb 33bb 2fb4 383d
000003f0: 7bf1 8f39 3fde 4ebc 1ffd 07be 77ec 1e3e
0.24511482 -0.17085655 -0.12719013 -0.3041976 0.083156675 0.06800852 0.13112293 -0.04735596
0.05202578 0.010695671 0.11419923 -0.08691921 -0.040746704 0.2905502 0.19986099 0.06923332
0.15867044 -0.082967736 0.052512493 -0.1421651 -0.21491858 0.1809097 0.1497009 0.17907764
0.09452398 0.040208735 -0.31741902 -0.20799887 -0.05989201 -0.24145575 -0.014796857 0.13103023
-0.03425116 0.064563625 0.19139698 -0.2169179 0.15145452 0.15084545 0.22414239 0.13538335
0.038288064 -0.035958126 0.1377001 0.17727971 -0.030984694 -0.24842443 -0.36238217 0.065457165
-0.03156795 -0.009784374 0.30188227 0.14059028 -0.0066392915 0.2643192 -0.008196541 -0.0038050301
-0.0927375 0.018966068 0.030770812 0.11155476 -0.028083341 0.19222286 -0.0004996366 0.1635751
-0.011435434 -0.3250473 -0.095769025 -0.07488614 0.040877853 0.05275339 -0.019982485 -0.12121663
0.014861522 0.14653201 -0.013896573 -0.30501452 0.18846607 0.006910025 0.2126184 0.060382977
0.10759385 -0.040078387 0.028894002 0.1270484 0.09955748 -0.10285469 0.099638864 -0.1252005
0.0954481 0.12774535 -0.07849707 -0.21945265 -0.101926275 -0.12268007 -0.26186973 -0.22485615
-0.10717148 -0.16731688 -0.075777076 -0.26561368 0.161173 0.18622445 0.011250129 0.018253272
0.002176791 0.058773175 0.09576179 -0.040737167 0.060189612 0.10124834 0.16292559 0.02814888
-0.02288527 0.15500504 0.08105168 0.025373956 0.0072091664 -0.40675575 -0.45373988 -0.2337621
-0.25842878 -0.16196026 -0.032423597 -0.119059525 -0.037954807 -0.26834753 -0.030325258 -0.043292586
0.016250325 -0.11780329 -0.17357591 -0.058474038 -0.033454213 -0.06885802 -0.09351875 -0.08500965
-0.05662308 -0.028596366 -0.025326062 -0.091798805 0.22572058 0.010390117 0.18338278 0.15753236
-0.06348332 0.09483912 -0.04575687 0.0065581007 0.05499621 -0.10972918 0.041951682 0.14732069
-0.009296731 -0.19527183 -0.13381754 0.022355637 0.036967847 0.018078804 0.042521827 0.17244516
0.31584585 0.029183166 -0.18992358 0.044489898 -0.30950463 0.0125064105 0.04686383 -0.028901532
-0.18150143 -0.12360052 0.059431657 0.082067445 0.3244848 0.16797604 -0.11492202 0.078831166
-0.07052073 0.06969461 -0.021196892 0.07287601 -0.04096186 0.048765406 0.02346292 0.052594654
0.23154373 0.14039566 -0.21544461 0.19498451 0.1538602 0.014778405 0.23074867 0.011039395
0.11968553 -0.14268778 0.05305095 -0.052477583 0.14234549 0.07900902 0.16831297 0.021004668
-0.08237034 0.10516538 -0.39106765 -0.28164485 -0.4594568 0.118021995 0.1485553 0.031563263
-0.0705249 -0.042011935 0.17715837 -0.19195443 -0.22456177 -0.01345239 0.15425682 0.039371777
0.11669034 -0.06878793 -0.21981803 0.009037144 0.12308297 0.027412882 0.20878588 0.10025246
-0.105522364 -0.12824194 -0.49403918 -0.5796055 -0.07903084 -0.18835433 0.030287318 0.10487699
0.055691414 -0.017824614 0.15309882 -0.04374269 0.1811111 -0.013852013 0.19974771 0.121390626
-0.12157051 -0.055094376 0.24114525 -0.04962353 0.14028199 -0.026332539 0.1099707 -0.0830293
0.1643121 0.122975424 -0.002746317 0.04509371 0.00027455002 -0.01262623 -0.13280152 0.15519892

bias f4 [32]
00000000: b525 fbbc 7778 b53c 46fa 0c3c 88e8 d5bc
00000010: 530f 4a3b 1979 083d e7c1 a93c 26af f0bc
00000020: 3713 edbb d1c5 25bd ce83 4ebd d3c4 fd3b
00000030: a705 b33c 5b4f 953c 15d9 aabb 3483 15bc
00000040: a6b7 43bd 254e 823b 946b 2d3d 4856 59bc
00000050: 6696 59bb 1dbd 0dbd 3f46 9b3c f998 58bd
00000060: c12b dc3c 3be0 7abc 67f5 dfbc 2f78 3dbc
00000070: 0dd2 11bb 94bf 0fbd f297 1f3c e7d0 cebc
-0.030657629 0.022152169 0.008604592 -0.026111856 0.0030831888 0.033318613 0.020722343 -0.029380392
-0.0072349566 -0.040471856 -0.050418667 0.0077444105 0.021853281 0.018226316 -0.0052138665 -0.00912552
-0.047782563 0.0039766007 0.042338923 -0.0132652 -0.0033201217 -0.03460418 0.018954394 -0.05288026
0.026876332 -0.01531225 -0.027338697 -0.0115642985 -0.0022250444 -0.035094813 0.009740816 -0.025246097

running_mean f4 [32]
00000000: 6a4f 49be ff4c 94bd 94f8 54be 2331 633d
00000010: 4631 3cbe 0a6c 593f 0188 03bf e540 e1be
00000020: 0d79 dc3e 03f1 bfbe 65d1 1f3e d9fe 33be
00000030: 60d1 d03e c504 923e 35cd 183e fda1 9a3d
00000040: 4dc4 bbbe 41b2 c03d 9e4f 483e 7b2d 12bf
00000050: 9311 383f e8df fd3e ba53 16bf e8a0 fdbd
00000060: 6012 d53e 780d 8fbf ffe7 e9bd aaf7 20bf
00000070: c470 44bf 7b2b 69be cd77 5ebe 6be1 9e3f
-0.196592 -0.07241248 -0.2079795 0.055466782 -0.18378171 0.8493048 -0.513794 -0.43994823
0.43061104 -0.37488565 0.15607221 -0.17577685 0.4078474 0.28519264 0.1492203 0.07550428
-0.36673203 0.09408999 0.19561622 -0.5710065 0.71901816 0.4958489 -0.58721507 -0.12384206
0.41615582 -1.1175985 -0.11421203 -0.62877905 -0.76734567 -0.22770493 -0.21725388 1.2412542

running_var f4 [32]
00000000: f2e9 7c3f a13d 3b3e e574 473f db2f 533e
00000010: d0f6 943e c19b f83e 387a 423f d4f3 ab3f
00000020: 694a 9f3e 0e86 e53e 362f 493e 75a3 ab3e
00000030: 2e23 c33e 0b0c 8a3e e53e ab3f e080 423f
00000040: ba4e 423e 4131 663e 37bb db3f 69a6 963f
00000050: 47ae c23e d83f 4e3e 357e 053f 9938 923e
00000060: 841a 9b3e 7c74 a13f 4592 983e 3035 d53e
00000070: 249f bf3f ffbf 1440 292e 693e 93b8 073f
0.9879447 0.18285228 0.7791274 0.20623724 0.29094553 0.4855633 0.7596774 1.3433785
0.31111458 0.44828838 0.19646916 0.33523145 0.38112777 0.26962313 1.3378569 0.759779
0.18975344 0.22479726 1.7166508 1.1769534 0.38023588 0.20141542 0.521457 0.28558806
0.30293667 1.2613673 0.29799095 0.4164214 1.4970441 2.3242185 0.22771515 0.5301601

weight f4 [32]
00000000: 0871 163f 4cc5 f03e df42 c63e 40d4 9d3e
00000010: ece4 773e 3c60 963e 3c1e bf3e 8dcd 2a3f
00000020: 865c 893e deff cf3e 5212 8f3e 12bf a63e
00000030: 5548 ae3e a87d 933e 2bc5 4d3f 7699 7b3f
00000040: 3a7d 8d3e f80e 703e 5749 423f 8f00 213f
00000050: 97d7 793e 4bc9 963e 9c52 9e3e 0ad5 fb3e
00000060: 88b9 6c3e f19c 383f 9d84 a03e c7b5 f33e
00000070: 9691 0d3f b877 1d3f 798c 893e ec3e ae3e
0.5876622 0.47025526 0.38722894 0.30825996 0.2420842 0.29370296 0.37327754 0.66719896
0.26828402 0.406249 0.27943665 0.3256765 0.3403956 0.28806806 0.8037898 0.9828104
0.27634603 0.2344321 0.7589316 0.6289148 0.24398647 0.2945045 0.309224 0.49185973
0.2311765 0.72114474 0.31351176 0.47599623 0.5530027 0.615108 0.26864985 0.3403238

bias f4 [32]
00000000: 3a1e c2be 972f 3bbe 53f6 80be ed2c c2be
00000010: 5760 11be a4a7 23be 0257 86be 1537 9dbe
00000020: 75ae 4dbe fa4a 48be 045e e1bd 80d3 dabe
00000030: 0899 4ebe 2445 9bbe 4ed5 ccbe 9b6e 85be
00000040: c4e0 bebe 8878 fdbd 6b79 043c e576 c7be
00000050: 47c5 31be 38be 82be 1f7f b7be 4a6f 37be
00000060: 55cc e1bd c442 62be 9d2f 90be bd84 bcbe
00000070: 65be adbe dcdf 89be 62f9 b6be 497c 08be
-0.37913686 -0.18279873 -0.2518793 -0.379249 -0.14196907 -0.15981919 -0.26238257 -0.30706087
-0.20086081 -0.19559851 -0.1100426 -0.42739487 -0.20175564 -0.30326188 -0.4000649 -0.26060948
-0.37280858 -0.12376505 0.008085589 -0.38957897 -0.17360412 -0.2553575 -0.35839173 -0.17913547
-0.11025301 -0.22095782 -0.28161326 -0.3682002 -0.33934322 -0.26928604 -0.3573714 -0.13328661

weight f4 [32, 32, 5, 5]
00000000: 94b9 013e fbef 4bbe 9daf 9ebe c5cc 5abe
00000010: 3999 74be ebf9 6f3d 8f3b d7bb e24e 1fbd
00000020: 4cdc a1ba bb15 f03c 9db6 afbd ee14 1a3d
00000030: 4500 963d 1a77 e03c d7e8 fa3c 5ace 963d
00000040: 47d3 00bd 5ce7 41be 5472 d7bd 585b 063d
00000050: 0c19 ddbd 420f c0bd b139 093e 8bad 333d
00000060: deb5 023e ce0d 1bbe 486a 3cbd c1d1 f8bc
00000070: 61dd 1ebd 7241 bebe f147 013e d8d7 93bd
00000080: 4d47 4a3e 2957 27be ffe4 3dbe ff5b bcbd
00000090: 4c39 cf3d 990d 233d b66b 04bd 9591 cfbd
000000a0: 221c 4d3e 3530 63be ab7e 0abe bee4 49be
000000b0: 3e1f 453c 1f37 08be 65d8 4cbc cfec 1f3d
000000c0: ddfb 5fbd edd9 b93c 52d4 9e3e 9f61 f2bd
000000d0: 439f af3c 31b1 7a3d 8ba0 1a3e 018b f9bd
000000e0: bdc0 74bd eaad 063e 4f04 803d 427b 373e
000000f0: 8de9 813d 9d62 6b3d 1ebc adbd 4efa 9e3d
00000100: 493d a63d 9b4e 72be a204 37be 1b69 4cbe
00000110: 59b4 8cbd 6eed 113e 65e5 093e d6cc 0bbd
00000120: 07ce 5dbe f77d 973d 48cf a1bd b160 4b3d
00000130: f53c 8b3d f0cc b73d f76b 66bd 441d 1b3e
00000140: 704e 28be de11 59bd 1e4d 88be feab ad3d
00000150: 61ea 38bd 13d3 1fbe 4f0e 713c 5826 29bd
00000160: 3bb0 e63c f631 033e c900 e83c 54de 8bbd
00000170: 4eee 823d cd7b 46bd 0d37 c43d ccf8 a13d
00000180: bb2b 87be 5483 e7be 1c28 5a3e 1736 2cbe
00000190: a293 4cbe 06f3 033e 3f94 8a3e 7b16 853d
000001a0: a93b 953d 166f a7bd c2bf a0be 6e7f 53bd
000001b0: 864a a33e 7acc 4abe c06b 6ebe 5a7b 10be
000001c0: 64e7 2d3e 4fcb 0c3e 38c2 febd 3c80 9ebd
000001d0: 5c9f 9abe bc52 463e e77d 653e 0e6e 163e
000001e0: de34 f23d ae95 37be cac3 d0bc 6853 633e
000001f0: 6b11 e23d eb99 b13d c52c 143e 2638 463d
00000200: ad6d 323e ea0d 213d b3bd 99bd 7f19 433e
00000210: 6376 e43d 0fd2 113e 30c3 223e 3b52 adbd
00000220: 985b bfbd 7baa 53bd e690 9c3e d035 333e
00000230: 726e 11bc 37a5 3cbd 43cb 2bbe 0a77 693c
00000240: 6ebb c6be 4f03 043e e96c 4dbd 4252 55be
00000250: ed52 243e 4cb8 853d e31c 29be 8737 8fbc
00000260: 76fd 083e 14e6 bfbc 07de 5fbd 4679 00be
00000270: 90bd 78bd 73bd 30be 57c2 163c 8462 e33d
00000280: 9f83 f9be c393 1abe 003c e53e fedc 9d3d
00000290: 79eb 793e 4c1b ddbd 9f46 393c ac0b 4b3d
000002a0: 273f fe3d 3f21 5abc 8ed7 3cbd dd9b 683e
000002b0: 7270 78be 17bb db3c 5bcb 0a3d 6aeb e33d
000002c0: 7865 243e 74ea 4dbd 55e6 32bd 0456 abbd
000002d0: 68b7 dabc a118 8e3c c65b 8a3d 90a9 1fbe
000002e0: e905 2c3e 1a23 cbbd 3218 58be a2d4 653d
000002f0: 5e86 e43c 3d31 0ebc 011c bbbe 3929 cfbc
00000300: 06a0 3c3d bea4 a8bd 85f2 033e f1f8 41bd
00000310: 5aac d43d 7e1a adbc b856 9e3d 82ba 5fbc
00000320: cc11 6a3e 9a13 8abe 14df 703d f117 20be
00000330: ebde c33d 52ba 2ebc 82e4 9f3c 4839 043e
00000340: 76f5 87bd f2ab 9ebb 252b 8f3d ffd2 923d
00000350: 32ac cabd a263 8cbd dec0 3e3e 19ad d8bd
00000360: 3532 37bd 70b5 0d3c 5a30 c1bd f31c 04be
00000370: c0a5 2cbd 9860 c03d 7e62 e4bc b9c0 57bc
00000380: 74f3 98bd 9c65 15be 4487 3bbe 0773 1bbe
00000390: 534b 01be d8a6 1dbe 59c9 1fbe 2626 24bd
000003a0: 13c3 743d 62fb 0d3e c9b4 193e 5f35 bd3c
000003b0: a5a9 7fb9 a1c7 f43d 88f2 42bd c7ba 033c
000003c0: c097 bbbd 090f 15bd 63f1 32be b9b2 8dbd
000003d0: 07f3 6cbd eb0e 86be b8a5 57be ba90 cc3d
000003e0: 518b aa3c d62c c3bd 0921 00be aa0e 5f3e
000003f0: bf55 00be 0fe8 31be 8bfb 8d3d 14dd 453d
0.12668449 -0.19915764 -0.30993357 -0.21367176 -0.23886575 0.05858795 -0.0065683792 -0.038893588
-0.0012348979 0.029307237 -0.085797526 0.037617616 0.0732427 0.027400542 0.030628605 0.07363577
-0.03145149 -0.18935913 -0.10519853 0.032801956 -0.10795793 -0.0937791 0.13400914 0.043866675
0.1276469 -0.15141985 -0.045999795 -0.030373456 -0.038785342 -0.37159306 0.126251 -0.07218903
0.19753762 -0.16341843 -0.18544386 -0.09197234 0.101183504 0.03980789 -0.032329284 -0.101351894
0.20030263 -0.22186358 -0.13524882 -0.19716164 0.0120313745 -0.13302277 -0.012502764 0.039044198
-0.054683555 0.022686923 0.31021363 -0.11835026 0.021438247 0.06120414 0.15100305 -0.12184716
-0.059754122 0.1315228 0.06250822 0.17918113 0.063433744 0.05746709 -0.08483146 0.077625856
0.08117158 -0.23662798 -0.17872861 -0.1996197 -0.06870336 0.14250728 0.13466413 -0.034130894
-0.21660624 0.07397073 -0.07900864 0.04965276 0.06798736 0.089746356 -0.056255307 0.15147883
-0.16436172 -0.052995555 -0.26621336 0.084800705 -0.045145396 -0.15607862 0.014712884 -0.041296333
0.028160205 0.12812027 0.028320687 -0.06829515 0.06393109 -0.04845791 0.095808126 0.07908782
-0.2640055 -0.45217383 0.21304363 -0.16817509 -0.19978192 0.12885675 0.27066228 0.064984284
0.0728677 -0.08175485 -0.313963 -0.0516352 0.31892794 -0.19804564 -0.23283291 -0.14109555
0.169828 0.13749431 -0.12439388 -0.077393025 -0.30199707 0.19367498 0.22411309 0.1469042
0.1182649 -0.17928192 -0.025483985 0.22199786 0.110384785 0.08671936 0.14470203 0.04839339
0.1742465 0.03931991 -0.075068854 0.19052695 0.11155393 0.14240287 0.1589477 -0.0846295
-0.09343642 -0.051676255 0.305793 0.17500997 -0.00887643 -0.046056 -0.16776757 0.0142495725
-0.38814873 0.12891887 -0.050152693 -0.2083216 0.16047259 0.065292925 -0.16514926 -0.017482532
0.13377938 -0.02342514 -0.0546551 -0.12546262 -0.060727656 -0.17259769 0.009201608 0.11102775
-0.4873323 -0.15095429 0.4477234 0.077081665 0.24406232 -0.10796222 0.011308341 0.049571678
0.12414389 -0.013313591 -0.046104006 0.22715707 -0.24261644 0.02682261 0.03388534 0.11128886
0.16054332 -0.05027242 -0.043676693 -0.083660156 -0.026698783 0.017345728 0.06755786 -0.15592027
0.1679913 -0.099188045 -0.2110298 0.056110986 0.027896103 -0.0086787315 -0.36544803 -0.025288211
0.046051048 -0.08234547 0.12885483 -0.04735655 0.10384436 -0.021130797 0.07731384 -0.013655307
0.22858351 -0.2696808 0.058806494 -0.15634133 0.095640026 -0.010664539 0.01951814 0.12912476
-0.06638615 -0.004842275 0.06990651 0.071691506 -0.09896125 -0.06854941 0.1862826 -0.10579891
-0.044725616 0.008649215 -0.094330505 -0.12901668 -0.04215026 0.09393424 -0.027878996 -0.013168507
-0.0746831 -0.14589542 -0.18313318 -0.15180598 -0.1262639 -0.15395677 -0.15604152 -0.040075444
0.05975635 0.13865426 0.1501037 0.023096738 -0.00024381893 0.11952139 -0.047594577 0.008040137
-0.091598034 -0.03639129 -0.17474894 -0.06918854 -0.057848956 -0.26183257 -0.2105931 0.09988542
0.020818384 -0.09530036 -0.12512602 0.21782938 -0.1253271 -0.1737368 0.06932744 0.04830654

bias f4 [32]
00000000: f2de 99bc acfd be3c cc6e 63bc d0a4 87bc
00000010: 6e43 083d eac1 06bd 5c84 603c d1cc de3c
00000020: d085 f53c 46b0 a4bc 26eb c8bc 02f3 0abd
00000030: 90d4 c2bb 6214 91bc 5899 ebbc 2ae9 b4bc
00000040: 0ce4 123d 4ad3 003d 81cd dd3b 83c2 a63c
00000050: d159 253c 2574 083d 6956 eaba b3f9 acbc
00000060: 06dc f1ba fdab 093d 4ae0 efbc eaee 76bc
00000070: 21e7 2a3c 980e 40bb ba5c df3c 88c8 e83c
-0.018783066 0.02331432 -0.0138813965 -0.01655808 0.03326743 -0.032899775 0.013703432 0.027197273
0.029971033 -0.020103585 -0.02452619 -0.033923157 -0.0059457496 -0.017709915 -0.028759643 -0.022083838
0.035862014 0.0314515 0.0067688827 0.020356422 0.010092215 0.03331389 -0.0017878535 -0.02111516
-0.0018452413 0.033611286 -0.029281754 -0.01507161 0.010431082 -0.0029305574 0.027265895 0.028415933

running_mean f4 [32]
00000000: 96d2 31bf d6b5 3dbf 55fc 59bf 15e8 58bf
00000010: 3bc5 a9bf 8c87 21bf f51d 56bf ac88 03bf
00000020: 720d 57bf 2f14 6fbf d083 65bf 90dc 94bf
00000030: 57ec 45bf 915e 72bf 1132 1cbf 3c6f c5be
00000040: 2715 3abf 3a5a 87bf 0d67 b8bf 75e6 48bf
00000050: 18f1 3bbf fad7 1dc0 e443 53bf 33aa 39bf
00000060: 2ac0 95bc 7b9e c6be 1057 18bf ff60 aebf
00000070: 4efa 38bf 4fba afbf 048c 92bf 9a9e 38bf
-0.69461954 -0.74105585 -0.85150653 -0.8472913 -1.3263315 -0.63097453 -0.8363946 -0.5138042
-0.8400489 -0.9339017 -0.89654255 -1.162981 -0.7731375 -0.94675547 -0.61013895 -0.38561428
-0.72688526 -1.057441 -1.4406449 -0.7847665 -0.73414755 -2.4663072 -0.8252547 -0.7252533
-0.018280108 -0.38792786 -0.59507847 -1.3623351 -0.72256935 -1.3728732 -1.1448979 -0.72117007

running_var f4 [32]
00000000: f62a c13e 793e 573f 268d 003f 2625 303f
00000010: c795 db3e a0e6 2c3f 48d3 c73e 801d 003f
00000020: 7903 dd3e 06f2 7d3e 198a 153f 287c 2e3f
00000030: 85a2 b33e c22f 4b3f 1d2b 733e dd6a 483e
00000040: f95e bb3e 8301 f23e fa6c 8c3f 4c45 e03e
00000050: a797 be3e ecee a73f ae26 933e f019 a13e
00000060: 4826 cd3c 8a89 c73e 2288 aa3e 208d 163f
00000070: b48b b33e b6ca 2c3f 78ea d93e 0546 023f
0.3772809 0.840797 0.50215375 0.68806684 0.4288771 0.67539406 0.39028382 0.50045013
0.43166712 0.24799356 0.58413845 0.681582 0.3508493 0.7936975 0.23746915 0.19572015
0.36595896 0.47266778 1.0970757 0.4380287 0.37225077 1.3119788 0.28740448 0.314651
0.025042668 0.3897212 0.33306986 0.5880909 0.35067523 0.6749681 0.42561698 0.5088809

weight f4 [32]
00000000: 9e54 3f3e e47f 0c3f bf30 8f3e 9e14 f03e
00000010: f10e d93e 8068 0e3f 974b e73e 3055 1b3e
00000020: a567 533e f6b0 a53e bf64 193f b9e2 203f
00000030: 7682 c33e 0e20 fc3e a2dd 863e d937 153f
00000040: d8aa 9a3e 9e37 903e 835b 203f 3b19 483f
00000050: 3907 713e ea86 d73e d6d5 943e 8fbe 9e3e
00000060: a20b a839 1d0c 153f d84f f13e 1951 083f
00000070: de0a 2e3f 1278 163f 00ad ab3e 50dc be3e
0.18684623 0.54882646 0.27966878 0.4689073 0.42394212 0.55628204 0.45174858 0.15169215
0.20645006 0.32361573 0.5991935 0.6284595 0.3818547 0.49243206 0.26340967 0.5828834
0.30208468 0.28167433 0.62639636 0.781635 0.23537911 0.4209512 0.29069394 0.3100476
0.00032052124 0.5822161 0.47131228 0.53248745 0.6798533 0.5877696 0.33530426 0.3727746

bias f4 [32]
00000000: b9a0 90be f60d 23bf 1ea2 5dbe fae6 0cbf
00000010: ae7e cfbe 4069 25bf 3c1c 0bbf d226 0cbe
00000020: 22a4 e2bd c7dc b0be e558 f1be f4c4 2bbf
00000030: ebac cdbe ff67 efbe 58da adbe 83e2 29bf
00000040: 6976 afbe 22b4 bdbe c67c ddbe 29d7 2fbf
00000050: 9f5a b7be ef2b 77be 4549 c1be f858 c5be
00000060: add2 adbb 5e05 2dbf 28f4 0bbf 5cb4 c4be
00000070: fb20 35bf 4d7c 01bf 9ad8 f7be 31b3 dbbe
-0.28247622 -0.6369318 -0.21643874 -0.5503994 -0.40526336 -0.64613724 -0.5433996 -0.13686684
-0.11066462 -0.3454344 -0.47138134 -0.670974 -0.40170988 -0.4675903 -0.33955646 -0.66361254
-0.34270027 -0.37051493 -0.43259257 -0.68687683 -0.35811326 -0.24137853 -0.37751213 -0.3854444
-0.0053046555 -0.67586315 -0.5466943 -0.38418853 -0.7075345 -0.5058029 -0.4840744 -0.4291015

weight f4 [4, 1536]
00000000: e112 75bc 068d 413c bb3c db3b c417 263a
00000010: 460f 14bc 35be d73a 903a 02bd ffb2 563d
00000020: 0351 4e3d 59e3 523d 517e 093e e6c6 b83d
00000030: ee3d fe3d db51 54bd 14b2 ec3b 52c6 f83d
00000040: 9670 6f3d 406a 5abe 5924 21be ec64 fabd
00000050: 1f8e 15be 5643 37bd ebce 12be 07b4 b03e
00000060: 8173 c13b 05cf 3cbe 90b9 16be 4d44 1dbe
00000070: 37e0 e93c 065d 19be eb60 46be b2f2 d33c
00000080: 3a78 823c a856 37bd 9aa9 92bd 6051 d43d
00000090: 3621 bf3a 4419 2c3d f1bd c03a 2c8e f83c
000000a0: 3fb1 8abb f5cf 76bb d38e ecb9 573f 3e3c
000000b0: 7fc8 233c bfcf 1d3c 1f55 3abc 5211 363c
000000c0: 4d31 07bb eae1 90bc 087e 79bc bbf7 63bb
000000d0: af31 9abb fee2 1eba 6c79 fe3c e9b1 073a
000000e0: 5473 0bbc 060b bebc ecfb 803c 52ab d43a
000000f0: 7db2 e53d 06ab fb3d 2e84 0a3e 4bf1 e53d
00000100: e8b2 3a3e 1da8 3f3d c0ea c6bd 2657 8cbd
00000110: 0861 0a3e a181 573e 499c 823e fee8 57be
00000120: 6494 16bb 6496 a33e 9dfd 9ebd 0472 cf3c
00000130: 375f 9fbc d76d 9bbb 9076 233d 3806 853d
00000140: 4c7d 49be b255 3bbe 4fa6 95be 7034 1abd
00000150: 2302 8dbc 2f66 81bd 5a7f 933b 207c 0fbc
00000160: dec4 e73c 8ac4 f1bd a0d2 49bc 2bec 413c
00000170: dfcd fb39 1504 9a3b 59a4 c9b9 48c1 9bbb
00000180: 4e9c 083c 7022 133a 3598 0cbc fa1e c9bb
00000190: ff2d 613c 5533 b73c e369 8f3d ed92 e33d
000001a0: 8f0e b53b e0fb e3bd d2e0 383d 8fa5 e6bc
000001b0: 4b69 9b3e 4d30 e13c 0ab8 913d b917 033e
000001c0: 7e83 013e c462 a83e 2ec2 cdbd 506d 15bd
000001d0: 30e5 25be ae47 b63c 5bc7 1bbe 7913 74be
000001e0: ebd4 9a3d de68 863a 7902 d5bb 16d7 b53c
000001f0: 067a 4f3d d6fb f83d 0b0e 113b 8fcb 143b
00000200: 592e 80bc d544 263d 6369 873d e9d1 243d
00000210: 090b 673c 5e63 a0ba aa09 823c ba1c a73c
00000220: bd40 943b 9aba 073d 30be 2b39 1084 273c
00000230: b615 4e3c e5ae 523c eaf8 4c3b e942 483b
00000240: cb95 2ebc f40d 8b3c 3ccb b83b 4111 e1bc
00000250: 706b 053c 46b2 2bbb c802 92bc 5c7c 3b3c
00000260: aabc 5ebc 8853 a23c 90fc df3b 08e8 59bb
00000270: 8ebc 013e 7791 1dbc d0a8 2abe 7c04 273e
00000280: 5671 b7bd e22b 3cbd 2dc5 bd3c 9eae 5b3e
00000290: e928 65bd 66bb c03c e621 503b 93dd 3ebe
000002a0: 134d 943d 6b9d 6a3e 1e25 bb3c cdb7 c03d
000002b0: f814 f93b 3c5d 0b3e 6d72 3d3e d681 47be
000002c0: 6150 e8bc a61d 8f3d eb05 fe3d fb12 b1be
000002d0: f998 153e 3d1d 8dbd 001a cf3d 5376 8f3c
000002e0: 29fa 66bd 2a53 0f3e a5ba 163b 1224 1f3d
000002f0: 7778 c63c ce40 22bc 921c ab3c c205 0b3d
00000300: a6ce 1fbb 010a 443c 6b7d 553c fb13 cdbc
00000310: 9611 2bbc d743 6db9 f224 bfbb d7ec fc3d
00000320: beb1 0bbe 0b4d 253d af73 073c 2af5 01bd
00000330: f7f6 1f3e a1bc 593e 97e3 c43d d235 433e
00000340: 7c1a 913e d539 d43d 9d66 fcbd f932 103e
00000350: 829a a63d 6ccb 533e 507b 39bd c098 793d
00000360: 8933 0ebe 64af 93bd 8d7f 17bd 61a6 cdbb
00000370: 649b 9f3c 7379 3dbb 5c6c f1bc 397f 86bd
00000380: 0986 923d 40fd 2ebc e6b0 8c3e cc90 3cbe
00000390: 644d f73b 7939 90bc 81db 3dbd 784b e9bc
000003a0: 2b5a 01bd 12ab 863c 462a e63b fb4c 0ebc
000003b0: 25d6 acbc 5199 06bd 7e37 80bc 5ffe 1e3c
000003c0: 35cd dcbd 6ca5 503d b169 e7bc a0ae 9cbb
000003d0: fa82 593c 31a2 c53c c170 90bc a0b5 1fba
000003e0: 4c52 3c3c ca6b d03c 0082 6db9 369c ca3c
000003f0: 2cb6 8ebe 42a9 ebbd f5a6 183e 445c 2f3e
-0.014958114 0.011813408 0.0066905892 0.0006335939 -0.009036845 0.0016459884 -0.03179413 0.052416798
0.050370228 0.051486347 0.13427092 0.09022312 0.12414156 -0.051835876 0.007223377 0.121472016
0.05845698 -0.21329594 -0.15736522 -0.122262806 -0.14604996 -0.04474195 -0.14336745 0.3451235
0.0059036617 -0.18438347 -0.14719224 -0.15358086 0.028549297 -0.14976892 -0.19372909 0.025872562
0.01592647 -0.044760376 -0.07161255 0.103670835 0.0014582041 0.042016283 0.0014705044 0.03034123
-0.004232555 -0.0037660573 -0.0004511984 0.011611781 0.009996532 0.00963205 -0.0113728335 0.011112528
-0.002062875 -0.01768585 -0.015227802 -0.003478511 -0.00470563 -0.0006061046 0.031063758 0.0005176352
-0.008511383 -0.023198616 0.015745126 0.0016225374 0.112156846 0.122884795 0.13526985 0.112276636
0.1823231 0.046791185 -0.09712744 -0.0685256 0.13513577 0.21045543 0.2550986 -0.21084973
-0.0022976631 0.31950676 -0.07763217 0.025322922 -0.019454582 -0.0047433185 0.039907992 0.06495327
-0.19676703 -0.18294409 -0.29228446 -0.037647665 -0.017212933 -0.06318318 0.0045012655 -0.008757621
0.028292116 -0.11805065 -0.012318283 0.011836092 0.00048027837 0.0047001936 -0.00038460156 -0.0047532655
0.008338047 0.00056127366 -0.008581211 -0.006137726 0.0137438765 0.022363344 0.07002618 0.11112008
0.005525417 -0.11132026 0.04513628 -0.028155116 0.3035377 0.027488852 0.07115181 0.12802018
0.12647817 0.32887852 -0.100468025 -0.0364812 -0.1620071 0.022250976 -0.15212767 -0.23835553
0.07560142 0.0010254642 -0.006500539 0.022197288 0.05065348 0.12157409 0.0022133614 0.0022704338
-0.0156471 0.040592987 0.06611898 0.04023925 0.014101752 -0.0012236645 0.015873749 0.02039944
0.004524319 0.03313694 0.00016378681 0.010224357 0.0125784185 0.012859081 0.0031276294 0.003055746
-0.010655831 0.016974427 0.005639462 -0.027474048 0.008143291 -0.0026198789 -0.017823592 0.011443224
-0.013594786 0.019815221 0.0068355277 -0.0033249874 0.12669584 -0.009617201 -0.1666596 0.16310304
-0.08957164 -0.045940287 0.02316531 0.2145333 -0.055947218 0.023526859 0.0031758486 -0.18639211
0.07241263 0.22911613 0.022844847 0.09410057 0.0076013766 0.13609785 0.18500681 -0.19483122
-0.02835864 0.06988077 0.124034725 -0.34584793 0.14609136 -0.068903424 0.10112381 0.017512476
-0.056390915 0.13996568 0.0022999432 0.03885276 0.024227364 -0.009903146 0.020887647 0.033941038
-0.0024384647 0.011965276 0.01303039 -0.025033941 -0.0104412045 -0.00022627354 -0.0058332616 0.12349861
-0.13642022 0.040356677 0.008267327 -0.031727947 0.15621553 0.21263362 0.09613722 0.190635
0.28340518 0.10362593 -0.123242594 0.14081945 0.08134939 0.20683068 -0.045283616 0.06093669
-0.13886847 -0.072111875 -0.036986876 -0.0062759374 0.019483276 -0.00289115 -0.029470615 -0.065672345
0.071544714 -0.010680497 0.27478713 -0.1841461 0.0075470675 -0.01760553 -0.046351913 -0.02847837
-0.03158013 0.016438995 0.0070240824 -0.008685346 -0.021098206 -0.032861058 -0.01565146 0.0097042015
-0.10781328 0.05093901 -0.02824864 -0.004781559 0.013275856 0.02412519 -0.01763189 -0.0006092433
0.0114942305 0.025442023 -0.0002265051 0.02473269 -0.2787336 -0.11506893 0.14907439 0.1712504

bias f4 [4]
00000000: 3a1f ec3d 26e4 ec3d a3dc e23d 3ef2 dd3d
0.115293935 0.11566953 0.11077239 0.1083722
