dev/breakout_13500.pth (torch_old, 199616 bytes, 20 tensors)

weight f4 [16, 2, 5, 5]
0.11327532 0.16209513 -0.055545 0.0102229705 -0.042349886 0.14510483 -0.082424566 -0.3231268
-0.00096283964 -0.04155175 -0.2801143 -0.112391695 -0.1415215 -0.17809266 -0.31531447 0.1966401
0.18986611 0.26247776 -0.058655094 0.21442047 -0.07913803 -0.024937456 -0.105376676 0.3364302
0.0456699 0.18185617 -0.1865578 0.5419305 -0.5712519 0.036967184 -0.2278086 0.032915168
0.13040954 0.02842792 -0.4289659 -0.19912657 -0.2503369 0.06260611 0.27451417 -0.39244723
0.4015375 0.048764333 -0.16513532 -0.003386954 0.2981255 -0.017539235 -0.35201108 0.0684622
0.34954202 0.11631255 -0.049043324 0.19763228 -0.02378219 -0.28024924 0.0069535724 0.16438454
0.16993527 -0.086100295 -0.17461592 0.09958937 -0.11232403 -0.3889401 -0.3550757 -0.2521948
-0.14427 -0.011973784 0.30770126 0.10092589 -0.14669794 0.33775142 -0.08378701 0.054651167
0.0032510587 0.06375807 0.21836819 -0.20303753 0.31700718 0.45528352 -0.22333008 -0.18124667
0.4451052 -0.35552114 -0.16469707 0.36426115 0.15684216 0.14670819 -0.36823744 -0.04841248
0.17140697 0.19634044 -0.021238958 0.23172905 0.14771554 0.021473907 0.18829948 -0.1256965
0.21998061 0.32895944 0.1559829 0.11229884 0.23351993 0.10962422 0.069981374 -0.12201109
0.10958173 0.13676763 0.14996916 -0.17765906 -0.33248127 -0.15155175 -0.078767136 -0.26450863
-0.040645983 0.008223682 0.22182553 -0.0393012 -0.10485958 0.1827044 0.008151267 -0.3634296
0.20117348 0.33687365 -0.04217135 0.13122712 -0.120139055 0.32438973 0.3846837 0.21711797
0.39649576 0.31909832 0.33976617 0.30584434 0.2539163 0.17406984 0.07957947 -0.04548943
0.21304032 0.22358525 0.12795225 0.16979909 0.10602148 0.11465974 0.25548103 0.32588625
0.24422505 -0.08082494 -0.0584122 -0.00018197387 0.024203066 -0.03512026 -0.2710126 -0.25778332
0.32958046 0.21273905 0.059884425 -0.06876803 -0.39538786 0.1021557 0.06557324 0.14733139
-0.23357607 0.0004975743 -0.27022636 -0.13879149 -0.3301315 0.06788656 0.32048693 -0.05556309
0.22514683 0.16108893 0.25110307 -0.006438195 0.27426702 -0.025969738 -0.28096896 -0.1405595
-0.26344347 0.019772284 0.2170791 -0.23539929 0.43199378 0.41682225 -0.19626647 0.14622392
0.3797337 0.20996146 0.12847553 0.11944858 0.17686358 0.05465998 0.0023502642 0.014243522
-0.07774486 0.2683621 0.17434183 0.11018677 0.1566313 0.10523386 -0.09174169 -0.116560034
-0.27633384 -0.052486762 0.0019418637 0.15537521 0.20549643 -0.3415965 -0.3499382 -0.13751334
0.027519131 0.124423034 0.15662281 0.27811152 0.2225195 0.20867144 0.19608246 0.12165854
-0.041572116 0.018233571 -0.08438583 -0.2399767 0.17108743 -0.15487806 0.018402686 -0.11719004
-0.22162996 0.15400395 0.52543515 -0.13756683 0.05549177 0.12292094 -0.025474293 -0.38934612
0.13738227 0.46933207 -0.20360324 -0.2691777 0.15781611 -0.19049147 0.018780448 -0.34042913
-0.17014615 0.18042044 -0.14362638 -0.24029762 0.016360456 0.09721737 0.516297 0.40980846
0.4541279 -0.09010499 0.12408747 -0.052415404 0.07303692 0.13791169 0.15478238 0.029932426
00000000: e4fc e73d 44fc 253e 2783 63bd 3f7e 273c
00000010: 1377 2dbd 5c96 143e 36ce a8bd e070 a5be
00000020: 1367 7cba 2b32 2abd 246b 8fbe 9e2d e6bd
00000030: 03eb 10be ec5d 36be e670 a1be 065c 493e
00000040: 436c 423e 7c63 863e 5340 70bd 0a91 5b3e
00000050: 1f13 a2bd a349 ccbc bacf d7bd 9440 ac3e
00000060: 5c10 3b3d 8138 3a3e 0209 3fbe f5bb 0a3f
00000070: 913d 12bf e76a 173d a846 69be 0ed2 063d
00000080: 148a 053e abe1 e83c 6ba1 dbbe d6e7 4bbe
00000090: 282c 80be a237 803d 1f8d 8c3e d8ee c8be
000000a0: 5396 cd3e 1cbd 473d 3c19 29be a9f7 5dbb
000000b0: e8a3 983e 71ae 8fbc cc3a b4be e935 8c3d
000000c0: 2cf7 b23e 4635 ee3d a7e1 48bd 1e60 4a3e
000000d0: ded2 c2bc d47c 8fbe cbda e33b 6c54 283e
000000e0: 8303 2e3e 5a55 b0bd 84ce 32be 83f5 cb3d
000000f0: 240a e6bd 2823 c7be 7bcc b5be ad1f 81be
00000100: 84bb 13be b12d 44bc 058b 9d3e 3cb2 ce3d
00000110: fc37 16be c1ed ac3e 8698 abbd e7d9 5f3d
00000120: b70f 553b 9793 823d e99b 5f3e 12e9 4fbe
00000130: c44e a23e ec1a e93e a4b0 64be ba98 39be
00000140: d4e4 e33e de06 b6be 59a6 28be 7080 ba3e
00000150: 3b9b 203e ac3a 163e 9e89 bcbe 2a4c 46bd
00000160: 4f85 2f3e 780d 493e 53fd adbc 614a 6d3e
00000170: be42 173e 0cea af3c 94d1 403e 95b6 00be
00000180: 9942 613e 5f6d a83e fbb9 1f3e effc e53d
00000190: d91f 6f3e aa82 e03d 6552 8f3d f3e0 f9bd
000001a0: 636c e03d d00c 0c3e 8491 193e 42ec 35be
000001b0: fc3a aabe 6230 1bbe aa50 a1bd ad6d 87be
000001c0: 677c 26bd 9fbc 063c 3b26 633e 4cfa 20bd
000001d0: 9fc0 d6bd dd16 3b3e e48c 053c 7213 babe
000001e0: 6c00 4e3e b47a ac3e debb 2cbd 6760 063e
000001f0: 770b f6bd 6916 a63e 43f5 c43e 2c54 5e3e
00000200: 7e01 cb3e db60 a33e d5f5 ad3e a197 9c3e
00000210: 5101 823e 5d3f 323e 90fa a23d 2053 3abd
00000220: 3e27 5a3e 88f3 643e ea05 033e d0df 2d3e
00000230: ca21 d93d bad2 ea3d 69ce 823e 90da a63e
00000240: 2216 7a3e 8c87 a5bd a241 6fbd 3dd0 3eb9
00000250: 8245 c63c 43da 0fbd 2ac2 8abe 2dfc 83be
00000260: c5be a83e 44d8 593e 5f49 753d 41d6 8cbd
00000270: 4770 cabe 0237 d13d 434b 863d 0ade 163e
00000280: 912e 6fbe a56f 023a 1c5b 8abe 5b1f 0ebe
00000290: ff06 a9be 1c08 8b3d dd16 a43e 1f96 63bd
000002a0: e48c 663e 7ff4 243e 9590 803e 7ef7 d2bb
000002b0: ba6c 8c3e 7dbe d4bc 2adb 8fbe d4ee 0fbe
000002c0: 10e2 86be 7cf9 a13c fc49 5e3e 830c 71be
000002d0: 4a2e dd3e ba69 d53e 14fa 48be b9bb 153e
000002e0: 756c c23e 2300 573e 178f 033e 75a1 f43d
000002f0: ba1b 353e 25e3 5f3d e406 1a3b a95d 693c
00000300: b238 9fbd c266 893e aa86 323e 9aa9 e13d
00000310: f563 203e da84 d73d 11e3 bbbd 07b7 eebd
00000320: a17b 8dbe 5cfc 56bd 2286 fe3a ae1a 1f3e
00000330: a86d 523e bde5 aebe 1a2b b3be 4cd0 0cbe
00000340: cd6f e13c 81d1 fe3d bb61 203e a264 8e3e
00000350: 27dc 633e f7ad 553e d7c9 483e 1d28 f93d
00000360: 8647 2abd 925e 953c 7ad2 acbd 74bc 75be
00000370: 8b31 2f3e 5b98 1ebe 3bc1 963c 5501 f0bd
00000380: f7f2 62be 36b3 1d3e eb82 063f 52de 0cbe
00000390: 574b 633d f9bd fb3d 77af d0bc 6058 c7be
000003a0: f0ad 0c3e 4b4c f03e 5e7d 50be a9d1 89be
000003b0: 8c9a 213e 3210 43be 74d9 993c ba4c aebe
000003c0: cb3a 2ebe 23c0 383e cb12 13be 9410 76be
000003d0: 5d06 863c e719 c73d 0a2c 043f 6ad2 d13e
000003e0: 7483 e83e f788 b8bd 9221 fe3d 89b1 56bd
000003f0: 6194 953d b938 0d3e 467f 1e3e d934 f53c

bias f4 [16]
0.062252223 0.006885228 -0.060048357 -0.16543403 -0.2116351 0.018932374 0.112686045 -0.13914594
-0.18536435 0.17155945 -0.010645481 0.045011807 -0.120161906 0.2972747 -0.087959476 -0.016748963
00000000: 30fc 7e3d 7b9d e13b 44f5 75bd 8a67 29be
00000010: dfb6 58be 1118 9b3c f1c7 e63d 467c 0ebe
00000020: 27d0 3dbe 48ad 2f3e 626a 2ebc 4d5e 383d
00000030: 7217 f6bd 6434 983e 1924 b4bd 1f35 89bc

running_mean f4 [16]
0.032045532 -0.051874317 -0.0502167 -0.19091664 -0.21662928 0.094029315 0.09910512 -0.13176143
-0.19996592 0.13902922 -0.20626639 0.018983578 -0.15003306 0.26877454 -0.079974785 -0.06290138
00000000: 2d42 033d 2a7a 54bd 07b0 4dbd a77f 43be
00000010: 11d4 5dbe 7192 c03d a0f7 ca3d 78ec 06be
00000020: dec3 4cbe ad5d 0e3e 7f37 53be 7383 9b3c
00000030: 44a2 19be d19c 893e d2c9 a3bd 70d2 80bd

running_var f4 [16]
0.012296319 0.018226942 0.0034356914 0.01038651 0.0059251455 0.01612055 0.008481474 0.007772197
0.003995688 0.014983252 0.11397958 0.006287511 0.0069738925 0.009694692 0.0074254824 0.019026008
00000000: 8076 493c ab50 953c 5629 613b 2e2c 2a3c
00000010: b927 c23b 3e0f 843c e1f5 0a3c eaad fe3b
00000020: 43ee 823b 507c 753c 206e e93d 7707 ce3b
00000030: 4085 e43b 7cd6 1e3c 7651 f33b 6edc 9b3c

weight f4 [16]
0.67223746 0.68178797 0.67471826 0.80900323 0.25472674 0.3931777 0.40469328 0.44480133
0.4911149 0.39881173 0.93055075 0.39182714 0.698451 1.0903153 0.35371515 0.40715933
00000000: c117 2c3f a889 2e3f 56ba 2c3f d61a 4f3f
00000010: 8b6b 823e 964e c93e f533 cf3e 00bd e33e
00000020: 6a73 fb3e 0d31 cc3e 9338 6e3f 919d c83e
00000030: afcd 323f 748f 8b3f 271a b53e 3077 d03e

bias f4 [16]
-0.27721804 -0.47712907 -0.2548711 -0.56817573 -0.19167994 -0.54184014 -0.2793766 -0.5866117
-0.18064737 -0.11840965 -0.11629369 -0.26246825 -0.33175328 -0.33572802 -0.34668273 -0.19249181
00000000: 86ef 8dbe 434a f4be 777e 82be f773 11bf
00000010: bf47 44be 09b6 0abf 730a 8fbe 2f2c 16bf
00000020: a0fb 38be c280 f2bd 632b eebd 3d62 86be
00000030: 91db a9be 8be4 abbe 6680 b1be 931c 45be

weight f4 [32, 16, 5, 5]
0.43963915 0.1568616 0.06515958 -0.31262195 0.058625188 0.104858 0.19852667 -0.03031497
0.12106765 0.27697912 -0.030816887 0.09483786 0.2725509 0.12250993 -0.009447892 0.04005294
0.18905585 -0.15041696 0.30771092 -0.022160666 0.07471092 0.35920656 0.013047283 0.15461713
-0.16350794 0.36166555 -0.33497375 -0.2021562 -0.095964275 -0.32782584 -0.104433745 0.031231271
-0.07218495 0.09720339 0.26319608 -0.1346216 0.008347606 0.06538107 0.3545638 0.11760038
0.057082567 0.18703988 0.037197504 -0.03878231 -0.09167604 -0.20115484 -0.25106612 -0.12713344
0.03962273 -0.072416164 0.35207835 0.20090152 -0.011101667 0.20076378 -0.06789656 -0.33341572
-0.2815304 0.069216244 -0.14684361 0.09157984 0.15153053 0.30377564 -0.07144124 0.25926492
-0.01410806 -0.23240574 -0.025460629 -0.107399724 0.044367768 0.050579954 -0.10089365 -0.111320585
0.02423145 0.16399328 -0.06595694 -0.40227395 0.2950433 -0.02896764 0.46777937 0.0004752814
-0.017714432 0.26548606 0.12167026 0.2298599 0.24883747 -0.13329828 -0.013092204 -0.019197354
0.24373598 0.1597571 -0.03709841 0.0689108 0.051014036 -0.17908245 -0.21376374 -0.22865112
-0.08523995 -0.09492817 0.033823527 -0.3517683 0.059472863 0.29148385 -0.010025354 0.017469672
-0.11458221 0.0062756124 0.04747776 0.027954128 0.09071772 0.17207877 -0.01253695 0.37879553
0.17892042 0.21397379 0.10258983 -0.086854964 0.033195276 -0.34716207 -0.4184929 -0.18511961
-0.14370227 -0.06306554 -0.1851868 -0.17634498 -0.13411663 -0.34114942 0.010266275 0.09856464
-0.093604214 0.008831095 -0.23933002 0.13021396 0.053139742 -0.18211141 -0.14421298 -0.17408404
0.07177672 -0.057472225 0.039853916 -0.17451291 0.12507051 0.05452686 -0.15537195 -0.059730496
-0.18900229 0.1259165 0.06912342 0.092002034 -0.045258556 -0.04028898 0.06761075 0.06876608
0.1126495 -0.26516268 0.15898153 0.23205583 0.06978726 0.047965094 0.06997823 0.15944889
0.2807415 -0.11750368 -0.4413082 0.014129173 -0.27419248 -0.08946806 0.09135356 -0.2008719
-0.20550592 -0.14080444 0.25975347 0.099024884 0.25932813 0.2553854 0.20047754 0.21448992
-0.001647182 -0.064518385 -0.023097752 0.12697405 0.028706806 -0.027872153 0.22259858 -0.16680314
0.16837361 0.21170816 -0.15132733 0.18564843 0.14576122 0.2808294 0.115259916 0.0052245925
0.1585921 -0.18033984 -0.14083098 -0.52993953 0.0060071354 0.061542504 0.3338457 0.096100636
-0.10848514 0.030305322 -0.5546128 -0.23757276 -0.723316 0.13139018 0.25719813 0.041091774
0.014130286 -0.04714648 0.291289 -0.2669723 -0.2655037 0.054960407 0.08318727 0.06584482
0.14631791 -0.08467388 -0.23705986 0.060806055 0.08549187 -0.013958818 0.036716916 -0.1020665
-0.33625272 -0.179979 -0.3434543 -0.21282163 0.10959827 -0.24520019 -0.031900708 0.17993113
0.07871948 0.03195872 0.1407711 -0.017785795 -0.09292731 -0.24556698 0.13529888 0.15540545
-0.36301002 -0.10215961 0.20333518 0.02874871 -0.0052115764 0.12760518 0.28490388 -0.35507673
0.16783196 0.15510018 0.07572369 0.0749145 0.071260706 -0.13661706 -0.24053241 0.23820367
00000000: 6218 e13e 54a0 203e 6372 853d fc0f a0be
00000010: f720 703d cbbf d63d 934a 4b3e 1a57 f8bc
00000020: 51f2 f73d 35d0 8d3e b273 fcbc 5a3a c23d
00000030: cb8b 8b3e 7ce6 fa3d 55cb 1abc 8d0e 243d
00000040: db97 413e e706 1abe 498c 9d3e 498a b5bc
00000050: 0a02 993d ece9 b73e 45c4 553c f453 1e3e
00000060: a06e 27be 3a2c b93e ae81 abbe 0902 4fbe
00000070: eb88 c4bd cad8 a7be 5ce1 d5bd b9d8 ff3c
00000080: b4d5 93bd 9212 c73d a3c1 863e 3fda 09be
00000090: 66c4 083c 83e6 853d 6389 b53e 78d8 f03d
000000a0: 69cf 693d 6287 3f3e 695c 183d 33da 1ebd
000000b0: a6c0 bbbd 89fb 4dbe bd8b 80be 452f 02be
000000c0: 724b 223d ed4e 94bd 9d43 b43e 21b9 4d3e
000000d0: c4e3 35bc 0595 4d3e 5a0d 8bbd 77b5 aabe
000000e0: c124 90be 3fc1 8d3d 2c5e 16be 368e bb3d
000000f0: d22a 1b3e 7b88 9b3e c94f 92bd 5fbe 843e
00000100: 7e25 67bc c5fb 6dbe cf92 d0bc 63f4 dbbd
00000110: faba 353d ed2c 4f3d 54a1 cebd 0cfc e3bd
00000120: 0981 c63c dbed 273e 6f14 87bd daf6 cdbe
00000130: ea0f 973e 8b4d edbc c780 ef3e 312f f939
00000140: db1d 91bc caed 873e 422e f93d 6560 6b3e
00000150: 40cf 7e3e 587f 08be af80 56bc c543 9dbc
00000160: ed95 793e 5d97 233e 81f4 17bd 1b21 8d3d
00000170: 18f4 503d 6461 37be e2e4 5abe 8523 6abe
00000180: 4892 aebd b369 c2bd 8a8a 0a3d fa1a b4be
00000190: d199 733d 5f3d 953e 6241 24bc 8f1c 8f3c
000001a0: 14aa eabd a7a3 cd3b 0a78 423d 0e00 e53c
000001b0: 36ca b93d 6b35 303e c867 4dbc 7df1 c13e
000001c0: ea36 373e f21b 5b3e 9e1a d23d 04e1 b1bd
000001d0: c5f7 073d 3abf b1be b444 d6be ff8f 3dbe
000001e0: b026 13be 8128 81bd 9ca1 3dbe c793 34be
000001f0: df55 09be 23ab aebe e133 283c 42dc c93d
00000200: 91b3 bfbd 4cb0 103c ee12 75be cf56 053e
00000210: 0fa9 593d 6a7b 3abe 91ac 13be 1643 32be
00000220: acff 923d ff67 6bbd dc3d 233d 83b3 32be
00000230: 7c12 003e 8f57 5f3d d319 1fbe f7a7 74bd
00000240: d189 41be 41f0 003e 9490 8d3d 906b bc3d
00000250: 0961 39bd 0f06 25bd 8177 8a3d 3bd5 8c3d
00000260: c8b4 e63d 67c3 87be 0ecc 223e 0ba0 6d3e
00000270: 9fec 8e3d 0c77 443d bf50 8f3d 9246 233e
00000280: 5abd 8f3e c5a5 f0bd 26f3 e1be 0c7e 673c
00000290: f562 8cbe 083b b7bd 9317 bb3d 5db1 4dbe
000002a0: 2570 52be 0a2f 10be 68fe 843e 8fcd ca3d
000002b0: a8c6 843e e0c1 823e fc49 4d3e 3fa3 5b3e
000002c0: 42e6 d7ba 3722 84bd 7f37 bdbc 7c05 023e
000002d0: 892a eb3c 2454 e4bc e2f0 633e 71ce 2abe
000002e0: 226a 2c3e 06ca 583e 8df5 1abe 9f1a 3e3e
000002f0: 6e42 153e dfc8 8f3e 640d ec3d 0f33 ab3b
00000300: f865 223e 02ab 38be ff35 10be 1eaa 07bf
00000310: 81d7 c43b fe13 7c3d d3ed aa3e 69d0 c43d
00000320: 752d debd de42 f83c 1bfb 0dbf 4646 73be
00000330: 3d2b 39bf 268b 063e 79af 833e d94f 283d
00000340: b782 673c ab1c 41bd d523 953e 98b0 88be
00000350: 1af0 87be 2a1e 613d 165e aa3d a6d9 863d
00000360: 5dd4 153e 8069 adbd d2bf 72be c50f 793d
00000370: 5d16 af3d 87b3 64bc 7a64 163d 3e08 d1bd
00000380: 5129 acbe 6a4c 38be 3ed9 afbe eaed 59be
00000390: 0f75 e03d c215 7bbe 51aa 02bd de3f 383e
000003a0: ae37 a13d 26e7 023d 4d26 103e 84b3 91bc
000003b0: ac50 bebd e975 7bbe ca8b 0a3e 9b22 1f3e
000003c0: 73dc b9be 0f39 d1bd 1937 503e 6a82 eb3c
000003d0: dfc5 aabb efaa 023e ecde 913e 9ecc b5be
000003e0: 24dc 2b3e 95d2 1e3e 0615 9b3d c66c 993d
000003f0: 22f1 913d 58e5 0bbe 214e 76be aaeb 733e

bias f4 [32]
-0.028867694 0.01799521 0.008911911 -0.022467425 0.0064682076 0.032583907 0.01956852 -0.021214563
-0.0065102587 -0.039880384 -0.048544288 0.007860231 0.019607604 0.016500669 0.0015374828 -0.017032897
-0.04699792 0.0058881077 0.044056926 -0.0130165275 -0.0011573853 -0.036626354 0.017966649 -0.051727504
0.025009656 -0.011679009 -0.028408468 -0.011440785 -0.003096426 -0.035576127 0.010727673 -0.018905595
00000000: f17b ecbc b16a 933c 4403 123c 9b0d b8bc
00000010: 42f3 d33b b476 053d 294e a03c 2aca adbc
00000020: 0254 d5bb 9d59 23bd 60d6 46bd 33c8 003c
00000030: 20a0 a03c 692c 873c 5d85 c93a 9388 8bbc
00000040: e480 40bd 07f1 c03b 0975 343d 4643 55bc
00000050: 68b3 97ba 8405 16bd cb2e 933c 38e0 53bd
00000060: 0de1 cc3c 5059 3fbc e0b8 e8bc 2172 3bbc
00000070: 68ed 4abb 46b8 11bd 1fc3 2f3c e8df 9abc

running_mean f4 [32]
-0.11983755 0.001877547 0.008093258 0.29722723 -0.5186015 1.3624514 0.085145265 0.057326104
0.5716655 0.14756283 0.24309467 -0.4726677 0.73087597 0.91126657 0.4348997 0.036978777
-0.32788756 0.20060733 0.017814968 -0.0417676 0.5069081 0.9460606 0.031523302 0.071012266
0.33123142 -1.0827652 -0.4112838 -0.46213016 -0.92105186 0.14679877 0.08943733 1.8083509
00000000: 646d f5bd 0618 f63a 9699 043c 2b2e 983e
00000010: 11c3 04bf cf64 ae3f a460 ae3d c7ce 6a3d
00000020: ac58 123f b61a 173e cfed 783e 8001 f2be
00000030: b01a 3b3f c448 693f 2cab de3e 0f77 173d
00000040: e1e0 a7be 026c 4d3e b2f0 913c 8114 2bbd
00000050: bbc4 013f 0731 723f 941e 013d e16e 913d
00000060: 2a97 a93e 0d98 8abf ca93 d2be 539c ecbe
00000070: 0eca 6bbf 6b52 163e eb2a b73d 0b78 e73f

running_var f4 [32]
1.0716324 0.364493 1.0130265 0.43036246 0.4046212 0.9924728 0.5354588 2.0610867
0.5516139 1.0542601 0.3906711 0.6379974 0.65638506 0.6103385 2.3060153 1.4547147
0.5667873 0.3186583 1.8312988 3.0085409 0.6238268 0.5783467 0.8067313 0.5614034
0.39897788 2.4950259 0.9951209 0.43722233 2.0124068 5.5413985 0.6777028 1.506638
00000000: 402b 893f d49e ba3e daaa 813f 7858 dc3e
00000010: 832a cf3e b312 7e3f d413 093f d8e8 0340
00000020: 9236 0d3f fff1 863f 0b06 c83e cc53 233f
00000030: da08 283f 253f 1c3f c195 1340 1734 ba3f
00000040: f918 113f 2e27 a33e 0068 ea3f ef8b 4040
00000050: 1db3 1f3f 880e 143f f185 4e3f 22b8 0f3f
00000060: d446 cc3e 81ae 1f40 3ec0 7e3f 9bdb df3e
00000070: 46cb 0040 2353 b140 ee7d 2d3f 84d9 c03f

weight f4 [32]
0.555038 0.5160674 0.40246058 0.30581698 0.2977595 0.4021803 0.40533382 0.68144655
0.31963775 0.3661624 0.2868726 0.38211733 0.3388621 0.40103397 0.7941218 1.1949396
0.27188525 0.22695844 0.7476748 0.6613951 0.25816214 0.33238852 0.3303339 0.39750564
0.2971395 0.6155587 0.35349232 0.42560488 0.5422409 0.629593 0.33374107 0.48065594
00000000: f816 0e3f fe1c 043f 500f ce3e 0b94 9c3e
00000010: ef73 983e 94ea cd3e ea87 cf3e 4873 2e3f
00000020: 8fa7 a33e a379 bb3e f7e0 923e e2a4 c33e
00000030: 557f ad3e 5354 cd3e 914b 4b3f c8f3 983f
00000040: 8b34 8b3e cb67 683e 9e67 3f3f 3051 293f
00000050: d42d 843e d42e aa3e 8621 a93e dc85 cb3e
00000060: ab22 983e 4195 1d3f f2fc b43e e2e8 d93e
00000070: 4dd0 0a3f 022d 213f 1ce0 aa3e 8918 f63e

bias f4 [32]
-0.403381 -0.22714847 -0.3041761 -0.34660777 -0.15226048 -0.20705174 -0.2206443 -0.34072095
-0.23718695 -0.15704952 -0.16352761 -0.35634956 -0.21501766 -0.23011841 -0.40226397 -0.2856209
-0.32319605 -0.098974936 -0.05511922 -0.27461383 -0.1986758 -0.2670062 -0.41547906 -0.21408021
-0.17754972 -0.13289604 -0.3535964 -0.46645403 -0.39175677 -0.25302014 -0.31829357 -0.16291833
00000000: f487 cebe 9c99 68be f8bc 9bbe 9376 b1be
00000010: 2cea 1bbe 5f05 54be 94f0 61be fa72 aebe
00000020: 23e1 72be 97d1 20be c873 27be 7373 b6be
00000030: 972d 5cbe 29a4 6bbe 8bf5 cdbe e73c 92be
00000040: f479 a5be 5fb3 cabd b1c4 61bd 2f9a 8cbe
00000050: ab71 4bbe 09b5 88be acb9 d4be d837 5bbe
00000060: 98cf 35be e615 08be 960a b5be 10d3 eebe
00000070: 5894 c8be db8b 81be 60f7 a2be 10d4 26be

weight f4 [32, 32, 5, 5]
-0.19634673 -0.14783812 -0.44862062 -0.3638773 -0.2650962 0.039588016 -0.012378461 0.039504595
0.004780737 -0.014816362 -0.24195461 0.061306223 -0.1322095 0.11777076 0.116069265 0.06712645
-0.10190467 -0.12162884 0.069478445 -0.02128638 -0.3651491 -0.12686522 0.22824328 0.10090424
-0.046234284 -0.21385372 -0.16080698 -0.07359644 -0.10522727 -0.36977592 0.04037883 -0.110346794
0.23854636 -0.38705054 -0.049288996 -0.08146651 0.13296849 0.086245835 -0.18657298 0.1458156
0.120413154 -0.2728728 -0.25118238 -0.35380176 0.05349814 -0.10471087 0.10354782 0.13067128
-0.11320013 -0.007528553 0.13344717 -0.5784253 0.16676506 0.12770884 0.19604638 -0.06351048
-0.049427707 -0.22714739 0.0946389 0.09800149 -0.07916513 0.09423357 -0.03109579 -0.21093014
0.18683217 -0.16042766 -0.19443563 -0.16981459 0.21702772 -0.0019385993 -0.13823348 0.1939262
-0.53390384 0.06758061 0.24609947 -0.46368718 -0.081474125 0.095491536 -0.05891054 -0.13681962
-0.21665715 -0.062149122 -0.1402487 0.032421313 0.028685013 -0.055392135 -0.08891777 -0.19585346
-0.22269836 -0.07320098 -0.1096009 -0.10919163 0.36743447 -0.11543725 -0.24455762 0.13849053
-0.22712459 -0.39007044 0.112005435 -0.39171162 -0.29416898 -0.48010817 0.31463435 0.19052704
0.30994087 -0.32463583 -0.059741136 -0.030089032 0.15088089 0.012127111 -0.40999702 -0.16792381
0.06937891 0.022267515 -0.06967088 -0.07307162 -0.20813127 0.1722899 0.100896634 0.008196811
-0.08174402 -0.037280787 0.02120983 0.03634145 0.2640484 -0.12893568 -0.1903966 0.19456907
0.10894621 0.2055548 -0.0027174926 0.20677322 0.2197734 0.06582595 0.34076187 0.22948055
-0.11987743 0.027425976 0.31234282 0.177634 0.06302734 -0.03311508 -0.14157894 0.23569882
-0.14158463 0.17216118 -0.11912828 -0.17503095 0.1222296 -0.022971848 -0.37503484 -0.10674619
0.1495448 -0.19528165 -0.4438794 -0.12761526 -0.19203192 -0.13934709 -0.04409176 -0.08211826
-0.4932818 -0.01671253 0.2730682 -0.19426838 0.06886943 -0.11817197 -0.026199395 0.0034882247
0.287639 0.20552929 -0.18637432 0.2552321 -0.1964978 0.018126434 0.14859916 0.06783409
-0.016687473 0.1555102 -0.31367713 -0.4099648 -0.18052344 -0.2166128 0.0015034495 0.006077874
0.04981279 -0.14330006 -0.17234427 -0.05487026 -0.0713047 0.39794466 -0.1475991 -0.05507437
0.30214268 -0.08049649 0.37802476 -0.05291935 0.00693099 0.032161474 0.12674579 0.09202333
0.28715447 -0.18824863 -0.13959824 -0.11245632 -0.13582698 -0.04642906 0.28858545 0.17613445
-0.20311306 0.004704248 0.008780209 0.1716142 -0.111236736 -0.1111421 0.08730488 -0.2540584
-0.13556552 0.10306562 -0.3274521 0.033780206 -0.019742662 0.039717298 0.11810469 -0.0074791806
-0.6992316 -0.18549001 -0.28348494 -0.17802677 -0.016531432 -0.19092591 0.06148316 0.11916658
0.19119792 0.10309113 0.21351163 0.010342893 -0.01570253 2.9910418e-05 -0.01418622 -0.055265006
-0.35472116 -0.1004727 -0.12485529 -0.38251424 0.048919972 -0.3421879 -0.22229134 -0.08661789
0.011290865 -0.3215441 0.10529467 -0.048119646 0.12299729 -0.15786928 -0.18389635 0.06396124
00000000: 1e0f 49be e062 17be 9ab1 e5be 204e babe
00000010: b0ba 87be 0b27 223d 07cf 4abc 92cf 213d
00000020: bba7 9c3b 54c0 72bc f3c2 77be 3c1c 7b3d
00000030: ed61 07be cc31 f13d b9b5 ed3d 9879 893d
00000040: 65b3 d0bd 8b18 f9bd b74a 8e3d c660 aebc
00000050: d3f4 babe f5e8 01be 9bb8 693e e2a6 ce3d
00000060: 2960 3dbd 78fc 5abe 96aa 24be bbb9 96bd
00000070: 6581 d7bd 4553 bdbe 4664 253d 80fd e1bd
00000080: 7f45 743e 7d2b c6be 42e3 49bd ead7 a6bd
00000090: e428 083e a8a1 b03d fd0c 3fbe af50 153e
000000a0: 2c9b f63d fcb5 8bbe fa9a 80be 8125 b5be
000000b0: de20 5b3d a772 d6bd e110 d43d b1ce 053e
000000c0: 78d5 e7bd 14b2 f6bb 60a6 083e ae13 14bf
000000d0: 76c4 2a3e 1bc6 023e 62c0 483e c811 82bd
000000e0: b574 4abd 5399 68be 0ad2 c13d 01b5 c83d
000000f0: 5421 a2bd 88fd c03d 99bc febc 12fe 57be
00000100: ef50 3f3e 2647 24be 221a 47be e0e3 2dbe
00000110: 843c 5e3e 9918 feba 148d 0dbe 9794 463e
00000120: ecad 08bf b467 8a3d 8001 7c3e 6868 edbe
00000130: e8db a6bd 1191 c33d 2e4c 71bd 711a 0cbe
00000140: 5fdb 5dbe 1490 7ebd 5b9d 0fbe 36cc 043d
00000150: d5fc ea3c dde2 62bd 851a b6bd cf8d 48be
00000160: 0a0b 64be 65ea 95bd 7076 e0bd dc9f dfbd
00000170: 5f20 bc3e 5d6a ecbd 506d 7abe 76d0 0d3e
00000180: 5993 68be 50b7 c7be 1b63 e53d 6d8e c8be
00000190: 519d 96be bdd0 f5be c117 a13e 8519 433e
000001a0: 92b0 9e3e ab36 a6be 1fb3 74bd 467d f6bc
000001b0: 8580 1a3e cab0 463c 21eb d1be 38f4 2bbe
000001c0: 8816 8e3d 5d6a b63c 9baf 8ebd 93a6 95bd
000001d0: 5d20 55be c36c 303e e5a2 ce3d eb4b 063c
000001e0: 6969 a7bd bdb3 18bd 3dc0 ad3c c6da 143d
000001f0: 5a31 873e b707 04be 54f7 42be 1d3d 473e
00000200: 311f df3d f57c 523e f617 32bb 5cbc 533e
00000210: 470c 613e c1cf 863d 5778 ae3e f3fc 6a3e
00000220: 4c82 f5bd 71ac e03c 66eb 9f3e b0e5 353e
00000230: 7a14 813d aea3 07bd 12fa 10be 085b 713e
00000240: 90fb 10be 054b 303e 87f9 f3bd 503b 33be
00000250: 8353 fa3d 752f bcbc 9104 c0be bf9d dabd
00000260: 4622 193e eaf7 47be 2944 e3be 93ad 02be
00000270: 04a4 44be 01b1 0ebe 9099 34bd 9e2d a8bd
00000280: 6f8f fcbe b7e8 88bc 98cf 8b3e 4aee 46be
00000290: 6a0b 8d3d 2504 f2bd 1da0 d6bc b39a 643b
000002a0: 6b45 933e 4576 523e e9d8 3ebe c8ad 823e
000002b0: b836 49be e37d 943c 612a 183e 99ec 8a3d
000002c0: 2bb4 88bc 113e 1f3e 4a9a a0be e8e6 d1be
000002d0: 23db 38be bfcf 5dbe 650f c53a e728 c73b
000002e0: 7f08 4c3d 40bd 12be 047b 30be a3bf 60bd
000002f0: 3308 92bd 67bf cb3e 3824 17be aa95 61bd
00000300: 72b2 9a3e 58db a4bd 768c c13e f6c1 58bd
00000310: 5c1d e33b c0bb 033d a6c9 013e ba76 bc3d
00000320: e905 933e 40c4 40be d7f2 0ebe 804f e6bd
00000330: 3a16 0bbe 662c 3ebd 79c1 933e 975c 343e
00000340: dffc 4fbe 1826 9a3b deda 0f3c a2bb 2f3e
00000350: 16d0 e3bd 789e e3bd e7cc b23d f113 82be
00000360: b0d1 0abe 1114 d33d cda7 a7be 1d5d 0a3d
00000370: 5dbb a1bc 9bae 223d dfe0 f13d ea13 f5bb
00000380: d800 33bf 18f1 3dbe f024 91be a64c 36be
00000390: ed6c 87bc 1582 43be c4d5 7b3d 9c0d f43d
000003a0: 63c9 433e 7121 d33d cba2 5a3e 3d75 293c
000003b0: 98a2 80bc 22e8 fa37 526d 68bc 8f5d 62bd
000003c0: 039e b5be a2c4 cdbd 21b4 ffbd e8d8 c3be
000003d0: 4f60 483d 4133 afbe 57a0 63be b864 b1bd
000003e0: 52fd 383c 6ea1 a4be bba4 d73d 1b19 45bd
000003f0: 01e6 fb3d 7ca8 21be 534f 3cbe 1cfe 823d

bias f4 [32]
-0.018664237 0.025111625 -0.0115641635 -0.015177548 0.03634384 -0.032460775 0.013006713 0.029304765
0.03365435 -0.018866306 -0.0259813 -0.035111945 -0.005442207 -0.016849447 -0.02923853 -0.020986464
0.037523955 0.031919062 0.009176171 0.021572893 0.011504176 0.04134346 -0.0016066157 -0.017916478
-0.0018452413 0.033518404 -0.027966596 -0.013011299 0.011397025 0.00046654794 0.030114632 0.028606651
00000000: bee5 98bc e5b6 cd3c 9e77 3dbc 40ab 78bc
00000010: 47dd 143d 97f5 04bd 1c1a 553c 8c10 f03c
00000020: 25d9 093d 838d 9abc bcd6 d4bc 8bd1 0fbd
00000030: 8b54 b2bb da07 8abc a485 efbc ceeb abbc
00000040: b8b2 193d 90bd 023d a757 163c a3b9 b03c
00000050: 037c 3c3c c357 293d 1495 d2ba 94c5 92bc
00000060: 06dc f1ba 984a 093d 341a e5bc 582d 55bc
00000070: 96ba 3a3c 019b f439 f6b2 f63c 7f58 ea3c

running_mean f4 [32]
-1.000547 -1.5361851 -1.2335732 -1.344242 -1.0462323 -1.0159696 -0.9032689 -1.3921736
-1.5773598 -1.042455 -1.3628019 -1.1380852 -0.8397825 -1.3580813 -0.53691036 -0.8850395
-1.188482 -0.9671249 -1.7691222 -0.9230209 -1.2141255 -3.0987167 -0.67282295 -1.5824401
-0.014287831 -0.20146634 -0.9696879 -1.8825388 -0.1346899 -1.9171485 -2.0930629 -0.91025764
00000000: ed11 80bf b7a1 c4bf bae5 9dbf 1f10 acbf
00000010: f1ea 85bf 4b0b 82bf a13c 67bf bf32 b2bf
00000020: ede6 c9bf 2a6f 85bf 4b70 aebf c7ac 91bf
00000030: fcfb 56bf 9cd5 adbf f572 09bf f391 62bf
00000040: 2e20 98bf 7f95 77bf 9972 e2bf 194b 6cbf
00000050: 7768 9bbf 6051 46c0 203e 2cbf 668d cabf
00000060: 8217 6abc 314d 4ebe 773d 78bf 08f7 f0bf
00000070: 26ec 09be 1f65 f5bf bef4 05c0 a506 69bf

running_var f4 [32]
0.38921052 1.0353439 0.4736195 0.84288967 0.5718252 0.49732372 0.8958616 0.7659135
0.5801272 0.77922076 1.434845 0.8053824 0.57938725 1.0511856 0.45099255 0.7100557
0.514791 0.8503679 1.9087155 0.7032701 0.64438653 1.4091412 0.621366 0.739944
0.013898301 0.52684987 1.1237576 1.2771828 0.9634373 1.1757103 0.77587044 0.81808525
00000000: 9a46 c73e 2686 843f 417e f23e 9ec7 573f
00000010: 2363 123f 37a1 fe3e 3057 653f e812 443f
00000020: 3783 143f 037b 473f 00a9 b73f 8a2d 4e3f
00000030: b952 143f 408d 863f 7fe8 e63e 36c6 353f
00000040: 58c9 033f b6b1 593f ca50 f43f 8209 343f
00000050: 84f6 243f bd5e b43f d811 1f3f f86c 3d3f
00000060: b3b5 633c a2df 063f 4ad7 8f3f ba7a a33f
00000070: d4a3 763f ad7d 963f 729f 463f 096e 513f

weight f4 [32]
0.33855703 0.5440054 0.43461698 0.46818054 0.46118304 0.59425 0.47647658 0.26266584
0.36969978 0.35434395 0.60920954 0.57950276 0.39427495 0.49211285 0.3358027 0.5929852
0.40482578 0.32722 0.8073779 0.82470506 0.29611927 0.46952328 0.3280701 0.383277
0.00032052124 0.66153604 0.50565106 0.5950767 0.64838564 0.6457647 0.34376016 0.3918147
00000000: 5957 ad3e f043 0b3f 1e86 de3e 5cb5 ef3e
00000010: 2f20 ec3e c520 183f bdf4 f33e 237c 863e
00000020: 4a49 bd3e 926c b53e 28f5 1b3f 4b5a 143f
00000030: 68de c93e 37f6 fb3e 55ee ab3e e1cd 173f
00000040: 5345 cf3e 6189 a73e 51b0 4e3f df1f 533f
00000050: f29c 973e 5b65 f03e cef8 a73e e23c c43e
00000060: a20b a839 6d5a 293f 5972 013f f256 183f
00000070: 9afc 253f d650 253f 5501 b03e f09b c83e

bias f4 [32]
-0.4387467 -0.7706932 -0.40868095 -0.6816565 -0.63480526 -0.8388441 -0.649857 -0.22800218
-0.26278967 -0.43673643 -0.5570824 -0.8961989 -0.5126125 -0.5114248 -0.56545115 -0.7893064
-0.50690705 -0.49960554 -0.47085336 -0.85075116 -0.4936581 -0.2853309 -0.59520733 -0.4027841
-0.0053046555 -1.0016544 -0.5899 -0.42745256 -0.84342766 -0.5944219 -0.5972858 -0.6209031
00000000: 68a3 e0be 264c 45bf a13e d1be 0a81 2ebf
00000010: 9982 22bf 7dbe 56bf 075d 26bf 6779 69be
00000020: 5e8c 86be eb9b dfbe f49c 0ebf 4b6d 65bf
00000030: 933a 03bf bcec 02bf 68c1 10bf fc0f 4abf
00000040: a9c4 01bf 4ccc ffbe b113 f1be d4ca 59bf
00000050: c1c0 fcbe e416 92be 825f 18bf b839 cebe
00000060: add2 adbb 3636 80bf b003 17bf 10db dabe
00000070: e0ea 57bf 092c 18bf b9e7 18bf 81f3 1ebf

weight f4 [4, 1536]
-0.014958114 0.011813408 0.0066905892 0.0006335939 -0.009036845 0.0016459884 0.02288931 0.0055372166
-0.15323997 -0.032668266 0.033435803 0.09172454 0.32312453 -0.043409366 -0.04582145 0.24541633
0.3160812 0.08510403 -0.10138768 -0.085194044 -0.08433246 -0.17875399 -0.002890309 0.43566626
-0.027339607 0.116876304 -0.1198198 -0.15028325 -0.3728791 -0.07970181 -0.08885594 -0.07235877
-0.010222002 -0.09767946 -0.09503703 0.59625405 -0.042947713 -0.060214132 -0.017573755 -0.019055787
0.038351778 -0.08425487 -0.026876455 0.036712363 -0.007677055 -0.02543835 0.009670254 0.05890132
0.012675814 -0.01768585 -0.015227802 -0.003478511 -0.00470563 -0.0006061046 0.031063758 0.0005176352
-0.008511383 -0.023198616 0.015745126 0.0016225374 0.2425955 0.29944056 0.136443 0.09599287
0.28181803 0.25655955 -0.022862015 -0.098239854 0.1412462 0.10280453 0.2942382 -0.29282996
-0.040375315 0.21742958 -0.22472407 0.06377139 0.021641955 0.11725742 0.054778513 -0.028798912
-0.23932081 -0.08735907 -0.19387615 0.18160772 -0.42509654 0.13538833 0.036766224 0.17265572
-0.3980295 -0.26129624 -0.15054716 -0.155895 0.09667119 -0.022079144 -0.10426196 -0.059818964
0.008338047 0.00056127366 -0.008581211 -0.006137726 0.0137438765 0.022363344 0.10368023 0.097826846
-0.06117729 -0.103634976 -0.14114532 0.029756304 0.23300073 -0.010026723 0.060970556 0.12194154
0.051299408 0.21378879 -0.16592212 -0.14714989 -0.074500985 0.037626386 -0.28414553 -0.061513994
0.27410507 0.018742431 -0.00035747525 -0.00042481505 -0.0033217291 0.42788666 0.4190306 -0.037819505
0.078398995 -0.0067795734 -0.029156027 0.015104087 0.0903975 0.031818178 -0.0039136284 -0.0072668027
-0.00043798183 0.0031912941 0.04806093 0.005614072 0.001449418 -0.0065205498 -0.0069007576 0.0044714953
-0.016162004 0.0143374475 0.012142296 -0.026747324 0.007083404 -0.0026198789 -0.017823592 0.011443224
-0.013594786 0.019815221 0.0068355277 -0.0033249874 -0.33948484 -0.29048714 -0.048714116 0.4304436
-0.039063767 0.1634387 0.4869358 -0.07346606 0.22237678 -0.03602222 0.07275047 -0.32216188
0.18118104 0.09689594 0.15862703 0.09360266 0.32002974 0.30496812 -0.03790203 -0.057545494
-0.05121813 -0.23203571 -0.011340472 -0.31752887 0.21356554 -0.17022166 0.25057444 -0.052528974
0.022436516 0.055677798 0.17659748 -0.094024226 0.15423971 -0.027171353 -0.036795422 -0.1968347
-0.0024384647 0.011965276 0.01303039 -0.025033941 -0.0104412045 -0.00022627354 -0.024997555 -0.05105439
0.067218564 -0.036839794 0.046865713 0.060750425 -0.156157 0.22749043 0.09624305 0.18336558
0.13293913 0.15632549 -0.22720177 0.27787757 0.09254355 0.28872073 -0.026552696 -0.00922254
-0.15330373 -0.00023435356 -0.14310016 -0.05958911 0.15071051 0.036839366 0.34852841 0.014222276
0.03724164 -0.09940363 0.28389966 -0.24887142 -0.15246926 0.0877985 0.061264727 -0.059130546
0.12597391 -0.2394181 0.039280042 -0.108770356 -0.0440445 -0.07402624 -0.028689621 0.071971424
-0.10719279 0.05093901 -0.02824864 -0.004781559 0.013275856 0.02412519 -0.020740364 -0.014563476
0.0114942305 0.024338042 -0.0002265051 0.02473269 -0.11759973 -0.08526243 0.18425073 0.056069385
00000000: e112 75bc 068d 413c bb3c db3b c417 263a
00000010: 460f 14bc 35be d73a 5d82 bb3c 8a71 b53b
00000020: f0ea 1cbe 29cf 05bd fbf3 083d 13da bb3d
00000030: 9470 a53e 05ce 31bd 46af 3bbd 6b4e 7b3e
00000040: 65d5 a13e 064b ae3d 58a4 cfbd 377a aebd
00000050: 7fb6 acbd 490b 37be 576b 3dbb a60f df3e
00000060: 50f7 dfbc d85c ef3d 1564 f5bd dae3 19be
00000070: 02ea bebe b43a a3bd 1afa b5bd d630 94bd
00000080: 2f7a 27bc 2b0c c8bd c6a2 c2bd 1ba4 183f
00000090: f1e9 2fbd 18a3 76bd d6f6 8fbc e21a 9cbc
000000a0: c116 1d3d d18d acbd 032c dcbc b45f 163d
000000b0: ce8f fbbb 1664 d0bc fc6f 1e3c 8342 713d
000000c0: 38ae 4f3c eae1 90bc 087e 79bc bbf7 63bb
000000d0: af31 9abb fee2 1eba 6c79 fe3c e9b1 073a
000000e0: 5473 0bbc 060b bebc ecfb 803c 52ab d43a
000000f0: f46a 783e 4650 993e b7b7 0b3e e997 c43d
00000100: 744a 903e c65b 833e 1f49 bbbc fa31 c9bd
00000110: d8a2 103e 2e8b d23d 64a6 963e cfed 95be
00000120: 9660 25bd dca5 5e3e 111e 66be 939a 823d
00000130: 784a b13c a924 f03d 6f5f 603d b2eb ebbc
00000140: 8410 75be 50e9 b2bd 7887 46be 60f7 393e
00000150: 41a6 d9be 3da3 0a3e 2e98 163d a9cc 303e
00000160: 86ca cbbe 9fc8 85be 0929 1abe f0a2 1fbe
00000170: 8bfb c53d 52df b4bc 4b87 d5bd bb04 75bd
00000180: 4e9c 083c 7022 133a 3598 0cbc fa1e c9bb
00000190: ff2d 613c 5533 b73c 4d56 d43d 7159 c83d
000001a0: 0a95 7abd 933e d4bd 6688 10be 7ec3 f33c
000001b0: be97 6e3e 2047 24bc 43bc 793d 7cbc f93d
000001c0: 541f 523d 73eb 5a3e 7de7 29be 76ae 16be
000001d0: f993 98bd 201e 1a3d 867b 91be 19f6 7bbd
000001e0: 8057 8c3e ba89 993c 846b bbb9 b6b9 deb9
000001f0: 5eb1 59bb f613 db3e 2e8b d63e a0e8 1abd
00000200: a78f a03d 2f27 debb 9fd8 eebc 2277 773c
00000210: 5322 b93d c753 023d e53d 80bb 5c1e eebb
00000220: eda0 e5b9 0825 513b 8adb 443d 40f6 b73b
00000230: 66fa bd3a 56aa d5bb c01f e2bb 9f85 923b
00000240: 2e66 84bc 9de7 6a3c 7bf0 463c 341d dbbc
00000250: e61b e83b 46b2 2bbb c802 92bc 5c7c 3b3c
00000260: aabc 5ebc 8853 a23c 90fc df3b 08e8 59bb
00000270: f5d0 adbe bbba 94be 7488 47bd 1b63 dc3e
00000280: 5401 20bd 795c 273e a64f f93e 6075 96bd
00000290: bdb6 633e 098c 13bd 33fe 943d 67f2 a4be
000002a0: 8687 393e 6171 c63d 206f 223e c0b2 bf3d
000002b0: f0da a33e c824 9c3e 293f 1bbd d3b4 6bbd
000002c0: 1aca 51bd c59a 6dbe 63cd 39bc 2593 a2be
000002d0: edb0 5a3e 964e 2ebe 4b4b 803e 9f28 57bd
000002e0: c9cc b73c 670e 643d f8d5 343e c68f c0bd
000002f0: 04f1 1d3e 7596 debc ccb6 16bd 098f 49be
00000300: a6ce 1fbb 010a 443c 6b7d 553c fb13 cdbc
00000310: 9611 2bbc d743 6db9 acc7 ccbc 681e 51bd
00000320: e3a9 893d 53e5 16bd 43f6 3f3d 70d5 783d
00000330: 9fe7 1fbe 40f3 683e 141b c53d 30c4 3b3e
00000340: 3221 083e ca13 203e 95a7 68be f845 8e3e
00000350: 7987 bd3d 34d3 933e 0a85 d9bc 231a 17bc
00000360: a7fb 1cbe cebc 75b9 d988 12be b613 74bd
00000370: db53 1a3e e0e4 163d 5172 b23e 8d04 693c
00000380: b18a 183d 2194 cbbd 4c5b 913e 26d8 7ebe
00000390: e720 1cbe b3cf b33d b9f0 7a3d df32 72bd
000003a0: 4eff 003e 052a 75be 1ce4 203d fec2 debd
000003b0: 0168 34bd 129b 97bd 7f06 ebbc c165 933d
000003c0: e587 dbbd 6ca5 503d b169 e7bc a0ae 9cbb
000003d0: fa82 593c 31a2 c53c b2e7 a9bc a59b 6ebc
000003e0: 4c52 3c3c 9360 c73c 0082 6db9 369c ca3c
000003f0: 21d8 f0bd 129e aebd 39ac 3c3e 03a9 653d

bias f4 [4]
0.16953923 0.17327921 0.17428377 0.17353012
00000000: b19b 2d3e 1b70 313e 7277 323e e1b1 313e
