dev/breakout_1000.pth (torch_old, 199624 bytes, 20 tensors)

weight f4 [16, 2, 5, 5]
000000 0e 2f cf 3e 48 08 a9 3e 79 3e dd bd ae 19 7a be
       0.40465587 0.3301413 -0.10802931 -0.24423859
000010 85 8a cc bd 4e 56 53 bd bc 52 02 be 9d 05 37 be
       -0.09987358 -0.05159598 -0.12726873 -0.17873235
000020 09 25 49 bd cd d0 cf bd a8 1e 8a be 0c 77 26 bf
       -0.049107585 -0.101472475 -0.26976514 -0.650254
000030 4c 07 67 be 32 38 33 bf fa 06 28 bf 00 44 db 3e
       -0.22561377 -0.7000762 -0.65635645 0.42825317
000040 3f 41 0c 3f 3d 5a 3a 3f 63 81 67 be 87 6d 83 3e
       0.5478706 0.7279394 -0.22607951 0.256695
000050 c3 1e ad bd 21 4b 96 3e c1 8c cf 3e 06 8f 68 be
       -0.08453133 0.29354194 0.40537074 -0.22710809
000060 8d 4b 29 3f db 60 cf 3f 10 8c d1 3f ca 82 33 bf
       0.66130906 1.6201433 1.6370869 -0.70121443
000070 ad 32 4b be b7 23 24 3f 1f ef c0 3e 87 d6 a3 3d
       -0.1984355 0.64116997 0.37682435 0.07999902
000080 94 25 16 bf 78 c4 45 3f 85 40 09 bd f9 56 d9 3c
       -0.5865109 0.7725291 -0.033508796 0.02653073
000090 49 ff 46 bf fa 4f 01 3f aa b0 ce 3e ed 0a 89 3e
       -0.77733284 0.5051266 0.4036916 0.26766148
0000a0 5f f6 fa be b5 e9 4c bf 1b 96 7e 3f 01 1f 2b be
       -0.4901609 -0.8004411 0.9944779 -0.16711046
0000b0 f1 99 8a 3f 7e 77 a9 be 49 92 ec be f1 05 12 3f
       1.0828229 -0.33098978 -0.46205357 0.57040316
0000c0 c6 c1 7f 3e 45 f1 4f 3f a7 eb 29 3e ac 1e 2e 3e
       0.24976262 0.81227523 0.165938 0.17003888
0000d0 17 f3 aa 3d 47 79 47 3e 58 71 5d 3e 1f 61 a9 3d
       0.08347147 0.19479857 0.21625268 0.082704775
0000e0 6e 31 f4 3d 50 2d 4d 3e ec ba 13 3d 53 a4 00 3e
       0.119234905 0.20036817 0.036066934 0.12562685
0000f0 28 b0 e2 bc 45 4b 94 bd fa b4 54 3d 36 0a 38 3e
       -0.027671888 -0.07240919 0.051930405 0.17972645
000100 d2 cc db 3c 08 c3 11 be 27 7a ba bd 54 82 d2 3d
       0.026831064 -0.14234555 -0.0910533 0.10278764
000110 7c f4 7f 3d 52 7b fd 3d bb 18 84 3e f5 e6 68 3d
       0.062489018 0.12377037 0.25800118 0.056860883
000120 61 3e d0 3d 27 1c 35 3e 54 1a 07 3e 97 78 3f 3f
       0.10168148 0.1768652 0.13193637 0.7479338
000130 1f c4 92 3e dc 2b 7d be 01 2a ad 3e d5 f1 7a 3e
       0.28665254 -0.24723762 0.3382111 0.24506314
000140 86 50 56 be ca 7c 8b 3e 09 55 46 be ce 2a 60 3e
       -0.20929155 0.27243644 -0.19368376 0.21891329
000150 69 cd 01 3e 4a 6e a6 be a5 a9 2b 3e 33 b4 fd bd
       0.12676014 -0.3250602 0.16763933 -0.12387886
000160 5e 9e 59 3e 15 11 0a bc 8d 7f 77 3c 82 a9 74 3e
       0.21251819 -0.008426924 0.015106094 0.23892787
000170 58 aa c8 3d 0d fd 03 3e 2e 90 9a bd 6e 92 44 3f
       0.097981155 0.128895 -0.07547031 0.76785934
000180 7d 70 86 3e 08 49 41 be 6a 39 3a be c1 67 8d be
       0.26257697 -0.18875515 -0.18185964 -0.2761822
000190 e7 bb 99 bc 8a 78 5b bc 78 a9 68 3d 27 6c 6f 3d
       -0.018766357 -0.013395438 0.056802243 0.05845275
0001a0 7e 48 df 3c b8 8c c7 bb 49 fe 67 3d d8 25 9c bd
       0.027256247 -0.006089773 0.05663899 -0.076244056
0001b0 71 8b c7 3d dd ae 8e bc b6 ab 36 3e 1b 63 87 3d
       0.09743393 -0.017417366 0.1783894 0.066107
0001c0 53 e8 59 bd 06 ca bd 3d c5 2e 33 bc 53 2f 02 be
       -0.053200077 0.092670485 -0.010936444 -0.12713365
0001d0 e6 a9 2c 3d a8 8f f2 bb 5e 8b bc bd 06 a0 03 bc
       0.042154215 -0.007402379 -0.0920627 -0.008033758
0001e0 79 62 91 3d 3b cf 33 bd 7f 35 92 bd 43 49 a7 3d
       0.0709886 -0.043898802 -0.0713911 0.081682704
0001f0 43 12 d5 3d d7 d3 14 3d b9 1e a8 bd 62 41 a5 bd
       0.10403874 0.03633484 -0.08208985 -0.080691114
000200 18 df 5a bc 2d fe 5c be 10 f2 62 3d 58 66 79 3d
       -0.013358854 -0.21581335 0.05540663 0.06088862
000210 85 fc b2 3c 8a 92 77 bd fc 10 d4 3c db d6 69 3e
       0.021848926 -0.060442485 0.025887005 0.22835867
000220 d6 a8 20 3e 8f d6 d7 3c ab 7b 0a be 55 d6 9c 3e
       0.15689406 0.026347427 -0.13523738 0.30632272
000230 f6 b8 d9 3c 30 30 01 3e 5c ad 7c be a6 28 a4 bd
       0.026577454 0.12616038 -0.24675506 -0.080155656
000240 12 3f 18 3e f0 ee 2f bd ef 8b 72 be b3 dd a6 bd
       0.1486781 -0.042952478 -0.23686193 -0.081477545
000250 03 64 04 3e da 17 38 bc d5 05 95 3d b8 cc 19 be
       0.12928776 -0.011236155 0.07276503 -0.150195
000260 b8 08 c9 bb 82 e0 f7 3c c3 9a b4 3e e9 e0 98 3d
       -0.0061350726 0.03025842 0.35274324 0.07464773
000270 5a 0b cb bd 69 72 87 3e 5c c4 a9 3d de 38 b0 3d
       -0.099142745 0.26454476 0.08289406 0.086045966
000280 d4 b9 62 3d a1 33 26 3e 8a 0b 21 bd d0 19 3a be
       0.055353 0.16230632 -0.039317645 -0.18173909
000290 b3 51 8a 3c b2 0e 96 3e 62 e2 1e 3e c7 02 f6 bd
       0.01688466 0.29308087 0.15516046 -0.120122485
0002a0 f1 6e 55 3e d7 56 95 3e 67 ef 54 3e 85 fd b4 3d
       0.20843102 0.29167816 0.2079445 0.088374175
0002b0 17 6b 41 be 09 4b 22 be 5b e4 20 be e7 40 29 c0
       -0.18888508 -0.15848936 -0.1571211 -2.6445863
0002c0 01 d7 de bf 50 f2 a6 3e 62 9a 86 bd e6 be d2 bf
       -1.7409364 0.32606745 -0.06572415 -1.6464508
0002d0 26 84 49 bf b9 9c 8c be d7 cd e5 3f 7b c9 b7 3f
       -0.7871727 -0.2746332 1.7953442 1.4358362
0002e0 fe d7 06 3e 0a be 89 3e db 78 42 3f 32 7e 99 3f
       0.13168332 0.269028 0.7596566 1.1991637
0002f0 db 91 68 3f e1 38 4e 3f 8c 6f 4a 3f bf 91 39 3f
       0.9084756 0.8055554 0.7907646 0.72488016
000300 9d a8 0c 3f 57 5e a9 3f 56 df 72 3f 8d 51 9e 3f
       0.54944783 1.3231915 0.94872034 1.2368637
000310 d2 91 ac 3f b1 86 e3 be bc f7 94 3f 48 49 96 3f
       1.3482001 -0.444387 1.1638103 1.1741114
000320 b5 2f 26 be 22 4f 9a 3e 6a 44 6c 3e 32 ce ed 3d
       -0.16229136 0.301385 0.23072973 0.11611594
000330 34 f8 10 be 58 e2 bb be e8 74 0b be b7 54 24 be
       -0.14157182 -0.36696124 -0.13618815 -0.16047941
000340 62 6c 9f be 99 ae 51 be 4e 5d d8 be 99 a0 8d be
       -0.31137377 -0.2047676 -0.42258686 -0.2766159
000350 b3 b9 87 be eb ee 55 be b3 80 1d 3d 5f 78 b7 be
       -0.26508865 -0.20891921 0.038452815 -0.35834023
000360 f6 f8 c5 bd 59 e6 68 3d 0d dd 30 be a4 c5 ae 3d
       -0.09666626 0.0568603 -0.17271824 0.08533791
000370 2a 21 82 be ae 36 16 bd de d7 35 3e 99 6f 8a 3e
       -0.25415927 -0.03667324 0.17758128 0.27038267
000380 87 b8 38 3d 0e f6 5d bf 32 9f 18 bf 59 ab 86 be
       0.045097854 -0.86703575 -0.5961791 -0.26302603
000390 ac fe cd be 5d ba 15 be 93 e3 19 bf 79 6d 54 bf
       -0.40233362 -0.14621873 -0.60112876 -0.8297954
0003a0 62 27 63 bf 20 fb af bf 13 d0 5e bf 98 41 b5 3e
       -0.8873197 -1.3748512 -0.87036246 0.35401607
0003b0 09 3a 2e bf 3a 91 6a bf 60 b4 9c bf e1 af cb bf
       -0.68057305 -0.9162785 -1.2242546 -1.5913049
0003c0 4d db 8d be 20 c2 5f bf e1 5d a3 bf 76 7e be be
       -0.27706376 -0.87405586 -1.2763025 -0.37205857
0003d0 92 65 e3 bf 20 e8 11 bf e9 36 02 bf c6 55 f1 be
       -1.7765372 -0.5699482 -0.50865036 -0.47135752
0003e0 25 01 24 bf 7c 3d a2 be 29 c4 f1 3c 10 22 6c 3e
       -0.64064246 -0.31687534 0.029512482 0.23059869
0003f0 eb 06 a0 be 81 1b d0 bd 81 8a c1 be 2a 61 42 3f
       -0.31255278 -0.10161496 -0.37800983 0.7592951

bias f4 [16]
000000 0f 40 10 3d 0b 63 87 bd 43 91 f2 bd f3 e8 2d 3e
       0.03521734 -0.06610688 -0.11844113 0.16983394
000010 67 ab da 3e 1e 40 04 bd ee a1 de 3e 58 07 64 be
       0.42708895 -0.03228771 0.43482918 -0.22268426
000020 d3 70 aa 3e 68 fe a8 3d e0 4c 54 bd 03 f8 d0 bd
       0.33289203 0.08251649 -0.051831126 -0.102035545
000030 a5 58 5b be 2f f4 f1 b8 7a 08 fb bd da 94 ab 3c
       -0.21420534 -0.00011537258 -0.12257476 0.020945001

running_mean f4 [16]
000000 c7 a8 6c 3b 15 7d 55 3e df cc 90 bd 34 3f a3 3e
       0.0036111341 0.20848496 -0.07070326 0.31884158
000010 cc 3c 2c 3e c4 1b 52 bd 1e 8a 0f 3e 62 d2 49 be
       0.16820067 -0.05129601 0.14017531 -0.19709161
000020 9b b7 a3 3e 8f 30 3b be 9b 50 6f 3d 3a 74 be be
       0.31976017 -0.18280242 0.05842648 -0.3719805
000030 15 f3 e1 be d9 54 8e be a3 69 ea bd 93 59 45 be
       -0.4413077 -0.2779911 -0.1144593 -0.19272451

running_var f4 [16]
000000 91 55 9a 3d 92 c2 4c 3e 56 4d ce 3b df 8c a6 3d
       0.07535852 0.19996098 0.0062958403 0.08132338
000010 16 5b 70 3e b1 9e b8 3c af fc 90 3e 0c 38 80 3d
       0.23472247 0.022536607 0.28317782 0.0626069
000020 1a ea a9 3c 10 c5 9a 3e 9f 22 0a 3d 1c 1c 4d 3e
       0.020741511 0.30228472 0.033724423 0.20030254
000030 69 34 37 3e 94 c8 85 3e a1 d4 e5 3c 18 62 19 3e
       0.17891087 0.2612959 0.02805549 0.14978826

weight f4 [16]
000000 7c fe d6 3e 4b e3 c7 3d 82 32 07 3c b4 da d1 3e
       0.4199103 0.097601496 0.008251788 0.4098717
000010 fa 04 a0 3f f4 48 ae 3e df 89 4d 3f 0c 83 1f 3f
       1.2501519 0.34040034 0.802885 0.62309337
000020 9f 70 1b 3f fd 3d 44 3f a7 4f 0f 3c 0c 06 5c 3f
       0.6071872 0.76657087 0.008747018 0.85946727
000030 25 f5 59 3f 54 85 4b 3f ea e2 05 3f b6 55 61 3f
       0.85139686 0.7950032 0.5229937 0.8802141

bias f4 [16]
000000 65 ae 9e be 93 29 bd be 3d 9a 84 bd 5d a1 4c be
       -0.30992427 -0.3694578 -0.06474731 -0.1998343
000010 8e fe bd be 0c 39 70 be ed 5c 01 bf 42 e3 33 bf
       -0.37108272 -0.23459262 -0.5053242 -0.7026864
000020 74 9c 1d bf ea 58 ea be e1 77 84 bd f0 b6 06 bf
       -0.61566854 -0.4577096 -0.064681776 -0.5262289
000030 8d 50 f7 be 29 d8 f4 be d4 eb a9 be 4a 8e 03 bf
       -0.48303643 -0.47821167 -0.33187735 -0.5138899

weight f4 [32, 16, 5, 5]
000000 4c f1 d9 bd 7e 11 ac bf 17 09 1a 3e ca 70 80 bc
       -0.10641727 -1.3442838 0.1504253 -0.015678782
000010 12 3b ea be b0 11 64 3f f8 ff 23 bd 99 47 28 3d
       -0.45748192 0.8908949 -0.040039033 0.041083906
000020 12 ce 29 3f 33 d2 c1 3e 3d 11 ee 3e b0 ce 1e 3f
       0.66330063 0.37855682 0.46497527 0.6203413
000030 a5 ab b2 3e f4 2b ae be b4 82 0c bf 7f 46 8e be
       0.3489658 -0.3401791 -0.5488694 -0.2778816
000040 50 31 04 bf 8c f2 04 3f 6e ff a2 3e 47 b0 83 3f
       -0.51637745 0.519326 0.31835502 1.028817
000050 93 d5 8b 3f 6f b8 38 3e 1d 1a 19 3f 0d d5 61 3e
       1.0924553 0.18039106 0.5980547 0.22053929
000060 28 e0 14 3e 26 1c 7f 3d 88 10 5e bd 19 d4 35 be
       0.14538634 0.062282704 -0.054214984 -0.1775669
000070 13 81 cc bd fa 70 67 3c 31 e7 5a 3c b1 f2 10 3e
       -0.099855565 0.014126057 0.013360784 0.1415508
000080 e3 d5 39 bd e2 83 51 bd c6 34 94 3d 6e 24 b0 3e
       -0.045369994 -0.051151164 0.07236628 0.34402794
000090 5e 19 9f 3d e6 0e 97 3c cf 32 28 3d 95 10 13 3e
       0.0776851 0.018439721 0.04106408 0.14361794
0000a0 51 d4 2f 3d b1 65 a0 bb ab 10 1b 3e 50 79 9d be
       0.04292709 -0.004894935 0.15143077 -0.30756617
0000b0 fa 67 ab 3c a8 7d 2c bd 05 74 90 3d aa 40 94 3d
       0.020923603 -0.042112023 0.07053379 0.07238896
0000c0 7c d1 92 3d 15 e2 81 3d 69 1f d8 bc bf 5e 84 3b
       0.07168862 0.0634195 -0.026382165 0.004039615
0000d0 79 1e de bc af f2 ae bb 89 81 62 bc 19 c2 a2 3b
       -0.02711414 -0.0053389887 -0.013824829 0.004966986
0000e0 6c c5 08 bd 32 e1 d1 bc 02 70 30 3c 02 f7 3c bd
       -0.0333914 -0.025620077 0.010768892 -0.046134003
0000f0 5f 3b cc 3c 4e ca 16 bc ed c8 29 bd 73 86 27 3d
       0.024930654 -0.009203507 -0.041451383 0.040899705
000100 f5 39 dd bc 7d 66 54 bd 42 6b 02 bd b7 8c f9 bc
       -0.027005175 -0.051855553 -0.03184057 -0.030462606
000110 d5 3f 3f 3c d4 29 c3 bc 60 50 78 bc 14 0e aa bd
       0.011672934 -0.023823656 -0.015155882 -0.083034664
000120 75 22 bb 3b 22 8f d6 bc 1d ff 74 3c 34 0d b4 bd
       0.0057108947 -0.026191298 0.014953402 -0.08791581
000130 e3 c1 de bd 52 9e 99 be cf c9 2c 3c c3 35 f3 be
       -0.10876825 -0.300036 0.010546162 -0.47501954
000140 82 d8 df bd 28 e8 f7 3e ee e4 84 3d 96 42 80 be
       -0.109299675 0.4841931 0.064889774 -0.250508
000150 32 17 15 be 48 f3 6c 3e 23 99 92 be 19 a8 95 be
       -0.1455963 0.2313968 -0.2863246 -0.2922981
000160 44 5f 9b 3e f4 48 04 bf f1 49 51 bd 94 9d 30 bf
       0.3034612 -0.5167382 -0.051095907 -0.68990445
000170 53 e3 88 3e 54 b5 b1 be 7f 9f b0 be ae 11 15 3f
       0.26735935 -0.34708655 -0.34496686 0.582301
000180 9c 9a 9d bd 8a 0a 1a be 62 ce 20 bf 6e 3f 1b be
       -0.07695505 -0.15043083 -0.62814915 -0.15160915
000190 d2 c8 09 bf f0 84 f0 be 24 83 fd 3d 08 bb d2 3d
       -0.5382205 -0.46976423 0.12378529 0.1028958
0001a0 cb a4 b4 be 6d 8a 89 be e6 bc b0 be 99 00 ed be
       -0.35281977 -0.26863423 -0.34519118 -0.46289518
0001b0 08 c5 1e bf 70 10 c5 be ef 6a 6f bf cf 54 89 be
       -0.62019396 -0.38489103 -0.9352254 -0.26822516
0001c0 42 c1 7f be 35 70 61 3e cf 02 4d bf 68 79 50 3f
       -0.24976066 0.2201546 -0.8008241 0.8143525
0001d0 5f 0c 35 bf 5e 7c 15 bf b9 3b c0 be 61 b8 39 3e
       -0.70722 -0.58392894 -0.37545565 0.18136741
0001e0 ad 0a a9 3d d1 5b 7b bd d1 85 b8 3e c9 03 db 3d
       0.08253989 -0.06136686 0.36039594 0.10694081
0001f0 ab 91 9b bf f8 cc db bd ae fd 94 3d d3 2b be bd
       -1.2153829 -0.10732454 0.07274948 -0.092857026
000200 e4 2b c2 be 45 79 b1 3d 5f 5c ff 3d 96 0f 0f 3e
       -0.3792411 0.086657085 0.1246879 0.1397079
000210 37 a2 8f 3e e7 87 04 3f 16 8a 70 3e 1a aa fa be
       0.28053448 0.5176987 0.23490176 -0.48957902
000220 4c aa 18 3e 33 9b 84 be 57 d4 3f 3c 2e 93 d9 be
       0.14908713 -0.25899658 0.011708341 -0.42495102
000230 c0 87 57 3e ad 50 84 be 10 9b 5e bf 89 40 3a 3f
       0.21047878 -0.258428 -0.86955357 0.7275472
000240 b1 9c 7e 3e 52 6a 8a be 40 46 d9 be fa 42 6e be
       0.2486446 -0.2703424 -0.4243641 -0.23267737
000250 57 9c 5a bf aa 9f 37 3e 5b 35 a8 bf 5f bf 0e 3e
       -0.85394806 0.17932001 -1.3141283 0.1394019
000260 b2 42 d3 3e 23 40 ed be 3e 78 0c 3c b7 49 0d 3e
       0.41261822 -0.46337995 0.00857359 0.13797651
000270 f6 04 c5 3d 89 05 c3 bd 41 a7 28 bf 7f d4 af 3e
       0.09620087 -0.0952254 -0.6588021 0.3434181
000280 d5 fa 01 3f 3a 1e 63 3d fa 7e b2 be 1e 5f b0 be
       0.50773364 0.05544875 -0.348625 -0.3444757
000290 63 2c 91 be 53 53 aa 3e 67 6d 13 bf d4 86 85 bf
       -0.28354177 0.33266696 -0.5758881 -1.0431771
0002a0 f1 9d d4 3e 0b 3b f8 be 1b 3a 4f 3f ab f8 9e 3f
       0.4152675 -0.48482546 0.80948037 1.2419637
0002b0 2c f4 1e 3e 22 7a a5 3c d1 16 49 3f 27 b1 35 3f
       0.15522832 0.020199839 0.7855044 0.7097344
0002c0 9b ad a8 be 0f b0 8f bf 3e 27 9c bf c2 f8 bd be
       -0.3294495 -1.1225604 -1.2199476 -0.3710385
0002d0 f9 bd 71 be b1 a3 d5 bd 6e 09 39 3d d1 6f 10 3f
       -0.23607625 -0.10431612 0.04517501 0.5642062
0002e0 53 72 ea 3d 5a 7b 32 3f a3 a2 44 3f 70 0a 8b bf
       0.11447587 0.6971947 0.76810664 -1.086256
0002f0 96 bf 60 bf 4b 3a 63 be 8b b7 03 bf ff 58 ff be
       -0.87792337 -0.22190206 -0.5145194 -0.49872586
000300 38 91 d8 be bb 3a b4 3e c6 25 7c 3f bc ab b0 be
       -0.42298293 0.35201058 0.9849514 -0.34506023
000310 03 2f ed be e9 5f f2 be f5 b9 cb 3e 6b 78 61 3f
       -0.4632493 -0.473388 0.3979031 0.8807437
000320 b8 10 4f 3e 89 f1 5a 3f f3 1a 8a 3e 59 17 e7 3e
       0.20221221 0.85524803 0.26973686 0.45135
000330 a3 1d b6 3d db 38 30 be b7 c5 98 be cc 12 8d bf
       0.088923715 -0.17209189 -0.29838344 -1.1021361
000340 c1 65 19 bf bd ae cf be fb 55 76 3e 4f 21 3d bf
       -0.5992089 -0.40563002 0.24056236 -0.7387895
000350 b7 e6 17 3e 0d 79 42 bd 1d 6d f6 be 31 87 e8 bd
       0.14834104 -0.047478724 -0.48130122 -0.11353911
000360 f0 f2 95 bb ce c7 f5 bd 30 66 4d bf 2e 6e 30 bf
       -0.0045760795 -0.12001 -0.8023405 -0.6891812
000370 31 33 4e be ac e9 5f be 5f 50 23 bf 6e d5 8a bf
       -0.20136715 -0.21866482 -0.6379451 -1.0846384
000380 e0 75 b8 3e b1 dc be bf 0e e0 41 bf a4 8b 9d bd
       0.3602743 -1.49111 -0.75732505 -0.0769265
000390 5e 55 ec be 24 11 ba 3d ac d9 25 3f 70 ff 29 3f
       -0.4615888 0.090853006 0.64785266 0.6640539
0003a0 09 b5 89 3f f4 a3 e7 3e e6 b1 98 3e b0 26 09 bc
       1.0758373 0.45242274 0.29823226 -0.00837104
0003b0 77 a1 0d be 0d c2 ba be f2 bf a5 be f7 c3 4b bf
       -0.13831125 -0.36476174 -0.32373005 -0.79595894
0003c0 79 e9 8b 3e 1a 97 37 bf 6e 0e 28 be 63 4a 44 3f
       0.27326563 -0.7171494 -0.16411754 0.76676005
0003d0 9c 99 2d 3f 57 60 23 3f 63 99 89 be ed fb d6 3d
       0.67812514 0.6381888 -0.26874837 0.1049727
0003e0 ef b4 9c 3d 8d ef d5 bd 94 08 2b bc 84 2e f5 bc
       0.07651698 -0.10446081 -0.010439057 -0.029929407
0003f0 8a cb bc 3c d7 cf 46 bc af b9 eb bc 9d fd f2 3c
       0.023046274 -0.012134514 -0.028775064 0.029661948

bias f4 [32]
000000 83 10 da 3b 62 df 1e bd 85 bf dd bc 41 a1 09 3d
       0.0066548004 -0.038787253 -0.027068863 0.03360105
000010 eb f8 42 3d 3a 2e 92 3c 7f ed 0c 3d ef 3f b5 3c
       0.047600668 0.017844308 0.03440618 0.022125212
000020 6c 45 eb ba 83 e0 93 3c 23 c2 a9 bc 69 82 62 3b
       -0.0017949766 0.018051391 -0.020722454 0.0034562594
000030 7e 64 95 bc e3 dc 9f 38 e5 1c 04 3d 27 d6 8b 3b
       -0.018236395 7.622854e-05 0.03225412 0.0042674723
000040 0c c5 c2 3c 52 dd 92 bb e9 3d f2 3c ef 56 1e bd
       0.0237756 -0.00448195 0.029570537 -0.038657125
000050 12 8b a6 bc 84 82 40 bd 9d 54 5b bd a0 00 51 3d
       -0.020329986 -0.04699947 -0.05354749 0.051025987
000060 ac 97 6b 3c 6a 1c 27 3d 1d 11 2a bd d7 d9 02 3c
       0.014379423 0.040798582 -0.041520227 0.007986507
000070 e4 94 57 bc 98 1e 13 3d 7c 03 06 3a 0d 53 f9 bc
       -0.013158057 0.03591785 0.00051122135 -0.03043511

running_mean f4 [32]
000000 cb e5 15 c0 77 84 16 c0 03 fb c8 3e d9 54 36 c0
       -2.3421504 -2.351835 0.39254007 -2.8489287
000010 f4 e4 fc bf 3a ce 80 bf 97 af 22 c0 a8 22 98 bf
       -1.9757371 -1.0062935 -2.5419672 -1.1885576
000020 85 12 b5 3e 0e 80 d3 bf 7c 56 1a c0 6d 84 0e c0
       0.35365692 -1.6523454 -2.4115286 -2.2268326
000030 00 ac 17 bf a3 0e b0 bf b7 c5 05 c0 36 1d 8b be
       -0.59246826 -1.3754467 -2.0901926 -0.27170724
000040 63 82 08 c0 e8 62 73 3f 2e 64 04 c0 ae 06 bb bd
       -2.1329582 0.95072794 -2.0686145 -0.091321334
000050 2c 01 38 c0 7b f2 b9 bf e1 96 2f c0 f7 a5 84 bf
       -2.8750715 -1.4527124 -2.743584 -1.0363148
000060 17 3a e8 bf b7 e5 09 c0 f4 60 b0 bf 19 dd 34 bf
       -1.8142728 -2.1546457 -1.3779588 -0.7064987
000070 d8 fc 1c 3e d0 c1 37 c0 70 bd 00 c0 53 ba 46 bf
       0.15330827 -2.8712044 -2.0115623 -0.7762806

running_var f4 [32]
000000 1b e6 f9 3f b8 f7 93 40 d4 0f 66 41 b8 4e 25 40
       1.9523348 4.623989 14.378864 2.5829296
000010 9e 10 3e 41 10 22 69 40 3e 1a 0a 41 8c 07 0d 40
       11.879057 3.642704 8.631407 2.2035856
000020 9c 4b 79 40 93 4f 80 40 51 77 1c 40 8a 39 26 40
       3.8952398 4.0097136 2.4447825 2.597262
000030 85 2e ff 3f 20 8e 2c 40 7f 4b 08 40 9d 51 9e 40
       1.9936072 2.6961746 2.129608 4.9474626
000040 3e bd 74 41 37 05 9a 40 32 42 0a 40 d7 11 3c 40
       15.296202 4.8131366 2.1602902 2.9385889
000050 fc b8 67 40 77 00 0d 40 57 11 55 40 a1 59 75 40
       3.6206656 2.2031534 3.3291833 3.8335955
000060 77 83 bb 3f ae 8e 27 40 cf df d9 3f bb 7c 9a 40
       1.4649495 2.6180835 1.7021426 4.827726
000070 62 e7 55 3e 08 82 91 40 97 74 1b 40 19 33 44 40
       0.20889047 4.547123 2.428991 3.0656188

weight f4 [32]
000000 24 f6 3b 3f c6 97 da 3f c3 10 31 3f 92 30 8b 3f
       0.73422456 1.7077568 0.691662 1.0874197
000010 2d 5c 4c 3f 00 ab 56 3f 95 83 24 3f 77 0f 16 3f
       0.7982815 0.83854675 0.6426328 0.5861735
000020 c0 3d 25 3f 3b 9e 52 3f a4 38 2d 3f be 64 5d 3f
       0.6454735 0.8227269 0.6766455 0.86481845
000030 44 f5 66 3f 77 7b 27 3f 99 00 f8 3e 81 9e 1e 3f
       0.90217996 0.6542277 0.48437956 0.6196061
000040 34 29 c0 3f ae 8a 18 3f 27 e7 65 3f 60 35 2b 3f
       1.5012574 0.5958661 0.89805835 0.6687832
000050 95 50 5e 3f 2a 79 4d 3f 74 f4 21 3f 5b ed 28 3f
       0.8684171 0.80263007 0.6326363 0.65987176
000060 11 71 03 3f b5 fd a7 3f 57 da df 3e de 81 4d 3f
       0.513444 1.31243 0.43721268 0.80276287
000070 db 0e 13 3b 4d 59 23 3f 4b c0 03 3f ea 04 62 3f
       0.0022439274 0.6380814 0.5146529 0.8828875

bias f4 [32]
000000 0f b8 15 bf f2 71 ff 3d b0 74 75 3a 0b a2 57 bf
       -0.58483976 0.12472905 0.0009363396 -0.8423163
000010 52 1a a6 be 28 39 be be 5d 99 f7 be 15 53 9b 3e
       -0.32441956 -0.37152982 -0.48359194 0.30336824
000020 c8 a7 10 bf b2 bf 63 3c 57 18 a3 be a5 f6 0f bf
       -0.56506014 0.013900684 -0.31854507 -0.56235725
000030 8f f0 1f bf 94 2e b8 be b4 99 b1 be c4 94 37 bf
       -0.6247644 -0.35973036 -0.3468758 -0.71711373
000040 6d c3 13 3f dc 73 04 bf 66 ce 1a bf 89 98 d6 be
       0.5772007 -0.5173929 -0.6047119 -0.4191325
000050 d4 64 d3 be 8e 68 fb be e8 b4 ff be dd 0d a4 be
       -0.41287863 -0.49103206 -0.49942708 -0.32041827
000060 a4 64 a5 be 7e 16 d0 be 1d 95 73 be aa 81 09 bd
       -0.32303345 -0.4064216 -0.23787351 -0.033570923
000070 fb 80 77 bd 91 ac f9 be 1c e5 7c be 29 53 1b bf
       -0.06042574 -0.4876447 -0.24696773 -0.6067377

weight f4 [32, 32, 5, 5]
000000 fd fc c5 bc 34 b8 2b 3c d6 05 0f 3d 02 60 12 3d
       -0.024168486 0.010480929 0.034917675 0.03573609
000010 8b 2b 2c bb 9d 77 c5 bd 78 57 82 3d 92 fd c3 bd
       -0.002627107 -0.09641955 0.063643396 -0.09569849
000020 d1 dc 94 bc 36 f9 8c bc 87 5d 36 be 10 0d 4b bd
       -0.0181717 -0.017208677 -0.17809115 -0.049573004
000030 00 03 dc bd b1 48 93 bc 15 30 36 bd b4 34 c4 3c
       -0.1074276 -0.017978998 -0.04447945 0.023950912
000040 e7 f9 b0 bd bc 39 9d bb e9 28 72 bd 7f 1b a3 bb
       -0.08641415 -0.0047981422 -0.059121046 -0.004977643
000050 b7 9b 9c 3d 6f d0 fc 3d d0 93 9e bd 2b 43 09 3c
       0.07646888 0.12344443 -0.07743037 0.0083778305
000060 27 ff 05 3d a4 2e 8a bd 21 3f bc 3d 4f bc a6 3d
       0.032714035 -0.06747177 0.091917284 0.08141386
000070 f3 8f 38 3c 1c 45 ac 3d 32 d5 7d bd 0f 0a 84 bd
       0.011264789 0.08411619 -0.061970897 -0.06447231
000080 e7 8f ff 3c ec 1f da 3c 3f 05 ae bc 4d 60 1b 3e
       0.031196548 0.02662655 -0.021242736 0.15173455
000090 f6 e2 b1 bc 28 1b a5 3d 3a 8a fd 3c 93 ba 10 3e
       -0.021714669 0.0806182 0.0309497 0.14133672
0000a0 c3 7a 9c bd 1c f2 59 3d b9 ca f4 3c 0d 3e 5a 3b
       -0.076406024 0.05320941 0.029881822 0.0033301145
0000b0 25 4d 3c 3c 46 92 12 be 0b b1 dd 3c 7a 9a f8 bc
       0.011493002 -0.14313611 0.02706196 -0.030347098
0000c0 f3 05 6f bd da 25 08 be fd 90 d9 3d f7 9e 02 bd
       -0.058355283 -0.13295689 0.106233574 -0.031889882
0000d0 53 97 8f 3c 16 4e 87 3d d9 6c 9c 3b 66 16 8f bc
       0.017528212 0.066066906 0.004773718 -0.017466735
0000e0 ce 35 97 3d 4f 7f 1d bd 25 b4 4c bd 49 9c 4d 3d
       0.07383309 -0.03845149 -0.049976487 0.050197873
0000f0 da f0 56 bd 6c a9 68 3d 44 74 b5 bd 03 5c 8c 3c
       -0.052475788 0.0568022 -0.088600665 0.017133718
000100 58 82 91 3d e8 05 4a bd c8 e4 be bc 1d cb 50 bd
       0.07104939 -0.04932204 -0.02330245 -0.050974954
000110 38 ae c0 bd 3a 22 87 bd 5e 63 4c bb cf 22 01 be
       -0.094082296 -0.06598325 -0.0031187157 -0.12610935
000120 89 cd 2d be 3b 1f 22 be 53 43 10 be a2 58 e9 3c
       -0.16972937 -0.15832226 -0.14088182 0.028484646
000130 07 20 cd bb a4 48 22 bd 54 cb 14 bd b6 82 08 bd
       -0.0062599215 -0.039620057 -0.03632672 -0.03332778
000140 c6 72 81 bc ac 45 38 bd 31 86 e8 bd a1 7b f3 bd
       -0.015801799 -0.04498832 -0.1135372 -0.11888815
000150 21 5d 99 bd 66 5e 82 bd 3e 78 97 bd a2 18 ac bd
       -0.07488466 -0.06365661 -0.07395981 -0.08403136
000160 38 97 4c bd 5b a3 ab bd 2c 7d 51 bc 6a 51 cb 3c
       -0.0499489 -0.08380767 -0.012786191 0.024819095
000170 bb 6f 55 3d 7c 53 69 3d 0e 77 85 3d ab fc 48 bb
       0.052108508 0.056964383 0.065168485 -0.003066818
000180 3f 6b 10 3d 15 80 cc 3b 91 99 ee bb 83 ad db bc
       0.035258528 0.0062408545 -0.00728149 -0.026816135
000190 9d 5c 22 be b8 95 12 be 80 33 a0 bd c8 e4 6a bd
       -0.15855642 -0.14314926 -0.07822323 -0.05734709
0001a0 81 20 34 bd 50 e8 e8 bd cd b4 b6 bd 33 e3 94 bd
       -0.04397631 -0.11372435 -0.08921204 -0.07269897
0001b0 19 25 8f bd 12 74 ea bd 70 01 80 bc d3 12 9e bd
       -0.06989498 -0.1144792 -0.015625685 -0.07718434
0001c0 bc 20 c7 bc 0c 12 49 bd 04 73 3b bd ff 1b a5 3d
       -0.024307601 -0.049089476 -0.045763984 0.080619805
0001d0 40 cb 80 3d 58 d9 9b 3d 0e 3f 3c 3d ff c8 a7 3d
       0.06288767 0.076098144 0.04595857 0.08192634
0001e0 93 16 23 3d 65 19 19 3b 17 2d 68 3c bb ee 82 3c
       0.03981645 0.0023361084 0.0141709065 0.015982976
0001f0 17 95 bb bc b9 8f 92 bc 98 23 ad bd 02 48 a7 3d
       -0.02289824 -0.017890798 -0.084540546 0.08168031
000200 6a 67 61 3d e5 67 b9 3d 7b fc c3 3c 34 60 48 3e
       0.055030264 0.090530194 0.023924103 0.19567949
000210 22 71 d2 3b b5 ab 33 bc a7 92 57 3d 61 01 34 be
       0.006422178 -0.010966231 0.052630093 -0.17578651
000220 90 51 d4 3c a4 78 ae b9 77 0b de 3c fe 2c aa bb
       0.025917798 -0.0003327775 0.027105076 -0.005193352
000230 a5 12 cb 3d fd b2 bd 3d 65 c6 8f 3c 19 0e 37 3d
       0.099156655 0.09262655 0.017550657 0.04469118
000240 a8 67 b2 3d 25 90 49 bd d3 74 d7 bd a8 1f 22 be
       0.08711177 -0.049209733 -0.10520329 -0.15832388
000250 43 5b af bd 57 ac 05 be cf 4c de bd cf 0b 97 bd
       -0.08562329 -0.13054024 -0.10854494 -0.07375299
000260 02 11 ba bd d4 de bd bd 76 a4 fe bd 05 6a aa bc
       -0.09085275 -0.09271017 -0.12433712 -0.020802507
000270 a2 90 32 bd 44 66 b5 bd af 67 82 bd 8d c4 89 bd
       -0.043594964 -0.08857396 -0.06367432 -0.06726942
000280 30 b8 5a bd d2 b3 07 3d dd cc e6 3b 76 09 99 3c
       -0.05339831 0.033130474 0.0070434646 0.01868127
000290 6a 9c 04 3d 2d 4e 43 3c 8b 1c c1 3c 6a 57 90 3d
       0.03237573 0.011920494 0.02357318 0.07047923
0002a0 df 92 b7 3c 56 e5 26 3d e3 c5 eb 3c e1 09 35 bc
       0.0224089 0.040746056 0.028780883 -0.011049719
0002b0 ef c4 4f bd df 83 b1 3c 3f 52 1d bd 36 5b 41 3d
       -0.05072492 0.021669326 -0.038408514 0.047206126
0002c0 76 1c 3a bd 66 bc 9a bc c2 61 81 3c b4 c0 9e bc
       -0.0454373 -0.018888664 0.015793685 -0.019378997
0002d0 c3 bb 8a be f9 ad 5a bd 77 40 24 bd ba e4 10 bd
       -0.27096376 -0.05338857 -0.04010054 -0.03537438
0002e0 95 08 85 bd 4a eb 64 bd 8b cc 6c bd 81 d0 9a bb
       -0.064957775 -0.05588845 -0.057812255 -0.0047245626
0002f0 ef 66 58 bc aa eb 6f bc 5a 3b 66 be 5e 6f ca bd
       -0.013208135 -0.014643589 -0.22483578 -0.09884523
000300 0d 4a 21 be f2 24 20 be 8e 9e 5a be 81 9e 99 3d
       -0.15750904 -0.15639094 -0.21349546 0.07500935
000310 1a d9 db 3d a0 cd 33 3d 50 2c 2c 3e 96 a5 43 3e
       0.10734768 0.04389727 0.16813779 0.19106135
000320 07 fb d6 bd 8e a0 95 bd 0e 20 90 bd 34 2e af bd
       -0.104970984 -0.07306014 -0.07037364 -0.085537344
000330 a9 01 23 bd d4 0f f7 3c cf 7b 7f bd bb a1 d4 bd
       -0.039796505 0.030158915 -0.062373932 -0.1038241
000340 1b 10 c5 bd ba 4e d1 bd 80 22 aa 3c b5 5a 2e bd
       -0.096222125 -0.10220094 0.020768404 -0.042566974
000350 e6 65 eb 3c 83 16 e1 3c 2d e5 a1 3c 8a f0 34 3c
       0.028735112 0.027476555 0.0197626 0.011043677
000360 99 2a ac 3c 47 a4 22 3d 5b 08 c9 bb 5c 89 15 bc
       0.021016406 0.03970745 -0.0061350293 -0.009126987
000370 08 81 20 bc 05 e6 0b bd 45 be cf bc 76 f2 43 bd
       -0.009796388 -0.03415491 -0.025359282 -0.04783865
000380 84 67 57 3d 32 ba 99 bd 4d 64 d3 3d 75 c9 42 bd
       0.052588955 -0.07506217 0.10321865 -0.047555406
000390 41 0f 9f bb 82 34 06 bd bd 50 94 ba 2f 79 b9 bc
       -0.0048541133 -0.03276492 -0.0011315566 -0.022640793
0003a0 1d 61 3f bc f2 da d6 bc a1 78 3a 3d 8b 8b ca bb
       -0.011680868 -0.026227448 0.045525197 -0.0061811856
0003b0 14 6d 54 bd bc 23 b4 bc 19 7e 89 bd 85 4d b9 bc
       -0.051861838 -0.021989696 -0.06713504 -0.022619972
0003c0 0f e4 09 be eb 2e 0d be 7c 61 be bd 74 31 e2 bd
       -0.13465904 -0.13787429 -0.092959374 -0.11044589
0003d0 00 c9 cf bd 65 39 a7 3c c2 05 1e 3c 36 fc 10 3d
       -0.101457596 0.02041311 0.009644927 0.035396777
0003e0 ce de 52 bd 7a 00 cf bd 1e 6c e2 bd 44 ab 6a bd
       -0.051482014 -0.10107513 -0.11055778 -0.057292238
0003f0 19 5a 3f bd cf cc 2f bd 48 7a ad bd 67 5e a5 bd
       -0.046716783 -0.04291993 -0.08470589 -0.080746464

bias f4 [32]
000000 49 a0 04 3d ea 3e c4 bc a7 0d 60 3c 28 43 95 3c
       0.032379422 -0.023955781 0.01367513 0.0182205
000010 a6 3f 17 3b de 5a 83 bc 56 f4 c5 bb 93 db d5 3b
       0.002307871 -0.01603454 -0.00604109 0.0065264194
000020 85 09 0a bd 97 97 03 bd 41 bd 0f 3d 57 c0 0b 3d
       -0.033700485 -0.03212699 0.035092596 0.034118976
000030 89 b7 ab ba c1 0a 16 3d 9d 4b 81 3b 26 77 11 3d
       -0.0013100962 0.03663135 0.0039457814 0.03551402
000040 1c 67 53 3c 7b f8 99 ba 1f eb b7 bc 83 7e 07 bd
       0.012903001 -0.0011747027 -0.022450982 -0.033079635
000050 dd 23 0d bd 55 cc a7 bb fb 91 e3 bc a9 7b a9 bc
       -0.03445803 -0.005120794 -0.02777957 -0.020688849
000060 13 f4 8a bc d6 7b df bb 17 81 82 3a e4 bf c0 3c
       -0.016962087 -0.0068201823 0.0009956685 0.023529
000070 0f 61 ee 3c 94 25 e5 bc d1 53 f6 3b f1 a8 5c 3c
       0.029099016 -0.02797202 0.007517316 0.013468013

running_mean f4 [32]
000000 b5 c5 2c bf 35 43 ff c0 30 35 a2 c1 d3 64 27 c1
       -0.67489177 -7.976954 -20.27597 -10.462115
000010 e1 41 76 c1 11 a5 32 c1 29 d5 42 c1 17 e4 0f bf
       -15.391084 -11.165299 -12.177041 -0.5620741
000020 c1 2e 1d c0 31 d3 3e c1 82 28 33 c1 bf 2f e5 c0
       -2.4559786 -11.92656 -11.19739 -7.1620784
000030 46 f0 5e c1 ce 95 b7 c1 6c c5 14 c1 6c d2 0b c1
       -13.9336605 -22.948147 -9.298199 -8.738873
000040 8e aa 5e c1 3a 6d 8f bd 2c 31 73 c1 9e 41 0a c1
       -13.916639 -0.07003255 -15.199505 -8.64102
000050 4a d6 95 bf fe 8a e1 c0 55 94 ea c0 6e 70 04 c1
       -1.1706021 -7.048217 -7.330607 -8.277449
000060 ad 46 25 c1 c3 3a 2f c1 64 ef 0d c1 98 3c 1c c1
       -10.329755 -10.951846 -8.870945 -9.764793
000070 0e 8d ad c1 dc 4f cc c0 06 17 5b c1 90 8a cd c0
       -21.693874 -6.3847485 -13.693121 -6.4231644

running_var f4 [32]
000000 68 0c e5 40 6c 82 d0 42 6f e1 62 42 a5 94 97 42
       7.1577644 104.25473 56.72015 75.79032
000010 98 8f 92 42 f3 7c cc 42 28 63 be 42 a1 47 7d 41
       73.28046 102.24404 95.193665 15.829988
000020 0e 05 1c 43 17 6d 9b 42 49 d7 76 42 50 20 07 43
       156.01974 77.713066 61.71024 135.12622
000030 8b fd 14 42 72 5e 6f 42 12 78 fb 41 c0 84 7a 42
       37.2476 59.84223 31.433628 62.62964
000040 4c 55 85 42 69 b5 39 3f 2c 5f 5d 43 7a 49 46 42
       66.666595 0.72542435 221.37177 49.571754
000050 36 be 73 41 8b 1f fe 41 26 3f cc 42 5e 87 5d 42
       15.233938 31.765402 102.12334 55.382195
000060 20 e8 8f 42 35 89 0e 43 4c 4b 0d 43 6d 39 bd 42
       71.95337 142.53596 141.29413 94.61216
000070 9c d2 da 42 7c 97 d7 41 04 1c f7 42 8a e2 8f 42
       109.41135 26.948967 123.55472 71.94246

weight f4 [32]
000000 52 af 05 3d 55 45 b3 3e 79 74 81 3e 26 15 b9 3e
       0.0326379 0.35013834 0.25284174 0.36148947
000010 dd 96 a0 3e b6 04 e3 3e 19 3a b8 3e 78 21 96 3d
       0.313651 0.44339532 0.35981825 0.073306024
000020 a5 54 a7 3e fa 76 f7 3e 88 a7 c6 3e c9 4e b6 3e
       0.32681766 0.4833296 0.3879969 0.35606983
000030 ff b1 02 3e 17 d0 b3 3e 37 93 f1 3e 1a ce 07 3f
       0.12763213 0.35119697 0.4718263 0.5304886
000040 c2 9d aa 3e 06 3e ef bb 36 01 fb 3e 36 1b dd 3e
       0.33323485 -0.007301095 0.4902436 0.43184823
000050 b6 4e 05 3e d8 a3 c2 3e 83 39 04 3f f8 60 95 3e
       0.13018307 0.38015628 0.51650256 0.29175544
000060 d4 49 db 3e fb 45 a2 3e ce 09 0d 3f 8d 99 89 3e
       0.42829764 0.31694016 0.55093086 0.26874962
000070 60 f3 a5 3e 21 bd b3 3d aa 99 ec 3e 65 c6 07 3f
       0.32412243 0.08776308 0.46210986 0.530371

bias f4 [32]
000000 78 c6 d1 bd 54 ea bd be a0 16 86 be 25 7e 97 be
       -0.10242933 -0.3709284 -0.26189137 -0.29588428
000010 f9 ad b9 be 4b d0 c2 be f7 79 a9 be 08 35 3e be
       -0.36265543 -0.3804954 -0.33100864 -0.18574917
000020 48 a0 01 bf 73 5c 1c bf 72 38 e9 be 30 1d f9 be
       -0.50635195 -0.61078566 -0.45550877 -0.4865508
000030 5c a2 8b be fb b5 d5 be ec 68 e9 be 5f aa 1e bf
       -0.27272308 -0.41740403 -0.45587862 -0.61978716
000040 c6 35 2a bf 64 2f ef bd c2 47 0f bf 28 55 e5 be
       -0.664883 -0.11678961 -0.5596887 -0.44791532
000050 a8 75 9b be b6 6e ee be fa 8b 22 bf c1 6a c0 be
       -0.30363202 -0.4656884 -0.6349484 -0.37581447
000060 32 88 af be 26 17 0e bf f6 db fb be 84 57 6a be
       -0.34283596 -0.5550407 -0.49191254 -0.22884947
000070 d7 a8 a2 be dc 68 9e be c0 8a a7 be 40 9c 14 bf
       -0.3176944 -0.30939376 -0.32723045 -0.5805092

weight f4 [4, 1536]
000000 8b 7f ba bc 61 1c a2 bc d0 eb 9a ba 48 08 54 3c
       -0.022765895 -0.019788923 -0.0011819545 0.0129414275
000010 ac d1 40 3c c9 c9 81 bc 97 0d c7 3b 84 ea 35 bb
       0.01176874 -0.015843289 0.006074618 -0.002775819
000020 89 8f d4 ba 35 7c b4 bc 51 bc df 3b 4e ce 89 3c
       -0.0016217093 -0.022031883 0.006827869 0.016822007
000030 fd b8 28 bb c5 58 01 bc ef 10 36 bc 03 3c 8d 39
       -0.0025745027 -0.007894699 -0.011112436 0.00026938328
000040 0e 08 4f bc 61 2f 9a 3c f9 52 8c 3d aa 12 91 bd
       -0.012636198 0.01882142 0.06851763 -0.07083638
000050 c2 80 00 3d 9a 0d a6 bb 9a 9b 96 3c 4d 09 0c bd
       0.031372793 -0.0050675394 0.018384743 -0.034188557
000060 9f 0d 95 bd 76 a5 7d bd d3 d1 1a bd 59 67 4a 3d
       -0.07277989 -0.061925374 -0.03779776 0.049414966
000070 c0 ca 19 3d ed 77 61 3d 36 61 a4 bc 50 de 11 bb
       0.037546873 0.05504601 -0.020065885 -0.0022257753
000080 e2 75 2b 3d 67 c9 cd bc c6 7e 65 bc d6 bf 39 3a
       0.04186047 -0.02512045 -0.014007276 0.0007085776
000090 c2 6a 67 bc 76 a6 1f 3c 6d d4 f4 bb ec 3f f1 3c
       -0.014124574 0.009744277 -0.007471612 0.029449426
0000a0 cc 43 fe 3b f3 a0 12 bc 6b e5 cd bb c7 53 97 bd
       0.007759547 -0.008949506 -0.0062834523 -0.07389026
0000b0 ba a9 7e 3d ec 8d 5c 3c 79 69 0f 3d 80 7b c4 3c
       0.062173583 0.013461571 0.035012696 0.02398467
0000c0 06 c2 aa bc cf cd 89 bc 6c 0a 50 bd ec cf 02 3b
       -0.02084447 -0.01682177 -0.05079119 0.0019960357
0000d0 c5 22 37 bc 8c e6 04 bd a2 44 bc 3c df f1 2a bc
       -0.011177723 -0.03244643 0.022981945 -0.010433643
0000e0 d0 97 63 bb 00 28 e9 bb 40 6c 1c bc 64 38 d1 bb
       -0.0034727938 -0.007115364 -0.009547293 -0.006384896
0000f0 66 93 b8 be bd b8 b7 bd 28 0a f9 bd 1a a0 a2 3e
       -0.36049956 -0.08970783 -0.1216014 0.31762773
000100 53 c0 92 bc 77 3b a9 3e 4d bf 71 3f a0 10 a4 be
       -0.017913973 0.3305318 0.94432527 -0.32043934
000110 86 55 ab 3e 11 d4 9f be 2b cc 58 be 9a cb 88 3c
       0.33463687 -0.3121648 -0.21171634 0.016698647
000120 d6 66 93 3e 9b bb c3 bd 3a f5 b7 be ae 9c b7 3d
       0.28789395 -0.09557267 -0.3592928 0.08965431
000130 e6 f0 6c be d6 16 8a 3e ca 23 27 3f 8e b8 08 bf
       -0.2313877 0.26970547 0.65288985 -0.5340661
000140 5e da 76 be 8e 41 80 3e bd 21 fd 3e 60 8c 0b 3f
       -0.24106738 0.25050014 0.49439803 0.5451107
000150 0b a9 7c 3e 32 a6 92 be cb 6c 11 bf ec 48 15 3e
       0.2467386 -0.28642422 -0.5680663 0.14578599
000160 f8 26 f8 be 84 24 75 bd 5e c3 1e bf 50 62 68 be
       -0.4846723 -0.059849277 -0.62016857 -0.22693753
000170 58 cc 98 3d 50 9c 44 be 94 fc b2 3e 04 57 fa b9
       0.074608505 -0.19200253 0.34958327 -0.00047748548
000180 16 67 e9 bc 46 2a 8e bd 0b 48 cd bd a7 ee a0 3d
       -0.028491538 -0.06941657 -0.10023507 0.07858019
000190 38 20 a9 bd 66 8b be bd ef 0b ba be a9 06 db bd
       -0.08258098 -0.09303932 -0.3633723 -0.1069463
0001a0 63 35 00 be 9e b8 0c be f0 fd dd 3c 58 0f d2 3c
       -0.12520365 -0.13742301 0.027098626 0.025642082
0001b0 24 c4 30 3e 28 96 7c bd 02 6b 4e be 47 0f b4 3e
       0.17262322 -0.061666638 -0.20158008 0.35167906
0001c0 5f 90 09 bf 92 dd ab bd 45 92 b1 bd af b6 86 3e
       -0.5373592 -0.083918706 -0.08670477 0.26311252
0001d0 00 24 42 3e 1e e3 93 3e bc 13 e2 3e 04 13 07 3d
       0.18959045 0.28884214 0.4415568 0.03297712
0001e0 82 df 7d 3d 35 d0 a8 3e 1a 0f a6 be f4 3f 3b 3e
       0.06198073 0.3297135 -0.32433397 0.18286115
0001f0 c5 f3 3f 3d 78 23 63 3e 9d 7e 0a bf e6 ff 1e 3f
       0.046863336 0.22181499 -0.54099447 0.6210922
000200 9a 42 67 be 07 48 34 3e b4 ac fd 3e 85 28 95 3d
       -0.22584 0.17605601 0.49545825 0.07283119
000210 8b 83 ee 3e d8 32 94 3e 29 b4 ed 3d 38 93 d4 3b
       0.46584734 0.2894504 0.116066284 0.0064872764
000220 57 29 ac 3e ae 77 23 3e 7e e7 9f be 24 c0 66 be
       0.3362529 0.15963623 -0.31231302 -0.22534233
000230 66 01 e8 3e 69 35 8a bd fc 97 35 bd 9b 9f b8 3d
       0.45313567 -0.067484684 -0.044334397 0.09014817
000240 9c 03 57 3c da 14 ba 3c e0 4d 42 3d 0f 4d df 3c
       0.013123419 0.02271502 0.04743755 0.027258424
000250 e0 c5 98 3d 4a 33 5e 3d 58 59 f0 bb b4 cd 1d bd
       0.07459617 0.05424813 -0.0073348694 -0.038526252
000260 80 26 a3 3d e9 45 00 3d 97 b3 ff bd a5 19 08 3d
       0.07966328 0.03131667 -0.12485426 0.03322758
000270 6f aa ee bd bc 98 a6 3a dc e7 77 3d 03 05 22 bc
       -0.116536014 0.0012710313 0.060523853 -0.00988889
000280 be d2 16 b9 3e 2d 21 3d 78 11 05 3e 80 aa 7f 3e
       -0.00014383622 0.039349787 0.12994945 0.24967384
000290 5c e0 80 be 9c e0 1c bf 40 2d 0b 3e 35 7a 8e 3e
       -0.25171173 -0.61280227 0.1359148 0.27827612
0002a0 37 8a 0a 3e 35 d2 22 3d 8a f5 63 bd ea bd 04 bf
       0.13529287 0.03975125 -0.055654086 -0.51852286
0002b0 73 66 15 3f 88 bc 30 bf 93 db 10 3e 25 9a 17 3f
       0.5835945 -0.69037676 0.14146261 0.5921958
0002c0 20 09 87 3e eb 14 0b bf 1b 93 ad 3b 62 57 0c 3f
       0.2637415 -0.54328793 0.0052970774 0.54820836
0002d0 ca 21 7a 3d 5c 65 57 3f 3e 72 1e 3e ed 1a 19 3e
       0.06106738 0.8413904 0.15473267 0.14951678
0002e0 ed 53 9b bd 7d c1 33 3d 3d 74 ef 3c 8c bb e3 3e
       -0.07584367 0.043885697 0.029230231 0.44479024
0002f0 80 8a 0c 3e 29 5e d1 bd c7 cc 46 bf 4a 8b 3f 3f
       0.13724709 -0.10223038 -0.77656215 0.74821913
000300 e8 b7 37 bd e9 4d bc bd 67 42 a3 bd 86 de a8 bd
       -0.04485312 -0.09194548 -0.079716496 -0.08245568
000310 0a 69 a5 bd 03 a8 3f bd be c1 03 bd ea 61 04 3e
       -0.08076675 -0.046791088 -0.03216719 0.12927976
000320 fe 23 18 bd 85 6e 44 3e b2 22 18 3d 7f ce 8b be
       -0.0371437 0.19182785 0.037142463 -0.27305982
000330 c5 45 b3 3e e9 01 02 be cf 14 c9 be c0 84 b1 be
       0.35014167 -0.12696041 -0.39273688 -0.34671593
000340 7f 8c 02 be 55 ab 01 be a5 2a b2 be 5f d3 3d 3e
       -0.12748908 -0.12663014 -0.3479816 0.18537663
000350 4a 03 d9 3d b9 74 17 be 78 aa c0 3d 41 ae 53 3d
       0.105963305 -0.1479062 0.09407514 0.051679853
000360 02 d8 13 3e fb 17 f6 3e 3c 11 56 be b4 99 1a 3f
       0.14437869 0.4806517 -0.20905012 0.6039078
000370 b8 c0 19 3e 7d 38 13 3e 7d 08 1e 3e e2 d2 23 3b
       0.15014923 0.14377017 0.15432926 0.0024997522
000380 6d d7 e9 bd fe b3 08 3e 06 97 90 bd c0 23 52 3e
       -0.11418042 0.13349912 -0.070600554 0.2052145
000390 eb c5 22 bf f5 58 15 3d ec 7e 9e bd 9f ee 07 3e
       -0.6358325 0.03646179 -0.07739052 0.1327462
0003a0 7c 2a 3b 3e 6f 82 a8 be c0 1d 1a bf 76 f8 8e bd
       0.18277925 -0.32912013 -0.60201645 -0.06980984
0003b0 ba 95 c8 bc 0a 31 8b be b6 e0 ea bd d1 88 d6 bd
       -0.024485458 -0.2718585 -0.114686415 -0.104753144
0003c0 22 03 2d bc 1b 24 a0 3c 5f 95 12 3d 7e 89 c9 bb
       -0.010559829 0.019548466 0.035786983 -0.0061504235
0003d0 32 d5 7a 3d 9a c0 d4 3c ea bd d7 bc ee 30 8f bc
       0.061238475 0.025970746 -0.026335675 -0.017479386
0003e0 c7 07 14 bd 86 4b cb bb 51 ba 0f bc 2b 59 9a bd
       -0.03614023 -0.0062040715 -0.008772449 -0.07536539
0003f0 bc 02 2e 3f c0 02 6c 3e 17 48 14 be 1f 1c 40 3e
       0.6797292 0.23047924 -0.14480625 0.18760727

bias f4 [4]
000000 ce 87 a5 3d 2c b8 a4 3d 1e 1c aa 3d c6 29 ad 3d
       0.08082543 0.080429405 0.08306144 0.08455233
