dev/breakout_3500.pth (torch_old, 199624 bytes, 20 tensors)

weight f4 [16, 2, 5, 5]
00000000: 5813 5a3f 7d9e 0e3f 048a 04be 1a34 0bbf
00000010: 1771 11bf f6d5 38bf 2b6d 2fbf baf5 a83e
00000020: 7e55 cebe 1e39 a53d a6d3 5e3e 2d40 50bf
00000030: 62cf a5bf 53dc e9bf 82b7 34bf 17ad 1840
00000040: ba94 fc3f cc01 543f c9bd f43d 9315 e63e
00000050: 5569 b8bf f31c bbbe d4a1 22be c53b 84be
00000060: 2383 f83f c04e da3f 1ac1 0c40 f21b b5be
00000070: dfc7 193f 34b3 bb3d 8390 d1bf 523a c4bf
00000080: ce27 8f3e 504c 3f3e c487 6d3f 3f0f 08be
00000090: fd85 02bf 1cf0 ec3e d43c a23f 6c25 663f
000000a0: 508b 8bbe 70f8 4dbf 5795 57bf f0a4 503d
000000b0: bbbf 03bf 996d 53bf 3912 aebf 5c96 033f
000000c0: de0e 4f3e e48f 983f a7eb 293e ac1e 2e3e
000000d0: 17f3 aa3d 4779 473e 5871 5d3e 1f61 a93d
000000e0: 6e31 f43d 502d 4d3e ecba 133d 53a4 003e
000000f0: 28b0 e2bc 454b 94bd fab4 543d 360a 383e
00000100: d2cc db3c 08c3 11be 277a babd 5482 d23d
00000110: 7cf4 7f3d 527b fd3d bb18 843e f5e6 683d
00000120: 613e d03d 271c 353e 541a 073e 9778 3f3f
00000130: 1fc4 923e dc2b 7dbe 012a ad3e d5f1 7a3e
00000140: 8650 56be ca7c 8b3e 0955 46be ce2a 603e
00000150: 69cd 013e 4a6e a6be a5a9 2b3e 33b4 fdbd
00000160: 5e9e 593e 1511 0abc 8d7f 773c 82a9 743e
00000170: 58aa c83d 0dfd 033e 2e90 9abd 6e92 443f
00000180: 7d70 863e 0849 41be 6a39 3abe c167 8dbe
00000190: e7bb 99bc 8a78 5bbc 78a9 683d 276c 6f3d
000001a0: 7e48 df3c b88c c7bb 49fe 673d d825 9cbd
000001b0: 718b c73d ddae 8ebc b6ab 363e 1b63 873d
000001c0: 53e8 59bd 06ca bd3d c52e 33bc 532f 02be
000001d0: e6a9 2c3d a88f f2bb 5e8b bcbd 06a0 03bc
000001e0: 7962 913d 3bcf 33bd 7f35 92bd 4349 a73d
000001f0: 4312 d53d d7d3 143d b91e a8bd 6241 a5bd
00000200: 18df 5abc 2dfe 5cbe 10f2 623d 5866 793d
00000210: 85fc b23c 8a92 77bd fc10 d43c dbd6 693e
00000220: d6a8 203e 8fd6 d73c ab7b 0abe 55d6 9c3e
00000230: f6b8 d93c 3030 013e 5cad 7cbe a628 a4bd
00000240: 123f 183e f0ee 2fbd ef8b 72be b3dd a6bd
00000250: 0364 043e da17 38bc 7bde 893e d488 05be
00000260: b73c 3c3d f15a 723d 89c0 c53e ab51 e83e
00000270: 781a a13e 53de f43e 934f 833e fb73 a33e
00000280: 395b 91bc bb75 5e3e 31d8 8bbd beba 463d
00000290: 4cb9 bbbd 7963 ae3e 4366 733e 5aaa dd3d
000002a0: 1a67 1d3f 3d8c a93e 96f9 f33d 8e28 afbe
000002b0: 88a9 04bf d9d0 dcbe f170 bdbe 8891 b4c0
000002c0: 07ec 92c0 da8b ac3f 402d 353f 11fd 2cc0
000002d0: 8e8e 89c0 5078 4cc0 959d 1e40 1ebb df3f
000002e0: 7fa4 88bd 1623 1cbe c42e 223f ff04 c43f
000002f0: a63a d73f a7f2 1bbd a182 883f ea97 d43f
00000300: ba52 0c40 86f9 2440 edb1 e63e 9617 ff3f
00000310: b1c3 3bbc 6214 033e 422b 583f 0bb0 1f40
00000320: 005a e03e 714e 053f b22a cf3e c019 60be
00000330: 9753 9bbe 7107 0abf b70f 96be 158a 5ebe
00000340: 45ff 81bf 9583 0dbf f45e 71bf 169b 89bf
00000350: 0217 44bf 0339 63bf 4e14 2abf 13b5 563e
00000360: 18c6 72be eb67 753e 843a 5d3c 5bb7 9ebe
00000370: 7625 93be af31 983e d26b 99be c8a7 063f
00000380: 8f85 9fbe ee83 b33d 8761 8ebf 283a b3bf
00000390: ba13 0fc0 4209 2cbe 4497 49bf e3dc 6cbf
000003a0: dd92 e0bf 7a88 acbf a552 d5bf a67a 913f
000003b0: 0458 cfbe 16a8 06c0 ab6c 20c0 0229 a2bf
000003c0: 5eac 4bbf 3a04 d4bf b50a 11c0 ea0e dabf
000003d0: d7c3 23c0 86d2 debf 49e3 9ebf d403 44bf
000003e0: 0ad5 cdbf 88e4 fdbe 49dc 6bbf 9e7e 89be
000003f0: 9943 84bf f12e 70bf 23df b1bf e718 d03f
0.85185766 0.55710584 -0.12943274 -0.54376376 -0.56813186 -0.7220148 -0.6852595 0.32999974
-0.402996 0.08067535 0.21760425 -0.81347924 -1.2953913 -1.8270363 -0.7059251 2.3855646
1.9732888 0.8281524 0.11950261 0.44938335 -1.4407145 -0.36545524 -0.15882045 -0.2582685
1.941502 1.7055283 2.199286 -0.35372883 0.60070604 0.0916504 -1.6372226 -1.5330298
0.27960056 0.18681455 0.92785287 -0.13287066 -0.509857 0.4627694 1.2674813 0.8990085
-0.27254725 -0.8045721 -0.8421225 0.050938547 -0.5146443 -0.8258911 -1.3599311 0.51401305
0.20220515 1.1918912 0.165938 0.17003888 0.08347147 0.19479857 0.21625268 0.082704775
0.119234905 0.20036817 0.036066934 0.12562685 -0.027671888 -0.07240919 0.051930405 0.17972645
0.026831064 -0.14234555 -0.0910533 0.10278764 0.062489018 0.12377037 0.25800118 0.056860883
0.10168148 0.1768652 0.13193637 0.7479338 0.28665254 -0.24723762 0.3382111 0.24506314
-0.20929155 0.27243644 -0.19368376 0.21891329 0.12676014 -0.3250602 0.16763933 -0.12387886
0.21251819 -0.008426924 0.015106094 0.23892787 0.097981155 0.128895 -0.07547031 0.76785934
0.26257697 -0.18875515 -0.18185964 -0.2761822 -0.018766357 -0.013395438 0.056802243 0.05845275
0.027256247 -0.006089773 0.05663899 -0.076244056 0.09743393 -0.017417366 0.1783894 0.066107
-0.053200077 0.092670485 -0.010936444 -0.12713365 0.042154215 -0.007402379 -0.0920627 -0.008033758
0.0709886 -0.043898802 -0.0713911 0.081682704 0.10403874 0.03633484 -0.08208985 -0.080691114
-0.013358854 -0.21581335 0.05540663 0.06088862 0.021848926 -0.060442485 0.025887005 0.22835867
0.15689406 0.026347427 -0.13523738 0.30632272 0.026577454 0.12616038 -0.24675506 -0.080155656
0.1486781 -0.042952478 -0.23686193 -0.081477545 0.12928776 -0.011236155 0.26927552 -0.13040477
0.04595634 0.05916876 0.38623455 0.45374808 0.31465507 0.4782587 0.25646648 0.31924424
-0.017743694 0.21724598 -0.068283446 0.048517935 -0.09166202 0.34060267 0.23769478 0.108235076
0.61485445 0.33114806 0.11912839 -0.34210628 -0.51821184 -0.43128088 -0.3700023 -5.642765
-4.591312 1.3480179 0.7077217 -2.702946 -4.2986517 -3.1948433 2.478368 1.7478979
-0.06672 -0.15247759 0.6335261 1.5314025 1.6814773 -0.03807321 1.0664865 1.660886
2.1925492 2.5777297 0.45057622 1.9929073 -0.011460231 0.12800744 0.84441006 2.4951198
0.43818665 0.5207282 0.4046226 -0.21884823 -0.3033721 -0.53917605 -0.29308864 -0.21732362
-1.0156027 -0.55278903 -0.9428551 -1.0750453 -0.7659761 -0.8875887 -0.6643723 0.20967512
-0.2370838 0.23965423 0.013502721 -0.30999264 -0.28739518 0.29725406 -0.29965073 0.52599764
-0.31156585 0.08765398 -1.1123513 -1.4002123 -2.235579 -0.16800407 -0.7874644 -0.92524546
-1.7544819 -1.3479149 -1.6665846 1.1365554 -0.40496838 -2.1040092 -2.5066326 -1.2668765
-0.79559886 -1.656379 -2.2662785 -1.7035801 -2.558828 -1.7407997 -1.2413112 -0.7656834
-1.6080639 -0.49588418 -0.92133003 -0.26854414 -1.0333129 -0.93821627 -1.3896221 1.62576

bias f4 [16]
00000000: 7985 2abc 0b63 87bd 4391 f2bd 08af 43bf
00000010: d0dc 73bf 43ea 5d3e 3daa 4a3f b885 84bf
00000020: fcaf 163f d6c4 473f e04c 54bd 3493 08bf
00000030: 7283 7ebf 1eae 5abf 223b 41bf be7f e9be
-0.010407799 -0.06610688 -0.11844113 -0.7643895 -0.9525881 0.21671395 0.79166013 -1.0353308
0.5886228 0.7803472 -0.051831126 -0.53349614 -0.9941932 -0.8542193 -0.75480855 -0.45605272

running_mean f4 [16]
00000000: e97c d6bd c127 563e 84aa 90bd 3745 e6be
00000010: 2b81 d6bf 993a 6e3d 7ad4 a8bc de89 82bf
00000020: 9861 e63e a43a 1d3e 6efc 6f3d d0b0 a6bf
00000030: a740 cfbf fcaf e9bf 13b8 59bf eb5b 68bf
-0.104730435 0.20913602 -0.07063773 -0.44974682 -1.6758169 0.05816135 -0.02060913 -1.0198324
0.44996333 0.15354401 0.058590345 -1.3022709 -1.6191605 -1.8256831 -0.850465 -0.90765256

running_var f4 [16]
00000000: a0c1 8e3e 1314 4d3e 956f ce3b 18f6 c83e
00000010: ca22 dd3f 8274 493e 71cd 0340 98e9 953e
00000020: ff21 823e 2a84 a83f 8688 0a3d 175f e43f
00000030: 97f0 ae3f 7da6 4140 3c67 a43e d44e 2d3f
0.278821 0.20027189 0.0062999227 0.39250255 1.7276242 0.1967335 2.0594141 0.2927978
0.25416562 1.3165333 0.033821605 1.7841519 1.3667172 3.0257866 0.32110012 0.6769841

weight f4 [16]
00000000: 7bb0 6c3f 4be3 c73d 8232 073c a2d8 c53e
00000010: b8d4 c33f 2901 403f 48ce b53f bab7 473f
00000020: 76d1 9a3f 370b 8d3f a74f 0f3c 5326 dc3f
00000030: 61e8 df3f 653e a53f e419 4d3f 72a3 a63f
0.9245679 0.097601496 0.008251788 0.3864184 1.5299292 0.7500177 1.4203577 0.7801472
1.2095172 1.1019047 0.008747018 1.7199196 1.7492791 1.2909666 0.8011763 1.301863

bias f4 [16]
00000000: ff15 84bf 9329 bdbe 3d9a 84bd 70b5 42be
00000010: 9e95 2abf b92d 09bf b3b8 79bf fead 62bf
00000020: fb44 18bf 1f2e 28bf e177 84bd 7f2e b5bf
00000030: e9f2 7bbf cf95 62bf 279f dabe 14bb 43bf
-1.0319213 -0.3694578 -0.06474731 -0.19014525 -0.6663455 -0.5358539 -0.97547454 -0.8854674
-0.59480256 -0.65695375 -0.064681776 -1.4154814 -0.98417526 -0.8850984 -0.4269955 -0.76457334

weight f4 [32, 16, 5, 5]
00000000: a173 67bc 917c cdbf e69f 41bf 895a 9cbe
00000010: 14cd 6cbf dd9e fa3f e24d f2bf 7a1f 02be
00000020: 2439 80bf 10c3 9f3f 4633 1740 45c3 f5bd
00000030: d4b6 dd3e ec49 95be 8f84 523e 6db9 343f
00000040: 6b77 5abf e0fa 8e3f fb93 b03e 0b80 e3be
00000050: 274e e4be b977 e2be f178 a7bd 734c 313f
00000060: 72fc b6bf 261c 7f3d 8810 5ebd 19d4 35be
00000070: 1381 ccbd fa70 673c 31e7 5a3c b1f2 103e
00000080: e3d5 39bd e283 51bd c634 943d 6e24 b03e
00000090: 5e19 9f3d e60e 973c cf32 283d 9510 133e
000000a0: 51d4 2f3d b165 a0bb ab10 1b3e 5079 9dbe
000000b0: fa67 ab3c a87d 2cbd 0574 903d aa40 943d
000000c0: 7cd1 923d 15e2 813d 691f d8bc bf5e 843b
000000d0: 791e debc aff2 aebb 8981 62bc 19c2 a23b
000000e0: 6cc5 08bd 32e1 d1bc 0270 303c 02f7 3cbd
000000f0: 5f3b cc3c 4eca 16bc edc8 29bd 7386 273d
00000100: f539 ddbc 7d66 54bd 426b 02bd b78c f9bc
00000110: d53f 3f3c d429 c3bc 6050 78bc 140e aabd
00000120: 7522 bb3b 228f d6bc 1dff 743c 64a0 edbb
00000130: b87f 39be 09d8 34bf 37d8 43be 268d 7e3c
00000140: bd99 383f 578d 693e 5a66 0bbe 5c4f 8ebf
00000150: a23a 20c0 71bf e9bc 32d2 2e3f 6465 26be
00000160: 3f31 843d 2b25 d5bf cbdc e33e 096d 0cc0
00000170: ba51 143f 3d15 c3bf 5b17 e43d fd85 b4be
00000180: 5844 bcbf c8d3 db3e 914d 9e3c 5ec2 963f
00000190: e132 5c3f 8c11 9b3a 70a4 a43f 6743 8ebe
000001a0: dcfa 24bb a029 5d3d a6cb 593f 5a12 a8bf
000001b0: 32c7 f7bf 4da8 04c0 a25d 15c0 46dd 0ebf
000001c0: bc3e 7abf ebac 6a3f 3fb9 86bf 3715 283f
000001d0: de9f ddbe 7997 18bf 30b5 703f 47e8 f13f
000001e0: 6067 cd3f 287f b13e 6463 a5be b7b1 9cbf
000001f0: 08e8 a9bf 35fa e33e 3fd7 6e3d 331e b5bf
00000200: 47e0 6ebf e59a f53e 90db 293f 2f19 fbbc
00000210: 35e0 4c3e af40 9f3f 899f 23bc 7ff3 c93e
00000220: ce71 55bf f1dd 2c3f 6e4a afbe bcb2 2bbf
00000230: a657 363f 451f 4ebd c819 3ebf 5eb1 1bbf
00000240: efbf 1340 d4ff 94bf 7983 f0bf 7b6f afbe
00000250: 1e4f 5dbf 495f 6a3f acd4 7bbe 2ddc febe
00000260: 5abc 88bf 7a8a fbbf 0a98 47be 24ad 0940
00000270: 71eb 9bbf c92b 3abe f6f4 483f 5ea8 dfbd
00000280: 5ce3 783e 0e81 e5bf e30a d5be 46f0 e9bd
00000290: 71c5 f9bf 4003 b5bf cbd0 3fc0 fe8b e7bf
000002a0: c848 6a3f d93d 04bf 677e e73e 204e 1fbe
000002b0: c94d c8be f0e2 473f 96ec 13bf 95e0 563f
000002c0: 62b6 cbbf 0938 bebf 20e8 d8bf 3bc9 24bf
000002d0: b1e2 75bf da70 4a3f 868a d4be d49f 08be
000002e0: 593d 82bf e03d e83e 1ef0 b4be 680e 15c0
000002f0: 31c9 ffbf bae2 2e3f 487e e53e a755 153f
00000300: 3b32 27be 66c8 f7bd c96d dd3f e6cd b23e
00000310: d62c db3d 2bfe 78bf 10a7 39bd 403b 9bbc
00000320: 3161 0a3f 3b17 b43e e15b ab3e 8e34 c33e
00000330: 0247 713e 64c9 3cbf 4a25 bbbd b999 72bf
00000340: eff3 47bf 45a7 0fbf a496 233f cae0 1bbf
00000350: 5534 c7bf 90ed a2bf 5fad 0fbe f11d fb3d
00000360: 14b2 97bf 1740 65bd 16e0 f0be 5054 37bf
00000370: 5f99 9fbf 7cbb adbf 46b8 e03d c7fb 4dbf
00000380: ecfe 5bbf e5fb 04c0 fc48 42bf 337c 8ebf
00000390: 406d 4cbf 0731 7c3f 1d15 2d3f 9d5a 7b3f
000003a0: 6713 30bf 7cd2 743f a5d6 04bd fb4a c23f
000003b0: 0a1d a93e 8aaf dcbf 856d 83be 88d2 65bf
000003c0: 54f1 67bf 405e d03e f912 48c0 48aa 743f
000003d0: d15a cd3c 8d70 20be e3f9 37c0 735f b43f
000003e0: b1b9 63bf b029 3abf 9408 2bbc 842e f5bc
000003f0: 8acb bc3c d7cf 46bc afb9 ebbc 9dfd f23c
-0.014126689 -1.605364 -0.7563461 -0.30537823 -0.92500424 1.9579731 -1.8930018 -0.1270732
-1.0017438 1.2481403 2.3625045 -0.12000135 0.4330355 -0.2915796 0.2055838 0.7059544
-0.8533847 1.1170311 0.344879 -0.44433627 -0.44590876 -0.44231966 -0.081773646 0.6925728
-1.429579 0.062282704 -0.054214984 -0.1775669 -0.099855565 0.014126057 0.013360784 0.1415508
-0.045369994 -0.051151164 0.07236628 0.34402794 0.0776851 0.018439721 0.04106408 0.14361794
0.04292709 -0.004894935 0.15143077 -0.30756617 0.020923603 -0.042112023 0.07053379 0.07238896
0.07168862 0.0634195 -0.026382165 0.004039615 -0.02711414 -0.0053389887 -0.013824829 0.004966986
-0.0333914 -0.025620077 0.010768892 -0.046134003 0.024930654 -0.009203507 -0.041451383 0.040899705
-0.027005175 -0.051855553 -0.03184057 -0.030462606 0.011672934 -0.023823656 -0.015155882 -0.083034664
0.0057108947 -0.026191298 0.014953402 -0.007251786 -0.18115127 -0.70642143 -0.19125448 0.015536582
0.72109586 0.22807823 -0.13613263 -1.1117969 -2.5035787 -0.02853367 0.6828948 -0.16249615
0.064547054 -1.6651968 0.4450439 -2.194155 0.57937205 -1.5240856 0.11137267 -0.35258475
-1.4708357 0.42935014 0.019324096 1.1778066 0.86015135 0.0011830791 1.2862682 -0.277858
-0.0025173938 0.053994775 0.8507637 -1.31306 -1.9357665 -2.0727723 -2.33384 -0.55806386
-0.97751975 0.916701 -1.0525283 0.6565737 -0.4328603 -0.5960613 0.9402647 1.889901
1.6047173 0.34667325 -0.32302392 -1.2241734 -1.3273935 0.4452683 0.058310743 -1.4149841
-0.9331097 0.47969738 0.6635065 -0.030651657 0.20007403 1.2441615 -0.009986767 0.39443585
-0.8337678 0.67526156 -0.34236473 -0.670696 0.7122749 -0.05032279 -0.7425809 -0.60817516
2.3085897 -1.1640573 -1.8790122 -0.3426474 -0.8644885 0.91551644 -0.24592847 -0.49777356
-1.068248 -1.9651635 -0.19491592 2.1511927 -1.2181226 -0.18180765 0.7849878 -0.10920785
0.2430548 -1.7930009 -0.41609868 -0.11422782 -1.9513379 -1.4141617 -2.9971187 -1.8089597
0.91517305 -0.5165687 0.45213625 -0.15557146 -0.39121845 0.78080654 -0.57782876 0.83936435
-1.5915034 -1.486085 -1.6945839 -0.64369553 -0.9604903 0.7907845 -0.41511935 -0.1334222
-1.0174972 0.45359707 -0.35339445 -2.3290043 -1.9983274 0.6831471 0.44822907 0.5833382
-0.16327755 -0.1209877 1.7299129 0.34922713 0.10701911 -0.9726283 -0.04532534 -0.018949151
0.5405455 0.35173973 0.33468536 0.38126034 0.23562244 -0.737448 -0.09137972 -0.9476581
-0.7810659 -0.5611461 0.63901734 -0.60889876 -1.5562845 -1.2728748 -0.1403098 0.1226157
-1.185122 -0.055969324 -0.47045964 -0.71613026 -1.246868 -1.3572841 0.10972647 -0.80462307
-0.85935855 -2.0778744 -0.75892615 -1.1131653 -0.798542 0.9851231 0.6761034 0.9818514
-0.68779606 0.95633674 -0.032431263 1.5179132 0.33029968 -1.724107 -0.25669494 -0.8977437
-0.9060261 0.40696907 -3.126158 0.9557233 0.025067719 -0.15667935 -2.8746269 1.4091629
-0.8895522 -0.7271986 -0.010439057 -0.029929407 0.023046274 -0.012134514 -0.028775064 0.029661948

bias f4 [32]
00000000: fff3 9fbe af9e 8b3e 088a 30be 21b9 b33e
00000010: 8d9a 7d3e b56e 41be e5a7 0f3e 6596 edbd
00000020: 1fc2 1abd 1ee0 1b3e 854c a2bd eaff a73d
00000030: b07d ca3d 29fa ec3d f27d 50be 60a1 313e
00000040: 1234 d2be aabb 38bd edec 153d cbf9 9c3d
00000050: ee36 7e3e 7e39 b9bd a8fa 96be a779 21be
00000060: 22f2 923d dfbf 37be b647 18be e9a1 adbc
00000070: e494 57bc 9d84 653e 94ef 73bd d2fc 573d
-0.31240842 0.27269503 -0.17240155 0.3510218 0.24765988 -0.18889888 0.1402889 -0.11600951
-0.037782785 0.15222213 -0.07924751 0.082031086 0.09887254 0.11571152 -0.20360544 0.17346716
-0.41055351 -0.045100845 0.036602903 0.07664832 0.24825642 -0.09044169 -0.2948811 -0.15769063
0.071750894 -0.17944287 -0.14871106 -0.021195369 -0.013158057 0.22413869 -0.05955465 0.052731343

running_mean f4 [32]
00000000: cf97 41c0 2b72 0cc0 c876 47bf 2f34 57c0
00000010: 222a 66bf bbf4 40c0 1caf 25c0 0a03 98bf
00000020: b6ed 3cc0 484f 43c0 e105 1bc0 decb 38c0
00000030: 25a6 1ec0 f0f6 2ec0 aa46 18c0 6d52 83bf
00000040: 8ee8 f8bf d9ca e6be 4f03 44c0 eb74 cabf
00000050: ae17 95c0 72f7 cfbf d878 74c0 71a0 04c0
00000060: f7f3 34c0 16e8 3ac0 d7da 78c0 14d8 d7bf
00000070: 465a 083e 19bc 0ec0 2865 e5bf de37 64bf
-3.0248907 -2.1944683 -0.7791562 -3.36256 -0.8990804 -3.0149372 -2.5888128 -1.1875927
-2.9520087 -3.051714 -2.4222338 -2.887443 -2.4788907 -2.7338219 -2.379313 -1.0259529
-1.944597 -0.45076635 -3.062702 -1.581693 -4.6591406 -1.6247389 -3.8198757 -2.0722926
-2.8273904 -2.9204154 -3.888357 -1.6862817 0.13315687 -2.2302306 -1.7921495 -0.89147747

running_var f4 [32]
00000000: 9d85 2241 193f 9541 7a85 8841 ca55 8241
00000010: ad35 5f41 7e92 5a41 7aeb a141 f8dc fa40
00000020: 1573 4941 6100 3541 8ae1 1a41 de9b 8641
00000030: fa59 2941 182e 5741 72a8 dc40 b942 7341
00000040: 198a ab41 6d23 1a41 38fb 3a41 fc97 2c41
00000050: 1478 4241 5895 2d41 94ec 8841 b771 1841
00000060: 56c7 1a41 774c 4441 c778 0d41 7600 8e41
00000070: f5e8 0b3e ce34 5641 1d38 2541 4a2e 8241
10.15762 18.65581 17.065174 16.29189 13.950604 13.660765 20.239979 7.8394737
12.590596 11.3125925 9.680063 16.826107 10.584467 13.448753 6.895562 15.20379
21.44243 9.633649 11.686333 10.787106 12.154316 10.848961 17.115517 9.527762
9.673666 12.268668 8.841987 17.750225 0.13663085 13.387892 10.3262 16.272602

weight f4 [32]
00000000: a7ac b93f eb6c f83f 1c19 3e3f 7299 f03f
00000010: 0d59 813f 8ec1 df3f a5ce 9c3f cc60 0c3f
00000020: 3f07 a23f a076 973f 23c7 8c3f ce2e b63f
00000030: e041 ab3f c50b 873f 5188 593f c220 843f
00000040: ace0 6d3f e893 593f b7e0 933f 3851 863f
00000050: f551 9c3f 6337 b43f 99ba b23f 8312 803f
00000060: bfd8 923f 8b38 d43f d1f0 903f 0f70 733f
00000070: db0e 133b 0f7b ae3f ca1a 843f f2fb 9b3f
1.4505814 1.9408239 0.74257064 1.8796828 1.0105301 1.7480943 1.2250563 0.548352
1.2658461 1.1833076 1.0998272 1.4233034 1.3379478 1.0550467 0.8497363 1.0322497
0.9292095 0.8499131 1.1552953 1.0493536 1.2212511 1.4079403 1.3963195 1.0005649
1.1472396 1.6579756 1.1323491 0.9509286 0.0022439274 1.3631305 1.0320675 1.2186263

bias f4 [32]
00000000: 8418 94bf 853f b53d 741c 13be 8978 95bf
00000010: 73e7 42bf 177f 79bf 3b63 96bf a60a 3f3f
00000020: d6d5 49bf 95cf 45bf 3f5f 41bf 8d10 57bf
00000030: a161 bbbf 211a 09bf a68c e6be de6d 43bf
00000040: e319 60bd e62d 58bf 4992 44bf 72e9 93bf
00000050: 3cfd b4bf c805 cabf 0f19 bbbe ab0d 1abf
00000060: 0227 7fbf 2a7d d8be 6972 45bf 2318 08be
00000070: fb80 77bd 7c17 24bf 2324 70bf 44e5 27bf
-1.1569982 0.08850006 -0.14366323 -1.167741 -0.76134413 -0.9745955 -1.1749033 0.74625623
-0.7884191 -0.7726987 -0.7553596 -0.8400963 -1.4639169 -0.53555495 -0.4502918 -0.7633952
-0.054712187 -0.84445035 -0.76785713 -1.1555617 -1.4139781 -1.5783014 -0.36542556 -0.60177106
-0.99668896 -0.42282993 -0.771277 -0.13290457 -0.06042574 -0.64098334 -0.9380514 -0.65584207

weight f4 [32, 32, 5, 5]
00000000: fdfc c5bc 34b8 2b3c d605 0f3d 0260 123d
00000010: 8b2b 2cbb 9d77 c5bd 7857 823d 92fd c3bd
00000020: d1dc 94bc 36f9 8cbc 875d 36be 100d 4bbd
00000030: 0003 dcbd b148 93bc 1530 36bd b434 c43c
00000040: e7f9 b0bd bc39 9dbb e928 72bd 7f1b a3bb
00000050: b79b 9c3d 6fd0 fc3d d093 9ebd 2b43 093c
00000060: 27ff 053d a42e 8abd 213f bc3d 4fbc a63d
00000070: f38f 383c 1c45 ac3d 32d5 7dbd 0f0a 84bd
00000080: e78f ff3c ec1f da3c 3f05 aebc 4d60 1b3e
00000090: f6e2 b1bc 281b a53d 3a8a fd3c 93ba 103e
000000a0: c37a 9cbd 1cf2 593d b9ca f43c 0d3e 5a3b
000000b0: 254d 3c3c 4692 12be 0bb1 dd3c 7a9a f8bc
000000c0: f305 6fbd da25 08be fd90 d93d f79e 02bd
000000d0: 5397 8f3c 164e 873d d96c 9c3b 6616 8fbc
000000e0: ce35 973d 4f7f 1dbd 25b4 4cbd 499c 4d3d
000000f0: daf0 56bd 6ca9 683d 4474 b5bd 035c 8c3c
00000100: 5882 913d e805 4abd c8e4 bebc 1dcb 50bd
00000110: 38ae c0bd 3a22 87bd 5e63 4cbb cf22 01be
00000120: 89cd 2dbe 3b1f 22be 5343 10be a258 e93c
00000130: 0720 cdbb a448 22bd 54cb 14bd b682 08bd
00000140: c672 81bc ac45 38bd 3186 e8bd a17b f3bd
00000150: 215d 99bd 665e 82bd 3e78 97bd a218 acbd
00000160: 3897 4cbd 5ba3 abbd 2c7d 51bc 6a51 cb3c
00000170: bb6f 553d 7c53 693d 0e77 853d abfc 48bb
00000180: 3f6b 103d 1580 cc3b 9199 eebb 83ad dbbc
00000190: 9d5c 22be b895 12be 8033 a0bd c8e4 6abd
000001a0: 8120 34bd 50e8 e8bd cdb4 b6bd 33e3 94bd
000001b0: 1925 8fbd 1274 eabd 7001 80bc d312 9ebd
000001c0: bc20 c7bc 0c12 49bd 0473 3bbd ff1b a53d
000001d0: 40cb 803d 58d9 9b3d 0e3f 3c3d ffc8 a73d
000001e0: 9316 233d 6519 193b 172d 683c bbee 823c
000001f0: 1795 bbbc b98f 92bc 9823 adbd 0248 a73d
00000200: 6a67 613d e567 b93d 7bfc c33c 3460 483e
00000210: 2271 d23b b5ab 33bc a792 573d 6101 34be
00000220: 9051 d43c a478 aeb9 770b de3c fe2c aabb
00000230: a512 cb3d fdb2 bd3d 65c6 8f3c 190e 373d
00000240: a867 b23d 2590 49bd d374 d7bd a81f 22be
00000250: 435b afbd 57ac 05be cf4c debd cf0b 97bd
00000260: 0211 babd d4de bdbd 76a4 febd 056a aabc
00000270: a290 32bd 4466 b5bd af67 82bd 8dc4 89bd
00000280: 30b8 5abd d2b3 073d ddcc e63b 7609 993c
00000290: 6a9c 043d 2d4e 433c 8b1c c13c 6a57 903d
000002a0: df92 b73c 56e5 263d e3c5 eb3c e109 35bc
000002b0: efc4 4fbd df83 b13c 3f52 1dbd 365b 413d
000002c0: 761c 3abd 66bc 9abc c261 813c b4c0 9ebc
000002d0: c3bb 8abe f9ad 5abd 7740 24bd bae4 10bd
000002e0: 9508 85bd 4aeb 64bd 8bcc 6cbd 81d0 9abb
000002f0: ef66 58bc aaeb 6fbc 5a3b 66be 5e6f cabd
00000300: 0d4a 21be f224 20be 8e9e 5abe 819e 993d
00000310: 1ad9 db3d a0cd 333d 502c 2c3e 96a5 433e
00000320: 07fb d6bd 8ea0 95bd 0e20 90bd 342e afbd
00000330: a901 23bd d40f f73c cf7b 7fbd bba1 d4bd
00000340: 1b10 c5bd ba4e d1bd 8022 aa3c b55a 2ebd
00000350: e665 eb3c 8316 e13c 2de5 a13c 8af0 343c
00000360: 992a ac3c 47a4 223d 5b08 c9bb 5c89 15bc
00000370: 0881 20bc 05e6 0bbd 45be cfbc 76f2 43bd
00000380: 8467 573d 32ba 99bd 4d64 d33d 75c9 42bd
00000390: 410f 9fbb 8234 06bd bd50 94ba 2f79 b9bc
000003a0: 1d61 3fbc f2da d6bc a178 3a3d 8b8b cabb
000003b0: 146d 54bd bc23 b4bc 197e 89bd 854d b9bc
000003c0: 0fe4 09be eb2e 0dbe 7c61 bebd 7431 e2bd
000003d0: 00c9 cfbd 6539 a73c c205 1e3c 36fc 103d
000003e0: cede 52bd 7a00 cfbd 1e6c e2bd 44ab 6abd
000003f0: 195a 3fbd cfcc 2fbd 487a adbd 675e a5bd
-0.024168486 0.010480929 0.034917675 0.03573609 -0.002627107 -0.09641955 0.063643396 -0.09569849
-0.0181717 -0.017208677 -0.17809115 -0.049573004 -0.1074276 -0.017978998 -0.04447945 0.023950912
-0.08641415 -0.0047981422 -0.059121046 -0.004977643 0.07646888 0.12344443 -0.07743037 0.0083778305
0.032714035 -0.06747177 0.091917284 0.08141386 0.011264789 0.08411619 -0.061970897 -0.06447231
0.031196548 0.02662655 -0.021242736 0.15173455 -0.021714669 0.0806182 0.0309497 0.14133672
-0.076406024 0.05320941 0.029881822 0.0033301145 0.011493002 -0.14313611 0.02706196 -0.030347098
-0.058355283 -0.13295689 0.106233574 -0.031889882 0.017528212 0.066066906 0.004773718 -0.017466735
0.07383309 -0.03845149 -0.049976487 0.050197873 -0.052475788 0.0568022 -0.088600665 0.017133718
0.07104939 -0.04932204 -0.02330245 -0.050974954 -0.094082296 -0.06598325 -0.0031187157 -0.12610935
-0.16972937 -0.15832226 -0.14088182 0.028484646 -0.0062599215 -0.039620057 -0.03632672 -0.03332778
-0.015801799 -0.04498832 -0.1135372 -0.11888815 -0.07488466 -0.06365661 -0.07395981 -0.08403136
-0.0499489 -0.08380767 -0.012786191 0.024819095 0.052108508 0.056964383 0.065168485 -0.003066818
0.035258528 0.0062408545 -0.00728149 -0.026816135 -0.15855642 -0.14314926 -0.07822323 -0.05734709
-0.04397631 -0.11372435 -0.08921204 -0.07269897 -0.06989498 -0.1144792 -0.015625685 -0.07718434
-0.024307601 -0.049089476 -0.045763984 0.080619805 0.06288767 0.076098144 0.04595857 0.08192634
0.03981645 0.0023361084 0.0141709065 0.015982976 -0.02289824 -0.017890798 -0.084540546 0.08168031
0.055030264 0.090530194 0.023924103 0.19567949 0.006422178 -0.010966231 0.052630093 -0.17578651
0.025917798 -0.0003327775 0.027105076 -0.005193352 0.099156655 0.09262655 0.017550657 0.04469118
0.08711177 -0.049209733 -0.10520329 -0.15832388 -0.08562329 -0.13054024 -0.10854494 -0.07375299
-0.09085275 -0.09271017 -0.12433712 -0.020802507 -0.043594964 -0.08857396 -0.06367432 -0.06726942
-0.05339831 0.033130474 0.0070434646 0.01868127 0.03237573 0.011920494 0.02357318 0.07047923
0.0224089 0.040746056 0.028780883 -0.011049719 -0.05072492 0.021669326 -0.038408514 0.047206126
-0.0454373 -0.018888664 0.015793685 -0.019378997 -0.27096376 -0.05338857 -0.04010054 -0.03537438
-0.064957775 -0.05588845 -0.057812255 -0.0047245626 -0.013208135 -0.014643589 -0.22483578 -0.09884523
-0.15750904 -0.15639094 -0.21349546 0.07500935 0.10734768 0.04389727 0.16813779 0.19106135
-0.104970984 -0.07306014 -0.07037364 -0.085537344 -0.039796505 0.030158915 -0.062373932 -0.1038241
-0.096222125 -0.10220094 0.020768404 -0.042566974 0.028735112 0.027476555 0.0197626 0.011043677
0.021016406 0.03970745 -0.0061350293 -0.009126987 -0.009796388 -0.03415491 -0.025359282 -0.04783865
0.052588955 -0.07506217 0.10321865 -0.047555406 -0.0048541133 -0.03276492 -0.0011315566 -0.022640793
-0.011680868 -0.026227448 0.045525197 -0.0061811856 -0.051861838 -0.021989696 -0.06713504 -0.022619972
-0.13465904 -0.13787429 -0.092959374 -0.11044589 -0.101457596 0.02041311 0.009644927 0.035396777
-0.051482014 -0.10107513 -0.11055778 -0.057292238 -0.046716783 -0.04291993 -0.08470589 -0.080746464

bias f4 [32]
00000000: 49a0 043d 2e4f 2fbd 28d1 133d 9f5b 143d
00000010: 4e6a 9c3b 861a 103e db34 3fbd d877 3fbe
00000020: a310 aabc 6503 bebd adbe 043d 18af 0a3d
00000030: 89b7 abba 6aa4 343d 1877 1b3c c2d2 25bd
00000040: f2cb 913d 7bf8 99ba 283f 1bbc cd48 b33c
00000050: dd23 0dbd 4c86 913c 3d1c a9bc 724e 36bc
00000060: d14f 26bc dd7c f23c 70bb 4bbc 7e62 83bc
00000070: 8f98 df3c 9425 e5bc 34fb 823d b884 ec3c
0.032379422 -0.04280012 0.03608814 0.03622019 0.0047734147 0.14072618 -0.046681266 -0.1869806
-0.020759886 -0.09277991 0.032408405 0.03385839 -0.0013100962 0.04410211 0.009488843 -0.040484197
0.071189776 -0.0011747027 -0.009475507 0.0218853 -0.03445803 0.017764233 -0.020643348 -0.011127101
-0.010150866 0.029600555 -0.012434825 -0.016038176 0.027294425 -0.02797202 0.063955694 0.028871879

running_mean f4 [32]
00000000: 8be1 98bf 06c1 07c0 5210 87c1 3658 89c1
00000010: 20da 8cc1 7e6a 48c1 46bf 85c0 f11f a8c0
00000020: fb95 753e ed36 12c1 df69 49c1 24a4 32c1
00000030: 000f 3ac1 8cba d6c1 ed86 71c0 99dd 8ac1
00000040: 33c5 83c1 ced4 a4bd ba52 ddc1 d4f4 01c1
00000050: d767 ae3d fead 78c1 893b 0ac1 3afd 05c1
00000060: 890f 3ac1 3ffe 9ec1 d4b4 95c0 eeca 14c1
00000070: 46f4 1ec1 00eb 77c0 0674 67c1 2370 11c1
-1.194383 -2.1211562 -16.882969 -17.168072 -17.606506 -12.525999 -4.179599 -5.253899
0.23982994 -9.13841 -12.588347 -11.165073 -11.628662 -26.841087 -3.7738602 -17.358202
-16.471289 -0.08048402 -27.665394 -8.1222725 0.085159 -15.542479 -8.639535 -8.374323
-11.628793 -19.874144 -4.6783237 -9.299543 -9.934637 -3.8737183 -14.465826 -9.089877

running_var f4 [32]
00000000: a855 d53f 717f e942 5d63 bd42 e69b aa42
00000010: 89a3 ed42 00bf 1943 df0c c342 c45b ca41
00000020: 900d 9d42 a87e 8542 809e a442 e467 9342
00000030: 6f49 0842 0156 2443 0d71 8542 93b9 b842
00000040: 2844 0343 55d9 3a3e 43a6 0a43 85e3 5f42
00000050: 4ac8 8240 b5e0 b342 ce67 7b42 79d3 8342
00000060: a534 8842 7329 e242 6084 0b43 97a3 1843
00000070: d98f b342 c18d 5c41 9e51 eb42 9bd3 8042
1.6666765 116.74891 94.69407 85.30449 118.819405 153.7461 97.52514 25.294807
78.52649 66.747375 82.30957 73.70291 34.071712 164.33595 66.7208 92.36245
131.26624 0.18246968 138.64946 55.972187 4.0869493 89.93888 62.85137 65.91303
68.10282 113.080956 139.51709 152.63902 89.78095 13.784608 117.65941 64.41329

weight f4 [32]
00000000: 52af 053d 889a 973f 7738 8e3f 43c1 813f
00000010: a7c3 b53f 8378 aa3f 07f7 af3f d1be 7d3f
00000020: 1847 c63f 0bc0 b73f ed13 b43f 2d6b b93f
00000030: ffb1 023e a0fb ad3f a1ba b03f 3493 c83f
00000040: e72a cf3f 063e efbb 5656 ba3f 59e9 c53f
00000050: e0c7 c93d 4cf6 af3f 7f77 ef3f 24d2 953f
00000060: cd26 da3f 5814 b53f 47e4 a33f 46dc d93f
00000070: 797e db3f 21bd b33d b38b 9f3f 81e1 c93f
0.0326379 1.1844034 1.1110982 1.0137104 1.4200333 1.3318027 1.3747262 0.9911929
1.5490446 1.4355482 1.4068581 1.4485832 0.12763213 1.3592415 1.3806955 1.5669923
1.6184968 -0.007301095 1.4557598 1.5461837 0.09852576 1.3747039 1.8708342 1.1704755
1.7043091 1.4146833 1.280404 1.7020347 1.7147971 0.08776308 1.2464508 1.5771943

bias f4 [32]
00000000: 78c6 d1bd afb7 d8bf 2c12 b5bf 4c64 b4bf
00000010: 1afd eabf 04b9 80bf 08db cabf b992 28bf
00000020: 3ea5 03c0 7ea4 a7bf 0166 bcbf 73a1 e7bf
00000030: 5ca2 8bbe 882b aebf 15f1 ccbf d220 c4bf
00000040: b533 47c0 642f efbd 3b72 26c0 a996 e6bf
00000050: 1e97 abbe 680a d0bf 3907 d4bf b3bd 9bbf
00000060: 307a 03c0 e602 f6bf 4900 cfbf a09b a6bf
00000070: d5d2 cfbf dc68 9ebe a17e a0bf 3494 09c0
-0.10242933 -1.6931056 -1.4146171 -1.4093108 -1.835849 -1.0056462 -1.5848093 -0.6584888
-2.0569606 -1.3097074 -1.4718629 -1.8096145 -0.27272308 -1.3607035 -1.6011072 -1.5322516
-3.112531 -0.11678961 -2.600722 -1.8014728 -0.3351373 -1.6253176 -1.6564704 -1.2167267
-2.0543327 -1.9219635 -1.6171962 -1.3016243 -1.6236216 -0.30939376 -1.2538644 -2.1496706

weight f4 [4, 1536]
00000000: 8b7f babc 611c a2bc d0eb 9aba 4808 543c
00000010: acd1 403c c9c9 81bc 970d c73b 84ea 35bb
00000020: 898f d4ba 357c b4bc 51bc df3b 4ece 893c
00000030: fdb8 28bb c558 01bc ef10 36bc 033c 8d39
00000040: 0e08 4fbc 612f 9a3c f952 8c3d aa12 91bd
00000050: c280 003d 9a0d a6bb 9a9b 963c 4d09 0cbd
00000060: 9f0d 95bd 76a5 7dbd d3d1 1abd 5967 4a3d
00000070: c0ca 193d ed77 613d 3661 a4bc 50de 11bb
00000080: e275 2b3d 67c9 cdbc c67e 65bc d6bf 393a
00000090: c26a 67bc 76a6 1f3c 6dd4 f4bb ec3f f13c
000000a0: cc43 fe3b f3a0 12bc 6be5 cdbb c753 97bd
000000b0: baa9 7e3d ec8d 5c3c 7969 0f3d 807b c43c
000000c0: 0c8b 6dbc 3a41 c9bd d9e3 bbbd 72fc 20bd
000000d0: 512c 56bd c18a 28bd a244 bc3c d474 d73d
000000e0: bc95 04be ea05 56bd 406c 1cbc 6438 d1bb
000000f0: da37 1f3f cd76 07bf 42f8 663d 4618 a3bf
00000100: 8ade f13e 85db 503f 1106 aa3f f5a6 2bbe
00000110: 94df 863f 6894 883d dc8a 943e 8a94 84bf
00000120: eb03 d33d ddc3 40bf e5ee 6cbf 47b7 8b3f
00000130: c51d 813c 6d1d 91bf 7ae1 c8bd 8578 643f
00000140: fc7d 0a3f d0f8 533e e2e7 d0be 823f 013e
00000150: 46f3 d63e dcaf c13f e6ae 823f e54a 2a3f
00000160: af0d 903f b688 403c 6087 84be 24af 88be
00000170: 5fd2 eb3e 07f7 933d 7230 253f 0761 23bf
00000180: c5b4 d8be 929c 203e cbf2 38bd a23c 2e3e
00000190: d61a 1abd 3282 5b3e f65f ab3f 841e 4cbf
000001a0: 3a5f 953e 1b81 193f 2f1a 523f 16ef 16bf
000001b0: 8c0c 0fbf 2310 4a3f 367f 383f 9916 523f
000001c0: e0a2 28bf e7dc 6a3f 720e 0f3e 0baa 113f
000001d0: 5d39 2bbf 7fb8 b83d b494 e13e 222e 5bbf
000001e0: eb01 4e3e 9717 d33e def1 28bd cc56 103f
000001f0: 1639 8c3e 1f22 223f ff1a 7c3e 2c2b 743e
00000200: 12a4 953f 4405 803f 7400 aebf c524 bc3d
00000210: 9ddd d23e 53d3 503f 9633 d73d 6ac2 6a3b
00000220: ada2 253f b10f 193f 391a 4a3f 3747 763e
00000230: 0417 6abf cddf 0ebf ca0f 07be 26aa 8cbe
00000240: 9047 fcbe ece3 34be 0635 0dbe 7c77 9a3d
00000250: 6fa5 9abd 346d 9b3d 2d20 22bf e481 cd3e
00000260: 7a2a 10be 141a 4e3e 9d5c ec3d b922 d13f
00000270: e09d 9bbf c30c 6cbe 1e38 6c3e 3c01 38bf
00000280: 68ed 003b acc4 54be 692b 20bf 2b19 a13f
00000290: ba00 9a3e 9b83 1dbf 9f40 4d3d 0b9d fe3e
000002a0: 5db7 8a3f ed94 4e3e 69b3 7c3f 7038 49bf
000002b0: f4e0 a1bf b4c1 72bf 1939 ce3f 4ab3 5e3f
000002c0: a316 133f e418 de3e 303c fa3e 831a fc3e
000002d0: 905c dd3e 2fce 993f 80c9 7b3d f6e9 4ebd
000002e0: 2b4b 363f 66cd 90bf 3c96 e33d 5c7e 92bf
000002f0: 5aae 8f3f 4314 383f 96dd 0cbd 8227 543f
00000300: 4f5a 363d dbf5 73be 1c1c 61bc 8644 07bc
00000310: 53f4 a4bd 56e3 143e ef60 993e c7a3 d73e
00000320: 3e15 b7bd addb 97be ca2d 4d3e 91a9 15bf
00000330: 39a6 f2be b952 29bf c66e e5bd 7252 1c3e
00000340: 51ce 15bf 9b4b 273f 2eda 20be ea2d 2abc
00000350: 3dcb 27bb 4fb1 95bc a2a1 9ebd 73af 6ebd
00000360: 042c 9e3e b4b5 783f 5396 673e d20d e53e
00000370: 64fa 163f 20d1 e73e 8ebd 843f 80c1 b0be
00000380: 8459 3c3f bece da3e 83cb a23e ecd1 83bf
00000390: f49f c13c 9a97 823e 0571 cabe 5027 9e3f
000003a0: 1734 923f e1cf b1bf c47a c93f a267 ba3f
000003b0: 5de2 853f 1ec4 0640 9173 ad3f 20fc a63f
000003c0: 57f0 e5bc 092b c9bd 4dd2 133d 0234 573e
000003d0: 1c37 9abd 5831 03bb eabd d7bc ee30 8fbc
000003e0: c707 14bd 2021 10be 51ba 0fbc 2b59 9abd
000003f0: f847 ee3d 19b5 05bf d0d0 2e3e aba1 203f
-0.022765895 -0.019788923 -0.0011819545 0.0129414275 0.01176874 -0.015843289 0.006074618 -0.002775819
-0.0016217093 -0.022031883 0.006827869 0.016822007 -0.0025745027 -0.007894699 -0.011112436 0.00026938328
-0.012636198 0.01882142 0.06851763 -0.07083638 0.031372793 -0.0050675394 0.018384743 -0.034188557
-0.07277989 -0.061925374 -0.03779776 0.049414966 0.037546873 0.05504601 -0.020065885 -0.0022257753
0.04186047 -0.02512045 -0.014007276 0.0007085776 -0.014124574 0.009744277 -0.007471612 0.029449426
0.007759547 -0.008949506 -0.0062834523 -0.07389026 0.062173583 0.013461571 0.035012696 0.02398467
-0.014498483 -0.09826894 -0.09174318 -0.03930325 -0.052288357 -0.04114795 0.022981945 0.1052033
-0.12947744 -0.052251734 -0.009547293 -0.006384896 0.621946 -0.5291565 0.0563891 -1.2741783
0.47240096 0.8158496 1.3283101 -0.16762908 1.0536981 0.06668931 0.2901219 -1.035783
0.10303482 -0.75298864 -0.92552024 1.0915307 0.015761266 -1.1337105 -0.09808631 0.892464
0.54098487 0.20700383 -0.40801913 0.12621883 0.41982478 1.5131793 1.0209625 0.6652053
1.1254176 0.011751344 -0.25884533 -0.26696122 0.46058938 0.07224851 0.64527047 -0.63819927
-0.42325416 0.15684727 -0.04515342 0.17015317 -0.03762325 0.21436384 1.338866 -0.79734063
0.29174215 0.59962624 0.82071203 -0.58958566 -0.5587852 0.7893087 0.7206911 0.8206573
-0.6587353 0.9174332 0.13970354 0.5690009 -0.66884404 0.09019565 0.44058764 -0.8561727
0.20117919 0.41228935 -0.041246288 0.5638244 0.27387303 0.63333315 0.24619673 0.23844594
1.1690695 1.0001607 -1.3593888 0.09186701 0.41184703 0.81572455 0.10507886 0.0035821446
0.6470135 0.5978957 0.7894626 0.24050604 -0.9144137 -0.5581024 -0.13189617 -0.27473563
-0.49273348 -0.1766507 -0.13789758 0.07542321 -0.07551085 0.07589188 -0.63330346 0.4013816
-0.14078704 0.20127136 0.11541102 1.6338722 -1.2157555 -0.23051743 0.23068282 -0.71876884
0.0019672755 -0.2077815 -0.6256624 1.2585806 0.3007868 -0.6152894 0.050110456 0.4972919
1.0837208 0.20173998 0.9871126 -0.7860174 -1.2646775 -0.9482682 1.6111175 0.86992323
0.57456416 0.43378365 0.48874044 0.49238977 0.43234682 1.2016047 0.061471462 -0.05051609
0.7120845 -1.1312683 0.11112639 -1.1444812 1.1225083 0.71905917 -0.03439101 0.82872784
0.04451972 -0.23824255 -0.013739612 -0.008256083 -0.08054414 0.14539847 0.29956767 0.4211714
-0.089395985 -0.29659787 0.20036998 -0.5846186 -0.47392443 -0.6614185 -0.11202769 0.15265825
-0.5851794 0.6534974 -0.15708229 -0.010386923 -0.0025603317 -0.018273024 -0.07745673 -0.05827279
0.30892956 0.97152257 0.22615938 0.44737107 0.58975816 0.45276737 1.0370347 -0.3452263
0.7357409 0.42735857 0.31795892 -1.0298438 0.023635842 0.25506288 -0.39539352 1.2355747
1.1422147 -1.3891565 1.574059 1.4562876 1.0459706 2.10572 1.3550893 1.3045692
-0.028068705 -0.098226614 0.03608923 0.21015933 -0.075300425 -0.0020018425 -0.026335675 -0.017479386
-0.03614023 -0.14075136 -0.008772449 -0.07536539 0.11634821 -0.5222946 0.17071843 0.62746686

bias f4 [4]
00000000: 551c 6b3f a858 743f 169b 663f a8ea 6b3f
0.91840106 0.9544778 0.9008039 0.9215493
