dev/breakout_22000.pth (torch_old, 199616 bytes, 20 tensors)

weight f4 [16, 2, 5, 5]
00000000: d574 cd3d 4b3f 1a3e 42dd 26be 0227 bebc
00000010: ba88 983d 222c 0f3e 1645 19be 5eb0 46be
00000020: 6870 a1bd 86fc 013d b4c1 e7be f7bf 67be
00000030: 17ef a8bd 7ac3 a4be e2a5 c0be 6479 443e
00000040: cd26 283e 494d aa3e 4119 a53c 572b 263e
00000050: 1650 21be 9dc9 9bbd 416f 78be f532 1c3f
00000060: 6f76 4c3d c17d ac3d 329c 07be d130 c53e
00000070: ba0e 33bf 5c1b c0bd cbff 5bbe 5ef8 833e
00000080: d764 c03e 2c97 fbbd f6f4 d9be 8c7a 63be
00000090: 7290 a6be 0ccf 163e b753 813e adde b2be
000000a0: fc31 ca3e cb1f 18be fae6 84be cfc8 eebd
000000b0: fc1f 013e 5854 f7bb f370 e1be 8c91 cd3d
000000c0: e7e0 c03e 8b21 2e3e 33a1 67bd 16f5 713e
000000d0: 9daa 90bd 12c4 aebe 0902 5c3b 9efb 283e
000000e0: 3cad 033e d752 f8bd 5e8d b4bd 2bd7 dcbd
000000f0: c09e f0bc 5126 c3be 46b4 abbe 2153 9ebe
00000100: 8da9 1dbe 5dd3 63bd ce33 d03e e74f 793b
00000110: 9f0f d0be 7ac5 023f af3b 74be b415 a03c
00000120: bf61 e1bd 2a8d 673d 8def d63e afaf 41be
00000130: fe4c c33e 7101 153f 10cb 3ebe a505 1cbe
00000140: 313e 013f feb6 c6be bc33 00bd ff4e 133f
00000150: eece 8e3e ec28 523e e135 93be e309 64bc
00000160: 181c 553e e613 9e3d 8b1f 7d3d f5b1 ac3e
00000170: 11ad 473e 48da 903e 7158 bdbb 07a3 393e
00000180: bbb6 d53d 2809 a03e a469 613e b387 343d
00000190: 5c9e 633e f118 0d3e 2a97 af3d 46aa d5bd
000001a0: 5ab6 433e bafa 523e b86e 773d 8ca9 9dbe
000001b0: 2d9d c5be a17f 19be 01cd 56bd abb4 f9be
000001c0: 7020 c6bd 7021 d8bc 1dfc 7d3e f6e7 d2bd
000001d0: b936 2bbe 9c31 653e e089 3fbc bc56 9ebe
000001e0: de16 633e 4239 103f d5cd 28be 154c ae3e
000001f0: 6ea8 4abe d234 d63e dfa3 033f 3ad5 903e
00000200: 3ed1 4a3e f589 4c3e 2fde a53e 0a5f bf3e
00000210: 1501 b93e 1e35 e13e 6955 bd3d e1d2 79bd
00000220: d4e6 bb3e ba9a 0c3e 128e 073e 7cab 463e
00000230: 0589 803e b0a8 253e 422c be3e ad12 863e
00000240: 8921 f73d 6008 623d 3b55 0b3d 9345 77bb
00000250: ed9b 94bc 9c18 883c 32d0 bcbe 82dc 94be
00000260: 236c e63e ed74 793e 6733 c7bb fce0 82bd
00000270: ac21 bebe c999 eb3d 00ca 853d df67 dd3d
00000280: 8715 97be 1450 25bc 4ccf 01bf 128b cfbd
00000290: 33a9 d7be 1f80 003e 71d5 b13e 44f1 233d
000002a0: 22ae 193f 69ff 233d 53f7 353e dfaa 78bc
000002b0: 0294 d43e 7021 2c3a f6c4 dabe 134e 41be
000002c0: a3f0 a8be bca4 16bc 926c 203e e418 4abe
000002d0: 1dae 033f 630b 173f 380a 0dbe d311 7c3e
000002e0: 1836 193f 440f fb3d b9fc 1c3e b9d9 2a3e
000002f0: 09f8 e23c 72fa 023e 95fa df39 0184 153d
00000300: b699 36be 92af b53d 6779 2d3e fde7 8a3c
00000310: bbf6 873d 4d37 493d 5fb5 d0bd 5f84 efbc
00000320: 1a50 8bbe c6ae 1cbe 31f3 cfbd ac3a d63d
00000330: 5731 3f3e d0d0 cdbe aa95 cebe 0c57 b7be
00000340: 438e 503c ad5e 183e 4cb1 803e 1664 cb3e
00000350: c6f5 853e ee0c 943e cf1b 9e3e 807f 1c3e
00000360: f276 a3bd d123 c13d bc54 b93c 606d 6bbe
00000370: 743a cb3d 28af 2fbe edb5 71bd a781 5fbe
00000380: 3829 b7be e308 a83e dcad 203f 2707 65be
00000390: 73da 803c 7bcd e83d b991 623d f06f 27bf
000003a0: bc75 31bc d8bd 063f 14bf f9be aee4 33bd
000003b0: 6f09 cd3c a51e 01be 4767 a1bd 9278 c7be
000003c0: 873d 73be a56d 473e 65e0 b33d 3843 61be
000003d0: 1dd3 c7bc f87c 7f3e 3fb3 343f 60ad 093f
000003e0: 3e60 f13e 8af9 1f3e d49e 1b3e 7757 86bd
000003f0: 2e56 d03d 87f0 223e 8a16 603e 86c6 aa3d
0.100320496 0.15063207 -0.1629534 -0.02321196 0.074479535 0.13981679 -0.1496776 -0.19403216
-0.07882768 0.031734966 -0.4526497 -0.22631823 -0.08248728 -0.32180387 -0.3762656 0.19186932
0.16421051 0.3326209 0.020153644 0.1622747 -0.15753207 -0.07606814 -0.2426119 0.61015254
0.049917635 0.08422423 -0.13243178 0.38513806 -0.69944346 -0.093802184 -0.21484296 0.25775427
0.37576935 -0.12284693 -0.42569703 -0.22214717 -0.32532078 0.1472742 0.25259182 -0.34935513
0.3949126 -0.14855878 -0.2595747 -0.11659395 0.12609857 -0.0075478964 -0.44031486 0.100375265
0.37671587 0.17004983 -0.056550216 0.23628649 -0.07063792 -0.34133965 0.003357055 0.16502234
0.12859052 -0.121251754 -0.08816026 -0.107832275 -0.029372573 -0.3811517 -0.33535975 -0.30922797
-0.1539671 -0.055621494 0.40664524 0.003804201 -0.40636918 0.51082575 -0.23850892 0.019541599
-0.11004972 0.05653111 0.41979638 -0.18914674 0.38144678 0.58205324 -0.1863215 -0.15236528
0.5048552 -0.38811487 -0.031299338 0.57542413 0.2789225 0.20523423 -0.28752044 -0.013918373
0.20811498 0.07718639 0.06179766 0.3372952 0.19499613 0.28291535 -0.0057783653 0.18128596
0.10435244 0.31256986 0.22012955 0.044074725 0.22228378 0.13779046 0.08573754 -0.10432868
0.1911253 0.20603457 0.060408324 -0.30793417 -0.38596478 -0.14990093 -0.0524416 -0.4877065
-0.09674156 -0.026383132 0.24803205 -0.10298149 -0.16720094 0.22382206 -0.011690587 -0.30925548
0.22176692 0.5633737 -0.16484769 0.3404242 -0.19790813 0.41837174 0.5142192 0.2828768
0.19806382 0.19974501 0.32396075 0.37377197 0.36133638 0.43985838 0.09244806 -0.060992125
0.36699545 0.13730898 0.1323779 0.19401354 0.25104538 0.1617763 0.3714314 0.26186123
0.12066943 0.05518377 0.03401683 -0.0037730678 -0.018140757 0.016613297 -0.3687759 -0.29074484
0.45004377 0.2436101 -0.0060791257 -0.063905686 -0.37135065 0.115039416 0.06532669 0.108108275
-0.29508612 -0.010089893 -0.50706935 -0.101339474 -0.42121276 0.12548874 0.34733155 0.04002501
0.6003133 0.0400385 0.17770128 -0.015177458 0.4151917 0.0006566262 -0.42728394 -0.18877439
-0.3299609 -0.009194549 0.15666416 -0.19736058 0.5143755 0.5900175 -0.1377343 0.24616174
0.59848166 0.12258771 0.15330781 0.16684617 0.027706163 0.1279085 0.00042720573 0.03650284
-0.17832074 0.08871378 0.16940843 0.016956324 0.06638857 0.049125005 -0.10190844 -0.029237924
-0.2720955 -0.15301046 -0.10153807 0.104604095 0.18671165 -0.40198374 -0.4034856 -0.358086
0.01272923 0.14879866 0.25135267 0.39724797 0.26164073 0.28916115 0.3088059 0.15283012
-0.079816714 0.094306596 0.022623412 -0.22990942 0.099232584 -0.1715666 -0.05901139 -0.21826802
-0.35773635 0.3281928 0.6276529 -0.2236601 0.015729165 0.11367317 0.055314753 -0.6540518
-0.010831293 0.5263343 -0.48778594 -0.043919258 0.025028912 -0.12609346 -0.07881027 -0.38959175
-0.2375394 0.1947542 0.08783034 -0.21998298 -0.024392659 0.24950016 0.7058601 0.53780174
0.4714374 0.15622535 0.15197307 -0.06559651 0.101726875 0.15912066 0.21883598 0.083386466

bias f4 [16]
00000000: b7e0 133e 0ec3 81bd b9dc 16bd 6239 4bbe
00000010: f1bd 8ebe 2906 7c3b e065 8c3c 2588 60be
00000020: bc9b 81be 252c 0e3e d9e9 ddbc 992f ec3d
00000030: 3702 efbd a77e db3e be1a 77bd f710 a9bd
0.1444119 -0.06336032 -0.03683159 -0.19846109 -0.2787929 0.003845582 0.017138422 -0.21926935
-0.25314128 0.13884027 -0.027089046 0.11532516 -0.11670344 0.42870066 -0.060328238 -0.08255189

running_mean f4 [16]
00000000: db25 913d 45cb 33be 6be0 2dbd faa9 6fbe
00000010: 0edb a6be 8c18 da3d 5895 4ebb 315e 68be
00000020: b9f1 90be 6ae8 c33d 78e0 a9be e8b3 bd3d
00000030: 8296 1fbe c2f2 bf3e 043d 7cbd f516 2cbe
0.070872985 -0.1755801 -0.04245035 -0.23404685 -0.32589 0.10649213 -0.0031522121 -0.22692181
-0.2830942 0.09565814 -0.3317907 0.0926283 -0.15584758 0.37489897 -0.061581627 -0.16805632

running_var f4 [16]
00000000: 6d6c f13c 8f7d 2b3d dc24 1b3c 949f 963c
00000010: 5bb5 a13c 7de4 ff3c 7a82 a53c f78c 943c
00000020: ef28 513c 25cd aa3c 7b89 903e d104 0c3c
00000030: 3c38 993c 561f d53c 95f6 753c 1e67 253d
0.029470647 0.04186779 0.009469237 0.01838664 0.019739797 0.031236881 0.020203818 0.018133624
0.012766107 0.020849774 0.2822989 0.00854607 0.018703572 0.026015919 0.015012403 0.040381543

weight f4 [16]
00000000: 8153 2e3f ef53 3e3f f8f7 1e3f bb64 6b3f
00000010: 60a6 ad3e 48f3 cd3e 698f db3e 467c e33e
00000020: 6593 1f3f 332f e13e 83a2 783f 68b2 d33e
00000030: 5783 2d3f af21 913f 4ae2 c63e 5595 d63e
0.68096167 0.7434682 0.6209712 0.9195058 0.33915997 0.4022467 0.4288285 0.4443075
0.6233428 0.43981323 0.97122973 0.4134705 0.67778534 1.1338404 0.3884452 0.41910806

bias f4 [16]
00000000: edd0 a2be 1fdc dabe e114 1abe 04e0 28bf
00000010: 3398 27be 9566 0ebf ac15 64be 232b 18bf
00000020: 0b11 4bbe 4833 33be 4af5 14be 27fa b0be
00000030: 049f 91be 8f47 ccbe 5b28 82be 7e76 73be
-0.31800023 -0.42746064 -0.15047027 -0.6596682 -0.16366653 -0.5562528 -0.22273892 -0.5944082
-0.1983072 -0.17500031 -0.14546695 -0.3456585 -0.28441632 -0.39898345 -0.25421414 -0.2377567

weight f4 [32, 16, 5, 5]
00000000: d716 d53e 9438 00be c1aa e83d 2803 afbe
00000010: c33d 9c3e 84aa 6b3d 24ce 723d 9298 a93d
00000020: 7404 0f3e 7560 763c ad6f 263e a494 c43d
00000030: d428 9c3b fdbe a83e ada8 8b3e 07a5 003d
00000040: aedf 633d 3c31 0bbe 676f b93e f5af c33d
00000050: c691 7c3e 9e39 463e 7d61 b13e c8b9 273e
00000060: 0eb2 23be 8132 da3e 8998 60be 3498 853d
00000070: 919a 103e 5e2b 523b e08e a83d dfe0 51bd
00000080: dbcf 4a39 8254 023d cf20 813d 3fec 933e
00000090: 88f1 ac3d cea0 46be 8032 a33e a000 5d3d
000000a0: d692 c7bc 1f6c 913e 2800 65be ae09 21bc
000000b0: a9fd 82be 9a6d 0bbc 7b4c 40bf 8abb fe3d
000000c0: 543d 033e 09fa 963e 875f d83e bec9 273e
000000d0: 22f5 ccbd 0114 af3e ae6a b63c 9377 2abf
000000e0: 730f 86be 1d5b 153d 3f95 25be c0b7 09be
000000f0: e298 803e 4916 9d3e 1cf5 27be 4631 723e
00000100: 379c 303e 5d9b f5be 5671 9dbd d5ed 26be
00000110: 2a18 9abc 8557 9b3e a2d1 f33e feda 1e3d
00000120: 15a3 d5be 0453 243e acda acbe 7a73 87bc
00000130: 9768 4a3d 7c82 94be 319b f63e c8b5 30be
00000140: c97f 8b3d 0817 0a3c 3845 c33e b3c7 fc3d
00000150: f2db 843e fb15 7fbe cbab 153e f23c 833e
00000160: 2804 84bd ab9c ff3e 3b09 573e b1b9 683d
00000170: badb a53b 6ae5 42be c5a6 d3be 92ca b5bd
00000180: 188d c6be ae27 05bf 5276 5e3e db50 0ebf
00000190: e534 92bd a1f6 9b3e 3d88 1d3d 0a51 17bd
000001a0: d6ec d33e 5ff0 a93c 51a3 1a3e 41c4 0b3e
000001b0: aa8e 563e abce 7f3d c4d0 0d3e 59e7 f93e
000001c0: 25e3 903e 4b85 e03d 293b 42be 7ac6 e8bd
000001d0: cc30 3abe 96c1 c3be 67f3 d9be f723 90be
000001e0: 0728 8c3d f5de bebc 1059 95be 0126 e7be
000001f0: 4735 d5bd 33b2 68bd 6c2a 1abf a44f 5d3d
00000200: ecea 16be 2813 b33d fbfc 82bd 1c82 c0bd
00000210: ee7c d13d 6067 49be 2fd3 dabe 5028 3bbe
00000220: f047 173e 6c09 52bb fe2d 9f3e d257 9ebe
00000230: 3642 1d3e 425c 733e c17d 16be 1d59 0d3d
00000240: 1294 65bd 50d5 ebbe f5d3 00be 6f92 183e
00000250: d0cc 88bd 8e7c f7be e9f2 ee3d 4100 f03d
00000260: b2f5 43bd b080 8cbe 1d81 d43e fbe6 233e
00000270: bac3 993d a81e 803b 1a93 113e d1c8 213e
00000280: bf4a 8f3e 7f9a dfbe d787 17bf b402 cd3c
00000290: 7791 093e fe98 76be 4642 c63d af74 1c3d
000002a0: 1191 6bbe 0af3 2abe a023 353e 621b 933e
000002b0: ec67 9d3e 5843 b03d 936f c93e 51d1 843e
000002c0: 0ecf 9f3e 6687 71be f4fd 9a3e d98b 76bd
000002d0: 5e16 1abe e5ac 0bbe d767 d3bb 51c2 3abe
000002e0: b34d 313e 9940 b8bd b068 36be 1855 953e
000002f0: 1f94 4f3d 2534 0b3f a553 203c 7e15 83be
00000300: ce2c 073f edcc 6a3d b207 91bd 037d fcbe
00000310: 2100 173e c355 3f3d 3653 df3e 1460 cf3e
00000320: 6444 5e3d 8280 4c3e 318b 2abf 5920 1cbf
00000330: 91a2 27bf b29e 623e 1ce7 863e db75 ff3c
00000340: 475f 2fbb bac8 183d cceb 873e 5ff3 aebe
00000350: 5ccb 86be 6965 fb3b 406f 133e 4a5f 473e
00000360: f359 943d 088e 8dbd cef3 71be bd52 63bd
00000370: 606f 733e 5cb7 0e3e a12c 673e cab0 67bd
00000380: f302 b2be 50b3 5fbe ca46 6ebf 8497 42be
00000390: b072 5a3e f1dc 2dbd 6055 8fbe 10cd 973e
000003a0: 4607 b33d ea0c fc3d 859c 913e 3122 99be
000003b0: 9fd9 1e3e 4d92 84be db28 39be b4bf d2bd
000003c0: 9587 6ebe f90e 153b d5a2 583e a93f ad3d
000003d0: e1fc 29bd c724 cbbd 2d6d cc3e 2672 0bbf
000003e0: 3c28 49bd b32f 9a3e 03c6 c43d a9dc 03bd
000003f0: acd5 d33c dde7 4cbe 56c6 acbd e011 13be
0.41618988 -0.12521583 0.11360694 -0.34182096 0.3051587 0.057535663 0.059278622 0.082810536
0.13966542 0.015037646 0.16253538 0.095986634 0.0047656093 0.32958212 0.27277127 0.031407382
0.05563324 -0.13593 0.36217806 0.095550455 0.24664983 0.19357917 0.3464469 0.16379464
-0.15985891 0.42616656 -0.21933188 0.06523171 0.14121462 0.0032069306 0.08230376 -0.051239844
0.00019341653 0.031818874 0.06305086 0.2889118 0.08444506 -0.1939728 0.31874466 0.053955674
-0.024362009 0.28402802 -0.22363341 -0.009828968 -0.25584152 -0.008510018 -0.751167 0.12438114
0.12816364 0.29487637 0.42260382 0.16385552 -0.10007693 0.3419495 0.022267666 -0.66588706
-0.26183662 0.036463846 -0.16170214 -0.13449001 0.2511664 0.30681065 -0.16402096 0.23651609
0.17247091 -0.47970095 -0.07687633 -0.16301663 -0.01881035 0.3034021 0.47620875 0.038783066
-0.41725984 0.16047293 -0.33760583 -0.016534556 0.04941615 -0.29005802 0.48165277 -0.17256844
0.068114825 0.008428343 0.38138747 0.12342777 0.25949055 -0.24910729 0.14616315 0.25632435
-0.06446105 0.49924216 0.20999615 0.056817714 0.005061594 -0.19032827 -0.41338173 -0.08876528
-0.3877952 -0.5201367 0.21724823 -0.55592126 -0.07138995 0.304616 0.038460005 -0.03694252
0.4139163 0.0207445 0.15101363 0.13649084 0.2095286 0.062452953 0.13849169 0.48809317
0.28298298 0.109629236 -0.1896788 -0.113659814 -0.18182677 -0.38233632 -0.42568514 -0.2815244
0.06843572 -0.023299674 -0.29169512 -0.45146182 -0.104105525 -0.05681057 -0.6022098 0.05403103
-0.14738053 0.08743888 -0.063959084 -0.093998164 0.102289066 -0.1966834 -0.42739245 -0.18277097
0.14773536 -0.0032049073 0.31089777 -0.30926377 0.15357289 0.23765662 -0.14696409 0.034508813
-0.056049414 -0.46061182 -0.12580855 0.1489961 -0.0667969 -0.48337215 0.11667425 0.117187984
-0.047841735 -0.2744193 0.41504756 0.16006081 0.07508035 0.0039099045 0.14216271 0.15799262
0.27986714 -0.4367256 -0.5919165 0.025025703 0.13434397 -0.240818 0.096806094 0.038197216
-0.23004557 -0.16694275 0.17689371 0.2873183 0.3074335 0.08606595 0.39342937 0.25940946
0.31212658 -0.23586807 0.30271876 -0.060191963 -0.15047595 -0.13640173 -0.0064515877 -0.18238188
0.17314796 -0.08996696 -0.17813373 0.29166484 0.05067837 0.5437644 0.009785567 -0.25602335
0.5280274 0.05732434 -0.07081546 -0.49314126 0.14746143 0.046712648 0.43618172 0.4050299
0.05426444 0.19970897 -0.6661864 -0.6098686 -0.6548243 0.2213085 0.26348197 0.031184128
-0.002675967 0.037300803 0.26547086 -0.34170052 -0.26327026 0.007672001 0.14397907 0.19469944
0.07243719 -0.06911856 -0.2362816 -0.055498827 0.23772955 0.13937134 0.22575618 -0.056565084
-0.34767875 -0.21845746 -0.93076766 -0.19003111 0.21332812 -0.042447034 -0.27994823 0.29648638
0.08741622 0.12307151 0.28439727 -0.29908898 0.15512703 -0.2589287 -0.18081991 -0.10290471
-0.23293908 0.002274452 0.21155865 0.08459408 -0.04150093 -0.09919124 0.39927045 -0.5447105
-0.049110636 0.30114517 0.0960808 -0.03219286 0.025858723 -0.20010324 -0.08436267 -0.14362288

bias f4 [32]
00000000: fd65 efbc ebd8 c13b ccc1 413c 0c11 7dbc
00000010: 9a3e 55bb 1b22 003d 21a8 693c 5abc 80bc
00000020: 3e71 15bb ca35 2bbd 8ead 2ebd 7002 d33b
00000030: 7098 9f3c f039 bb3c e33e 563b 5513 28bc
00000040: 2087 2abd 6f45 423c ce84 643d 6f60 6abc
00000050: 14ac 423c 748c 02bd de05 783c 97ae 42bd
00000060: 5d90 cb3c bade 8cbc 530d 0ebd 2f73 eebb
00000070: ef76 3bbb 69c0 31bd b1c4 063c 2a6d 1abc
-0.029223436 0.005915751 0.01182599 -0.015445959 -0.0032538534 0.031282526 0.014261276 -0.015714813
-0.0022803093 -0.041799344 -0.042645983 0.0064394996 0.019481868 0.022854775 0.0032691292 -0.010258515
-0.04163277 0.011857375 0.055790715 -0.014305218 0.011881847 -0.031872228 0.015138118 -0.047529783
0.024849111 -0.017196048 -0.034680676 -0.0072769145 -0.0028604825 -0.043396387 0.008225606 -0.009425441

running_mean f4 [32]
00000000: 80dd 4abd d02e 62be f484 aa3e 7a6c 383e
00000010: ee8b 9dbe 5b53 d73f 4308 e8bd 6959 95bc
00000020: f0cb 0d3f f37e 1f3f 8374 183e af29 b9be
00000030: e6af d53e a992 863f 9cec 123f 1d67 043d
00000040: 89f7 06bd 0215 183f 6441 eb3d b974 5abe
00000050: 1cb9 b0be 3619 a63f ac60 9e3e 6bd8 f7bd
00000060: 9df2 843e b2ca 88bf 6ea8 a0be de2f 233e
00000070: 0c2b 09bf 6d9f b23d 8b13 95bc 85b5 1b40
-0.049527645 -0.2208817 0.3330456 0.1801013 -0.3077082 1.6822313 -0.11329701 -0.01823111
0.5538931 0.62303084 0.14888196 -0.36164615 0.41735762 1.0513507 0.5739229 0.0323249
-0.03295091 0.59407055 0.11487082 -0.21333589 -0.34516227 1.2976444 0.3093313 -0.12101825
0.2596635 -1.0686858 -0.31378502 0.15936229 -0.5358131 0.08721814 -0.018197795 2.432954

running_var f4 [32]
00000000: 4f1d b53f 1021 173f 1459 793f 81f4 833f
00000010: d528 2b3f 9799 dd3f 61e1 0c3f 9a43 2340
00000020: 93b2 233f 8d2a 8c3f 9e80 3e3f efc8 443f
00000030: b6bd 793f e6bf 813f b3a9 5840 6934 3640
00000040: c3f8 573f 8727 b83e 1e1e 0b40 25fb 6440
00000050: e147 2c3f 1915 803f afc2 6b3f 9b95 243f
00000060: 3c37 1a3f 0bf3 5b40 bb44 973f b07b 1f3f
00000070: 4e13 1b40 fc7e a240 b2e7 af3f 357f 0140
1.4149569 0.59034824 0.9740155 1.0308992 0.6685918 1.7312497 0.550314 2.551001
0.6394436 1.0950485 0.74415004 0.768691 0.975551 1.0136688 3.3853576 2.8469489
0.84363955 0.35967657 2.1737132 3.5778286 0.6729718 1.0006438 0.9209394 0.6429078
0.6024053 3.4367092 1.181785 0.6229811 2.4230533 5.078001 1.3742583 2.023389

weight f4 [32]
00000000: 7f14 063f 40d2 0e3f 2f84 d93e 8f9b e53e
00000010: b962 d03e 0dd3 dd3e c0d2 e03e e224 313f
00000020: 56f9 d73e 711f d53e a625 cb3e 2316 e63e
00000030: 806c c73e 8f0c ef3e 7a5b 513f 86c0 9c3f
00000040: 814d bc3e 2e7f 4b3e 53b0 2d3f 8cb5 393f
00000050: aba4 b93e 7b50 c03e e4b6 9c3e 6d79 cf3e
00000060: 665f b43e 1dbe 103f f693 ce3e a0d6 d03e
00000070: 0d19 fc3e e783 243f 6e71 cf3e 695e 0f3f
0.52375025 0.55789566 0.4248366 0.44845244 0.4070032 0.4332508 0.4391079 0.69196904
0.42182416 0.4162555 0.3967716 0.44938764 0.38949966 0.4668927 0.8178021 1.2246253
0.3677788 0.19872734 0.67847174 0.72542644 0.36258444 0.37561402 0.30608284 0.40522328
0.35229033 0.5654009 0.4034726 0.40788746 0.49237862 0.64263767 0.40516227 0.56003433

bias f4 [32]
00000000: 7d08 d2be a1f0 94be 6179 96be 398a 7ebe
00000010: 35f7 1ebe 3c34 a1be 632d 6abe 59e9 b7be
00000020: fd56 74be 71a1 46be c5bc 85be 6295 c2be
00000030: c850 8cbe 1b63 69be b300 d0be 9c53 9ebe
00000040: 79f3 f1be ef1c aebd 4fa5 fbbd 2ea2 91be
00000050: df34 c5be 7c24 73be d710 d7be 6745 8cbe
00000060: 3a13 5cbe 5b47 07be dcd4 bebe f79a 17bf
00000070: 5343 babe 06b8 8ebe 8739 a4be 6220 56be
-0.410221 -0.29089835 -0.2938948 -0.24857415 -0.1552399 -0.31485164 -0.22868876 -0.35920218
-0.23861308 -0.19397523 -0.26120582 -0.38004595 -0.2740538 -0.22791712 -0.40625533 -0.30923164
-0.47256067 -0.085016124 -0.122873895 -0.28444046 -0.385169 -0.23744386 -0.42005035 -0.273967
-0.2149171 -0.13210814 -0.37271774 -0.5922083 -0.3637949 -0.27874774 -0.3207514 -0.2091079

weight f4 [32, 32, 5, 5]
00000000: 5efc 563e 8653 8b3d 292b c33d f623 40be
00000010: 4f26 aabe d502 a63d 1ca4 c4ba c526 b23d
00000020: c6dd b03c 0536 453c 1f0c 66be aea9 0d3e
00000030: 959f 1b3e b9af b23e 45a7 cd3d 8937 463e
00000040: 9b1d c53d 177d b6b9 9ed4 db3d 3e5d 6fbe
00000050: 3b78 243b ce10 c9be dfe9 353e fcbf a33d
00000060: b7bc 2abf 6cf1 79be caed 31be 7955 bebd
00000070: 5327 2abe cb0f cabe a147 42be d536 503d
00000080: 728d a63e 1434 1fbe a443 53be c4b7 bbbc
00000090: 8941 163e 7edb 0e3e 38be d9bd 35f4 833e
000000a0: e9b1 2bbd 1ec4 5a3d 0ab1 053b 4155 0cbf
000000b0: af4d 59bf 4990 95be 5e11 613c d8d9 29bb
000000c0: e5bd 8abe 7021 5dbe 342a c23c af0b 03bf
000000d0: 8a79 b33b 9830 6f3e 6990 aa3e a4a3 9b3d
000000e0: fda4 13be 25a7 0e3d 5deb ae3d a716 a1bd
000000f0: 0dcc 113d 4b97 a7bd 2dbe 15be 2546 90be
00000100: 8514 bb3d 0162 ab3c e327 48be 4c11 c5bd
00000110: 0b2b 643e d26c 303d 4363 9cbc 4abb 043e
00000120: 2f93 0cbe a721 2dbe c52f 0d3f e279 00be
00000130: 3632 9fbe ee95 c8bd 8ad5 913d 099d 6dbe
00000140: e06b 5c3c 3e21 f0bd 1d56 a7bd 0e2c a63d
00000150: a154 203e 6144 2fbc 43df 34be ee79 2f3b
00000160: 0cdb d1be bf13 dcbd dadd fa3d 050e b53b
00000170: f5ae 193e 4587 8bbe 4d50 dcbe 6c07 37be
00000180: ff59 91be c614 9d3d 31bf 063d 22ff 2cbf
00000190: 5b1c 57be 14d6 e1be 239e f93e f261 3f3e
000001a0: 3e8f 863e 5cdd e6bc dce7 923c 60fc 4c3d
000001b0: 0613 903d 93a2 353e f43a 85be 16ee 1b3b
000001c0: 28d5 953e e1ad 89be 239c 033e 731c f83d
000001d0: 6230 5dbe d5c4 103e 5523 b23c e96c 083f
000001e0: a567 903d 7837 433d a4d8 b33d d77a debd
000001f0: 89d2 383f 5e44 30bd a6c1 eabc c5fc 303e
00000200: b43d 833e a4f7 493e 92c3 aa3d 98e2 f33d
00000210: 3d1d 933d d877 dfbd 2994 633e 3028 a23e
00000220: cd25 2cbb 6796 883d 5f52 823e 66cc 473e
00000230: b187 32bd 2af8 003e 3fec 1ebe 7ca7 8dbe
00000240: 42e1 b03e af41 e23d 3bd0 b2be 7d55 5dbe
00000250: 76b5 9b3e 0a25 d3be fa5b 56be 031b a3be
00000260: f424 7f3d 8a6a 13be 4e8a 05bd c8b1 92be
00000270: 6b05 89ba 65e2 a1bb 3fa8 a1bc 22b4 1fbf
00000280: 21f0 8abe b44d 30bd 29b5 9b3e cace 7cbe
00000290: f276 fe3d 8ea8 673b 48a5 92bc 7e3b 65be
000002a0: b3be 713e 5dcc b93e 999d 7bbe 3822 0cbe
000002b0: a0a2 0bbf 77bd 493e 771a d4be 144c 3b3e
000002c0: 686d 373e 309a 9e3e 980a babe bd79 4fbf
000002d0: 89d5 863e 97da 903d 4852 443d 0328 8cbd
000002e0: 7ec1 643c 6f59 013d e550 a7bd 1ffa b83d
000002f0: e9cc 8abd be66 ad3e 95ac 753d 3c71 e2bd
00000300: fe85 713e f70d 3f3d c625 083f 9411 6e3d
00000310: de6f 593e 7bb3 62bd cb72 0dbe 9999 a0bd
00000320: 2ed0 7dbd 07e7 19be 16be 85be d3ce 1ebc
00000330: f53b 2e3e c275 a33d 6d59 a3bd a676 053e
00000340: fbd8 1dbd 67dc babe 9765 9bbd 6000 f0bd
00000350: 5f44 503d bb82 eabd c1f4 903c aabb 8d3e
00000360: 7e7d 903c d450 84be 5662 99be 25ef 663e
00000370: 49ad f13d b157 be3d 48e5 373e 560c 0bbf
00000380: 459f 25bf 6740 65be e42c 80be 6966 28be
00000390: 2494 20bd bd3a 0abe e971 63bc c067 293e
000003a0: a2b9 133e 0c7a 4d3e cb9e db3d 71d6 1abc
000003b0: 2de5 dabd 151c b0bd e031 53bd 8e38 6c3d
000003c0: b441 343e 6709 06be 36b9 8ebe e38b 10bf
000003d0: f14b 103d 0933 e2be cffd d8bd 480f 78be
000003e0: a6da 54be 8044 a1be 8565 723d bc52 a9bc
000003f0: 8664 ff3b 6b5a 943c 06c7 0bbe 968d 093e
0.20994708 0.0680304 0.095297165 -0.18763718 -0.33232352 0.08106009 -0.0015002522 0.08698801
0.021590125 0.012036805 -0.22465561 0.13834259 0.15197594 0.3489969 0.1004167 0.19357122
0.096247874 -0.00034806944 0.10733913 -0.23375413 0.0025096077 -0.39270633 0.17764996 0.079956025
-0.66694206 -0.24408501 -0.17375866 -0.09293646 -0.16616563 -0.39465174 -0.18972637 0.050833542
0.3252979 -0.1554721 -0.20631272 -0.022914775 0.14673437 0.13950917 -0.106319845 0.25772253
-0.041917715 0.05340969 0.0020399713 -0.5481759 -0.8488416 -0.29211643 0.013737051 -0.0025917199
-0.27098003 -0.21594787 0.023701765 -0.511897 0.005477135 0.23358381 0.333133 0.07599571
-0.14418407 0.03482737 0.08540986 -0.07865649 0.03559499 -0.08183154 -0.14623328 -0.28178516
0.09134773 0.020920755 -0.19546466 -0.0962244 0.22282045 0.04307253 -0.0190903 0.1296207
-0.13728021 -0.16907369 0.55151016 -0.12546495 -0.31092995 -0.09794222 0.071208075 -0.23204435
0.013453454 -0.117250904 -0.08170722 0.081138715 0.15657283 -0.010697455 -0.17663293 0.0026775557
-0.40987432 -0.10745954 0.12249346 0.005525353 0.15008147 -0.2725164 -0.43030015 -0.17873925
-0.28388974 0.07669978 0.032897178 -0.675768 -0.2100691 -0.4410864 0.4875346 0.18689707
0.2628116 -0.028181724 0.017932825 0.05004537 0.070348784 0.17737798 -0.2602154 0.0023793033
0.29264188 -0.26890472 0.1285253 0.12114801 -0.21600488 0.14137585 0.021745363 0.53291184
0.070510186 0.04766032 0.08781555 -0.108632736 0.7219625 -0.04303395 -0.028656792 0.17283924
0.25633013 0.19723374 0.08338083 0.11908454 0.07183311 -0.1091153 0.22224487 0.31671286
-0.0026267648 0.06669312 0.2545347 0.19511566 -0.043586437 0.12594667 -0.15519808 -0.27666843
0.34546858 0.110476844 -0.34924492 -0.21614642 0.3041188 -0.41239196 -0.20933524 -0.31856546
0.0622911 -0.1439611 -0.0326026 -0.2865126 -0.0010453885 -0.0049403184 -0.019733546 -0.62384236
-0.2713633 -0.043042853 0.30411652 -0.24688259 0.12425031 0.003534827 -0.017901078 -0.22385976
0.23607902 0.3628873 -0.24571837 -0.13684928 -0.5454502 0.19701181 -0.4142644 0.1829074
0.17912829 0.3097701 -0.36336207 -0.8104513 0.2633479 0.07072943 0.047930032 -0.06843569
0.013962148 0.03157943 -0.08169726 0.09032082 -0.06777365 0.3386745 0.05997904 -0.11056754
0.2358627 0.046644177 0.5318264 0.058122233 0.2123408 -0.055346947 -0.13813321 -0.078417964
-0.061966114 -0.15029536 -0.26121587 -0.009692865 0.1701506 0.07981445 -0.07976041 0.13033542
-0.038537007 -0.3649628 -0.07587736 -0.117188215 0.050846454 -0.11450716 0.017694833 0.2768224
0.017637964 -0.25842917 -0.29957837 0.22552164 0.1180063 0.092940696 0.17958558 -0.543157
-0.6469615 -0.22387849 -0.2503425 -0.16445316 -0.039203778 -0.1349897 -0.013882139 0.16543484
0.14426282 0.20066088 0.10723647 -0.009450541 -0.10688243 -0.08599106 -0.051561236 0.057671122
0.17603189 -0.13089524 -0.2787568 -0.5646345 0.035228673 -0.44179562 -0.10595285 -0.2422458
-0.20786533 -0.31497574 0.059178848 -0.020669334 0.0077939657 0.01810952 -0.1365014 0.13432917

bias f4 [32]
00000000: e4a1 adbb 595a d03c a8ac e2bb 90ba 47bc
00000010: c818 133d 54c5 edbc 93e0 6e3c d45d 043d
00000020: 14f8 1c3d a7b2 b6bc b59d dcbc e86f 07bd
00000030: 2b25 d6bb 3ce1 67bc 86b9 eabc 3205 aabc
00000040: 3d2f 353d 5357 043d 0396 823c eead b83c
00000050: 846b 563c ac1a 3f3d db74 48ba 6e2e 9ebc
00000060: 06dc f1ba 2e80 033d fafd d8bc df0b 3abc
00000070: 3d86 683c adbe 1b3c 98c4 0f3d c74b e03c
-0.00529884 0.025433706 -0.006917555 -0.012190476 0.035912305 -0.029024757 0.01457991 0.032316044
0.038322523 -0.022301985 -0.02693067 -0.033065706 -0.0065351925 -0.014152821 -0.028652918 -0.02075443
0.044234503 0.03230984 0.015940672 0.022543874 0.013087157 0.046656296 -0.00076468074 -0.019309249
-0.0018452413 0.032104664 -0.026488293 -0.011355369 0.014192161 0.00950591 0.035099596 0.027379883

running_mean f4 [32]
00000000: 3e1c 40bf ff86 88bf 0405 6dbf 6ec0 5cbf
00000010: a0fb 6abf 04cc 2ebf 6b3a 3cbf af6e d6bf
00000020: c1c4 fbbf 5b0b 83bf 713c 93be f015 ffbe
00000030: 6bdf 42be b2b9 7dbf e27c ddbe e017 7a3e
00000040: ecad 7cbf dd31 a0bf 16b0 cbbf 898d 55be
00000050: 5b6e c3bf 575e 44c0 3506 ccbe 55f2 c1bf
00000060: fabc c7bc 08d0 53be 4aaf 42bf 49d9 03c0
00000070: bf7a debd 59c9 0ec0 ab66 08c0 93d8 35bf
-0.75043094 -1.0666198 -0.9258578 -0.86231124 -0.917902 -0.68280053 -0.7352664 -1.6752528
-1.966942 -1.023784 -0.2875705 -0.49821424 -0.1903054 -0.99111474 -0.4325934 0.2442317
-0.98702884 -1.2515217 -1.5913112 -0.20854773 -1.5268053 -3.068258 -0.39848486 -1.5152079
-0.024382103 -0.20684826 -0.7604872 -2.060137 -0.10863256 -2.2310393 -2.1312664 -0.7103359

running_var f4 [32]
00000000: 0c7d 353f dfd8 393f 6b2b 733f c37a 0c3f
00000010: 3465 423f ed0a 8d3f c6a6 673f be6f b63f
00000020: 58c1 e33f 6a5b 143f b3f8 323f 8a3d d73e
00000030: 6955 ed3e c950 963f 34f6 843f 5bc6 9d3e
00000040: c548 963f a44c 8a3f 7045 0340 5e47 4c3f
00000050: a99d da3f f8ca 0740 8a56 463f e408 853f
00000060: e89f 233c ba25 4c3f 252f 363f 637b c83f
00000070: 9107 5f3f 7f74 df3f 3c16 7e3f 69d7 4a3f
0.7089393 0.72596544 0.94988126 0.5487482 0.75935674 1.1018959 0.9048885 1.4252851
1.7793379 0.57951987 0.69910735 0.42039138 0.46354225 1.1743404 1.0387635 0.30815396
1.1740957 1.0804639 2.0511131 0.797964 1.7079364 2.1217632 0.774758 1.0393338
0.009986855 0.79745066 0.71165687 1.5662655 0.8712092 1.7457427 0.99252677 0.7923494

weight f4 [32]
00000000: 3b0f 193f aeba 0b3f 9d77 333f e251 093f
00000010: 0ab8 003f 6fa6 1b3f 9f2a 083f 5e81 aa3e
00000020: 5d73 c93e 07ac 223f 6564 3c3f df0d 323f
00000030: 1ab8 0a3f 7238 043f 2b0a 163f 6437 343f
00000040: b293 053f 5e9b c83e 5529 713f e790 5e3f
00000050: 54d1 b33e d941 f73e 2572 bf3e 8f8e b33e
00000060: a20b a839 caf9 373f 97bd 023f 4ac0 163f
00000070: 76c1 323f c503 553f e857 df3e 7fa2 eb3e
0.59788865 0.54581726 0.7010439 0.5364057 0.5028082 0.6080083 0.53190035 0.33301824
0.39345828 0.6354374 0.7359069 0.69552416 0.54187167 0.5164863 0.58609265 0.7039702
0.5217849 0.39181036 0.9420369 0.86939853 0.35120642 0.48292425 0.37391773 0.350697
0.00032052124 0.7186552 0.5107054 0.5888716 0.6982645 0.83208877 0.43621755 0.46022412

bias f4 [32]
00000000: f16a 37bf 25c8 87bf 42ab 35bf 8e69 69bf
00000010: f0dc 4abf e2c8 63bf 863c 48bf 1329 a1be
00000020: de2e adbe 1a59 29bf d753 42bf 9849 8dbf
00000030: 8d2f 4abf dee2 f8be 6d4c 85bf e485 90bf
00000040: 7ad5 27bf 97b7 10bf ead2 19bf 5afa 85bf
00000050: 7fa1 32bf 6b34 90be 7235 34bf 8a22 f3be
00000060: add2 adbb 7a7b 8ebf f5e7 5ebf 8d17 d6be
00000070: 7d79 79bf 3892 20bf 3f12 3cbf 7ffc 1ebf
-0.71647555 -1.0607954 -0.70964444 -0.9117669 -0.79243374 -0.889784 -0.7821735 -0.3147665
-0.3382482 -0.66151583 -0.7590918 -1.1038084 -0.78978807 -0.48610586 -1.0413948 -1.129086
-0.65560114 -0.56530136 -0.60087454 -1.0467026 -0.69777673 -0.28164992 -0.7039405 -0.4748729
-0.0053046555 -1.1131432 -0.8707269 -0.41814843 -0.97451 -0.6272311 -0.7346534 -0.6210403

weight f4 [4, 1536]
00000000: e112 75bc 068d 413c bb3c db3b c417 263a
00000010: 460f 14bc 35be d73a 6716 c63d 6f6d 2cbd
00000020: 71e6 43bd 8f4e 0c3d 4eea 663d 1058 f93d
00000030: 6f29 5e3e 812a 9d3d 0ef4 31bd 6a99 0a3e
00000040: 4ca4 243e 1afb c4bd 004c 4cbc 9233 f13c
00000050: 1611 fdbc 6f4d f43c a0d0 b6bb 641f 1a3f
00000060: 0414 ce3d 9e82 d73c ef5f 22bd f427 04be
00000070: ada4 ddbd 6946 463d 4051 17bc 76f0 3abc
00000080: 0b33 67bd febf 323d 4dc3 b9bc d714 683f
00000090: f722 08bd 8b0d 53bd 4008 6b3d 765e 0abd
000000a0: c143 07bd bd9f f33d 1215 ba3a c3bb 933e
000000b0: b8ae e9bc c529 f3bc 8daa a2bd ceeb 503f
000000c0: 38ae 4f3c eae1 90bc 087e 79bc bbf7 63bb
000000d0: af31 9abb fee2 1eba 6c79 fe3c e9b1 073a
000000e0: 5473 0bbc 060b bebc ecfb 803c 52ab d43a
000000f0: 3a57 e03e 5040 49bd 9a58 ac3e e907 823e
00000100: 7839 d63e dba7 713e dd8c 43bc 5ee1 aebd
00000110: 9989 463d 8db7 593d 54f9 5f3e 50cc d0be
00000120: f5df f4bd e53f fd3d d9ad bebe 602d 373c
00000130: cb9e 71be fe87 47be 62b2 cb3c 528d e13d
00000140: 7932 b33d bc59 37be b083 83be 7c82 9f3e
00000150: 2136 ddbe e5cb 183e 3e44 ea3d ef71 143e
00000160: 774c 23be d9a3 61bf ecf4 713e bb1f 223e
00000170: b784 33bf 8fa7 37be b948 cfbd 4746 873c
00000180: 4e9c 083c 7022 133a 3598 0cbc fa1e c9bb
00000190: ff2d 613c 5533 b73c 00b5 073c 37f8 ebbc
000001a0: b7da 693d 2c75 e33c ca7f 473d eaa1 553c
000001b0: 26e5 ea3d bdc3 ca3d 5ca0 833d d197 b83d
000001c0: 4244 173d 515d 4e3e b2e1 19be c2ec 3ebe
000001d0: a30f 19be 4c6e 6d3d 7a86 11bd 8a7d bfbd
000001e0: ef4e a53e b807 403c e317 0c3c 67dc b6bb
000001f0: 46cb a0bc efda c03c 4d7d e13e ac72 1fbc
00000200: dbc0 03bd 65a6 92ba c58e 10bd 28f8 92b9
00000210: 37db d43b 2ae4 003c e4ab b6bc acc0 52bd
00000220: 8c44 b4bc 55d0 31bc dc9a 633f 48ec 753c
00000230: 0726 fcbb 4ae7 82bb a6f0 9f3d b0ae 213c
00000240: 2e66 84bc 9de7 6a3c 7bf0 463c 341d dbbc
00000250: e61b e83b 46b2 2bbb c802 92bc 5c7c 3b3c
00000260: aabc 5ebc 8853 a23c 90fc df3b 08e8 59bb
00000270: 1007 57be 2594 49bc 0006 16be ae89 16bd
00000280: c7da 9e3c 6acd 54be 46af 843e 094a e7bd
00000290: 8a52 ec3d 3986 6a3e 5448 abbd a45e ccbd
000002a0: 9a5d 893d 53dd 023e 0052 323e cdde 393e
000002b0: 5401 093e ca8f 873e 7c89 af3d a13a 853d
000002c0: 3ee1 eabc 6475 213e 590d ad3d a6bd 86be
000002d0: cfac 9d3d a742 7ebe f61a 7f3d b5a7 aa3d
000002e0: ea83 abbd cf5d 023e 1a6f 0fbf 7dca 053e
000002f0: ade6 183f 6970 cebd dec7 a13e 900a 50be
00000300: a6ce 1fbb 010a 443c 6b7d 553c fb13 cdbc
00000310: 9611 2bbc d743 6db9 03ac 613c 3f6c 2b3d
00000320: dffe e5bd d559 693c d60b c9bd 14ea 05bd
00000330: a102 debe 4c0e 8ebd 8567 a83e 9681 2cbd
00000340: dd93 95be 6f8c 8c3e e93f 9dbc b72f eebd
00000350: 4656 b83d eda0 273e 16cf a4be d3c3 cabe
00000360: 56e6 113e a598 273e 79a6 55be d944 86be
00000370: 42f8 223e 38e8 4f3d 6a06 633e 15e0 83be
00000380: 7740 cc3d ab33 52be 157c a43d 2ab7 22be
00000390: dad2 d8be 363a 833e 1843 bf3c b644 1a3e
000003a0: a888 d13d 12aa 81bb 4516 7b3e 23d8 57b9
000003b0: e860 5dbe fba9 fc3e c38e 023d 568d 993b
000003c0: e587 dbbd 6ca5 503d b169 e7bc a0ae 9cbb
000003d0: fa82 593c 31a2 c53c b2e7 a9bc a59b 6ebc
000003e0: 4c52 3c3c 9360 c73c 0082 6db9 369c ca3c
000003f0: 830d 143e 7fb5 27bd 4c47 a0bc 4d82 25bd
-0.014958114 0.011813408 0.0066905892 0.0006335939 -0.009036845 0.0016459884 0.09672242 -0.04209655
-0.047827188 0.034254607 0.056375794 0.12175 0.21695493 0.076741226 -0.04344564 0.13535085
0.160783 -0.09618206 -0.012469292 0.029443536 -0.030891936 0.02982208 -0.0055790693 0.6020415
0.100624114 0.0263074 -0.03964227 -0.12905866 -0.10822425 0.048406992 -0.00923568 -0.011409869
-0.056445163 0.04364013 -0.022676134 0.906568 -0.03323647 -0.051526587 0.057380915 -0.03378149
-0.0330236 0.11895702 0.0014196953 0.28854188 -0.028525695 -0.029683003 -0.07942686 0.8160981
0.012675814 -0.01768585 -0.015227802 -0.003478511 -0.00470563 -0.0006061046 0.031063758 0.0005176352
-0.008511383 -0.023198616 0.015745126 0.0016225374 0.4381655 -0.0491336 0.33661348 0.2539666
0.4184072 0.23599188 -0.01193544 -0.08539079 0.048471067 0.053153563 0.21872455 -0.40780878
-0.11956779 0.123657025 -0.3724201 0.011180252 -0.23595731 -0.1948547 0.024865333 0.11013283
0.08749861 -0.17905325 -0.25686407 0.3115424 -0.4320536 0.1492153 0.114387974 0.14496587
-0.15947138 -0.88140637 0.23628587 0.15832417 -0.7012438 -0.17935012 -0.101212926 0.016513003
0.008338047 0.00056127366 -0.008581211 -0.006137726 0.0137438765 0.022363344 0.0082829 -0.028804881
0.05709335 0.027765833 0.048705854 0.013039092 0.11469488 0.09900615 0.064270705 0.09013332
0.03693033 0.20152785 -0.15027502 -0.18645003 -0.14947371 0.057966515 -0.035528637 -0.093501166
0.32286784 0.01172059 0.008550617 -0.005580473 -0.019628178 0.023541896 0.4404091 -0.00973193
-0.032166343 -0.0011188505 -0.035292406 -0.0002803218 0.006495859 0.007866899 -0.02229876 -0.051453277
-0.022005342 -0.010852893 0.8890817 0.015009947 -0.007694963 -0.003994857 0.07809572 0.009868309
-0.016162004 0.0143374475 0.012142296 -0.026747324 0.007083404 -0.0026198789 -0.017823592 0.011443224
-0.013594786 0.019815221 0.0068355277 -0.0033249874 -0.20998788 -0.012303387 -0.14650726 -0.036752395
0.01939143 -0.20781484 0.25914973 -0.11293418 0.115391806 0.22902764 -0.08363405 -0.09978989
0.06707306 0.12779741 0.17414093 0.18151398 0.13379413 0.2647689 0.08571145 0.06505323
-0.028671857 0.15767437 0.084498115 -0.26316565 0.07698976 -0.24830113 0.06228157 0.08332769
-0.0837477 0.12731098 -0.560289 0.13065524 0.59726983 -0.10080034 0.315978 -0.2031653
-0.0024384647 0.011965276 0.01303039 -0.025033941 -0.0104412045 -0.00022627354 0.013773921 0.04185128
-0.112302534 0.014242609 -0.09816711 -0.032693937 -0.4336138 -0.06936321 0.3289148 -0.04211577
-0.29214373 0.27450892 -0.019195514 -0.11630195 0.0900083 0.16369982 -0.32189244 -0.39602527
0.14248022 0.16366823 -0.20864286 -0.26224402 0.15915015 0.05075857 0.22170416 -0.257569
0.09973233 -0.20527522 0.08031479 -0.15890184 -0.42348367 0.2563035 0.023347422 0.15065274
0.10231143 -0.0039570415 0.24520214 -0.00020584515 -0.21618998 0.49348435 0.03187443 0.004686038
-0.10719279 0.05093901 -0.02824864 -0.004781559 0.013275856 0.02412519 -0.020740364 -0.014563476
0.0114942305 0.024338042 -0.0002265051 0.02473269 0.1445828 -0.040944573 -0.019565247 -0.040407468

bias f4 [4]
00000000: 0d9d 3f3e 0c30 3f3e 00c1 3d3e fba6 3b3e
0.18712254 0.18670672 0.18530655 0.18325417
