dev/breakout_19500.pth (torch_old, 199616 bytes, 20 tensors)

weight f4 [16, 2, 5, 5]
000000 44 e1 06 3e 5b 0c 16 3e 4f da 02 be 4a ce c2 3c
       0.1317187 0.1465315 -0.1277859 0.023780007
000010 82 3d 96 3b 74 bf 33 3e 63 f4 37 be e2 45 79 be
       0.004584969 0.17553502 -0.1796432 -0.24343064
000020 d8 56 d2 bd e1 68 5c bd 49 67 d2 be 4e 4e 39 be
       -0.102704704 -0.053810958 -0.41094425 -0.18096277
000030 b2 ff 5a bd 12 c2 8f be f6 58 d2 be bd 14 5b 3e
       -0.053466506 -0.2807775 -0.41083497 0.2139463
000040 97 4d 83 3e 39 9f 99 3e 4b 00 29 3d 93 f6 45 3e
       0.25645134 0.3000429 0.041260045 0.19332342
000050 08 02 cc bd c9 3d de bc 21 39 55 be 3d f3 02 3f
       -0.09961325 -0.02712907 -0.20822574 0.511524
000060 74 06 53 3d a8 4b 2a 3e 9d 54 47 be a8 27 c2 3e
       0.051519826 0.16630423 -0.19465871 0.3792088
000070 a8 84 1a bf 54 2e 2d bd 2e b8 68 be b5 ab a1 3d
       -0.6035867 -0.04228051 -0.22726509 0.07894079
000080 c2 31 7d 3e 92 23 1a be 80 86 f2 be 17 f3 de be
       0.24726012 -0.15052631 -0.4736824 -0.43544838
000090 e1 f6 8c be 04 be 0b 3e 0d 0b d9 3d 02 3b d4 be
       -0.27532104 0.13646704 0.10597811 -0.4145127
0000a0 99 bd a8 3e 5d f5 90 bd a4 cb 43 be e6 57 08 be
       0.32957152 -0.07078049 -0.19120651 -0.1331478
0000b0 44 07 63 3e e0 5b 8f bc fd 64 bf be a3 63 57 3e
       0.2217074 -0.017499864 -0.37381735 0.21034102
0000c0 61 e9 c5 3e 82 43 64 3e e3 10 58 bd 0c 78 4c 3e
       0.38654616 0.22291377 -0.05275048 0.19967669
0000d0 0f cc 80 bd 4d 0b 9a be ee 79 6d 3b 8a cf 3a 3e
       -0.06288921 -0.30086747 0.0036236006 0.18243232
0000e0 0d ad 4c 3e e1 89 24 be dc 6e 0c be 85 23 1d bc
       0.19987889 -0.16068222 -0.13714164 -0.009590988
0000f0 93 af 7c bd 41 a8 d2 be bc 08 ae be 0e e3 7a be
       -0.061690878 -0.41143993 -0.3399104 -0.24500677
000100 a6 65 5f be ec fe 86 bd 43 38 c7 3e 47 5a 54 3d
       -0.2181612 -0.06591591 0.38910112 0.051843908
000110 cf 39 73 be 73 19 c8 3e 61 9f 19 be e1 1f a6 3d
       -0.23752521 0.39081916 -0.15002204 0.08111549
000120 21 18 74 bd b0 27 b4 3d de 18 ab 3e 42 29 59 be
       -0.059593324 0.08796632 0.3341741 -0.21207145
000130 17 57 b9 3e 43 72 0e 3f 86 b7 28 be 24 b0 9c bd
       0.36199257 0.556431 -0.16476259 -0.07650784
000140 34 7b fb 3e eb 79 ac be de 4e 97 bd 89 74 0e 3f
       0.49117434 -0.33686766 -0.073880896 0.5564657
000150 17 c3 64 3e a1 68 88 3e b6 84 c0 be da 53 a0 bd
       0.22340046 0.26642326 -0.3760125 -0.078284934
000160 7d 6f 5a 3e 26 b7 da 3d 75 69 26 3e b1 5f ce 3e
       0.21331592 0.10679464 0.16251166 0.40307382
000170 e1 07 80 3e 1d f6 08 39 6b 7e c0 3d 9d 52 61 3e
       0.2500601 0.00013061655 0.09399112 0.2200417
000180 14 f7 7f 3e 2b 67 89 3e 79 bd 0d 3e cd a5 c0 3c
       0.24996597 0.26836523 0.1384181 0.02351656
000190 16 86 6e 3e df 73 f2 3d 20 f9 05 3e 6b 66 a2 bd
       0.23293337 0.11838507 0.13083315 -0.07929691
0001a0 8a c9 f7 3d 89 d3 5e 3e 65 de f5 3d 56 38 8a be
       0.120989874 0.21760382 0.12005309 -0.26996106
0001b0 64 5f b9 be f3 ce 45 be 24 46 e9 bd 1f 94 cb be
       -0.3620559 -0.19317226 -0.113903314 -0.39761445
0001c0 47 0b 91 bd 04 fb 57 3c 2d 3a 71 3e f6 da 10 be
       -0.07082229 0.013182405 0.23557349 -0.14146027
0001d0 13 79 5f be 89 f8 81 3e c4 cc 3b 3c ab 42 a9 be
       -0.2182353 0.2538493 0.011462394 -0.33058676
0001e0 a8 6f 7f 3e 93 7a dc 3e 54 07 77 bd e2 a2 7c 3e
       0.24944937 0.43062267 -0.060309723 0.2467151
0001f0 9d c1 27 be 14 05 be 3e dd 62 07 3f 6f 9f b0 3e
       -0.16382451 0.3711325 0.5288523 0.34496638
000200 bd 2d 9d 3e 6e 04 ad 3e dd 29 aa 3e 74 48 d2 3e
       0.30698958 0.33792442 0.33235064 0.41070902
000210 59 41 94 3e ed 75 ae 3e f1 66 1e 3e 91 79 22 bd
       0.28956106 0.34074345 0.15468957 -0.039666716
000220 c1 7a bd 3e a4 b8 4a 3e 49 3d 1f 3e bd fd 1d 3e
       0.37007716 0.19796997 0.15550722 0.15428825
000230 ef 5d 3a 3e a6 4d fb 3d 79 2f ab 3e 61 5b 96 3e
       0.18199895 0.1227067 0.33434656 0.29366592
000240 10 23 1a 3e 25 87 ad bc 0a 89 50 bc 2c 71 84 3c
       0.15052438 -0.021182606 -0.012727985 0.016167246
000250 85 ab ff bc 53 b1 87 3b 58 05 97 be 54 4c 88 be
       -0.031209717 0.0041410117 -0.29496264 -0.26620734
000260 4a 88 db 3e 26 6c 74 3e e0 b0 c6 3a 68 d5 53 ba
       0.42877418 0.2386938 0.0015158914 -0.0008080811
000270 cb 55 b3 be bd ec a4 3d 44 31 8d 3d 0c fe 06 3e
       -0.35026392 0.08052967 0.06894162 0.13182849
000280 fa 04 86 be 6d 09 53 bd b7 79 f0 be fc fc 28 be
       -0.26175672 -0.05152266 -0.4696786 -0.16502756
000290 92 12 c9 be 46 19 c5 3d c1 e1 98 3e 52 1d be 3d
       -0.3927198 0.09623961 0.29859737 0.09282936
0002a0 6a 9a f8 3e eb ab 20 3d 82 05 01 3e 93 ce f3 3c
       0.4855531 0.039226454 0.12599757 0.029761588
0002b0 38 e3 cc 3e 02 35 7e b9 e1 a5 b5 be f6 7d f2 bd
       0.40017104 -0.00024243075 -0.35478118 -0.118404314
0002c0 c9 c8 8f be 5a 6b 41 3d 3b 7f 42 3e 2a 00 53 be
       -0.28082874 0.04722152 0.18993847 -0.20605531
0002d0 8e 22 fa 3e 7c 66 18 3f 24 fc 6b be 18 82 44 3e
       0.48854488 0.5953138 -0.23045403 0.19190252
0002e0 48 1d 11 3f f1 94 79 3e f0 a0 1e 3e ea 01 39 3e
       0.56685305 0.24373223 0.1549108 0.18067136
0002f0 d9 f4 d1 3d 11 34 13 3e 55 e7 44 3d f5 a9 90 bc
       0.10251779 0.1437533 0.048072178 -0.017659167
000300 5b 4d 37 be d3 16 31 3e b1 b3 be 3d bc 02 44 bd
       -0.17900603 0.17293863 0.09311617 -0.04785417
000310 a4 f4 3f 3e 50 95 ff 3c dc 68 bb bd 8c e5 cd bd
       0.18745667 0.031199127 -0.0915086 -0.10053548
000320 0e 42 98 be 87 cf 0f be fa 6c 2e bd 51 4c 1e 3e
       -0.29737896 -0.14044009 -0.042584397 0.154588
000330 39 d6 82 3e 46 7f b5 be 38 bf c9 be d8 e6 8e be
       0.25554064 -0.35448664 -0.394037 -0.27910495
000340 4a 3c 3c 3d 82 0e 19 3e dd 5c 50 3e 4f 8b 9f 3e
       0.045955934 0.1494694 0.20347925 0.31160972
000350 b4 3a 85 3e ba e0 7f 3e d5 80 85 3e 53 9a 10 3e
       0.2602135 0.2498807 0.26074854 0.1412137
000360 4d cf 84 bd 0c fb fa 3d 8a 07 80 ba 58 11 8c be
       -0.06484852 0.12254915 -0.0009767872 -0.27356982
000370 7d 1a 2e 3e 60 b3 13 be 14 45 b3 bc 4a 86 3f be
       0.17002292 -0.14423895 -0.021883525 -0.18703571
000380 2b 15 89 be 0b 6b e4 3d 6d fa 22 3f 09 dc 66 be
       -0.26773962 0.11153229 0.6366337 -0.22544874
000390 d2 bd de 3d d7 43 96 3d 01 65 e1 3d 6d b5 03 bf
       0.10876049 0.07337158 0.11005593 -0.5144871
0003a0 d1 af 98 3c 34 19 05 3f d7 f1 e6 be bb 0e 0c be
       0.018638523 0.5199158 -0.45106384 -0.13677494
0003b0 39 9d b7 bd eb 4b c6 bd 3f ed fc bc 5b 7e c0 be
       -0.08965535 -0.09682449 -0.030874847 -0.37596402
0003c0 63 32 93 be b0 51 0b 3e 2a 97 8c 3d 41 82 2d be
       -0.2874938 0.1360538 0.0686477 -0.16944219
0003d0 7a 61 46 bd 08 40 46 3e 0e 2f 2b 3f 58 83 05 3f
       -0.048432805 0.19360363 0.66868675 0.5215354
0003e0 f1 3d fc 3e 8f 2e 16 be 38 ba e8 3d 6b dd a5 bd
       0.49266008 -0.14666198 0.113636434 -0.08098873
0003f0 81 51 6a 3d df b1 f9 3d 64 b5 43 3e 6e d1 b4 3d
       0.057206634 0.12192129 0.19112164 0.08829008

bias f4 [16]
000000 1e b3 81 3d e2 3f 76 bc 42 12 af 3c 40 1f 35 be
       0.06332992 -0.015029879 0.02137101 -0.17687702
000010 4c 3a 3d be f9 24 87 bc bd 58 63 3d df 01 64 be
       -0.1847927 -0.016497122 0.05550455 -0.22266339
000020 1d 19 9c be 6e 10 33 3e 8c 5c d6 bd 3e 94 97 3d
       -0.3048791 0.17486736 -0.10466871 0.07401322
000030 e8 23 3d be 3d e9 a3 3e 6b 9f ff bd 66 6b 68 bd
       -0.18470728 0.32013884 -0.124815784 -0.056743048

running_mean f4 [16]
000000 dd 0b 27 3c b9 81 cb bd b3 76 bb 3c 40 ea 4f be
       0.0101956995 -0.09936852 0.022883749 -0.20304203
000010 fd cd 46 be 19 9a 61 3d 32 58 a2 3c cb 84 56 be
       -0.19414516 0.0550786 0.019817445 -0.20949094
000020 d8 ef a7 be 45 ed 12 3e 05 23 c2 be 60 38 4e 3d
       -0.32800174 0.14348324 -0.37917343 0.050346732
000030 80 a3 5f be 98 af 8f 3e 18 13 00 be d6 cc 0e be
       -0.21839714 0.28063655 -0.12507284 -0.13945326

running_var f4 [16]
000000 de ce c7 3c 7b 55 ef 3c 46 83 e5 3b 28 b9 78 3c
       0.024390634 0.029215565 0.0070041744 0.015180863
000010 5c b0 1c 3c 2b e4 88 3c 5b f1 97 3c 20 02 3e 3c
       0.009563532 0.016710361 0.018547704 0.011597186
000020 48 2b e4 3b 55 da 8b 3c a2 2f 6a 3e 10 e5 d5 3b
       0.0069631673 0.017071882 0.22869733 0.0065275505
000030 ee 5a 46 3c fd a1 8c 3c 57 7b 41 3c ba 95 13 3d
       0.01210664 0.017167086 0.011809192 0.036031462

weight f4 [16]
000000 2d 1c 34 3f 61 10 42 3f 38 3d 1b 3f 7c 38 5c 3f
       0.7035549 0.7580624 0.6064029 0.8602369
000010 b1 a5 8b 3e 75 9a dd 3e 7f 4d db 3e be 17 e1 3e
       0.2727485 0.43281904 0.42832562 0.43963426
000020 20 c0 0f 3f c1 99 cf 3e 0f 98 7a 3f aa 4a d9 3e
       0.56152534 0.40546992 0.97888273 0.42439777
000030 fe 9a 3a 3f 60 35 8f 3f d5 6b bc 3e 2a eb d6 3e
       0.7289275 1.1188164 0.3680102 0.4197629

bias f4 [16]
000000 6d 06 95 be c4 60 c6 be 85 03 0b be ea d6 1a bf
       -0.29106465 -0.387457 -0.13575561 -0.6048418
000010 b0 7c 37 be 5b 71 0f bf e4 af 23 be 9e 7b 25 bf
       -0.17918658 -0.5603234 -0.15985066 -0.6464175
000020 9d 43 4d be bf 60 34 be ac ff d6 bd 08 d9 8d be
       -0.20045324 -0.1761503 -0.10497984 -0.27704644
000030 9c ac 9e be 8d 93 bc be c7 92 9a be 2a 20 3e be
       -0.30991066 -0.36831322 -0.30190107 -0.18566957

weight f4 [32, 16, 5, 5]
000000 dd 49 f5 3e ba e0 d3 bd e6 8d f9 3d 7a 5e d2 be
       0.47907916 -0.103455976 0.12185268 -0.41087705
000010 38 e1 0f 3e af 2b 8e 3d 31 e8 07 3e 4d 5e b7 3d
       0.14050758 0.06941926 0.13272168 0.08953533
000020 0b b2 10 3e 55 26 0e 3e 7d 84 be 3d e5 53 0e 3c
       0.14130418 0.1388181 0.09302614 0.008686994
000030 6c cd d0 bd 50 3c 92 3e 6d 8e 23 3e 4e e7 a6 bd
       -0.10195431 0.2856164 0.159723 -0.081495866
000040 69 73 40 3e 7f 5f 00 be 8b 14 db 3e 27 25 ad 3d
       0.18794025 -0.12536429 0.4278911 0.08454352
000050 1d e5 2e 3e 9a fd 92 3e 2f c9 22 3e 1c 8a 0e 3e
       0.17079587 0.28709108 0.15897058 0.13919872
000060 60 d4 58 be f2 a4 8b 3e fe 71 7b be 0a 6e 44 bd
       -0.21174765 0.2727428 -0.24555203 -0.047956504
000070 3d 56 fd 3d 3e 65 79 3c 5a a3 b6 39 87 7e 1c 3d
       0.12369964 0.015221892 0.00034835452 0.038206603
000080 40 7c d5 3b 0e 66 b3 3d 2d 17 13 bc 13 a5 5c 3e
       0.006515056 0.087597 -0.0089776935 0.21547346
000090 a7 b4 93 bd 90 2a dd be d4 bd c1 3e 87 d3 79 3e
       -0.07212191 -0.43196535 0.3784014 0.24397098
0000a0 22 b6 1d be 7c 18 7f 3e e6 5f e2 bd f9 18 00 3d
       -0.1540151 0.24911684 -0.110534474 0.031273816
0000b0 1c a0 bf be 83 cb 68 3d fd 98 2f bf d3 52 4e 3e
       -0.3742684 0.05683471 -0.68592817 0.20148782
0000c0 9e ab f5 3d b7 44 cc bc 4e 4a e8 3e d6 aa 8c 3e
       0.11995624 -0.02493511 0.4536919 0.27474087
0000d0 64 ec 1a bc 56 21 8b 3e f9 59 4e bd 35 81 1f bf
       -0.009455774 0.2717387 -0.050378773 -0.6230653
0000e0 21 2a 4b be 99 4b af 3d 40 95 cc bc a2 c0 1f bd
       -0.1984029 0.08559341 -0.024973512 -0.03900207
0000f0 68 0e e1 3e b2 ba c3 3e 30 1b b3 be 21 2f 56 3e
       0.43956304 0.38228375 -0.3498168 0.20916416
000100 0a 2c b0 3d a9 ec b8 be 92 ac 8d b9 7e 36 ef bd
       0.0860215 -0.36118057 -0.0002702219 -0.116803154
000110 7f 86 c7 bc f7 80 21 3e c6 2b af 3e 7b 1e ad bc
       -0.024356125 0.15771852 0.34213084 -0.021132698
000120 1f f8 ab be 85 25 a0 3e 23 e9 47 be d6 56 00 be
       -0.3358774 0.31278625 -0.19522528 -0.12533125
000130 29 1b 0a 3e ff ae ad be 68 18 e5 3e 74 94 0f be
       0.13486923 -0.33922574 0.44745183 -0.14021474
000140 71 b8 e8 3d 60 57 11 3e 8a 7b e5 3e 69 a8 84 3e
       0.113633044 0.14193487 0.44820815 0.25909737
000150 bb 9a 4b 3e e2 2b 34 be eb 87 55 3d 9b 51 b2 3d
       0.19883244 -0.17594865 0.052131575 0.08706971
000160 45 6b d4 39 61 3d ea 3e 11 14 43 3e 76 f8 ab bc
       0.00040515713 0.45749953 0.19050623 -0.020992499
000170 a7 53 b9 bd 49 5a 2c be ad a3 fc be 01 9c 85 bd
       -0.090491585 -0.16831316 -0.49343625 -0.06523896
000180 4b 41 d2 bd 1f c9 e6 be a2 b2 40 3e a6 81 c6 be
       -0.1026636 -0.45075318 0.18818143 -0.3877079
000190 4c e4 39 be 86 b2 db 3e 2c c5 4e bd 7b 5e 2e be
       -0.18153495 0.4290964 -0.050481007 -0.17028229
0001a0 e3 df b0 3e b0 27 a5 3d 47 e6 18 3e cb 5f 2f 3e
       0.34545812 0.080642104 0.14931594 0.17126386
0001b0 68 42 5d 3e 0f b4 fd 3d 10 ea 87 3d af 2d b4 3e
       0.21607363 0.12387859 0.06636441 0.35191104
0001c0 cc 2d bb 3e e3 e6 c6 3d c8 a3 84 bd 1f 9e 58 be
       0.36558378 0.09712007 -0.06476551 -0.21154068
0001d0 a1 51 82 bd c1 46 b7 be bc 96 d9 be 2d 3f c0 be
       -0.06363226 -0.35796168 -0.42497814 -0.375482
0001e0 92 0d 5e 3e 5f 32 a5 bd cc e9 61 be a1 e6 cb be
       0.21684864 -0.08066248 -0.22061843 -0.39824393
0001f0 41 ef 0d be 35 e9 31 bc c4 6b c2 be 6e 76 01 3e
       -0.138608 -0.010858824 -0.37972844 0.12642834
000200 86 c0 41 be c5 5f 62 3e d3 4a 5c be a0 6c 74 bd
       -0.18921098 0.22106846 -0.21512918 -0.059673905
000210 46 6d 80 3c 7d 4c 0e bb 53 3b ac be 9d cb a3 be
       0.015677106 -0.002171307 -0.3363901 -0.31991282
000220 26 18 16 bd 87 a6 c6 bc c4 71 96 3e a3 ad 9d be
       -0.036644123 -0.024249328 0.2938367 -0.30796537
000230 e5 3e 5e 3e c9 d6 83 3e 00 6a 0f be 39 75 16 be
       0.2170368 0.25749806 -0.1400528 -0.14693154
000240 41 c0 5f be a6 d2 33 3d 19 f0 e4 3d b2 97 6a 3e
       -0.21850683 0.043902062 0.111786075 0.2290943
000250 40 7d 5c be 3e 1b 9d be 7a 93 b9 3d 89 cc f5 3c
       -0.21532154 -0.30684847 0.09061332 0.030004757
000260 f5 cc 7a 3d 59 01 60 be e6 0f fc 3e ac e7 7e 3e
       0.06123062 -0.21875514 0.4923088 0.24893063
000270 3f 99 3d 3d 42 07 d7 3c 5a 37 0c 3e a8 6c 77 3e
       0.046288725 0.026248578 0.1369299 0.24162543
000280 b9 7a 48 3e d8 dd cd be 67 15 e7 be 0a f8 ff 3c
       0.19578065 -0.40208316 -0.45133516 0.031246204
000290 aa c0 9f 3d a7 b4 67 be 5e ed 2c 3e f9 e7 5b bd
       0.0780042 -0.22627507 0.16887423 -0.053688023
0002a0 e0 cc b5 be 02 76 50 bc a9 2b 92 3e 74 21 66 3d
       -0.3550787 -0.012723448 0.28548935 0.056184247
0002b0 4a 07 95 3e 84 e8 d0 3d 5d b9 8a 3e ac 5e 33 3e
       0.29107124 0.10200599 0.27094546 0.17516583
0002c0 b1 6b 88 3d 03 8f 33 be b6 ee 34 3e eb f1 22 3d
       0.066611655 -0.17535023 0.17669186 0.039781492
0002d0 96 b8 ad bd 75 4b 80 3d bd fa 88 3e 80 9b 77 be
       -0.084824726 0.06264392 0.26753798 -0.24180412
0002e0 b4 ef 10 3e 70 4e 01 be 45 1b 10 be 36 21 84 3e
       0.1415394 -0.12627578 -0.14072903 0.25806588
0002f0 8c df 15 3e fd 6d c1 3e f4 80 dc bd 80 97 94 be
       0.14636058 0.37779227 -0.10766783 -0.29021835
000300 0f d0 e8 3e be de 15 be 40 66 25 be 0b 8f a7 be
       0.45471236 -0.1463575 -0.16152287 -0.3272632
000310 8e 92 22 be 04 ca e1 bc 36 a1 a9 3e be 85 85 3e
       -0.15876219 -0.027562149 0.33130807 0.260786
000320 54 1a 06 3e 14 f9 81 3e 04 aa 40 bf 94 90 ae be
       0.13095981 0.25385344 -0.75259423 -0.3409468
000330 69 90 22 bf e0 fc 8a 3e ad b2 68 3e b4 1b 50 3c
       -0.635016 0.27146053 0.2272441 0.012701917
000340 5b a4 aa bc d2 46 a5 3d 0c bd 48 3e a7 d8 68 be
       -0.020830324 0.080701485 0.19603366 -0.22738896
000350 4e c1 88 be e6 15 9e 3c 22 22 1b 3d b2 08 e4 3d
       -0.2670998 0.019297551 0.03787435 0.11134471
000360 9a 09 bd 3d 64 76 f6 3d e6 96 e9 bd b5 63 e8 3c
       0.09230347 0.120343 -0.11405735 0.028367857
000370 fd 06 02 3e b4 4f 2e bc 34 f2 7e 3e dc 4a 43 bd
       0.12697978 -0.01063912 0.2489708 -0.047678813
000380 8c 2f f0 be 1b f9 05 be ef 7a 25 bf da 76 13 be
       -0.46911275 -0.13083307 -0.64640707 -0.14400807
000390 f0 08 c0 3e 9c ca b2 3c 7b b5 64 be 96 df ac 3e
       0.3750682 0.021825127 -0.22334854 0.33764333
0003a0 26 43 c2 3d 8e c7 f2 3d b4 6f 4d 3e d6 61 db be
       0.09485464 0.11854468 0.20062143 -0.4284808
0003b0 33 c6 c4 3c 7f 03 b5 bc 05 6e bf bd aa 03 38 3d
       0.02402029 -0.022096394 -0.093471564 0.04492537
0003c0 b8 ec 83 be 2a 2e af bc f2 68 0a 3e e4 c7 94 3d
       -0.2576654 -0.021384317 0.13516596 0.072646886
0003d0 8d a0 8b 3d 74 e5 f4 3d d3 a9 a3 3e 6d d6 fa be
       0.06817732 0.11957827 0.31965503 -0.4899172
0003e0 5c 43 c6 3c 31 eb 6c 3e 0c d0 26 bd 40 f1 19 3e
       0.024202041 0.23136593 -0.040725753 0.15033436
0003f0 a4 84 50 3d 2c cf 18 be c3 80 42 be 07 f6 6d bd
       0.050907746 -0.1492278 -0.18994431 -0.058095958

bias f4 [32]
000000 ee dc d4 bc 2a 99 a8 3b b8 cd 1e 3c c9 5e 9e bc
       -0.025984254 0.0051452117 0.009692602 -0.019332306
000010 1d 55 db 3b 35 97 08 3d 06 ad 94 3c cc 5c 82 bc
       0.006693496 0.033347327 0.01814891 -0.01591339
000020 ac ef e1 bb 46 a3 2d bd 01 cf 3c bd 34 85 af 3a
       -0.006895026 -0.042392038 -0.04609585 0.0013391138
000030 a5 1f 9e 3c c3 df 93 3c db 45 d6 3b 9a 0d 32 bd
       0.019302199 0.018051034 0.006539089 -0.043470003
000040 20 9d 3d bd 56 c6 41 3c 3e c9 2f 3d ce 30 72 bc
       -0.046292424 0.011827072 0.04291653 -0.014782144
000050 34 62 17 3a 7d fb 13 bd bb 2c 85 3c ff 33 5c bd
       0.0005774826 -0.03612851 0.01625668 -0.053760525
000060 91 f1 b0 3c b3 a1 99 bc 11 6a 0f bd 9e 07 cc bb
       0.021599563 -0.018753862 -0.035013262 -0.006226494
000070 f6 06 e0 ba de b7 33 bd ea 63 51 3c 91 a5 56 bc
       -0.0017091918 -0.04387652 0.012780169 -0.013100998

running_mean f4 [32]
000000 9a 12 df 3c ed 99 06 be a9 a9 c7 3e 1f 0d a3 bd
       0.02723055 -0.13144656 0.38996628 -0.07961487
000010 6e c6 0a bf b1 f0 f3 3f 39 15 8a be 51 53 09 3e
       -0.5420903 1.9057828 -0.26969317 0.13410689
000020 85 6b 14 3f f6 34 0e 3f 72 1a 22 3e de d3 91 be
       0.5797656 0.5554956 0.158304 -0.28481954
000030 94 6d bf 3e c3 ed b3 3f cc 26 44 3f eb 00 5f 3d
       0.3738829 1.4056934 0.766217 0.054444235
000040 87 a5 e9 bc 1f 8c 4f 3f 94 78 31 3e e2 83 11 3e
       -0.028521312 0.8107318 0.17331153 0.14210466
000050 1d 16 78 3b 4a b4 d7 3f d1 f9 c7 3e 02 fe 46 3d
       0.0037854977 1.6851895 0.39057782 0.048582084
000060 ca 67 98 3e 46 39 a9 bf 8d 88 a2 be 0f c8 71 bd
       0.29766685 -1.3220603 -0.31744805 -0.05902868
000070 4b 22 03 bf 0c 6d 84 3e 70 f9 2d bd a8 f3 17 40
       -0.512242 0.25864446 -0.04247421 2.3742466

running_var f4 [32]
000000 2a 28 c5 3f 61 48 19 3f 25 92 84 3f e0 98 4d 3f
       1.5402882 0.59876066 1.03571 0.80311394
000010 0c c5 08 3f 93 0d e5 3f 42 05 42 3f 67 f0 33 40
       0.5342567 1.7894768 0.7578927 2.811548
000020 93 57 1d 3f 74 58 8d 3f 81 03 37 3f 7c 7b 32 3f
       0.6146175 1.1042619 0.7148972 0.6971967
000030 e7 4d 1f 3f 40 05 9e 3f d2 36 45 40 70 8d 0a 40
       0.62228245 1.2345352 3.081471 2.1648827
000040 4f f3 56 3f 3a 44 e7 3e ce 02 d3 3f 56 b7 3d 40
       0.8396501 0.4516924 1.6485231 2.964315
000050 41 a2 82 3f 8b 10 8c 3f 41 0e 6d 3f f1 b2 45 3f
       1.0205766 1.0942549 0.92599875 0.7722617
000060 ae 09 3e 3f ac 64 28 40 50 5e c0 3f 49 84 26 3f
       0.7423352 2.6311445 1.5028782 0.650456
000070 ed ef 3a 40 ae df b1 40 ef 34 83 3f 94 8d fc 3f
       2.920894 5.5585546 1.0250529 1.9730706

weight f4 [32]
000000 35 85 0b 3f cb 49 0e 3f 10 52 d5 3e 2f 59 df 3e
       0.5450013 0.5558135 0.4166417 0.4362273
000010 04 c5 b5 3e 82 50 dd 3e 4c 51 d6 3e 8a a1 27 3f
       0.35501873 0.43225485 0.418589 0.65480864
000020 15 7c c6 3e 83 92 cc 3e 97 df a9 3e 0e e7 e8 3e
       0.38766542 0.3995553 0.33178398 0.4548878
000030 d4 0b c1 3e a3 4c d9 3e 51 89 4e 3f 14 85 a0 3f
       0.37704337 0.42441282 0.8067828 1.2540612
000040 24 58 9a 3e 96 a3 52 3e 65 a1 32 3f d3 d0 38 3f
       0.3014537 0.20570216 0.6977752 0.7219364
000050 f7 d6 a6 3e e6 c3 c1 3e 70 b0 a1 3e 83 31 c8 3e
       0.3258588 0.3784477 0.31579924 0.39100274
000060 8a 5e a0 3e 76 d6 1c 3f 7e 75 c3 3e a3 29 ca 3e
       0.31322128 0.6126474 0.38175577 0.3948489
000070 d8 66 02 3f ca dd 23 3f 22 4b b8 3e d4 0a 0c 3f
       0.5093818 0.640103 0.35994822 0.5470402

bias f4 [32]
000000 0d 78 c4 be 39 e4 82 be 51 04 95 be 20 f1 81 be
       -0.3837284 -0.25564745 -0.29104856 -0.25379276
000010 5f f8 30 be 84 c5 85 be f1 04 4a be bc 31 b3 be
       -0.17282246 -0.26127255 -0.19728447 -0.34998882
000020 e2 ef 81 be ab 83 23 be 7f c6 88 be 40 f1 97 be
       -0.2537833 -0.15968196 -0.2671394 -0.29676247
000030 e9 01 83 be 48 08 44 be df 39 e0 be ec f3 8f be
       -0.25587395 -0.19143784 -0.43794152 -0.28115785
000040 10 37 d4 be 6f 93 cf bd ca d5 e1 bd d3 d5 9b be
       -0.4144826 -0.101355426 -0.11027105 -0.30436572
000050 0f 3f 94 be 86 b5 5d be 59 c1 d4 be 47 3a 66 be
       -0.2895436 -0.21651277 -0.41553763 -0.22483169
000060 b8 6a 39 be 6a a3 dd bd b5 2a ac be b8 a9 11 bf
       -0.18107116 -0.108221844 -0.33626333 -0.56899595
000070 35 46 8e be 93 59 8c be 5f d8 a8 be 4d e0 51 be
       -0.2778794 -0.2741209 -0.32977578 -0.2049572

weight f4 [32, 32, 5, 5]
000000 c8 45 90 bc 48 c4 de bd 57 16 88 bd f9 e0 11 bf
       -0.0176114 -0.108772814 -0.06644886 -0.56983906
000010 71 a9 12 bf fd 87 97 3d e9 bf 05 bc be 35 aa 3d
       -0.572898 0.073989846 -0.008163431 0.08311032
000020 48 af 88 3c 8b cf 8c 3b 01 03 86 be 93 62 a5 bd
       0.016685143 0.004297202 -0.26174167 -0.08075442
000030 07 44 60 3c b5 2b 08 3f 22 70 81 3e 8e 50 56 3e
       0.013688094 0.5319169 0.25280863 0.20929167
000040 d3 0b 55 3d 49 ae 6f bd 22 4f 0a 3d a7 20 6c be
       0.05201323 -0.05851582 0.033766873 -0.23059331
000050 f4 88 fa bc 95 43 32 bf 4a 62 46 3e 57 d6 14 3e
       -0.030582882 -0.6963437 0.19373432 0.14534889
000060 81 66 5c be db 37 89 be 90 b4 52 be b5 a7 e5 bd
       -0.21523477 -0.26800427 -0.20576692 -0.11213628
000070 61 51 37 be f4 ad d3 be 40 68 20 bd 3f de 12 3e
       -0.17902137 -0.41343653 -0.03916192 0.14342593
000080 bb cb c8 3e 77 08 4e be 02 36 16 be f5 b5 3f bd
       0.39217934 -0.20120417 -0.1466904 -0.046804387
000090 5d 55 08 3e b1 bb e9 3d f5 1b 00 be cc 0c 7d 3e
       0.13313814 0.114127524 -0.12510665 0.24711913
0000a0 fe c1 f6 bd c4 8e eb bd 2b d3 9d bd d4 44 10 bf
       -0.1204872 -0.1150184 -0.07706293 -0.56355023
0000b0 4f d5 19 bf 34 41 95 be ef c6 05 3a dd 71 92 3c
       -0.6009111 -0.2915131 0.0005103191 0.01787656
0000c0 35 5b 6d be 79 b8 3c be 03 6c 1d 3d ce 06 f1 be
       -0.23179324 -0.18429746 0.038433086 -0.47075504
0000d0 de 55 1c 3d 17 cf 5f 3e 24 99 9b 3e 2f 02 73 bd
       0.038167827 0.21856342 0.30390275 -0.059328254
0000e0 43 10 24 be 64 61 36 bd 7c f8 f1 3d 90 b9 85 bc
       -0.16021828 -0.044526473 0.11814973 -0.016323835
0000f0 ec 81 88 3b 28 6b 02 3c e9 6c 63 be 1e 30 8b be
       0.0041658785 0.007960118 -0.22209515 -0.27185148
000100 a5 62 da 3d 06 ea 82 3c cd 11 3f be 71 0a 23 be
       0.10663346 0.015980732 -0.18659134 -0.15921952
000110 07 48 84 3e 0f 82 b7 3d d7 24 82 3d 65 3b cc 3c
       0.25836203 0.089603536 0.06354683 0.024930665
000120 fb 57 68 be 90 b0 00 be 91 56 df 3e 3f 85 49 be
       -0.22689812 -0.12567353 0.43620732 -0.19679736
000130 80 79 76 be 15 d4 33 be df cf 9e 3d f8 0a 54 be
       -0.24069786 -0.17561372 0.07754492 -0.20707309
000140 63 76 0c be fa 1e 22 bd 52 3b 01 be 2c b5 aa 3d
       -0.13717036 -0.039580323 -0.12620285 0.08335337
000150 5b 18 81 3c 31 e5 42 3e 21 a1 7d be 2b 13 4b bd
       0.015758684 0.19032742 -0.24768497 -0.049578827
000160 64 69 e3 be 68 c1 9e bd b9 39 64 bd c4 16 ae bd
       -0.44416344 -0.07751733 -0.05571911 -0.08500436
000170 65 6e 35 3e b4 51 be be 77 7c eb be 03 e7 fd 3d
       0.17717893 -0.3717171 -0.45993397 0.123975776
000180 93 ad e2 bd d9 be 99 bc 7f 77 e9 3d a6 6e be be
       -0.11068263 -0.018767761 0.11399745 -0.37193793
000190 52 5f a3 be 26 f6 e9 be 8a 0c a8 3e 50 2c 1a bd
       -0.3190866 -0.4569561 0.32822067 -0.037639916
0001a0 03 d1 79 3e 08 7f 29 be f5 1c 25 3c 04 b0 a1 3d
       0.24396138 -0.16552365 0.010077705 0.078949004
0001b0 cb 4e f1 3d ac fb 20 3d 23 96 97 be 2e 60 d9 bd
       0.11782607 0.039302513 -0.29606733 -0.10614048
0001c0 e9 cf 8b 3e a6 e2 89 be 9a 52 ab bc 47 e7 ba 3c
       0.2730706 -0.26930732 -0.020913411 0.02281536
0001d0 fb 47 84 be 7c 10 c9 3d 51 94 df 3c 6a 7a d4 3e
       -0.25836167 0.09817597 0.027292402 0.41499645
0001e0 4f 0f fc 3d 13 10 02 3e a8 80 c9 3d 51 15 af bd
       0.123076074 0.12701444 0.09838992 -0.08548988
0001f0 e4 c1 1f 3f 1c 90 53 be 5a 07 c3 bd 83 c8 36 3e
       0.6240523 -0.20660442 -0.095228866 0.17849927
000200 0a 64 6f 3e dd 02 40 3e c6 c1 c8 3c b5 7d f0 3d
       0.23378006 0.18751092 0.02450646 0.11742727
000210 bf 92 b8 3d f0 1d 5f bb 07 00 92 3e 9c 97 9e 3e
       0.090123646 -0.0034044944 0.28515646 0.30975044
000220 7c 3a ab 3b 7f 81 ba 3d d6 4d 9a 3e ba 74 89 3e
       0.0052254777 0.09106731 0.3013751 0.26846868
000230 aa ea 83 bd 29 41 19 3e c7 f0 86 be 68 36 3c bd
       -0.06441243 0.14966263 -0.26355574 -0.045950323
000240 3f 18 b3 3e 8e bc 57 3d ed 25 80 bd cc 31 12 bd
       0.34979436 0.052670054 -0.06257234 -0.03569202
000250 82 08 94 3e 57 80 39 be 4c 35 9d be fc ce 4b be
       0.2891274 -0.18115364 -0.30704725 -0.19903177
000260 b8 e9 0f 3e ea c7 02 be b8 0b 93 be be 84 61 be
       0.14054 -0.12771574 -0.28719878 -0.22023293
000270 98 e2 e7 bc d6 fa c2 bd 73 20 f5 bd 25 c6 12 bf
       -0.02830629 -0.095204994 -0.1196908 -0.57333595
000280 37 1a 3f be d1 d5 48 bd 88 6b 08 3e 28 89 7b be
       -0.18662344 -0.049032036 0.1332227 -0.2456404
000290 7d d2 09 3e 92 48 77 3d 3e 1d 88 bd 94 d4 cb bd
       0.13459201 0.060371943 -0.066462025 -0.099526554
0002a0 d8 13 24 3e 9a a3 97 3e 48 58 16 bd d2 e9 f6 3d
       0.16023195 0.29617006 -0.036705285 0.120563164
0002b0 1f 5b cf be ec de e3 3b 05 88 a3 bd a0 13 c6 3d
       -0.40499207 0.0069540646 -0.07984928 0.09671712
0002c0 99 c2 69 3e 59 a2 6f 3e 61 b6 bc be ab 86 32 bf
       0.2282814 0.23401774 -0.36857894 -0.69736737
0002d0 46 1d 45 3e 76 bd 89 bb 29 0b be bb 30 68 59 be
       0.19249448 -0.0042034937 -0.0057996702 -0.2123115
0002e0 63 0c 68 bd 1b 0f aa 3c 53 0c 2c be f3 1c af 3d
       -0.056652438 0.020759156 -0.16801576 0.085504435
0002f0 c6 6e 14 be c5 74 e5 3e 15 94 4d 3d c2 bd 1b bc
       -0.14495382 0.4481565 0.05019005 -0.009505691
000300 dc 82 9c 3e 2e ee 35 3d 89 83 f1 3e 9e e5 a0 3c
       0.30568588 0.0444166 0.47170666 0.01964074
000310 e7 58 89 3d fb 12 ec 3d a5 c9 80 ba a7 f1 69 3d
       0.0670641 0.11527058 -0.000982572 0.057115223
000320 93 55 7f 3d ac 0b 2b be de 26 9d be aa a2 c1 bd
       0.06233747 -0.16703671 -0.30693716 -0.09454854
000330 64 44 9e 3c 9f d9 eb 3c 5c d7 74 bd 7a e3 be 3d
       0.01931972 0.028790293 -0.059775695 0.093207315
000340 95 00 83 bd e7 fa 56 be 79 fa 8e be 0c 08 20 3c
       -0.063965954 -0.20994149 -0.2792547 0.0097675435
000350 06 ca f5 3c bf 64 a2 be 09 7a da bc 66 7d 97 3e
       0.030003559 -0.31717488 -0.026669519 0.2958786
000360 b4 23 8b 3b d1 40 46 be c9 65 af be a4 11 7a 3e
       0.0042461995 -0.19360663 -0.34257343 0.24420792
000370 1d c0 7f bd c1 b6 7d 3e c8 01 2e 3e 73 b1 f8 be
       -0.062439073 0.24776746 0.16992867 -0.48572883
000380 2b 7e 00 bf bd 37 90 be 9c b3 9c be 97 58 55 be
       -0.5019252 -0.28167525 -0.3060578 -0.20834576
000390 db cc 45 bd 17 73 25 be e6 ed 8a 3d aa 9a 4c 3e
       -0.04829107 -0.16157185 0.06783657 0.19980875
0003a0 54 4e b8 3c d0 92 c0 3d 55 80 26 3e e2 87 fb bb
       0.022498287 0.09403002 0.16259892 -0.0076761106
0003b0 b5 01 e8 bd d8 93 84 bd 05 8c 22 bd a4 45 18 bd
       -0.113284506 -0.064735115 -0.039684314 -0.03717579
0003c0 f8 d5 67 3d 34 6e 04 be b2 41 8c be 08 6a 21 bf
       0.05660054 -0.12932664 -0.27393872 -0.63052416
0003d0 bb b5 b6 3c 58 48 08 bf 23 16 19 be 03 51 8d be
       0.022303453 -0.5323539 -0.1494985 -0.2760087
0003e0 9f 17 2a be 8a 24 25 be e9 2d 86 3d d6 63 f7 3d
       -0.16610573 -0.1612722 0.065517254 0.12079589
0003f0 f7 5d 73 bc 57 eb 33 bd 2f da 25 be 9c b6 ee 3d
       -0.014853946 -0.04392561 -0.16196512 0.11655924

bias f4 [32]
000000 18 ac 8a bc b9 96 d6 3c fc b3 f6 bb 12 34 66 bc
       -0.016927764 0.026194917 -0.00752878 -0.0140505005
000010 57 b6 16 3d c6 f9 00 bd 1e 3c 4f 3c 5b 8e ff 3c
       0.036794987 -0.031488203 0.01264861 0.03119581
000020 24 e3 10 3d 3a a4 a6 bc e2 01 cd bc 3a 99 08 bd
       0.03537287 -0.020341981 -0.025025312 -0.033349253
000030 47 52 e5 bb 18 c4 65 bc e6 4b fc bc 04 d7 a2 bc
       -0.0069983336 -0.014023803 -0.03079791 -0.019877918
000040 be bc 2f 3d c8 31 03 3d d5 bb 4d 3c 6d 4a b3 3c
       0.042904608 0.032029897 0.01255699 0.021886075
000050 56 f6 5b 3c 44 37 34 3d 71 69 8d ba 21 4f 90 bc
       0.01342543 0.043998018 -0.001078887 -0.017615857
000060 06 dc f1 ba d9 e9 0a 3d 74 1a ef bc 50 02 4d bc
       -0.0018452413 0.03391442 -0.029187419 -0.012512758
000070 0b 27 4c 3c 94 17 28 3a 59 c5 07 3d 61 9a ea 3c
       0.01246048 0.0006412205 0.03314719 0.028638067

running_mean f4 [32]
000000 cf c7 6c bf e5 4d a6 bf 54 0d 8f bf 1c 5a 9b bf
       -0.92492384 -1.2992522 -1.1175942 -1.2136874
000010 76 6e 92 bf 16 d5 84 bf a7 b7 8d bf fc 9c db bf
       -1.143996 -1.0377529 -1.1071671 -1.7157283
000020 b7 b9 07 c0 06 cb b9 bf 45 8d 61 bf 7f 41 50 bf
       -2.1207101 -1.4515083 -0.88106185 -0.8134994
000030 30 1c 22 bf 39 25 a3 bf 9a ca a0 be 35 80 08 bf
       -0.6332426 -1.2745734 -0.31404573 -0.5332063
000040 a9 ef 4b bf fa e5 ae bf 73 15 12 c0 8a 03 3c bf
       -0.7966257 -1.3663933 -2.2825592 -0.734429
000050 c7 bb d4 bf 90 61 52 c0 5f be 3d bf 94 21 13 c0
       -1.6619805 -3.2872047 -0.7411861 -2.2989244
000060 b1 5f a1 bc 1e 98 42 be f0 ff 41 bf 33 98 28 c0
       -0.01969895 -0.1900334 -0.75781155 -2.6342895
000070 b5 4b 8d bd fc 80 18 c0 7b cb 24 c0 de 80 83 bf
       -0.068992056 -2.3828726 -2.5749195 -1.0273702

running_var f4 [32]
000000 e4 1b 45 3f c3 11 9a 3f fc 9e 43 3f fa 38 2f 3f
       0.7699568 1.203667 0.76414466 0.68446314
000010 2e 07 77 3f e2 b8 b5 3f 77 ab 7b 3f 4c 25 97 3f
       0.9649533 1.4197047 0.9830851 1.1808257
000020 f3 90 9a 3f ee a3 40 3f 54 07 83 3f 07 87 85 3f
       1.2075485 0.75250137 1.0236611 1.0431832
000030 5f 90 2d 3f a0 73 d5 3f be 97 3b 3f cf fa 2a 3f
       0.6779842 1.6675911 0.73278415 0.66788954
000040 4a 2a 6d 3f f5 a9 8c 3f ac c9 51 40 bd a4 9e 3f
       0.92642653 1.0989367 3.277934 1.2394024
000050 d5 d2 ca 3f eb 43 17 40 09 d7 4c 3f 80 af 9a 3f
       1.5845591 2.3635204 0.8001562 1.2084808
000060 ed c5 39 3c d0 4e 79 3f df db 8a 3f b4 71 06 40
       0.011338693 0.97385883 1.0848349 2.10069
000070 cb 39 66 3f af 80 ce 3f 78 4e 91 3f 9c ff bc 3f
       0.89931935 1.6133021 1.1352072 1.4765506

weight f4 [32]
000000 c4 5b 05 3f 02 ff 0a 3f 97 36 2a 3f f9 33 f9 3e
       0.5209315 0.5429536 0.6648955 0.48672464
000010 5e e0 e2 3e 85 bb 18 3f af d2 06 3f 86 ae ae 3e
       0.44311804 0.5966113 0.5266523 0.34117526
000020 7b 9f c3 3e de e7 f0 3e 0f d5 30 3f b9 f7 1b 3f
       0.3820761 0.470519 0.690751 0.6092487
000030 b6 7e f7 3e fc b6 03 3f 3f af 09 3f e1 99 26 3f
       0.4833886 0.51451087 0.5378303 0.6507855
000040 b0 1a 03 3f 6d de c1 3e 5a e9 63 3f ab 1b 58 3f
       0.51212597 0.3786501 0.8902794 0.8441722
000050 d9 de a5 3e c9 10 d2 3e 80 ce b8 3e 4c 9f be 3e
       0.32396582 0.4102843 0.36095047 0.3723091
000060 a2 0b a8 39 82 26 34 3f ca 38 fc 3e 00 7c 14 3f
       0.00032052124 0.7037126 0.49262077 0.5800171
000070 a5 5c 36 3f f2 47 4e 3f 20 c8 c6 3e 00 d9 d0 3e
       0.71235114 0.8057853 0.38824558 0.40790558

bias f4 [32]
000000 14 4c 21 bf 65 1f 6a bf 30 8a 25 bf bf 17 54 bf
       -0.6300671 -0.91454154 -0.6466398 -0.82848734
000010 d3 29 3d bf ad 25 5f bf 4b fd 3d bf 3d 61 a3 be
       -0.73891944 -0.87166864 -0.7421462 -0.31910124
000020 34 4b 9e be b9 72 05 bf 1f 53 37 bf f5 b1 6c bf
       -0.3091675 -0.5212818 -0.7161121 -0.9245904
000030 e1 20 31 bf 71 38 f2 be 35 34 7c bf 3a d7 6c bf
       -0.69190794 -0.47308686 -0.9851716 -0.9251591
000040 53 9b 26 bf 9c c8 09 bf 83 16 02 bf 80 b8 75 bf
       -0.65080756 -0.5382173 -0.508156 -0.9598465
000050 c7 09 2f bf 63 a3 6f be c8 2e 1d bf 69 3c e2 be
       -0.68374294 -0.23402171 -0.6139951 -0.44186714
000060 ad d2 ad bb 2d 1a 8c bf c8 cf 3f bf eb e0 d0 be
       -0.0053046555 -1.0945488 -0.74926424 -0.407966
000070 73 2e 66 bf f2 ad 15 bf 3a c7 2e bf ce be 16 bf
       -0.89914626 -0.58468544 -0.68272746 -0.58884895

weight f4 [4, 1536]
000000 e1 12 75 bc 06 8d 41 3c bb 3c db 3b c4 17 26 3a
       -0.014958114 0.011813408 0.0066905892 0.0006335939
000010 46 0f 14 bc 35 be d7 3a cc 9c 2d bb fb e6 24 bc
       -0.009036845 0.0016459884 -0.0026491163 -0.010064836
000020 c0 2a fb bc 84 3c a9 3d e3 22 a4 3d 5d 77 45 3d
       -0.030660033 0.082634956 0.080144666 0.048209537
000030 fe cd 64 3e 40 00 44 bb 1f 6a a6 bc 84 8e 22 3e
       0.22344205 -0.0029907376 -0.020314274 0.15874678
000040 94 7f 45 3e 44 e1 15 be c5 04 28 3a 58 4a be bd
       0.19286948 -0.14636713 0.0006409402 -0.09291524
000050 bd 55 23 bd c3 8a e5 bc 5a e9 ef ba 40 ab 08 3f
       -0.03987669 -0.028020268 -0.0018303797 0.53386307
000060 64 57 0e 3d 83 d5 cd 3a fd 97 50 bc 55 07 4e be
       0.03475131 0.001570389 -0.012731549 -0.20119984
000070 c3 13 b9 bc 1d f5 15 be 26 d1 ad bc 49 de e2 bd
       -0.022592431 -0.14644285 -0.021217894 -0.11077554
000080 3d 10 98 bd 57 56 15 bc 31 d8 e1 bb 6a 97 56 3f
       -0.07424972 -0.009114823 -0.006892227 0.8382479
000090 a3 11 67 3c 81 1c 3b be 09 b3 8a 3b f7 cf 2f bc
       0.014103326 -0.18272592 0.0042327684 -0.010730735
0000a0 d5 71 48 bd ef 7c a0 3d 28 8c c8 bd 80 9e 70 3e
       -0.048936684 0.07836329 -0.09792358 0.23497963
0000b0 f9 2f 2e bc a8 34 d8 3c a9 08 70 bd 88 91 01 3f
       -0.010631555 0.026392296 -0.05860201 0.5061269
0000c0 38 ae 4f 3c ea e1 90 bc 08 7e 79 bc bb f7 63 bb
       0.012675814 -0.01768585 -0.015227802 -0.003478511
0000d0 af 31 9a bb fe e2 1e ba 6c 79 fe 3c e9 b1 07 3a
       -0.00470563 -0.0006061046 0.031063758 0.0005176352
0000e0 54 73 0b bc 06 0b be bc ec fb 80 3c 52 ab d4 3a
       -0.008511383 -0.023198616 0.015745126 0.0016225374
0000f0 90 c0 29 3d 5c 80 9d 3e 1c 32 61 3e f9 06 0d 3e
       0.041443408 0.30761993 0.21991771 0.13772191
000100 47 68 d9 3e 48 2d 7b 3e 1b c5 b4 bd 26 a5 cd 3d
       0.4246237 0.24528992 -0.088266574 0.10041265
000110 7b 94 f4 bd 72 e3 2d 3e 2e 7b 09 3e 77 27 d6 be
       -0.11942383 0.16981295 0.13425896 -0.41826984
000120 f6 2d d7 bd 17 f8 1b 3e 0e 6b a4 be 43 2a 23 3d
       -0.10506813 0.15231358 -0.32112926 0.039835226
000130 fd 25 8e be 6c b3 58 be d6 e4 2c 3d fa c3 96 3d
       -0.27763358 -0.21162194 0.042210422 0.07361598
000140 7a 41 ae bd bc 13 69 be ba bd 18 be e4 06 c5 3e
       -0.085085824 -0.22761434 -0.14916125 0.3848182
000150 50 7a 90 be 3e 9a 2f 3e f0 25 43 3e 3d bb b8 3d
       -0.28218317 0.17148682 0.19057441 0.09020088
000160 74 1f 0c be b1 6d 2a bf 1a f4 7b bd 13 2a 86 3a
       -0.13683873 -0.66573626 -0.06151209 0.0010235928
000170 b8 6a 0a be a7 a1 a6 bd ad 2c 25 bd 95 f7 27 be
       -0.13517272 -0.081363015 -0.04032581 -0.16403039
000180 4e 9c 08 3c 70 22 13 3a 35 98 0c bc fa 1e c9 bb
       0.008338047 0.00056127366 -0.008581211 -0.006137726
000190 ff 2d 61 3c 55 33 b7 3c 8f 6b c2 3c 3f 61 94 3b
       0.0137438765 0.022363344 0.023732929 0.004528194
0001a0 6f b8 40 bd db b0 8e bd 15 b4 9c 3d 17 17 89 3c
       -0.04705089 -0.06967326 0.076515354 0.016734643
0001b0 91 9c 5b 3c 30 6b da 3d 68 62 9c 3d 8f 81 9a 3d
       0.013404028 0.10664976 0.07635957 0.075442426
0001c0 c4 b6 68 bd 4a 31 64 3e 6d 19 9d be d7 1c 62 bd
       -0.056814924 0.22284427 -0.3068346 -0.055203285
0001d0 62 e6 a4 bd ab 21 2f be 97 5e 1d be fa e0 a2 bd
       -0.080517545 -0.17102687 -0.15368114 -0.07953067
0001e0 e8 2f 90 3d 25 8e 78 3d 6c d8 e5 3b f2 b6 04 3c
       0.070403874 0.060682435 0.007014325 0.008100258
0001f0 d5 ad 72 bb ee 91 8e 3b 76 ea d0 3e 98 eb 57 ba
       -0.0037029881 0.0043508923 0.4080388 -0.00082367053
000200 fe 15 44 3b 4b b5 42 bb cb 1f 64 bb ec 25 d3 39
       0.0029920335 -0.002971011 -0.003480899 0.0004027331
000210 01 b1 58 3e 01 59 d4 3c b3 0a 24 bb 9d c3 19 bc
       0.21161272 0.025921347 -0.0025030791 -0.009385017
000220 0f fb 44 bd f4 b9 fa ba 10 b9 3c 3f db 77 34 bb
       -0.04809099 -0.0019128905 0.7371988 -0.002753726
000230 29 13 c3 3a 9e ee 0e bc eb 13 e3 3c e9 12 ac bb
       0.001488303 -0.008723883 0.027719459 -0.0052512777
000240 2e 66 84 bc 9d e7 6a 3c 7b f0 46 3c 34 1d db bc
       -0.016162004 0.0143374475 0.012142296 -0.026747324
000250 e6 1b e8 3b 46 b2 2b bb c8 02 92 bc 5c 7c 3b 3c
       0.007083404 -0.0026198789 -0.017823592 0.011443224
000260 aa bc 5e bc 88 53 a2 3c 90 fc df 3b 08 e8 59 bb
       -0.013594786 0.019815221 0.0068355277 -0.0033249874
000270 7d 79 49 be 08 99 9f be 2d 6b 14 be 55 18 3a 3e
       -0.1967525 -0.3117144 -0.1449401 0.18173344
000280 0e b2 d0 bd a4 d8 2f 3e b6 fe da 3e 49 10 1d be
       -0.10190211 0.17172486 0.42772454 -0.15338244
000290 81 f3 3f 3e 95 e0 99 3e 4c c1 e5 3d 7f 3b 5b bc
       0.18745233 0.30054155 0.11218509 -0.013380884
0002a0 29 ae dd 3d db a3 62 3d 2b c6 d5 3d 59 75 d2 3d
       0.10824234 0.055332046 0.10438188 0.102762885
0002b0 5f a3 8a 3e 11 4a bf 3e 6e cb 13 3d f5 d0 c3 bd
       0.27077767 0.37361196 0.036082678 -0.0956134
0002c0 e6 14 6e 3c 03 58 13 3d 76 d2 ec bc 28 93 2e be
       0.01453135 0.035972606 -0.02890895 -0.17048323
0002d0 9d 38 90 3e 45 41 7d bd c3 30 0b 3e fc 41 7c 3d
       0.28168193 -0.061829824 0.1359282 0.061586365
0002e0 bb 5a 38 3c 04 b8 59 bc 56 87 eb be 47 00 54 3a
       0.011252101 -0.013288502 -0.4600169 0.00080871995
0002f0 4d db 09 3f ed c7 3d bd d8 a1 4e 3e b2 fd 1c bd
       0.5385025 -0.046333242 0.20178926 -0.03832788
000300 a6 ce 1f bb 01 0a 44 3c 6b 7d 55 3c fb 13 cd bc
       -0.0024384647 0.011965276 0.01303039 -0.025033941
000310 96 11 2b bc d7 43 6d b9 82 ba ed bd 6e 32 8f bd
       -0.0104412045 -0.00022627354 -0.11607839 -0.069920406
000320 54 1a 57 3d c0 47 97 3d 91 f4 5a 3b 85 34 b5 3d
       0.052515343 0.07386732 0.0033409933 0.08847908
000330 c0 ef 0a bf d3 84 80 bd bf 4a aa 3e f2 63 3c bd
       -0.5427208 -0.06275334 0.33260152 -0.045993753
000340 95 b8 31 be 80 ad 86 3e 49 7c 23 be 09 a7 06 be
       -0.17355569 0.26304245 -0.1596538 -0.13149656
000350 15 97 07 3e bb 75 80 3d 5d 0b 95 be 14 ca b2 be
       0.13241227 0.06272455 -0.29110232 -0.34919798
000360 bf 12 87 bd 29 de 8b 3e d3 b6 57 be 6d 5b a0 be
       -0.065953724 0.27317932 -0.21065836 -0.31319752
000370 bd cb 43 3e 6e 20 b8 3c 18 52 ba 3e d1 ca 18 be
       0.19120689 0.022476401 0.36390758 -0.14921118
000380 a4 9e 3c 3e 9e 76 b6 bd 1b 67 10 3e d5 b1 60 3c
       0.18419892 -0.08909343 0.14101832 0.013714273
000390 a1 ab b1 be 50 a5 87 3b 34 fb cf 3d 66 23 df 3e
       -0.34701255 0.00413958 0.10155335 0.43581694
0003a0 68 27 78 3d fd 6c d9 bd 6d c1 f4 3c fb 2f 03 3e
       0.060584456 -0.10616491 0.029877389 0.12811272
0003b0 a5 0b 21 bd 22 e0 ff 3e 70 86 5b be cc 45 43 bd
       -0.039317746 0.49975687 -0.21438003 -0.047673985
0003c0 e5 87 db bd 6c a5 50 3d b1 69 e7 bc a0 ae 9c bb
       -0.10719279 0.05093901 -0.02824864 -0.004781559
0003d0 fa 82 59 3c 31 a2 c5 3c b2 e7 a9 bc a5 9b 6e bc
       0.013275856 0.02412519 -0.020740364 -0.014563476
0003e0 4c 52 3c 3c 93 60 c7 3c 00 82 6d b9 36 9c ca 3c
       0.0114942305 0.024338042 -0.0002265051 0.02473269
0003f0 a3 f8 2a bd e6 7e 5b 3e df 19 df 3d f7 f2 40 bd
       -0.041741025 0.21435127 0.108936064 -0.04710671

bias f4 [4]
000000 1c f1 3d 3e 90 f4 43 3e 92 0d 48 3e 56 1a 3e 3e
       0.18549007 0.19136262 0.19536427 0.18564734
