dev/breakout_16000.pth (torch_old, 199616 bytes, 20 tensors)

weight f4 [16, 2, 5, 5]
00000000: 94f4 1c3e 2a01 f23d f9fb d0bd b67d 42bc
00000010: 2b5d 51bd 42d3 263e 7d86 39be e1eb 87be
00000020: f754 69bd 0e8b 43bd 9f8e aabe 0822 1abe
00000030: 7236 c4bd 9944 35be d99e abbe 92f4 443e
00000040: 7a4b 7c3e c55c 9a3e f50a 30bc 5070 583e
00000050: 468d 0bbe 4d4c 70bd b996 06be 70cd bd3e
00000060: 20e4 493c 4ca8 473e 9844 30be eb7b f33e
00000070: d031 1abf 7c37 533c 2ff1 a2be 8ced 1c3a
00000080: ffa0 193e 1039 3ebe d596 f4be 64f0 6dbe
00000090: e9e7 3dbe 4425 123e d8c1 703e 2ceb fabe
000000a0: 5011 dc3e 2c65 17bc cf7c 57be b477 7f3c
000000b0: cc96 203e a7c2 a3bd ea5e d9be 1273 1b3e
000000c0: 8292 c53e 4972 a23d fb0d 91bd 1bd7 713e
000000d0: e7fc d53b 4f68 a6be a9ae 49bd b01b 363e
000000e0: 06dc 593e 0245 84bd efcc 17be 4dd7 093c
000000f0: 8213 f6bd ac46 c7be 918b b1be 1db9 57be
00000100: 3a15 48be 9803 24bd dd25 ba3e 1097 f43b
00000110: 4abb 3ebe 2221 b13e 964f fdbd f9c6 f33c
00000120: 64c6 33bd d300 ad3d 08c6 873e b9d9 39be
00000130: 5beb e13e 947a 0a3f 2734 26be ff50 febd
00000140: bb32 d43e dcee 8dbe 1c89 1ebe c44a 043f
00000150: fcf6 2d3e ef93 413e 66e9 d7be f504 73bd
00000160: 2e11 8b3e c98b 9d3d e421 503e cb48 ab3e
00000170: a451 063e a8e1 fcbc f515 043e 2ece ba3d
00000180: ff22 0b3e e180 5c3e 11b6 2b3e a9fa 303e
00000190: 223a 7a3e 57eb d63d b56d d43d 5395 d2bd
000001a0: a9cd b93d 51a3 333e 0f58 fb3d 8006 75be
000001b0: 7c7a bbbe 3b9c 4abe dd42 00be a2b8 b3be
000001c0: a243 52bd a2e6 343d 2667 533e 27ed 92bd
000001d0: 80ba e9bd 5745 743e b3d3 d83c d6cb b3be
000001e0: 4cc2 6e3e 3dfc b93e 4a09 5cbd 4cd4 2f3e
000001f0: 98db fbbd e26f ba3e 8d88 d83e 6344 953e
00000200: f344 c63e d4c0 ac3e a6b7 c73e 0f0e b93e
00000210: 73fb 793e 1594 733e 6e65 f93d 95c6 40b9
00000220: e75f 873e ea4f 5b3e 423a 123e 6603 123e
00000230: 664c 433e 54a8 8d3d b9bc 983e 19a0 a23e
00000240: a079 6f3e f190 5bbd 533a 1dbd 5b01 50bc
00000250: 37fb 063c 02c7 4bbc 009c 9abe b51c 87be
00000260: a83b ca3e 3f72 613e 017c cb3c 4c1e 8ebd
00000270: 5987 c6be 3a37 ca3d 838c 953d d9dc 323e
00000280: 6852 83be eaf0 1dbc 373e afbe d06f 28be
00000290: 34be afbe 3600 c73d d416 9c3e ee39 3cbc
000002a0: 623f 933e 9db0 1e3e 760a 4b3e d98d 55bc
000002b0: 164c a23e 1c43 113c 7816 99be 100a 4ebe
000002c0: 2ce4 99be 3741 733d bdb0 823e 4cf6 3cbe
000002d0: 7b4c de3e 887e c73e 5a6f 26be 3fe4 2c3e
000002e0: ca39 123f 2ad9 6d3e 08b4 ec3d 5f1a 883e
000002f0: 1d25 0e3e bc9b 8a3d 54ab 6f3d d3c5 6b3a
00000300: 73ba f2bd 72e3 363e 8940 213e 742e f43c
00000310: a6e4 3d3e f7b1 983d 733b ffbd e5fc e7bd
00000320: 51c7 89be 8f47 b2bd 2cfd d3bc d22a 473e
00000330: 31e9 823e c150 b6be f9f4 c2be 7505 80be
00000340: 50b4 8f3d 8167 0b3e f7ea 453e 1098 8f3e
00000350: f205 653e a368 4e3e a08a 463e 1651 1f3e
00000360: b0e5 38bd 7403 b43d 2a0b aebc 31c1 85be
00000370: 1b4f 133e b491 efbd c79e 50bd efa6 ccbd
00000380: 3499 73be 1dd7 883e 23ae 103f dcc6 2fbe
00000390: b068 cd3d e1b7 0e3d 0749 193e 14fa d4be
000003a0: 849c 7b3d e911 163f d96f c0be ecf9 98be
000003b0: df14 403d 2e8f 34bc c1aa 8e3d 6619 a4be
000003c0: 0590 92be 6828 153e 1fca 873d 610c 4dbe
000003d0: 9ea2 bf3b 03e5 463e 781d 243f c473 be3e
000003e0: b800 e53e de53 89bd d3a3 023e 6571 3bbd
000003f0: 4ff7 573d 177b 083e 79c4 193e 5d95 843d
0.15327674 0.11816628 -0.1020431 -0.011870792 -0.051114243 0.16291526 -0.1811771 -0.2654715
-0.056965794 -0.047740035 -0.33311936 -0.15052044 -0.09580697 -0.17701949 -0.3351963 0.19233921
0.24638167 0.30148903 -0.0107448 0.21136594 -0.1362811 -0.058666516 -0.13143434 0.370708
0.012322456 0.19497794 -0.17213666 0.4755548 -0.6023226 0.0128916465 -0.31824633 0.0005986325
0.15002821 -0.18576455 -0.47771326 -0.23236233 -0.18545498 0.14272028 0.23511446 -0.49007547
0.42981958 -0.00924043 -0.21043704 0.015592504 0.15682524 -0.07996111 -0.42455226 0.15180615
0.3858834 0.079319544 -0.07082745 0.23617212 0.0065303924 -0.32501456 -0.049238835 0.17784
0.21275339 -0.06458475 -0.1482427 0.008413148 -0.120154396 -0.38921106 -0.34676793 -0.21066709
-0.19539347 -0.04004249 0.36357012 0.007464297 -0.18626133 0.3459559 -0.123686954 0.029757963
-0.043890372 0.08447423 0.26518273 -0.18149461 0.44124874 0.5409329 -0.16230832 -0.124177925
0.41444954 -0.27721298 -0.1548199 0.51676583 0.16988748 0.18904088 -0.42170256 -0.0593309
0.27161545 0.076926775 0.20325428 0.33453974 0.13117081 -0.03086932 0.12899001 0.09121357
0.13587569 0.21533538 0.16768672 0.1728312 0.24436238 0.10494106 0.103724875 -0.102823876
0.0907243 0.17542769 0.12272655 -0.23928261 -0.36616886 -0.1978616 -0.12525506 -0.351018
-0.05133403 0.04416526 0.20644817 -0.071741395 -0.11412525 0.23854576 0.026468134 -0.35116452
0.23316306 0.36325255 -0.053719796 0.17170829 -0.122977436 0.36413485 0.4229168 0.29153737
0.3872448 0.33740866 0.390073 0.36143538 0.24412327 0.23786958 0.12177549 -0.00018384524
0.26440355 0.21417204 0.14280036 0.14259109 0.19072112 0.06916872 0.29831484 0.3176277
0.2338624 -0.053605024 -0.0383857 -0.012695636 0.008238605 -0.012437584 -0.30197144 -0.2638909
0.3949864 0.22016238 0.024839403 -0.069393724 -0.38775137 0.09873815 0.07302191 0.17467059
-0.25648808 -0.009639958 -0.34227154 -0.16448903 -0.343248 0.09716837 0.30486166 -0.011488421
0.28759295 0.1549706 0.1982821 -0.013034307 0.31698674 0.008866098 -0.29899955 -0.20121026
-0.30056894 0.059388366 0.25525466 -0.1845333 0.43417725 0.38963723 -0.16253415 0.16883944
0.5711943 0.23227373 0.11557776 0.2658262 0.13881345 0.06767985 0.058513 0.00089940167
-0.118519686 0.17860201 0.15747274 0.029807307 0.18544254 0.07455819 -0.12462511 -0.11327533
-0.2690988 -0.08705055 -0.025877558 0.19449928 0.25568536 -0.35608485 -0.38077524 -0.25004163
0.07016814 0.13613702 0.19327913 0.28045702 0.22365549 0.20157103 0.19388819 0.15558276
-0.045140922 0.08789721 -0.021245558 -0.26123956 0.14385645 -0.116977125 -0.050932672 -0.099927776
-0.23788911 0.26726618 0.5651571 -0.17165703 0.10029733 0.03484333 0.14969264 -0.41597044
0.06142856 0.5862108 -0.37585333 -0.29878175 0.046894904 -0.011020465 0.069661625 -0.32050627
-0.28625503 0.14566195 0.066303484 -0.20024253 0.005848243 0.19423299 0.64107466 0.37197697
0.4472711 -0.067054495 0.12757806 -0.04576244 0.052726086 0.13328205 0.15016355 0.06473801

bias f4 [16]
00000000: ea30 813d b202 ef3b 919c 563a e875 0dbe
00000010: d4bc 82be 15b7 9dbc 938f a93d bc82 40be
00000020: 3b62 82be e512 253e 192b cbbd b473 f63c
00000030: 53b9 a2bd e026 883e e6e7 b4bd e8b6 84bd
0.06308158 0.0072940225 0.00081867824 -0.13814509 -0.2553469 -0.01925234 0.08279338 -0.18799871
-0.2546557 0.16120489 -0.099203296 0.030084468 -0.07945504 0.2659216 -0.088332936 -0.06480199

running_mean f4 [16]
00000000: 6824 d73b f58b 95bd 4500 5239 ad2d 28be
00000010: 6088 82be 7371 5e3d 9b47 4d3d 7b0d 3bbe
00000020: 2803 8cbe b218 fe3d a776 aabe c7da 38ba
00000030: 3c0b e5bd 34f9 6c3e 4741 a4bd 8414 06be
0.0065656193 -0.07302085 0.00020027261 -0.16423674 -0.2549467 0.054307412 0.050117116 -0.18266861
-0.27346158 0.12407054 -0.3329365 -0.00070516433 -0.111837834 0.23141938 -0.08020263 -0.13093764

running_var f4 [16]
00000000: bcc5 a33c dbb8 cf3c 439d c13b c19f 4a3c
00000010: e606 ea3b 6ab4 893c 1619 4c3c 1f28 103c
00000020: b197 b53b 28ba 903c baf0 2a3e 14fe d63b
00000030: 8997 193c bb4a 583c 29af 233c 6d9a e53c
0.019991748 0.0253567 0.0059086396 0.01236719 0.0071419356 0.016809661 0.012457153 0.008798628
0.0055417647 0.017666891 0.16693392 0.00656105 0.009374508 0.013201411 0.009990492 0.028027738

weight f4 [16]
00000000: accd 2f3f 7f64 393f 91e7 273f 4824 533f
00000010: b7f0 8c3e 244d d93e e3e5 c93e 6e60 e63e
00000020: dda7 043f 5013 cc3e c439 713f 79b4 c83e
00000030: 14a7 3b3f 3d49 8c3f bbbf b63e 086d d83e
0.68673205 0.7241897 0.6558772 0.82477236 0.275274 0.42441666 0.39433202 0.44995445
0.5181864 0.39858484 0.9422877 0.3920019 0.73301816 1.095985 0.35693154 0.42270684

bias f4 [16]
00000000: 71ca 94be aea0 e1be 0100 44be 8987 13bf
00000010: ba50 73be 716d 0abf 4a18 6ebe 8c17 27bf
00000020: e3f7 42be 1bee 00be 82dd efbd 34a9 5cbe
00000030: c452 a1be c1e5 aebe 57a8 b3be 05aa 33be
-0.290607 -0.440679 -0.19140626 -0.57628685 -0.23761263 -0.54073244 -0.23251453 -0.65270305
-0.19039874 -0.1259083 -0.11712171 -0.21548921 -0.31508458 -0.34159663 -0.3508937 -0.17545326

weight f4 [32, 16, 5, 5]
00000000: 2b26 fc3e ba15 223d e06d eb3d a9ae cbbe
00000010: 7a83 ed3b b0bb 06bb f78b 513e 15f4 13bb
00000020: 1892 1c3e 638a 9a3e b84e de3c b890 f5bd
00000030: 5d74 d33d 24ce 563e a330 a13d 2b05 e33d
00000040: b02f ed3d dea6 9bbe 358f c03e 6d2c 17bd
00000050: 33f2 373e ddee 483e e960 adbc 1329 323e
00000060: c281 b43b 0e53 b93e c900 97be d6ef debd
00000070: 709a 193b 6dab 2dbe 0b95 63bd be99 973d
00000080: cac9 0fbe d01d 3f3e d218 863d 407e ef3c
00000090: c889 1fbd 59b2 ff3d f861 5c3e c97b a63e
000000a0: f9e3 d8bd e46e 523e 7f33 3ebd e39d 85bd
000000b0: 633f 0fbe ae4d b73d 01f9 20bf 11ff fcbc
000000c0: 00ad e83c ab6b 2cbd b0b9 d83e 2f56 983e
000000d0: 4e77 38bc ffd1 713e 1661 15bd abe4 bbbe
000000e0: a04d f5bd e07c b93d fd82 e3bd 809b 003e
000000f0: 5b33 893e f6e2 bc3e e803 01be 98f4 9c3e
00000100: e497 923d e4c1 95be 2b2e e4bb 780e 07be
00000110: 5b5b 8fbd 0334 c03d 5534 c83c 338d 04be
00000120: 9deb eabd fd5c 143e ba98 e6bd c71b 1dbe
00000130: cd0c 6c3e 8813 33be 2856 f33e 7d84 153d
00000140: f128 133e 4ee0 693e 3f95 773e 4727 9b3e
00000150: edaf ec3d 4cff 9cbe 2992 4ebc 5c3a dc3b
00000160: aeff 1c3e 37e3 6c3e 7f66 2e3d 32f3 753d
00000170: e42a dcbd e3a5 7ebe 1c75 a4be 070c ad3b
00000180: 80e0 82be 20c0 74be 8f13 d43d 12b5 34be
00000190: 1bd4 5d3d 3109 be3e 546d db3b d4ae 16be
000001a0: 7f08 d23d 0cd1 7a3d 90b1 683d aac3 853d
000001b0: ecbe 253e ac05 143e b6e1 c03d a41f f33e
000001c0: 29f7 8e3e d4c0 c63d a4f9 163e 0388 7bbe
000001d0: 983e 44bc 7b23 c8be 138a b1be 1d35 aabe
000001e0: 7134 bcbd b747 e3bd 2aa4 8fbe d122 99be
000001f0: 403d 9bbc 1912 a5bd 4399 b2bc 36d7 9b3d
00000200: 0e6c 4bbe 12d6 df3d 9654 58be 0783 693d
00000210: 16b0 de3c b958 bbbd 6abc f7bd 5c0b 09be
00000220: 1189 e93c fe7b 04bd 99f8 e53d 7647 eabd
00000230: a60e 813e 85eb 143d a5bd cbbe 3620 273d
00000240: 6fd6 33be 861b 103e 8f6d 1a3e f948 0bbc
00000250: ab88 1fbe 1293 59bc b594 d53d a1f3 d23d
00000260: 6fc8 e43d 2e83 11be f19b 973e b6cd 8f3e
00000270: 1c5f 0a3c b21a 29ba 1ade f03d 504b 603e
00000280: dec7 a13e a83d 54be 328e d3be 2a18 c23a
00000290: e48b 9cbd 6ecd 56be 3533 ed3d fae5 34be
000002a0: 727c 99be f1a0 15be 6ea9 a33e 6a55 12be
000002b0: 9b00 b83e 0660 3c3e 1b76 0f3e bb02 a03e
000002c0: 6c0f c83c 6f31 adbd eae7 ae3d ae83 ce3d
000002d0: b17f cdbc dd55 103d 9b1b b03e aacb 89be
000002e0: 6cfa c93d d45f 733d f658 85be 0881 5b3e
000002f0: 1eca c83d f605 e23e 7789 b6bd ddba 97bd
00000300: 142d a33e 05ac 81be ce10 263d eba5 b2be
00000310: a47c 9abe 71a9 d83d 5dab dc3e bf67 623e
00000320: 3a15 b83d b428 ce3d 3fd8 2abf 0259 41be
00000330: b386 27bf 0ba4 9b3e fef9 a23e 7ee8 073b
00000340: af85 be3d 4287 9e3d 7ee7 7c3e f0f8 adbe
00000350: 560e acbe c964 2f3d 07bf c53d 6b72 843d
00000360: 1d8c 1d3e fe3b 8cbd 3a57 84be d8e7 5e3d
00000370: 6347 db3d 7f0c 0bbd 1630 043e cf0f adbd
00000380: 09f5 e3be 44f2 39be a443 0dbf 3969 fcbd
00000390: 5e4d e43e 86b3 ecbd a272 e8bd 3342 7f3e
000003a0: acd4 853d 21fd ab3d d050 353e 400b 2fbe
000003b0: 04d4 303d 1a9f 06bd cfec 28bc cdf1 70bd
000003c0: ea46 a3be 03e6 19be b632 3c3e 4bb5 973d
000003d0: c91b 113d c39d 053e 3f02 803e 1060 d0be
000003e0: 692d bd3d 10a5 903e cce7 ac3a 9ecb 803e
000003f0: 67ab ed3d ee70 2ebe b5ac 68be ba54 163e
0.4924787 0.0395715 0.11495566 -0.39781693 0.0072483392 -0.0020558648 0.20463549 -0.0022575904
0.15290105 0.30183706 0.027137145 -0.119904935 0.10324929 0.20977074 0.07870605 0.1108497
0.11581361 -0.30400747 0.37609258 -0.036907602 0.17963485 0.19622369 -0.021164374 0.17398481
0.0055086324 0.36196178 -0.29492787 -0.10885589 0.0023438 -0.16959925 -0.05556206 0.07402371
-0.1404182 0.18663716 0.06547703 0.029235005 -0.038949758 0.12485189 0.21521747 0.32516316
-0.10590357 0.20550114 -0.04643583 -0.06524255 -0.13989024 0.08950363 -0.6287995 -0.030883344
0.028402805 -0.042094868 0.42329168 0.29753253 -0.011258913 0.23615263 -0.03646954 -0.36697897
-0.119776964 0.09057021 -0.111089684 0.12559319 0.26796994 0.36891907 -0.12599146 0.3065536
0.07157877 -0.2924949 -0.0069635115 -0.13189113 -0.069998465 0.093849204 0.024439016 -0.12944488
-0.11470721 0.14488597 -0.11259599 -0.15342627 0.23051758 -0.1748792 0.4752667 0.036503304
0.14371087 0.22839472 0.24178027 0.30303404 0.11556993 -0.30663526 -0.0126080895 0.006720824
0.15331909 0.2313355 0.042578217 0.060046382 -0.10750368 -0.24867968 -0.32120597 0.005280975
-0.25561905 -0.23901415 0.10355293 -0.17647198 0.054157358 0.37116387 0.0066963825 -0.14715129
0.10255527 0.06123452 0.05680996 0.065314606 0.16186112 0.14455289 0.09418051 0.47485077
0.27922943 0.09704748 0.14743668 -0.24563603 -0.011977814 -0.3908957 -0.34675655 -0.33243647
-0.0918969 -0.11097663 -0.28054935 -0.29909375 -0.018950105 -0.080600925 -0.021801597 0.076094076
-0.19865438 0.109295025 -0.21126017 0.057009723 0.027183574 -0.09147782 -0.12096484 -0.1338324
0.028507741 -0.03234481 0.11229057 -0.11439411 0.25206488 0.03635742 -0.39793125 0.040802203
-0.17562269 0.14073 0.15080856 -0.008501285 -0.15579478 -0.013279693 0.10428754 0.10300375
0.11171042 -0.14210197 0.2961116 0.28086632 0.008445527 -0.0006450816 0.117611125 0.2190373
0.315978 -0.20726645 -0.41319424 0.0014808227 -0.076438695 -0.20976803 0.115820326 -0.17665854
-0.29977757 -0.14612176 0.31965202 -0.14290395 0.35937962 0.18396005 0.14009897 0.31252083
0.024421416 -0.08456694 0.08540328 0.1008371 -0.025085302 0.035238136 0.3439606 -0.26913196
0.09862217 0.05941756 -0.26044434 0.2143594 0.09804176 0.44145173 -0.08912938 -0.07408688
0.3187033 -0.25326553 0.04054337 -0.3489221 -0.30173218 0.105791934 0.4309949 0.22109888
0.08988424 0.10066357 -0.66736215 -0.1888161 -0.6543991 0.30398592 0.31831354 0.0020737941
0.09302842 0.07740642 0.24697682 -0.33978987 -0.33604687 0.042820726 0.09655576 0.06467136
0.1538548 -0.0684738 -0.258478 0.054420322 0.10706975 -0.033947464 0.12908968 -0.08450281
-0.44522884 -0.18158823 -0.55181336 -0.12324757 0.44590276 -0.11557679 -0.113499895 0.24927597
0.065347046 0.0839789 0.17706609 -0.17094135 0.043170944 -0.032866575 -0.010310366 -0.05882435
-0.3189004 -0.15029149 0.1837872 0.07407626 0.03542689 0.13048463 0.25001714 -0.4069829
0.09237177 0.28250933 0.001319164 0.25155348 0.11604958 -0.17035267 -0.22722133 0.14680758

bias f4 [32]
00000000: ce36 e3bc cce5 603c 05fa 133c 327e b8bc
00000010: db7f b03b dd51 e83c 5d9a 973c f949 9fbc
00000020: 91f4 90bb f098 24bd 1cdc 45bd 34bc 8f3b
00000030: 55c9 a43c 1c1b 8c3c 7412 3cbb 4e43 d5bc
00000040: afd8 42bd 9c3c 073c 6aa9 523d 27ad 43bc
00000050: 5efd 54b5 9e17 1dbd 680f 773c 1786 55bd
00000060: b49e b73c 0b36 97bc 97fb 04bd c09a 23bc
00000070: 8444 b7bb 1aa1 30bd c755 3f3c d709 90bc
-0.027736094 0.013726663 0.009031777 -0.022521112 0.0053863353 0.028359348 0.018506223 -0.019444453
-0.004423686 -0.040184915 -0.048305616 0.004386449 0.020115534 0.01710277 -0.0028697522 -0.02603307
-0.047569927 0.0082541965 0.051431097 -0.011943138 -7.934485e-07 -0.0383526 0.015079357 -0.05212983
0.022414543 -0.018458387 -0.032466497 -0.009985626 -0.0055928845 -0.04312239 0.011678166 -0.017582817

running_mean f4 [32]
00000000: 1f81 95bc e4c7 91be 7024 713e 2c11 a23d
00000010: 364d 88be d9ac e53f 0d8d b2bd 9012 153e
00000020: 34ca 3e3f 9abd 8e3e 3c1e 753e 54a6 debe
00000030: 914a 0e3f 7877 583f 2822 053f b575 b93d
00000040: 1b09 38be 9eca ae3e 27c0 a3bd 7734 42be
00000050: 2ca8 bb3e fe65 9c3f b510 263e 15f5 973e
00000060: 0843 c43e 11d4 a2bf 8025 d5be 16df 52be
00000070: 56e9 5bbf 23e0 313e be7b fabc 4ef8 e73f
-0.018250046 -0.28472817 0.23549056 0.079134315 -0.26621407 1.7943374 -0.087183096 0.14557862
0.7452729 0.2787903 0.23937315 -0.43486273 0.5558253 0.84557295 0.52005243 0.09055654
-0.17972223 0.3413896 -0.079956345 -0.18965326 0.36651742 1.2218626 0.1621731 0.2967917
0.3833239 -1.2720968 -0.41630173 -0.20592913 -0.8590292 0.17370658 -0.030576583 1.8122652

running_var f4 [32]
00000000: f302 bb3f dad7 ec3e 817a 3a3f fc93 143f
00000010: 366b d23e ee6a b23f 27d6 2a3f 7f04 0540
00000020: 9bcb 333f 06a5 5f3f 236c db3e f765 273f
00000030: 1110 3e3f b0aa 433f bcf7 2c40 e447 e23f
00000040: 61d1 0e3f 0438 d23e a00f d93f 18ca 2040
00000050: 6496 573f 9388 373f 7394 363f 501c 1f3f
00000060: 68f2 133f b8e7 0c40 2b3e 9b3f 3b55 093f
00000070: 600f 0440 9783 b240 c2a0 1c3f 81ef a13f
1.4610275 0.46258432 0.72843176 0.58038306 0.4109742 1.3938882 0.6673302 2.0783994
0.7023255 0.8736118 0.4285594 0.6538996 0.74243265 0.76432323 2.7026205 1.7678189
0.55788237 0.41058362 1.6957893 2.5123348 0.8421385 0.7169277 0.71320266 0.62152576
0.5779176 2.201643 1.2128347 0.53645676 2.0634384 5.578563 0.61182797 1.2651216

weight f4 [32]
00000000: 94bd 0c3f 5913 083f 0658 d03e cbdf cb3e
00000010: b682 a53e 614b da3e 86cd cc3e e3d0 303f
00000020: 0edf ac3e 8f5e bc3e 2730 933e 9566 d93e
00000030: 4080 ab3e 4500 d03e 66fb 4d3f 4f6d a13f
00000040: d078 8b3e 1d7b 683e 16a0 363f 7797 2c3f
00000050: 9848 8d3e 079c a73e 8ecb a53e b8fe be3e
00000060: 64be 8e3e d13e 1b3f 6fcd b93e b56a d63e
00000070: eb44 0b3f 61c4 233f 2101 b03e 0b60 0d3f
0.54976773 0.5315452 0.40692157 0.39819178 0.32326287 0.42635635 0.40000552 0.69068736
0.33763927 0.36790892 0.28747675 0.42461076 0.33496284 0.40625206 0.8046173 1.2611483
0.2724061 0.22703214 0.7133802 0.67418617 0.27594447 0.32736227 0.32381862 0.3730371
0.27879632 0.60642725 0.36289546 0.41878286 0.54402035 0.63971525 0.3437586 0.55224675

bias f4 [32]
00000000: 347f c3be c690 72be c069 a5be e6af 86be
00000010: a68d 2abe 7764 68be c2fa 4bbe 3070 a3be
00000020: 5c8d 61be 19ae 14be 3539 64be d9c9 a7be
00000030: 981a 82be 4cd2 74be 83a0 dbbe a08a 80be
00000040: 017b bbbe abb9 f6bd e846 9bbd c959 abbe
00000050: 5b70 87be 0d45 86be 0b33 d4be 0970 44be
00000060: 15fb 42be 15ce ebbd 7dea b5be 6c5f 03bf
00000070: 506a 95be f9f6 85be ca6c b5be f3ea 4dbe
-0.38182986 -0.23688039 -0.32307243 -0.26306075 -0.16655597 -0.22694574 -0.19919875 -0.3192153
-0.2202658 -0.14519538 -0.22287448 -0.32771185 -0.25410914 -0.23908347 -0.42895898 -0.25105762
-0.36617282 -0.12047132 -0.07581884 -0.33466938 -0.26452908 -0.26224557 -0.41445193 -0.19183363
-0.19041093 -0.115139164 -0.35530463 -0.5131748 -0.29182673 -0.26164988 -0.35434562 -0.20109157

weight f4 [32, 32, 5, 5]
00000000: 1778 19be 46c7 8bbe a15c 93be ffe0 e6be
00000010: f520 09bf 9d92 683d 9a9c 5dbc 65c7 903d
00000020: c8a2 323c a466 86bc 0936 b5be beac 883d
00000030: ef66 f5bb c8a9 583b a002 ef3d 5a2f b23d
00000040: 7e5b 2dbd 3870 e4bd d2a5 943c fab9 64bd
00000050: 162d 14bf 67e9 a6be d867 923e c676 8f3e
00000060: 29e5 973e 1da9 79be f5b0 49be d6ed cbbd
00000070: 1b3c 1ebe e5ac c6be fb15 c4bc 937d 6f3d
00000080: 4b57 773e b60f a4be 0743 9dbd 0e86 53bd
00000090: 0d7b 1c3e f622 f73d 7202 03be 1923 673e
000000a0: 0865 0a3c 4f5a 2abe a89f 0abe e8f7 04bf
000000b0: 630e e9bd 3bd5 70be ebf6 8c3d c21c 9b3d
000000c0: 29d6 cfbd c4e1 80bd bbbc a33b 4c22 05bf
000000d0: cbc1 1cbb 7afd c43d cbd0 8c3e 2173 0fbd
000000e0: 741c 853d 14e2 8dbe f256 593d 3c27 e43d
000000f0: 90c7 ecbc 5096 92bd 0b05 5e3c ab14 38be
00000100: e018 e53d 3c42 a3be cc7b 91be 8d99 0fbe
00000110: d8f0 983e a8c6 ca3d c574 aabd 7542 843e
00000120: 1328 8fbe 2d5a 3bbd 71e4 703e 5538 bebe
00000130: 3a5c 15be 29c2 d3bb 8530 f73d 5808 73be
00000140: 8095 91be 37c1 e7bd 188e 67be 715a a53d
00000150: fe36 063e 816e 2b3e 46df 52be d91e 06be
00000160: b62a b2be 66fb f8bd 498d d23d 1f3f 19bd
00000170: 2d44 623e 1714 99be 6cbd e1be dc87 6b3b
00000180: 31b7 56be b75e 43be 0e5f ca3d 7c39 b0be
00000190: 59f3 afbe 80b0 b6be 23b1 e43e db20 153e
000001a0: ef43 b83e a02c 49be 37da 54bd 56f4 26bd
000001b0: be42 4d3e 2c4f f739 1b43 a7be 10f3 25be
000001c0: 4ea2 303e 9ee5 3abe f534 8cbd 5cfe 33bd
000001d0: 135e 6ebe 246c b93d 5f95 cc3d dddc 933d
000001e0: be0f c5bb 6523 c33d 2c44 cc3c 594e c23c
000001f0: 1b15 0b3f f0b1 8bba aca1 55be cf72 753e
00000200: 39df 0f3e 9c43 5d3e 44f9 99bd b9b0 9e3d
00000210: ea1f 293e d1bb 4c3d be5c 9b3e 525a 373e
00000220: 1864 ddbd 1de9 7b3d a960 8f3e b3c9 973e
00000230: 94ed abbc 0265 133d a115 53be 1212 103e
00000240: 6f32 6a3e 70e4 0b3e 9abe 963d 6c03 09bb
00000250: d9e8 833e 6181 a53d 8d49 d6be f279 e9bd
00000260: a312 383e 904c febd 707f 81be 43ea 79be
00000270: 6336 953c 0d12 083e 7690 14be 25d2 b7be
00000280: 11a2 a0be 9006 32bd 658c 993e c977 16be
00000290: a99f f73d 0463 39bd 5f9d 82bc df2a a2bc
000002a0: 9e2f 2d3e c3c9 e03d 9faa 95be 7756 c03d
000002b0: 17c6 a4be f108 9bbd bf8d cdbd bc48 13bd
000002c0: 4de3 453e 40f3 483e 07a8 f2be 948c 09bf
000002d0: 52da 89bb 97a5 15be 7b0f c9bd 515b 27be
000002e0: c349 30bc a7c0 893d 891d a5bd 0017 533d
000002f0: 05fa e4bd 6a5d 9d3e 9dc2 dbbd 7e06 67bb
00000300: 0f4c 7f3e fcf3 90bd 821f da3e c280 d83d
00000310: 065e c53d 197f 03bd 6cc6 d83c 4900 a73d
00000320: 5cc8 7f3e d76d 6cbd ad89 6abe a242 55be
00000330: 160a 2bbd 0bd6 24bd 9809 083e d665 1a3d
00000340: dfb8 63be 02f7 0c3c 9a9b 30be 99d8 533e
00000350: 29f3 933d 54cf cebd dc1a 383e 2180 983d
00000360: 07df febd fd42 5ebe 98c5 8bbe 5aad 703d
00000370: 0450 66be 56c8 b83d c087 793e c0a2 c2be
00000380: 0af1 07bf a3b0 61be b222 9ebe 20ca 50be
00000390: 3490 66bd 55da 19be 8d32 00bc 994c fd3d
000003a0: a063 bc3d b8b9 cd3d a4f2 893e 2bd7 47bb
000003b0: d3db 8abd 0a19 50bd c5eb 553c f19f 39bc
000003c0: a824 a6be 1df7 4bbe 2219 b2be 4f72 fbbe
000003d0: 05c3 c0bc 0371 c2be 9f71 bdbe d6ca 8ebe
000003e0: 0ab7 04be 72ad dabd ddd6 443d d50d 4d3d
000003f0: 1ddb a93d dbe3 41be 86c6 8fbe cb28 8c3d
-0.14987217 -0.2730047 -0.28781608 -0.45093533 -0.53565913 0.056780446 -0.013526106 0.070692815
0.010903068 -0.016406365 -0.35392788 0.06673573 -0.0074890773 0.0033060182 0.116704226 0.08700438
-0.042323582 -0.111542165 0.018145476 -0.055841424 -0.57881296 -0.32599947 0.28594851 0.28020304
0.29667023 -0.24380918 -0.1969641 -0.09957473 -0.15452616 -0.38803783 -0.023936262 0.058469366
0.24154393 -0.32043236 -0.076788 -0.051641516 0.15281315 0.12067215 -0.12793902 0.22571982
0.008446939 -0.16636012 -0.13537467 -0.51940775 -0.11379697 -0.23518841 0.06883033 0.075738445
-0.1014827 -0.062930614 0.0049968637 -0.5200546 -0.002391922 0.09618659 0.27503046 -0.035021905
0.06499568 -0.27711546 0.053061433 0.11140296 -0.028903753 -0.07157576 0.013551007 -0.17976634
0.11186385 -0.3188647 -0.28414762 -0.14023419 0.2987125 0.09901172 -0.08323053 0.25831953
-0.27960262 -0.045740295 0.23524643 -0.37152353 -0.14585963 -0.0064623547 0.12069801 -0.23733652
-0.28434372 -0.1131615 -0.22612798 0.08073891 0.13106915 0.16741373 -0.20592985 -0.13097705
-0.3479821 -0.121573254 0.10280854 -0.037413713 0.2209632 -0.2989814 -0.4408983 0.0035939133
-0.2096832 -0.190791 0.098814115 -0.34418857 -0.34365347 -0.35681534 0.44666395 0.14563315
0.3598933 -0.1964593 -0.05196592 -0.04076036 0.20044991 0.000471705 -0.32668385 -0.16206002
0.17249414 -0.18251655 -0.06846038 -0.043943748 -0.23278074 0.09053829 0.09989428 0.07219861
-0.0060138395 0.09528235 0.02493485 0.023719 0.5432908 -0.0010657888 -0.20862454 0.23969577
0.14049996 0.21607822 -0.07518247 0.07748551 0.1651608 0.049983803 0.30344194 0.17905548
-0.10810107 0.06150161 0.28003433 0.29646072 -0.02098731 0.035985 -0.2061372 0.14069393
0.22870801 0.1366136 0.07360573 -0.002090658 0.25763586 0.08081318 -0.4185299 -0.11400212
0.1797586 -0.12416947 -0.2529254 -0.2440577 0.01821441 0.13288136 -0.14508232 -0.35902515
-0.31373647 -0.04346329 0.29989925 -0.14694132 0.12091 -0.045260444 -0.015944181 -0.019795833
0.16912696 0.10975983 -0.29231736 0.09391492 -0.3218238 -0.07570065 -0.100368015 -0.035958037
0.1932499 0.19624043 -0.4739382 -0.5373013 -0.004206934 -0.14613949 -0.09817406 -0.16343428
-0.010759774 0.06726199 -0.08062274 0.051535606 -0.111805 0.30735332 -0.10730479 -0.0035251672
0.24931358 -0.07077786 0.42602164 0.105714336 0.09637074 -0.03210363 0.026461802 0.08154351
0.24978775 -0.05772194 -0.22904082 -0.208262 -0.041757666 -0.04024319 0.1328491 0.037694775
-0.22238491 0.008603813 -0.17246857 0.20688094 0.072241135 -0.100981385 0.17978996 0.07446314
-0.12444883 -0.21705242 -0.2729919 0.05875907 -0.22491461 0.09022586 0.24368191 -0.38014793
-0.5310217 -0.22040038 -0.30885845 -0.20389605 -0.056289867 -0.15024693 -0.007824552 0.123681255
0.091986895 0.10045189 0.26942933 -0.003049324 -0.067802094 -0.05080513 0.0130567 -0.011329637
-0.32449841 -0.19918485 -0.347848 -0.49110648 -0.023530493 -0.37976846 -0.3700075 -0.27889127
-0.12960449 -0.10677613 0.048056472 0.05006202 0.08293746 -0.18934576 -0.2808115 0.06843718

bias f4 [32]
00000000: ee19 9bbc 34ec d93c 8aee 18bc fdc2 6bbc
00000010: 938b 173d 843b 05bd 8de8 543c 75bd ef3c
00000020: 9125 143d 39b8 a3bc 4816 c8bc 3260 0fbd
00000030: adaa c2bb b9ae 85bc 570e fbbc c671 a5bc
00000040: 3a2e 333d 0aba 043d eb0d 223c b2b9 aa3c
00000050: 6574 593c 4d59 2e3d 0f56 a6ba 9e3c 8cbc
00000060: 06dc f1ba 06a1 063d e8d8 e0bc 08ad 43bc
00000070: edaf 353c cdfa 923b 8c4f fc3c 0884 e73c
-0.018933263 0.026601888 -0.009334216 -0.014389751 0.036998343 -0.03252746 0.012994898 0.029265145
0.03616864 -0.019985305 -0.024424687 -0.03500385 -0.0059407563 -0.016318666 -0.030646486 -0.020195853
0.043745257 0.032403983 0.009891014 0.0208405 0.0132723795 0.042565633 -0.0012690442 -0.017118748
-0.0018452413 0.032868408 -0.027447179 -0.011943109 0.011089307 0.004485464 0.03079965 0.0282612

running_mean f4 [32]
00000000: 14b3 83bf e850 c6bf 1f96 8ebf 57b0 b6bf
00000010: 506f 94bf 83b9 5bbf 70b7 68bf c25a d3bf
00000020: fb5e f2bf 177c 98bf 2d6c 7bbf 169a 6abf
00000030: 462c 05bf 2029 7fbf 0935 14bf 19e3 01bf
00000040: 83d7 7bbf 4889 a3bf 28e8 01c0 da85 7cbf
00000050: bd5b a6bf 45d1 63c0 aec8 f4be 4f9b 0bc0
00000060: 6eb3 dfbc a232 4dbe 325d 56bf 8bb5 09c0
00000070: f1d9 0b3e ee59 10c0 75e0 2ec0 d5d6 e8be
-1.0289025 -1.5493441 -1.1139563 -1.4272565 -1.159647 -0.85829943 -0.90904903 -1.6512072
-1.8935236 -1.1912869 -0.9821194 -0.91641366 -0.5202068 -0.99672127 -0.57893425 -0.5073715
-0.9837572 -1.277627 -2.0297947 -0.9864174 -1.2996746 -3.5596478 -0.47809356 -2.1813543
-0.027307238 -0.20038846 -0.83735955 -2.1517055 0.13657357 -2.2554889 -2.7324498 -0.45476404

running_var f4 [32]
00000000: 2a0a 2e3f fa75 8a3f 803c 293f d388 923f
00000010: df41 823f 6737 5b3f d5c9 5b3f 4706 593f
00000020: 9e69 6e3f 151c 913f dfb0 883f 1afc a43f
00000030: 647d d23e 3b73 773f af2e 0b3f e998 f63e
00000040: fa5f 493f 6a7b 643f 21c8 3c40 f806 8b3f
00000050: 6759 3e3f 8683 0040 9c88 293f c879 873f
00000060: 2f1c 513c 5cde 213f 96c3 ab3f 08aa c03f
00000070: 0be2 373f 2af3 cd3f d38d 893f 4457 ae3f
0.6798426 1.0817254 0.6610794 1.1448005 1.0176352 0.8563141 0.85854846 0.84775203
0.9312991 1.1336695 1.0678977 1.2889435 0.4111129 0.966602 0.5436811 0.48163536
0.78662074 0.89250815 2.949715 1.0861502 0.7435517 2.0080276 0.66224074 1.058404
0.012763067 0.6322992 1.3419063 1.505189 0.7182929 1.6089833 1.0746406 1.3620381

weight f4 [32]
00000000: 3437 d53e ad91 0a3f 8fd1 0c3f a94a f53e
00000010: 86cc e13e 5d19 1b3f 5bae f93e 8b6f b03e
00000020: 01f4 be3e 4c7d c13e b948 283f f342 113f
00000030: b20d ea3e b729 fc3e ef96 da3e b34f 283f
00000040: f15c 023f 49fc ac3e 8686 563f 1bc9 543f
00000050: 4a8b ad3e 11b1 d73e 0a05 b73e 3df6 ad3e
00000060: a20b a839 f553 333f 173d f93e 6278 173f
00000070: 7c49 2c3f 013c 343f cd71 b33e e792 c03e
0.4164368 0.54128534 0.5500726 0.47908524 0.44101351 0.60585576 0.48765835 0.344601
0.37295535 0.37790906 0.65735966 0.5674278 0.45713574 0.49250576 0.42693278 0.6574661
0.5092307 0.33786228 0.83799016 0.8311936 0.33895332 0.42127278 0.35746032 0.33976927
0.00032052124 0.70049983 0.4867942 0.59168065 0.6729963 0.7040406 0.3504776 0.37612078

bias f4 [32]
00000000: 36e7 0bbf 6ff2 58bf b6ac f9be 1343 33bf
00000010: ca2c 2dbf 0615 5ebf aacd 3bbf b705 98be
00000020: 381a 9ebe 4fab f3be de6a 20bf f2bd 65bf
00000030: 4139 0ebf 8f01 08bf df3f 59bf b0a2 4fbf
00000040: e00f 19bf 0396 03bf 6e2d ffbe a52e 64bf
00000050: 192b 13bf cf6d 8fbe b14b 1abf 3d4e debe
00000060: add2 adbb ee83 85bf 98bb 29bf e1f8 d9be
00000070: 4773 65bf ea2b 0fbf 9f11 29bf 4cfc 26bf
-0.54649675 -0.84744924 -0.4876458 -0.7002422 -0.6764647 -0.8675083 -0.73360693 -0.2969186
-0.30879378 -0.47591636 -0.62663066 -0.8974296 -0.5555611 -0.5312738 -0.84863085 -0.81107616
-0.5978985 -0.51400775 -0.49839348 -0.89133674 -0.57487637 -0.28013465 -0.60271746 -0.43419066
-0.0053046555 -1.0430887 -0.6630187 -0.42572692 -0.89629024 -0.5592638 -0.6604251 -0.65228724

weight f4 [4, 1536]
00000000: e112 75bc 068d 413c bb3c db3b c417 263a
00000010: 460f 14bc 35be d73a 3c8b 133e a914 383d
00000020: 864e 8bbb 2969 c5bd dbec 873e 0a01 ee3c
00000030: 7630 b53e 1863 62bb 8eb3 7abd 9598 9d3d
00000040: 476e 7e3e 0c67 a0bd cb68 8abb 1eed 3f3c
00000050: 2b04 38bd f14f a4bd ba55 65bd ceed 163f
00000060: b87f 4cbd a7f8 9fbd 96e3 98be 8e04 81bd
00000070: 2e06 07bf 0023 e1bc 0cf2 f7bc 8a19 9dbd
00000080: b39c a0bd 5f73 2ebc ab25 cabd 7e01 213f
00000090: 5e8e e0bd 1157 36be 825e 8bbd 57ec f7bc
000000a0: 6f80 d139 d0f7 52bd bf32 a83b b844 e43d
000000b0: f100 80bd c40a 91bb 160c 69bd c0dc 113e
000000c0: 38ae 4f3c eae1 90bc 087e 79bc bbf7 63bb
000000d0: af31 9abb fee2 1eba 6c79 fe3c e9b1 073a
000000e0: 5473 0bbc 060b bebc ecfb 803c 52ab d43a
000000f0: 2c79 a53e 3d75 583e a890 103e 3d04 383d
00000100: dcaf b33e a50b 7f3e 087e ea3c 64d2 cdbd
00000110: a940 8b3d 1076 77bd a705 333e ad1f 14bf
00000120: 90ea babd f057 633e 9d7c 83be bb27 9ebd
00000130: d358 0abe 3830 00bc 6a71 0e3d df9e 6c3c
00000140: 4d32 87be e183 33be ebaf 3ebe 6714 a83e
00000150: 6398 ebbe 6ba8 3a3e 4a6e 3ebc bfe3 bb3d
00000160: a028 b0be b6d7 36bf fed9 e1bd afbb 88bd
00000170: 6730 133d a307 a6bd adbf dcbb 6b72 0bbd
00000180: 4e9c 083c 7022 133a 3598 0cbc fa1e c9bb
00000190: ff2d 613c 5533 b73c e171 6dbd 747d cdbd
000001a0: 52ae 1ebd 2074 fc3d 49c4 c33c 7276 29be
000001b0: 4cf5 353e 22e1 9c3d 0391 ba3d 0dff c73b
000001c0: b76c e8bd 020f a23e c664 64be ecdb a53b
000001d0: 5139 a73c 6a88 9e3d 6f08 40bd 5a70 6bbd
000001e0: 7f19 ad3e b528 b0bc eea6 f9ba 066c 93bb
000001f0: c292 9ebc fa87 de3d c5b2 013f dd56 823b
00000200: 1e9c bf3d 1d45 08bc 4782 a93b eedd f5ba
00000210: 4eef c5bc da09 b3bc 3a08 94bb bf45 7bbd
00000220: a41f 33bd b5cf 023c 2756 d03e 0318 323b
00000230: 34fe 83bc fa95 97bc 8c3b e3bc 4b21 0f3b
00000240: 2e66 84bc 9de7 6a3c 7bf0 463c 341d dbbc
00000250: e61b e83b 46b2 2bbb c802 92bc 5c7c 3b3c
00000260: aabc 5ebc 8853 a23c 90fc df3b 08e8 59bb
00000270: 0274 abbe 8550 48be 3beb 433c 9ffe 7e3e
00000280: 600d 95bd b775 0e3e 32e2 b23e 3b39 73bd
00000290: 1543 823d a3c7 513e d3f3 903e 9df0 75be
000002a0: d322 2e3e 93b7 ea3b 9281 283e b643 333e
000002b0: 39a8 9f3e 2394 403e 09b0 023d 26e2 5d3c
000002c0: 75db f5bd cbe3 3bbb 9e37 4fbe e24b 33be
000002d0: 71fc bc3e 03f0 123d 47f0 303e baae 073e
000002e0: a911 a93e f910 21bd 8693 00bf 3e22 063e
000002f0: d8ff 893e 6ef0 143d d05d 6bbd b505 41bd
00000300: a6ce 1fbb 010a 443c 6b7d 553c fb13 cdbc
00000310: 9611 2bbc d743 6db9 4280 c7bb 8a9f 17be
00000320: ad16 173c cda2 b2bc 896b 4ebd e096 d83d
00000330: 32bf 63be c5c6 efbd b584 683e 63bc 6f3e
00000340: 58b1 74be 10a7 703e e681 2abe 49f8 a13d
00000350: 3179 873d 7618 553e b9f6 3abe 9d1c 1fbe
00000360: 5d5d b0bd ebb0 0f3e 5b7f b9bd 8d53 90be
00000370: e66f 1c3e 7f7d b7bd 29b7 873e e383 95bd
00000380: 7330 4a3d 2e14 c3bb c850 a33e 6758 0abe
00000390: ab3b 17bf aab2 493d 0abd d8bc af44 eb3d
000003a0: 59d0 d93d e741 25be 1864 bd3e 9eae 203e
000003b0: 95ac f1bd ba4f aab9 0a63 a13c cd4e 133e
000003c0: e587 dbbd 6ca5 503d b169 e7bc a0ae 9cbb
000003d0: fa82 593c 31a2 c53c b2e7 a9bc a59b 6ebc
000003e0: 4c52 3c3c 9360 c73c 0082 6db9 369c ca3c
000003f0: a871 6dbe 09c6 853d 2e57 5a3e 136c 863d
-0.014958114 0.011813408 0.0066905892 0.0006335939 -0.009036845 0.0016459884 0.14408582 0.044941578
-0.004251304 -0.09639198 0.26547894 0.02905323 0.35388535 -0.0034543928 -0.061206393 0.07695118
0.24846755 -0.07832155 -0.004223918 0.011714248 -0.04492585 -0.0802306 -0.05598996 0.5895661
-0.04992649 -0.078110985 -0.29861134 -0.06299697 -0.52743804 -0.02748251 -0.030266784 -0.07670887
-0.07842388 -0.010647624 -0.09870466 0.628929 -0.109646544 -0.1780665 -0.06805135 -0.030264063
0.00039959277 -0.051505864 0.0051330025 0.111459196 -0.062501796 -0.004426332 -0.05689629 0.14244366
0.012675814 -0.01768585 -0.015227802 -0.003478511 -0.00470563 -0.0006061046 0.031063758 0.0005176352
-0.008511383 -0.023198616 0.015745126 0.0016225374 0.3231901 0.21138473 0.14117682 0.044925917
0.35095108 0.24906786 0.02862455 -0.100498945 0.06799442 -0.060415328 0.17482625 -0.57860833
-0.091267705 0.22201514 -0.2568101 -0.07722422 -0.13510446 -0.007823996 0.03477613 0.014442175
-0.26405564 -0.17530777 -0.18621795 0.32828066 -0.460147 0.18228309 -0.011622975 0.091742985
-0.34405994 -0.714229 -0.11027907 -0.06676423 0.035934832 -0.08106925 -0.0067367167 -0.034044664
0.008338047 0.00056127366 -0.008581211 -0.006137726 0.0137438765 0.022363344 -0.05796993 -0.10033694
-0.038740464 0.123268366 0.023897307 -0.1654909 0.17769355 0.07660128 0.0910969 0.0061034025
-0.11348861 0.31652075 -0.22304067 0.005061617 0.020413073 0.07740863 -0.046883043 -0.057480194
0.33808514 -0.021503786 -0.0019046941 -0.0044989614 -0.019357089 0.10865779 0.50663406 0.00397764
0.09355949 -0.008317259 0.005173001 -0.0018758157 -0.02416196 -0.021855284 -0.0045175822 -0.061345812
-0.043731347 0.0079840915 0.4069073 0.0027174957 -0.016112424 -0.018504132 -0.027738355 0.0021839913
-0.016162004 0.0143374475 0.012142296 -0.026747324 0.007083404 -0.0026198789 -0.017823592 0.011443224
-0.013594786 0.019815221 0.0068355277 -0.0033249874 -0.33486944 -0.19561966 0.011957939 0.24901818
-0.07277942 0.13912092 0.34938198 -0.05938075 0.06360451 0.20486312 0.28311023 -0.24017568
0.17005472 0.007162997 0.16455677 0.17506298 0.3118303 0.1880651 0.03190616 0.0135426875
-0.12004749 -0.002866971 -0.2023606 -0.17509416 0.36911348 0.035873424 0.17279159 0.13250247
0.33021286 -0.039322827 -0.502251 0.13099 0.26953006 0.036362104 -0.057462513 -0.047124583
-0.0024384647 0.011965276 0.01303039 -0.025033941 -0.0104412045 -0.00022627354 -0.0060882876 -0.14806953
0.009221715 -0.021806145 -0.050395522 0.10575652 -0.22240904 -0.11707834 0.22706874 0.23411708
-0.23895776 0.2350123 -0.16651115 0.07908685 0.06614912 0.20810112 -0.1825818 -0.15538259
-0.08611558 0.14032333 -0.09057494 -0.28188744 0.15277061 -0.08959483 0.26506928 -0.07300546
0.04936261 -0.0059533333 0.3189757 -0.13510285 -0.5907542 0.049242653 -0.026457328 0.1148771
0.10635442 -0.16138421 0.36990428 0.15691611 -0.118004955 -0.00032484328 0.019700546 0.14385529
-0.10719279 0.05093901 -0.02824864 -0.004781559 0.013275856 0.02412519 -0.020740364 -0.014563476
0.0114942305 0.024338042 -0.0002265051 0.02473269 -0.23187888 0.06531913 0.21322319 0.06563582

bias f4 [4]
00000000: 7bf3 3f3e ff1a 403e f251 3e3e 7d42 3d3e
0.18745224 0.18760298 0.18585947 0.18482395
