dev/breakout_14000.pth (torch_old, 199616 bytes, 20 tensors)

weight f4 [16, 2, 5, 5]
00000000: 4189 ce3d 9011 183e bc47 9fbd 8810 aabc
00000010: 1e6d 44bd 2d7a 193e 6dcd 01be 7eea a3be
00000020: 293c ecbc 1cd9 11bd 2892 8fbe 320f 05be
00000030: b4a2 09be dff3 23be 76ec aabe b262 553e
00000040: 3e64 3e3e a2ac 8d3e e062 9fbb 521d 463e
00000050: 76f4 b2bd 380a 0cbd 9dba d3bd b17f ae3e
00000060: fd89 373d beac 483e 6f52 30be a187 023f
00000070: f40c 17bf b5ad ec3c 0349 73be 704b 52bd
00000080: afb4 af3d 3676 a8bd 1835 ffbe b38f 6ebe
00000090: 427b 44be aba2 f73d 6f4a 8b3e c465 ddbe
000000a0: 73f4 cf3e 6bef 873c 01c0 2abe fcfa 573d
000000b0: 2612 8a3e bf52 8c3c d77b d3be 50e5 4f3d
000000c0: be72 a83e 3694 bc3d 4345 9cbd d10b 5d3e
000000d0: e9ed 2f3c a42c 91be 28a6 713a b47b 2b3e
000000e0: 15c7 393e 6348 afbd 1062 43be 45aa 9d3d
000000f0: 1b2b d8bd 8711 cbbe 8fc9 babe 436b 8abe
00000100: dbc0 17be babc e5bc 2cd7 b13e fb61 1a3d
00000110: 31fb 33be 2688 a33e b480 d5bd 7f64 483d
00000120: 4929 bcbc a3d8 a83d 20b7 6d3e e981 5bbe
00000130: 7883 b73e 1ef2 063f 868f 23be 9854 51be
00000140: 89f1 b83e b566 9fbe bc4b 3ebe e06e ac3e
00000150: 389d 0e3e 3b9f 203e 66f8 dcbe c868 2abd
00000160: c10c 7b3e cd04 423e 309b 973d 87ab 7e3e
00000170: 41a4 1a3e 1272 383a 8e15 1a3e 2a94 35bc
00000180: 44fc 633e 3b05 933e acc7 223e c4ce 1a3e
00000190: a830 823e 6927 d93d d71f cb3d 40d7 e6bd
000001a0: 0013 b83d 0b4e 113e 998f 023e d695 45be
000001b0: 835c bebe 6d60 40be b227 c7bd 5ccb 8abe
000001c0: 0246 c6bc dc3d d53c a7db 6d3e b634 42bd
000001d0: becc c1bd 9125 493e 4c0c 38bc 0c82 c0be
000001e0: 6c90 4e3e 8a51 b33e b1c1 5dbd b64c 133e
000001f0: 744b 13be 18e6 bb3e 537a c73e 581b 793e
00000200: b51a bd3e fa38 af3e 6dfe b03e 9fc7 8c3e
00000210: cb47 523e 1825 633e 4304 ee3d a4bd 2abd
00000220: fb6d 5b3e 9714 3c3e e616 3c3e a62a 3c3e
00000230: c5ff 173e a5dc ce3d 6988 833e cd63 a13e
00000240: 5413 7d3e d0f3 a2bd e050 b8bc e095 1cbb
00000250: 4667 e13c e384 57bc d5a4 88be 07e5 88be
00000260: 2e47 ad3e dfa0 693e 9be5 c13c 7f01 5dbd
00000270: 3303 c8be 9be0 b13d 736f 733d cd6f fd3d
00000280: cee9 7dbe 16ce 02bc 62c5 99be 3172 2ebe
00000290: 16b4 b1be c9a5 093d 0698 9b3e bc3f 94bb
000002a0: 8c97 723e 1384 403e 2b4a 773e 0d00 50bd
000002b0: ac57 963e 1da5 26bc 12cc 8cbe fbba 33be
000002c0: 9d37 8ebe 9fa0 adbc d9c6 843e ae33 58be
000002d0: 9910 dc3e cf58 c13e f5d4 4bbe b164 283e
000002e0: 5744 de3e d55b 803e 89b8 283e a083 643e
000002f0: 10da 303e 8f5b a73d 9dff 283d a84d 633d
00000300: aa07 7cbd 1833 563e 7e89 3f3e 43e2 ca3d
00000310: f11b 2c3e 0b56 b93d e5d1 dabd 18ae fdbd
00000320: f94a 92be 70f7 babd 20be a73c 8f67 2e3e
00000330: 271c 6e3e 69f5 b9be ed34 c6be 281b 38be
00000340: f4cb f63c 9436 0d3e 0001 213e 5313 853e
00000350: d0eb 583e d7cf 433e 7e53 3f3e 678a dd3d
00000360: 62fe 3cbd 4005 893d 7401 1fbd 2a1b 80be
00000370: 9516 2f3e d0de f6bd 988c 413d c53f d4bd
00000380: 427a 5abe e97f 553e 83e0 043f 27e3 f5bd
00000390: c370 883d 2f52 bd3d b223 573d 43c4 eabe
000003a0: 8dab e93d a403 f73e b217 87be 1ddd 74be
000003b0: da51 933d da64 07be b06c 103d 828b adbe
000003c0: 6773 80be 58c5 2c3e f1c0 88bd 6d4a 14be
000003d0: 3558 5c3b 68cc 143e 1345 0e3f 4430 d83e
000003e0: 267e e63e 1807 c2bd e2a0 d13d 18db 90bd
000003f0: db5b 913d 1fb8 0c3e d432 213e d15f 233d
0.10084773 0.1485045 -0.07777354 -0.020759836 -0.047955625 0.14988013 -0.1267602 -0.3201484
-0.02883728 -0.035607442 -0.28041196 -0.12994078 -0.13440973 -0.16010998 -0.3338353 0.2083843
0.18592927 0.2767077 -0.0048640817 0.19347122 -0.087380335 -0.034189433 -0.10338328 0.34081796
0.04480933 0.19597146 -0.17218946 0.50988203 -0.5900414 0.028891424 -0.2375832 -0.051341474
0.085793845 -0.08225672 -0.49845195 -0.23297004 -0.19187644 0.12091573 0.27205226 -0.43241704
0.40616187 0.016593656 -0.16674806 0.05272959 0.2696697 0.0171293 -0.4130542 0.0507558
0.3290004 0.092079565 -0.07630398 0.21586539 0.010737875 -0.2835437 0.00092181796 0.16746408
0.1814235 -0.085587285 -0.19080377 0.07698492 -0.10555097 -0.3966181 -0.36481902 -0.2703496
-0.14819662 -0.028044093 0.34734476 0.037691098 -0.1757629 0.3193981 -0.10424939 0.048923966
-0.022968905 0.08244445 0.23214388 -0.21436276 0.3584249 0.5271319 -0.15972719 -0.20442426
0.36121777 -0.31133047 -0.18583578 0.3367834 0.13927162 0.15685742 -0.43158263 -0.041603833
0.24516584 0.18947144 0.074026465 0.2487012 0.1510172 0.0007036041 0.15047285 -0.011082688
0.222642 0.28714928 0.15896481 0.15117937 0.25427747 0.1060322 0.09918182 -0.112715244
0.08987999 0.14189927 0.1275009 -0.19295439 -0.37179956 -0.18786784 -0.09724368 -0.27108276
-0.024203304 0.026030473 0.23228322 -0.04741355 -0.094628796 0.19643237 -0.011233401 -0.37599218
0.2017228 0.35023147 -0.054139797 0.14384732 -0.14384252 0.36698985 0.38960513 0.24326837
0.36934438 0.34223157 0.3456911 0.2749605 0.205352 0.22182119 0.116219066 -0.04168476
0.21428673 0.1836723 0.1836811 0.18375644 0.14843662 0.10100678 0.2569001 0.31521454
0.24714404 -0.0795666 -0.022499502 -0.0023893043 0.027515065 -0.013154241 -0.26688257 -0.26737234
0.33843368 0.22815274 0.023669055 -0.053956505 -0.3906494 0.08685418 0.059432458 0.1237484
-0.2479622 -0.007983705 -0.30033404 -0.17035748 -0.34707707 0.03360537 0.30389422 -0.0045241993
0.23690623 0.18800382 0.24149387 -0.0507813 0.29363763 -0.010171202 -0.27499443 -0.17551796
-0.27776805 -0.021194754 0.2593296 -0.21113464 0.42981413 0.37763068 -0.19905455 0.1644466
0.43411514 0.25070062 0.16476645 0.22315836 0.17270684 0.0817176 0.041259397 0.05549398
-0.061530747 0.20917928 0.18704793 0.09906437 0.16807534 0.090496145 -0.106845655 -0.123867214
-0.28572825 -0.09129226 0.0204764 0.17031692 0.23252927 -0.36320046 -0.38712254 -0.1797911
0.03012655 0.13790351 0.15723038 0.25991306 0.21183705 0.19122253 0.18684193 0.10817414
-0.046141036 0.066904545 -0.038819745 -0.25020725 0.17098458 -0.12054217 0.04725322 -0.103637256
-0.213357 0.20849575 0.5190508 -0.120062165 0.066621326 0.09244191 0.052524276 -0.4585286
0.11409674 0.48244965 -0.26385266 -0.23912473 0.07193346 -0.13222066 0.035259902 -0.338955
-0.25088045 0.16872156 -0.06677426 -0.14481516 0.0033621911 0.145311 0.5557415 0.42224324
0.4501812 -0.09474009 0.10235764 -0.07073039 0.07097598 0.13742112 0.15742046 0.0398863

bias f4 [16]
00000000: e939 aa3d 4bd9 ecbb d596 27bd 2b80 1cbe
00000010: 854f 4cbe 6979 9dbc 4604 d43d b38e 17be
00000020: 1a22 41be 1b27 293e 71e8 9bbc 721d 633d
00000030: 2104 d3bd 4985 aa3e bec6 8ebd fd9b 86bc
0.08311827 -0.007228052 -0.04091533 -0.15283267 -0.1995221 -0.019222932 0.103523776 -0.14800529
-0.18860665 0.16518824 -0.019031735 0.055448003 -0.10303522 0.33304814 -0.06971501 -0.016431803

running_mean f4 [16]
00000000: ae4c 1a3d c3ad a7bd 0b55 1fbd 6dac 45be
00000010: 9b83 4fbe 77e3 513d a392 b53d 7a04 0cbe
00000020: 2a82 52be b79e 0e3e 0dc4 57be aa9c d93c
00000030: 40ee 09be 030a 9d3e 1535 92bd 4205 90bd
0.037670784 -0.08187439 -0.038899463 -0.19304056 -0.20265047 0.051242318 0.08865859 -0.13673583
-0.20557466 0.13927732 -0.21070881 0.026563961 -0.13469791 0.306717 -0.07139031 -0.07032253

running_var f4 [16]
00000000: f3c7 8a3c 5e0f c13c f517 873b 1cdc 693c
00000010: 2a15 b43b 0f0f 723c 4996 083c 2780 e13b
00000020: 26f1 853b 011c 7f3c 9c45 e53d 9f81 c23b
00000030: ae8b 063c 67ea 293c 272c 203c 4d0f ac3c
0.016941046 0.023566898 0.004122729 0.01427367 0.005495687 0.014774098 0.008336612 0.006881732
0.004087585 0.0155706415 0.111949176 0.005935862 0.008212013 0.010370827 0.009776152 0.02100339

weight f4 [16]
00000000: 43d5 2f3f f894 323f bb29 2a3f aa59 4e3f
00000010: c3e0 8a3e 1e75 ce3e 3c46 cb3e 0434 ea3e
00000020: ec19 003f 3d7e cb3e 6220 6e3f 5b37 ce3e
00000030: 1e3e 343f 26e5 8a3f 837a b83e b01e dc3e
0.68684787 0.6975856 0.66469926 0.80605567 0.27124605 0.40323728 0.39702022 0.4574281
0.50039554 0.3974475 0.9301816 0.40276608 0.70407283 1.085118 0.3603097 0.42992163

bias f4 [16]
00000000: 0b72 84be d910 e6be e0cb 73be 812c 12bf
00000010: f9cc 5abe b008 0bbf fec7 8dbe 156b 1dbf
00000020: c8a5 3fbe f7b8 0ebe 89e9 fbbd 54c8 6fbe
00000030: 3048 acbe 1013 abbe 5baa a5be 762a 29be
-0.25868258 -0.4493473 -0.23808241 -0.5709916 -0.21367253 -0.5431013 -0.27691644 -0.6149152
-0.18715584 -0.13937746 -0.12300403 -0.23416263 -0.33648825 -0.3341298 -0.32356533 -0.16520104

weight f4 [32, 16, 5, 5]
00000000: 625e 093f 57bc 423e ee5a 113e 20f1 b9be
00000010: d120 af3c 3fa7 043c e8e7 043e a681 9c3d
00000020: fb33 ee3c d636 1e3e defe 60bd f433 913d
00000030: 9051 693e e86a 1c3e 3e3c af3d b624 003d
00000040: 22fb 1a3e 5a12 6cbe a15c b63e 0364 d2bb
00000050: 2873 423d 5081 963e 96b5 d4bd 2041 553e
00000060: a364 f3bd 6345 9e3e 5322 98be 5318 dfbd
00000070: d8d5 e2bd 9d0e 85be 4c1b 8dbd 1335 c23b
00000080: 00ad 55be ab6e 333e 8f6b 593e ff00 43be
00000090: c951 ca38 4db8 3d3e a250 843e e3a5 ce3d
000000a0: 1725 a43d b544 663e c503 1abd 771a 573c
000000b0: 6f35 f6bd 1d2c eabd b892 08bf c496 c7bc
000000c0: 73b4 bc3d e363 18bc f443 bc3e 7617 753e
000000d0: 8885 433d 7cdb 423e fa1c 93bd 62b9 93be
000000e0: 04ed 62be 936f 273d fede 1fbe ecf2 063e
000000f0: ff50 163e 846b 9a3e 280e 02bd 0e63 9b3e
00000100: 1ab2 13bd 01af d3bd eacb b4bd 4380 e3bd
00000110: 3026 0d3c c760 b73d 52bf aabd 42ce b2bd
00000120: 122b acbd ac66 643e 724c c6bd 5502 b3be
00000130: 4ace 9c3e ff13 f4bd 699a ba3e e97f 80bc
00000140: f4f0 0bbd ca34 573e 4f10 143e 4710 923e
00000150: 07d3 413e 08f8 a8bd 6545 943b 36c1 433d
00000160: 5436 8f3e 2439 163e a680 a8bc bf46 bb3d
00000170: c2ec f03d 70ef 00be a24c a8be 1b2e fdbd
00000180: a493 1dbe 9e12 1ebe e34a 29bd 35ca 40be
00000190: 6872 58bb 1738 c43e dcb6 f8bc cf96 57bd
000001a0: f5a5 22be de4a 3b3c 4627 a93d d6e8 e93c
000001b0: 0deb 183e a128 293e cf32 d13c ebb3 d13e
000001c0: d873 a83e 344a 703e 5b40 ca3d 81b0 edbd
000001d0: b3cf ee3c cc69 f0be 7ac3 d6be ccc9 54be
000001e0: ed9e ecbd d1ce a9bd 0350 4cbe 5dda 91be
000001f0: 2115 9fbd 03b0 02be 91a1 96bc d02a 013e
00000200: 0167 f3bd 6ef3 fa3d e870 a0be 338a 983d
00000210: ff3b e13d 853f 58be 381b aabd 8ce4 0dbe
00000220: c856 903c 9bea 27be 3684 c73c 5de4 51be
00000230: 6aa9 f83d 59ea fcbb 8d5a 16be 86d0 ba3c
00000240: f865 1fbe 65fa 0b3e 634b 8d3d 55a3 8d3d
00000250: 4bd3 59be 5b9a 423d 108b 733d 6567 313d
00000260: e9b1 3b3e f835 94be 5760 433e 5375 a13e
00000270: 08a2 be3d d3d3 383d 2100 a93d 520d 4e3e
00000280: 804d 9b3e f66e a6bd b671 04bf 970c a83c
00000290: f106 3bbe fc65 0fbe 5b0e c83d 54c6 51be
000002a0: 3199 50be 62c7 6bbe c3ba 883e b132 173e
000002b0: d14b 5e3e 7b6a 9a3e 1936 d23d 5b8a a63e
000002c0: ecd1 933c 9c8e 9abd 6980 f83b 50d2 bc3c
000002d0: 9313 253d 76ef 8d3c d1d4 ab3e 01d2 32be
000002e0: ddcc 2a3e 3b57 123e 5fce 28be ef4b 5a3e
000002f0: 9b0d 263e 30ba c73e 7c0c 2b3d 8e92 96bd
00000300: 4eeb 6f3e 40f3 3dbe 078a 3dbd 3724 00bf
00000310: 3d62 63bd a0c0 a63c 6abb b53e 505f 7a3d
00000320: 7ec2 cdbd cbdb 6f3d e853 24bf 29ff 85be
00000330: 6966 27bf a246 493e cf2b 5b3e bcdb 233d
00000340: 7a26 c03c 9953 7dbc 65b5 833e 607a 6abe
00000350: c21a a0be aa34 743d 4924 083e bafc 9c3d
00000360: 146a 3c3e 3b01 c8bb b6b9 7bbe f401 0e3d
00000370: 0c31 e53c 1d9b afbc 0f8d aabc b980 f3bd
00000380: a578 adbe 08f6 82be d832 f0be f1fa 43be
00000390: f9e8 373e 2399 23be 8d5f 3dbd 870d 4f3e
000003a0: a95a a53d d645 453d 1bc1 273e 09d8 c7bd
000003b0: 31d4 94bd e3ad 7bbe 8289 9c3d 3a07 853c
000003c0: 0ccb 9bbe c279 04be 3440 373e 8fcd 9d3d
000003d0: ef80 353d 5c46 513e 3b92 843e aa79 bebe
000003e0: 9be1 823d 04c7 893e 2f28 6e3d 3838 fa3d
000003f0: 4b79 463d ebd9 29be e035 61be 3e08 6d3e
0.5365964 0.19017158 0.14194843 -0.36316776 0.021377953 0.008096515 0.1297909 0.07641916
0.02907752 0.15450606 -0.05493056 0.070899874 0.2278502 0.15275156 0.08556412 0.03128501
0.15134862 -0.23053876 0.35617545 -0.0064206137 0.047473103 0.29395533 -0.10386197 0.20825624
-0.11884429 0.30912313 -0.29713687 -0.10893311 -0.11075944 -0.25987712 -0.06889972 0.005926737
-0.20866776 0.17522685 0.21232437 -0.19043349 9.647344e-05 0.18527336 0.25842768 0.10090234
0.08014887 0.22487147 -0.03760125 0.013128868 -0.120219104 -0.11434195 -0.53348875 -0.024363883
0.092141055 -0.009301159 0.36770594 0.23934731 0.047734767 0.19029039 -0.07183261 -0.28852373
-0.22160727 0.04087789 -0.15612409 0.13178605 0.14679335 0.30160153 -0.03175178 0.3034901
-0.036058523 -0.10336114 -0.08827956 -0.11108448 0.008615062 0.08954006 -0.08337273 -0.08730747
-0.084066525 0.22304791 -0.096825495 -0.34962717 0.30626136 -0.119178765 0.3644593 -0.015685992
-0.034165338 0.21016231 0.14459346 0.28528044 0.18928157 -0.08250433 0.004524874 0.047791682
0.27971137 0.14670235 -0.020569157 0.09144353 0.11763908 -0.12591338 -0.32870966 -0.123623095
-0.15388352 -0.1543679 -0.041331183 -0.18827136 -0.0033027176 0.38324043 -0.030360632 -0.052634057
-0.1588362 0.011431424 0.08259444 0.028553408 0.14933415 0.16519405 0.025536923 0.4095758
0.32900882 0.23465806 0.09875556 -0.11605931 0.029151773 -0.46955717 -0.41946012 -0.20780104
-0.1155375 -0.082914 -0.19952397 -0.2848691 -0.07767702 -0.12762456 -0.018387588 0.12613988
-0.11884881 0.12253462 -0.3133614 0.074482344 0.109977715 -0.21117981 -0.08305973 -0.13856715
0.017619506 -0.16398089 0.024355035 -0.2049727 0.12141688 -0.007718366 -0.1468298 0.02280451
-0.15566242 0.13669737 0.068991445 0.06915919 -0.21272008 0.047510486 0.059458792 0.043311495
0.18329586 -0.28947425 0.1907972 0.31534824 0.09308249 0.045123886 0.08251978 0.20122269
0.30332565 -0.08126633 -0.5173601 0.020513816 -0.18264367 -0.14003748 0.09768363 -0.20485812
-0.20370938 -0.23025277 0.26704988 0.14765431 0.21708609 0.30159363 0.102642246 0.32527432
0.018044434 -0.07546732 0.007583667 0.023049504 0.04030187 0.017326098 0.33560804 -0.17462923
0.16679712 0.14291088 -0.16484974 0.21318029 0.16216128 0.39009237 0.041759953 -0.07352172
0.23429605 -0.18549824 -0.04627421 -0.5005526 -0.05551361 0.020355523 0.35494548 0.061126053
-0.10046862 0.05855922 -0.6419053 -0.26171234 -0.6539064 0.1965585 0.2140343 0.040004477
0.023455847 -0.015461826 0.2572433 -0.22898245 -0.31270415 0.059620537 0.13295092 0.07665391
0.1839984 -0.0061036623 -0.24582562 0.03466983 0.027977489 -0.021436268 -0.020819215 -0.11889786
-0.33881107 -0.25578332 -0.4691379 -0.19138695 0.17959966 -0.15976386 -0.046233702 0.20220004
0.08073933 0.048162304 0.16382258 -0.09758002 -0.07267035 -0.24578051 0.07643415 0.016238797
-0.3042835 -0.12937072 0.17895585 0.07705223 0.044312414 0.20436996 0.25892815 -0.37202197
0.06390687 0.2690965 0.05814379 0.12217754 0.048455518 -0.16587035 -0.21993208 0.23147675

bias f4 [32]
00000000: 8d2e e9bc c39f 793c d01f 163c 7fd4 b3bc
00000010: b705 a73b a223 023d 58a1 a23c 9eaa b4bc
00000020: adad c0bb 07e0 23bd 9a2f 4dbd 0227 f33b
00000030: ca3b a73c b29d 873c d487 9739 b3ad c2bc
00000040: 03ec 43bd 5760 d03b b4b8 293d 79d5 44bc
00000050: d972 2eb9 7824 15bd 5d65 8e3c 19a4 61bd
00000060: b77d c13c 84f1 81bc 976c f1bc ae8f 3cbc
00000070: 4923 7fbb 8664 18bd 691e 353c f441 a7bc
-0.02846458 0.015235844 0.009162858 -0.021951912 0.005097117 0.031772263 0.019852325 -0.022054013
-0.0058800788 -0.04000857 -0.050094225 0.0074204216 0.020414252 0.016554687 0.00028902164 -0.023764467
-0.0478325 0.006359141 0.041435912 -0.0120137865 -0.00016636717 -0.036411732 0.017382318 -0.055088136
0.023619516 -0.015862234 -0.029470725 -0.011508865 -0.0038930944 -0.03720524 0.011054614 -0.020417191

running_mean f4 [32]
00000000: 55e2 cbbd 0838 a6bd b6a5 963d ae2a 2d3e
00000010: 3043 d2be a06d b73f dd37 2e3d 7c51 643d
00000020: 0921 133f 6748 0a3e 061f 343e 945f a5be
00000030: 6c4b e63e 31e6 593f c913 f73e 83fb 953c
00000040: 047a b0be d9be 9c3e e1b1 263d e591 a7bd
00000050: ad95 e73e 4769 843f 9d3f 213d 81df 803e
00000060: 025d 653e 7217 8fbf 4219 d0be 7391 c9be
00000070: 421e 74bf def2 053e ce05 50bc 6583 e33f
-0.09955279 -0.08116156 0.073558256 0.16910812 -0.41066885 1.433033 0.042533744 0.055741772
0.5747228 0.13504182 0.1758996 -0.32299483 0.44979417 0.8511687 0.48257282 0.018308407
-0.3446809 0.30614355 0.040696982 -0.08182124 0.4523138 1.0344628 0.039367307 0.2517052
0.22398761 -1.117903 -0.4064427 -0.3936878 -0.9535867 0.13080928 -0.012696696 1.7774473

running_var f4 [32]
00000000: 49e3 a63f 7a92 b93e 451d 853f 98d8 df3e
00000010: 2b36 e63e 4a5a 8f3f 4944 f73e cde4 0e40
00000020: 616d 0c3f dc7c 5e3f cea3 af3e 76b9 1b3f
00000030: 2399 073f 1eca 3a3f be74 1340 e455 c73f
00000040: 66cc 1f3f 0121 a43e 5ce4 e73f f988 3240
00000050: 44b9 273f 189f 213f d0fa 3a3f 1583 143f
00000060: e0f3 ca3e 09b3 1140 b918 733f cc9d dd3e
00000070: 75e7 f13f fa47 9640 cde6 1f3f 0bfe b03f
1.3038112 0.36244565 1.0399557 0.43719935 0.44963202 1.1199429 0.48294285 2.232715
0.548544 0.8690927 0.3430466 0.60829866 0.52968043 0.72964656 2.3040004 1.5573087
0.6242126 0.3205643 1.8116565 2.7896101 0.6551707 0.6313338 0.7303896 0.58012515
0.39639187 2.2765524 0.949596 0.43284452 1.889876 4.696286 0.6246155 1.3827528

weight f4 [32]
00000000: 13ee 0a3f a556 083f 69a9 c53e 2365 af3e
00000010: 904e 933e a034 d23e dfbf cc3e ff92 2f3f
00000020: 0e48 a33e ddf6 ba3e 9a5b 873e bb96 d03e
00000030: 5838 af3e 0b18 cb3e af78 4f3f 2580 9b3f
00000040: d686 8a3e 010a 753e ff0e 3b3f aca2 2b3f
00000050: 6b97 853e 5ee5 a63e 0092 af3e d7d3 d03e
00000060: b7c2 9a3e b6ce 1d3f 4f9d b73e 1b78 d33e
00000070: 4ac7 083f f8b7 243f 0e24 ae3e a2bc fc3e
0.5426952 0.5325721 0.38605812 0.3425685 0.28770876 0.41055775 0.39990136 0.68583673
0.3189091 0.36516467 0.26437074 0.40739998 0.34222674 0.3966678 0.81043524 1.2148482
0.27055997 0.23929597 0.7306976 0.6704509 0.26092085 0.32596868 0.34291077 0.4078662
0.3022668 0.6164354 0.35862204 0.4130257 0.5342909 0.64343214 0.34011883 0.49362665

bias f4 [32]
00000000: b62d cfbe 1626 64be 027f 9fbe c175 a8be
00000010: 4e98 19be 4086 55be b8fa 5abe 0664 acbe
00000020: 2107 74be 63e7 26be a056 38be f72a a4be
00000030: 39a3 6fbe bb83 5dbe d1d0 cebe a4ea 8abe
00000040: 54ee acbe f35c eabd 91a2 81bd c17d 93be
00000050: f2bb 7ebe f671 86be 603a d4be b196 48be
00000060: f04e 3cbe ac76 0dbe e27e b9be 27e6 efbe
00000070: 200e b5be c2d1 86be 92a3 b2be 276e 33be
-0.40464562 -0.22280154 -0.31151587 -0.3290234 -0.14999506 -0.20851994 -0.21384704 -0.33670062
-0.23830844 -0.16299205 -0.18001795 -0.3206403 -0.23402108 -0.21632282 -0.4039369 -0.27132142
-0.3377558 -0.1144351 -0.06329835 -0.2880688 -0.24876383 -0.2625882 -0.41450787 -0.19588734
-0.18389487 -0.13814801 -0.36229616 -0.4685528 -0.3536234 -0.26331908 -0.3489042 -0.17522489

weight f4 [32, 32, 5, 5]
00000000: 005e a3be 4872 9cbe 1e39 9cbe 23a0 f6be
00000010: a841 9bbe 7d7b 4e3d 2967 7dbc 7f2d 803d
00000020: 7f02 0a3c 4cf1 a1bc 3598 a6be 3a00 a2bb
00000030: e396 94bd cabb 1f3e d48b 2e3e 065e af3d
00000040: c003 b7bd db98 d3bd 6f77 cb3d ee16 3fbc
00000050: 2ff1 c8be 7705 72be 9f27 8d3e 40d9 213d
00000060: cfab 393e f7ec 60be 63ae 30be 45f2 9bbd
00000070: dd9b e8bd 14be bcbe 4a13 c4bc bc88 debd
00000080: 3b96 8f3e e606 82be f590 b7bd b26a 66bd
00000090: aac7 113e 181e e93d a07f 1ebe d269 273e
000000a0: d107 113e e7d0 99be ce0b 23be 956d fabe
000000b0: df93 00bd 0451 44be 8cea 763d 5b28 0f3e
000000c0: 037e b9bd fce9 623b 02cf aa3d 5ae6 0abf
000000d0: f29a bd3d 8583 933d 0c67 573e d1b0 b7bd
000000e0: 8115 3ebd fa1f 3cbe 3651 373c 1756 243e
000000f0: 5b74 c6bc ca79 e03c 65e2 123d c195 57be
00000100: 5826 2d3e 4b80 3fbe 7563 6bbe 716d d7bc
00000110: a0f6 e83d 58f6 0b3d 37c3 27be 4987 a83d
00000120: 7003 cbbe 4cb4 a83d b175 a93e 8427 f6be
00000130: 5c12 3bbe d0cf 5a3d 3237 2f3d f1c0 66be
00000140: 3be7 58be 05be 71bd 321a 87be 4f43 c53a
00000150: c729 8d3d c61a b53d d5fb f4bd dd01 08be
00000160: e572 c6be c0f8 aa3d 3098 f6bd ca38 0dbe
00000170: 50c9 c53e 81f4 6fbe 40d1 93be b089 69bc
00000180: db80 19be ff68 acbe 3249 ff3d d432 bfbe
00000190: 7308 a5be 9cae cfbe 3909 b23e 2be9 163e
000001a0: 9d23 893e 57cb 94be f05d 19bd 9d0f 5ebd
000001b0: bc92 e03d ab8c d73c 390d dcbe 069f 22be
000001c0: e18d 0e3e 7bb8 e4bd b05a fcbd b5c2 85bd
000001d0: 6ad3 8abe 58fa 253e 0c7b 483e b7b3 043d
000001e0: 4617 bebd b9ce 4b3c 906b 703e adaa e33b
000001f0: 8d51 983e 026e e6bd bd54 57be 409f 693e
00000200: 0920 233e 49dd 533e 1d8c 48bc 8eac d03d
00000210: e647 583e 67ce f73c b4e8 913e bcef 4e3e
00000220: dfe8 dfbd 2d6f 7b3d 237f 653e 3f10 473e
00000230: d509 3d3c d5fe 7bbd fa4a 4bbe d589 6b3e
00000240: 9186 213d b054 3e3e f25b 39bd b29d a5bd
00000250: 9427 6e3e 1aa7 3ebb 1348 ddbe 38ce 58be
00000260: 4ba2 093e 241d 23be 8717 debe 8fc2 54be
00000270: 7bb3 8fbd 1625 7bbd 6ef5 08bd 3924 503d
00000280: 179f dbbe e820 d1bb 83ba 623e ece8 0cbe
00000290: 6790 cf3d 7c60 ccbd 3fad f5bd 4242 aebd
000002a0: 6038 3e3e 78cf 8e3e 7f9e acbe 2d0b 593e
000002b0: d458 b1be 87ce b73a 98a4 fc3d 0464 9b3d
000002c0: b5e3 793d fe85 9d3d 93f0 a4be cace c5be
000002d0: d009 eebd e54d 41be 257f b0bd 00b8 9fbd
000002e0: 7137 bcbb 8e80 8cbd ba06 febd 830e 29bd
000002f0: f055 b1bd e479 a83e 42a1 6fbd b689 853b
00000300: 0189 423e 7379 dbbd eff1 d83e a464 ac3c
00000310: b3e9 ac38 d9a9 b53d ae44 9d3d 260f 023e
00000320: 42bd 343e e1fd 1cbe 603f 72bd 429a 54be
00000330: d718 0abe 45ef 073d ed25 303e b656 d33d
00000340: b317 9bbe 8338 cfbc 7d84 a2bd 45ef 0a3e
00000350: 9e73 bdbc 0174 07be 5584 7c3d c570 d9bd
00000360: d1fb dcbd f778 bbbc aef3 a4be 12ca 1c3d
00000370: f3b9 d1bc 2175 ab3d d3d4 a33d 0b17 40be
00000380: 465a 2cbf 8dff 40be 0589 92be dda7 3fbe
00000390: 67af e8bc 85e0 27be 9668 8e3d 1a52 d93d
000003a0: c85d b93d 0fd4 f63d fabb 893e 3d5f ce3c
000003b0: 3a77 5b3c 8dca 0bbd c9b3 c43c b82f 18bd
000003c0: bc13 9ebe ba41 5dbd 85eb 07be 3196 e1be
000003d0: d964 cf3c 4338 ddbe 1d65 5ebe 3bcd 4fbe
000003e0: 17c6 0dbc 0fb0 14be 8818 033e 1a24 5c3d
000003f0: 46ad f13c ded6 e7bd 25e3 7fbe 5bb8 da3d
-0.31907654 -0.3055594 -0.30512327 -0.4816905 -0.3032353 0.050410736 -0.01546649 0.06258678
0.008423447 -0.01976838 -0.32538 -0.0049438747 -0.07255342 0.1559898 0.17045528 0.085628554
-0.08936262 -0.10331889 0.099348895 -0.011663182 -0.39246508 -0.23634897 0.2756929 0.039513826
0.18131946 -0.21965395 -0.17254023 -0.076145686 -0.113578536 -0.36863768 -0.023934979 -0.10865924
0.28044304 -0.25395888 -0.08963195 -0.056254096 0.14236322 0.11382693 -0.15478373 0.16348961
0.14163138 -0.30042192 -0.15922472 -0.4891173 -0.03139102 -0.1917153 0.060282275 0.13980238
-0.09057238 0.003462433 0.08340265 -0.5425774 0.09258069 0.0720282 0.21035403 -0.08969272
-0.046407226 -0.18371573 0.011188796 0.16048466 -0.024225404 0.027401824 0.035860438 -0.2105322
0.16909158 -0.18701284 -0.22987159 -0.026297303 0.11375165 0.03417048 -0.16383062 0.082289286
-0.3965106 0.08237514 0.33097604 -0.48077023 -0.18268722 0.05342084 0.042777248 -0.22534539
-0.21181957 -0.059019107 -0.26387173 0.0015049967 0.06892734 0.08842997 -0.11962096 -0.13281961
-0.38759533 0.083482265 -0.12040746 -0.13791195 0.38630152 -0.23433115 -0.28870583 -0.014254019
-0.1499056 -0.33673856 0.12465133 -0.37343466 -0.3223301 -0.40562904 0.3477266 0.14737384
0.26784983 -0.29061386 -0.0374431 -0.05421411 0.10965487 0.026312193 -0.42978838 -0.15880975
0.1392131 -0.11167999 -0.12321985 -0.06531278 -0.2711442 0.1620878 0.19578189 0.032397952
-0.09281783 0.012439423 0.23478532 0.0069478364 0.29749718 -0.11251451 -0.21028419 0.22814655
0.15930189 0.20689882 -0.012240437 0.10189162 0.21121177 0.030249787 0.2849785 0.20208639
-0.109330885 0.061385322 0.2241178 0.19439791 0.011537989 -0.061522324 -0.1985282 0.23001797
0.039434973 0.18586993 -0.0452537 -0.080867186 0.23257285 -0.00290913 -0.4321905 -0.21172416
0.13440816 -0.15929085 -0.43377325 -0.20777343 -0.07016655 -0.061314665 -0.033437185 0.050815795
-0.42894813 -0.0063820966 0.22141461 -0.13760728 0.101349644 -0.099793404 -0.11995935 -0.085087314
0.18576193 0.2789266 -0.33714673 0.2119567 -0.34638083 0.0014023342 0.12336081 0.07587436
0.061008174 0.076915726 -0.32214794 -0.3863433 -0.11622965 -0.1887737 -0.08618001 -0.07798767
-0.005743914 -0.06860457 -0.12403627 -0.041273605 -0.086589694 0.32905495 -0.058503397 0.0040752543
0.18997575 -0.10716524 0.4237208 0.021044083 8.245129e-05 0.088702865 0.07679115 0.12701091
0.17650321 -0.15331222 -0.05914247 -0.2076197 -0.13486038 0.03318717 0.17201968 0.10319273
-0.3029152 -0.025295502 -0.079354264 0.13567837 -0.02312642 -0.13227846 0.06164964 -0.10617212
-0.10790218 -0.022884829 -0.32217163 0.038278647 -0.025601363 0.0837195 0.079995774 -0.1875879
-0.67325246 -0.18847485 -0.28620163 -0.18716379 -0.02840395 -0.16394241 0.06953542 0.10611363
0.090510905 0.12052166 0.26901227 0.025191898 0.013395125 -0.034128714 0.02401151 -0.037154883
-0.3087443 -0.05401776 -0.13273437 -0.440599 0.025316643 -0.43206987 -0.21718259 -0.20293133
-0.008653185 -0.14520286 0.12802327 0.053745367 0.029501569 -0.113202795 -0.24988993 0.10679694

bias f4 [32]
00000000: 402e a3bc 5c6e ca3c 499b 27bc c6de 6fbc
00000010: 27b7 143d 1d19 01bd 03e1 543c 330a f83c
00000020: 346e 133d 6d36 9ebc 6bf2 d2bc cf33 10bd
00000030: 579f c0bb 63f2 87bc 8f76 f1bc 2b93 a7bc
00000040: b49d 263d 3cbf 043d 687b 033c fa31 af3c
00000050: 2539 443c bf25 2a3d 9078 dbba cb3f 93bc
00000060: 06dc f1ba 4a5b 083d a8fb e2bc 31d0 44bc
00000070: af91 3a3c 9f8c ed3a 6513 fa3c 82d3 e83c
-0.019919515 0.024710827 -0.010229894 -0.014640516 0.03630748 -0.03151809 0.0129931 0.0302783
0.03599377 -0.019313062 -0.02575036 -0.03520566 -0.00587837 -0.016595071 -0.029475478 -0.020455917
0.04067774 0.032408938 0.008025028 0.021386135 0.011976515 0.041539904 -0.0016744304 -0.017974755
-0.0018452413 0.033290185 -0.02770789 -0.012012527 0.011387273 0.0018123573 0.030526826 0.028421167

running_mean f4 [32]
00000000: 3cc3 71bf c01f b6bf 7635 96bf 5a60 aebf
00000010: 636d 5dbf 05f5 58bf d817 78bf 2e98 cebf
00000020: 9797 dabf 439f 91bf 7bd8 89bf 76a0 84bf
00000030: 2890 6fbf 44e0 afbf be13 bcbe 7388 0cbf
00000040: d0f1 98bf cf80 8bbf ba7c e2bf d437 60bf
00000050: 9e95 9bbf 2ca2 53c0 09e0 c1be 2d9d f4bf
00000060: 2126 68bc 859c c3bd 049d 6bbf 8610 f7bf
00000070: 5619 753d b7a3 08c0 47c4 09c0 b959 53bf
-0.9443853 -1.4228439 -1.1735065 -1.3623154 -0.86495036 -0.8474887 -0.9691138 -1.6140192
-1.7077512 -1.1376728 -1.076919 -1.0361469 -0.9357934 -1.3740315 -0.36733812 -0.54895705
-1.1948795 -1.0898684 -1.7694314 -0.87585187 -1.2155035 -3.3067732 -0.37866238 -1.9110466
-0.014169247 -0.09551338 -0.9203646 -1.9301918 0.059838615 -2.1349924 -2.1526048 -0.8255878

running_var f4 [32]
00000000: 28d4 013f 0597 6a3f 1841 173f 2920 833f
00000010: caca 5d3f 3031 033f 5722 873f 50d8 673f
00000020: e1c5 223f 7130 4f3f b6f9 833f 6d88 683f
00000030: e16b 2b3f 2b2f a83f 5fce d53e 7255 153f
00000040: a715 233f a818 633f 8737 0840 6df7 273f
00000050: e86c 5a3f 1a8d dd3f dd17 6a3f 7393 873f
00000060: e00e 413c 20a5 343f 40e8 8d3f 84c4 9c3f
00000070: 56e5 1c3f 79ab bf3f 7dc6 4a3f 6fd9 9a3f
0.5071435 0.9163669 0.590837 1.024419 0.86637557 0.5124693 1.0557355 0.9056444
0.6358319 0.8093329 1.0310581 0.9083317 0.66961485 1.3139395 0.4175901 0.58333504
0.63704914 0.887095 2.1283891 0.65611917 0.8532243 1.7308686 0.9144266 1.0591873
0.011783332 0.7056446 1.1086502 1.2247472 0.6128744 1.4974204 0.7920912 1.2097605

weight f4 [32]
00000000: 2d72 c03e 2373 073f 4423 f33e dbfa ef3e
00000010: 09a1 e63e 12ff 1b3f 44c9 e83e 6458 993e
00000020: 8dcc ba3e d113 b63e 4865 243f 00a3 143f
00000030: 1088 ce3e 26fb f53e bf20 b73e 7b61 1b3f
00000040: 7c86 dd3e 6baa a83e a859 523f 32a6 553f
00000050: b857 a03e 4e2a e73e 5a0c a73e f17f b73e
00000060: a20b a839 6afc 263f 4ee9 003f 6080 153f
00000070: cac6 2a3f 6fb9 2a3f f709 ac3e 3188 c33e
0.3758711 0.5291006 0.47487843 0.46871075 0.45044735 0.6093608 0.45466053 0.2995025
0.36484185 0.35561994 0.6421704 0.5806122 0.40338182 0.48043174 0.3576717 0.6069562
0.43266666 0.3294252 0.82168055 0.8345672 0.31316924 0.45149463 0.3262661 0.358398
0.00032052124 0.65228903 0.50355995 0.5839901 0.6670958 0.666892 0.33601353 0.38189843

bias f4 [32]
00000000: 4477 fbbe f559 54bf e5d0 dfbe bb8b 2dbf
00000010: 16ee 27bf 5fea 5bbf d7f3 2ebf 6fae 7ebe
00000020: d986 91be cf2a e9be cfc5 13bf 4416 65bf
00000030: 5f9d 06bf 5c06 00bf 8bfe 2ebf e954 4cbf
00000040: 62fe 06bf 886b 00bf cc10 f3be 2bea 5abf
00000050: a70e 08bf 01f7 90be 3a9b 1bbf ee2d c8be
00000060: add2 adbb 47e3 85bf 4923 1cbf 3db0 e5be
00000070: 1850 5ebf d504 16bf 33f2 22bf eb68 20bf
-0.4911443 -0.82949764 -0.4371406 -0.67791337 -0.65597665 -0.85904497 -0.6834082 -0.24871229
-0.28423193 -0.45540473 -0.57723707 -0.894871 -0.5258388 -0.50009704 -0.6835715 -0.7981706
-0.5273191 -0.5016408 -0.47473752 -0.8551356 -0.5314736 -0.2831345 -0.6078373 -0.39097542
-0.0053046555 -1.0459985 -0.6099134 -0.44861022 -0.86840963 -0.58601123 -0.63650817 -0.6266009

weight f4 [4, 1536]
00000000: e112 75bc 068d 413c bb3c db3b c417 263a
00000010: 460f 14bc 35be d73a f815 033d 6ebc 5bbd
00000020: df32 37be f046 7abd b92f ab3d d47c a23d
00000030: 60a4 b33e 9d5b d83d 444e 43bd 03da cd3d
00000040: fb24 8f3e 54a0 133e cdaf 24bd 025b da3c
00000050: dacf abbd 5d6c 02be 5465 593c 967f 113f
00000060: 9f1f 74bd ab29 9abd 4cd5 ffbd 22bc 3ebe
00000070: ec0e ebbe 12cb cfbd 52a3 b0bd 2fa6 56bd
00000080: 2b80 e6bc 0728 c2bd a3da f9bd 9e62 253f
00000090: d79a 47bd 01b8 9fbd 77b0 de3c 98b4 a539
000000a0: 71de 223d 99bf a4bd d207 a83b a098 283d
000000b0: 368f b6bc b5e1 1ebd c34e 383c 203b 9e3d
000000c0: 38ae 4f3c eae1 90bc 087e 79bc bbf7 63bb
000000d0: af31 9abb fee2 1eba 6c79 fe3c e9b1 073a
000000e0: 5473 0bbc 060b bebc ecfb 803c 52ab d43a
000000f0: 464f 333e 5cad 983e 1696 0a3e 2ca5 a53c
00000100: 7d20 9d3e ea04 b93e e72a afbc bfc8 8abd
00000110: 012a 203e b437 8b3d 3576 973e fd95 b1be
00000120: bf4a a4bd dca5 5e3e 4000 84be 939a 823d
00000130: 416d 0a3d d6d4 e23d ed3d ae3d 094e e23c
00000140: ad58 4abe 45d8 14bc 967d 29be 70f7 403e
00000150: 36dc c8be 5cf8 173e 26ac a23d 938e 113e
00000160: d975 bebe 7ef5 d9be 289e ac39 1c8f 5cbe
00000170: 92be 303d c0cd 91bc d10c a0bd 3cdd b5bd
00000180: 4e9c 083c 7022 133a 3598 0cbc fa1e c9bb
00000190: ff2d 613c 5533 b73c cac0 a0bc b9d9 b43d
000001a0: a76a 9bba 308e 8abd cd81 5dbe 4fde f9bd
000001b0: 5a94 0c3e fa14 a33d 88b7 a33c 58bc dc3d
000001c0: 941f b3bc 1731 a73e a053 b8bd 7087 e9bb
000001d0: 8929 8abc d8a6 99bc 405c 85be f2d1 2cbb
000001e0: 653c bd3e 5de4 fabc 4c93 f03b dcf0 8cbc
000001f0: dc76 b4bb 1718 a53e 53ee ea3e 8535 65bc
00000200: 82b4 943d f96c c5bc bb6d adbc 6db0 233c
00000210: dea0 b63d 21ec 063d c950 8abb dccc 7f3c
00000220: 17ff 24bd 5a71 d43c 44b1 c03d 274f ab3a
00000230: e7bc dabb c898 22bb bd5e 143b f5ac 2f3b
00000240: 2e66 84bc 9de7 6a3c 7bf0 463c 341d dbbc
00000250: e61b e83b 46b2 2bbb c802 92bc 5c7c 3b3c
00000260: aabc 5ebc 8853 a23c 90fc df3b 08e8 59bb
00000270: 4bac 65be 6e67 73be abba 52bd 3305 b23e
00000280: 20eb 4bbd 0679 213e a8b5 ee3e cfd3 96bd
00000290: 011e 713e f89b 853d 9446 d13d d671 b5be
000002a0: c5bb ba3d 42d3 583d 92a0 373e ee0d c93e
000002b0: 4245 9a3e eec6 873e b29c 553c ce80 e5bb
000002c0: 23de 78bd 44ba a2bd 535f a0bc 121a 09be
000002d0: 8aa2 ae3e 8e8a 78bd 99e1 b63e 07a6 98bd
000002e0: 8ff0 b03d 9913 4e3d 93b1 31bd d9cc 79bd
000002f0: 4ba2 a43e 05ac 973d 2cf9 b3bd 7648 1fbd
00000300: a6ce 1fbb 010a 443c 6b7d 553c fb13 cdbc
00000310: 9611 2bbc d743 6db9 aab0 08bb 08e9 dabb
00000320: 1161 753d 9031 23bd 9c66 4cbb 010e f43d
00000330: d2bb a7bd 0e17 0c3e d79a 5b3d d4b9 a93e
00000340: a689 c43d 4c2d a03e b7a1 4fbe 6319 a23e
00000350: 1aa5 853d 02a0 503e 3a5a 33be e1dc 2cbd
00000360: 38c1 1cbe b7ee 843d 93eb fcbd 7478 5fbe
00000370: d7f2 db3d 87a0 473d 0d56 d63e bca7 9fbd
00000380: a731 f23d fd60 dfbd 15ef 523e 1d85 41be
00000390: f3cc 68be 2a5a 2f3d ea82 0a3d 6e18 09bd
000003a0: b43a 423d ca59 29be d736 f93d 3828 19be
000003b0: 509b 21be a13f 69bd 540d fabc 17c5 6a3e
000003c0: e587 dbbd 6ca5 503d b169 e7bc a0ae 9cbb
000003d0: fa82 593c 31a2 c53c b2e7 a9bc a59b 6ebc
000003e0: 4c52 3c3c 9360 c73c 0082 6db9 369c ca3c
000003f0: ce69 373d 070b 53bc 2a3b 043e 436b f63c
-0.014958114 0.011813408 0.0066905892 0.0006335939 -0.009036845 0.0016459884 0.032003373 -0.053646497
-0.178905 -0.061102808 0.08358712 0.07933965 0.35086346 0.10564349 -0.04768206 0.10051348
0.279579 0.14416629 -0.04020672 0.026654724 -0.08389254 -0.1273665 0.013268787 0.56835306
-0.05960047 -0.07527479 -0.12491855 -0.18626454 -0.45909822 -0.101461545 -0.08624901 -0.05240458
-0.028137287 -0.09480291 -0.12199905 0.646036 -0.04873165 -0.07798768 0.027183754 0.00031605805
0.039762918 -0.08044357 0.0051278854 0.04116118 -0.022285085 -0.03878947 0.011249247 0.07726121
0.012675814 -0.01768585 -0.015227802 -0.003478511 -0.00470563 -0.0006061046 0.031063758 0.0005176352
-0.008511383 -0.023198616 0.015745126 0.0016225374 0.17510709 0.29819763 0.13533816 0.020220362
0.3068885 0.36136562 -0.021382762 -0.067765705 0.15641023 0.06797734 0.29582372 -0.34684744
-0.08022069 0.21742958 -0.2578144 0.06377139 0.0337956 0.110757515 0.08507905 0.0276251
-0.1976039 -0.009084766 -0.16551813 0.1884439 -0.39230508 0.14840835 0.07942991 0.14214544
-0.37199286 -0.42570108 0.00032924232 -0.21538967 0.043150492 -0.017798305 -0.078149445 -0.08880088
0.008338047 0.00056127366 -0.008581211 -0.006137726 0.0137438765 0.022363344 -0.019623179 0.0883059
-0.0011857346 -0.06765401 -0.21631546 -0.12200605 0.13728467 0.07962985 0.019984975 0.10778111
-0.021865644 0.3265464 -0.09000325 -0.007126741 -0.016865509 -0.018756315 -0.26046944 -0.0026370254
0.3696014 -0.03062647 0.007341778 -0.017204694 -0.005507333 0.32244942 0.45884952 -0.013989811
0.07260992 -0.024099814 -0.021170488 0.009990794 0.08917402 0.032940034 -0.004221056 0.015612807
-0.040282335 0.025932956 0.09408811 0.0013069854 -0.006675351 -0.0024810303 0.0022639476 0.0026805971
-0.016162004 0.0143374475 0.012142296 -0.026747324 0.007083404 -0.0026198789 -0.017823592 0.011443224
-0.013594786 0.019815221 0.0068355277 -0.0033249874 -0.22429006 -0.23769924 -0.05144755 0.34769592
-0.04978478 0.15768823 0.46622968 -0.07364618 0.23546602 0.06523889 0.1021854 -0.35438412
0.091178454 0.052935846 0.17932346 0.3926844 0.30130965 0.2651896 0.013037847 -0.00700388
-0.06075872 -0.079456836 -0.019576704 -0.13388851 0.34108382 -0.06067901 0.35718992 -0.07453542
0.08639633 0.05031166 -0.04338224 -0.060986374 0.3215507 0.07405857 -0.0878776 -0.038887464
-0.0024384647 0.011965276 0.01303039 -0.025033941 -0.0104412045 -0.00022627354 -0.0020857253 -0.0066806115
0.059907023 -0.03984219 -0.003118909 0.119167335 -0.08190121 0.1368067 0.053614464 0.33149588
0.09596567 0.3128456 -0.20276533 0.31659994 0.06525631 0.20373538 -0.17514887 -0.042202834
-0.15308082 0.06490844 -0.1234962 -0.21823293 0.107396774 0.048737075 0.41862527 -0.07795665
0.11825877 -0.10907171 0.20599015 -0.18898435 -0.22734432 0.042810597 0.033816256 -0.033470564
0.047419265 -0.16538158 0.12168663 -0.14956748 -0.15781903 -0.056945447 -0.030523933 0.22926746
-0.10719279 0.05093901 -0.02824864 -0.004781559 0.013275856 0.02412519 -0.020740364 -0.014563476
0.0114942305 0.024338042 -0.0002265051 0.02473269 0.044778638 -0.012881047 0.12913194 0.030080443

bias f4 [4]
00000000: c5e0 353e 92b1 373e 5504 3d3e 017c 363e
0.17761524 0.17938831 0.18458684 0.17820741
