dev/pacman_1_1000.pth (torch_old, 242836 bytes, 20 tensors)

weight f4 [16, 4, 5, 5]
-0.035066113 0.05781006 0.06626897 -0.064158544 -0.03181787 -0.010852434 -0.042637777 -0.05094886
0.019599974 -0.09785577 0.0999422 -0.087282754 0.06614549 0.09890131 0.03828182 0.027087472
-0.029420279 -0.048610654 -0.09862479 0.08754172 0.06970579 0.06763778 -0.030355252 -0.06210512
-0.0736257 0.054170422 -0.011299312 -0.088079266 -0.078871444 -0.048312962 -0.029217027 -0.078081354
0.061071478 -0.08175441 -0.07779367 0.077811904 0.034549244 0.073791854 -0.029289484 0.050934248
-0.09294114 -0.056042936 -0.060448386 0.046694644 -0.061141696 0.05370281 0.04310929 0.058662362
-0.090646386 0.011447944 0.081799306 0.06389738 -0.06630943 0.06114029 0.05401347 0.09518234
-0.016153336 -0.0011486411 -0.06602733 -0.008486986 0.015505031 -0.037633266 -0.07924507 -0.026701726
0.0044200793 -0.004622422 0.005650118 0.07088018 0.040508114 0.011652216 -0.024944112 -0.022762917
-0.05134933 -0.04972416 -0.060076535 0.11860664 -1.366624 -0.40202057 -0.15677753 -0.53086835
-2.415364 0.5234797 -1.3278887 0.026717111 0.005795281 -0.38076225 -0.47478825 0.5159993
-0.9874439 1.0817345 1.2148042 1.0274698 0.23128523 -0.1506748 -1.9440416 0.2081285
-0.38874975 -0.43539184 -0.010578693 0.7854699 0.069392525 -0.08504514 0.090266414 -0.09609877
-0.046052814 -0.023761012 -0.09513819 -0.09732415 -0.037273586 0.01423122 -0.00789535 -0.017926022
0.035791345 0.05968813 0.08100999 0.030038096 -0.04164815 0.002875112 0.07948025 0.07531796
-0.06739262 -0.094123594 0.06527502 0.081065975 -0.0827026 -0.010214463 0.03629937 -0.055256035
-0.06934061 0.04116372 0.064032696 0.071132205 -0.021930717 0.01129403 0.05254302 0.010105468
0.06940878 -0.08925767 -0.03590242 0.015059784 -0.09268143 0.07021684 0.06212788 0.027467765
0.09215162 -0.03272283 -0.09086052 -0.016226158 0.0031663552 -0.05519172 0.017289042 0.0033840314
-0.049533974 0.09917075 0.08809126 -0.034482516 0.039074622 0.03931535 0.08229364 0.052150436
0.07439617 -0.00097282976 -0.0712806 0.093878545 0.069075234 0.027261011 -0.014714241 0.0118748695
0.02347865 -0.004016176 0.08276858 -0.059246507 -0.03735409 0.024816796 -0.04620246 -1.3018489
-0.56490713 -0.3253944 -0.69592744 -0.853317 -1.2300193 0.13115185 -0.6237643 0.99959475
-0.19668962 -1.3831704 -0.60123295 -0.22614095 0.8888735 0.2525042 0.3521064 -1.0599401
-0.54988956 -1.6717663 -1.2649077 0.58176464 -0.49138218 0.38040268 1.2937125 -0.49912143
0.06525678 -0.032674268 0.057532884 0.09783197 0.08638028 0.07532441 0.07945462 0.03477592
-0.099786036 0.07466412 -0.053970087 0.06673648 -0.02693899 -0.069160685 0.013111614 0.09589154
0.018191442 -0.05748857 0.0651359 0.067082725 -0.096159555 -0.05562028 0.06253352 0.03325946
-0.016717292 0.07727458 0.062616654 -0.004238367 0.08624045 -0.057166982 0.06522245 -0.07768188
-0.0018299595 0.059409432 0.038563736 0.054325826 0.055753164 0.059110604 0.025077306 -0.0016818047
-0.08301549 -0.083747946 -0.057015 0.02774202 0.04513737 -0.09471855 0.06339336 -0.012059726
0.022790037 0.06293266 0.09901094 -0.084763564 -0.03145863 -0.008804902 0.037918933 0.0035871267
00000000: 7ca1 0fbd 3eca 6c3d 07b8 873d 8e65 83bd
00000010: 7453 02bd 68ce 31bc f3a4 2ebd c0af 50bd
00000020: 2090 a03c 9b68 c8bd 7fae cc3d 4dc1 b2bd
00000030: 4977 873d c58c ca3d 66cd 1c3d 8ce6 dd3c
00000040: cc02 f1bc f71b 47bd cbfb c9bd 1349 b33d
00000050: e9c1 8e3d ad85 8a3d 94ab f8bc f061 7ebd
00000060: 12c9 96bd cee1 5d3d c020 39bc e762 b4bd
00000070: 5a87 a1bd d0e3 45bd 8c58 efbc 1ee9 9fbd
00000080: 1626 7a3d db6e a7bd 4a52 9fbd d95b 9f3d
00000090: 8283 0d3d 2f20 973d 80f0 efbc 6ea0 503d
000000a0: ed57 bebd 478d 65bd ba98 77bd e242 3f3d
000000b0: b76f 7abd 7af7 5b3d 5e93 303d f247 703d
000000c0: d0a4 b9bd 2890 3b3c 6586 a73d a1dc 823d
000000d0: 3dcd 87bd 3e6e 7a3d 3a3d 5d3d f5ee c23d
000000e0: 0054 84bc 008e 96ba 5639 87bd 000d 0bbc
000000f0: d008 7e3c 5725 1abd 3d4b a2bd 94bd dabc
00000100: 50d6 903b b077 97bb a024 b93b a129 913d
00000110: d6eb 253d f0e8 3e3c 9857 ccbc 4c79 babc
00000120: ad53 52bd 90ab 4bbd d012 76bd 0ae8 f23d
00000130: 89ed aebf a4d5 cdbe 4a8a 20be fde6 07bf
00000140: 5395 1ac0 c402 063f 42f8 a9bf d8dd da3c
00000150: 57e6 bd3b 45f3 c2be 7217 f3be 8818 043f
00000160: 20c9 7cbf 4776 8a3f b47e 9b3f 2184 833f
00000170: 09d6 6c3e 7f4a 1abe 5bd6 f8bf a31f 553e
00000180: 350a c7be aeeb debe 4152 2dbc 8e14 493f
00000190: ab1d 8e3d 252c aebd 99dd b83d 6fcf c4bd
000001a0: e0a1 3cbd 74a6 c2bc d0d7 c2bd e251 c7bd
000001b0: 30ac 18bd 102a 693c 805b 01bc 98d9 92bc
000001c0: f299 123d 8a7b 743d 91e8 a53d 7412 f63c
000001d0: 4097 2abd 606c 3c3b 8bc6 a23d 4d40 9a3d
000001e0: 2405 8abd dfc3 c0bd e9ae 853d eb05 a63d
000001f0: fb5f a9bd 905a 27bc a6ae 143d 2754 62bd
00000200: 7302 8ebd 4a9b 283d 9323 833d c3ad 913d
00000210: 0ca8 b3bc 980a 393c 5a37 573d 6891 253c
00000220: 3126 8e3d bacc b6bd 6a0e 13bd 50bd 763c
00000230: c3cf bdbd d9cd 8f3d ce79 7e3d 1404 e13c
00000240: fdb9 bc3d 6008 06bd 1515 babd b8ec 84bc
00000250: a082 4f3b b710 62bd c0a1 8d3c a0c6 5d3b
00000260: 23e4 4abd 091a cb3d 3169 b43d 8a3d 0dbd
00000270: b60c 203d 2209 213d 9189 a83d b29b 553d
00000280: 055d 983d 8005 7fba 90fb 91bd 6543 c03d
00000290: 5177 8d3d 7c52 df3c 0014 71bc d08e 423c
000002a0: 4c56 c03c 209a 83bb 9382 a93d 77ac 72bd
000002b0: 9a00 19bd 984c cb3c ca3e 3dbd fca2 a6bf
000002c0: c19d 10bf 189a a6be 4d28 32bf fc72 5abf
000002d0: 4671 9dbf ac4c 063e 04af 1fbf 71e5 7f3f
000002e0: 0169 49be ba0b b1bf 67ea 19bf 7e91 67be
000002f0: 378d 633f 3b48 813e 4a47 b43e 1eac 87bf
00000300: 90c5 0cbf 70fc d5bf 7fe8 a1bf 87ee 143f
00000310: 7296 fbbe 24c4 c23e 5f98 a53f d88c ffbe
00000320: 59a5 853d 74d5 05bd 9aa7 6b3d 215c c83d
00000330: 25e8 b03d af43 9a3d 1bb9 a23d 3271 0e3d
00000340: 9f5c ccbd 81e9 983d bd0f 5dbd 23ad 883d
00000350: 28af dcbc 1ea4 8dbd 18d2 563c c962 c43d
00000360: 3806 953c 2379 6bbd f965 853d ab62 893d
00000370: 4def c4bd 17d2 63bd 9311 803d 123b 083d
00000380: b4f2 88bc 2342 9e3d 293d 803d 00e2 8abb
00000390: d59e b03d ed27 6abd 5993 853d ad17 9fbd
000003a0: 40db efba 4e57 733d 02f5 1d3d c284 5e3d
000003b0: 6e5d 643d f61d 723d ec6e cd3c 0070 dcba
000003c0: 0604 aabd 0b84 abbd 9088 69bd 3c43 e33c
000003d0: f6e1 383d cdfb c1bd 61d4 813d 2896 45bc
000003e0: 2cb2 ba3c d7e2 803d 3fc6 ca3d 8598 adbd
000003f0: c4da 00bd 7042 10bc e250 1b3d 0016 6b3b

bias f4 [16]
0.48791382 -0.1775072 -1.6747906 -1.1115744 -0.5154648 -0.79622346 1.0424997 -0.79482144
-0.80660594 -1.0789257 -0.08328326 0.91183203 0.62638897 -0.7041725 0.6356227 -0.77300096
00000000: d7cf f93e 73c4 35be 8a5f d6bf 1248 8ebf
00000010: 80f5 03bf 4dd5 4bbf a170 853f 6b79 4bbf
00000020: ba7d 4ebf 3d1a 8abf 6a90 aabd d36d 693f
00000030: 075b 203f a644 34bf 2bb8 223f 64e3 45bf

running_mean f4 [16]
0.47250718 -0.20342934 -1.6955249 -1.1360639 -0.528149 -0.8107474 1.0336325 -0.8116004
-0.8235001 -1.1039459 -0.09584316 0.89435 0.62318414 -0.7194656 0.6196306 -0.7956675
00000000: 76ec f13e c84f 50be f606 d9bf 8b6a 91bf
00000010: c634 07bf 248d 4fbf 124e 843f 0bc5 4fbf
00000020: e7d0 52bf 194e 8dbf 6b49 c4bd 1ff4 643f
00000030: ff88 1f3f e62e 38bf 1ca0 1e3f deb0 4bbf

running_var f4 [16]
0.027335787 0.0402674 0.027324729 0.04503294 0.021440655 0.019305928 0.019821126 0.03453763
0.035050564 0.038601127 0.024585979 0.033594392 0.01765909 0.02685618 0.028753491 0.04224783
00000000: 4def df3c 6eef 243d 1cd8 df3c 7674 383d
00000010: 50a4 af3c 7727 9e3c ea5f a23c 5477 0d3d
00000020: 2e91 0f3d 371c 1e3d 8968 c93c 469a 093d
00000030: cca9 903c 7e01 dc3c 718c eb3c 100c 2d3d

weight f4 [16]
0.997257 2.0943816 1.7800151 1.7055275 1.052339 1.1867188 0.9263845 1.564731
1.1086091 2.0632927 1.1039771 1.6378783 0.63360083 1.7087315 1.3399345 2.0064425
00000000: 3c4c 7f3f 590a 0640 89d7 e33f ba4e da3f
00000010: 0bb3 863f 67e6 973f 8927 6d3f 1b49 c83f
00000020: e7e6 8d3f fd0c 0440 1f4f 8d3f ffa5 d13f
00000030: aa33 223f b7b7 da3f f982 ab3f 8e69 0040

bias f4 [16]
0.34627795 -0.6386817 0.21573323 0.104418635 0.23555838 0.18439957 -0.08069861 0.15903969
-0.20258756 0.0772033 0.385015 0.31515947 -0.024850596 -0.24543624 0.17892973 -0.27823353
00000000: 584b b13e a580 23bf 2ce9 5c3e 70d9 d53d
00000010: 3736 713e 3ed3 3c3e 5045 a5bd 4ddb 223e
00000020: 1d73 4fbe c41c 9e3d b020 c53e 955c a13e
00000030: 7a93 cbbc a353 7bbe 5b39 373e a074 8ebe

weight f4 [32, 16, 5, 5]
-0.22199406 0.71031946 -0.5336253 -0.41656524 -0.3130881 -0.20053317 -1.6502035 -0.20920868
-0.4414323 -0.35463637 -0.88818413 -1.087735 -1.4666374 1.6686753 -0.09633359 -1.6949894
-1.1166272 -0.0071529713 -0.15571067 0.49470347 -0.6618833 -0.26425597 0.34797272 0.027085327
0.13086557 -0.3793353 0.6703697 0.087720625 -0.61375123 0.3905405 0.0708857 -0.33274987
-1.1506811 -0.35202068 -1.0087638 -0.88709086 -0.6834825 -1.7095507 -2.1357472 -1.713628
0.70771426 0.6359575 0.2423152 -1.1665484 -0.17766285 1.3921188 1.1716355 -0.5220235
0.08682425 0.3419059 -0.77132463 1.207454 -0.06895244 1.168106 -0.3488287 0.13900712
0.42868096 0.5210542 -0.67882407 -1.4529862 -0.83295155 -2.2440367 -1.4925431 0.40977558
0.36854252 -1.7659293 0.4310211 0.18925524 -0.8070747 1.0403857 0.56386006 0.9273095
-0.38588274 0.13696001 -0.72929806 0.52971476 0.9808088 -0.88298 1.3921504 -0.5432399
-0.29931498 1.634309 0.72940737 1.0745654 -0.6842918 -1.1025523 0.7710128 0.12842114
1.1980034 0.6086273 0.43981302 -0.9777895 -0.68381274 0.8978429 0.89278114 0.09249861
-1.2659576 -1.5054528 -1.0091485 -0.6133253 1.1113491 1.3943217 0.41962564 0.37559152
-1.8489597 0.8109522 0.16902433 -0.5123652 -0.628013 0.43881056 -0.41170585 0.70503783
0.5176435 -0.70252764 -2.2231362 0.7221218 0.81987643 -0.23717982 0.08801495 0.046647944
0.36977044 -0.7634597 -0.36057672 0.1053862 -1.675681 -0.48388982 0.8701744 0.086186044
0.6039759 0.5821767 -1.0972451 -1.8031679 -0.36280543 0.32491186 -1.4704995 -1.0898985
-0.63689005 0.010672788 -0.7620647 0.07851058 1.0037292 2.1858232 -0.2227129 -0.32296842
-0.4421402 0.19488032 0.8504506 0.50625795 -0.67918843 0.4422967 -0.70164233 0.5216795
-0.73176825 0.7124777 0.36396658 -0.6877305 0.43800473 0.019231439 0.08781698 0.14200392
-1.2512269 -0.4034599 -2.5730133 -1.2561933 -1.8038813 -0.69643885 -0.50433826 -0.18504184
-0.38995638 0.1209872 0.29257688 -0.008758016 0.16139692 -0.60760564 -0.5781996 0.85828346
0.80884916 0.30710855 -0.38396308 -0.4138574 1.2558438 -1.6828861 -0.82542604 -0.00918124
1.2066991 0.7155371 0.27342847 0.037046496 -2.2884111 -0.29864413 -0.49187434 -1.0063732
0.34128687 0.090603106 -2.1267629 0.70567167 0.19538276 1.0592083 0.23088749 -0.6601501
0.7616826 0.25496578 0.08545805 0.59645617 -0.8380054 -0.17998858 0.6596194 -0.629024
0.47464973 -0.89019984 -1.2934982 0.022548918 0.041183528 -0.6808584 0.5129579 0.18768938
-0.18106206 0.047104817 -0.1117904 1.2290077 -1.5177329 -1.8085805 1.3355393 -0.21590032
0.15679865 -0.91866016 -0.5277155 -1.2061952 1.114421 0.51021844 0.43282533 1.2961924
0.6846816 -1.763208 0.17643093 1.087304 -0.49558038 -0.8767224 -0.5187454 -0.6212784
-0.02376407 -0.22003655 -1.6112503 0.378577 -1.2845818 0.0223488 -0.63720924 0.09473843
-0.03508909 0.50282246 0.5270439 -1.2172137 -0.9650246 -1.4618355 0.41787806 -0.8916745
00000000: 6952 63be 7fd7 353f ab9b 08bf 0a48 d5be
00000010: 154d a0be 9158 4dbe de39 d3bf cd3a 56be
00000020: 6a03 e2be e692 b5be 0960 63bf e73a 8bbf
00000030: c6ba bbbf 2797 d53f 8c4a c5bd 6af5 d8bf
00000040: a4ed 8ebf 7963 eabb 9e72 1fbe c649 fd3e
00000050: 2f71 29bf 8f4c 87be 7b29 b23e 0ce2 dd3c
00000060: a001 063e 3d38 c2be 599d 2b3f dfa6 b33d
00000070: cd1e 1dbf edf4 c73e 862c 913d 315e aabe
00000080: 8549 93bf 0e3c b4be 2c1f 81bf 6318 63bf
00000090: b6f8 2ebf 8fd2 dabf 15b0 08c0 2a58 dbbf
000000a0: c32c 353f 1cce 223f 7a21 783e 7551 95bf
000000b0: 40ed 35be f330 b23f 27f8 953f 55a3 05bf
000000c0: ead0 b13d 4a0e af3e 8875 45bf da8d 9a3f
000000d0: f036 8dbd 7f84 953f ad99 b2be e257 0e3e
000000e0: 127c db3e cf63 053f 6ac7 2dbf 74fb b9bf
000000f0: 503c 55bf 4c9e 0fc0 a70b bfbf 1bce d13e
00000100: 9bb1 bc3e f909 e2bf ccae dc3e 20cc 413e
00000110: 739c 4ebf 5c2b 853f 2259 103f 2864 6d3f
00000120: 6c92 c5be 3f3f 0c3e 47b3 3abf 639b 073f
00000130: 4916 7b3f fa0a 62bf fc31 b23f c511 0bbf
00000140: d03f 99be 0a31 d13f 71ba 3a3f 5c8b 893f
00000150: bf2d 2fbf 6f20 8dbf 1861 453f d580 033e
00000160: 2d58 993f 00cf 1b3f 2c2f e13e 6a50 7abf
00000170: 5a0e 2fbf 08d9 653f 4e8d 643f e96f bd3d
00000180: e60a a2bf adb2 c0bf c72b 81bf e302 1dbf
00000190: b040 8e3f 2279 b23f 2cd9 d63e 884d c03e
000001a0: b6aa ecbf 909a 4f3f b714 2d3e 5e2a 03bf
000001b0: 76c5 20bf c7ab e03e 1ccb d2be 5c7d 343f
000001c0: 4984 043f dad8 33bf dd47 0ec0 f9dc 383f
000001d0: 6ce3 513f 44df 72be 2f41 b43d ea11 3f3d
000001e0: 8d52 bd3e 1872 43bf 839d b8be b8d4 d73d
000001f0: b77c d6bf 68c0 f7be c0c3 5e3f 4f82 b03d
00000200: 2a9e 1a3f 8809 153f 8772 8cbf 35ce e6bf
00000210: a2c1 b9be d95a a63e 5439 bcbf cb81 8bbf
00000220: 3a0b 23bf ebdc 2e3c ac16 43bf 28ca a03d
00000230: 337a 803f 87e4 0b40 da0e 64be 1e5c a5be
00000240: 3360 e2be b58e 473e 21b7 593f 1f9a 013f
00000250: 4bdf 2dbf b774 e23e d59e 33bf ca8c 053f
00000260: 2a55 3bbf f064 363f d459 ba3e 1b0f 30bf
00000270: 2842 e03e 408b 9d3c 64d9 b33d 7a69 113e
00000280: 3428 a0bf 4c92 cebe 40ac 24c0 f1ca a0bf
00000290: 95e5 e6bf d149 32bf 501c 01bf 9c7b 3dbe
000002a0: 5da8 c7be 23c8 f73d a3cc 953e c87d 0fbc
000002b0: 3c45 253e 0b8c 1bbf e404 14bf 77b8 5b3f
000002c0: bd10 4f3f 553d 9d3e cf96 c4be 1ee5 d3be
000002d0: 7dbf a03f d068 d7bf 1f4f 53bf e96c 16bc
000002e0: 1e75 9a3f 702d 373f d1fe 8b3e 11be 173d
000002f0: 5475 12c0 e2e7 98be f4d6 fbbe d6d0 80bf
00000300: 27bd ae3e 1f8e b93d e21c 08c0 e6a6 343f
00000310: 6b12 483e 2394 873f c56d 6c3e 99ff 28bf
00000320: a2fd 423f e08a 823e a104 af3d 5ab1 183f
00000330: 8687 56bf ed4e 38be d1dc 283f b807 21bf
00000340: 4a05 f33e 23e4 63bf 5991 a5bf 82b8 b83c
00000350: 0fb0 283d bc4c 2ebf 3551 033f a531 403e
00000360: 5568 39be fbf0 403d 5ef2 e4bd 2050 9d3f
00000370: 1245 c2bf 917f e7bf f4f2 aa3f f914 5dbe
00000380: d38f 203e 502d 6bbf 5d18 07bf 9b64 9abf
00000390: 59a5 8e3f ad9d 023f 489b dd3e a2e9 a53f
000003a0: 4b47 2f3f cdb0 e1bf 4faa 343e c72c 8b3f
000003b0: b6bc fdbe e170 60bf 80cc 04bf 1a0c 1fbf
000003c0: deac c2bc 4351 61be 733d cebf d8d4 c13e
000003d0: 2d6d a4bf d514 b73c 2520 23bf 3906 c23d
000003e0: 94b9 0fbd f9b8 003f 59ec 063f a9cd 9bbf
000003f0: da0b 77bf 6d1d bbbf 1df4 d53e c844 64bf

bias f4 [32]
0.37652242 -0.7619886 -0.35609853 -0.28387436 1.0221084 0.7987556 0.07371998 -0.40033677
0.07679842 -1.1039659 -0.38640842 -1.4867086 0.13033427 0.50413734 -0.27633783 -1.8835739
0.17902134 0.42060015 -0.0043422254 0.13441205 -0.66419274 -0.17340478 0.4408651 -0.47864485
-0.149192 0.48182452 -0.5719127 -0.1529512 0.6929283 -1.179608 0.19912991 -1.482974
00000000: 8cc7 c03e af11 43bf 8c52 b6be fb57 91be
00000010: 73d4 823f 3f7b 4c3f 80fa 963d f1f8 ccbe
00000020: 7d48 9d3d c14e 8dbf 53d7 c5be 784c bebf
00000030: 5976 053e 250f 013f 277c 8dbe f318 f1bf
00000040: 5f51 373e e758 d73e 3a49 8ebb 50a3 093e
00000050: 8908 2abf 0691 31be 12b9 e13e f010 f5be
00000060: cac5 18be b4b1 f63e df68 12bf 3d9f 1cbe
00000070: c063 313f 65fd 96bf b6e8 4b3e 18d2 bdbf

running_mean f4 [32]
-13.715969 -9.921285 -9.957448 -13.857017 -7.1207523 -9.414117 -11.839784 -8.054763
0.93825525 -11.595432 -13.728337 -8.201141 -5.649889 -7.064345 -7.4149904 -12.143749
2.22959 -7.9655876 -7.7033477 -12.11933 -8.977709 -9.432358 -8.035702 -7.59276
-11.677857 -17.287298 -13.160259 -4.8245378 -11.243626 -9.549011 -12.843931 -14.740524
00000000: 9c74 5bc1 95bd 1ec1 b551 1fc1 57b6 5dc1
00000010: 34dd e3c0 39a0 16c1 c16f 3dc1 4fe0 00c1
00000020: 7f31 703f e486 39c1 45a7 5bc1 e037 03c1
00000030: e4cb b4c0 1d0f e2c0 9a47 edc0 cc4c 42c1
00000040: 9ab1 0e40 18e6 fec0 d381 f6c0 c7e8 41c1
00000050: b2a4 0fc1 f0ea 16c1 3c92 00c1 e4f7 f2c0
00000060: 81d8 3ac1 634c 8ac1 6c90 52c1 9d62 9ac0
00000070: e4e5 33c1 c0c8 18c1 be80 4dc1 30d9 6bc1

running_var f4 [32]
43.290848 42.07145 42.252804 49.37342 44.365746 48.34866 54.506733 51.169464
34.396183 55.788597 65.17069 43.064476 36.844517 45.37305 40.681858 57.65331
36.870567 41.435623 36.393715 54.808407 49.291706 46.929375 43.806217 39.228073
43.770008 60.800323 46.702446 36.26468 61.303337 41.959816 43.416798 63.00959
00000000: d429 2d42 2a49 2842 df02 2942 627e 4542
00000010: 8676 3142 0765 4142 e506 5a42 88ad 4c42
00000020: b195 0942 8627 5f42 6557 8242 0642 2c42
00000030: c960 1342 017e 3542 39ba 2242 fd9c 6642
00000040: 767b 1342 14be 2542 2a93 1142 cf3b 5b42
00000050: b52a 4542 aeb7 3b42 9139 2f42 8ce9 1c42
00000060: 7d14 2f42 8833 7342 4ecf 3a42 080f 1142
00000070: 9e36 7542 dad6 2742 cdaa 2d42 d209 7c42

weight f4 [32]
1.1332471 0.98333013 1.4355849 1.1539109 1.3710431 0.9855353 1.2309018 1.1811358
1.0436196 1.5829277 1.5307652 1.4333214 1.1719483 1.1808586 1.2354803 1.4395335
0.87036806 1.2714897 1.1592872 1.3260909 1.3819122 1.377388 1.0879707 1.2926406
1.1726503 1.5374207 1.3024145 1.1848203 1.7739669 0.98248297 1.0374465 1.705911
00000000: 3e0e 913f 86bb 7b3f 3fc1 b73f 5ab3 933f
00000010: 577e af3f 0b4c 7c3f 318e 9d3f 752f 973f
00000020: 5495 853f 609d ca3f 1df0 c33f 1377 b73f
00000030: 6702 963f 6026 973f 3824 9e3f a242 b83f
00000040: 71d0 5e3f 2dc0 a23f 8663 943f 59bd a93f
00000050: 80e2 b03f 404e b03f a042 8b3f 3f75 a53f
00000060: 6819 963f 34ca c43f 85b5 a63f 31a8 973f
00000070: 5911 e33f 0184 7b3f 0ccb 843f 4b5b da3f

bias f4 [32]
0.21422614 0.27461174 -0.39717302 0.01795731 0.17232873 0.31677082 0.24001789 0.34103993
-0.64882535 0.44735098 -0.09627292 -0.5854356 -0.64009535 0.25008658 -0.30610302 0.030782023
0.29519993 -0.57284075 -0.6606994 -0.0732597 0.43717343 0.041799434 0.296596 -0.64230907
0.18127045 0.24880357 0.29134855 0.24679635 0.3562779 0.18791144 0.45974562 0.43650234
00000000: 195e 5b3e e999 8c3e 435a cbbe 351b 933c
00000010: f176 303e c92f a23e 40c7 753e c99c ae3e
00000020: 6b19 26bf 300b e53e bd2a c5bd 1cdf 15bf
00000030: 4add 23bf 590b 803e 89b9 9cbe 952a fc3c
00000040: 7224 973e b1a5 12bf 9923 29bf 2e09 96bd
00000050: 32d5 df3e e235 2b3d 6edb 973e 5e6e 24bf
00000060: f69e 393e 5dc6 7e3e a32b 953e 2fb8 7c3e
00000070: 0f6a b63e db6b 403e c763 eb3e 3c7d df3e

weight f4 [32, 32, 5, 5]
-0.48762813 -0.22495255 -1.345576 -0.41433826 -0.8167936 -1.0805293 0.8950813 0.39163473
0.38781765 0.17986785 0.42855865 0.2363513 0.9897439 -1.4827511 -0.6614011 -0.5058904
-1.3044145 -0.87225354 0.14818364 -1.1749271 0.69282645 0.88026625 1.3670404 0.14901581
-0.2446864 -0.35540244 -1.1640071 -0.52772826 -0.1522942 1.3780911 -0.06808461 -0.7160269
0.64801085 0.1194861 0.24380574 -0.682321 -0.6751024 -0.39712197 -0.21881372 -0.40952158
-1.7862073 0.83548826 0.82026386 -1.4937897 0.22062522 -0.36666048 -0.28254905 1.9011183
0.03859241 1.2932943 -0.24978538 -0.87598115 -0.6393039 -1.1967307 0.5952033 0.41272274
1.5529412 -0.19017327 0.3815399 0.835731 -1.0605329 0.8030346 -0.16102408 -1.6316793
-0.40195477 0.67504793 -0.21453683 -0.72573805 0.012466367 -1.2648594 -1.0945592 -2.4985275
0.26287928 -0.96065336 1.3382771 0.2120994 0.0301796 0.71606475 -0.26051843 0.6983687
-0.22474498 0.73015684 -0.71062577 0.08340573 -0.045243986 -0.040586658 0.93198496 0.66695887
0.25034487 -1.8599875 1.3295798 0.40326473 0.31233954 0.06336085 -1.6932771 0.44591048
-1.3359318 -1.0618981 -0.6141655 -0.06315329 -0.5793752 0.5383656 0.99505115 0.104174115
-0.9750249 0.041013036 0.45403555 -0.4140657 1.0091248 -1.1414368 0.10063603 -0.6763973
-0.01718433 -0.8154342 0.35365966 -1.6321132 -1.5992827 -1.6287792 0.42239323 0.6647579
0.27957985 -0.35435897 1.2043402 -0.042387847 -1.6769987 -1.266211 -1.0520207 -1.2767193
0.4610324 -1.4450276 -1.8569753 -0.7365525 -0.011989644 -0.25175875 0.29159328 1.2031165
0.2566899 0.49651197 0.34804088 -0.2514261 0.8013611 0.3917369 -1.4989479 0.6160442
-0.6508201 0.5267748 1.7082988 -0.7338237 0.5628287 0.37933198 0.7813128 -1.7204236
-0.91733 1.1752893 1.0974913 -0.02968048 0.2980996 -0.35716382 0.23696394 0.7859601
-0.88156694 0.13589188 1.4020915 0.1250255 0.8733398 0.9866383 0.43351525 -0.7553559
-0.08186349 -1.5271858 -0.79009545 1.3180006 -0.7505916 0.35323548 -0.040242262 0.012321212
-0.06284756 -0.52755046 -0.3457355 -1.7401801 0.18041727 -0.5362814 -0.5412186 0.46077663
-0.23975255 0.08766322 0.64922976 0.5939392 -1.1973536 0.13065942 -0.22009644 -0.49158964
-0.4556898 0.27065516 0.7520798 0.37126893 -1.2490697 0.40595865 -0.36603314 -1.7496945
-1.1049479 0.6627398 -0.5622628 -0.98249775 0.5200248 -0.4920587 0.28158432 0.18023035
0.6114305 -0.096386366 0.15618002 -0.24284424 -0.21651153 -0.41180253 -0.02964454 0.0742393
0.15361877 -1.85725 -0.30843326 0.3506171 -1.766084 -1.145921 -0.267832 -0.43011346
0.47641447 0.42573112 0.113552816 0.54603016 -0.42607352 0.79819155 -0.80482715 0.32640275
-0.15085427 -0.12968096 0.8000267 0.8888104 0.040567633 0.8333373 0.39410964 0.29701504
1.42447 1.3955852 0.13375953 1.006227 -0.6984519 -0.34353805 1.6828403 -0.18385568
0.09015682 0.7892299 1.0552462 0.18864189 0.115347356 0.071726866 0.69123924 -1.1561482
00000000: 65aa f9be f659 66be d63b acbf 2524 d4be
00000010: 6319 51bf c94e 8abf 0c24 653f 5984 c83e
00000020: 0990 c63e 472f 383e 0a6c db3e 1306 723e
00000030: db5f 7d3f caca bdbf 9551 29bf 0982 01bf
00000040: 0ef7 a6bf 024c 5fbf 74bd 173e 0364 96bf
00000050: 135d 313f 2159 613f 2efb ae3f 9a97 183e
00000060: 128f 7abe 4ff7 b5be 2ffe 94bf 3319 07bf
00000070: 03f3 1bbe 4a65 b03f f26f 8bbd 8a4d 37bf
00000080: 0ae4 253f 21b5 f43d 36a8 793e 97ac 2ebf
00000090: 83d3 2cbf 9253 cbbe b410 60be d0ac d1be
000000a0: 71a2 e4bf 8fe2 553f d0fc 513f 8034 bfbf
000000b0: 94eb 613e ecba bbbe 45aa 90be d857 f33f
000000c0: 1313 1e3d ab8a a53f bdc7 7fbe 4d40 60bf
000000d0: 6ca9 23bf 792e 99bf 3e5f 183f 6550 d33e
000000e0: c7c6 c63f c8bc 42be 3359 c33e 78f2 553f
000000f0: 8bbf 87bf ad93 4d3f 7fe3 24be deda d0bf
00000100: 04cd cdbe f1cf 2c3f 8baf 5bbe f8c9 39bf
00000110: bc3f 4c3c eae6 a1bf 841a 8cbf e0e7 1fc0
00000120: 1d98 863e 61ed 75bf aa4c ab3f 9630 593e
00000130: 353b f73c 0550 373f ac62 85be 4bc8 323f
00000140: 8c23 66be 8feb 3a3f 92eb 35bf a0d0 aa3d
00000150: c251 39bd 323e 26bd 9196 6e3f d1bd 2a3f
00000160: 342d 803e 1214 eebf ac2f aa3f b778 ce3e
00000170: f8ea 9f3e 55c3 813d 4ebd d8bf 614e e43e
00000180: d0ff aabf 47ec 87bf f339 1dbf 8356 81bd
00000190: ef51 14bf 54d2 093f acbb 7e3f 3d59 d53d
000001a0: 3b9b 79bf 49fd 273d 5977 e83e 6b00 d4be
000001b0: 002b 813f 9a1a 92bf 431a ce3d 6028 2dbf
000001c0: 27c6 8cbc 4cc0 50bf e112 b53e 16e9 d0bf
000001d0: 4cb5 ccbf d67b d0bf ed43 d83e 932d 2a3f
000001e0: 1725 8f3e 8a6e b5be d227 9a3f e19e 2dbd
000001f0: e5a7 d6bf 3413 a2bf 9da8 86bf 8a6b a3bf
00000200: 700c ec3e aaf6 b8bf 5eb1 edbf b48e 3cbf
00000210: 3670 44bc 86e6 80be b74b 953e b9ff 993f
00000220: dc6c 833e d136 fe3e 6a32 b23e ecba 80be
00000230: 0026 4d3f bd91 c83e 86dd bfbf 13b5 1d3f
00000240: 259c 26bf b7da 063f 89a9 da3f dfdb 3bbf
00000250: 8b15 103f cd37 c23e 1e04 483f d736 dcbf
00000260: 24d6 6abf e16f 963f 987a 8c3f 7a24 f3bc
00000270: 83a0 983e 2dde b6be ada6 723e ae34 493f
00000280: 5fae 61bf 3e27 0b3e bc77 b33f af06 003e
00000290: 3293 5f3f 5494 7c3f b6f5 dd3e 015f 41bf
000002a0: 0ca8 a7bd d37a c3bf b243 4abf 3eb4 a83f
000002b0: c526 40bf 48db b43e 12d5 24bd e9de 493c
000002c0: 39b6 80bd 8c0d 07bf 3e04 b1be 39be debf
000002d0: 4ebf 383e bd49 09bf 4d8d 0abf eaea eb3e
000002e0: b181 75be c688 b33d ec33 263f 660c 183f
000002f0: e242 99bf 95cb 053e f660 61be a3b1 fbbe
00000300: 2c50 e9be 5093 8a3e 4d88 403f f616 be3e
00000310: 84e1 9fbf d0d9 cf3e b268 bbbe fdf5 dfbf
00000320: ef6e 8dbf 51a9 293f 74f0 0fbf f984 7bbf
00000330: 5820 053f 1eef fbbe d22b 903e 4e8e 383e
00000340: b686 1c3f 3766 c5bd a8ed 1f3e 29ac 78be
00000350: 33b5 5dbe c8d7 d2be 1bd9 f2bc c60a 983d
00000360: 3d4e 1d3e 5eba edbf f7ea 9dbe 1684 b33e
00000370: 0a0f e2bf 8aad 92bf 4721 89be d537 dcbe
00000380: 99ec f33e 6ef9 d93e 618e e83d a2c8 0b3f
00000390: 4f26 dabe 4856 4c3f 2709 4ebf 431e a73e
000003a0: 8b79 1abe 16cb 04be 8dce 4c3f 1489 633f
000003b0: 3f2a 263d 9855 553f bdc8 c93e 5b12 983e
000003c0: 0855 b63f 89a2 b23f 42f8 083e 0ccc 803f
000003d0: becd 32bf 38e4 afbe 5067 d73f aa44 3cbe
000003e0: 24a4 b83d f90a 4a3f 4f12 873f 572b 413e
000003f0: 3c3b ec3d 89e5 923d 0ef5 303f aafc 93bf

bias f4 [32]
1.7982647 0.31299695 1.0835096 0.99908125 1.2916592 1.8354068 1.9174395 1.3731469
2.1069803 0.9352248 1.1136179 0.5740843 2.387761 0.973007 -0.6629853 1.5782667
1.0529263 1.8884339 0.91306114 0.80101854 0.562526 1.1562893 0.945343 1.5438218
2.1479394 3.2485325 2.1837742 2.2538173 0.15185186 2.46108 1.5085919 1.7604681
00000000: 8a2d e63f 2341 a03e 71b0 8a3f cac3 7f3f
00000010: 1755 a53f 9cee ea3f a86e f53f 47c3 af3f
00000020: c4d8 0640 e46a 6f3f 088b 8e3f 30f7 123f
00000030: 14d1 1840 fd16 793f 68b9 29bf a504 ca3f
00000040: 4ac6 863f 34b8 f13f 60be 693f 8d0f 4d3f
00000050: b401 103f 4a01 943f 0002 723f f49b c53f
00000060: d777 0940 f5e7 4f40 f5c2 0b40 8b3e 1040
00000070: 0e7f 1b3e 5682 1d40 8a19 c13f 0557 e13f

running_mean f4 [32]
-5.6072264 -0.18785004 -0.23936157 -13.3458185 -10.63807 3.2320986 -22.421495 -10.475686
-3.3891945 -1.1705357 -10.01031 -7.8016534 -42.083374 -1.9852735 -14.969525 -3.7583914
-12.041807 1.9048074 -17.817287 -11.31373 -5.139939 -12.542982 -0.7154024 -9.85259
-21.072783 -16.454788 -0.5591936 -16.92853 -10.853718 -23.944992 -12.00415 -10.1675825
00000000: 666e b3c0 c35b 40be 331b 75be 7988 55c1
00000010: 8935 2ac1 b4da 4e40 395f b3c1 699c 27c1
00000020: 90e8 58c0 1dd4 95bf 3b2a 20c1 25a7 f9c0
00000030: 6055 28c2 711d febf 2d83 6fc1 7c89 70c0
00000040: 3eab 40c1 bbd0 f33f ce89 8ec1 0a05 35c1
00000050: 617a a4c0 0eb0 48c1 9d24 37bf 35a4 1dc1
00000060: 0f95 a8c1 68a3 83c1 5027 0fbf a16d 87c1
00000070: d4a8 2dc1 588f bfc1 0011 40c1 6bae 22c1

running_var f4 [32]
96.45673 100.71717 110.985016 99.114174 123.103096 121.69341 86.705864 87.97176
90.234566 117.198715 101.01055 125.93372 125.62196 126.776276 88.625984 108.49128
96.63718 122.419266 106.3472 98.07169 109.88986 103.81697 112.33884 115.104965
84.42002 66.10707 86.240616 67.99505 99.53006 101.59578 92.05888 113.07711
00000000: d9e9 c042 316f c942 54f8 dd42 753a c642
00000010: c934 f642 0763 f342 6769 ad42 8bf1 af42
00000020: 1978 b442 be65 ea42 6705 ca42 11de fb42
00000030: 723e fb42 748d fd42 8140 b142 89fb d842
00000040: 3c46 c142 aad6 f442 c4b1 d442 b524 c442
00000050: 9cc7 db42 4aa2 cf42 7cad e042 be35 e642
00000060: 0dd7 a842 d236 8442 327b ac42 77fd 8742
00000070: 640f c742 0a31 cb42 261e b842 7b27 e242

weight f4 [32]
2.1827645 2.5105114 2.1213057 1.9744174 2.0144887 0.56854737 1.0177971 1.8354234
1.4184145 2.4077806 1.8676313 2.9789104 0.5504068 1.7741598 2.1701562 2.5318925
2.6492105 2.4461524 1.5863322 2.0851924 2.3383813 2.5406919 1.9024032 2.0889168
0.82207704 0.9710909 0.40135363 0.6898525 2.0430722 0.6836476 2.4526904 1.6767539
00000000: 6ab2 0b40 38ac 2040 79c3 0740 b6b9 fc3f
00000010: 62ed 0040 528c 113f 2d47 823f 27ef ea3f
00000020: 9b8e b53f 1419 1a40 8b0e ef3f 78a6 3e40
00000030: 76e7 0c3f ab17 e33f d7e3 0a40 870a 2240
00000040: aa8c 2940 c38d 1c40 ef0c cb3f cb73 0540
00000050: 0aa8 1540 b29a 2240 f381 f33f d0b0 0540
00000060: a473 523f 6a99 783f 397e cd3e 2c9a 303f
00000070: b2c1 0240 8703 2f3f e1f8 1c40 df9f d63f

bias f4 [32]
-1.5968921 -1.8721765 -1.8430265 -2.221644 -1.2288967 1.1114069 -0.49334908 -1.4383606
-0.7637183 -2.0182078 -1.5442365 -2.513237 0.6072123 -1.074761 -2.4061348 -2.3421369
-2.8035157 -2.2807693 -0.77475315 -1.9709878 -2.0951939 -2.4676523 -1.3618878 -1.591674
-0.25001132 -0.3195465 0.5124024 -0.19701394 -1.41003 0.10185399 -1.9587075 -0.93464893
00000000: f666 ccbf 7ba3 efbf 4be8 ebbf 6a2f 0ec0
00000010: 7d4c 9dbf 9542 8e3f 4098 fcbe 331c b8bf
00000020: 0b83 43bf 512a 01c0 8ba9 c5bf e0d8 20c0
00000030: 4472 1b3f c591 89bf 1dfe 19c0 92e5 15c0
00000040: cd6c 33c0 20f8 11c0 3956 46bf 5449 fcbf
00000050: a817 06c0 04ee 1dc0 5752 aebf f9bb cbbf
00000060: 7c01 80be 999b a3be ce2c 033f 06be 49be
00000070: dd7b b4bf d398 d03d edb6 fabf 2745 6fbf

weight f4 [9, 1792]
1.6625013 -0.48739895 0.34833592 -0.17561501 -0.09854539 0.33268365 0.20100938 0.9087871
1.7017659 -0.31859514 1.0959631 -0.22817709 -1.039273 0.78858286 0.2500749 0.5595089
1.6957505 0.73806846 0.32887173 0.35404757 0.96850765 -0.06314934 -0.27286372 0.42006192
2.4700375 -0.1304766 0.931233 -0.21485643 0.038826115 1.0335099 -0.2476744 0.30694357
-0.45103553 0.18298173 1.0052447 -0.5433914 0.1066334 0.103330165 0.5387567 0.99136925
-0.9747405 0.16175637 -3.663183 -0.80890274 -1.22182 2.213183 1.8840116 0.81864107
-0.97140825 0.7478324 0.6711953 -0.059388496 0.45526013 1.1403306 1.6652931 0.6822617
-0.037537195 -0.83577627 -0.014803911 -1.6300162 -2.426114 -0.80131346 -0.23174855 1.3322276
0.29453352 1.5528842 0.038618423 -0.50818485 0.17207712 -1.1735227 -0.04762883 -0.46693027
-1.2800395 -0.5573212 2.004677 0.77622736 -1.1136308 0.86130047 -2.98324 -0.36096492
0.6335664 0.65176874 0.77135617 -0.54137886 -0.32325712 -1.2978101 -0.69052476 -1.009356
-0.6453298 -2.3031704 0.77879936 -1.2938422 0.7251999 1.2074014 -0.2721038 -0.26473537
-1.3817521 -0.57347405 -0.64993757 0.07461612 1.0334325 -1.7089258 0.3907044 0.966448
0.5781489 1.612546 0.36208463 1.5043597 -0.09950334 0.7500717 0.10076162 -1.9331634
-0.13283876 0.41985753 -0.8066619 -1.3807616 -0.5663231 1.3033642 1.2030841 -0.10418578
-1.1040974 -1.610146 0.48814175 0.46225443 0.5618013 0.15171477 1.581191 1.0894561
-2.0972648 0.8233071 0.6936634 1.1255015 1.5982198 -2.192948 -0.4766536 -1.2310411
-1.5034583 1.3449459 -1.3551685 -1.5285695 0.20561112 -0.54293245 0.67613137 -1.8764663
-1.3770233 -0.3055863 -0.8785201 -0.6317316 0.6461832 0.29114538 0.9483065 -1.4966894
0.23774883 0.20275998 0.17187075 -1.8476955 1.3041173 0.30497426 1.0607678 -0.28178346
-1.4258834 0.94184804 0.62145007 0.17333695 1.5861126 2.302824 0.92575574 -2.9626498
0.69680494 -0.050794005 0.7729706 -3.225383 -0.91922146 -2.3007689 -0.8703574 -0.057558104
-0.60260636 -0.2371823 -0.7654971 -0.45910895 -0.8697581 -2.1229072 0.7560108 -1.4398024
-0.029097123 -0.85959965 0.03210679 -0.9923253 0.5156755 -0.09839836 -0.9367224 -1.3498836
1.8875614 -0.582414 -1.4888691 -1.3888193 0.07560723 1.2440326 0.73509777 1.0758868
-0.45550445 0.99541456 -1.2137016 -0.8849513 -0.10721846 0.52315897 1.9856898 0.14027128
-0.08626548 -0.36098304 1.6757627 -0.5631426 -0.6694991 1.2003354 1.4986331 0.67408115
0.8518011 0.23984003 -1.117496 0.5207652 0.97891444 -0.60085493 0.35278332 -0.63454634
1.2880106 -0.0073976535 -0.49423012 0.5907345 -0.38508525 -0.20741 -0.83407015 -0.1902047
0.5622541 -0.36595586 0.12574412 0.7238009 -1.3405068 -0.7673597 0.87704414 -0.42306414
0.6778489 0.46069872 1.186112 0.3714674 -0.8024158 0.9653635 0.49060217 0.40729794
0.023742232 1.3169827 0.7339486 1.2417082 -0.32265824 0.06866147 1.7183294 0.93273515
00000000: d8cc d43f 5b8c f9be 1659 b23e 6cd4 33be
00000010: 2ad2 c9bd 8355 aa3e 67d5 4d3e 45a6 683f
00000020: 77d3 d93f e71e a3be 8548 8c3f 41a7 69be
00000030: e606 85bf 91e0 493f d109 803e fa3b 0f3f
00000040: 5a0e d93f 0ef2 3c3f e061 a83e b945 b53e
00000050: 1ef0 773f 7154 81bd cbb4 8bbe 5b12 d73e
00000060: 1815 1e40 a89b 05be 4965 6e3f 5303 5cbe
00000070: 2208 1f3d 0d4a 843f 5c9e 7dbe b527 9d3e
00000080: 21ee e6be 905f 3b3e dcab 803f b31b 0bbf
00000090: 9d62 da3d c49e d33d f6eb 093f 60ca 7d3f
000000a0: 9888 79bf 76a3 253e 9771 6ac0 4014 4fbf
000000b0: 9964 9cbf caa4 0d40 4b27 f13f 7692 513f
000000c0: 36ae 78bf f271 3f3f 75d3 2b3f 5a41 73bd
000000d0: db17 e93e 5af6 913f 5328 d53f b4a8 2e3f
000000e0: 9ac0 19bd 6ff5 55bf 1a8c 72bc 5fa4 d0bf
000000f0: 7445 1bc0 e122 4dbf 7e4f 6dbe 6f86 aa3f
00000100: 19cd 963e e9c4 c63f 5a2e 1e3d 6718 02bf
00000110: fc34 303e fe35 96bf 7316 43bd 7c11 efbe
00000120: 56d8 a3bf 9aac 0ebf a14c 0040 d6b6 463f
00000130: 748b 8ebf 307e 5c3f 67ed 3ec0 65d0 b8be
00000140: 6831 223f 51da 263f 9977 453f ce97 0abf
00000150: f581 a5be a41e a6bf 3bc6 30bf 9432 81bf
00000160: 5534 25bf 2567 13c0 655f 473f 9f9c a5bf
00000170: b3a6 393f 218c 9a3f 3051 8bbe 658b 87be
00000180: 41dd b0bf 32cf 12bf 4f62 26bf 56d0 983d
00000190: 8447 843f 15be dabf 680a c83e 2369 773f
000001a0: 9101 143f e867 ce3f 2863 b93e dc8e c03f
000001b0: 68c8 cbbd b304 403f 1c5c ce3d e671 f7bf
000001c0: e206 08be 91f7 d63e 6581 4ebf ccbc b0bf
000001d0: 8dfa 10bf a3d4 a63f a9fe 993f 5b5f d5bd
000001e0: 1053 8dbf 4419 cebf b7ed f93e 9dac ec3e
000001f0: 36d2 0f3f 1e5b 1b3e 7764 ca3f 4c73 8b3f
00000200: 9639 06c0 41c4 523f ed93 313f 6f10 903f
00000210: 7792 cc3f 4359 0cc0 f10b f4be c192 9dbf
00000220: 5271 c0bf 3027 ac3f 2976 adbf 2aa8 c3bf
00000230: b98b 523e 9ffd 0abf f216 2d3f 0c30 f0bf
00000240: 4d42 b0bf cf75 9cbe b1e6 60bf 2ab9 21bf
00000250: 436c 253f 0211 953e 37c4 723f 8593 bfbf
00000260: 6e74 733e 50a0 4f3e e3fe 2f3e 4981 ecbf
00000270: 51ed a63f 9625 9c3e 3dc7 873f ec45 90be
00000280: 5983 b6bf f41c 713f 5a17 1f3f 3e7f 313e
00000290: bd05 cb3f 7861 1340 54fe 6c3f 0e9c 3dc0
000002a0: cf61 323f 600d 50bd 67e1 453f ad6c 4ec0
000002b0: 1952 6bbf cc3f 13c0 becf 5ebf 0cc2 6bbd
000002c0: 6944 1abf ebdf 72be 9ef7 43bf 5410 ebbe
000002d0: 78a8 5ebf b6dd 07c0 ec89 413f 724b b8bf
000002e0: 175d eebc b90e 5cbf 6982 033d 0809 7ebf
000002f0: 4f03 043f 1485 c9bd 0acd 6fbf fcc8 acbf
00000300: 9d9b f13f 1519 15bf 4393 bebf d5c4 b1bf
00000310: f7d7 9a3d 763c 9f3f 5e2f 3c3f a9b6 893f
00000320: e137 e9be 7dd3 7e3f 935a 9bbf 2b8c 62bf
00000330: 5a95 dbbd bfed 053f 152b fe3f 46a3 0f3e
00000340: f5ab b0bd c5d2 b8be 647f d63f 1d2a 10bf
00000350: 4b64 2bbf 97a4 993f 36d3 bf3f 9590 2c3f
00000360: a30f 5a3f a098 753e 1c0a 8fbf de50 053f
00000370: 239a 7a3f a1d1 19bf 04a0 b43e a171 22bf
00000380: 88dd a43f 0468 f2bb bb0b fdbe 603a 173f
00000390: e529 c5be 4963 54be 9f85 55bf 05c5 42be
000003a0: e2ef 0f3f 915e bbbe 11c3 003e 044b 393f
000003b0: ba95 abbf af71 44bf f785 603f dd9b d8be
000003c0: 8187 2d3f b4e0 eb3e 85d2 973f fa30 be3e
000003d0: 1f6b 4dbf 1022 773f 3530 fb3e 5b89 d03e
000003e0: 127f c23c e492 a83f 0ee4 3b3f 4bf0 9e3f
000003f0: 7633 a5be 639e 8c3d 38f2 db3f bbc7 6e3f

bias f4 [9]
3.0299213 3.3231347 3.6494288 2.9640398 3.1440728 2.906342 2.990274 3.0830598
3.0678918
00000000: 3bea 4140 3dae 5440 3e90 6940 d4b2 3d40
00000010: 7d38 4940 8201 3a40 a660 3f40 da50 4540
00000020: 5758 4440
