dev/pacman_0_2000.pth (torch_old, 241244 bytes, 20 tensors)

weight f4 [16, 3, 5, 5]
1.4608556 -0.40722087 0.8014403 -0.62511164 1.1322786 0.13286312 1.7782295 2.8610246
0.16542076 0.4791745 -0.33808675 -0.16030161 0.5130142 -0.7976898 -1.000307 1.5314597
0.987388 -0.21194059 0.43804607 -1.5027571 0.11930368 0.04869547 0.20552093 -0.7679736
0.8754561 0.16535635 -2.1217074 -1.7466496 0.052669723 -0.6122478 -0.11935506 -1.5191551
-1.0650833 -0.42814794 -0.6914867 -1.4984199 -0.87173516 -1.3523215 0.11737097 -0.6067094
-0.7868302 -1.1964711 -0.13162254 2.4165795 0.12470199 -1.4597815 -1.0211902 -0.9882123
-1.1989256 1.474458 -1.3792996 2.530881 2.2366712 -0.46432504 -0.53428763 -0.54352766
2.495577 0.27764228 4.3960924 2.2344844 -2.9427412 0.8309869 0.20214331 2.206612
1.5484009 -1.8582344 -1.8661131 -1.1795275 -0.081124745 -0.5112128 -1.2485167 0.6456505
-0.8248733 0.33591256 1.5774727 -1.3893168 0.29764107 -0.3252498 0.36629632 0.58457917
-0.6189344 0.029600412 0.9305371 0.10901674 -1.1845797 -0.030937213 0.28138313 -0.53887355
1.1801713 1.2231103 -0.3984883 -1.8944302 0.68123174 0.98005855 2.6465354 0.87894833
0.20111951 0.5793569 0.5988306 -1.2518768 -1.5307283 1.2819245 0.8214715 1.7220509
1.115861 0.37498638 0.6736934 -1.226307 -0.70156187 -0.5438992 -0.9820767 0.32485715
-2.9189498 -0.87173295 -1.4203417 -0.27728975 -2.1083817 -1.6042917 -2.6925874 0.23633397
2.2556021 0.45890447 -1.228652 -1.9262112 -1.4873307 2.984541 -0.37254933 1.0543563
-0.31413978 1.1880217 0.73296 -0.8249232 -0.54400456 1.6615503 1.1966956 -1.9537854
-1.3438113 1.5839032 0.2509064 1.1798186 -0.2507072 0.7140105 -0.696213 1.34568
0.25665206 1.3739523 0.65069443 3.9780476 3.1619 3.9302604 0.5654805 0.59000176
0.34040248 -0.76047236 0.3218585 1.5422187 -0.31295782 1.4062161 -0.5455436 0.38520482
0.97761345 -1.080374 -0.68938214 -0.76017755 0.32594547 -0.4881368 1.1667198 -0.54962
2.6545932 0.24868613 0.6357025 0.08638343 0.32907107 -0.10721225 -0.83306664 -1.2555037
-0.06998187 -0.4509888 -1.6078775 -0.038302824 0.21228114 -1.078658 0.8007904 -1.0614033
-0.023082554 -0.3144338 -0.79625034 -1.3664577 0.04228949 0.7262573 -1.4468263 1.1965445
-1.4319129 4.037255 -0.5341757 -1.5698534 -2.1069248 -0.8421783 -0.8446259 -1.0568999
-2.109936 -0.2727428 -1.4995506 0.5393379 -1.697919 -1.0917002 -1.40205 -2.3452697
-1.4615028 -0.4805181 -0.8932842 1.4576876 2.1842577 0.57341707 1.6949637 3.798941
-0.8172382 2.650331 -2.9732172 1.0978775 2.4572442 3.7927597 0.62333256 -0.5066164
-1.1058295 0.5626629 0.08709133 -1.0627049 -0.65277445 0.73385686 -0.4949744 -1.594956
1.5925255 0.14504915 0.3569971 0.09514647 -0.38799068 -2.0307398 -0.87287074 0.431829
-0.50118077 -0.691146 0.8175695 -1.4026188 0.97435564 0.13948186 -0.29667825 1.0265049
-1.0274054 -1.2290423 -0.46606004 0.17001843 1.5924481 -1.1687376 0.26015988 -0.4025519
00000000: 51fd ba3f 417f d0be 312b 4d3f 5107 20bf
00000010: 81ee 903f 450d 083e 069d e33f 071b 3740
00000020: 0f64 293e 5c56 f53e b519 adbe 1b26 24be
00000030: e654 033f 6635 4cbf 0f0a 80bf df06 c43f
00000040: 76c5 7c3f f406 59be 9347 e03e 585a c0bf
00000050: 7d55 f43d e774 473d 1474 523e eb99 44bf
00000060: e41d 603f 2d53 293e 0eca 07c0 3792 dfbf
00000070: 35bc 573d 46bc 1cbf 6d70 f4bd ad73 c2bf
00000080: a654 88bf 3536 dbbe 4605 31bf 39cc bfbf
00000090: 092a 5fbf df18 adbf 3160 f03d 4f51 1bbf
000000a0: b46d 49bf f725 99bf 0fc8 06be 3da9 1a40
000000b0: c263 ff3d 1fda babf 5cb6 82bf 7bfb 7cbf
000000c0: 6576 99bf 0abb bc3f e48c b0bf f4f9 2140
000000d0: 9f25 0f40 03bc edbe 13c7 08bf a124 0bbf
000000e0: 89b7 1f40 2127 8e3e caac 8c40 cb01 0f40
000000f0: df55 3cc0 8fbb 543f a8fe 4e3e 2239 0d40
00000100: 0032 c63f a0da edbf cbdc eebf c2fa 96bf
00000110: bb24 a6bd d8de 02bf 65cf 9fbf 5a49 253f
00000120: e62a 53bf bbfc ab3e a0ea c93f 22d5 b1bf
00000130: 6964 983e 2487 a6be 318b bb3e fba6 153f
00000140: 7c72 1ebf 907c f23c ae37 6e3f 2b44 df3d
00000150: 4fa0 97bf 0a70 fdbc 7311 903e 9ef3 09bf
00000160: da0f 973f e18e 9c3f a906 ccbe b07c f2bf
00000170: 3465 2e3f 1ee5 7a3f d660 2940 c202 613f
00000180: 46f2 4d3e bc50 143f f64c 193f 803d a0bf
00000190: e8ee c3bf 1a16 a43f f54b 523f 2a6c dc3f
000001a0: 89d4 8e3f 37fe bf3e 2c77 2c3f a1f7 9cbf
000001b0: 8f99 33bf fa3c 0bbf 6169 7bbf ad53 a63e
000001c0: 13d0 3ac0 e429 5fbf c2cd b5bf ecf8 8dbe
000001d0: baef 06c0 6e59 cdbf 5a53 2cc0 8801 723e
000001e0: c95b 1040 87f5 ea3e 7844 9dbf 178e f6bf
000001f0: da60 bebf b802 3f40 c9be bebe 26f5 863f
00000200: eed6 a0be 1811 983f 44a3 3b3f 2b2e 53bf
00000210: e243 0bbf aead d43f 522d 993f a415 fabf
00000220: 0202 acbf 57bd ca3f ce76 803e 4c04 973f
00000230: b25c 80be 64c9 363f 043b 32bf 3e3f ac3f
00000240: e667 833e abdd af3f e993 263f 5598 7e40
00000250: 925c 4a40 6389 7b40 54c3 103f 5b0a 173f
00000260: 3c49 ae3e 51ae 42bf a3ca a43e 6c67 c53f
00000270: 023c a0be e4fe b33f bfa8 0bbf 9139 c53e
00000280: e044 7a3f b249 8abf 597b 30bf ff9a 42bf
00000290: 53e2 a63e 11ed f9be 1357 953f e5b3 0cbf
000002a0: dbe4 2940 94a7 7e3e 66bd 223f cce9 b03d
000002b0: 017c a83e 1992 dbbd db43 55bf 58b4 a0bf
000002c0: a852 8fbd 01e8 e6be eece cdbf 6ce3 1cbd
000002d0: 3a60 593e 7711 8abf 9a00 4d3f 10dc 87bf
000002e0: a017 bdbc 78fd a0be 10d7 4bbf 16e8 aebf
000002f0: bf37 2d3d 00ec 393f 9b31 b9bf 5f28 993f
00000300: ec48 b7bf 3131 8140 bdbf 08bf f5f0 c8bf
00000310: dbd7 06c0 ff98 57bf 6739 58bf 7f48 87bf
00000320: 3109 07c0 f2a4 8bbe 46f1 bfbf 0c12 0a3f
00000330: 6955 d9bf d5bc 8bbf 6076 b3bf e618 16c0
00000340: 8612 bbbf 7806 f6be 46ae 64bf 8295 ba3f
00000350: e1ca 0b40 76cb 123f 92f4 d83f d921 7340
00000360: 8636 51bf 069f 2940 3149 3ec0 4087 8c3f
00000370: 7d43 1d40 93bc 7240 b992 1f3f 9db1 01bf
00000380: d28b 8dbf ad0a 103f f05c b23d b706 88bf
00000390: 3a1c 27bf 0bde 3b3f 496d fdbe 8527 ccbf
000003a0: e0d7 cb3f c487 143e 53c8 b63e 27dc c23d
000003b0: b7a6 c6be a4f7 01c0 7574 5fbf b118 dd3e
000003c0: 624d 00bf f2ee 30bf 3c4c 513f 0389 b3bf
000003d0: 5f6f 793f 55d4 0e3e 36e6 97be 8364 833f
000003e0: 0582 83bf 4251 9dbf 6c9f eebe 5019 2e3e
000003f0: 57d5 cb3f 3299 95bf ad33 853e 481b cebe

bias f4 [16]
-0.07675817 -0.14090307 0.05052419 -0.048700713 0.058494568 0.1356955 0.10919901 0.59365153
-0.2351704 -0.23489006 -0.47036788 -0.004466709 -0.02984794 -0.098752074 0.38582113 -0.16668645
00000000: 6333 9dbd e548 10be 74f2 4e3d 667a 47bd
00000010: 0098 6f3d c3f3 0a3e bba3 df3d 8cf9 173f
00000020: 82d0 70be 0587 70be 0fd4 f0be 795d 92bb
00000030: ab83 f4bc 873e cabd 598a c53e daaf 2abe

running_mean f4 [16]
851.78754 2279.6604 179.8316 660.01355 129.7803 -457.5263 1747.3569 151.42548
-38.312687 6090.541 -78.65056 1394.1879 240.50684 -850.13995 -5287.9404 -918.3938
00000000: 67f2 5444 917a 0e45 e4d4 3343 de00 2544
00000010: c2c7 0143 5ec3 e4c3 6c6b da44 ec6c 1743
00000020: 3140 19c2 5454 be45 164d 9dc2 0346 ae44
00000030: c081 7043 f588 54c4 863f a5c5 3499 65c4

running_var f4 [16]
44639.77 114378.15 58597.67 95209.02 34459.504 227244.8 662083.8 97206.51
124181.99 370345.8 143081.56 77326.8 47581.312 168795.23 103490.984 621739.7
00000000: c55f 2e47 1365 df47 ace5 6447 83f4 b947
00000010: 819b 0647 33eb 5d48 3da4 2149 41db bd47
00000020: ff8a f247 3ad5 b448 64ba 0b48 6607 9747
00000030: 50dd 3947 cfd6 2448 7e21 ca47 bbca 1749

weight f4 [16]
1.2534882 1.5367008 0.92494917 1.0678624 0.37792066 1.4966985 2.78043 1.2289892
1.0255843 1.1875964 1.3010246 0.9206999 0.39796695 1.3287398 1.6814395 1.6298068
00000000: 4d72 a03f 9db2 c43f 78c9 6c3f b7af 883f
00000010: d17e c13e d193 bf3f 91f2 3140 854f 9d3f
00000020: 5946 833f 2903 983f f987 a63f fdb2 6b3f
00000030: 53c2 cb3e 2514 aa3f 6939 d73f 829d d03f

bias f4 [16]
-1.6160794 -1.4491595 -0.8001048 -1.994616 -0.48856062 -1.7946808 -1.1824541 -1.2338077
-0.90289485 -0.5360645 -1.4698367 -0.8607948 -0.70548964 -1.6504555 -1.5693381 -1.1980433
00000000: b1db cebf 0f7e b9bf abd3 4cbf 944f ffbf
00000010: 9e24 fabe 1ab8 e5bf a85a 97bf 69ed 9dbf
00000020: 1e24 67bf 863b 09bf 9c23 bcbf 0c5d 5cbf
00000030: f89a 34bf 2042 d3bf 12e0 c8bf 7c59 99bf

weight f4 [32, 16, 5, 5]
-1.1389695 1.5552466 1.9239237 -3.733257 0.1385324 -2.0018666 -0.17554225 0.72431755
0.29497072 -0.10891236 -1.6032629 0.7682871 -1.0822371 1.9627652 -1.3305819 -1.2289209
0.061094344 0.37533706 -1.8441663 0.64938426 0.29884198 -0.09271876 -0.37973413 -2.4749296
-0.08665636 -1.5847832 -0.7129403 -1.7069246 0.826472 1.8480712 -1.7959615 0.0646659
-0.33741108 -2.120293 1.881659 0.027182637 -2.1234233 0.19615237 -0.3616592 0.5406002
3.8793776 0.14826839 -0.5754278 0.62584174 -0.79359484 -0.22747469 1.0080497 0.76519036
2.6006293 -0.44760287 0.68941146 0.9285903 -0.5512116 -0.8104707 -0.13693334 -2.593225
0.58959574 0.42203766 1.3685569 -0.07593913 -0.28082505 0.38964945 1.4247072 -0.8563653
-0.62629944 1.1545578 -0.48535842 -0.19627461 -0.5215374 1.0221591 0.18135212 -0.5806285
0.8928166 0.4303878 0.20894279 -0.21972965 0.96709424 -0.24311472 0.06295017 -0.060094435
0.5902323 -1.1026974 -0.053558107 -1.1550536 0.08439023 2.5131602 -1.6312214 0.017678011
-0.52961344 -3.6480029 0.3127988 2.0310426 -1.6726363 -1.9598643 0.23859885 1.006101
0.66888046 -0.013572009 1.681875 0.6974218 0.06371535 -0.061429314 0.42978737 4.917965
-1.6491706 -0.011130003 0.61913335 -0.5068456 0.30196026 -0.4599947 -0.5762843 -0.076896556
-1.0683465 -0.21385047 0.6168149 0.39377928 -0.49343592 -2.6662261 -0.5798162 0.19294287
1.4097847 -0.8174632 1.0812889 -0.67638683 -1.1829224 1.5944759 -1.48886 1.2101872
-1.5482041 1.70369 -1.8968785 0.9750016 0.022988336 1.0172002 0.13024122 0.06425162
-1.8540807 -2.5818052 0.7227678 -3.5061624 0.31732416 0.15615419 -1.3096594 1.3011543
-3.1787648 0.62744 -2.0021214 -2.0972114 0.13067718 1.807657 0.6924858 0.54878855
0.2552743 -0.061355997 0.5513489 -1.1270343 0.4136407 1.1536766 0.44928086 0.13499258
-0.23398538 0.0770268 -0.013375994 0.034260236 0.6769027 -1.043383 -2.3649893 2.109688
-0.34422356 0.8243403 1.048308 -1.1680058 -0.31721923 1.7389156 1.2712893 -1.1885382
0.42599702 -0.6537884 0.58754426 -0.4459528 -1.1933371 0.95979285 -0.645141 0.50309765
0.7779641 1.7375058 0.20604552 -0.08162433 0.1745297 -0.57275265 3.4532847 -0.6495701
1.3152754 -1.6929682 0.24147117 0.874974 -0.5979461 0.18648875 -5.6127324 1.594
-1.115746 -0.4747416 1.4521537 -0.11869646 1.1461557 -1.7790368 -0.53099895 0.15336092
-0.3844274 0.29176146 -2.1659806 0.5141033 1.0228701 0.19071668 1.4525921 -1.6410679
2.002048 1.0475706 0.13822916 -0.3282563 1.1793683 0.21391001 0.1340317 0.5724424
-1.5428305 -0.7905385 0.48548752 1.2662113 1.0552129 -0.84972626 1.8019876 1.1096249
-1.0249102 -0.14280301 0.059616167 -4.2416983 -0.44014177 -0.093376614 0.41367498 -0.09611569
-0.7079063 1.2921549 -1.4398949 0.15962535 -1.3090591 -0.8753775 0.09931588 0.17747763
-0.5725023 -1.6178979 -0.24442555 -1.4910742 -0.9564483 0.3795407 0.8606999 -1.9264663
00000000: c1c9 91bf 5212 c73f 2243 f63f afed 6ec0
00000010: 70db 0d3e 951e 00c0 59c1 33be e06c 393f
00000020: 6706 973e 720d dfbd b837 cdbf 77ae 443f
00000030: bf86 8abf e43b fb3f 8250 aabf 484d 9dbf
00000040: 103e 7a3d 2e2c c03e a40d ecbf 0c3e 263f
00000050: d101 993e 55e3 bdbd 836c c2be 3f65 1ec0
00000060: e478 b1bd 2dda cabf 4183 36bf 817c dabf
00000070: ab93 533f 998d ec3f 11e2 e5bf 8e6f 843d
00000080: 25c1 acbe e1b2 07c0 34da f03f 1fae de3c
00000090: 2be6 07c0 2bdc 483e 652b b9be c664 0a3f
000000a0: b947 7840 abd3 173e 3c4f 13bf 2a37 203f
000000b0: 0829 4bbf 20ef 68be c607 813f 84e3 433f
000000c0: b670 2640 342c e5be 457d 303f 18b8 6d3f
000000d0: 341c 0dbf 027b 4fbf 4138 0cbe 66f7 25c0
000000e0: bfef 163f 5215 d83e df2c af3f f985 9bbd
000000f0: 4dc8 8fbe 2280 c73e ce5c b63f c23a 5bbf
00000100: 2955 20bf 8dc8 933f e680 f8be 36fc 48be
00000110: 7a83 05bf 1cd6 823f 5fb4 393e 12a4 14bf
00000120: a18f 643f ca5b dc3e 19f5 553e cf00 61be
00000130: 7d93 773f 11f3 78be 05ec 803d 9525 76bd
00000140: 7719 173f 3025 8dbf bf5f 5bbd ccd8 93bf
00000150: c9d4 ac3d 9ed7 2040 ddcb d0bf 7ad1 903c
00000160: bf94 07bf e178 69c0 2a27 a03e 9afc 0140
00000170: f218 d6bf d5dc fabf 4253 743e ebc7 803f
00000180: c03b 2b3f 225d 5ebc ae47 d73f 3c8a 323f
00000190: 327d 823d 4e9d 7bbd 170d dc3e f85f 9d40
000001a0: 0618 d3bf 9e5a 36bc 867f 1e3f a2c0 01bf
000001b0: 899a 9a3e 6d84 ebbe 5e87 13bf f17b 9dbd
000001c0: 94bf 88bf 9efb 5abe 95e7 1d3f 709d c93e
000001d0: a2a3 fcbe 73a3 2ac0 d66e 14bf d192 453e
000001e0: d373 b43f 4545 51bf ad67 8a3f b027 2dbf
000001f0: 006a 97bf c917 cc3f f792 bebf 6ae7 9a3f
00000200: 8d2b c6bf 8412 da3f eacc f2bf b499 793f
00000210: 0952 bc3c 9e33 823f f45d 053e 5a96 833d
00000220: 8452 edbf 4c3c 25c0 4f07 393f f764 60c0
00000230: 5078 a23e e2e6 1f3e eba2 a7bf 398c a63f
00000240: e270 4bc0 e89f 203f c222 00c0 b638 06c0
00000250: 3dd0 053e 4e61 e73f c046 313f 687d 0c3f
00000260: 50b3 823e 6d50 7bbd 3425 0d3f a942 90bf
00000270: b7c8 d33e adab 933f 2408 e63e 7f3b 0a3e
00000280: dd99 6fbe 3ac0 9d3d fc26 5bbc 7654 0c3d
00000290: 7f49 2d3f 938d 85bf fc5b 17c0 2105 0740
000002a0: 123e b0be f707 533f f52e 863f 3781 95bf
000002b0: 8f6a a2be c994 de3f 9cb9 a23f 0522 98bf
000002c0: 481c da3e ad5e 27bf 4d69 163f ed53 e4be
000002d0: 45bf 98bf fcb4 753f f627 25bf 02cb 003f
000002e0: a828 473f 9766 de3f 99fd 523e a82a a7bd
000002f0: eab7 323e eb9f 12bf 9e02 5d40 3a4a 26bf
00000300: f25a a83f 2fb3 d8bf 3844 773e 4cfe 5f3f
00000310: ff12 19bf e8f6 3e3e 819b b3c0 3108 cc3f
00000320: c4d0 8ebf 5511 f3be 2ce0 b93f 2117 f3bd
00000330: 3bb5 923f 7ab7 e3bf 8cef 07bf a50a 1d3e
00000340: abd3 c4be c261 953e 6d9f 0ac0 469c 033f
00000350: 68ed 823f 3c4b 433e 8aee b93f 830e d2bf
00000360: 8e21 0040 cb16 863f f28b 0d3e 3611 a8be
00000370: 8af5 963f 3a0b 5b3e 9b3f 093e 968b 123f
00000380: 787b c5bf bb60 4abf d291 f83e 3613 a23f
00000390: 3711 873f a987 59bf 88a7 e63f 3008 8e3f
000003a0: 4230 83bf f43a 12be 1530 743d febb 87c0
000003b0: 435a e1be 3d3c bfbd 35cd d33e 4ed8 c4bd
000003c0: 5939 35bf 5565 a53f 7a4e b8bf d474 233e
000003d0: 408f a7bf bd18 60bf 2066 cb3d b2bc 353e
000003e0: 838f 12bf 4717 cfbf b14a 7abe 85db bebf
000003f0: ccd9 74bf 2953 c23e d456 5c3f 7396 f6bf

bias f4 [32]
-1.0810183 -0.39040253 0.17179842 0.3648646 0.29300383 -0.9299081 0.24836247 -1.0418416
-1.939901 0.5432408 0.7609107 -0.53731537 0.24395078 -1.1475018 -0.54353577 0.83785534
-0.9122288 -0.40666312 -0.9870288 -1.597064 1.0314158 -1.0182267 0.15116112 -0.8792881
0.04047892 0.5490637 0.85144466 0.47080535 0.86988276 0.072473764 0.4907686 0.029923962
00000000: cf5e 8abf d7e2 c7be edeb 2f3e 88cf ba3e
00000010: 9904 963e 750e 6ebf bb52 7e3e 115b 85bf
00000020: ad4e f8bf d411 0b3f 0bcb 423f 808d 09bf
00000030: 3cce 793e 57e1 92bf 2925 0bbf b07d 563f
00000040: d487 69bf 2636 d0be ebad 7cbf 986c ccbf
00000050: 6f05 843f 4155 82bf fbc9 1a3e 0619 61bf
00000060: 39cd 253d 708f 0c3f 47f8 593f 660d f13e
00000070: a3b0 5e3f 206d 943d 0646 fb3e 1923 f53c

running_mean f4 [32]
-0.28922343 -3.4828088 -6.5743947 -13.76144 -5.717556 -12.414178 -1.2064291 -1.5338767
-8.58034 -2.746201 -4.5206513 -4.2762394 -0.36832178 1.8456776 -3.2629871 -2.3445218
2.3877237 1.3575584 -1.1881181 -6.893201 4.2231016 3.7413707 -4.4024982 1.5667145
0.08812667 0.70691764 1.562415 -2.2417371 1.2969058 -10.217826 3.9093661 3.7722764
00000000: 1815 94be 57e6 5ec0 7161 d2c0 dc2e 5cc1
00000010: 38f6 b6c0 79a0 46c1 456c 9abf 1256 c4bf
00000020: 1349 09c1 c2c1 2fc0 2da9 90c0 f4d6 88c0
00000030: ac94 bcbe 2a3f ec3f c8d4 50c0 a50c 16c0
00000040: 77d0 1840 79c4 ad3f 4114 98bf 1a95 dcc0
00000050: a623 8740 9e72 6f40 44e1 8cc0 1a8a c83f
00000060: c17b b43d 8ef8 343f 37fd c73f 9f78 0fc0
00000070: 0201 a63f 377c 23c1 0e33 7a40 fa6c 7140

running_var f4 [32]
64.3283 92.42472 86.2657 89.29695 88.554245 94.30535 86.008606 72.32983
75.76976 67.82026 76.285 77.545975 89.25366 62.283897 74.48323 67.14667
53.944664 47.181118 65.44005 102.58589 64.36364 92.243774 75.34358 98.24322
0.19660942 75.689026 72.984505 91.29471 62.50905 107.671455 97.75025 86.55301
00000000: 17a8 8042 75d9 b842 0a88 ac42 0a98 b242
00000010: c61b b142 579c bc42 6804 ac42 dfa8 9042
00000020: 1e8a 9742 f9a3 8742 ec91 9842 8a17 9b42
00000030: e081 b242 b622 7942 6af7 9442 184b 8642
00000040: 56c7 5742 77b9 3c42 4ee1 8242 fa2b cd42
00000050: 2fba 8042 d07c b842 eaaf 9642 877c c442
00000060: fb53 493e c860 9742 11f8 9142 e496 b642
00000070: 4409 7a42 c957 d742 2180 c342 241b ad42

weight f4 [32]
1.0332947 1.9893463 2.0858345 1.0516979 1.4781039 1.3601921 1.3033326 0.6334232
1.567876 1.3981402 1.29291 1.3393452 0.7075654 0.45951784 1.2034924 0.87733626
0.5579615 0.12873727 0.98335326 2.1223204 0.8874317 0.8261718 1.2754638 1.0057012
0.0034443734 1.685276 0.954386 1.0766915 0.68874156 3.6138933 1.2732645 1.8004103
00000000: 0043 843f e6a2 fe3f 507e 0540 099e 863f
00000010: 8232 bd3f c61a ae3f 9ad3 a63f 0628 223f
00000020: 29b0 c83f 42f6 b23f 137e a53f aa6f ab3f
00000030: 0223 353f ec45 eb3e 0a0c 9a3f 1c99 603f
00000040: 91d6 0e3f b4d3 033e 0abd 7b3f 19d4 0740
00000050: b92e 633f ff7f 533f 6642 a33f d1ba 803f
00000060: ffba 613b 20b7 d73f a452 743f 07d1 893f
00000070: 5e51 303f 074a 6740 55fa a23f d873 e63f

bias f4 [32]
-1.3803469 -2.802043 -3.147245 -0.34210128 -1.9673996 -1.3904976 -1.6826082 -0.5308806
-1.651245 -2.1953604 -1.8393178 -1.8645027 -0.29995218 -0.39698437 -1.4542984 -0.7204439
-0.5900271 -0.02359618 -1.4345908 -2.2366428 -0.7415385 -0.53969234 -1.8586847 -0.8955939
-0.060630437 -1.7595233 -0.8579762 -1.316292 -0.62655836 -2.2899137 -1.3921525 -3.030357
00000000: 35af b0bf ac54 33c0 766c 49c0 e627 afbe
00000010: c0d3 fbbf d3fb b1bf b55f d7bf cae7 07bf
00000020: ff5b d3bf c980 0cc0 c46e ebbf 06a8 eebf
00000030: 5593 99be 8941 cbbe 7326 babf 036f 38bf
00000040: 040c 17bf c74c c1bc aca0 b7bf 2825 0fc0
00000050: 78d5 3dbf 4729 0abf 61e9 edbf a445 65bf
00000060: 9f57 78bd 0f38 e1bf 54a4 5bbf 427c a8bf
00000070: 2166 20bf f28d 12c0 0e32 b2bf 5ef1 41c0

weight f4 [32, 32, 5, 5]
-0.011850873 0.24748069 1.1052073 -2.615335 -0.8841417 0.29095787 -1.1243166 -0.57443106
-1.8896402 0.7487546 1.1930225 -0.40981942 0.7758375 0.15768263 0.49175486 -1.9627271
2.8064134 0.106472805 -0.39029458 -0.643858 0.9861072 -0.932909 0.13570271 0.6224764
1.505639 -4.3151107 -0.4778333 -0.3527611 -2.6429572 0.23345491 -2.2252266 0.5278679
-0.36783442 -3.4037457 1.6026796 0.5528916 0.94311506 -0.80907214 -0.4073438 -0.4958913
-0.41609225 -1.0529462 0.47035256 -0.51788586 -0.3493469 -0.5401733 1.6899581 -2.1089041
-0.11274592 -1.7427258 0.5461652 -0.00392884 0.5944325 -0.7643208 -3.5737722 0.5900317
-0.4074037 -1.772684 -2.1246524 1.1845387 0.084533535 -4.2773857 0.22160028 -0.87059397
0.5303094 -1.9090972 -0.373825 0.2124384 0.7720444 0.07434331 -0.8974575 -1.1366332
1.4076731 0.34836978 -0.2552863 0.2979993 1.7458246 1.7116905 -1.6034544 -0.63564074
0.613986 1.1184249 -0.012382276 -0.0546005 -2.4282024 1.4037596 -0.90268767 0.97013104
0.008583331 1.3094871 1.3351697 0.09909062 -0.23446965 -1.0981523 -1.0608783 0.60749036
0.9963556 0.92882544 -3.1311452 0.1294352 -2.7022817 -0.10437334 -2.5767963 0.20918632
-0.17905033 -2.4774344 -0.028180946 0.053970207 -2.176231 -0.011169312 1.093382 -0.4051827
0.74369425 -0.780172 -0.49066547 0.8892335 -2.7245033 0.7030236 1.490543 0.4114647
0.6332583 0.7539874 -0.18467228 1.1911833 0.38359347 -0.6711552 -2.6058922 -2.4918303
-2.3366373 -0.66993886 -1.1011147 -1.3902922 -0.0218062 -0.52135855 0.05928503 -2.262301
-0.8898772 -4.2193375 -0.6318553 -2.9345562 0.42007923 0.4094166 0.12897752 0.8614469
-0.12895691 -0.17989632 1.015944 0.055045832 -0.3609083 1.5858037 -0.28104565 0.961578
-4.6748405 -0.13322243 1.0705427 0.33043596 -2.4374118 -0.2605521 -0.5008327 1.40686
-2.6871676 0.24474137 0.31148183 1.147014 0.14883356 0.92548424 1.6469483 1.0302333
-3.2149642 -1.0222265 -0.26486048 -0.8599748 0.51074296 -0.21678902 1.345487 0.12262222
1.3560234 0.98085755 -2.2805908 -1.4097952 0.46856582 1.984358 -1.3409448 -0.08950683
0.5993551 0.40849274 -0.009467827 -0.04677119 -1.5468409 -1.4674277 0.16545716 -1.1124812
0.13240032 -0.3064331 0.109900124 -0.8362062 -0.26569664 0.39815485 -2.0613503 0.5984036
-1.8684477 0.74389833 -0.3256842 0.6936197 -1.5752518 0.115644 -0.041846544 2.6325164
-1.6486216 -0.5339405 0.690795 -0.5809571 1.0582118 -2.5266564 -0.83293605 0.9191048
-0.17587395 -0.025038695 -1.9991338 -1.4694836 -0.6719757 1.8142699 -2.0783298 0.10592303
1.340047 0.11967653 -0.25950512 0.09704612 -0.051678672 -1.1949223 -0.8187055 -1.2061135
1.7162948 0.71161115 -0.9668314 0.12971622 0.99089193 -0.13048117 -1.833205 1.3874677
-0.5828282 -4.4381447 -1.2765173 -1.1133487 0.78030676 -0.61711955 0.12549694 -1.587846
-3.998457 -1.0889614 -2.285525 -1.1357222 -1.4916593 1.4087439 0.16194977 -0.55869657
00000000: 2a2a 42bc 946b 7d3e 6f77 8d3f a661 27c0
00000010: 1c57 62bf 6ef8 943e 9be9 8fbf ea0d 13bf
00000020: bbdf f1bf 62ae 3f3f f6b4 983f dad3 d1be
00000030: 499d 463f 8e77 213e 4bc7 fb3e a43a fbbf
00000040: 479c 3340 6a0e da3d b1d4 c7be e1d3 24bf
00000050: 8571 7c3f 20d3 6ebf a7f5 0a3e 9d5a 1f3f
00000060: c7b8 c03f 6315 8ac0 91a6 f4be 1a9d b4be
00000070: 3626 29c0 ce0e 6f3e 1d6a 0ec0 5a22 073f
00000080: cb54 bcbe f8d6 59c0 9b24 cd3f 4e8a 0d3f
00000090: fd6f 713f 5a1f 4fbf 5e8f d0be 77e5 fdbe
000000a0: 0b0a d5be f1c6 86bf 0dd2 f03e 2b94 04bf
000000b0: 99dd b2be cc48 0abf 8c50 d83f 49f8 06c0
000000c0: 55e7 e6bd a411 dfbf 7cd1 0b3f 80bd 80bb
000000d0: ba2c 183f 87aa 43bf afb8 64c0 510c 173f
000000e0: 3897 d0be 4fe7 e2bf 4efa 07c0 f79e 973f
000000f0: eb1f ad3d 58e0 88c0 2feb 623e 3fdf 5ebf
00000100: 5bc2 073f 4c5d f4bf fe65 bfbe 7489 593e
00000110: b4a4 453f 4e41 983d c6bf 65bf 327d 91bf
00000120: a22e b43f 865d b23e e3b4 82be 5d93 983e
00000130: 2e77 df3f ad18 db3f fe3d cdbf 5ab9 22bf
00000140: 302e 1d3f 8c28 8f3f 08df 4abc c6a4 5fbd
00000150: ab67 1bc0 65ae b33f 8a16 67bf 825a 783f
00000160: 19a1 0c3c 469d a73f d7e6 aa3f 06f0 ca3d
00000170: d018 70be 4190 8cbf dcca 87bf 7d84 1b3f
00000180: 2911 7f3f 81c7 6d3f af64 48c0 a98a 043e
00000190: 2ff2 2cc0 b1c1 d5bd 3bea 24c0 f034 563e
000001a0: f858 37be 498e 1ec0 badb e6bc dd0f 5d3d
000001b0: 5e47 0bc0 7dff 36bc f1f3 8b3f 1b74 cfbe
000001c0: bf62 3e3f 5ab9 47bf 8138 fbbe cfa4 633f
000001d0: 435e 2ec0 5bf9 333f 1dca be3f 80ab d23e
000001e0: 371d 223f 5105 413f bb1a 3dbe b278 983f
000001f0: 5d66 c43e d4d0 2bbf f0c6 26c0 267a 1fc0
00000200: 778b 15c0 1d81 2bbf 54f1 8cbf 18f5 b1bf
00000210: eaa2 b2bc c177 05bf dcd4 723d 8ac9 10c0
00000220: fece 63bf d004 87c0 45c1 21bf c5cf 3bc0
00000230: a014 d73e 0d9f d13e af12 043e c987 5c3f
00000240: 480d 04be be36 38be 740a 823f bd77 613d
00000250: f9c8 b8be 9efb ca3f 37e5 8fbe fa29 763f
00000260: 4b98 95c0 766b 08be 8b07 893f e72e a93e
00000270: 8efe 1bc0 1667 85be 9236 00bf fd13 b43f
00000280: 8efa 2bc0 7b9d 7a3e 8c7a 9f3e 5bd1 923f
00000290: d367 183e 89ec 6c3f 34cf d23f afde 833f
000002a0: f9c1 4dc0 51d8 82bf cb9b 87be 4f27 5cbf
000002b0: 0dc0 023f f1fd 5dbe eb38 ac3f 5c21 fb3d
000002c0: 2d92 ad3f 7b19 7b3f 33f5 11c0 2b74 b4bf
000002d0: dce7 ef3e 71ff fd3f 14a4 abbf 5b4f b7bd
000002e0: 566f 193f f625 d13e f21e 1bbc 2693 3fbd
000002f0: e2fe c5bf acd4 bbbf 9a6d 293e c965 8ebf
00000300: f393 073e cde4 9cbe 5113 e13d 9c11 56bf
00000310: 6409 88be f4da cb3e 2aed 03c0 fa30 193f
00000320: 4b29 efbf 1f70 3e3f 14c0 a6be 1091 313f
00000330: daa1 c9bf c3d6 ec3d 4867 2bbd 267b 2840
00000340: 0806 d3bf 53b0 08bf f1d7 303f 9bb9 14bf
00000350: 7c73 873f bdb4 21c0 4c3b 55bf 744a 6b3f
00000360: 4d18 34be f31d cdbc 9ee3 ffbf 0a18 bcbf
00000370: 9906 2cbf ff39 e83f 5b03 05c0 2cee d83d
00000380: a986 ab3f f818 f53d dbdd 84be 1ec0 c63d
00000390: 04ad 53bd 37f3 98bf af96 51bf ed61 9abf
000003a0: 8caf db3f 262c 363f 4382 77bf 54d4 043e
000003b0: 18ab 7d3f db9c 05be 76a6 eabf 8b98 b13f
000003c0: 3b34 15bf 4805 8ec0 eb64 a3bf 3682 8ebf
000003d0: 2fc2 473f 8cfb 1dbf 4582 003e 8a3e cbbf
000003e0: b8e6 7fc0 1663 8bbf 0b46 12c0 585f 91bf
000003f0: b1ee bebf b851 b43f 29d6 253e bd06 0fbf

bias f4 [32]
0.6314337 1.71006 1.4754809 0.35846928 0.30960473 1.3688182 1.5123242 1.8546616
-0.03259892 1.4010863 0.3472775 0.8385054 1.6872259 1.9667398 1.3338526 1.2690252
1.5715854 0.6905628 1.2286811 1.3733741 0.6126703 2.6293788 1.3481138 -0.0033857343
1.3478436 0.9206576 1.3124492 0.7993052 2.1025279 1.3489217 1.5625772 0.1548781
00000000: a4a5 213f 3fe3 da3f 8fdc bc3f 4989 b73e
00000010: 8384 9e3e 6f35 af3f d793 c13f 8d65 ed3f
00000020: 7286 05bd cc56 b33f 5bce b13e 4aa8 563f
00000030: 05f7 d73f 21be fb3f afbb aa3f 6b6f a23f
00000040: b629 c93f b9c8 303f 6c45 9d3f b9ca af3f
00000050: f6d7 1c3f be47 2840 fe8e ac3f 32e3 5dbb
00000060: 2486 ac3f 37b0 6b3f 56fe a73f 449f 4c3f
00000070: d18f 0640 77a9 ac3f 8802 c83f 5d98 1e3e

running_mean f4 [32]
-4.554199 3.2295325 5.2169967 -3.3245852 -2.6121316 -13.0849285 -12.737489 1.857423
0.028656276 2.634154 -5.709765 -2.448586 -10.275378 1.406838 -14.233 -9.968714
-8.2053175 -10.500139 -10.720054 -9.546941 -7.6237464 -9.769668 -5.3042164 -8.370259
-10.815208 -8.749979 -2.4308584 -1.8918142 1.9643761 -9.960928 3.3901925 2.4315157
00000000: 00bc 91c0 a9b0 4e40 a3f1 a640 01c6 54c0
00000010: 2a2d 27c0 de5b 51c1 c1cc 4bc1 09c0 ed3f
00000020: 91c0 ea3c fb95 2840 65b6 b6c0 a2b5 1cc0
00000030: f367 24c1 4513 b43f 5eba 63c1 da7f 1fc1
00000040: fb48 03c1 9200 28c1 5785 2bc1 45c0 18c1
00000050: bbf5 f3c0 8f50 1cc1 24bc a9c0 95ec 05c1
00000060: 180b 2dc1 eaff 0bc1 2f93 1bc0 f826 f2bf
00000070: ad70 fb3f f65f 1fc1 eaf8 5840 f49d 1b40

running_var f4 [32]
157.847 108.22473 63.67164 98.129715 75.8812 202.33878 249.76048 64.87648
0.036579676 61.70919 116.48886 85.65841 174.70143 72.59568 254.30324 202.09477
315.85025 204.74484 139.25452 162.66824 127.22148 176.58249 89.60741 211.02106
228.84956 158.10155 117.310715 61.85395 83.47625 180.57954 81.028656 167.21574
00000000: d5d8 1d43 1073 d842 c2af 7e42 6a42 c442
00000010: 2dc3 9742 ba56 4a43 afc2 7943 c2c0 8142
00000020: 92d4 153d 36d6 7642 4cfa e842 1b51 ab42
00000030: 91b3 2e43 fd30 9142 a14d 7e43 4318 4a43
00000040: d5ec 9d43 aebe 4c43 2841 0b43 12ab 2243
00000050: 6671 fe42 1e95 3043 fe36 b342 6405 5343
00000060: 7dd9 6443 ff19 1e43 169f ea42 726a 7742
00000070: d7f3 a642 5d94 3443 ac0e a242 3b37 2743

weight f4 [32]
1.2453036 0.23682332 0.11895742 0.6062228 0.28610203 1.967186 2.0683894 0.10793609
0.0009814426 0.12654959 0.7195605 0.38132548 2.2805727 0.1652932 2.0027285 2.1496613
1.2567655 1.9053876 1.9478029 1.8290083 1.2540643 2.113319 0.4427859 2.0689611
2.1964343 1.4061067 0.64795417 0.1657889 0.12929238 1.92795 0.13159694 0.25755984
00000000: 1c66 9f3f d081 723e f39f f33d 6b31 1b3f
00000010: f77b 923e c0cc fb3f 7e60 0440 990d dd3d
00000020: c0a3 803a 3796 013e 1e35 383f 183d c33e
00000030: e7f4 1140 9f42 293e b42c 0040 0d94 0940
00000040: b1dd a03f bee3 f33f 9b51 f93f f21c ea3f
00000050: 2e85 a03f 9e40 0740 d5b4 e23e dc69 0440
00000060: 6192 0c40 4efb b33f 53e0 253f 91c4 293e
00000070: 3965 043e 11c7 f63f 59c1 063e e2de 833e

bias f4 [32]
-1.3923904 -0.106297545 0.033374783 -0.51388764 -0.26660612 -2.3257437 -2.6307743 -0.0006070151
-0.034206178 -0.038111232 -0.88417715 -0.43722394 -3.4337883 -0.041549437 -2.1948266 -3.054691
-1.0473737 -2.5045488 -2.5565898 -2.3900502 -1.5776545 -2.160042 -0.44790974 -2.3306305
-2.4085095 -1.7549686 -0.8251983 -0.11310923 0.011295839 -2.2613204 -0.009693123 0.39918587
00000000: d939 b2bf 87b2 d9bd ffb3 083d 248e 03bf
00000010: 9980 88be fcd8 14c0 9b5e 28c0 1820 1fba
00000020: c71b 0cbd 861a 1cbd 6f59 62bf d1db dfbe
00000030: 30c3 5bc0 be2f 2abd 0a78 0cc0 0f80 43c0
00000040: 5710 86bf 874a 20c0 2b9f 23c0 95f6 18c0
00000050: 95f0 c9bf 213e 0ac0 6d54 e5be 0d29 15c0
00000060: 0525 1ac0 d0a2 e0bf 3240 53bf d0a5 e7bd
00000070: 2f12 393c 79b9 10c0 e8cf 1ebc 1762 cc3e

weight f4 [9, 1792]
1.2003826 -0.8408758 0.15317051 0.4373132 0.6089946 2.65168 1.1366993 1.3248799
1.5274994 0.07878287 -1.6397821 1.2578362 -0.7934127 0.5082978 -0.25078562 1.0010217
3.0316453 -2.7555933 -1.1534127 1.1363735 3.2008653 1.4650706 0.050511744 -3.3114672
0.76536864 -2.7346857 0.83441484 0.6330176 1.1647911 -1.82113 1.7252581 0.11575101
-1.5898573 0.5031488 1.2119497 0.8369258 2.6540365 2.085919 1.268244 1.575771
1.2450784 2.016662 2.9052985 0.30536285 4.369265 1.838598 1.6827991 2.4308798
2.5620298 3.0062478 -0.5313127 0.6892596 2.4753745 3.270948 2.3017156 1.7100959
2.8707368 0.2956697 0.36037043 3.52529 2.738715 2.2726767 4.2605906 2.3455482
0.3953065 1.3478085 2.298618 3.4043202 0.7588623 1.9964237 0.99472016 1.2423655
2.7706316 2.9140792 2.1907303 1.524581 2.42631 1.8792797 -0.284436 0.29455042
0.13722792 2.7871408 1.6871364 2.5027127 0.13443877 -1.2485039 1.6736661 0.6162214
-0.038937505 0.36752304 0.6224919 3.5913267 3.0858521 1.96193 -1.8670114 0.6946565
2.3220754 0.8951136 2.5463643 -3.326355 -2.9300976 -1.0062252 2.5290897 1.2047476
-0.54003525 1.2510877 -1.6910123 2.7496872 -0.5493388 -2.452581 3.3117762 -0.40081346
1.0653234 1.6210245 0.031681843 1.0321469 1.8119597 0.39314738 3.6835954 -0.96919847
-0.3378324 1.9847925 1.5991063 -1.151616 1.0040786 1.8314903 2.745521 3.5382128
0.05661691 -1.9583901 -0.82259125 2.06263 1.2257776 4.450134 1.5218756 1.8353821
1.1168078 -1.1028264 0.5959748 -1.864126 2.1440399 3.4002426 3.0878317 1.6987542
-0.71941316 1.2652252 2.5541704 2.5260293 1.0374134 1.8258464 5.149628 0.93275344
2.3148196 1.3297398 3.4874775 6.2739663 2.8039541 3.0782578 -0.6805728 4.098232
3.1342833 0.40237647 1.2260864 3.7021053 -0.79993576 -2.5887823 -0.56635034 0.8306721
-0.2475623 0.0121775 0.28674972 -0.39032933 -1.8248783 3.0280206 -2.4963727 -2.1572273
-1.9066446 2.8057034 0.9142145 1.2447375 1.1031061 2.7944694 1.5229442 1.9160197
-0.68413395 -0.872722 3.365532 -1.5731573 -0.74645567 -1.292999 -0.5054508 -0.4224227
1.7896248 -2.755385 0.70999175 2.3623197 1.2578161 -0.08716027 1.0148985 2.4629095
-1.5882369 0.79453504 1.8634111 2.049481 1.8218797 1.5805641 1.553595 1.3405443
-0.23337856 1.4330583 0.29407832 3.4982135 0.19706549 2.6525252 -0.20641434 -0.29239744
1.0134051 2.811223 2.3705707 -0.30992866 3.702561 1.1457212 1.4880589 -0.044269737
1.6620672 1.6066328 2.0869672 -1.9096463 -3.0747077 4.933279 4.0345564 0.885866
0.6019186 -1.5009786 -2.5251093 -0.20129897 -0.12645088 -3.5302277 0.34229052 2.382801
-0.7261469 0.94436157 0.3898697 -3.773802 2.3536825 1.5401384 2.194303 -0.13463421
-2.436197 2.8730798 -0.06636699 0.053828437 0.6285731 4.7711606 2.3184736 1.531294
00000000: 23a6 993f a343 57bf bbd8 1c3e 84e7 df3e
00000010: 12e7 1b3f 20b5 2940 5d7f 913f aa95 a93f
00000020: 1a85 c33f ea58 a13d 61e4 d1bf c700 a13f
00000030: 181d 4bbf ce1f 023f f966 80be 7b21 803f
00000040: 7a06 4240 a45b 30c0 07a3 93bf b074 913f
00000050: fada 4c40 6f87 bb3f 67e5 4e3d 14ef 53c0
00000060: 33ef 433f 1705 2fc0 369c 553f 710d 223f
00000070: e017 953f ca1a e9bf 42d5 dc3f de0e ed3d
00000080: 7280 cbbf 5cce 003f 2b21 9b3f c540 563f
00000090: bcdb 2940 b27f 0540 d255 a23f ddb2 c93f
000000a0: bb5e 9f3f fd10 0140 69f0 3940 8558 9c3e
000000b0: 05d1 8b40 2e57 eb3f f665 d73f 8993 1b40
000000c0: 4cf8 2340 5d66 4040 1c04 08bf 5173 303f
000000d0: 896c 1e40 3657 5140 4f4f 1340 6ce4 da3f
000000e0: 27ba 3740 0562 973e 7982 b83e 5a9e 6140
000000f0: 1b47 2f40 8973 1140 c256 8840 761d 1640
00000100: 9d65 ca3e fd84 ac3f 8f1c 1340 62e0 5940
00000110: cd44 423f d08a ff3f fba5 7e3f d505 9f3f
00000120: 0752 3140 4680 3a40 ed34 0c40 7825 c33f
00000130: aa48 1b40 3d8c f03f 98a1 91be 50cf 963e
00000140: 7a85 0c3e 8460 3240 16f4 d73f 722c 2040
00000150: 51aa 093e face 9fbf b13a d63f b0c0 1d3f
00000160: ef7c 1fbd fb2b bc3e a15b 1f3f 4cd8 6540
00000170: 9a7e 4540 8620 fb3f 3bfa eebf 02d5 313f
00000180: e29c 1440 2a26 653f a2f7 2240 00e3 54c0
00000190: b886 3bc0 fdcb 80bf 9bdc 2140 2b35 9a3f
000001a0: c03f 0abf a423 a03f 1773 d8bf e0fa 2f40
000001b0: 78a1 0cbf 16f7 1cc0 24f4 5340 6c37 cdbe
000001c0: 845c 883f bb7d cf3f d2c4 013d 641d 843f
000001d0: 4cee e73f 9d4a c93e 07c0 6b40 641d 78bf
000001e0: 5ef8 acbe ae0d fe3f 84af cc3f 2768 93bf
000001f0: a685 803f 466e ea3f 9eb6 2f40 1472 6240
00000200: 22e7 673d 87ac fabf 5795 52bf 2102 0440
00000210: 48e6 9c3f 7f67 8e40 d2cc c23f cded ea3f
00000220: 8ff3 8e3f 6a29 8dbf ce91 183f ae9b eebf
00000230: f337 0940 939d 5940 099f 4540 c770 d93f
00000240: 762b 38bf e6f2 a13f 8777 2340 77aa 2140
00000250: f6c9 843f 56b5 e93f c1c9 a440 eec8 6e3f
00000260: 0126 1440 ea34 aa3f d532 5f40 55c4 c840
00000270: fc73 3340 2d02 4540 053a 2ebf b724 8340
00000280: 1998 4840 4a04 ce3e 66f0 9c3f 4bef 6c40
00000290: 97c8 4cbf 9cae 25c0 56fc 10bf eda6 543f
000002a0: f980 7dbe 2384 473c dcd0 923e 3fd9 c7be
000002b0: 9d95 e9bf 17cb 4140 92c4 1fc0 0310 0ac0
000002c0: ee0c f4bf a590 3340 f609 6a3f 8f53 9f3f
000002d0: 9532 8d3f 96d8 3240 d6ef c23f 2240 f53f
000002e0: 6723 2fbf b66a 5fbf e064 5740 385d c9bf
000002f0: b817 3fbf fe80 a5bf 3965 01bf ca47 d8be
00000300: 6d12 e53f 3a58 30c0 05c2 353f 3f30 1740
00000310: 1e00 a13f 1581 b2bd 32e8 813f 4fa0 1d40
00000320: 594b cbbf a666 4b3f 4184 ee3f b22a 0340
00000330: 5b33 e93f ed4f ca3f 33dc c63f f596 ab3f
00000340: cafa 6ebe 746e b73f 6f91 963e bbe2 5f40
00000350: 89cb 493e f9c2 2940 485e 53be 1eb5 95be
00000360: 42b7 813f 14eb 3340 6eb7 1740 f8ae 9ebe
00000370: c2f6 6c40 fea6 923f b778 be3f 2f54 35bd
00000380: 9ebe d43f 25a6 cd3f df90 0540 4a6f f4bf
00000390: 03c8 44c0 6cdd 9d40 161b 8140 1dc8 623f
000003a0: 5617 1a3f 1120 c0bf 649b 21c0 5121 4ebe
000003b0: 577c 01be 40ef 61c0 b440 af3e d07f 1840
000003c0: c3e4 39bf aec1 713f 009d c73e f985 71c0
000003d0: bca2 1640 4123 c53f 766f 0c40 8ddd 09be
000003e0: a7ea 1bc0 8ae0 3740 6beb 87bd 357b 5c3d
000003f0: 2bea 203f 59ad 9840 df61 1440 7101 c43f

bias f4 [9]
6.817043 6.655495 6.78619 6.6515555 6.5851693 6.6129475 6.635062 6.847261
6.9106555
00000000: 3725 da40 d1f9 d440 7828 d940 8bd9 d440
00000010: b5b9 d240 449d d340 6e52 d440 c31c db40
00000020: 1724 dd40
