dev/pacman_2_500.pth (torch_old, 241248 bytes, 20 tensors)

weight f4 [16, 3, 5, 5]
000000 0b 59 72 bf 76 dd 4e 3e b6 ed ad 3e de 53 39 be
       -0.9466712 0.20201668 0.33970422 -0.18098399
000010 69 31 7b be ef 2a 10 3f 8f c1 27 bf ea 7c 4c 3f
       -0.24530567 0.5631551 -0.6552972 0.79878104
000020 07 71 3a 3f f4 d3 9c be a8 09 6d 3e 16 d9 76 bd
       0.72828716 -0.30630457 0.23148215 -0.060265623
000030 5b 4d 3c bf 16 4f e7 be 1c f0 e9 3e 9c 15 c2 bd
       -0.73555535 -0.45177525 0.45691 -0.09476778
000040 f4 7e 56 be e1 b5 6e bf 71 d7 70 3d e6 b6 97 be
       -0.20946866 -0.93246275 0.05879921 -0.29631728
000050 2e d9 83 bc 8a 5f cf 39 c9 3a 58 be e7 1b bf 3e
       -0.01609477 0.000395533 -0.21116175 0.37325975
000060 3d 5e 1c be 9d 7b 71 bf 7a 40 4b 3f 57 09 8a 3f
       -0.15270324 -0.94329244 0.7939526 1.07841
000070 25 58 fa 3d 8f 94 7c 3f 3c 3d 99 3e 40 ab 92 bf
       0.122238435 0.9866418 0.2992953 -1.1458511
000080 b4 15 ab bd 0d 47 c2 be 2b 5b 03 bd c1 87 67 3f
       -0.08353749 -0.37944832 -0.032069366 0.9044152
000090 b4 d9 d1 3d 31 89 47 bf 1b db 68 bf 56 d5 72 3f
       0.10246602 -0.7794371 -0.9095933 0.94856775
0000a0 fb 49 61 3f ad 0b 07 3f 28 c8 fa be 05 fe 2b 3f
       0.8800351 0.5275219 -0.48980832 0.6718448
0000b0 14 a9 80 3f 98 ff 31 3e f4 77 26 3f 03 ee 7f be
       1.0051599 0.17382658 0.65026784 -0.24993138
0000c0 08 b6 58 3f a4 63 2b 3e ce ba fb 3f 36 5a 2d bf
       0.8465276 0.16737229 1.9666383 -0.67715776
0000d0 5e d9 8a bf b2 d4 73 bf e4 90 cd 3e bb 37 99 be
       -1.0847585 -0.9524642 0.40149605 -0.2992533
0000e0 ec fc f0 3e e9 90 a6 3e 52 2c 8a 3f d3 5c 13 be
       0.47067964 0.32532433 1.0794775 -0.14390878
0000f0 37 8a 64 3e b0 bb 30 bf d2 bf 00 3f 82 3a 4f bf
       0.2231835 -0.6903639 0.50292695 -0.8094865
000100 12 1e c6 bc 32 82 d0 be c2 5f b8 be 97 52 89 3f
       -0.02418426 -0.4072433 -0.36010557 1.072833
000110 0c 04 b8 3c 5e 89 f5 3b ed ed b2 bd f6 a2 42 3e
       0.022462867 0.007493182 -0.08736787 0.19007477
000120 35 6e 7b 3e a5 e3 f0 bc b2 83 50 3d 44 b6 3e bd
       0.2455376 -0.029405424 0.050906844 -0.04656054
000130 90 eb 48 be c5 05 ad 3e 55 60 80 3f 42 7e 39 bf
       -0.1962111 0.33793464 1.0029398 -0.7245828
000140 ea ae e2 be 45 a0 e8 be c2 38 6c bf f7 47 5e be
       -0.44274074 -0.45434776 -0.92274106 -0.2170714
000150 75 32 1e 3f 00 a5 95 be 99 50 79 3e 1b b3 04 be
       0.6179574 -0.29227448 0.24347152 -0.12958948
000160 5f 19 99 be 29 f2 0c 3e c2 e8 44 bf 86 a7 b2 be
       -0.2990217 0.13764252 -0.7691766 -0.34893435
000170 a9 4c 12 bf be 2a 38 bf 46 b4 3b 3e f3 59 ec 3e
       -0.57148224 -0.7194022 0.18330488 0.46162376
000180 d9 bf 1b 3f bf 20 33 be 85 51 88 be f2 89 b3 3c
       0.6083961 -0.1749296 -0.26624694 0.021916363
000190 ab db b9 3d f6 d8 8d 3e 45 8f 62 3f 24 dc 90 3f
       0.090751015 0.2770459 0.8849986 1.1317182
0001a0 00 1a bd bd e0 aa f0 be 01 1b 9c 3e fc af d5 be
       -0.09233475 -0.47005367 0.30489352 -0.41735828
0001b0 bf 9a d1 be 3a c6 84 3f 3b 5e f3 be c8 ac da 3e
       -0.40938374 1.0372994 -0.4753283 0.42709947
0001c0 ab 56 07 bf fb d4 88 bd 73 ba f5 3e f0 d4 1d bf
       -0.5286662 -0.06681248 0.47993812 -0.6165304
0001d0 c9 76 54 3d b1 1c 9d be f9 97 05 3e c6 b1 64 3f
       0.051871095 -0.30685952 0.13046254 0.8933376
0001e0 b4 71 ac 3e 22 d1 07 3f 90 45 c3 be a3 64 5a 3e
       0.336805 0.53053486 -0.3813901 0.21327452
0001f0 72 79 a7 3e e0 4b 47 3f dc 0b 62 3d e4 c8 9c 3f
       0.32709843 0.7785015 0.05518709 1.2248807
000200 a1 cc 89 3d d9 4f 40 3f e6 62 64 bf e0 fe 3e 3f
       0.06728483 0.7512184 -0.8921341 0.7460766
000210 16 a7 07 40 00 f8 0b 3f 77 86 04 3f 18 10 17 bf
       2.119573 0.5467529 0.5176768 -0.5900893
000220 79 19 2a 3d 3d f0 bc bf 77 2f 7a be d6 39 43 3f
       0.0415282 -1.4760815 -0.24432169 0.76260126
000230 c4 05 98 3e 14 f5 da 3e 2e 9d 31 3e a6 53 43 3e
       0.296919 0.42765105 0.17345116 0.19074878
000240 c5 b2 83 3f a6 85 c8 bf ea 40 81 bf 25 e0 21 bf
       1.0288931 -1.5665786 -1.0097935 -0.6323264
000250 45 0a ac 3f 77 00 ab 3f ac 1a 42 bd 47 9c 53 3e
       1.3440634 1.3359517 -0.047388718 0.20665084
000260 27 b4 8f 3e ab 1f 3e bf 49 43 85 3e 5c 18 ad 3e
       0.28067133 -0.7426707 0.26027897 0.33807647
000270 bf 7d c1 be 27 52 71 3f 7a 0d 16 bf 22 12 37 3e
       -0.3779125 0.9426598 -0.58614314 0.17878011
000280 3b 12 93 3e 5b e4 3f 3c 0b 07 41 bf f2 31 cc 3d
       0.28724846 0.011712159 -0.7540137 0.09970464
000290 d3 15 b9 bd 8a 54 cc 3e 16 e8 f0 bd d3 5e 1b bf
       -0.09037366 0.39908248 -0.11763017 -0.60691565
0002a0 39 a4 50 3f 71 bf 19 bf 30 fb fa 3d 9f f2 17 3e
       0.81500584 -0.6005774 0.122549415 0.14838646
0002b0 44 5d 2f bf 9f f0 39 be 7a be 03 3f 1a fb 0a bf
       -0.6850169 -0.18158196 0.5146252 -0.542894
0002c0 44 b9 fb 3e 1d 29 4d 3f 56 2a 4b bf 85 1a 42 3e
       0.49164784 0.8014086 -0.79361475 0.18955429
0002d0 9d 1c 0e be db d2 f5 be 15 ac 5f 3f be 1f f1 be
       -0.13878103 -0.48012432 0.8737195 -0.4709453
0002e0 17 c5 5c be df 81 15 3f c5 98 22 3e d0 db 0f bd
       -0.21559559 0.5840129 0.1587859 -0.03512174
0002f0 07 13 28 3f 07 d6 c7 bd de 4f cb 3d 22 0e 5f bd
       0.65654033 -0.09757619 0.09927343 -0.054456837
000300 e2 e7 c2 be b5 41 b0 3f e8 5a 11 bf 6c 8a 2d be
       -0.38067538 1.3770052 -0.56779337 -0.16947335
000310 57 46 03 bf 9f 04 62 be 76 df c7 3d d5 f2 43 3f
       -0.51279205 -0.22072075 0.09759419 0.7654241
000320 04 8f a4 be e6 2f 9c 3e 67 63 9f 3d 6c a9 e0 3f
       -0.32140362 0.30505294 0.07782631 1.7551703
000330 31 55 b2 3f cb cb 79 3f 2d 75 1b 3f 1a fd a5 bf
       1.3932248 0.9757659 0.6072567 -1.2967865
000340 9b e5 32 3f 0f 54 07 3f 3c 0d 8a 3f 17 12 4a bf
       0.698816 0.5286264 1.0785289 -0.7893385
000350 ce 36 1f bf e6 21 08 bf 79 a2 b5 be de 3a de 3f
       -0.62193 -0.53176725 -0.3547552 1.7361715
000360 09 04 04 3e 87 72 39 3e 1e 9e 97 bf 01 9c 60 3f
       0.12892164 0.18110095 -1.1845129 0.87738043
000370 9e 97 c5 3f 87 b5 91 be 83 0a cd be 94 b9 cf be
       1.5436895 -0.28458807 -0.40047082 -0.40571272
000380 70 78 fb be 58 88 81 bf 2c ae 2a 3f 40 3f 95 3d
       -0.49115324 -1.0119734 0.66672015 0.072874546
000390 0e f6 68 be 75 0c 28 3f dd 25 81 3f 3e 2d 5f 3e
       -0.22750112 0.6564401 1.008968 0.21794602
0003a0 1d da ce 3e b9 46 5e 3f 5e 75 1f 3f 73 dd 07 3d
       0.40400782 0.86826664 0.62288463 0.033170175
0003b0 5c 0b 9a 3c a3 82 66 bf 2d 78 04 bf fe 95 b4 be
       0.018804245 -0.90043086 -0.51745874 -0.35270685
0003c0 f0 30 49 bf 91 90 44 be 5a 85 24 3f 7c 87 28 3f
       -0.785903 -0.19195773 0.6426598 0.6583173
0003d0 74 09 fa be 51 87 88 be 1c 61 06 3f 3f bd 0f be
       -0.48835337 -0.26665738 0.5249193 -0.14037035
0003e0 02 ec 47 be ea e2 62 3e 3d 81 92 bf 3c 02 f2 3e
       -0.19523624 0.22156873 -1.144569 0.4726733
0003f0 c8 b7 51 3e af e7 73 3e 70 a3 91 be 5a b8 4c 3f
       0.20480263 0.23818849 -0.28445005 0.799688

bias f4 [16]
000000 b8 4d 70 3d 62 16 19 3d 7a 12 73 be 74 e0 96 3e
       0.05866787 0.03737486 -0.23737517 0.2946812
000010 5d 0c 18 bf 71 e0 8e be 57 47 50 3d ef a5 96 bd
       -0.59393865 -0.2790561 0.050849285 -0.07355868
000020 bc 33 97 3d fe 22 33 3e b4 c7 30 3e c9 47 e3 bd
       0.073829144 0.17493817 0.1726368 -0.11097676
000030 87 fa a0 bd a9 ff ba be a0 d7 79 3d 7a 2d 96 bc
       -0.07860284 -0.36523178 0.06099665 -0.018332232

weight f4 [16]
000000 8f ca 1c 3f 46 2a 60 3f c8 98 fa 3e cc 1e 55 3f
       0.6124658 0.87564504 0.48944688 0.8325012
000010 7f d2 29 3f 38 6b 21 3f 1f c1 79 3f ca b0 8b 3f
       0.66336817 0.6305423 0.97560304 1.0913327
000020 74 a0 78 3f 46 ef 22 3f 7c d1 be 3e 60 9d 3e 3f
       0.9711983 0.6364635 0.372692 0.74458885
000030 ed c2 4b 3f 0d d2 5f 3f 8d 3e 72 3f d5 4e 98 3f
       0.7959431 0.8742989 0.94626695 1.1899058

bias f4 [16]
000000 da ab 4f bf c3 89 50 bf 35 25 e7 be 67 3a ff be
       -0.811216 -0.8146021 -0.45145574 -0.49849245
000010 0f a3 1c bf cf 79 e6 be fd 65 49 bf ec 40 4d bf
       -0.6118631 -0.45014808 -0.78671247 -0.8017719
000020 f4 46 25 bf b6 2f f4 be a0 5e 5b bd d7 52 58 bf
       -0.6456139 -0.4769265 -0.05355704 -0.84501404
000030 95 08 5f bf 92 22 69 bf 00 6d 59 bf 20 19 9e bf
       -0.8712247 -0.91068375 -0.84931946 -1.2351418

running_mean f4 [16]
000000 87 a1 8c 43 48 4f 2b 44 8c c1 36 44 11 e0 f8 43
       281.26193 685.2388 731.0242 497.75052
000010 ea 78 88 44 99 13 c8 c3 70 46 c9 43 a3 a9 05 c4
       1091.7786 -400.1531 402.5503 -534.6506
000020 87 78 fd c4 9b 95 86 c4 3e 9e a9 42 12 64 95 43
       -2027.7665 -1076.6752 84.80907 298.7818
000030 f9 de 88 44 05 7b a3 44 85 66 95 44 f2 10 00 44
       1094.9679 1307.8444 1195.2037 512.2648

running_var f4 [16]
000000 12 bf 98 46 cc a3 9a 47 bb 82 16 46 45 a3 26 47
       19551.535 79175.59 9632.683 42659.27
000010 9c 1e 6e 46 e6 86 33 46 a7 5d 38 47 f1 31 fd 47
       15239.652 11489.725 47197.652 129635.88
000020 d2 4e aa 47 8c 51 87 47 ff be 52 46 e6 cf d3 46
       87197.64 69283.09 13487.749 27111.95
000030 69 f6 c3 46 61 0c a4 46 28 42 ff 47 51 be d4 47
       25083.205 20998.19 130692.31 108924.63

weight f4 [32, 16, 5, 5]
000000 91 bc d5 be 41 3d 46 be 81 87 3d bf 04 60 aa 3e
       -0.41745427 -0.19359304 -0.7403489 0.3327638
000010 99 81 83 be e8 d9 50 3d 69 0d 71 3f 47 a8 5f 3e
       -0.25684813 0.05098906 0.9416109 0.21841536
000020 c7 cf 67 be 0c 38 6b bf cc af c3 be 38 c5 21 bf
       -0.22637855 -0.91882396 -0.3822006 -0.63191557
000030 05 20 0f 3f bf 86 96 3d 5f bc 14 3f 44 81 29 be
       0.5590823 0.073499195 0.5809993 -0.16553217
000040 55 2f 11 be 23 2c a6 3e 9c 26 36 be 94 4d 22 3f
       -0.14178212 0.3245555 -0.17788166 0.63399625
000050 58 b0 d2 3e bf 4d 0e 3f 07 a0 6e bf 41 ba c5 be
       0.41150165 0.5558738 -0.9321293 -0.38618663
000060 ac cc cd bd 67 2e b7 bf 67 2b 12 bf a5 8a 15 bf
       -0.10048804 -1.4311036 -0.57097477 -0.5841468
000070 fd 58 ce be 7b de a5 be 20 94 03 bf 58 f3 59 3e
       -0.40302268 -0.32396302 -0.51397896 0.21284235
000080 02 59 a0 3d 0e d7 1a be 92 bc 94 3d 20 cd e7 3e
       0.07829477 -0.151211 0.072625294 0.45273685
000090 0e 6c 92 be 89 0b fc be a3 65 3b bf ec cb 52 3c
       -0.28598064 -0.4922755 -0.7320196 0.012866002
0000a0 12 fa d6 bc 55 9f ab bf ee 51 b8 3f 4d 7c 64 3f
       -0.02624229 -1.3407999 1.4400003 0.8925217
0000b0 b9 27 bd 3e ed 19 50 bf 2e 5b 39 3e 21 5b df be
       0.36944368 -0.8128956 0.18101189 -0.43624213
0000c0 31 ee 45 bf c5 4f 9e 3e 9e c1 0f bf 84 59 17 be
       -0.77316576 0.30920234 -0.5615481 -0.14780241
0000d0 b9 b4 cd 3d 47 36 54 bf 49 be 66 bf c0 77 14 3f
       0.10044236 -0.8289532 -0.901341 0.57995224
0000e0 df 58 d0 3e cc 08 62 3e 42 f9 20 3e a4 eb f2 bd
       0.40692803 0.22073668 0.15720084 -0.11861351
0000f0 59 5e 11 bf b0 fc 1d 3e 96 3d 5f 3f 40 9e 07 3f
       -0.5678459 0.15428424 0.8720335 0.52975845
000100 7f 8e 91 3e c9 b3 0e bf ef e7 0f 3f 9f b4 7e bf
       0.28429028 -0.5574308 0.5621328 -0.99494356
000110 76 6d 7c 3e e6 7e 01 3f 1c 4a 42 be 0a 0d 16 bb
       0.24651131 0.50584257 -0.18973583 -0.0022895955
000120 7d 92 99 3f 28 fd de 3d 1a 5f 2b be 27 c6 5f bc
       1.199783 0.108881295 -0.16735497 -0.013658083
000130 50 54 a4 3e 49 79 06 bf 14 41 74 3f a3 ee f5 be
       0.32095575 -0.52528816 0.954118 -0.48033628
000140 1a 8b 86 be 15 f1 07 3f 12 6f 4f 3f 21 70 63 bf
       -0.26278 0.53102237 0.81028855 -0.8884297
000150 d4 76 fb bb 2d 06 27 bf 03 c2 df 3c 2f 6e 64 bf
       -0.0076740775 -0.652438 0.027314192 -0.89230627
000160 3f 5a 2f bf 9b c5 0a 3f fd da 87 3d 72 e1 a5 bf
       -0.6849708 0.5420777 0.066335656 -1.2959425
000170 96 db 5b 3f 01 4a 0d 3f fc b0 3c bf a7 b3 06 bf
       0.85881937 0.55191046 -0.73707557 -0.5261788
000180 08 47 2e 3e ac a7 f5 be a8 e6 70 3d de cf 0b bf
       0.17019284 -0.47979486 0.05881372 -0.54614055
000190 5b 7a 91 3e 83 9e 31 3e 91 f5 65 bf 99 b1 3e bf
       0.28413662 0.17345624 -0.8982783 -0.7448974
0001a0 a8 92 4c be d1 11 3a 3e 7a 01 4c 3f 3c e3 dc 3e
       -0.1997782 0.18170859 0.79689753 0.43142116
0001b0 00 59 0b be a8 8f 06 3f 93 f2 5b 3f 8d 9c 59 bf
       -0.1360817 0.5256295 0.85917014 -0.850045
0001c0 07 87 5f be 6b ea 0c 3f 7b c3 d5 3d 88 09 4e bf
       -0.21828853 0.55045193 0.104376756 -0.80483294
0001d0 82 47 f4 be 02 72 3e 3e 12 8b 23 bf a1 e7 26 3f
       -0.47710806 0.18598178 -0.6388408 0.6519719
0001e0 64 9c ba bf c5 37 05 3f 82 94 42 3f 75 dc 0e bf
       -1.4578977 0.5203822 0.76007855 -0.5580514
0001f0 3d 2b ce bf f1 1e 08 3e 21 5f e2 3d 78 23 0b bf
       -1.6106945 0.13293053 0.11053301 -0.54350996
000200 25 5a 4d 3f f9 41 29 be b9 04 27 3f fb fe 6d bf
       0.80215675 -0.16529073 0.6524158 -0.92967194
000210 84 4d 14 3f fc 0d ad be 57 74 16 bf 21 c6 2d bf
       0.5793078 -0.33799732 -0.5877127 -0.67880446
000220 15 55 1a 3e 56 23 be bd e3 10 73 be 82 49 10 bf
       0.15071519 -0.092840835 -0.2373691 -0.56362164
000230 ee 94 2e 3e 95 29 28 bf 02 c4 5e be 8e 0a 38 3f
       0.17049 -0.6568845 -0.21754459 0.71891105
000240 6e 2c ba be f4 ab 4a 3f 81 61 2f be 3e 02 8d 3e
       -0.36362022 0.7916863 -0.17127039 0.27540773
000250 0d 43 b8 bf cb 85 8f 3e 23 37 c9 be 75 c5 85 3e
       -1.4395462 0.28031763 -0.39299878 0.2612721
000260 2b ec d4 bf 72 15 56 bf 1e ea 27 bf 4a 35 46 3e
       -1.6634573 -0.8362647 -0.6559161 0.19356266
000270 14 b3 8b bf 39 22 a4 3e dd 87 64 3e 35 f4 82 be
       -1.0914025 0.3205736 0.22317453 -0.2557694
000280 78 0b 3f 3e 26 bb 9f 3d 67 b7 a7 bd 6f a5 09 bd
       0.18656719 0.077993676 -0.08189278 -0.033605035
000290 91 dc 19 bf 11 73 c6 3e c9 20 6b 3d 20 fe 25 3f
       -0.6010218 0.38759664 0.057404313 0.6484089
0002a0 bc 1c 15 3f 67 eb 49 bf 4b 36 19 3f 00 48 aa bf
       0.5824697 -0.7887482 0.5984847 -1.3303223
0002b0 ca ef 21 be 7e b6 c2 be b6 9a a3 3e 9f aa 04 c0
       -0.15814129 -0.38029855 0.31953973 -2.072914
0002c0 7e 35 41 bf 96 af a2 bf f7 db 3d bf 07 f1 26 3f
       -0.7547225 -1.2709835 -0.74163765 0.6521153
0002d0 19 2c 8d be 55 fa 66 3f 1d 4e 87 3d 94 c6 76 3e
       -0.27572706 0.90225726 0.06606696 0.24099189
0002e0 77 7f f2 be 98 1b 4f bf d8 ec fc 3e 2e 8f 54 3f
       -0.47362873 -0.8090148 0.49399447 0.83030975
0002f0 35 3f 6a 3f 28 34 da bd 18 a6 1e 3f 86 d9 87 3d
       0.91502696 -0.10654479 0.6197219 0.06633286
000300 10 22 03 be 66 9e 9b 39 aa bc 15 be f5 95 05 bf
       -0.12805963 0.0002968192 -0.14622751 -0.5218194
000310 14 f2 7c 3e 2f 92 ba 3d 95 ac a2 be 85 89 c8 3e
       0.2470172 0.091099136 -0.31772295 0.3916742
000320 d7 5a 78 3c 02 b4 fa be 50 f1 db be 56 1a c6 3e
       0.015158377 -0.4896546 -0.42957544 0.38691968
000330 56 96 a7 bd b1 7f c6 be 94 d6 bf be ca a1 7b 3e
       -0.08182971 -0.38769296 -0.37468398 0.24573436
000340 e5 c1 04 be ee b5 90 bd ba 94 4f be 15 0d 14 bf
       -0.1296459 -0.0706595 -0.20271578 -0.5783246
000350 3b 9c 48 be 83 b4 99 be b3 e5 c0 bf 42 1a 33 3d
       -0.19590847 -0.30020532 -1.5070099 0.043726213
000360 f7 56 09 bf f9 31 c1 be 41 cf 5d 3f fe f2 36 bf
       -0.5364832 -0.3773344 0.8664437 -0.71464527
000370 24 32 06 be 01 7f 6b bd 26 29 5a bf a7 40 18 3f
       -0.13105065 -0.057494167 -0.8521904 0.5947365
000380 3a ba 86 bf bf 81 86 3e e6 b0 01 3e b5 e5 64 3e
       -1.0525582 0.26270863 0.12665138 0.22353251
000390 6e bc 96 be 16 e2 97 3d f0 6e 03 be c5 85 ac bf
       -0.29440635 0.07416169 -0.12835288 -1.3478323
0003a0 a5 9a a3 3e c5 1f af bf 1d 4f a8 3e dc af 2e bc
       0.31953922 -1.368157 0.3287286 -0.010662045
0003b0 8d e3 f6 3e 4b 2d e6 3e 6b ab d9 3e ce ba d7 be
       0.48220482 0.4495643 0.42513594 -0.42134708
0003c0 f6 7a 50 be ed 74 8b bf 8b 48 fd 3e f9 2d d6 be
       -0.20359406 -1.0895058 0.49469408 -0.4183195
0003d0 74 a9 e6 be 27 56 fe be 5f 06 ce be 7c 7f 02 bf
       -0.45051157 -0.49675104 -0.40239236 -0.50975776
0003e0 76 a3 6a 3d 98 00 9b be 4e 79 b4 3e 90 89 99 3e
       0.057284795 -0.3027389 0.35248798 0.29987764
0003f0 48 e3 0c 3f b3 27 0e 3f 1a 95 7f 3d 76 06 02 bf
       0.55034304 0.55529326 0.062398054 -0.5079111

bias f4 [32]
000000 c1 19 21 bf 1c 2d 01 3e b3 f7 9b 3c 31 2a 66 3e
       -0.6292992 0.12614864 0.01903901 0.22477032
000010 38 fc 04 3f 7f 48 bd 3e 13 3c 1d 3f e6 1e 48 bf
       0.51947355 0.36969373 0.6141979 -0.7817215
000020 bd ce 9f be 03 6f 87 be 8e 1f 6d 3e c3 b7 78 be
       -0.31212416 -0.26451883 0.23156568 -0.2428885
000030 d8 a3 a8 3e a7 71 a6 bd 1a fc 0e be e7 a0 ea bd
       0.32937503 -0.08127146 -0.13963357 -0.11456471
000040 a8 ab 57 3f b2 e9 eb be 22 2b ac 3e 45 ad 2c bf
       0.842463 -0.46076733 0.33626658 -0.6745189
000050 df 4b 15 3f b8 39 07 3e e2 a1 b6 3e 55 ed 8a 3e
       0.58318895 0.13205612 0.35670382 0.27134195
000060 3a 67 21 3d 1c 02 33 bf 3d cc aa 3e 92 f4 a8 be
       0.039405085 -0.69925094 0.33358946 -0.32999092
000070 3a 1d 3a 3e 54 81 9e 3e e7 15 25 3f ef 69 c8 be
       0.18175212 0.30958045 0.64486545 -0.3914332

weight f4 [32]
000000 4f 80 43 3f be d3 2d 3f 1f 37 37 3f 65 42 32 3f
       0.7636766 0.6790122 0.71568483 0.6963256
000010 b3 08 11 3f 57 c1 34 3f b1 13 0d 3f e5 aa 0e 3f
       0.566539 0.70607513 0.5510817 0.55729514
000020 41 6f 1d 3f 74 5d 38 3f a3 79 38 3f b6 81 04 3f
       0.61497885 0.720176 0.720606 0.51760423
000030 d1 93 18 3f 93 84 10 3f 37 ba 1a 3f 75 29 44 3f
       0.5960055 0.5645229 0.6044039 0.7662576
000040 5f b7 30 3f 89 2f 17 3f c4 a7 19 3f d1 fe 37 3f
       0.690298 0.5905691 0.60021615 0.71873194
000050 ab a3 31 3f b1 6f 2d 3f 67 63 08 3f 2d a1 17 3f
       0.6939036 0.6774855 0.53276676 0.5923031
000060 7d 6e 21 3f e9 12 1e 3f 71 21 41 3f ef d2 08 3f
       0.63059217 0.61747605 0.7544165 0.5344686
000070 99 dd 15 3f eb 0e 28 3f 80 c8 3e 3f 38 ef 1a 3f
       0.58541256 0.65647763 0.7452469 0.6052127

bias f4 [32]
000000 1a 3b 8e bf c9 67 95 bf 1d 29 9d bf b9 90 89 bf
       -1.1111786 -1.1672298 -1.2278172 -1.0747291
000010 27 b9 35 bf 8d 86 62 bf 8a c5 4e bf 5c da 46 bf
       -0.70985645 -0.8848656 -0.8077017 -0.7767694
000020 8c a4 72 bf bc 1a 84 bf f7 2f 91 bf 23 26 2d bf
       -0.9478233 -1.0320659 -1.1342763 -0.67636317
000030 26 7f 2d bf ba 55 13 bf 0a 47 42 bf 74 9f 97 bf
       -0.6777214 -0.57552683 -0.75889647 -1.1845536
000040 dd 44 82 bf 9f a9 56 bf 5e 6a 76 bf a1 1b 82 bf
       -1.0177265 -0.8385257 -0.96256053 -1.0164682
000050 4d 8f 79 bf 40 a3 78 bf fe c8 4b bf 9c 31 51 bf
       -0.97484285 -0.971241 -0.79603565 -0.8171632
000060 01 e4 1e bf f9 dd 3f bf 90 06 95 bf 88 91 34 bf
       -0.62066656 -0.7494808 -1.1642628 -0.70534563
000070 7a d5 22 bf b5 c5 61 bf 43 08 7d bf af 3f 7b bf
       -0.6360699 -0.881923 -0.9884073 -0.9814405

running_mean f4 [32]
000000 d4 9f 57 c0 00 74 e9 bf fb 61 2b bf 29 ce f3 bf
       -3.3691301 -1.8238525 -0.6694638 -1.904729
000010 90 90 5d bf ba 94 60 bf 36 df e5 bf b4 57 04 c0
       -0.8654871 -0.8772694 -1.7958744 -2.067853
000020 7f 19 24 c0 43 75 e3 bf a4 4f 7c bf a2 02 f9 bf
       -2.5640562 -1.777016 -0.9855902 -1.9453928
000030 18 28 87 bf a0 26 12 c0 ce 23 d1 bf 3a cc d8 bf
       -1.0559111 -2.2836075 -1.6339052 -1.6937325
000040 c7 a1 a3 3c ab 8a e4 be 00 d8 d9 be f5 eb c0 bf
       0.019974602 -0.44637045 -0.42547607 -1.5072008
000050 4a e4 03 c0 24 04 18 c0 ca 9d 95 3e 6e 80 6c bf
       -2.0608087 -2.3752527 0.29221946 -0.9238347
000060 50 0b cc bf b1 00 2c c0 3e 6b cd bf e5 57 d2 bf
       -1.5940952 -2.6875422 -1.6048353 -1.6433073
000070 6f 6d e4 bf eb 73 1b c0 1f d4 be bf 32 0a 26 bf
       -1.7845896 -2.42895 -1.4908484 -0.64859307

running_var f4 [32]
000000 60 e4 ca 40 fc 2b 9a 40 04 ee d8 40 b3 be a6 40
       6.340378 4.817869 6.7790546 5.2107787
000010 33 7d 9a 40 d0 88 ee 40 b8 aa a3 40 48 47 93 40
       4.827783 7.4542007 5.1145897 4.6024513
000020 c3 33 83 40 e8 76 dc 40 e3 69 d0 40 32 a4 a5 40
       4.1000686 6.889515 6.5129256 5.1762934
000030 31 4d d1 40 3b 59 c6 40 02 4b b0 40 9f 13 fc 40
       6.540673 6.1983924 5.509156 7.877395
000040 1a a5 cf 40 5c 16 ef 40 7c 99 e2 40 58 f7 cc 40
       6.488904 7.4714794 7.081236 6.4051933
000050 c5 1f a7 40 1d 02 a5 40 91 81 b0 40 30 b1 c2 40
       5.222628 5.156508 5.515816 6.0841293
000060 90 aa 98 40 3d af e7 40 ce 31 b3 40 b3 6f a6 40
       4.7708206 7.2401414 5.5998297 5.201135
000070 5a 68 00 41 d1 ff b0 40 39 1f bd 40 cd 0e cd 40
       8.025476 5.5312276 5.9100614 6.4080567

weight f4 [32, 32, 5, 5]
000000 08 86 08 3f b7 fc 9a be d3 a3 06 3f 5c d5 eb bd
       0.53329515 -0.3027093 0.52593726 -0.115153044
000010 40 bb b7 3d 96 9c b2 3e e4 a0 67 bf 2a 38 a3 3d
       0.08971262 0.3488509 -0.90479875 0.07969697
000020 ab 1a 4c bf 2a 69 84 3e 39 eb 01 3f 8d 3c 56 be
       -0.7972819 0.25861484 0.50749546 -0.20921536
000030 75 74 18 bd 9a 99 c0 bd ba 9b e7 bd 63 27 21 3f
       -0.037220437 -0.09404297 -0.11308999 0.62950724
000040 9b db 3b 3f d2 ee 30 bb f8 96 88 be dc 1d 96 3e
       0.73381966 -0.0026997817 -0.2667768 0.29319656
000050 e1 82 30 bf 56 6b 05 3d 4d 23 9d 3e 4e 01 fe be
       -0.68949705 0.032573067 0.30690995 -0.4961037
000060 69 fe da 3e 35 00 04 bf 62 d1 a9 3e d1 f7 06 bf
       0.42772225 -0.51562816 0.3316756 -0.5272189
000070 56 4f 42 3f cb 76 69 3e 4c c5 bb bf 4a 43 56 3f
       0.7590231 0.22799222 -1.4669585 0.83696425
000080 a9 2e 37 bf 01 19 36 be c8 be 32 bd f2 9f 5c 3f
       -0.7155557 -0.17782976 -0.043638974 0.8618156
000090 e8 90 9c be 1c 20 02 3f 7d 86 8e 3e 53 bf d1 bf
       -0.30579305 0.50830245 0.2783698 -1.6386513
0000a0 49 0b d1 be 7c b9 89 3e cd fd 06 bf 42 ae 5d be
       -0.40828922 0.26899326 -0.5273102 -0.21648505
0000b0 85 5b 2c bf 4d 6b 4e 3f c7 df b2 be 1e 72 25 3f
       -0.6732715 0.8063248 -0.34936354 0.64627254
0000c0 25 9a 8c 3e fe 35 23 3e be b7 f2 3e 59 d4 55 3e
       0.27461353 0.15938565 0.4740581 0.20881785
0000d0 5e 10 ec be 13 94 51 bf 36 dc c1 bd 07 68 d0 3d
       -0.46106237 -0.8186657 -0.0946583 0.10176092
0000e0 87 ef cf 3e 51 5b 55 3f fc 8d b9 be b4 57 5a bf
       0.40612432 0.8334246 -0.36241138 -0.85290074
0000f0 a5 75 59 bf fe 77 8c 3f a5 43 91 be dd 43 9d bf
       -0.84945136 1.0974119 -0.2837192 -1.2286335
000100 d5 75 20 be 31 74 83 bf 2c 03 87 3f ec 63 70 3f
       -0.1566995 -1.0269834 1.0547843 0.9390247
000110 0c 85 ec be 34 83 b9 bf 69 2e 9f bf 2f 68 a4 bc
       -0.46195257 -1.4493165 -1.2436038 -0.02006921
000120 6b 4f 66 3e fb d9 95 3e d7 8f fa be a2 2d f6 3c
       0.22491233 0.29267868 -0.48937866 0.030051056
000130 81 93 08 bc 14 ea 89 be b6 b1 ac bd a9 1b 79 bf
       -0.008335949 -0.269364 -0.08432333 -0.9730783
000140 f6 fe 51 3f 18 f3 90 bd 4a ef f7 3d 9f fd c8 be
       0.82029665 -0.070776165 0.12106188 -0.39255998
000150 80 10 09 3f d7 73 06 bf 59 bd 7c be 2c cb 20 bf
       0.535408 -0.5252051 -0.24681605 -0.62810016
000160 0b c7 1d be 3f 11 31 bc e3 2c 39 be b6 e4 c8 3e
       -0.1540796 -0.010807334 -0.18083529 0.39236993
000170 e8 db ac 3d 3e a4 e7 3c 53 83 c3 be c9 b4 3a bf
       0.08440381 0.028276559 -0.3818613 -0.72932106
000180 38 c7 0f bf 37 6c e4 3d a8 06 4a 3e 11 38 48 bf
       -0.5616336 0.11153453 0.19729102 -0.7821055
000190 68 47 81 3e e1 b7 2e bf 0d 24 0d 3e d2 2b bd 3e
       0.2524979 -0.68249327 0.13783284 0.36947495
0001a0 d8 ee 1e 3f 34 4a ba be 30 9c a2 3e 2c 29 d2 bd
       0.62083197 -0.36384737 0.31759787 -0.10261759
0001b0 33 9d 17 3f 0a 32 65 bf 86 0d 31 bf dc 4a f8 3c
       0.5922424 -0.8952948 -0.6916126 0.030309133
0001c0 8c 28 2d bf 0c 5a 2e bd 3d f2 2c bf 87 0b 33 3f
       -0.67639995 -0.042566344 -0.67557126 0.69939464
0001d0 91 5c 31 bf 92 4b 83 3f d9 be dd 3e 3f f2 84 be
       -0.6928187 1.0257437 0.43309668 -0.2596607
0001e0 61 ca b7 bf c2 15 22 bf a8 b5 a2 be 88 d0 96 bd
       -1.4358636 -0.6331445 -0.31779218 -0.07363993
0001f0 68 6b 6d be 1d cd 2f c0 7b 21 5e bf 0f 89 2d bf
       -0.23185503 -2.7468941 -0.8676984 -0.6778726
000200 36 22 11 3e 49 07 82 3e 15 2a 25 3e 75 72 e6 3e
       0.14173207 0.25396183 0.16129334 0.450092
000210 b7 ad 1c 3f 94 5c 2d be 2f de a9 bc 00 8b ce be
       0.6120257 -0.16929847 -0.020735828 -0.40340424
000220 74 81 8f be bc 27 b7 3e 83 23 d3 3e 72 c8 d6 be
       -0.28028452 0.35772502 0.4123803 -0.41949803
000230 19 be 10 bf 1c 61 25 bf b0 c4 15 3d 41 52 0d be
       -0.56540066 -0.646013 0.03656453 -0.13800909
000240 18 95 24 3e 6c e1 90 3f c1 bd 41 be 32 7f 57 bf
       0.160725 1.1318793 -0.18920042 -0.8417846
000250 51 7b ae 3f 63 70 6a bf c6 49 99 3e b6 75 13 bf
       1.3631383 -0.9157774 0.29939097 -0.5760149
000260 5e a3 88 be 14 75 19 bf 9b 66 be 3e 4f 1e 28 bf
       -0.2668714 -0.5994427 0.37187657 -0.6567125
000270 1f 62 64 3e 00 95 4d 3f 19 ad 2d bf 9d 1e 2c 3f
       0.22303055 0.8030548 -0.6784225 0.6723421
000280 11 6a 2b bf e0 c4 59 be 3f f8 f3 be f9 a8 5e 3e
       -0.6695872 -0.21266508 -0.47650334 0.21744145
000290 2e cd 08 be 8b a6 62 bf 51 22 15 be e0 64 a3 bd
       -0.1335952 -0.88535374 -0.14563872 -0.07978225
0002a0 f3 70 01 bf a9 0d 65 bf 19 af 74 3f 33 d2 c7 bf
       -0.5056297 -0.8947397 0.9557968 -1.5611023
0002b0 28 98 97 bf 43 a9 67 bf 23 6a 50 bd 55 8c f5 bf
       -1.1843309 -0.9049265 -0.05088247 -1.9183451
0002c0 b7 e6 89 3d 42 96 33 3d 71 6f 6e bf cc 75 c3 3d
       0.067334585 0.04384447 -0.93138796 0.09543952
0002d0 29 c5 48 bf 10 92 51 bf 8c 17 3c bd 25 3d 80 3f
       -0.7842584 -0.818635 -0.045920894 1.001866
0002e0 6f c3 07 be f0 35 f9 bc c7 6a a4 be 2a 8b 5a 3d
       -0.13258146 -0.030421227 -0.32112715 0.053355373
0002f0 f7 12 62 bf 3f 05 e4 3e f3 84 b7 bd 0d c3 3d 3f
       -0.8831019 0.44535252 -0.08960905 0.7412575
000300 63 73 82 be 37 f3 a0 bf 7a 74 7f 3d 2f cc a3 3f
       -0.25478658 -1.2574223 0.06236694 1.2796687
000310 97 ca 5a bf b7 1a c3 be e6 95 92 be 39 38 23 bf
       -0.8546538 -0.3810632 -0.28629988 -0.63757664
000320 45 54 17 3d 5e 26 0a bf 8c be 20 be fa 32 83 3f
       0.0369456 -0.53964794 -0.15697688 1.0249932
000330 ea 8d ba bf cc f4 5f bf 78 05 dd be 2b 7c 78 bf
       -1.4574559 -0.87482905 -0.43168235 -0.97064465
000340 c2 2b 74 3e 68 f7 2d 3f b1 3a d7 3d 12 01 8b bf
       0.23844817 0.67955637 0.10509241 -1.0859702
000350 ee ba 10 3f 73 2c 7b bf aa 4c 0a bf b3 09 98 be
       0.5653523 -0.981147 -0.5402323 -0.296949
000360 8e 6d 6d 3f 08 d6 40 bf 8a 20 19 3f 09 3e 0b bf
       0.9274529 -0.75326586 0.59815276 -0.54391533
000370 05 a9 61 bf a8 91 47 3e c5 09 b2 3c 52 bf 81 3d
       -0.8814853 0.19489157 0.021733174 0.063353196
000380 cd 59 a8 bb 43 d6 1a 3f 1e 60 d9 be 57 4b 6d 3f
       -0.005137658 0.6048319 -0.42456144 0.92693084
000390 4c 17 87 be c5 63 ba bf 9a 92 92 3f 1c 5c 03 3f
       -0.26384962 -1.4561697 1.1450989 0.5131242
0003a0 90 16 34 bf 32 9b 20 3f 47 f7 a1 3e 7f 8e 4c 3e
       -0.7034693 0.6273681 0.3163397 0.19976233
0003b0 11 0f 8d 3e 98 47 36 3f bb a3 85 3e 83 2e 54 3e
       0.27550557 0.71202993 0.2610148 0.20720868
0003c0 3c 6e 30 be 47 b3 bc be c1 74 c3 bd 32 1c 50 bf
       -0.17229551 -0.36855528 -0.095437534 -0.8129302
0003d0 1e 03 f3 3e 89 9b c6 3e 5a 6f d2 be 17 1f d9 3e
       0.47463316 0.3879054 -0.4110058 0.42406532
0003e0 79 99 88 3e 55 99 95 bf 17 38 9a 3e cb e6 55 3f
       0.2667959 -1.1687418 0.30120918 0.8355529
0003f0 b7 15 2e 3f 58 a6 5c bf 11 58 fe bd d6 c4 eb 3d
       0.68001884 -0.8619132 -0.12419141 0.11512153

bias f4 [32]
000000 9e fa 90 3e 99 90 18 be 91 f6 36 3e db dd e0 3e
       0.28316206 -0.1489891 0.17867495 0.43919262
000010 ca 11 c5 3e 34 e4 5c be c2 c2 1d 3d fc d3 d7 3d
       0.38490134 -0.21571428 0.038515814 0.1053848
000020 91 02 da 3e 1f 59 d7 3e 9a 98 04 3f a7 8e 06 3f
       0.42580083 0.42060181 0.5179535 0.5256142
000030 18 cb 30 bf a4 19 83 3e 4b 36 23 3e d2 05 40 3f
       -0.69059896 0.256055 0.1593868 0.7500888
000040 a5 66 d0 be 26 3d 4b 3d 87 68 7b 3e 23 8d 4c be
       -0.40703312 0.049618863 0.24551593 -0.19975714
000050 5e 15 bd 3c 8f 8a 29 3e 38 f0 8e 3e f6 ab 95 bb
       0.023081478 0.16556762 0.27917647 -0.0045676185
000060 4e cf 51 3e 71 e0 69 3e c1 a6 0d 3f 68 73 84 bc
       0.20489237 0.22839524 0.5533257 -0.016168311
000070 bf 49 44 3e f3 80 a8 3e 33 d7 f2 bd 39 e5 55 3e
       0.19168757 0.3291088 -0.11857452 0.20888223

weight f4 [32]
000000 c7 d0 c1 3f 1b 2e e1 3f b9 f3 d8 3f ea 5a e5 3f
       1.5141839 1.7592195 1.6949378 1.791837
000010 19 06 04 40 2d aa c6 3f 57 67 d3 3f 61 1b ea 3f
       2.0628722 1.5520684 1.6515912 1.8289605
000020 4a 08 fa 3f 33 10 01 40 4f 23 cf 3f 03 dc db 3f
       1.953378 2.0166137 1.618265 1.7176517
000030 50 90 b8 bf 93 84 ab 3f 5a 68 04 40 eb 15 4c 3f
       -1.4419041 1.3399833 2.068869 0.79720944
000040 71 c0 0a 40 b9 4c be 3f 93 52 b2 3f ba a9 b0 3f
       2.1679957 1.4867164 1.393145 1.3801796
000050 27 20 fa 3f 40 63 d4 3f a8 a2 eb 3f 01 ab d0 3f
       1.9541062 1.6592789 1.8409014 1.6302186
000060 7c 8f c9 3f bf 38 d9 3f 5d 29 c0 3f df cb cb 3f
       1.5746913 1.6970443 1.5012623 1.5921592
000070 1a 4c dc 3f 48 1b ee 3f 2d 4a e6 3f 4b be cb 3f
       1.7210724 1.8602076 1.7991387 1.5917448

bias f4 [32]
000000 c0 e9 dc bf 7b 29 f7 bf 1a 3d f1 bf 96 ba e7 bf
       -1.7258835 -1.9309534 -1.8846772 -1.8103817
000010 1a f3 15 c0 48 94 dc bf af a0 e0 bf 2d 2a 00 c0
       -2.3429627 -1.7232752 -1.7549037 -2.0025742
000020 5b ef 0c c0 cd 1c 14 c0 e1 c9 f7 bf fa c3 e4 bf
       -2.202109 -2.3142579 -1.9358484 -1.7872307
000030 07 42 bb bf 69 f5 c0 bf df d0 18 c0 bf 03 02 be
       -1.4629525 -1.5074893 -2.3877485 -0.12696742
000040 00 9a 20 c0 90 65 dd bf 97 09 a9 bf 3a 69 a9 bf
       -2.5093994 -1.729662 -1.3206052 -1.3235238
000050 e5 36 02 c0 3e e7 fb bf 3e 1e 0e c0 33 a2 e7 bf
       -2.0346005 -1.9679945 -2.2205958 -1.8096374
000060 5c 42 d8 bf b7 ee f5 bf 78 8e e1 bf 2d 14 f8 bf
       -1.6895251 -1.9213475 -1.7621603 -1.9381157
000070 c0 de e7 bf 4b 97 15 c0 23 c0 13 c0 33 16 fb bf
       -1.8114853 -2.3373592 -2.308602 -1.961615

running_mean f4 [32]
000000 9b 8d a8 bf 66 4a e2 bf 84 5f ac bf aa 46 81 bf
       -1.3168215 -1.7678955 -1.3466649 -1.009969
000010 44 ec b8 bf 1b 68 ba bf 99 9b ac bf 28 82 df bf
       -1.4447103 -1.456302 -1.3484985 -1.7461596
000020 e5 6c 82 bf 38 32 9f bf 6d 4c 88 bf c2 20 87 bf
       -1.0189482 -1.24372 -1.0648323 -1.0556872
000030 31 60 87 3f ab a9 7c bf 1c f2 af bf 01 c3 07 3f
       1.057623 -0.9869639 -1.3745761 0.5303193
000040 ba f4 f3 bf 57 76 be bf 26 9d ad bf ba 48 cd bf
       -1.905906 -1.4879864 -1.3563583 -1.6037819
000050 0c 28 de bf 01 c8 bf bf 8d 68 9a bf 1e c5 cf bf
       -1.7355971 -1.4982911 -1.2063156 -1.623203
000060 ad 9f 97 bf 18 6f 9f bf 78 8a 8a bf ae 9d b1 bf
       -1.1845604 -1.2455778 -1.0823507 -1.3876245
000070 69 b8 bd bf af 6c c3 bf 5b c7 e2 bf d8 f6 91 bf
       -1.4821903 -1.5267543 -1.7717088 -1.1403456

running_var f4 [32]
000000 ba cc a1 40 1f ca a1 40 51 b8 9b 40 52 f4 aa 40
       5.056241 5.055923 4.8662496 5.3423243
000010 fa d8 a8 40 6e 7a 7e 40 8a 41 97 40 82 5c b5 40
       5.2764864 3.9762225 4.7267504 5.6675425
000020 cf 5c 74 40 58 69 96 40 99 03 91 40 97 82 84 40
       3.8181646 4.7003593 4.531689 4.140941
000030 02 d7 ab 40 13 79 8d 40 ed dd b0 40 1d c0 d9 40
       5.369996 4.4210296 5.5270905 6.8047013
000040 2c 49 ac 40 b2 c4 98 40 7e 1a b1 40 11 ed 95 40
       5.383932 4.7740107 5.534484 4.685189
000050 c6 16 a6 40 6a b2 9b 40 0e d1 c8 40 03 25 82 40
       5.19028 4.865529 6.2755194 4.067018
000060 49 09 97 40 a7 09 92 40 11 d0 c7 40 01 93 89 40
       4.7198834 4.5636783 6.2441487 4.299195
000070 44 90 9d 40 4d e5 a7 40 f6 5d ac 40 63 8e 78 40
       4.9238605 5.246741 5.38647 3.8836906

weight f4 [9, 1792]
000000 4c 21 91 3f a5 62 a7 3c 85 6e 5e 3e f0 43 de 3e
       1.1338286 0.02043278 0.21721847 0.43411207
000010 28 0d b2 be 3f 3b 45 bf de 4b 3b bf d6 0e fa be
       -0.34775662 -0.7704353 -0.7316264 -0.48839444
000020 4b 2a 0c 3f 34 aa 8d be 92 8a f2 3e 61 f9 19 be
       0.54752034 -0.27668917 0.47371346 -0.15036537
000030 24 ab 11 bf aa de 0d 3f 16 04 bb bd 62 c4 2b 3f
       -0.56901765 0.55417883 -0.09131639 0.6709653
000040 d0 eb 5b bf 02 66 64 3f 8f 0a b0 be 1c 49 9c be
       -0.85906696 0.8921815 -0.34383056 -0.30524528
000050 23 24 3c bd 46 38 af bd 89 58 07 be aa f2 70 3f
       -0.0459329 -0.08555655 -0.13217367 0.94120276
000060 42 ac 80 bf 74 bd 33 bf 49 b0 d7 3f 7c 73 15 3f
       -1.0052569 -0.7021096 1.6850673 0.5837934
000070 06 bd 70 3f 02 b7 44 3f 9a f5 13 be 74 00 ef 3d
       0.94038427 0.7684175 -0.14449158 0.11670008
000080 82 82 be be 7e b9 be bf e1 55 18 3f 58 bc 77 bf
       -0.37208945 -1.4900358 0.5950604 -0.96771765
000090 29 79 0b 3f 59 bb 13 3f f0 0b ec bb ba 0b 8c bd
       0.5448175 0.57707745 -0.0072035715 -0.06838174
0000a0 fd cd 50 bf 5b 4e 2e 3f c2 43 11 bc ca f2 43 3e
       -0.81564313 0.6808831 -0.008866252 0.19135585
0000b0 79 c5 14 bf a7 5c 0d 3f 66 2a 84 3f 6c e3 fb be
       -0.5811382 0.552195 1.0325439 -0.49196947
0000c0 0c 1a da bf 8e d9 44 bf d9 4c c0 3e ed ea 94 3f
       -1.7039199 -0.7689446 0.3755863 1.1634194
0000d0 10 c3 c4 3c e7 cf b8 3f ef 6d 8f 3f 19 07 9a be
       0.024018794 1.4438447 1.1205424 -0.3008354
0000e0 c8 f4 c1 3f b5 8a 64 be 5d ea 33 bf 20 fe 42 bf
       1.5152826 -0.22318538 -0.70279485 -0.76169014
0000f0 0e 30 7d be 4f d8 51 3f f7 79 57 3f c0 19 6a 3f
       -0.24725363 0.81970686 0.8417048 0.9144554
000100 4d a2 0d 3f c6 4c 17 3e 2a fc a6 be de 2f 45 be
       0.55325776 0.1477538 -0.3261426 -0.19256541
000110 8a ab 0d 3f ff cb 16 3f 4b bd 97 3e fb a6 f9 be
       0.5533987 0.58905023 0.29636607 -0.48760208
000120 8c e9 33 3f 94 7d 91 be 8a e1 cb bc d4 bf 93 bc
       0.7027824 -0.2841612 -0.024887819 -0.018035807
000130 d5 a4 7f bf 7a 53 43 3f 90 29 53 bd 53 1d d1 be
       -0.9986089 0.7629925 -0.05155331 -0.40842685
000140 d7 cf 84 3f cb 62 cf be eb 20 95 be 4c ed 93 bc
       1.0375928 -0.4050506 -0.29126677 -0.018057488
000150 f9 c0 b6 bf e0 ab a5 3d 08 68 74 bf 9e b7 13 3e
       -1.427764 0.08089423 -0.9547124 0.14425513
000160 30 77 86 3f 3b f9 14 3f c0 42 80 3f 5c 40 86 bf
       1.0505123 0.58192796 1.002037 -1.0488391
000170 4f 51 50 bf 64 92 23 3f 39 31 2a 3f 8e 9f 90 bf
       -0.8137407 0.6389525 0.6648136 -1.1298692
000180 97 97 01 3e aa 16 7b bf a6 4b ba bf d0 4d 1b 3f
       0.12655483 -0.9808146 -1.4554336 0.6066561
000190 13 9c a9 3e 4a 6a 38 be db 08 5d 3f 7b eb 00 3f
       0.33126888 -0.18009296 0.8634164 0.50359315
0001a0 ec d2 2c 3f 85 cb 65 3f 5f 29 bb 3f a8 5e 12 bf
       0.6750934 0.8976367 1.4622 -0.57175684
0001b0 75 9f c6 be e9 68 51 3f 4a e3 84 3f cc a5 84 bf
       -0.3879353 0.81800705 1.0381863 -1.0363097
0001c0 25 2c 97 3f ff 8e f5 be b7 72 45 bf 50 51 91 be
       1.1810347 -0.4796066 -0.77128166 -0.2838235
0001d0 a1 f6 24 bf 6c e8 b0 bd ca 49 46 bf 2e 17 93 3e
       -0.64438826 -0.08638081 -0.77456343 0.28728622
0001e0 8f 1a d8 bc 6b 31 2c 3d 83 20 5e be 76 db 7c be
       -0.026379852 0.042039316 -0.2169209 -0.24693093
0001f0 07 cd ee 3e 15 bc 3d 3f 85 c7 9d be f7 68 09 3f
       0.46640798 0.74115115 -0.30816284 0.5367579
000200 45 76 3c 3f 13 21 c4 3d 18 08 57 3f 43 89 57 be
       0.73617965 0.09576621 0.83996725 -0.21048455
000210 a0 f3 db 3e 13 a8 44 be f1 f7 c6 3e 89 52 27 3f
       0.4295931 -0.1920474 0.3886104 0.65360314
000220 30 e6 b2 3f 9c 4f 19 3d d5 f1 21 bf c0 ad 0a 3d
       1.3976498 0.037429437 -0.6325963 0.033857107
000230 5c 16 08 bf 27 45 46 bf 19 26 4a 3f c7 85 d4 3f
       -0.5315912 -0.7744927 0.7896438 1.6603326
000240 97 d1 81 3e 0c 49 8f be 29 24 d6 bf 15 25 d5 3e
       0.25355217 -0.27985418 -1.6729785 0.41629854
000250 e2 33 10 3e a9 7f 94 be 4a 05 8b 3f 48 e2 c4 3e
       0.14082292 -0.29003647 1.0860989 0.3845389
000260 f9 97 2c bf 63 6b d7 bc 43 7d 36 bf b2 27 0f 3f
       -0.6741939 -0.026296323 -0.71284884 0.55919945
000270 10 ef 4a 3f 5c ac 00 bf 08 d4 75 3e f5 e2 7f bf
       0.7927103 -0.50263 0.24006665 -0.99955684
000280 22 69 a3 be 93 f2 97 be a5 ba 6b 3f 0f ac 3c 3f
       -0.31916147 -0.29677257 0.9208167 0.7370004
000290 a7 d9 ee 3f 0b e1 a2 be df 7f 9a 3f 68 1b 3d be
       1.8660172 -0.3181232 1.2070273 -0.18467486
0002a0 c4 e1 12 3e 42 f2 91 3f 95 e4 95 bf bd 05 c0 be
       0.14343935 1.1402056 -1.1710383 -0.37504378
0002b0 c6 a5 61 3e be 41 e6 bd a1 d3 aa bf 57 2f 69 bd
       0.22035894 -0.11243008 -1.3345834 -0.056929912
0002c0 82 80 de bd 72 e6 44 3e 73 a6 b4 bb 41 7f 40 3e
       -0.10864355 0.19228533 -0.0055130064 0.18798544
0002d0 ee c4 98 3d d5 24 30 3f fd a6 1c 3f f7 ba 53 3f
       0.07459436 0.688062 0.61192304 0.8270716
0002e0 d4 e6 7e be f3 e0 fc 3e 18 ec 1a 3f 83 b2 26 3f
       -0.24892741 0.49390373 0.605165 0.6511614
0002f0 26 7a aa 3f f6 c3 40 3e 53 03 58 3f 8b 2c 3a bf
       1.3318527 0.18824753 0.8438007 -0.7272422
000300 7d bb 95 3f a1 2b 04 3e a4 7b d5 be 30 bc 0e bd
       1.1697842 0.12907268 -0.41695893 -0.03484744
000310 b1 1c dd bf b8 0f 4a be 13 83 8f be 8a 8e 2f 3f
       -1.7274381 -0.19732559 -0.2802969 0.6857687
000320 fb a5 e0 3f 30 fa 2d 3e 4e b2 b7 be 7e 63 85 3f
       1.7550653 0.1698997 -0.35878223 1.0420988
000330 4d 10 66 3f 2a b8 55 3f b2 63 94 3f 53 f8 16 3f
       0.89868623 0.8348414 1.1592925 0.5897266
000340 ed a5 5a 3f 7a 5b 6a 3f c8 f6 16 bf 1a 01 1a 3e
       0.8540943 0.9154583 -0.5897031 0.15039483
000350 c6 dd c9 be a9 03 1d 3d 00 2a 53 bf 3d a5 45 bf
       -0.39427012 0.03833357 -0.8248596 -0.7720526
000360 e4 85 29 3f 6d 9c 05 40 1d e0 cb 3f 24 ef a0 3d
       0.66219926 2.0876725 1.5927769 0.078581125
000370 97 55 36 3f 1b 8d 04 3f 18 0c 52 bd af 7b b2 bf
       0.7122435 0.5177781 -0.051281065 -1.3943995
000380 d8 a6 18 3d f4 58 21 be 44 f2 89 bf 0e 9e b8 bd
       0.03726849 -0.15756589 -1.0777059 -0.090145215
000390 66 a5 b6 3e bb 54 c6 bc 70 19 a6 3f 34 9e 10 3e
       0.35673064 -0.024210325 1.2976513 0.1412285
0003a0 32 2e e4 3e 0f 08 b0 3d 25 13 87 3e 6b f5 34 3e
       0.44566494 0.08595287 0.26381794 0.17671745
0003b0 55 cc 40 bf 90 85 22 bf 05 d0 83 3c 78 01 6b be
       -0.75311786 -0.6348505 0.016090402 -0.22949779
0003c0 27 86 58 bf 85 c8 dc 3e f9 57 0e 3f 18 0b 56 bf
       -0.845797 0.43121734 0.55602986 -0.8361068
0003d0 5a 81 20 3e 0a ef 44 3f 09 4c c8 be f6 44 95 bf
       0.15674344 0.76927245 -0.3912051 -1.166167
0003e0 8e dc 32 be 65 fb 72 3f 63 cc 8c 3e f0 36 92 3e
       -0.17466947 0.9491485 0.27499685 0.2855754
0003f0 ea 1c 02 bf 9e d3 8a be df ee 6d 3e d8 7b 0f 3f
       -0.5082537 -0.27114576 0.23235653 0.56048346

bias f4 [9]
000000 f2 a9 f4 3f 6f 4c 04 40 f0 b0 ff 3f f9 52 04 40
       1.9114363 2.0671651 1.9975872 2.0675642
000010 de ea 01 40 04 4a 00 40 3a cd 05 40 a9 29 f3 3f
       2.0299602 2.0045176 2.090651 1.8997089
000020 ec 59 02 40
       2.0367384
