dev/pacman_0_1500.pth (torch_old, 241244 bytes, 20 tensors)

weight f4 [16, 3, 5, 5]
0	0x3fc6b169	1.5522891
1	0xbf15ae35	-0.58468944
2	0x3f39adb3	0.7253067
3	0xbf1a5aa3	-0.6029455
4	0x3f3103ab	0.6914622
5	0x3f438baf	0.76385015
6	0x3fc25c0b	1.5184339
7	0x40194a71	2.3951685
8	0xbeb94e51	-0.36192563
9	0x3c94b8eb	0.018154582
10	0xbe310a4b	-0.17289083
11	0xbedce768	-0.431453
12	0x3f03e135	0.51515514
13	0xbf2e8348	-0.6816907
14	0xbe01164a	-0.12606159
15	0x3fc1244f	1.5089206
16	0x3f75ae45	0.9596904
17	0xbe993e62	-0.29930407
18	0x3e9d4580	0.30717087
19	0xbfb2d337	-1.3970708
20	0x3e1f2630	0.15541911
21	0xbe468cfb	-0.19389717
22	0x3ec48096	0.38379353
23	0xbf4aa1f4	-0.7915337
24	0x3f1c92a7	0.61161274
25	0xbeb1ef18	-0.34752727
26	0xbffda25d	-1.9815174
27	0xbfd202f2	-1.6407149
28	0xbe6e2f69	-0.23260273
29	0x3e4e37f9	0.2013854
30	0xbf2a61c7	-0.66555446
31	0xbfabf59a	-1.3434327
32	0xbe8e7064	-0.27820122
33	0x3e00df93	0.12585287
34	0xbf22e6f2	-0.63633645
35	0xbfaca9c2	-1.3489306
36	0xbf6ee8c0	-0.933239
37	0xbf7ce2de	-0.9878367
38	0x3e38b72d	0.18038626
39	0xbea8eb43	-0.3299199
40	0xbf29f631	-0.66391283
41	0xbfa577ad	-1.2927147
42	0xbe98205d	-0.2971219
43	0x3fa97c6a	1.3241093
44	0xbf014016	-0.5048841
45	0xbf99e59f	-1.20232
46	0xbf868b19	-1.0511199
47	0xbe8b6d65	-0.272319
48	0xbf20e499	-0.6284881
49	0x3fa2dcf3	1.2723678
50	0xbf74860b	-0.95517033
51	0x400ab4e9	2.1672919
52	0x3fe32ce7	1.7748078
53	0xbf125adf	-0.5716991
54	0xbf6b811a	-0.9199387
55	0x3d9a31d3	0.075290345
56	0x400380cf	2.0547369
57	0x3f6c09fa	0.92202723
58	0x406a3c27	3.6599214
59	0x3f9e519a	1.2368653
60	0xc02aa7df	-2.666496
61	0x3e0ac710	0.13552499
62	0x3e3c7c7e	0.18406865
63	0x401c323e	2.4405665
64	0x3fd57833	1.6677307
65	0xbfe02912	-1.7512534
66	0xbfc1caa2	-1.5139964
67	0xbf5fbb86	-0.87395513
68	0x3de5c8fa	0.11219974
69	0x3de3c652	0.11121811
70	0xbfb82ef3	-1.4389328
71	0x3f7d107c	0.9885328
72	0xbf48cb29	-0.78435
73	0x3f0e4a75	0.5558236
74	0x3fa21238	1.266181
75	0xbf9ed6d5	-1.2409312
76	0x3e9e68ca	0.30939323
77	0xbe8de65f	-0.27714822
78	0x3eed6231	0.46363977
79	0x3f08c835	0.5343049
80	0xbec322de	-0.3811254
81	0x3d8308f3	0.06398191
82	0x3f6c97a5	0.9241889
83	0x3e7ebdcf	0.24877094
84	0xbfb3039c	-1.3985476
85	0xbe75bfde	-0.23998973
86	0xbd54e036	-0.051971637
87	0xbf4a706a	-0.7907778
88	0x3faad26a	1.3345463
89	0x3f5eada1	0.86983687
90	0xbef71e6e	-0.48265404
91	0xbfc73d19	-1.556552
92	0x3ecd6eab	0.40123495
93	0x3f437783	0.76354235
94	0x402a733a	2.6632829
95	0x3f6c7062	0.9235898
96	0xbcc966a1	-0.02458507
97	0x3e0fce84	0.14043623
98	0x3edb31ce	0.42811435
99	0xbf8309f9	-1.0237418
100	0xbfc1d683	-1.5143589
101	0x3fa4dca1	1.2879831
102	0x3ec18712	0.37798363
103	0x3fb23ddb	1.3925127
104	0x3f2bdb34	0.6713135
105	0x3f0fe414	0.56207395
106	0x3f22f223	0.6365072
107	0xbf741c54	-0.95355725
108	0xbf407968	-0.7518525
109	0xbf20fe92	-0.62888443
110	0xbf1417f1	-0.5784903
111	0x3eef70b5	0.46765676
112	0xc01b733e	-2.4289088
113	0x3de7056b	0.1128033
114	0xbf9568e7	-1.1672639
115	0xbf18769a	-0.5955597
116	0xbfc621ff	-1.5479125
117	0xbf2f74cd	-0.685376
118	0xbfd43f97	-1.6581906
119	0x3f338d44	0.7013743
120	0x3fc74639	1.5568305
121	0xbde81cb3	-0.11333599
122	0xbf3c1dfa	-0.7348324
123	0xbfa552e8	-1.2915926
124	0xbf7596be	-0.9593314
125	0x3fc26051	1.5185643
126	0xbe7cb5f1	-0.2467878
127	0x3f82768e	1.019243
128	0xbf40d5dc	-0.75326324
129	0x3fc1bf37	1.5136479
130	0x3e0dffbb	0.13867085
131	0xbf31a868	-0.6939759
132	0x3ded8cc2	0.11599113
133	0x3fc5c3ce	1.545038
134	0x3fd25ac3	1.6433948
135	0xbfaad087	-1.3344887
136	0xbf95274a	-1.1652615
137	0x3fcef37e	1.6168058
138	0x3c8a1c11	0.016859086
139	0x3f891c5c	1.071178
140	0x3f278c2a	0.6544825
141	0x3fcb552a	1.5885365
142	0x3e5f7a43	0.21823983
143	0x3f9f63ad	1.2452294
144	0x3d19d4c9	0.037556443
145	0x3ec190d8	0.3780582
146	0xbe99ff5d	-0.3007764
147	0x405d5942	3.4585729
148	0x40150164	2.3282099
149	0x40876177	4.2306476
150	0x3eca4dd2	0.39512497
151	0x3ea33a6e	0.31880516
152	0x3f30216d	0.68801004
153	0xbf6ef927	-0.93348926
154	0x3f1447eb	0.5792224
155	0x3f8e4100	1.1113586
156	0xbdd1f30d	-0.102514364
157	0x3fbd8d9c	1.4808841
158	0xbf3643bb	-0.711971
159	0x3e9a3c7d	0.30124274
160	0x3f6fde70	0.9369879
161	0xbf75fc89	-0.96088463
162	0xbead54b5	-0.3385369
163	0xbf280040	-0.6562538
164	0x3ec0cfcf	0.37658545
165	0xbebd304f	-0.3695092
166	0x3f740430	0.9531889
167	0xbf22a1d0	-0.63528156
168	0x401ed614	2.4818163
169	0x3f0a1118	0.53932333
170	0x3ea8de0b	0.32981905
171	0xbdd0d22e	-0.101963386
172	0x3e854959	0.26032522
173	0xbdfba761	-0.12287784
174	0xbf68c093	-0.90918845
175	0xbf4612f0	-0.77372646
176	0x3e228642	0.15871528
177	0x3e3eb2a4	0.18622833
178	0xbfc8a23f	-1.5674514
179	0xbe45899a	-0.19290772
180	0x3f05fd57	0.5233969
181	0xbf07bea4	-0.5302527
182	0x3f742ccf	0.9538087
183	0xbf9634cc	-1.1734862
184	0x3d0bc8dc	0.0341271
185	0xbcf47814	-0.029842414
186	0xbf909df2	-1.1298201
187	0xbfa6317b	-1.298385
188	0xbee3f987	-0.44526312
189	0x3ecc848a	0.3994487
190	0xbf78e701	-0.97227484
191	0x3f89df12	1.0771201
192	0xbf8b5125	-1.0884138
193	0x406293a4	3.5402613
194	0xbeb0aaf0	-0.34505415
195	0xbf9d7708	-1.230195
196	0xbfe558bc	-1.7917705
197	0xbea3c9cf	-0.31989905
198	0xbe8cefef	-0.27526805
199	0xbfc35813	-1.5261253
200	0xbfd16303	-1.6358341
201	0xbe1ca25a	-0.15296307
202	0xbf37f3c7	-0.7185635
203	0x3f5a3ef0	0.85252285
204	0xbf6830b8	-0.9069934
205	0xbf494641	-0.78622824
206	0xbfa6107b	-1.297378
207	0xbfa3b77c	-1.279037
208	0xbf81c18d	-1.0137192
209	0xbec2ce56	-0.38048047
210	0xbf13df7e	-0.57762897
211	0x3f7b02d7	0.9805121
212	0x400d4e9d	2.2079232
213	0x3f1f736d	0.622855
214	0x3f9ccf81	1.2250825
215	0x400d56f2	2.2084317
216	0xbf2ddc1c	-0.67913985
217	0x400e4bfa	2.2233872
218	0xc037abb7	-2.8698556
219	0x3f3a2e21	0.7272664
220	0x400097cd	2.0092652
221	0x40382d0f	2.8777502
222	0x3f9b6178	1.213912
223	0xbee6ba8b	-0.45064196
224	0xbf3dd5d8	-0.74154425
225	0x3f0a408e	0.5400475
226	0x3d9e11ee	0.077182636
227	0xbec5c4c8	-0.38626695
228	0xbf508411	-0.8145152
229	0x3e67edb0	0.22649264
230	0xbf03c41d	-0.5147112
231	0xbf44ac77	-0.7682566
232	0x3fc51e3c	1.5399852
233	0x3f00a2c8	0.50248384
234	0x3dca0c0a	0.098655775
235	0x3c89b4ad	0.016809786
236	0x3e076bef	0.13224767
237	0xc0068927	-2.102121
238	0xbeea4862	-0.4575835
239	0x3f114c3d	0.56756955
240	0xbed784f2	-0.42093617
241	0xbf42a01a	-0.76025546
242	0x3f951924	1.1648297
243	0xbfbe4d1d	-1.4867283
244	0x3f810c05	1.0081793
245	0x3e8abcc0	0.2709713
246	0xbe609e97	-0.21935497
247	0x3f7d22a7	0.98881
248	0xbf6b3064	-0.91870713
249	0xbf550be8	-0.8322129
250	0x3dabf2d4	0.08395925
251	0xbeca3165	-0.3949081
252	0x3fdc29a1	1.7200204
253	0xbf768994	-0.9630368
254	0x3f4bcb7d	0.79607373
255	0xbf55c52f	-0.83504003

bias f4 [16]
0	0xbe3d98ec	-0.18515366
1	0x3d826add	0.06368039
2	0xbce7e526	-0.028307509
3	0xbe571a5b	-0.21006148
4	0xbd37b1f5	-0.044847447
5	0x3d9e445a	0.07727881
6	0xbecef40c	-0.40420568
7	0x3f1b958d	0.6077507
8	0x3b783ae6	0.0037876903
9	0xbe67733e	-0.22602555
10	0xbe861bca	-0.26193076
11	0x3b327731	0.0027231688
12	0x3ba2796f	0.0049583237
13	0xbe251105	-0.16119774
14	0x3e5a39f8	0.21311176
15	0xbe9fe7b4	-0.31231463

running_mean f4 [16]
0	0x44469c99	794.44684
1	0x450f0335	2288.2004
2	0x43f99609	499.17215
3	0x44886165	1091.0436
4	0x435c5307	220.32433
5	0xc39f7ceb	-318.97592
6	0x44d3cd8d	1694.4235
7	0x4390d76f	289.68307
8	0x4353a0f9	211.6288
9	0x4596a0c6	4820.0967
10	0x445f579f	893.3691
11	0x44aee312	1399.096
12	0x4453a167	846.5219
13	0xc400865c	-514.09937
14	0xc56ba20e	-3770.1284
15	0xc3d76330	-430.7749

running_var f4 [16]
0	0x47034d5a	33613.35
1	0x47d64c6b	109720.836
2	0x4744863f	50310.246
3	0x47a7d974	85938.91
4	0x470111bd	33041.74
5	0x480d7adb	144875.42
6	0x48f60d1d	503912.9
7	0x479bf9fb	79859.96
8	0x47fee514	130506.16
9	0x489bba0d	318928.4
10	0x47e314ed	116265.85
11	0x47b35f85	91839.04
12	0x47d0bb5c	106870.72
13	0x48166e88	154042.12
14	0x479d47b1	80527.38
15	0x48e4ddcf	468718.47

weight f4 [16]
0	0x3f822fdf	1.0170859
1	0x3fa2207a	1.2666161
2	0x3f49e149	0.7885938
3	0x3fa0eeff	1.2572936
4	0x3ef10478	0.47073722
5	0x3f9ecff4	1.2407212
6	0x401e6e4f	2.4754827
7	0x3fa7acd0	1.3099613
8	0x3f697c66	0.9120544
9	0x3f95f356	1.1714885
10	0x3f87cb2c	1.0608878
11	0x3f47d4dd	0.7805918
12	0x3f5df017	0.86694473
13	0x3fabdf5b	1.3427538
14	0x3fa5c908	1.2951975
15	0x3fb14ea2	1.3852122

bias f4 [16]
0	0xbfad9bfc	-1.3563228
1	0xbf975f0d	-1.1825882
2	0xbf16adbd	-0.58858854
3	0xc014b1f7	-2.323362
4	0xbf369e7b	-0.7133557
5	0xbfc0507f	-1.5024565
6	0xbf5d4562	-0.86433995
7	0xbfa03534	-1.2516236
8	0xbf4bdb8a	-0.79631865
9	0xbf2844ce	-0.6572999
10	0xbfa739f3	-1.306456
11	0xbf34a590	-0.7056513
12	0xbfba9a38	-1.4578314
13	0xbfc1e93a	-1.51493
14	0xbfad498b	-1.3538069
15	0xbf8cdaf8	-1.1004324

weight f4 [32, 16, 5, 5]
0	0xbf72a999	-0.94790035
1	0x3e9dc3ef	0.30813548
2	0x4001e486	2.029573
3	0xc02adee7	-2.6698549
4	0x3ecf47fb	0.40484604
5	0xbfabf224	-1.343327
6	0xbfdc637d	-1.7217861
7	0x3f25cc6c	0.6476505
8	0x3f1ec811	0.6202403
9	0xbe38690c	-0.18008822
10	0xbf472ba2	-0.77800953
11	0xbf479209	-0.77957207
12	0x3ef52395	0.4787871
13	0x3fad6b10	1.3548298
14	0xbfab6ba7	-1.3392228
15	0xbf9bd73e	-1.2175062
16	0xbf940249	-1.1563197
17	0xbe10737b	-0.14106552
18	0x3c92b3b5	0.017907957
19	0x3eed83f1	0.46389726
20	0xbed162f3	-0.40895805
21	0xbf9d2331	-1.2276365
22	0xbcd029bb	-0.025410524
23	0xbfe44e68	-1.7836428
24	0xbe86477a	-0.26226407
25	0xbf6b83fd	-0.91998273
26	0xbfb6c4e1	-1.4278833
27	0xbf32f781	-0.6990891
28	0xbc7253db	-0.0147905005
29	0x3f2661c1	0.6499291
30	0xbf86fb13	-1.0545372
31	0xbecf57f1	-0.4049678
32	0xbf87ce31	-1.06098
33	0xbfe090b5	-1.7544161
34	0x3fe59728	1.7936754
35	0xbf218ea8	-0.631083
36	0xc0095c66	-2.1462646
37	0xbe8f0eec	-0.27941072
38	0x3fa1bcb5	1.2635714
39	0xbc26aaa9	-0.0101725245
40	0x40677e92	3.6171002
41	0x3f3ef4ae	0.745921
42	0xbdff93b0	-0.12479341
43	0x3ee07a12	0.43843132
44	0xbf244072	-0.64160836
45	0xbf175650	-0.5911608
46	0x3f40085b	0.7501275
47	0x3f850819	1.0393096
48	0x40182612	2.3773236
49	0xbf1e1f01	-0.6176606
50	0x3e46b4d6	0.19404921
51	0x3ea53c75	0.32272688
52	0xbf6db73a	-0.92857707
53	0xbf0dccf4	-0.5539086
54	0xbf476160	-0.7788296
55	0xc068e6a7	-3.639078
56	0x3f2ffa45	0.68741256
57	0x3f1c48b8	0.6104846
58	0x3fe2dacd	1.7723023
59	0x3d3783d1	0.044803444
60	0xbdb0ecff	-0.086389534
61	0x3ec8f39e	0.39248365
62	0x3f93d9c5	1.1550833
63	0xbf8d606a	-1.1045048
64	0xbeb8e2fb	-0.36110672
65	0x3e7ca04b	0.24670522
66	0xbd1e1381	-0.03859282
67	0xbee0e070	-0.43921232
68	0xbf52ab09	-0.8229223
69	0x3f1b8aff	0.60758966
70	0x3e31fc57	0.17381416
71	0xbf8fa429	-1.1221973
72	0x3ec4c7f3	0.384338
73	0xbec8e0aa	-0.39233905
74	0xbf3f5abb	-0.7474782
75	0x3f7886c3	0.9708063
76	0x3d1214ff	0.035664555
77	0xbf27a731	-0.6548949
78	0x3f19bc4b	0.6005294
79	0xbdeb6952	-0.11494698
80	0xbfffb5d4	-1.9977365
81	0xbf9c68cf	-1.2219485
82	0xbf7a177c	-0.97692084
83	0xbf5bf497	-0.8592009
84	0x3fa584a6	1.2931106
85	0x3f60d171	0.8781958
86	0xbfe4a7a1	-1.7863656
87	0xbf74cc2a	-0.9562403
88	0xbe8c3fc7	-0.27392408
89	0xbf520445	-0.82037765
90	0xbeae0321	-0.33986762
91	0x3f92582f	1.1433161
92	0xbf078dcd	-0.52950746
93	0xbf3c3ec0	-0.7353325
94	0x3f29c680	0.6631851
95	0x3f3dd075	0.74146205
96	0xbeae6999	-0.3406494
97	0x3fa1e6c9	1.2648555
98	0xbef46a78	-0.4773748
99	0x3f1abfcf	0.60448927
100	0xbf665fb9	-0.8998981
101	0x3f33a998	0.70180655
102	0x3fad0097	1.3515805
103	0x401a157d	2.4075615
104	0xbf9fc7b2	-1.2482817
105	0xbe052949	-0.1300403
106	0xbdaa6f78	-0.08322042
107	0xbed6e566	-0.41971892
108	0x3fd225da	1.6417801
109	0xbca2c32d	-0.019868458
110	0x3ede0c2f	0.4336867
111	0x3f3ecfb0	0.74535656
112	0xbf50de27	-0.8158898
113	0xbed5aa30	-0.41731405
114	0x3f3d73d2	0.7400485
115	0x3f23bf66	0.63963926
116	0xbf28c233	-0.65921324
117	0xbfaa0516	-1.3282802
118	0xbf068fc0	-0.52563095
119	0x3fe3c32d	1.7793938
120	0x3f550135	0.83204967
121	0xbfebc4e1	-1.8419458
122	0xbe549dda	-0.2076334
123	0x3eae7657	0.3407466
124	0xbe3b1173	-0.18268375
125	0x3f1f5207	0.6223454
126	0xbedffe3f	-0.43748662
127	0x3f52ccef	0.82343954
128	0xbf2a6611	-0.6656199
129	0x3f59ff36	0.85155046
130	0xbf58f669	-0.8475099
131	0x3f511934	0.8167908
132	0x3daa4d53	0.0831553
133	0x3f40e847	0.7535443
134	0xbdf295e5	-0.11844996
135	0xbdf9a65e	-0.12189935
136	0x3e05a513	0.13051252
137	0xbf5f4817	-0.87219375
138	0xbf8bab8f	-1.091173
139	0xbff8d4f9	-1.9439994
140	0x3f87542b	1.0572561
141	0x3e2b7902	0.1674538
142	0xbf8e27a0	-1.1105843
143	0x3f7ee21b	0.9956376
144	0xc0077a51	-2.1168406
145	0x3f94a9b5	1.161429
146	0xbfaffcc1	-1.3749009
147	0xbfc43803	-1.5329593
148	0xbf925f80	-1.1435394
149	0x3f731a2a	0.949618
150	0x3f73fca5	0.9530738
151	0x3ca78b31	0.020452114
152	0xbf241848	-0.6409955
153	0x3f350819	0.7071548
154	0x3f2af95c	0.6678674
155	0xbf1e447c	-0.6182325
156	0x3f194547	0.59871334
157	0x3f10c306	0.5654758
158	0x3ec96870	0.39337492
159	0x3e842147	0.2580664
160	0xbe9b10da	-0.30286294
161	0xbea8d9d5	-0.32978693
162	0x3da3eda4	0.08004311
163	0xbe2bd1fc	-0.16779321
164	0x3da5735d	0.080786444
165	0xbf262933	-0.64906615
166	0xbfc784f5	-1.558745
167	0x3fd8b19e	1.6929204
168	0x3e51c37e	0.2048473
169	0x3e64d049	0.2234508
170	0x3f28f6d9	0.6600166
171	0xbf6fd3c9	-0.93682534
172	0xbd2f2ad3	-0.04276545
173	0x3f90db96	1.1317012
174	0x3fd1f0d3	1.6401619
175	0xbd75dc35	-0.06002446
176	0xbe0abf04	-0.13549429
177	0xbfd129f9	-1.6340934
178	0xbdf5079d	-0.11964343
179	0xbf3ea892	-0.7447597
180	0xbfa7f148	-1.3120508
181	0x402189f4	2.524045
182	0xbfa797c4	-1.309319
183	0xbeb51f55	-0.35375467
184	0x3f9089e4	1.1292081
185	0x3fcb5d7a	1.5887902
186	0xbf60b1ce	-0.8777131
187	0x3f60eaa0	0.8785801
188	0xbf4168ae	-0.75550354
189	0xbf98bd1a	-1.1932709
190	0x3fefab42	1.8724139
191	0xbf8d4045	-1.1035239
192	0x3f51c9f1	0.81948763
193	0x3ee495d4	0.4464556
194	0x3eeb6fdc	0.4598378
195	0x3fa6a733	1.3019775
196	0xc03acdcf	-2.9188116
197	0xbf5e4c05	-0.86834747
198	0xc09042ff	-4.508178
199	0x3ffe447c	1.986465
200	0xbfa82b13	-1.3138145
201	0xbfb9dcec	-1.4520545
202	0x3f578fad	0.84203607
203	0xbea96401	-0.3308411
204	0x3d0d38f6	0.03447815
205	0xc0066ebb	-2.1005085
206	0xbd59bcc5	-0.05315854
207	0x3e9444cc	0.28958738
208	0xbf678eae	-0.90452087
209	0x3f90ae03	1.1303104
210	0xbfa770ab	-1.3081259
211	0x3fa7ef59	1.3119918
212	0xbedc4fa8	-0.43029523
213	0x3e20865b	0.15676253
214	0x3e05a72e	0.13052055
215	0xbebb1fde	-0.3654775
216	0x3f646128	0.8921075
217	0x3ecedb5c	0.40401733
218	0xbf35489c	-0.7081392
219	0xbefe900b	-0.4971927
220	0x3f64b98e	0.89345634
221	0xbe8026e5	-0.25029674
222	0xbfe71591	-1.8053457
223	0x3e0f99a0	0.14023447
224	0xbf60e9a2	-0.87856495
225	0xbf006245	-0.5014995
226	0x3bec2fbf	0.00720784
227	0x3f870267	1.0547608
228	0x3f8162be	1.0108259
229	0x3d568134	0.05236931
230	0x3fbf8049	1.4961025
231	0x3d063226	0.03276267
232	0xbed8903a	-0.42297536
233	0x3f5db68d	0.86606675
234	0x3ef52bf2	0.4788509
235	0xc0827bd3	-4.0776153
236	0xbf2f8c71	-0.6857367
237	0xbf1a9652	-0.6038562
238	0xbf38c0ad	-0.72169
239	0xbddaab2f	-0.10677182
240	0xbfcb2665	-1.5871092
241	0x3f9f383b	1.2439035
242	0xbf5ab033	-0.8542511
243	0xbf42ad47	-0.7604565
244	0xbfb1c707	-1.3888863
245	0xbfceda98	-1.616046
246	0x3f0c8758	0.5489402
247	0xbdbfc7d6	-0.093642876
248	0x3f66168c	0.89878154
249	0xbf50c333	-0.8154785
250	0xbde835d0	-0.11338389
251	0xbda90af1	-0.0825404
252	0x3eb1f342	0.34755903
253	0xbe9cbc86	-0.30612582
254	0x3f9406cf	1.1564578
255	0xbed37862	-0.41302782

bias f4 [32]
0	0xbf847ca0	-1.0350533
1	0xbefec763	-0.49761495
2	0x3e00aa84	0.12565047
3	0xbe89f498	-0.26944423
4	0xbea3f125	-0.32019916
5	0xbf92cdf3	-1.1469101
6	0xbdb8b070	-0.09018028
7	0xbfc5ee66	-1.5463378
8	0xbfdc4905	-1.7209784
9	0x3f02fa0f	0.5116281
10	0x3f080d81	0.53145605
11	0x3eab4781	0.3345299
12	0xbf02cd8f	-0.5109491
13	0xbf3f25a6	-0.7466682
14	0xbedc178f	-0.42986724
15	0x3f4280c3	0.75977725
16	0xbde88621	-0.11353708
17	0xbe92757c	-0.28605258
18	0xbef458c2	-0.47723967
19	0xbf4b6659	-0.79453045
20	0xbe1ef893	-0.15524511
21	0xbfb8e5d1	-1.4445134
22	0x3ddeeb91	0.108847745
23	0x3e676294	0.22596198
24	0x3d25cd39	0.04047892
25	0xbf1542b3	-0.583049
26	0x3f1c1cbd	0.6098135
27	0x3ee581d1	0.44825605
28	0x3f4eb7b5	0.80749065
29	0xbc410f63	-0.011783454
30	0x3f40f06d	0.7536686
31	0x3e608db1	0.21929051

running_mean f4 [32]
0	0xbfed1faa	-1.8525288
1	0xc060bbd2	-3.5114636
2	0xc0585614	-3.3802538
3	0xc129db5b	-10.616054
4	0xc09dd764	-4.932543
5	0xc122f1df	-10.184051
6	0xbfd32f95	-1.6498896
7	0x3efe7d44	0.49704945
8	0xc0bb0e44	-5.8454914
9	0xbfb8b093	-1.4428886
10	0xc043c481	-3.0588686
11	0xc0824df9	-4.072018
12	0x3dc84389	0.09778506
13	0x3fd8a2b6	1.6924655
14	0xc079d8e0	-3.903862
15	0xc00a13a0	-2.1574478
16	0x3f9c9846	1.223397
17	0x3f3f9c14	0.7484753
18	0x3eae4bbd	0.3404216
19	0xc0a0a332	-5.0199213
20	0x4063eac9	3.5612051
21	0x408bedef	4.3727946
22	0xc07d2113	-3.9551437
23	0x3f143255	0.578893
24	0x3dced595	0.10099331
25	0xbfb6f283	-1.4292759
26	0x4048c541	3.1370394
27	0xbfcb221a	-1.5869782
28	0x40215910	2.521061
29	0xc0c47c42	-6.140168
30	0x40844351	4.1332173
31	0x4000fc3a	2.0153947

running_var f4 [32]
0	0x420ae725	34.725727
1	0x424a1700	50.52246
2	0x4223c819	40.945408
3	0x4247dc89	49.965366
4	0x42327896	44.61776
5	0x421c41a1	39.06409
6	0x42154d19	37.32529
7	0x4217a250	37.90851
8	0x4236ca30	45.69745
9	0x42127ba6	36.62075
10	0x423464a6	45.09829
11	0x4223fea7	40.998684
12	0x425943ee	54.316338
13	0x421491d3	37.142406
14	0x421b38dd	38.80553
15	0x422d96dc	43.397324
16	0x4213ac14	36.918045
17	0x4228790c	42.11821
18	0x421bb2b6	38.924522
19	0x42842394	66.06949
20	0x423db4a8	47.426422
21	0x42509d18	52.15341
22	0x424c3104	51.047867
23	0x423c21a9	47.03287
24	0x3e18b2db	0.14911978
25	0x4220a717	40.163174
26	0x4219e28b	38.471233
27	0x4219a92c	38.415207
28	0x41e0eb5b	28.11492
29	0x42484a2f	50.072445
30	0x4243a16c	48.90764
31	0x4226b9d6	41.68148

weight f4 [32]
0	0x3f826c88	1.0189371
1	0x3fe0f2c8	1.7574091
2	0x3fc944b7	1.5724095
3	0x3f6fb9b3	0.9364273
4	0x3fa9605f	1.3232535
5	0x3f93f8f2	1.1560347
6	0x3f888450	1.0665379
7	0x3f2a4795	0.66515476
8	0x3fb1cd46	1.389077
9	0x3f8f028a	1.117265
10	0x3f8c9fd8	1.098628
11	0x3f88cf14	1.0688195
12	0x3f4b5900	0.7943268
13	0x3efcb155	0.49354044
14	0x3f8d0807	1.1018075
15	0x3f446f93	0.7673275
16	0x3f3a1a66	0.7269653
17	0x3f1b48e7	0.60658115
18	0x3f696d65	0.9118255
19	0x4002554b	2.0364559
20	0x3f781992	0.9691402
21	0x3f495922	0.7865163
22	0x3f9e5eb9	1.2372657
23	0x3f6388e4	0.88880754
24	0x3b61baff	0.0034443734
25	0x3fadd9a9	1.358205
26	0x3f50c89b	0.815561
27	0x3f74eb5b	0.95671624
28	0x3ec27ea6	0.3798725
29	0x402b9b99	2.681372
30	0x3f9c28f5	1.2199999
31	0x3fbbc336	1.4668949

bias f4 [32]
0	0xbfa66bf1	-1.3001691
1	0xc01ab169	-2.4170783
2	0xc0151a85	-2.3297436
3	0xbebfdbe1	-0.37472442
4	0xbfe4ee49	-1.7885219
5	0xbfb7700b	-1.4331068
6	0xbfaa7f47	-1.3320092
7	0xbf174b82	-0.5909959
8	0xbfaff629	-1.3746997
9	0xbfd3c053	-1.6543068
10	0xbfbf6676	-1.4953144
11	0xbfb0accc	-1.3802733
12	0xbecb1058	-0.39660907
13	0xbed8d8de	-0.42352957
14	0xbfab8931	-1.3401242
15	0xbf2bd053	-0.6711475
16	0xbf558f00	-0.83421326
17	0xbee113ac	-0.4396032
18	0xbf9a8b37	-1.2073735
19	0xbffb9ca8	-1.9657183
20	0xbf808fe8	-1.0043917
21	0xbf0ee0a5	-0.5581153
22	0xbfefa950	-1.8723545
23	0xbf5ec010	-0.87011814
24	0xbd78579f	-0.060630437
25	0xbfbcf950	-1.4763584
26	0xbf4395ac	-0.76400256
27	0xbfa4fce1	-1.2889673
28	0xbeca11cd	-0.39466706
29	0xc00305de	-2.047233
30	0xbfa717b7	-1.3054112
31	0xc01cab31	-2.4479487

weight f4 [32, 32, 5, 5]
0	0xbcf43bf6	-0.029813748
1	0x3f9194a0	1.1373482
2	0x3f7909d3	0.97280616
3	0xbf1fc6e9	-0.6241289
4	0xbd721a48	-0.059107095
5	0x3ed34ac8	0.4126799
6	0xbff398ac	-1.9030967
7	0x3f709ecf	0.9399232
8	0xbfc582e3	-1.5430568
9	0xbd855930	-0.06511152
10	0xbe41c498	-0.18922651
11	0xbf6dd319	-0.92900234
12	0xbf5fbcca	-0.87397444
13	0xbfd4ff63	-1.6640438
14	0xbef9c83a	-0.48785573
15	0xc011ef98	-2.2802486
16	0x3cc2e3c3	0.023790246
17	0x3eb533a6	0.35390967
18	0x3fa0acbd	1.2552716
19	0x3eb68972	0.35651737
20	0x3fa46f26	1.284642
21	0xbfc6a1c1	-1.5518113
22	0x3f6909a3	0.9103033
23	0xbe25ee06	-0.1620408
24	0x3f0e6be1	0.5563336
25	0xbffc5277	-1.9712666
26	0xbeeab660	-0.45842266
27	0x3e87c10a	0.26514465
28	0xc0511438	-3.266859
29	0xbec6b4a9	-0.38809708
30	0xbec288f7	-0.3799512
31	0xc0094767	-2.144983
32	0xbea6df0e	-0.32592052
33	0xc010a731	-2.2602046
34	0x3d88bc8e	0.06676589
35	0xbe56e14a	-0.20984378
36	0xbc19b5f9	-0.009381765
37	0xbf5f98d2	-0.8734256
38	0xbef9cb9a	-0.48788148
39	0xbfaa907c	-1.3325343
40	0xbef5a691	-0.47978643
41	0xbf5ce60f	-0.8628854
42	0x401b2ed0	2.4247322
43	0x3ddee794	0.10884014
44	0xbf1e0fe5	-0.61743003
45	0xbf7a47f1	-0.97766024
46	0xbf7f72d6	-0.997846
47	0xbfa81c75	-1.3133684
48	0xc00268e3	-2.0376518
49	0xc0186fbf	-2.3818204
50	0xbf20af6c	-0.6276767
51	0xbe9ff740	-0.31243324
52	0xbf04b33e	-0.51836
53	0x3f3bbcbc	0.7333486
54	0xc058c54a	-3.3870416
55	0x3f0b2e6f	0.5436773
56	0xbf904222	-1.1270182
57	0x3f1ece96	0.62033975
58	0xbf1e362a	-0.618014
59	0x3e0bff40	0.13671589
60	0xbf3bdb02	-0.73381054
61	0xbf97a23d	-1.1846386
62	0x3f82c9c5	1.0217825
63	0x3e066e6e	0.13128063
64	0x3d144cf9	0.03620622
65	0xbf8df1c9	-1.1089412
66	0xbf8f58dd	-1.1198994
67	0x3f84ee61	1.0385247
68	0x3f3514fe	0.70735157
69	0x3ed3a166	0.41334075
70	0x3db350d6	0.087556526
71	0xc0080eb0	-2.1258965
72	0x3f811fba	1.0087807
73	0x3fea8065	1.8320433
74	0x3f2d7a66	0.6776489
75	0x3ea581a7	0.3232548
76	0x3fa1e261	1.264721
77	0x3f02c9a9	0.5108896
78	0x3ef5defa	0.4802168
79	0xbf149f22	-0.5805532
80	0x3f534e6e	0.8254155
81	0x3fa2e362	1.2725642
82	0xbdaae3b8	-0.08344215
83	0x3ec7b66d	0.39006367
84	0xbf6dff83	-0.92968005
85	0x3f31bade	0.6942576
86	0xbf1ea932	-0.6197692
87	0x3eba7b9c	0.3642243
88	0x3e715a6b	0.23569648
89	0x3fbca923	1.4739116
90	0x3f8a7858	1.0817976
91	0xbf1ac9d0	-0.6046419
92	0xbf18f8a9	-0.59754425
93	0xbf5a2d46	-0.8522533
94	0xbed76679	-0.42070368
95	0x3f3e2dcb	0.74288625
96	0x3f3c2c67	0.7350525
97	0x3ed66e77	0.41881153
98	0xc03a235b	-2.908408
99	0xbed4dec3	-0.41576204
100	0xc06cc0c8	-3.6992664
101	0x3f74da47	0.95645565
102	0xbfeb9611	-1.8405172
103	0x3f62a26e	0.885291
104	0xbf9bee28	-1.2182055
105	0xbf5d96b2	-0.8655807
106	0xbf7076c2	-0.9393121
107	0x3f4d24f2	0.801345
108	0xc036866a	-2.851954
109	0xbe8e5100	-0.27796173
110	0x3fc05aef	1.5027751
111	0xbe0074c8	-0.12544549
112	0x3f47c9b1	0.7804213
113	0x3cbe3207	0.023217214
114	0xbf96d064	-1.1782346
115	0x3fc83333	1.5640625
116	0xbfaa95e5	-1.3326994
117	0x3f2b17e0	0.66833305
118	0xbed4c559	-0.41556814
119	0x3fe114e2	1.7584498
120	0x3ecb8965	0.3975326
121	0x3eacf4d5	0.33780542
122	0xbe089e48	-0.1334163
123	0x3f873030	1.0561581
124	0xbf2c5c3f	-0.67328256
125	0xbf598e12	-0.8498241
126	0xbfe128f7	-1.7590626
127	0xbecc786d	-0.39935628
128	0xbe760bcf	-0.24027942
129	0xbdc077fc	-0.09397885
130	0xbf43434e	-0.76274574
131	0xc0291855	-2.64211
132	0x3e55304d	0.20819207
133	0xbf6678e7	-0.9002823
134	0xc036eba5	-2.8581326
135	0xbd964ff0	-0.073394656
136	0x3eb3051a	0.3496483
137	0xc00b0a42	-2.172501
138	0x3de8466f	0.11341559
139	0xc00c4bc3	-2.1921241
140	0x3f6fe149	0.9370313
141	0x3eae3345	0.3402349
142	0x3f92d75f	1.1471976
143	0x3f3bf160	0.73415184
144	0x3d9e9080	0.07742405
145	0xbe0ced9f	-0.1376252
146	0x3f1cbcb7	0.61225456
147	0x3fce719e	1.6128423
148	0xbee9cc68	-0.45663762
149	0x3ecbd7e6	0.39813155
150	0xbfa0873e	-1.2541273
151	0x3f76f1f6	0.96462953
152	0xc06dd0d0	-3.71587
153	0x3f1eda2e	0.62051666
154	0x3f201cb9	0.6254383
155	0x3f5136bf	0.8172416
156	0xbff55760	-1.916729
157	0x3f118e76	0.56858003
158	0x3f6af236	0.91775835
159	0x3fd304b5	1.6485811
160	0xbf1ae372	-0.60503304
161	0xbe6e2b3c	-0.2325868
162	0xbf6085cd	-0.87704164
163	0x3f5ea7cf	0.86974806
164	0x3ee4903d	0.44641295
165	0x3fb992cd	1.4497925
166	0xbeddc83c	-0.4331683
167	0x3b8ec134	0.0043565277
168	0xbfc03da5	-1.5018812
169	0xbf64c818	-0.8936782
170	0xbf4f9d18	-0.8109908
171	0xbf609d01	-0.8773957
172	0x3fb3549a	1.4010193
173	0x3e7f7c85	0.24949844
174	0x3fc3a580	1.5284882
175	0xbee728cb	-0.4514831
176	0x3dc97ccd	0.09838257
177	0x3e5c8474	0.21534902
178	0xbef4463a	-0.4770983
179	0xbf13649c	-0.5757539
180	0x3f7a618d	0.978051
181	0x3f8b17d7	1.086665
182	0xbff85a4b	-1.9402555
183	0xbf7cc908	-0.9874425
184	0x3f3b5a0e	0.7318429
185	0xbd8b3651	-0.067974694
186	0xbf7357ff	-0.95056146
187	0x3dd96f40	0.106169224
188	0xbfd1fddd	-1.6405598
189	0xbfcc44f4	-1.5958543
190	0x3f79c47e	0.9756545
191	0xbf98d424	-1.193974
192	0x3f0529b1	0.5201674
193	0xbe9ea0ee	-0.30982155
194	0xbf190b9b	-0.59783334
195	0x3effc073	0.49951515
196	0xbf1679f6	-0.5877985
197	0xbf78ad69	-0.971396
198	0xbfc9b02a	-1.5756886
199	0x3ed4c9c0	0.41560173
200	0xbd627e0d	-0.055295993
201	0x3ef5b1b5	0.47987142
202	0xbf62a19a	-0.88527834
203	0xbefaa951	-0.48957303
204	0xbfde1776	-1.735091
205	0x3f5d0360	0.86333275
206	0x3e47f411	0.19526698
207	0x3f83542c	1.0260062
208	0xbf145d99	-0.5795532
209	0xbf0dcb61	-0.55388457
210	0xbe85e20d	-0.26149026
211	0xbf6a4f78	-0.9152751
212	0x3f02c8b7	0.51087517
213	0xbf0464c0	-0.5171623
214	0xbf05feab	-0.5234172
215	0x3fac4332	1.3458006
216	0x3f168bbf	0.58806986
217	0x3e5b30e8	0.21405375
218	0xbff438e9	-1.9079868
219	0xbf553c08	-0.83294725
220	0xbf209fd4	-0.6274388
221	0x3f12da8b	0.5736472
222	0xbf924a46	-1.1428916
223	0x3eb041df	0.34425256
224	0x3eefb727	0.46819422
225	0x3e715708	0.23568356
226	0x3dd7f080	0.105439186
227	0xbec1ead9	-0.37874487
228	0xbe7cf091	-0.24701144
229	0xbfd716a5	-1.6803786
230	0x3e60bf03	0.21947865
231	0x3f525c52	0.8217212
232	0x3f85db87	1.045762
233	0x3e242c39	0.16032495
234	0xbf6fa249	-0.93607
235	0x3f2fc32e	0.68657196
236	0xbd14946e	-0.036274366
237	0x3ecf86d4	0.40532553
238	0xbf54e32b	-0.8315913
239	0x3f636d1c	0.8883836
240	0xbfb8b843	-1.4431232
241	0xc05f21ba	-3.4864335
242	0xbf069f21	-0.5258656
243	0xbe96c8ad	-0.29449978
244	0x3f700d58	0.9377036
245	0x3e9f7767	0.31145784
246	0xbce58d28	-0.02802141
247	0xbf5077b5	-0.8143266
248	0xc085dff4	-4.183588
249	0xbfc3160c	-1.5241103
250	0xbfb7e145	-1.4365622
251	0xbea916a0	-0.33025074
252	0xbfb2a2d7	-1.3955945
253	0x3e3b313d	0.18280502
254	0xbea3e6d0	-0.32012033
255	0xbf57e331	-0.8433104

bias f4 [32]
0	0x3e41bda6	0.18920001
1	0x3f88192f	1.0632685
2	0x3f887624	1.0661054
3	0x3f39bc80	0.72553253
4	0x3f678290	0.904336
5	0x3f803ddc	1.0018878
6	0x3fb680f6	1.4258106
7	0x3fb15e54	1.3856912
8	0xbd058672	-0.03259892
9	0x3fa32384	1.2745214
10	0x3f5b9173	0.8576881
11	0x3f9d7b34	1.2303224
12	0x3f98651c	1.1905856
13	0x3f98a86c	1.1926398
14	0x3f9d15cd	1.2272278
15	0x3f3f2c23	0.7467672
16	0x3fbd4cb8	1.4789038
17	0x3eed190c	0.46308172
18	0x3f528ee8	0.8224931
19	0x3f976bfc	1.1829829
20	0x3f2e1c00	0.68011475
21	0x3fe35620	1.7760658
22	0x3f7ee392	0.99565995
23	0x3e5222f2	0.20521143
24	0x3f8cf4ea	1.1012242
25	0x3f2fece3	0.68720835
26	0x3fbb45d0	1.463068
27	0x3f8d62ec	1.1045814
28	0x3fa45258	1.2837629
29	0x3f65f4f5	0.898269
30	0x3f9af362	1.2105525
31	0x3f4afcc3	0.79291934

running_mean f4 [32]
0	0xc092a3fa	-4.5825167
1	0xbfaefb51	-1.3670446
2	0x405b5a09	3.4273703
3	0xc0774fea	-3.8642526
4	0xc0ae2aaf	-5.4427104
5	0xc0ca5cbb	-6.3238196
6	0xc10c7ae2	-8.780001
7	0xbec8c71f	-0.39214417
8	0xbc4a4cd3	-0.012347418
9	0xbdca85fe	-0.09888838
10	0xc0bac182	-5.8361216
11	0xc0978776	-4.7352858
12	0xc0fa941a	-7.830579
13	0xbfb3b356	-1.4039104
14	0xc10a2b07	-8.635505
15	0xc0e6a9e7	-7.20824
16	0xc0ed998f	-7.424995
17	0xc0f82d1f	-7.755508
18	0xc0e4eb60	-7.1537323
19	0xc10b7bc2	-8.717714
20	0xc0dbfe64	-6.8748035
21	0xc0fb9e4d	-7.863074
22	0xc087bacd	-4.241553
23	0xc0f524ed	-7.6607575
24	0xc0a1f146	-5.0607023
25	0xc0f56d26	-7.669574
26	0xc082fc6f	-4.0933146
27	0xbf838c4c	-1.027719
28	0x3f228dac	0.63497424
29	0xc0d3f86e	-6.624076
30	0x3f1aa95d	0.6041468
31	0x4019ccd0	2.4031258

running_var f4 [32]
0	0x42b02eae	88.09117
1	0x4282f694	65.4816
2	0x423702e4	45.752823
3	0x4299a9fa	76.831985
4	0x42bdbbd8	94.86688
5	0x42c0b0d9	96.345406
6	0x42d308af	105.51696
7	0x422f7a63	43.86952
8	0x3cc3100c	0.023811363
9	0x4226a229	41.65836
10	0x430d9d6d	141.61494
11	0x42fa21e8	125.06622
12	0x42fdf82c	126.98471
13	0x423986d2	46.38166
14	0x430291b0	130.56909
15	0x42b35022	89.65651
16	0x436ea795	238.65462
17	0x42b062c5	88.19291
18	0x428ba9e7	69.83184
19	0x42b470d0	90.22034
20	0x42e5a596	114.82341
21	0x42ac065c	86.01242
22	0x42544a71	53.072697
23	0x4303db38	131.85632
24	0x42fd9c98	126.80585
25	0x42c87f8d	100.24912
26	0x428d8440	70.7583
27	0x428192e5	64.7869
28	0x422ade96	42.71737
29	0x42e2ced8	113.40399
30	0x421c8eae	39.139336
31	0x42bee19c	95.44064

weight f4 [32]
0	0x3faa92ce	1.3326051
1	0x3ef62bea	0.4808038
2	0x3e138f80	0.1441021
3	0x3f77c47a	0.96784174
4	0x3fa48be3	1.285519
5	0x3fcf56c6	1.6198356
6	0x3fd89842	1.6921465
7	0x3e75bfdd	0.23998971
8	0x3a80a3c0	0.0009814426
9	0x3e74e948	0.23917115
10	0x3fc19f00	1.5126648
11	0x3f9bde90	1.2177296
12	0x400ce3d9	2.2014067
13	0x3ec3b1ec	0.3822168
14	0x3fd9455b	1.6974291
15	0x3ff18858	1.8869734
16	0x400a8fb7	2.1650217
17	0x3fd4963c	1.6608348
18	0x3fe54db9	1.7914344
19	0x3fd3cbf9	1.6546623
20	0x3fe7fc84	1.8123937
21	0x3fd152f4	1.635344
22	0x3f6ab7ae	0.9168652
23	0x3fe63e00	1.7987671
24	0x3fe21426	1.7662399
25	0x3fc39b27	1.5281724
26	0x3fb0e64b	1.382028
27	0x3ee9b945	0.45649162
28	0x3e3e7bc3	0.18601899
29	0x4003f4a1	2.061806
30	0x3e244d71	0.16045167
31	0x3e542299	0.20716323

bias f4 [32]
0	0xbfb71e88	-1.4306192
1	0xbef7ace6	-0.483741
2	0x3d1b7552	0.037953682
3	0xbf76126b	-0.96121854
4	0xbfaa6751	-1.331278
5	0xbfff9f13	-1.9970421
6	0xc015fc51	-2.3435252
7	0xbe0e3522	-0.13887456
8	0xbd0c1bc7	-0.034206178
9	0xbe230d53	-0.15923052
10	0xbfd47b4d	-1.6600128
11	0xbf9f2c7a	-1.2435448
12	0xc046cf02	-3.1063848
13	0xbe9f4d34	-0.3111359
14	0xbfe834b5	-1.8141085
15	0xc017a712	-2.3695722
16	0xbff1fce1	-1.8905298
17	0xc00cae8f	-2.1981542
18	0xc0102456	-2.2522178
19	0xc008ee45	-2.1395428
20	0xc01267b3	-2.2875793
21	0xbfdf9c76	-1.7469623
22	0xbf87b67a	-1.0602562
23	0xc001463d	-2.019912
24	0xc00a5447	-2.161394
25	0xbfe577ca	-1.7927182
26	0xbfc3dc6a	-1.530164
27	0xbf06b31c	-0.5261705
28	0xbdf23578	-0.118266046
29	0xc01143d7	-2.2697656
30	0xbce7d7a5	-0.02830107
31	0x3e9bc0b6	0.30420464

weight f4 [9, 1792]
0	0x3f2b704b	0.6696822
1	0xbf694878	-0.91126204
2	0x3ee1f5f8	0.44132972
3	0x3e8a4763	0.2700759
4	0xbe81b5ac	-0.25333917
5	0x3fab7b8c	1.3397079
6	0x3f9c04df	1.2188987
7	0x3fbbb795	1.46654
8	0x3ffe5334	1.9869142
9	0x3ea7b0fe	0.32752222
10	0xbf986123	-1.1904644
11	0x3ec85c4b	0.39132914
12	0x3fa285ec	1.269712
13	0x3f6801d1	0.9062777
14	0x400a1424	2.1574793
15	0x3fd25b0e	1.6434038
16	0x4008433b	2.1291034
17	0xbfeac3e7	-1.8341035
18	0xbfb6006e	-1.4218881
19	0x3ed48794	0.41509688
20	0x405b6f8b	3.428683
21	0xbe99e9cd	-0.30061188
22	0xbdefad84	-0.11703017
23	0xbf442eab	-0.7663371
24	0x3f6908ca	0.91029036
25	0xc011aeb0	-2.276287
26	0x3f60e699	0.87851864
27	0x3d53103b	0.05152915
28	0x3e252357	0.16126762
29	0x3c74c1dc	0.014938798
30	0xbe772e99	-0.2413887
31	0xbf63e833	-0.8902618
32	0xbf6ea227	-0.93216175
33	0x3ed64374	0.41848338
34	0x3f4ade9e	0.79245937
35	0x3f6b7880	0.91980743
36	0x3fc14f7e	1.5102384
37	0x3fae17fc	1.360107
38	0xbdf6111a	-0.120149806
39	0xbfecbf6c	-1.8495917
40	0xbef0f4f3	-0.4706188
41	0x4014bd50	2.3240547
42	0xbd5a66fa	-0.053320862
43	0x3f824db7	1.0179967
44	0x40011162	2.016686
45	0x3ed91427	0.42398188
46	0x3ea84d73	0.3287159
47	0xbc857b3e	-0.016294118
48	0x407020f3	3.752011
49	0x4032d643	2.7943275
50	0xbf447b88	-0.76750994
51	0x3fdc30a2	1.7202342
52	0x3f928bd4	1.1448922
53	0x400a542e	2.161388
54	0x401a298c	2.4087858
55	0x3fe4e02a	1.788091
56	0x3fb8f16e	1.4448678
57	0x3fc34c64	1.5257688
58	0xbd025bfa	-0.031825997
59	0x3f79cb30	0.97575665
60	0x4001a904	2.025941
61	0x3fe6b64b	1.8024381
62	0x3ff8c5a1	1.9435312
63	0x4002f4ff	2.0462034
64	0x3f976e7b	1.1830591
65	0x3f6ea974	0.93227315
66	0x3ffa3a7b	1.9549097
67	0x40034603	2.0511482
68	0x3f7f285a	0.99670947
69	0x404824db	3.1272495
70	0x3f84154a	1.0318997
71	0x3f5bce03	0.85861224
72	0xbe95bb49	-0.2924445
73	0x401b9371	2.430874
74	0x3de7c278	0.11316389
75	0x3f6c1195	0.9221433
76	0x3fd938ba	1.6970437
77	0x3fae1ea3	1.36031
78	0x400f1348	2.2355518
79	0x3ddb0566	0.10694389
80	0x3e33aa75	0.17545493
81	0x4009a66f	2.1507833
82	0x3f78e007	0.9721684
83	0x3fccc477	1.5997456
84	0x3f314bc0	0.6925621
85	0xc00273d4	-2.0383196
86	0x3fb7ba0e	1.4353654
87	0x3fd045c4	1.6271291
88	0x3f41dd41	0.7572823
89	0x3f83ebcf	1.0306338
90	0x3e891825	0.26776233
91	0x3f54840a	0.83013976
92	0x4029a5a7	2.6507356
93	0x3fec01d9	1.8438064
94	0xbfe2e9e6	-1.772763
95	0x3fa6de31	1.3036557
96	0x3fc1a1ec	1.512754
97	0xbed2e113	-0.41187343
98	0x3fba3a81	1.4549104
99	0xbfaaf5cd	-1.3356262
100	0xc08f3dfc	-4.4763165
101	0x3f88378c	1.0641952
102	0x4016aa25	2.3541348
103	0x3d8968eb	0.06709465
104	0xbecb8353	-0.3974863
105	0x408953ba	4.2914705
106	0xbf927a18	-1.144351
107	0x4001b56b	2.0266979
108	0x3ee78dff	0.45225522
109	0xbf8ad0b5	-1.0844942
110	0x3f19c109	0.60060173
111	0xbf8f5f50	-1.1200962
112	0x3fb0de83	1.3817905
113	0x3f7317c2	0.94958127
114	0xbe783358	-0.24238336
115	0x3e9f115b	0.3106793
116	0x4033bc5f	2.8083723
117	0x3e6c9159	0.2310232
118	0xbe2906ce	-0.16506502
119	0x3f2b477c	0.6690595
120	0xbfc19949	-1.5124904
121	0x3fddf53e	1.7340467
122	0x3fb0cd40	1.3812637
123	0xbf6c5477	-0.92316383
124	0x3f8a4b5e	1.080425
125	0x4014f303	2.3273323
126	0x4073e45d	3.8108132
127	0x3ff79919	1.9343597
128	0x3f0f5844	0.5599406
129	0xc0023e70	-2.035061
130	0xbf3ce05d	-0.7377985
131	0x3fef8b8d	1.8714463
132	0x3f9f3aec	1.2439857
133	0x405a3fdf	3.4101484
134	0x3f90bd4a	1.1307766
135	0x3fae6d65	1.3627135
136	0x3fa4e70f	1.2883013
137	0xbd5df74e	-0.054190926
138	0x3e317bf3	0.17332439
139	0xbf0db261	-0.5535031
140	0x3ea0249d	0.31277934
141	0x3fc7696a	1.5579045
142	0x402651f1	2.5987513
143	0x3fb253b1	1.393179
144	0x3f036eb2	0.5134078
145	0x3ec71c89	0.38888958
146	0x3fd47957	1.659953
147	0x401a5cb9	2.4119093
148	0x3f05e3bc	0.5230062
149	0x3fa7652a	1.3077748
150	0x40526639	3.2874892
151	0x401d63cf	2.4592168
152	0x3f9b52f4	1.213469
153	0x3f9b9b8c	1.2156844
154	0x40739c1f	3.8064039
155	0x406b94cc	3.6809568
156	0x400bcd0b	2.1843898
157	0x40092b9c	2.1432867
158	0xbee0d379	-0.4391134
159	0x3fd5ba76	1.6697528
160	0x3fd00f6a	1.6254704
161	0x3ee84342	0.45363814
162	0x3f53a0dd	0.8266733
163	0x402fcdca	2.7469354
164	0xbfd78674	-1.6837907
165	0xbf874a9d	-1.0569645
166	0x3db2319f	0.08700871
167	0xbf602319	-0.87553555
168	0xbf030a19	-0.5118728
169	0x3f5242a2	0.82132924
170	0x3f774e36	0.96603715
171	0xbfa56ef7	-1.2924489
172	0xbf472ab9	-0.77799565
173	0xbeb22b3d	-0.34798613
174	0xc0656a93	-3.5846298
175	0xbfab68e9	-1.3391391
176	0xbfc19a6a	-1.5125248
177	0x3f0449b7	0.5167498
178	0x3f5d0064	0.8632872
179	0xbf32cee9	-0.6984697
180	0x3f3d75a0	0.74007607
181	0x40383e84	2.8788157
182	0x3f8991de	1.074764
183	0x3fc8e8b7	1.5696019
184	0xbea56b53	-0.32308444
185	0xbfed33ee	-1.8531473
186	0x40264d2f	2.598461
187	0xbfcda6b5	-1.60665
188	0xbf9d7b9f	-1.2303351
189	0x3e8adfcf	0.27123877
190	0xbf5e7a5f	-0.86905473
191	0xc08e0eb8	-4.4392967
192	0x3f1bce9e	0.6086215
193	0xbfd16d88	-1.6361551
194	0xbf05ebdf	-0.52313036
195	0x3f9d47aa	1.2287495
196	0xbe18e88c	-0.1493246
197	0xbeeed747	-0.4664862
198	0x3f85024e	1.0391328
199	0x3f97ef90	1.1869984
200	0x3e572727	0.21011029
201	0x3eea66d3	0.45781574
202	0x3f9e28ca	1.2356198
203	0x3e911f1b	0.28344044
204	0x3eb5f260	0.3553648
205	0x3f625cad	0.8842266
206	0x3fcac0f0	1.584013
207	0x3f3b7218	0.7322097
208	0x3faabe7a	1.3339379
209	0x3fefadba	1.8724892
210	0x3f371bff	0.71527094
211	0x404294d9	3.040335
212	0xbdc7aaf1	-0.09749401
213	0x3fb6ea3c	1.4290233
214	0x3f48f785	0.78502685
215	0x3fc3acd1	1.5287114
216	0x3ede6c86	0.43442172
217	0x4063a8da	3.557181
218	0x3fca93fb	1.582641
219	0x3fc207ff	1.515869
220	0x4018b5e7	2.3861024
221	0x3fd2784c	1.6442962
222	0x3f8c9f32	1.0986083
223	0x3f364ff1	0.7121573
224	0x3f2679cd	0.65029603
225	0xbe9b6771	-0.30352357
226	0x3ebe24fd	0.37137595
227	0x3b7bfb57	0.003844937
228	0xc01cc848	-2.4497242
229	0x40187911	2.3823893
230	0x3fca8377	1.582137
231	0x3fabbdc2	1.3417284
232	0xbe73ebc2	-0.23820403
233	0xbff79253	-1.934153
234	0xbecb2c1e	-0.39682096
235	0x3f8e0e37	1.1098088
236	0x3f5e856f	0.86922354
237	0xbf23ff66	-0.6406158
238	0xbfe58fc1	-1.7934495
239	0x3e50167f	0.20321082
240	0xbee03196	-0.4378783
241	0xbf5c98e9	-0.8617082
242	0xbff06c6b	-1.8783087
243	0xbed934ec	-0.4242319
244	0x3eb75153	0.35804233
245	0x3f78b69d	0.97153646
246	0x3f8e8919	1.1135589
247	0x3dd340bc	0.103150815
248	0xc005a4ca	-2.088183
249	0xbd9878ee	-0.074449405
250	0x3f4153ff	0.7551879
251	0x3ef11c94	0.47092116
252	0x3fdc4744	1.7209249
253	0x3f9865bf	1.190605
254	0x3fb4f007	1.413575
255	0x3ef84ecd	0.4849762

bias f4 [9]
0	0x40c6216b	6.1915793
1	0x40bfb06f	5.9902873
2	0x40c3d5dc	6.119856
3	0x40c1064d	6.032019
4	0x40c1be19	6.0544553
5	0x40bd1772	5.909112
6	0x40c07a91	6.0149617
7	0x40c49cbe	6.1441336
8	0x40c347f6	6.1025343
