dev/pacman_500.pth (torch_old, 242433 bytes, 20 tensors)

weight f4 [16, 4, 5, 5]
0.017600551 -0.04492935 -0.0012700707 -0.05760887 0.024074338 0.026318021 -0.033551022 -0.08534708
0.061664604 -0.0877248 -0.06881714 0.022707961 0.087288596 0.07334412 -0.060606446 0.049071305
0.08647991 -0.0805016 -0.06406507 0.011392355 -0.046944786 -0.03221228 0.056235008 0.009937644
0.089899264 -0.060196616 -0.09695909 0.048227303 -0.004835762 0.08438409 0.06360995 -0.045907963
-0.0039016157 -0.006281629 -0.04246476 -0.06378726 -0.033596337 0.022595823 -0.026442908 -0.015675426
-0.06022023 -0.032941855 0.05670754 -0.019667089 0.047851376 -0.029580198 -0.068753704 0.07356215
0.06808592 -0.036558367 -0.0007574931 -0.01485946 0.008595541 0.055258267 0.07454955 0.06941532
0.03353309 -0.043993022 0.025788076 -0.047110524 -0.014532194 0.013649866 0.028602503 0.07098072
0.076974876 0.025089808 0.0975878 0.046204843 0.049206547 -0.07791964 0.020347022 0.078006275
-0.029939279 0.09717465 -0.03578417 -1.3163717 -9.635085 1.6033564 -3.9191735 2.0282729
1.8277663 2.1279924 -2.3225932 7.264162 1.3477509 3.993328 -3.2905118 1.8384867
-7.672263 8.320913 -7.779652 8.269839 -7.1452427 3.4123964 -4.285731 7.0507774
0.9971271 -3.9351504 -5.5421686 1.3050407 0.007139072 -0.06459868 0.043472745 -0.094172195
-0.08369906 0.016498879 -0.05736226 -0.031490967 -0.08025094 0.038541593 -0.061597716 0.051253073
-0.08230887 -0.04090923 0.07570436 -0.014520131 0.0012655258 -0.01342617 -0.066262946 0.04576636
-0.046944927 -0.083409175 0.044601165 -0.030767247 0.004736282 0.037140973 -0.004385218 -0.041210283
0.03408823 0.009563088 0.09561994 -0.049771227 -0.06550877 -0.04700723 0.004936829 -0.03810977
0.037173577 -0.081194445 -0.077671036 -0.08803612 -0.07063875 0.09969709 -0.0050188303 -0.04349314
-0.002901554 -0.033792995 -0.05635109 0.032447837 -0.010482527 -0.0036912933 0.054127283 -0.085792616
-0.08104674 0.084250994 -0.030420326 0.05635958 -0.024664268 -0.011277989 0.057077818 -0.07332069
0.07554477 -0.040439535 0.09090037 0.07165093 -0.011023223 -0.05689409 -0.024173304 -0.08514883
0.061023243 0.09917607 -0.08119825 -0.09076166 0.06410413 0.043323018 0.098602064 -2.068179
1.346845 0.5838659 3.6970656 -0.3489627 -4.3889604 -1.6919354 -0.65301836 -0.9391575
-5.871373 -4.653073 -0.007400339 -2.7945654 6.950684 -5.4028993 -2.508976 9.863997
5.0214906 -10.196132 -2.4682064 -4.783519 1.7310392 -2.4003172 -6.696938 -7.840949
0.013772413 -0.07181611 -0.07825376 -0.027542993 -0.061062194 -0.021772541 -0.05111743 0.008801736
0.09143854 0.041782014 0.045372136 -0.003910221 0.06907422 -0.057977904 -0.070632935 0.015547931
0.038212515 0.056795426 0.044064038 -0.015210092 -0.073173985 0.032856233 -0.04020336 0.055859424
-0.08379418 0.06625504 0.09253516 -0.0021522492 -0.08392769 0.021527663 0.009927765 -0.051529635
-0.047980215 -0.08955169 -0.043704856 -0.06308517 0.09414279 0.068966635 0.047114573 -0.0085391775
0.06986261 0.05291634 0.020553052 -0.052919485 0.040524416 -0.073157154 -0.03849956 0.06717958
-0.042129245 -0.09693283 -0.04582137 -0.05680083 0.08894081 -0.008100189 -0.06612192 0.008994237
00000000: 082f 903c d707 38bd 8078 a6ba 47f7 6bbd
00000010: 8c37 c53c e498 d73c cc6c 09bd 73ca aebd
00000020: 0694 7c3d 0fa9 b3bd 00f0 8cbd 0c06 ba3c
00000030: 5dc4 b23d 7135 963d 773e 78bd fefe 483d
00000040: 611c b13d 06de a4bd 8c34 83bd 00a7 3a3c
00000050: 2d49 40bd 06f1 03bd ae56 663d 80d1 223c
00000060: 1b1d b83d ba90 76bd 7d92 c6bd fe89 453d
00000070: 5075 9ebb 91d1 ac3d ef45 823d fd09 3cbd
00000080: 40b2 7fbb 20d6 cdbb 87ef 2dbd e5a2 82bd
00000090: 509c 09bd e01a b93c cc9e d8bc c069 80bc
000000a0: 7da9 76bd 0aee 06bd 2a46 683d e01c a1bc
000000b0: ceff 433d 2c52 f2bc bece 8cbd c1a7 963d
000000c0: a170 8b3d 3abe 15bd 8092 46ba 1875 73bc
000000d0: 50d4 0c3c 7e56 623d 6fad 983d 9f29 8e3d
000000e0: fe59 093d 0732 34bd 8441 d33c f7f6 40bd
000000f0: 7018 6ebc b0a3 5f3c cc4f ea3c 575e 913d
00000100: 01a5 9d3d 2489 cd3c 1ddc c73d 4a41 3d3d
00000110: ce8c 493d 5594 9fbd ccae a63c c1c1 9f3d
00000120: 3843 f5bc 8103 c73d 6c92 12bd de7e a8bf
00000130: 4f29 1ac1 c83a cd3f bdd3 7ac0 39cf 0140
00000140: 3ff4 e93f 0731 0840 5ea5 14c0 0474 e840
00000150: 1a83 ac3f b092 7f40 bf97 52c0 8853 eb3f
00000160: 2e83 f5c0 7622 0541 e9f2 f8c0 4351 0441
00000170: d4a5 e4c0 b464 5a40 b524 89c0 f89f e140
00000180: b943 7f3f 81d9 7bc0 7259 b1c0 930b a73f
00000190: e0ee e93b 504c 84bd 7a10 323d 5add c0bd
000001a0: 6a6a abbd a828 873c b0f4 6abd acfc 00bd
000001b0: 9b5a a4bd cadd 1d3d e34d 7cbd beee 513d
000001c0: 8e91 a8bd 7090 27bd e30a 9b3d d8e5 6dbc
000001d0: 00e0 a53a 70f9 5bbc deb4 87bd 8275 3b3d
000001e0: 5349 40bd 6ed2 aabd b6af 363d 980b fcbc
000001f0: d032 9b3b 2221 183d e0b1 8fbb 1dcc 28bd
00000200: 1aa0 0b3d 80ae 1c3c 63d4 c33d eadc 4bbd
00000210: 7629 86bd a78a 40bd 20c5 a13b fd18 1cbd
00000220: 5243 183d 4649 a6bd fe11 9fbd 484c b4bd
00000230: 0dab 90bd fd2d cc3d 0075 a4bb dd25 32bd
00000240: 0028 3ebb 866a 0abd 67d0 66bd 06e8 043d
00000250: e8be 2bbc a0e9 71bb 92b4 5d3d 0ab4 afbd
00000260: d5fb a5bd c98b ac3d 0c34 f9bc 4ed9 663d
00000270: b80c cabc 50c7 38bc 6eca 693d 2829 96bd
00000280: 37b7 9a3d eda3 25bd f929 ba3d b9bd 923d
00000290: c09a 34bc c709 69bd 1807 c6bc 8362 aebd
000002a0: 82f3 793d d31c cb3d 454b a6bd 40e1 b9bd
000002b0: 0749 833d 7a73 313d e1ef c93d 0b5d 04c0
000002c0: 6b65 ac3f 3c78 153f b99c 6c40 3dab b2be
000002d0: 5d72 8cc0 5791 d8bf 362c 27bf a06c 70bf
000002e0: 4ae2 bbc0 f9e5 94c0 8b7e f2bb 29da 32c0
000002f0: 016c de40 8de4 acc0 1093 20c0 efd2 1d41
00000300: 0db0 a040 5b23 23c1 18f7 1dc0 9612 99c0
00000310: b192 dd3f cc9e 19c0 514d d6c0 0ee9 fac0
00000320: b0a5 613c 5314 93bd 8243 a0bd d8a1 e1bc
00000330: 5a1c 7abd 545c b2bc 8360 51bd 2835 103c
00000340: 2144 bb3d 9e23 2b3d 22d8 393d 5021 80bb
00000350: c976 8d3d 3d7a 6dbd 00a8 90bd c0bc 7e3c
00000360: ba84 1c3d 52a2 683d 7e7c 343d c033 79bc
00000370: 3edc 95bd 4294 063d 47ac 24bd dacc 643d
00000380: 489c abbd b9b0 873d 1383 bd3d c00c 0dbb
00000390: 48e2 abbd c85a b03c 10a8 223c bd10 53bd
000003a0: e786 44bd e066 b7bd dd03 33bd cc32 81bd
000003b0: efcd c03d 613e 8d3d 36fb 403d e8e7 0bbc
000003c0: 2114 8f3d cebe 583d e05e a83c 1ac2 58bd
000003d0: eefc 253d 6bd3 95bd b7b1 1dbd 7395 893d
000003e0: b78f 2cbd b884 c6bd 30af 3bbd fda7 68bd
000003f0: 9926 b63d a8b6 04bc ee6a 87bd 905c 133c

bias f4 [16]
6.9871907 5.18229 0.24676104 3.058628 -0.0753299 2.1027756 -5.774305 6.1975384
-4.819015 0.009794397 1.8931694 -0.80985254 5.945626 -1.0457948 10.6145525 -8.125481
00000000: 1197 df40 52d5 a540 edae 7c3e 90c0 4340
00000010: 9046 9abd e093 0640 1bc7 b8c0 3c52 c640
00000020: 5f35 9ac0 ae78 203c 6053 f23f 7f52 4fbf
00000030: 9142 be40 9bdc 85bf 35d5 2941 f801 02c1

weight f4 [16]
6.813769 15.6295185 0.018046502 8.276678 -0.014998502 12.960575 8.242482 17.705622
5.6432767 -0.07207259 18.097246 19.819529 -11.838457 9.139979 14.534933 15.724108
00000000: 650a da40 8212 7a41 42d6 933c 466d 0441
00000010: 47bc 75bc 845e 4f41 35e1 0341 1da5 8d41
00000020: b995 b440 cb9a 93bd 29c7 9041 658e 9e41
00000030: 526a 3dc1 5b3d 1241 168f 6841 f295 7b41

bias f4 [16]
4.158292 7.115711 -0.76560926 -1.0102671 -0.07522564 -1.2608048 1.1417491 2.9996512
8.738749 -0.8155441 3.3577528 5.328708 -2.2151222 -12.600474 4.906755 7.9689813
00000000: ba10 8540 e8b3 e340 f8fe 43bf 6f50 81bf
00000010: e60f 9abd 0d62 a1bf d624 923f 49fa 3f40
00000020: ead1 0b41 80c7 50bf 6ce5 5640 c784 aa40
00000030: 90c4 0dc0 8b9b 49c1 2304 9d40 e501 ff40

running_mean f4 [16]
6.9836984 5.086091 0.2530054 3.0858893 -0.0684727 2.059153 -5.758695 6.0430536
-4.767702 0.018087782 1.7595228 -0.9035948 6.017042 -1.0364298 10.554055 -8.236726
00000000: 757a df40 42c1 a240 ec89 813e 367f 4540
00000010: 6a3b 8cbd 2ac9 0340 3b47 b8c0 b260 c140
00000020: 0491 98c0 d42c 943c 0b38 e13f fd51 67bf
00000030: 9c8b c040 bba9 84bf 69dd 2841 a1c9 03c1

running_var f4 [16]
0.4589241 0.8087517 0.0028632563 0.58874804 0.0026865315 0.60415477 0.6066488 1.1592804
0.5098826 0.0059064017 1.6425167 0.98334736 0.83385694 0.38630116 1.1347954 1.5509921
00000000: 1af8 ea3e 5a0a 4f3f 78a5 3b3b 31b8 163f
00000010: 8510 303b e3a9 1a3f 564d 1b3f 4d63 943f
00000020: ab87 023f 7d8a c13b fd3d d23f a7bc 7b3f
00000030: a677 553f 44c9 c53e fa40 913f e986 c63f

weight f4 [32, 16, 5, 5]
-2.1110055 -9.052445 13.593048 9.131959 2.441257 8.944151 2.3601766 -0.23175406
-7.6542435 -2.19863 -11.278628 4.753598 2.6595092 0.34538296 -2.4151556 9.354382
-1.6282803 -1.3494866 3.0004222 3.9446235 4.0963874 6.1351304 -2.8433888 4.143612
13.375073 3.6622689 -2.3013504 -6.3983946 -3.4516697 2.9410725 11.482229 -0.56828773
-12.880049 2.429675 4.225191 0.26354215 -5.2604513 -0.91332793 -7.9827414 -11.941488
6.751404 -0.16539446 -5.288575 -0.12310234 -10.230358 -2.373249 0.38199732 -7.754959
11.42752 5.6845317 0.5450379 -0.038862318 -0.33117557 0.052626666 -0.42712915 0.02020766
-0.2974186 -0.2108229 -0.08738119 -0.38891992 0.424513 0.35421267 0.19770654 0.077863656
-0.27381387 0.32653013 0.103688 0.61385447 -0.14505823 0.25550503 -0.1690268 0.123343416
-0.0022542875 0.2278322 0.23874956 1.8548058 1.9279923 3.368806 -6.550024 -5.4474983
6.366383 -0.084878094 2.198148 -1.4296217 3.1638563 -3.2478585 5.1471076 -5.515257
-0.048220813 -7.4199796 -2.3097281 -1.8303865 -2.402818 -3.8428507 -5.3986707 1.4600214
1.6239777 4.191278 5.1242275 -3.648717 0.08148491 -0.056846812 -0.13564508 -0.64693606
0.098682106 0.17159002 -0.060165253 0.10484362 0.15282048 -0.052068986 0.39624143 -0.2017455
0.24336918 0.1301468 0.18787818 0.50190127 0.11375435 0.2782311 0.21571471 0.053283174
-0.010090786 0.12638047 0.013143217 -0.05663618 0.18232596 -6.1236525 -2.9579313 6.8850107
-1.1682435 -11.352744 -5.740592 -1.8831415 -9.206842 -3.0948822 0.40805605 -13.690999
0.15599918 4.008159 1.6073239 2.8380828 -2.2831721 10.97584 -17.287136 2.1846693
1.4278257 -1.5393422 2.4136136 10.757549 2.6621518 -3.4346926 3.5261152 -6.6450176
4.3689556 -11.0065 2.028213 -3.540516 -8.96357 3.52628 -9.722386 -0.96281457
2.8196385 4.1039743 3.652995 -0.50058126 2.411411 -0.11524451 -0.26880133 0.9156905
-12.502405 5.2979455 -3.7904186 -1.5304385 5.141966 -2.0212643 -5.198859 -13.375699
4.0671144 -6.669004 4.57475 11.758391 -15.606493 2.7770166 -18.220303 3.2140532
10.277302 -1.4968086 -3.9005287 3.972351 -11.901164 2.3201435 6.2205987 12.498785
-6.5177774 -0.040947486 -6.549174 -3.454589 5.1935215 5.602689 -7.3451447 -16.46256
-1.4330256 -11.249961 -5.8297563 -13.03001 -6.493107 -1.5243572 1.8295376 -12.116968
-0.6596668 -6.308856 -8.533964 1.2622447 0.207137 -5.6454144 4.22144 0.90956014
3.255412 4.452601 -3.1301801 -3.223314 -6.216111 -1.9743167 7.5322437 -1.1784941
4.812318 0.13907693 0.0913267 0.13648884 -0.0030936955 -0.65992033 0.27611774 0.15233015
0.1026817 -0.06376256 -0.15469423 0.1429098 0.5425095 0.03948541 0.074104205 0.2198122
0.24351987 0.3372969 0.2768402 0.28331718 0.29328117 -0.097172275 -0.09362743 -0.110811934
0.1567837 0.099681765 3.2585714 0.90188825 4.175219 0.3312926 1.0713247 -3.1103857
00000000: b71a 07c0 d1d6 10c1 207d 5941 811c 1241
00000010: 8e3d 1c40 3e1b 0f41 220d 1740 f050 6dbe
00000020: 90ef f4c0 5bb6 0cc0 4375 34c1 7a1d 9840
00000030: 6635 2a40 09d6 b03e e991 1ac0 8cab 1541
00000040: 7d6b d0bf fabb acbf eb06 4040 b674 7c40
00000050: 9b15 8340 fd52 c440 15fa 35c0 7898 8440
00000060: 4d00 5641 9d62 6a40 5349 13c0 a6bf ccc0
00000070: 28e8 5cc0 883a 3c40 36b7 3741 4e7b 11bf
00000080: ae14 4ec1 cc7f 1b40 c434 8740 ffee 863e
00000090: 9e55 a8c0 dccf 69bf 9e72 ffc0 5610 3fc1
000000a0: 800b d840 2a5d 29be 023c a9c0 141d fcbd
000000b0: 8caf 23c1 50e3 17c0 2795 c33e a028 f8c0
000000c0: 1fd7 3641 afe7 b540 9b87 0b3f 182e 1fbd
000000d0: d88f a9be 0f8f 573d acb0 dabe 898a a53c
000000e0: 4047 98be f5e1 57be e9f4 b2bd 8320 c7be
000000f0: c559 d93e 5d5b b53e 9573 4a3e fb76 9f3d
00000100: 5531 8cbe f52e a73e 605a d43d 9125 1d3f
00000110: 258a 14be 8ed1 823e 5d15 2dbe 799b fc3d
00000120: abbc 13bb d84c 693e c47a 743e 476a ed3f
00000130: 74c8 f63f 849a 5740 cc99 d1c0 e851 aec0
00000140: 69b9 cb40 91d4 adbd 75ae 0c40 d8fd b6bf
00000150: 9f7c 4a40 eadc 4fc0 1bb5 a440 fc7c b0c0
00000160: 3083 45bd 7970 edc0 96d2 13c0 1b4a eabf
00000170: c5c7 19c0 44f1 75c0 e9c1 acc0 fbe1 ba3f
00000180: 80de cf3f f31e 8640 acf9 a340 9484 69c0
00000190: 8fe1 a63d 34d8 68bd 8be6 0abe 9a9d 25bf
000001a0: d819 ca3d 4bb5 2f3e d76f 76bd 40b8 d63d
000001b0: f97c 1c3e 4a46 55bd 28e0 ca3e 5f96 4ebe
000001c0: c535 793e 3445 053e 2363 403e 9a7c 003f
000001d0: 0af8 e83d 4f74 8e3e 51e4 5c3e 753f 5a3d
000001e0: d353 25bc e269 013e a656 573c 57fb 67bd
000001f0: a8b3 3a3e f6f4 c3c0 bf4e 3dc0 0252 dc40
00000200: 0189 95bf d7a4 35c1 eeb2 b7c0 c80a f1bf
00000210: 3a4f 13c1 8d12 46c0 b9ec d03e 550e 5bc1
00000220: 40be 1f3e d742 8040 cabc cd3f 26a3 3540
00000230: 7e1f 12c0 0a9d 2f41 0e4c 8ac1 9fd1 0b40
00000240: fec2 b63f 2a09 c5bf a578 1a40 ec1e 2c41
00000250: b260 2a40 01d2 5bc0 dfab 6140 fca3 d4c0
00000260: 7cce 8b40 a01a 30c1 3ece 0140 d097 62c0
00000270: c86a 0fc1 92ae 6140 e58e 1bc1 047b 76bf
00000280: f574 3440 c253 8340 acca 6940 1826 00bf
00000290: 8f54 1a40 5005 ecbd 54a0 89be b16a 6a3f
000002a0: da09 48c1 c588 a940 3896 72c0 69e5 c3bf
000002b0: fc8a a440 655c 01c0 0e5d a6c0 dd02 56c1
000002c0: cd25 8240 7b68 d5c0 5a64 9240 5f22 3c41
000002d0: 32b4 79c1 a4ba 3140 2ec3 91c1 0cb3 4d40
000002e0: d46f 2441 6d97 bfbf 43a2 79c0 003b 7e40
000002f0: 2b6b 3ec1 3b7d 1440 250f c740 06fb 4741
00000300: a291 d0c0 8db8 27bd d592 d1c0 fc17 5dc0
00000310: 5431 a640 3a49 b340 6d0b ebc0 53b3 83c1
00000320: 626d b7bf d7ff 33c1 5d8d bac0 ec7a 50c1
00000330: 88c7 cfc0 231e c3bf 4a2e ea3f 1adf 41c1
00000340: ecdf 28bf 26e2 c9c0 1e8b 08c1 3c91 a13f
00000350: b91b 543e 3ca7 b4c0 0916 8740 efd8 683f
00000360: ac58 5040 b57b 8e40 df54 48c0 c74a 4ec0
00000370: 62ea c6c0 69b6 fcbf 2408 f140 e5d8 96bf
00000380: 82fe 9940 2f6a 0e3e 7e09 bb3d bbc3 0b3e
00000390: 99bf 4abb 8af0 28bf 4e5f 8d3e 6ffc 1b3e
000003a0: c84a d23d f295 82bd 2a68 1ebe f256 123e
000003b0: e7e1 0a3f 74bb 213d f2c3 973d 7316 613e
000003c0: 465d 793e 2eb2 ac3e 00be 8d3e f30e 913e
000003d0: f328 963e 4202 c7bd bdbf bfbd 5ef1 e2bd
000003e0: e88b 203e f425 cc3d 6f8c 5040 26e2 663f
000003f0: 659b 8540 2f9f a93e 2b21 893f 8f10 47c0

bias f4 [32]
8.831615 5.6391425 1.7475971 -11.095323 -10.159576 2.9025102 0.021642707 -4.300109
2.59044 -12.219803 -4.90337 -1.3424283 1.2297068 2.1239197 0.0029430753 3.4195259
-3.6698494 -2.939798 8.998505 7.515217 3.171974 -4.1529346 -3.779813 -3.0942616
0.016105728 8.059211 7.6362743 -1.5831622 6.7796073 6.5625687 -1.5929991 13.599176
00000000: 4c4e 0d41 db73 b440 43b1 df3f 7186 31c1
00000010: a08d 22c1 bac2 3940 0c4c b13c 7e9a 89c0
00000020: c5c9 2540 5084 43c1 68e8 9cc0 b1d4 abbf
00000030: 0867 9d3f 4dee 0740 9ce0 403b 83d9 5a40
00000040: d0de 6ac0 a725 3cc0 e0f9 0f41 a87c f040
00000050: 9f01 4b40 d7e4 84c0 75e8 71c0 6208 46c0
00000060: 29f0 833c 87f2 0041 5c5c f440 0fa5 cabf
00000070: 8bf2 d840 9000 d240 65e7 cbbf 3a96 5941

weight f4 [32]
5.753817 6.325335 9.858032 10.971593 4.1206427 8.567938 0.01754409 5.256737
3.2803566 8.527974 12.295953 6.8218837 4.1790285 14.044942 0.036178675 12.647855
13.740091 10.479549 16.425026 7.033826 10.745578 15.046798 10.304839 4.243294
0.035896704 13.7207775 11.841975 7.5607495 3.688933 11.387312 5.468618 4.0676684
00000000: 451f b840 2569 ca40 80ba 1d41 a58b 2f41
00000010: 4edc 8340 4616 0941 a0b8 8f3c 3137 a840
00000020: 5df1 5140 9572 0841 39bc 4441 df4c da40
00000030: 9aba 8540 15b8 6041 1730 143d 9d5d 4a41
00000040: 6ad7 5b41 3cac 2741 7466 8341 1a15 e140
00000050: e3ed 2b41 afbf 7041 9fe0 2441 10c9 8740
00000060: 6c08 133d 4e88 5b41 bb78 3d41 a9f1 f140
00000070: 7a17 6c40 6e32 3641 ebfe ae40 572a 8240

bias f4 [32]
-7.864718 -10.24396 -2.371572 -7.692999 -6.9119015 6.1962914 -0.50458777 -9.829894
-9.377475 -1.5936824 -1.853105 2.1973553 -10.495722 -1.8753299 -0.39114976 -3.5059729
-8.9215355 6.8509917 -2.664811 -9.973255 -2.5078516 -9.860922 -8.946187 -14.655902
-0.26173216 -2.0146735 -1.7787536 2.3273191 -10.409667 -3.6954675 -9.381403 -8.79386
00000000: c5ab fbc0 43e7 23c1 d6c7 17c0 0c2d f6c0
00000010: 4c2e ddc0 0548 c640 aa2c 01bf 3f47 1dc1
00000020: 230a 16c1 c9fd cbbf 8b32 edbf 78a1 0c40
00000030: 7aee 27c1 cf0a f0bf c844 c8be dc61 60c0
00000040: 9cbe 0ec1 533b db40 438c 2ac0 7492 1fc1
00000050: a480 20c0 56c6 1dc1 9523 0fc1 937e 6ac1
00000060: c201 86be 69f0 00c0 33ae e3bf ccf2 1440
00000070: ff8d 26c1 8a82 6cc0 3a1a 16c1 a7b3 0cc1

running_mean f4 [32]
-1118.5898 -1013.20605 -1347.82 -824.4088 -1318.8849 157.3027 31.357227 241.5293
-1248.1382 -627.8275 -1342.3035 -289.7402 -670.81647 -1230.4655 -22.535433 -820.6738
-1100.0203 562.6576 -1873.0952 -1296.3015 -1230.6116 -1656.9515 -1190.9038 -751.6818
-88.99705 -1052.7991 -2559.3696 -522.2351 -1277.2799 -1911.422 -9.124015 397.4805
00000000: e0d2 8bc4 304d 7dc4 3d7a a8c4 2a1a 4ec4
00000010: 51dc a4c4 7e4d 1d43 9adb fa41 8087 7143
00000020: 6c04 9cc4 f6f4 1cc4 b6c9 a7c4 bfde 90c3
00000030: 41b4 27c4 e5ce 99c4 9148 b4c1 202b 4dc4
00000040: a680 89c4 16aa 0c44 0c23 eac4 a609 a2c4
00000050: 92d3 99c4 731e cfc4 ecdc 94c4 a3eb 3bc4
00000060: 7dfe b1c2 9299 83c4 eaf5 1fc5 0c8f 02c4
00000070: f5a8 9fc4 81ed eec4 f7fb 11c1 81bd c643

running_var f4 [32]
222043.56 250989.2 513844.28 425036.97 213410.02 452594.12 1045.9078 218174.83
158312.45 258471.95 480381.06 371313.12 240200.94 433401.56 857.28796 520967.03
372677.03 550318.0 637979.4 298009.75 252619.64 617806.4 372935.4 151820.14
1011.6537 469598.97 501952.1 323986.03 169898.72 572161.1 214353.38 177422.67
00000000: e4d6 5848 4d1b 7548 89e6 fa48 9f89 cf48
00000010: 8168 5048 44fe dc48 0dbd 8244 b50f 5548
00000020: 1d9a 1a48 fd69 7c48 a28f ea48 244e b548
00000030: 3c92 6a48 329f d348 6e52 5644 e160 fe48
00000040: a1f8 b548 e05a 0649 b6c1 1b49 3883 9148
00000050: e9b2 7648 e6d4 1649 ed18 b648 0943 1448
00000060: d6e9 7c44 df4b e548 0318 f548 4132 9e48
00000070: aeea 2548 12b0 0b49 5854 5148 ab43 2d48

weight f4 [32, 32, 5, 5]
-1.846788 -2.9445527 -4.5265903 2.3804216 -0.2638424 -5.1995606 -9.84727 -1.5285513
1.4906242 -5.6163483 0.11602358 4.081267 -0.04123644 4.2858467 6.303146 -2.9754338
-0.29227075 -0.25498074 7.3470936 4.280508 -8.026275 1.0163916 16.588224 7.802628
-3.719467 8.67376 2.6990318 -12.258049 1.5791644 -14.839617 -7.4456034 -3.147119
2.1322722 -4.4258943 0.6950089 3.2173948 -2.6165648 -9.701133 2.9845731 2.7685418
5.328488 -2.4709208 -4.1456757 -7.209567 -9.918126 2.0870042 3.5934925 -6.891557
-8.175209 -17.879818 -2.7310805 7.211165 9.602601 -8.130107 3.7193844 5.0654573
-3.0250185 -4.084473 3.9726603 -0.6151888 -1.4005741 7.084176 0.9498149 -8.499347
-3.742801 0.18512322 2.7917151 -2.5050492 -7.0232363 -1.7987531 -5.7984905 -12.144683
5.134697 -3.0152752 0.8446224 0.54105604 2.5161939 -5.330967 -0.24153295 -1.9265292
4.694694 -6.983481 13.258676 2.5123947 3.2940443 0.29011118 -3.5354629 -3.5858448
-4.7877145 -5.239912 -0.68253964 3.0564528 13.239513 3.4585671 2.250908 0.82330287
4.362002 2.0514328 -0.25232154 -4.781402 1.6353085 -10.333776 -2.3990982 -4.9078755
-8.385377 -10.769981 -10.926651 7.1801143 -7.255188 6.982699 2.012893 1.1369855
-1.5890353 -4.377249 9.766892 -8.887217 -20.512463 -7.211401 2.8355336 1.7133846
-0.5333368 -22.056765 -2.9499204 -11.264517 -7.349676 1.5372233 -2.5275562 1.464003
4.2698054 -5.268452 1.360474 -0.5423392 3.7559738 -3.667333 -6.00735 1.357568
0.6770516 -2.2545793 -2.1854684 -2.026306 -8.944849 -7.9895854 2.96506 -2.6684818
4.051033 -5.098219 -11.193898 -0.319543 -0.9989887 -3.2725935 -0.29898965 -0.067188166
-0.08408836 -0.3102669 0.08996237 -0.3192518 -0.11319444 -0.3348023 -0.13481943 -0.0676186
-0.120230526 -0.32770634 -0.07996864 0.11363926 -0.120232545 -0.2737961 -0.28295067 -0.3065762
-0.12022347 0.12699819 -0.32431027 -0.29449716 -0.09960363 0.08016376 0.1148083 -3.8562849
-4.6524463 -7.543622 -12.106927 -6.1475167 -6.4103875 -1.5090637 4.1684136 -9.796564
6.8119106 -2.3317618 -6.1146803 2.1032069 -10.373562 -1.7680053 5.063081 -2.3810096
-5.3196316 -4.975709 2.2083752 -11.04582 -7.0979733 6.5267296 -17.80073 1.3113738
-0.46027476 -2.148511 -0.82381946 -8.193302 -1.2014884 -3.7397711 -13.836085 -16.084023
-15.538599 -3.0012987 -8.087991 7.296581 -0.7609758 -17.794807 -17.970695 -13.6576
-13.236764 -8.748964 2.4548798 7.3490434 7.8587055 6.382562 -9.085861 -7.6158023
1.5950882 -0.3045953 -6.4103723 -0.4642762 2.7805552 1.2262731 -1.4843936 -1.1809561
0.98088074 11.255648 4.732521 -4.546987 -6.247688 -2.830891 1.160082 -8.693414
-0.29579464 -4.6307425 4.7411036 -3.119885 5.2978535 0.18748856 -2.974046 6.4016156
-2.4992113 -3.2863617 5.525059 -5.5636196 -1.2355074 2.1376276 -16.94643 -0.45492125
00000000: 8d63 ecbf 8d73 3cc0 d4d9 90c0 d458 1840
00000010: 5a16 87be cd62 a6c0 6b8e 1dc1 92a7 c3bf
00000020: c6cc be3f 20b9 b3c0 c59d ed3d bd99 8240
00000030: 8be7 28bd a825 8940 5fb3 c940 826d 3ec0
00000040: 83a4 95be d68c 82be 641b eb40 ecf9 8840
00000050: 9f6b 00c1 1f19 823f afb4 8441 21af f940
00000060: bf0b 6ec0 b9c7 0a41 f0bc 2c40 f820 44c1
00000070: 0f22 ca3f 126f 6dc1 6242 eec0 666a 49c0
00000080: 2677 0840 eda0 8dc0 1aec 313f cce9 4d40
00000090: cc75 27c0 d737 1bc1 3f03 3f40 ca2f 3140
000000a0: f982 aa40 9123 1ec0 60a9 84c0 c6b4 e6c0
000000b0: a5b0 1ec1 7a91 0540 c8fb 6540 a387 dcc0
000000c0: a8cd 02c1 de09 8fc1 06ca 2ec0 ddc1 e640
000000d0: 41a4 1941 eb14 02c1 650a 6e40 3a18 a240
000000e0: e799 41c0 01b4 82c0 1140 7e40 037d 1dbf
000000f0: 0346 b3bf 92b1 e240 1227 733f 53fd 07c1
00000100: 0d8a 6fc0 f190 3d3e 76ab 3240 ba52 20c0
00000110: 5abe e0c0 8b3d e6bf 3c8d b9c0 9f50 42c1
00000120: 704f a440 45fa 40c0 2c39 583f a682 0a3f
00000130: 5209 2140 4897 aac0 6a54 77be 8298 f6bf
00000140: ef3a 9640 ad78 dfc0 8923 5441 13cb 2040
00000150: 9fd1 5240 7489 943e 0645 62c0 7b7e 65c0
00000160: f534 99c0 5cad a7c0 ebba 2ebf ec9c 4340
00000170: 0cd5 5341 2a59 5d40 e00e 1040 fac3 523f
00000180: 8595 8b40 ad4a 0340 4a30 81be 3f01 99c0
00000190: ca51 d13f 2657 25c1 d38a 19c0 510d 9dc0
000001a0: 812a 06c1 d851 2cc1 90d3 2ec1 7fc3 e540
000001b0: 802a e8c0 4572 df40 3dd3 0040 be88 913f
000001c0: 8265 cbbf 6c12 8cc0 3145 1c41 0a32 0ec1
000001d0: 8619 a4c1 ccc3 e6c0 6279 3540 3050 db3f
000001e0: c388 08bf 4174 b0c1 7fcb 3cc0 763b 34c1
000001f0: 8c30 ebc0 bcc3 c43f 7bc3 21c0 7364 bb3f
00000200: 3fa2 8840 2997 a8c0 0324 ae3f bed6 0abf
00000210: e061 7040 95b5 6ac0 363c c0c0 cac4 ad3f
00000220: 4153 2d3f 074b 10c0 b7de 0bc0 ffae 01c0
00000230: 1a1e 0fc1 afaa ffc0 8bc3 3d40 68c8 2ac0
00000240: 10a2 8140 9c24 a3c0 351a 33c1 249b a3be
00000250: b9bd 7fbf 2c72 51c0 2c15 99be f399 89bd
00000260: 8536 acbd 4edb 9ebe 313e b83d f974 a3be
00000270: 7dd2 e7bd 356b abbe 1b0e 0abe 9f7b 8abd
00000280: 6c3b f6bd 20c9 a7be 99c6 a3bd b3bb e83d
00000290: 7b3c f6bd 012f 8cbe e9de 90be 8ef7 9cbe
000002a0: b937 f6bd d00b 023e ff0b a6be 55c8 96be
000002b0: fdfc cbbd e62c a43d 9d20 eb3d 5fcd 76c0
000002c0: d7e0 94c0 5a65 f1c0 f9b5 41c1 75b8 c4c0
000002d0: e521 cdc0 0029 c1bf a563 8540 babe 1cc1
000002e0: 2cfb d940 963b 15c0 76ab c3c0 f19a 0640
000002f0: 1cfa 25c1 ff4d e2bf c204 a240 7662 18c0
00000300: 6c3a aac0 0239 9fc0 0556 0d40 aebb 30c1
00000310: 9922 e3c0 f8da d040 e567 8ec1 19db a73f
00000320: 22a9 ebbe 3481 09c0 d5e5 52bf c417 03c1
00000330: 5fca 99bf 6958 6fc0 9b60 5dc1 14ac 80c1
00000340: 1a9e 78c1 4715 40c0 6968 01c1 977d e940
00000350: 4fcf 42bf c45b 8ec1 fcc3 8fc1 8885 5ac1
00000360: c9c9 53c1 c2fb 0bc1 c01c 1d40 5d2b eb40
00000370: 847a fb40 f33d cc40 b05f 11c1 a7b4 f3c0
00000380: da2b cc3f eaf3 9bbe c521 cdc0 9cb5 edbe
00000390: 9ef4 3140 84f6 9c3f 9c00 bebf 9229 97bf
000003a0: 001b 7b3f 2217 3441 d070 9740 eb80 91c0
000003b0: 0fed c7c0 512d 35c0 917d 943f 3918 0bc1
000003c0: 6572 97be 0b2f 94c0 1fb7 9740 32ac 47c0
000003d0: 0488 a940 00fd 3f3e c556 3ec0 09da cc40
000003e0: 14f3 1fc0 c053 52c0 49cd b040 2c09 b2c0
000003f0: 1b25 9ebf e4ce 0840 4a92 87c1 70eb e8be

bias f4 [32]
-4.045114 -1.5804877 -7.8545146 -0.015581776 0.0015897393 -11.066395 0.01744372 0.016016593
-15.010938 0.03455674 -0.025799688 -1.9296664 -11.361246 -7.995745 -0.0034395114 -10.19133
-0.017838342 -9.733178 6.5904636 -7.4536657 -20.073652 -2.3320842 -0.0162874 -4.490975
0.007861152 -0.03333214 -21.634653 -0.0013027425 -0.03268137 0.014208951 -6.16412 0.100378565
00000000: 9371 81c0 6c4d cabf 2f58 fbc0 b54a 7fbc
00000010: cd5e d03a f40f 31c1 22e6 8e3c 3b35 833c
00000020: cd2c 70c1 5e8b 0d3d de59 d3bc 4fff f6bf
00000030: aac7 35c1 25dd ffc0 6d69 61bb b00f 23c1
00000040: b721 92bc 19bb 1bc1 14e5 d240 6e84 eec0
00000050: d796 a0c1 de40 15c0 276d 85bc 11b6 8fc0
00000060: 10cc 003c 4887 08bd c513 adc1 c9c0 aaba
00000070: e6dc 05bd a9cc 683c 7940 c5c0 4793 cd3d

weight f4 [32]
64.62801 50.485435 55.62251 -0.010370889 0.0003737728 61.46959 0.0008745039 0.010026142
75.38106 -0.0054930383 0.013311398 63.420517 69.963394 59.595497 0.0034977337 71.80118
0.017252496 62.50333 129.57251 59.454823 63.860416 73.78364 0.0011021664 70.034386
0.013004603 -0.0013005479 69.68519 -0.0030543257 -0.007474278 0.013352805 68.34334 77.84752
00000000: 8b41 8142 16f1 4942 737d 5e42 a9ea 29bc
00000010: f0f6 c339 dce0 7542 f73e 653a b044 243c
00000020: 1ac3 9642 f2fe b3bb 0d18 5a3c 9cae 7d42
00000030: 42ed 8b42 ca61 6e42 3c3a 653b 349a 8f42
00000040: 1b55 8d3c 6903 7a42 9092 0143 bdd1 6d42
00000050: 1171 7f42 3991 9342 9176 903a 9b11 8c42
00000060: 4211 553c 2577 aaba d15e 8b42 152b 48bb
00000070: caea f4bb b9c5 5a3c caaf 8842 eeb1 9b42

bias f4 [32]
3.1108367 15.249205 9.96285 -0.1977666 -0.18219604 4.782203 -0.02776735 -0.24316533
11.636114 -0.27288124 -0.19999252 2.746118 6.2312565 7.1591997 -0.25917798 4.6278644
-0.4918838 1.1928612 -4.3977923 9.385714 4.9547477 5.396259 -0.018540325 5.2655816
-0.27016482 -0.14889376 1.0922631 -0.099995896 -0.15091786 -0.19998641 9.400742 7.6283383
00000000: f317 4740 befc 7341 d567 1f41 5483 4abe
00000010: 9991 3abe cf07 9940 5b78 e3bc 5500 79be
00000020: 862d 3a41 17b7 8bbe d7ca 4cbe 66c0 2f40
00000030: 7466 c740 2a18 e540 fab2 84be 7717 9440
00000040: 32d8 fbbe adaf 983f b7ba 8cc0 e22b 1641
00000050: 4b8d 9e40 27ae ac40 e1e1 97bc a57f a840
00000060: 0b53 8abe 9b77 18be 47cf 8b3f a6ca ccbd
00000070: 368a 1abe 3dc9 4cbe 7069 1641 591b f440

running_mean f4 [32]
-793.90704 -460.51685 -307.1901 -41.45406 -34.033833 -813.9879 -17.294907 -25.558304
-902.5521 -17.273012 -15.005353 -819.2885 -496.63892 -1011.405 -47.9733 -300.82693
18.531845 -690.43146 -239.86351 -179.04993 -988.9713 -440.61847 -25.349497 -649.1263
5.729075 47.792614 -659.64276 -25.298214 5.206517 -24.967834 -218.16722 -146.62541
00000000: 0d7a 46c4 2842 e6c3 5598 99c3 f5d0 25c2
00000010: a522 08c2 3a7f 4bc4 f85b 8ac1 6877 ccc1
00000020: 56a3 61c4 212f 8ac1 ed15 70c1 77d2 4cc4
00000030: c851 f8c3 ecd9 7cc4 a9e4 3fc2 d969 96c3
00000040: 3841 9441 9d9b 2cc4 0fdd 6fc3 c80c 33c3
00000050: 2a3e 77c4 2a4f dcc3 c5cb cac1 1548 22c4
00000060: 9554 b740 a32b 3f42 23e9 24c4 be62 cac1
00000070: ca9b a640 20be c7c1 cf2a 5ac3 1ba0 12c3

running_var f4 [32]
31147.607 35917.883 38049.11 35.764355 19.155348 36707.496 44.783398 48.708996
30178.28 29.999693 46.2017 33980.633 30594.281 36317.777 85.75804 31012.207
560.1104 30039.072 15803.841 39359.793 35960.5 31745.777 47.13124 35098.918
136.54442 166.00412 33675.613 13.874793 96.86649 36.811146 33115.215 27951.93
00000000: 3757 f346 e24d 0c47 1ca1 1447 b30e 0f42
00000010: 273e 9941 7f63 0f47 3322 3342 03d6 4242
00000020: 8fc4 eb46 5fff ef41 8ace 3842 a2bc 0447
00000030: 9004 ef46 c7dd 0d47 1e84 ab42 6a48 f246
00000040: 1107 0c44 25ae ea46 5def 7646 cbbf 1947
00000050: 8078 0c47 8e03 f846 6486 3c42 eb1a 0947
00000060: 5f8b 0843 0e01 2643 9d8b 0347 27ff 5d41
00000070: a5bb c142 9d3e 1342 375b 0147 dc5f da46

weight f4 [9, 1792]
-2.576098 27.90242 10.787474 1.1726191 12.963078 13.576704 3.7777116 0.0964008
38.13131 -7.467436 -11.084743 -0.22594057 23.73123 -6.647449 7.3073726 -17.67817
5.914983 23.220648 10.505176 15.134855 -6.702273 20.925625 17.046326 12.046989
-3.1564598 -2.6538522 14.672216 2.2072237 14.20185 4.913687 20.462112 -9.127298
-26.000797 23.652605 11.762788 0.84878206 -7.1588316 -0.067068264 7.32528 10.866664
4.6402 10.469705 17.818626 -8.551867 -5.6499405 -4.0193686 42.59728 -1.0769283
5.90385 62.96063 30.514664 6.109036 43.29325 38.289467 13.943816 -15.974197
0.044470277 -7.53227 6.549074 6.217016 2.091635 -11.294648 16.61424 16.996183
13.141159 12.569283 -10.337223 4.054834 13.942034 35.8044 8.175434 3.434079
-4.6557865 23.698917 29.245415 -5.828564 15.899963 3.9861577 0.6620977 10.743894
17.576262 18.70894 2.2517648 8.548303 8.126181 27.181124 5.2508326 2.2889078
42.37403 12.043536 9.842769 13.738495 15.427332 23.599388 7.188481 20.689358
4.1640835 12.534751 2.557501 4.9732013 13.381769 10.06473 4.112098 3.0257177
13.054756 29.561687 44.47096 16.038454 -2.0817661 4.299133 4.05659 13.606829
14.5006895 -2.157939 15.210968 1.0493958 -3.1126292 11.546162 -3.810564 15.861689
15.369878 6.0518174 -14.090025 8.6564045 13.869144 -2.53084 23.81313 24.64011
24.390398 13.6748 -26.396152 22.852558 14.073539 6.521496 -1.2830565 -24.690302
27.322119 40.024734 8.337402 13.059241 11.625515 -12.913062 12.005477 -14.373748
45.53181 5.5735908 27.402124 21.464882 -19.284117 30.701414 15.949019 21.012651
3.536442 -2.5141938 27.450594 5.090644 29.786644 13.87051 35.133183 8.828942
-5.102025 40.285564 20.922628 36.92314 12.036321 28.760624 1.4934156 -24.382719
-0.10392491 -0.11824267 -0.081266426 -0.090161584 -0.09494157 -0.08131776 -0.08460304 -0.11685495
-0.087898016 -0.10122367 -0.099064 -0.0967964 -0.11992367 -0.0785737 -0.10586774 -0.110935174
-0.09052522 -0.10825651 0.0014502903 -0.08134264 -0.08795689 -0.1018378 0.084253855 -0.09433507
-0.109600425 -0.11399349 -0.10333595 -0.090028636 -0.09361158 -0.08607531 -0.09081559 -0.10881904
-0.09548612 -0.08356848 -0.102555655 -0.08011619 -0.088591374 -0.08620993 -0.10298895 -0.12346444
-0.07928145 -0.106217615 -0.10549527 -0.10536889 -0.08595704 -0.09179015 -0.08211815 -0.10939568
-0.08886822 -0.12139616 -0.112458326 -0.07934573 -0.08074077 -0.119253576 -0.0849956 -0.09262673
-0.1021927 0.08574207 -0.113618866 -0.0868476 -0.09705856 -0.10818816 -0.10285221 0.079781845
0.08358874 -0.07686939 -0.09467476 -0.09365352 -0.11201732 -0.1052761 -0.086304046 -0.09327185
-0.09785161 -0.09757809 -0.10690628 -0.07856851 -0.117265865 -0.091359146 -0.07695764 -0.08862294
-0.07643483 -0.08167254 0.08479624 -0.08078486 -0.077341564 -0.11253656 -0.11163496 -0.08663732
00000000: cade 24c0 2838 df41 7e99 2c41 6218 963f
00000010: c468 4f41 2e3a 5941 07c6 7140 c86d c53d
00000020: 7686 1842 3cf5 eec0 1b5b 31c1 f75c 67be
00000030: 8fd9 bd41 e7b7 d4c0 ffd5 e940 e46c 8dc1
00000040: 8a47 bd40 e3c3 b941 3315 2841 5e28 7241
00000050: 0579 d6c0 ae67 a741 e05e 8841 78c0 4041
00000060: 7003 4ac0 b7d8 29c0 66c1 6a41 2743 0d40
00000070: c73a 6341 ed3c 9d40 68b2 a341 6a09 12c1
00000080: a201 d0c1 8938 bd41 6134 3c41 c849 593f
00000090: 2615 e5c0 165b 89bd b268 ea40 dbdd 2d41
000000a0: 857c 9440 e983 2741 8c8c 8e41 72d4 08c1
000000b0: 50cc b4c0 ab9e 80c0 9d63 2a42 c9d8 89bf
000000c0: 57ec bc40 afd7 7b42 081e f441 397d c340
000000d0: 4a2c 2d42 6a28 1942 df19 5f41 5096 7fc1
000000e0: 7726 363d 5b08 f1c0 0492 d140 ccf1 c640
000000f0: 59dd 0540 e1b6 34c1 f7e9 8441 2ff8 8741
00000100: 3042 5241 c81b 4941 4465 25c1 33c1 8140
00000110: 9212 5f41 b537 0f42 94ce 0241 f3c7 5b40
00000120: 34fc 94c0 6297 bd41 9cf6 e941 9983 bac0
00000130: 4066 7e41 351d 7f40 3c7f 293f fde6 2b41
00000140: 2f9c 8c41 e9ab 9541 ea1c 1040 d9c5 0841
00000150: d604 0241 f172 d941 d206 a840 777d 1240
00000160: 027f 2942 53b2 4041 fb7b 1d41 e0d0 5b41
00000170: 5ad6 7641 8ccb bc41 0908 e640 ce83 a541
00000180: 2c40 8540 578e 4841 19ae 2340 7724 9f40
00000190: ba1b 5641 2209 2141 4f96 8340 5ca5 4140
000001a0: 48e0 5041 567e ec41 43e2 3142 c14e 8041
000001b0: a83b 05c0 7f92 8940 96cf 8140 92b5 5941
000001c0: d302 6841 ac1b 0ac0 2060 7341 9a52 863f
000001d0: 5135 47c0 14bd 3841 48e0 73c0 7ac9 7d41
000001e0: 05eb 7541 7da8 c140 be70 61c1 a280 0a41
000001f0: 04e8 5d41 48f9 21c0 4a81 be41 f21e c541
00000200: 891f c341 fbcb 5a41 522b d3c1 0ad2 b641
00000210: 372d 6141 18b0 d040 323b a4bf bd85 c5c1
00000220: b393 da41 5419 2042 0066 0541 a7f2 5041
00000230: 1c02 3a41 e79b 4ec1 6f16 4041 dffa 65c1
00000240: 9320 3642 db5a b240 8d37 db41 14b8 ab41
00000250: df45 9ac1 7f9c f541 2f2f 7f41 e919 a841
00000260: 1155 6240 8de8 20c0 d19a db41 8ee6 a240
00000270: 0c4b ee41 9ced 5d41 6188 0c42 5943 0d41
00000280: ca43 a3c0 6b24 2142 8b61 a741 4cb1 1342
00000290: c594 4041 c215 e641 3e28 bf3f cf0f c3c1
000002a0: 95d6 d4bd 3729 f2bd 036f a6bd a3a6 b8bd
000002b0: ba70 c2bd ed89 a6bd 5c44 adbd a651 efbd
000002c0: e003 b4bd 5b4e cfbd 11e2 cabd 313d c6bd
000002d0: 8b9a f5bd 3feb a0bd 30d1 d8bd fb31 e3bd
000002e0: 4965 b9bd 97b5 ddbd ab17 be3a f896 a6bd
000002f0: be22 b4bd 5690 d0bd 498d ac3d bf32 c1bd
00000300: 3076 e0bd 6b75 e9bd cca1 d3bd ef60 b8bd
00000310: 6eb7 bfbd 4148 b0bd 86fd b9bd 84dc debd
00000320: 3a8e c3bd f425 abbd b308 d2bd f513 a4bd
00000330: 656f b5bd d58e b0bd dfeb d2bd edda fcbd
00000340: 505e a2bd 9f88 d9bd e70d d8bd a5cb d7bd
00000350: 3f0a b0bd 79fc bbbd 902d a8bd d80a e0bd
00000360: 8b00 b6bd 8d9e f8bd 8d50 e6bd 0480 a2bd
00000370: 6b5b a5bd 383b f4bd 2c12 aebd 15b3 bdbd
00000380: 684a d1bd 8a99 af3d 02b1 e8bd 28dd b1bd
00000390: a3c6 c6bd c191 ddbd 2ea4 d2bd aa64 a33d
000003a0: 9330 ab3d b36d 9dbd d7e4 c1bd 6bcd bfbd
000003b0: 5669 e5bd ff9a d7bd 2dc0 b0bd 5005 bfbd
000003c0: 6d66 c8bd 06d7 c7bd aef1 dabd 87e8 a0bd
000003d0: 1629 f0bd 811a bbbd f89b 9dbd f27f b5bd
000003e0: dd89 9cbd ef43 a7bd a7a9 ad3d 8872 a5bd
000003f0: 4165 9ebd 9179 e6bd dfa0 e4bd e86e b1bd

bias f4 [9]
12.82945 16.536787 17.253344 18.02484 16.307817 17.618086 16.61821 20.119602
16.266518
00000000: 6d45 4d41 574b 8441 d906 8a41 df32 9041
00000010: 6976 8241 d7f1 8c41 18f2 8441 f2f4 a041
00000020: d421 8241
