dev/pacman_1500.pth (torch_old, 242433 bytes, 20 tensors)

weight f4 [16, 4, 5, 5]
00000000: 082f 903c d707 38bd 8078 a6ba 47f7 6bbd
00000010: 8c37 c53c e498 d73c cc6c 09bd 73ca aebd
00000020: 0694 7c3d 0fa9 b3bd 00f0 8cbd 0c06 ba3c
00000030: 5dc4 b23d 7135 963d 773e 78bd fefe 483d
00000040: 611c b13d 06de a4bd 8c34 83bd 00a7 3a3c
00000050: 2d49 40bd 06f1 03bd ae56 663d 80d1 223c
00000060: 1b1d b83d ba90 76bd 7d92 c6bd fe89 453d
00000070: 5075 9ebb 91d1 ac3d ef45 823d fd09 3cbd
00000080: 40b2 7fbb 20d6 cdbb 87ef 2dbd e5a2 82bd
00000090: 509c 09bd e01a b93c cc9e d8bc c069 80bc
000000a0: 7da9 76bd 0aee 06bd 2a46 683d e01c a1bc
000000b0: ceff 433d 2c52 f2bc bece 8cbd c1a7 963d
000000c0: a170 8b3d 3abe 15bd 8092 46ba 1875 73bc
000000d0: 50d4 0c3c 7e56 623d 6fad 983d 9f29 8e3d
000000e0: fe59 093d 0732 34bd 8441 d33c f7f6 40bd
000000f0: 7018 6ebc b0a3 5f3c cc4f ea3c 575e 913d
00000100: 01a5 9d3d 2489 cd3c 1ddc c73d 4a41 3d3d
00000110: ce8c 493d 5594 9fbd ccae a63c c1c1 9f3d
00000120: 3843 f5bc 8103 c73d 6c92 12bd bff6 6541
00000130: c2ed 9941 a6e6 25c1 1446 50be e468 ac40
00000140: 312f a841 0af0 9d41 37db 0ec1 dab1 dfbf
00000150: 10d6 c7c0 e917 0c42 0097 cb41 a1bd 26c1
00000160: 96a7 80c0 fc55 ac41 42c0 61c1 4782 8ec0
00000170: 6e44 ad3f 4e44 ac40 34c4 f3bf a80d 3741
00000180: 1a91 39c1 96e3 cec0 6366 02c0 91f1 8c40
00000190: e0ee e93b 504c 84bd 7a10 323d 5add c0bd
000001a0: 6a6a abbd a828 873c b0f4 6abd acfc 00bd
000001b0: 9b5a a4bd cadd 1d3d e34d 7cbd beee 513d
000001c0: 8e91 a8bd 7090 27bd e30a 9b3d d8e5 6dbc
000001d0: 00e0 a53a 70f9 5bbc deb4 87bd 8275 3b3d
000001e0: 5349 40bd 6ed2 aabd b6af 363d 980b fcbc
000001f0: d032 9b3b 2221 183d e0b1 8fbb 1dcc 28bd
00000200: 1aa0 0b3d 80ae 1c3c 63d4 c33d eadc 4bbd
00000210: 7629 86bd a78a 40bd 20c5 a13b fd18 1cbd
00000220: 5243 183d 4649 a6bd fe11 9fbd 484c b4bd
00000230: 0dab 90bd fd2d cc3d 0075 a4bb dd25 32bd
00000240: 0028 3ebb 866a 0abd 67d0 66bd 06e8 043d
00000250: e8be 2bbc a0e9 71bb 92b4 5d3d 0ab4 afbd
00000260: d5fb a5bd c98b ac3d 0c34 f9bc 4ed9 663d
00000270: b80c cabc 50c7 38bc 6eca 693d 2829 96bd
00000280: 37b7 9a3d eda3 25bd f929 ba3d b9bd 923d
00000290: c09a 34bc c709 69bd 1807 c6bc 8362 aebd
000002a0: 82f3 793d d31c cb3d 454b a6bd 40e1 b9bd
000002b0: 0749 833d 7a73 313d e1ef c93d 1729 7041
000002c0: 998d 8a41 cc88 9841 ec85 1942 882c cc41
000002d0: 425e 0541 347d e640 c866 e23f 98ed b940
000002e0: 1d2d 8941 2cc6 4f40 9fcd 3840 2160 8a41
000002f0: 3c69 cbbf 181f 3241 4090 0fbf bfd9 97c0
00000300: c03a 2dc1 271c c8c1 1cd6 6b3f 5be8 12c1
00000310: ed27 50c0 9cce d240 ef46 e9c1 c162 56c2
00000320: b0a5 613c 5314 93bd 8243 a0bd d8a1 e1bc
00000330: 5a1c 7abd 545c b2bc 8360 51bd 2835 103c
00000340: 2144 bb3d 9e23 2b3d 22d8 393d 5021 80bb
00000350: c976 8d3d 3d7a 6dbd 00a8 90bd c0bc 7e3c
00000360: ba84 1c3d 52a2 683d 7e7c 343d c033 79bc
00000370: 3edc 95bd 4294 063d 47ac 24bd dacc 643d
00000380: 489c abbd b9b0 873d 1383 bd3d c00c 0dbb
00000390: 48e2 abbd c85a b03c 10a8 223c bd10 53bd
000003a0: e786 44bd e066 b7bd dd03 33bd cc32 81bd
000003b0: efcd c03d 613e 8d3d 36fb 403d e8e7 0bbc
000003c0: 2114 8f3d cebe 583d e05e a83c 1ac2 58bd
000003d0: eefc 253d 6bd3 95bd b7b1 1dbd 7395 893d
000003e0: b78f 2cbd b884 c6bd 30af 3bbd fda7 68bd
000003f0: 9926 b63d a8b6 04bc ee6a 87bd 905c 133c
0.017600551 -0.04492935 -0.0012700707 -0.05760887 0.024074338 0.026318021 -0.033551022 -0.08534708
0.061664604 -0.0877248 -0.06881714 0.022707961 0.087288596 0.07334412 -0.060606446 0.049071305
0.08647991 -0.0805016 -0.06406507 0.011392355 -0.046944786 -0.03221228 0.056235008 0.009937644
0.089899264 -0.060196616 -0.09695909 0.048227303 -0.004835762 0.08438409 0.06360995 -0.045907963
-0.0039016157 -0.006281629 -0.04246476 -0.06378726 -0.033596337 0.022595823 -0.026442908 -0.015675426
-0.06022023 -0.032941855 0.05670754 -0.019667089 0.047851376 -0.029580198 -0.068753704 0.07356215
0.06808592 -0.036558367 -0.0007574931 -0.01485946 0.008595541 0.055258267 0.07454955 0.06941532
0.03353309 -0.043993022 0.025788076 -0.047110524 -0.014532194 0.013649866 0.028602503 0.07098072
0.076974876 0.025089808 0.0975878 0.046204843 0.049206547 -0.07791964 0.020347022 0.078006275
-0.029939279 0.09717465 -0.03578417 14.372741 19.241093 -10.368811 -0.20339233 5.387804
21.023043 19.742207 -8.928519 -1.7476151 -6.2448807 35.02335 25.44873 -10.421296
-4.0204573 21.541985 -14.109438 -4.453403 1.3536508 5.383338 -1.9044251 11.440834
-11.597925 -6.4652815 -2.0374992 4.404488 0.007139072 -0.06459868 0.043472745 -0.094172195
-0.08369906 0.016498879 -0.05736226 -0.031490967 -0.08025094 0.038541593 -0.061597716 0.051253073
-0.08230887 -0.04090923 0.07570436 -0.014520131 0.0012655258 -0.01342617 -0.066262946 0.04576636
-0.046944927 -0.083409175 0.044601165 -0.030767247 0.004736282 0.037140973 -0.004385218 -0.041210283
0.03408823 0.009563088 0.09561994 -0.049771227 -0.06550877 -0.04700723 0.004936829 -0.03810977
0.037173577 -0.081194445 -0.077671036 -0.08803612 -0.07063875 0.09969709 -0.0050188303 -0.04349314
-0.002901554 -0.033792995 -0.05635109 0.032447837 -0.010482527 -0.0036912933 0.054127283 -0.085792616
-0.08104674 0.084250994 -0.030420326 0.05635958 -0.024664268 -0.011277989 0.057077818 -0.07332069
0.07554477 -0.040439535 0.09090037 0.07165093 -0.011023223 -0.05689409 -0.024173304 -0.08514883
0.061023243 0.09917607 -0.08119825 -0.09076166 0.06410413 0.043323018 0.098602064 15.010032
17.31914 19.066795 38.380783 25.521744 8.335512 7.2027836 1.7687616 5.810253
17.147028 3.2464705 2.88755 17.296938 -1.589149 11.132591 -0.56079483 -4.7453303
-10.826843 -25.013746 0.9212358 -9.181727 -3.2524369 6.587721 -29.159636 -53.59644
0.013772413 -0.07181611 -0.07825376 -0.027542993 -0.061062194 -0.021772541 -0.05111743 0.008801736
0.09143854 0.041782014 0.045372136 -0.003910221 0.06907422 -0.057977904 -0.070632935 0.015547931
0.038212515 0.056795426 0.044064038 -0.015210092 -0.073173985 0.032856233 -0.04020336 0.055859424
-0.08379418 0.06625504 0.09253516 -0.0021522492 -0.08392769 0.021527663 0.009927765 -0.051529635
-0.047980215 -0.08955169 -0.043704856 -0.06308517 0.09414279 0.068966635 0.047114573 -0.0085391775
0.06986261 0.05291634 0.020553052 -0.052919485 0.040524416 -0.073157154 -0.03849956 0.06717958
-0.042129245 -0.09693283 -0.04582137 -0.05680083 0.08894081 -0.008100189 -0.06612192 0.008994237

bias f4 [16]
00000000: 1ced 6a41 0b96 c3bf edae 7c3e ea53 5a41
00000010: 9046 9abd b03c 8ac1 8a46 23c1 6899 6240
00000020: 01b7 b83f ae78 203c 3c5a 8541 cd49 70c1
00000030: c2dd b040 908d 4ac0 978f 1240 1481 9b40
14.682888 -1.5280164 0.24676104 13.645487 -0.0753299 -17.279633 -10.204721 3.5406132
1.4430848 0.009794397 16.66906 -15.018018 5.52707 -3.1648903 2.290014 4.8595066

weight f4 [16]
00000000: b248 3b41 6bcf 8e41 42d6 933c 1452 78c2
00000010: 47bc 75bc 782f 9541 4fcc f742 be9a 6d41
00000020: 7f79 9c41 cb9a 93bd 1fc6 e542 7828 de40
00000030: 418e 06c2 c711 7a42 486e c541 fa68 3e43
11.705248 17.851278 0.018046502 -62.080154 -0.014998502 18.648178 123.89904 14.850279
19.559324 -0.07207259 114.886955 6.94244 -33.63892 62.51736 24.678848 190.41006

bias f4 [16]
00000000: 9c69 823f eae0 8d42 f8fe 43bf e00f bb41
00000010: e60f 9abd 3799 4d40 0847 e641 65d2 d141
00000020: 2035 18bf 80c7 50bf 5975 5342 284c 40bf
00000030: 68ac d240 3c5f fc41 ba27 e941 0009 b242
1.018848 70.939285 -0.76560926 23.382751 -0.07522564 3.2124765 28.784683 26.227732
-0.5945606 -0.8155441 52.864597 -0.75116205 6.5835457 31.546501 29.144398 89.01758

running_mean f4 [16]
00000000: c2e3 6d41 a48e b6bf be3b 813e 0e52 6841
00000010: 22d3 8dbd dd4d 80c1 f017 0fc1 1682 8240
00000020: cb1d ae3f fd91 8c3c 8f81 8241 3cc3 6fc1
00000030: 9140 bc40 dd8a 4ec0 d487 953f 6e52 9640
14.868105 -1.426228 0.25240892 14.520033 -0.06925036 -16.03802 -8.943344 4.0783796
1.3602842 0.017159456 16.313261 -14.985165 5.8828816 -3.2272255 1.1682076 4.697562

running_var f4 [16]
00000000: 54df 1841 f172 8141 05c6 2c3b c21c 2542
00000010: ef1b 1f3b 07d0 a742 b8bd bb42 c1f2 1b42
00000020: c1db 4340 6f1b aa3b 4c2e 0941 34a1 7d41
00000030: c0e9 0941 04c5 963d 9f9f a142 9370 f13f
9.554523 16.181124 0.0026363146 41.278084 0.0024278124 83.9063 93.870544 38.987064
3.0602877 0.0051912586 8.573803 15.851856 8.619568 0.073617965 80.81176 1.886248

weight f4 [32, 16, 5, 5]
00000000: 6446 cfc2 4cc8 cd41 c9ab 9b40 0893 e041
00000010: ae04 5ac2 1a34 b0c2 1cdc c542 84e2 f0c2
00000020: a24d bb42 6705 b5c2 8571 6241 f63a f5c2
00000030: 0fc6 b840 faa6 7841 ab55 80c2 4d95 5c42
00000040: d5b9 d040 b4b2 6d42 761d 0042 491f 6742
00000050: dbc6 0643 a79a 3341 84a4 2e41 5a1f 3442
00000060: ebff b1c0 dcba 81c2 fc0b bd42 b4f6 8942
00000070: 2315 8542 d051 bac1 82bc 5042 a387 2d42
00000080: e4d1 21c2 306f 5a41 130f ffc1 bfb7 7042
00000090: 0b3e da41 2195 8ec2 14be 0cc1 bc96 ff41
000000a0: eeae 9141 43a7 8041 444c c441 49ea 8541
000000b0: 4923 c5c0 bee5 ecc1 bc3d b3c1 16e0 f841
000000c0: ba2b 45c0 574f 58c1 9b87 0b3f 182e 1fbd
000000d0: d88f a9be 0f8f 573d acb0 dabe 898a a53c
000000e0: 4047 98be f5e1 57be e9f4 b2bd 8320 c7be
000000f0: c559 d93e 5d5b b53e 9573 4a3e fb76 9f3d
00000100: 5531 8cbe f52e a73e 605a d43d 9125 1d3f
00000110: 258a 14be 8ed1 823e 5d15 2dbe 799b fc3d
00000120: abbc 13bb d84c 693e c47a 743e ae98 fa42
00000130: 90e8 0fc2 6838 1abf 58d8 7541 ea91 85c2
00000140: 6f33 6ac2 7c3e 49c1 af34 a042 0716 8842
00000150: 3070 ba41 17b3 1442 f935 94c1 3b1c e3c2
00000160: 1bb6 ee41 07ee 07c0 72c3 2142 158e b341
00000170: 2aed 8d42 4da5 a33e df8e 1241 e0ac 5c42
00000180: 302a 9741 0764 d0c1 6972 99bf 0a50 2bc2
00000190: 8fe1 a63d 34d8 68bd 8be6 0abe 9a9d 25bf
000001a0: d819 ca3d 4bb5 2f3e d76f 76bd 40b8 d63d
000001b0: f97c 1c3e 4a46 55bd 28e0 ca3e 5f96 4ebe
000001c0: c535 793e 3445 053e 2363 403e 9a7c 003f
000001d0: 0af8 e83d 4f74 8e3e 51e4 5c3e 753f 5a3d
000001e0: d353 25bc e269 013e a656 573c 57fb 67bd
000001f0: a8b3 3a3e 55e5 2ac0 12a8 7c41 a3f0 27c1
00000200: a1ca 4a40 6e70 1ec1 8a16 c4c1 93c9 8ac1
00000210: faee fec1 cb97 7cc1 34d9 cdc0 a8b0 77c1
00000220: c4d9 3540 e778 3441 3aaa b2c1 1b22 9840
00000230: e20f 02c1 6ea2 3141 2082 a3c0 ab14 4bbc
00000240: 1c22 1c41 75b1 bb40 a80d 3ebf a0f0 da41
00000250: de77 8940 01c4 5f41 54b3 2fc1 54dd b4c0
00000260: d7a7 8ac1 e531 a9c1 acc7 12c1 54f1 d9c1
00000270: 7be6 edc1 3597 bbc1 c7f2 eec1 140e 9ec0
00000280: bef0 ecbf 4bf9 c1c0 8c07 27c1 0e06 f3c0
00000290: 395e 9ac1 a011 31bd 4af4 1d40 3690 8ec1
000002a0: 7e5c b640 10b4 b8c0 bc60 89c0 d4fc b540
000002b0: 9ceb 32c1 4619 bfc0 12f3 43be 8e98 f5c2
000002c0: 38af 0bc2 c377 1542 ed37 0142 6d24 7ac1
000002d0: 3513 b7c2 002a 35c0 6785 a2c1 a783 46c1
000002e0: 875c 88c1 688a 14c2 f1d2 6dc1 1f29 b541
000002f0: e0f5 1842 1b85 e6c0 f343 b041 2e4b 3dc1
00000300: f035 d741 2aeb 50bf 78a0 bec0 8771 cbc1
00000310: 0ae7 a43f b478 0242 b624 9cc1 33d0 6341
00000320: d354 1642 3492 b5c1 3b72 e3c0 6c9b 9541
00000330: f413 a442 ca15 8bc0 114e b1c1 aca3 cac2
00000340: 4c74 90c1 757a 9ec1 27e3 57c1 5ab9 b542
00000350: dd67 9841 806d 2842 627b 5b42 82e6 46c2
00000360: 5180 8042 98d2 1b42 90d6 2241 6164 1542
00000370: 2401 1d41 707b d941 a71e 2342 8485 a041
00000380: 0948 7940 2f6a 0e3e 7e09 bb3d bbc3 0b3e
00000390: 99bf 4abb 8af0 28bf 4e5f 8d3e 6ffc 1b3e
000003a0: c84a d23d f295 82bd 2a68 1ebe f256 123e
000003b0: e7e1 0a3f 74bb 213d f2c3 973d 7316 613e
000003c0: 465d 793e 2eb2 ac3e 00be 8d3e f30e 913e
000003d0: f328 963e 4202 c7bd bdbf bfbd 5ef1 e2bd
000003e0: e88b 203e f425 cc3d a665 ac41 18a2 cb41
000003f0: 25a2 a142 92c9 e741 705b 1942 624f cf40
-103.63748 25.722801 4.86472 28.071793 -54.50457 -88.10176 98.9299 -120.44241
93.65163 -90.51055 14.152715 -122.61516 5.774177 15.540766 -64.16732 55.1458
6.5226846 59.424515 32.02877 57.780552 134.77678 11.225257 10.915165 45.030617
-5.56249 -64.86496 94.52341 68.98184 66.54128 -23.289948 52.18409 43.382458
-40.45497 13.652145 -31.88236 60.17944 27.280294 -71.29127 -8.796406 31.9486
18.210415 16.08167 24.53724 16.739397 -6.1605573 -29.612179 -22.405144 31.109417
-3.0807939 -13.51937 0.5450379 -0.038862318 -0.33117557 0.052626666 -0.42712915 0.02020766
-0.2974186 -0.2108229 -0.08738119 -0.38891992 0.424513 0.35421267 0.19770654 0.077863656
-0.27381387 0.32653013 0.103688 0.61385447 -0.14505823 0.25550503 -0.1690268 0.123343416
-0.0022542875 0.2278322 0.23874956 125.2982 -35.97711 -0.6024232 15.365318 -66.78499
-58.55023 -12.577755 80.1029 68.04302 23.30478 37.174892 -18.526354 -113.55514
29.838919 -2.123903 40.440865 22.444376 70.96321 0.31962052 9.159881 55.168823
18.8956 -26.048841 -1.198804 -42.828163 0.08148491 -0.056846812 -0.13564508 -0.64693606
0.098682106 0.17159002 -0.060165253 0.10484362 0.15282048 -0.052068986 0.39624143 -0.2017455
0.24336918 0.1301468 0.18787818 0.50190127 0.11375435 0.2782311 0.21571471 0.053283174
-0.010090786 0.12638047 0.013143217 -0.05663618 0.18232596 -2.6702473 15.791033 -10.496249
3.1686175 -9.902449 -24.511005 -17.348425 -31.866688 -15.787059 -6.432764 -15.480629
2.8414164 11.279517 -22.333118 4.7541633 -8.128878 11.102156 -5.1096344 -0.012395064
9.7583275 5.865412 -0.7423959 27.367493 4.295882 13.9853525 -10.981281 -5.6520176
-17.331953 -21.149363 -9.173748 -27.242836 -29.73754 -23.448832 -29.868544 -4.9392185
-1.8510969 -6.0616813 -10.4393425 -7.594489 -19.296007 -0.0432297 2.4680352 -17.820415
5.6987906 -5.7719803 -4.2930584 5.687113 -11.182522 -5.971835 -0.19135693 -122.79796
-34.921112 37.366955 32.304615 -15.633893 -91.53751 -2.8306885 -20.315138 -12.407142
-17.04518 -37.135162 -14.863999 22.645079 38.240112 -7.203748 22.033178 -11.830854
26.901337 -0.8160883 -5.9570885 -25.430433 1.2883008 32.617874 -19.517925 14.23833
37.582836 -22.696388 -7.107694 18.70089 82.03897 -4.34641 -22.163118 -101.31967
-18.056786 -19.809793 -13.492957 90.862015 19.050714 42.106934 54.87049 -49.725105
64.25062 38.955658 10.177383 37.348026 9.812778 27.185272 40.779934 20.065193
3.8950217 0.13907693 0.0913267 0.13648884 -0.0030936955 -0.65992033 0.27611774 0.15233015
0.1026817 -0.06376256 -0.15469423 0.1429098 0.5425095 0.03948541 0.074104205 0.2198122
0.24351987 0.3372969 0.2768402 0.28331718 0.29328117 -0.097172275 -0.09362743 -0.110811934
0.1567837 0.099681765 21.549633 25.454147 80.81669 28.973423 38.339294 6.4784403

bias f4 [32]
00000000: b4ba 4941 f2e1 6a40 1fb5 4641 2b19 7541
00000010: 4fc2 c240 cec0 0040 0c4c b13c 759c 55c0
00000020: c154 d341 a2fe ccbe 3558 9bc1 3e0f 0ec1
00000030: d73f 1141 ada1 18c1 9ce0 403b 18c8 0041
00000040: 048a 6341 d065 3bc1 c8dd 3342 1210 aa40
00000050: 6255 2f3f e154 1ec2 43f0 81c1 4e61 5941
00000060: 29f0 833c b752 0041 04a8 f840 a306 3ec2
00000070: 252c 7042 ca13 e040 1968 67c1 aa28 0fc2
12.608082 3.6700406 12.419219 15.318645 6.0862193 2.0117679 0.021642707 -3.3376744
26.416384 -0.4003802 -19.41807 -8.878721 9.078086 -9.539472 0.0029430753 8.048851
14.221195 -11.712357 44.966583 5.3144617 0.6848966 -39.58289 -16.242315 13.586256
0.016105728 8.020194 7.7705097 -47.50648 60.04311 7.0024157 -14.462914 -35.78971

weight f4 [32]
00000000: 8dc2 eb41 f28b 6842 c5f0 bd42 130b a642
00000010: cb7c 5742 adc5 8642 a0b8 8f3c cd0d f442
00000020: 3cb0 8a42 0f69 0d41 e068 0642 661f 2543
00000030: f03c f841 88e2 3142 1730 143d 3562 4f42
00000040: 7b51 7042 f41b a141 c745 f442 9490 8342
00000050: e637 3542 bb32 3443 de15 9e42 9e70 8642
00000060: 6c08 133d 83c1 ef42 6b26 1342 6053 2d43
00000070: 9b89 8542 3ab1 7a40 2cc7 9042 c911 2d42
29.469995 58.136665 94.97025 83.02163 53.87187 67.386086 0.01754409 122.026955
69.34421 8.838149 33.602417 165.12265 31.029755 44.471222 0.036178675 51.845905
60.07957 20.138649 122.136284 65.78238 45.30459 180.19817 79.04271 67.219955
0.035896704 119.87795 36.787518 173.32568 66.76876 3.917067 72.38901 43.26737

bias f4 [32]
00000000: 60fb 99c1 47cf 1a41 4d6c 1f41 a119 b2c2
00000010: c233 24c2 4dd1 d541 aa2c 01bf 3ecb 82c2
00000020: b4e6 ff40 9057 29c2 0bbb 73c2 c287 d0c1
00000030: 5c5c aec2 04b5 42c2 c844 c8be de68 a2c1
00000040: cffd 6c40 7bbc 38c2 7406 9f40 8759 8341
00000050: bb46 54c2 cb61 09c1 a3fd 2f41 a081 e9c1
00000060: c201 86be beba 8341 ce36 e7c0 a7db 9941
00000070: 27c5 f1c2 db59 9ec1 7f3d 8dc2 539c eac2
-19.247742 9.675605 9.963941 -89.05006 -41.050545 26.727198 -0.50458777 -65.39696
7.996912 -42.33551 -60.93266 -26.066288 -87.18039 -48.676773 -0.39114976 -20.301205
3.7029912 -46.184063 4.9695377 16.418715 -53.069073 -8.586375 10.999423 -29.188293
-0.26173216 16.466183 -7.22544 19.232252 -120.88506 -19.793875 -70.62011 -117.30532

running_mean f4 [32]
00000000: b8af 1ec6 23ac e547 d03c 4c48 6868 ac46
00000010: 41fe 2147 f809 2348 e64c 8843 c4a2 0347
00000020: 3408 0f48 5735 7d47 49ad d246 8e7c 9dc6
00000030: d786 0347 ebc5 6448 cb2b 71c3 6fb0 fd47
00000040: fed6 cec6 c0ff 81c6 2c1e e647 97d1 e747
00000050: 741e e546 9456 fc46 e0f8 1148 8cfd 0948
00000060: c849 0fc4 e628 0548 029e cf46 499d ce47
00000070: 7883 afc7 d999 3f48 9dc3 4ec5 04d1 0748
-10155.93 117592.27 209139.25 22068.203 41470.254 166951.88 272.60077 33698.766
146464.81 64821.34 26966.643 -20158.277 33670.84 234263.67 -241.17107 129888.87
-26475.496 -16639.875 117820.34 118691.18 29327.227 32299.29 149475.5 141302.19
-573.15283 136355.6 26575.004 105786.57 -89862.94 196199.39 -3308.2258 139076.06

running_var f4 [32]
00000000: 5b27 c34d 1d7c 2e4e 662a d84d 7aee ed4c
00000010: 30ed da4e 0638 7c4e fd76 bc46 3061 4e4c
00000020: f311 194d 9227 a74d cc8f 014e c65d 5b4c
00000030: a9d6 564e da70 ef4e b6de 0747 b3b6 904e
00000040: ced3 9f4c 5cf1 ec4c fe98 c14d 8c67 4d4d
00000050: 1315 ee4c 2591 a14d 7aeb 2d4e 97e5 f74d
00000060: dfff 2447 dcf1 e84d 45f6 6a4e 9017 ec4c
00000070: b25b 834c 9901 ea4e fb59 264c b1d7 e34e
4.0926704e+08 7.3184237e+08 4.5333216e+08 1.2474466e+08 1.8364887e+09 1.0578825e+09 24123.494 5.4101184e+07
1.6050565e+08 3.5054854e+08 5.434212e+08 5.750556e+07 9.0109805e+08 2.0085752e+09 34782.71 1.2139462e+09
8.379557e+07 1.2422627e+08 4.0600365e+08 2.153822e+08 1.24823704e+08 3.388305e+08 7.2947264e+08 5.1987734e+08
42239.87 4.8852058e+08 9.85502e+08 1.2378022e+08 6.886952e+07 1.9629866e+09 4.3608044e+07 1.9112818e+09

weight f4 [32, 32, 5, 5]
00000000: 63fb b7c2 f5d6 9dc1 b863 4ec2 1a8c a6c1
00000010: 032c 63c2 c3a6 33c2 30dd c0c2 d430 88c2
00000020: 951e 42c2 55a6 99c2 634e bac2 44e7 c4c2
00000030: 899e d9c2 b4b8 1c41 d8bd 2dc3 4d2f 6fc2
00000040: ef24 f9c2 5c2f e342 dfc1 9741 03cc 42c3
00000050: 5cc2 1bc2 4034 fc42 605a 2dc0 dc1e 72c2
00000060: e935 cb42 dcb8 95c2 8ecd 81c2 e1d5 3341
00000070: 6975 21c2 5d7c d1c1 4e6c 58c3 ee33 cbc2
00000080: 117d 6ec2 2f16 ddc2 1be9 80c3 fbdf f6c1
00000090: 4a9b 4cc2 ab98 40c1 f511 b1c3 06f1 b6c3
000000a0: a629 f0c1 356f 9341 e2c1 07c3 9d8e bdc2
000000b0: 1cd3 8bc3 f4de 90c1 b0f9 ad41 74c7 5ec0
000000c0: a71b d041 b59b d6c0 dcb2 dec2 661e 13c2
000000d0: ad6d 9241 bbdc 46c2 ad23 1dc2 ab26 28c3
000000e0: bdc2 5d41 6603 1fc2 01d0 6cc2 0a69 22c2
000000f0: 7c09 17c1 b021 eec2 3eca 5742 29ea af42
00000100: 9922 dcc2 bb8b 4fc2 0ca6 f9c1 66ae 73c2
00000110: edff 2642 48d9 e8c2 4f1f 27c3 1de8 88c2
00000120: 8695 90c2 0b3e adc2 9368 c3c2 33e2 1043
00000130: b7fe 9d42 97da 3143 77e5 b042 2521 0ec2
00000140: 4e91 85c3 a1c5 23c0 e801 0cc2 a8bd 04c1
00000150: 6ecd fb41 07b3 d242 3b3c 1cc3 2eb6 fdc2
00000160: bff4 9fc2 ac24 c042 1c7f 33c2 026f 5443
00000170: 61f7 dec1 1fd4 42c2 d622 0942 bb53 b6c2
00000180: 987c 1ac2 596b b1c0 8d6f c5c2 30d4 3643
00000190: 07e3 17c3 1b75 bbc2 8fba 03c3 69ff 1fc3
000001a0: 5aab 22c3 ecf7 11c3 b892 dcc2 a9cd 4ec2
000001b0: f09c 45c2 b94f a5c2 cf7d 49c3 1c79 19c3
000001c0: a32f 33c3 f13e 7ac2 243a 36c3 1d51 19c4
000001d0: aee4 0cc4 9fd7 06c4 5948 0fc4 bf64 f9c3
000001e0: 766d 10c2 4444 15c2 d499 06c2 fea3 14c2
000001f0: 1ab4 3bc2 1f15 64c2 cdac 83c2 0a57 8ac1
00000200: 9aca fe40 eb56 19c2 a781 71c2 7900 d5c1
00000210: 1311 8141 ac15 39c2 484d 1a41 fd5d 7540
00000220: a06d b5c2 6fb4 1c42 d9e2 75c1 8472 04c3
00000230: 0a34 8842 dc80 c641 ccbd 9342 426a d342
00000240: 8d25 c941 e592 7742 4bce b7c2 a883 b9c2
00000250: 2576 a3c2 e979 a5c2 2c15 99be f399 89bd
00000260: 8536 acbd 4edb 9ebe 313e b83d f974 a3be
00000270: 7dd2 e7bd 356b abbe 1b0e 0abe 9f7b 8abd
00000280: 6c3b f6bd 20c9 a7be 99c6 a3bd b3bb e83d
00000290: 7b3c f6bd 012f 8cbe e9de 90be 8ef7 9cbe
000002a0: b937 f6bd d00b 023e ff0b a6be 55c8 96be
000002b0: fdfc cbbd e62c a43d 9d20 eb3d 53ee ee42
000002c0: 2cf4 d542 72dd 00c2 dcb4 83c1 53e3 ac41
000002d0: db9e e242 35ad d542 8f56 ebc0 bf37 8fc0
000002e0: f983 a3c1 a8b5 7841 97bc 0fc2 03f5 d841
000002f0: bf94 51c1 458a 3ac1 9da3 04c1 2308 a5c1
00000300: b950 0542 f43f 1441 715e c8c1 a1b4 c542
00000310: 402e 21c0 5e75 fdc1 c4dd 56c2 c75d 57c2
00000320: f6c5 25c3 2921 66c3 9beb 97c2 f406 24c3
00000330: 5819 79c3 4a0a 31c1 6137 80c2 d435 2740
00000340: c842 9dbf 0227 14c2 7440 2ac2 b8c1 93c2
00000350: 8beb a742 cac3 4041 3103 eec2 a312 f8c2
00000360: 52dd 7ac2 7ade 0442 6190 59c1 4cda a0c2
00000370: ceb5 1b42 eb17 4cc1 e873 98c1 6f8a a2c2
00000380: 6512 ebc2 5565 2e41 1adc a3c1 47c0 5a41
00000390: ea13 0a41 77c3 0541 f901 d93f d7d8 1ec2
000003a0: 3235 3741 9185 8741 6832 e540 8200 bd41
000003b0: 7c23 5342 ac01 1141 e7ac d9c0 293e b840
000003c0: f77c 4541 4601 0243 9994 4dc0 aa69 a3c0
000003d0: efce 0cc1 00c1 4941 6e57 1442 86ba 5dc0
000003e0: c1e2 dbc0 fc7a 7bc1 9bef 94c2 a343 d142
000003f0: c186 bdc2 5027 7342 548b 0142 3843 8d42
-91.99099 -19.72996 -51.59738 -20.818409 -56.79298 -44.912853 -96.43201 -68.09537
-48.529865 -76.82487 -93.1531 -98.45169 -108.80964 9.795094 -173.74158 -59.796192
-124.572136 113.5925 18.969664 -194.79692 -38.939804 126.10205 -2.708641 -60.530136
101.60529 -74.86105 -64.901474 11.239717 -40.36466 -26.185724 -216.42307 -101.601425
-59.622135 -110.54333 -257.82114 -30.859365 -51.15165 -12.037272 -354.1403 -365.883
-30.020336 18.4293 -135.75735 -94.77854 -279.6493 -18.108864 21.746918 -3.4809237
26.013502 -6.706507 -111.349335 -36.779686 18.303553 -49.715557 -39.28484 -168.15105
13.860044 -39.75332 -59.20313 -40.602577 -9.4398155 -119.065796 53.947502 87.957344
-110.06757 -51.886456 -31.206078 -60.92031 41.749928 -116.42438 -167.1223 -68.45335
-72.29204 -86.62118 -97.70425 144.88359 78.99749 177.85387 88.44817 -35.532368
-267.1352 -2.5589373 -35.00186 -8.296303 31.475307 105.34966 -156.23528 -126.85582
-79.97802 96.071625 -44.87413 212.43362 -27.87079 -48.70715 34.28402 -91.163536
-38.621674 -5.544354 -98.71787 182.82886 -151.88683 -93.72872 -131.72874 -159.9977
-162.66934 -145.96844 -110.28656 -51.70084 -49.40326 -82.65571 -201.49144 -153.47308
-179.18608 -62.561466 -182.22711 -613.2674 -563.5731 -539.3691 -573.13043 -498.78708
-36.106895 -37.316666 -33.650223 -37.16015 -46.92588 -57.020626 -65.8375 -17.2925
7.9622316 -38.33488 -60.376614 -26.62523 16.133337 -46.271164 9.6438675 3.8338616
-90.71411 39.176205 -15.367883 -132.44733 68.10164 24.81292 73.8707 105.707535
25.143335 61.89345 -91.902916 -92.75714 -81.73075 -82.738106 -0.29898965 -0.067188166
-0.08408836 -0.3102669 0.08996237 -0.3192518 -0.11319444 -0.3348023 -0.13481943 -0.0676186
-0.120230526 -0.32770634 -0.07996864 0.11363926 -0.120232545 -0.2737961 -0.28295067 -0.3065762
-0.12022347 0.12699819 -0.32431027 -0.29449716 -0.09960363 0.08016376 0.1148083 119.46548
106.9769 -32.216255 -16.46331 21.610998 113.310265 106.838295 -7.354316 -4.475555
-20.43944 15.54435 -35.93417 27.119635 -13.098815 -11.658757 -8.289945 -20.628973
33.32883 9.265614 -25.046114 98.85279 -2.5184479 -31.682308 -53.716568 -53.84158
-165.77328 -230.12953 -75.96017 -164.02716 -249.099 -11.065012 -64.10816 2.6126604
-1.2286005 -37.038094 -42.562943 -73.87836 83.960045 12.0478 -119.00623 -124.0364
-62.716133 33.217262 -13.597749 -80.42636 38.927544 -12.755839 -19.056595 -81.27038
-117.53593 10.899739 -20.482471 13.671943 8.629862 8.360221 1.6953727 -39.711758
11.450487 16.940218 7.162403 23.625248 52.784653 9.062908 -6.8023562 5.757588
12.343009 130.00497 -3.2121947 -5.1066484 -8.800521 12.609619 37.08538 -3.4645095
-6.87143 -15.7175255 -74.46798 104.6321 -94.76319 60.78839 32.386063 70.63129

bias f4 [32]
00000000: 55e5 a4c4 30bf 97c4 03ac 9bc4 a059 80bc
00000010: cd5e d03a 8893 9cc4 22e6 8e3c 3b35 833c
00000020: 549b 86c4 5e8b 0d3d b227 d3bc 7bb2 99c4
00000030: d772 afc4 1d14 a7c4 6d69 61bb 4815 9ac4
00000040: b721 92bc 4c5b a3c4 fda9 9bc4 04c4 a3c4
00000050: 19ec a8c4 e420 5cc4 e4d0 6443 f2d0 a6c4
00000060: 251b fc3b 4887 08bd 3502 9ac4 c9c0 aaba
00000070: e6dc 05bd a9cc 683c f5e8 a2c4 d99d 84c4
-1319.1666 -1213.9746 -1245.3754 -0.015667737 0.0015897393 -1252.6104 0.01744372 0.016016593
-1076.854 0.03455674 -0.025775764 -1229.5775 -1403.5887 -1336.6285 -0.0034395114 -1232.665
-0.017838342 -1306.853 -1245.3121 -1310.1255 -1351.378 -880.5139 228.81598 -1334.5295
0.0076936656 -0.03333214 -1232.069 -0.0013027425 -0.03268137 0.014208951 -1303.2799 -1060.9327

weight f4 [32]
00000000: 2974 c545 33c7 ba45 8030 bf45 697f 12bc
00000010: f0f6 c339 606e bd45 f73e 653a b044 243c
00000020: 9a4a c145 f2fe b3bb dd40 163c 81b9 b945
00000030: 6246 c345 adfe bc45 3c3a 653b b550 bb45
00000040: 1b55 8d3c 4477 bf45 3fdd be45 c163 be45
00000050: 3104 bd45 81f2 bf45 610f 9f45 4aa0 c045
00000060: 9b2a 8dbc 2577 aaba d834 c245 152b 48bb
00000070: caea f4bb b9c5 5a3c 137f ba45 3698 be45
6318.52 5976.9 6118.0625 -0.00894151 0.0003737728 6061.797 0.0008745039 0.010026142
6185.325 -0.0054930383 0.009170738 5943.188 6248.798 6047.8345 0.0034977337 5994.0884
0.017252496 6126.908 6107.656 6092.469 6048.524 6142.313 5089.9224 6164.036
-0.01723223 -0.0013005479 6214.6055 -0.0030543257 -0.007474278 0.013352805 5967.8843 6099.0264

bias f4 [32]
00000000: b8bf 9145 ca24 9245 cf12 9245 8c9e cbbe
00000010: 9991 3abe adb8 9145 5b78 e3bc 5500 79be
00000020: 6389 9245 17b7 8bbe 73ad ccbe f044 9245
00000030: 642b 9245 d3e8 9145 fab2 84be d37e 9245
00000040: 32d8 fbbe 37e4 9145 6136 9245 bcdb 9145
00000050: ab07 9245 3308 9245 4d37 7045 6204 9245
00000060: a57f c1be 9b77 18be b424 9245 a6ca ccbd
00000070: 368a 1abe 3dc9 4cbe 3d36 9245 fe51 9245
4663.965 4676.5986 4674.351 -0.397694 -0.18219604 4663.0845 -0.02776735 -0.24316533
4689.1733 -0.27288124 -0.3997608 4680.617 4677.424 4669.103 -0.25917798 4687.853
-0.4918838 4668.527 4678.7974 4667.467 4672.9585 4673.025 3843.4563 4672.548
-0.37792698 -0.14889376 4676.588 -0.099995896 -0.15091786 -0.19998641 4678.78 4682.249

running_mean f4 [32]
00000000: 3004 f0c7 03e2 fec7 5e44 e9c7 90f4 89c4
00000010: ddbf ecc3 02bd efc7 55a0 9443 0aa7 14c4
00000020: 44d1 d7c7 47da 14c4 7268 5943 9647 d1c7
00000030: 0492 d2c7 d690 c3c7 ff35 8bc4 9fac d6c7
00000040: 7da3 a9c4 4c35 c5c7 29ee d5c7 d50f d3c7
00000050: 11a4 e3c7 d753 d2c7 2f66 1dc8 ffe5 eac7
00000060: 78ff e643 c351 0ac3 aad0 d6c7 0c85 89c3
00000070: fcbb b943 cc3e c3c3 ef1e c1c7 6d92 c3c7
-122888.375 -130500.02 -119432.734 -1103.6426 -473.49893 -122746.016 297.2526 -594.61
-110498.53 -595.4106 217.40799 -107151.17 -107812.03 -100129.67 -1113.6874 -109913.24
-1357.109 -100970.59 -109532.32 -108063.664 -116552.13 -107687.68 -161176.73 -120267.99
461.99585 -138.31938 -109985.33 -275.03943 371.46863 -390.4906 -98877.87 -100132.85

running_var f4 [32]
00000000: 9d3e 434f 2e5b 444f 19d4 234f 59a6 9746
00000010: 36a6 a145 55f0 2c4f 9159 2446 d389 1046
00000020: a9de 1a4f cc50 f045 181b 8f46 4d80 1a4f
00000030: 4ed0 584f 94fc 3b4f cb12 8946 ab99 5a4f
00000040: 8f9a 5847 b17f 324f f4c0 344f da3d 324f
00000050: 663a 2c4f 7011 294f 6ea0 854f 827f 624f
00000060: 2a43 b846 05ce f746 f54a 2c4f df07 3e45
00000070: 5bd7 8246 e5a1 c745 0392 2d4f dd31 2f4f
3.2756605e+09 3.29431e+09 2.7485862e+09 19411.174 5172.7764 2.9014316e+09 10518.392 9250.456
2.5982835e+09 7690.0996 18317.547 2.5920996e+09 3.63753e+09 3.1538924e+09 17545.396 3.6675039e+09
55450.56 2.9947128e+09 3.0325443e+09 2.990398e+09 2.8895084e+09 2.8364923e+09 4.4837673e+09 3.8000072e+09
23585.582 31719.01 2.8905935e+09 3040.492 16747.678 6388.237 2.9120274e+09 2.9392806e+09

weight f4 [9, 1792]
00000000: be5b 8245 3e03 8c45 73a6 8845 af2c 8745
00000010: 9447 8945 cb81 8a45 93e3 8545 d53b 8745
00000020: e064 8b45 533d 8645 e561 8345 f416 8745
00000030: 46d4 8a45 2fd6 8945 18ea 8b45 a314 8a45
00000040: 3e81 8445 a711 7e45 e2d2 7f45 8f29 8745
00000050: 3389 8b45 7f0c 8c45 290b 8a45 2542 8445
00000060: a17d 7a45 494e 7c45 e134 8545 3276 8a45
00000070: 4fce 8c45 f31c 8c45 04c7 8945 f2a9 8145
00000080: 4b1d 8445 a138 8445 d30b 8a45 dac2 8c45
00000090: d4d3 8a45 3984 8745 a71c 8545 19da 8545
000000a0: de49 8545 e925 8a45 09c2 8f45 6bcb 8b45
000000b0: 3a16 8b45 6eab 8845 a1fc 8845 53c0 8845
000000c0: 7bab 8945 d7d2 8d45 2107 8f45 c236 8d45
000000d0: 1c9f 8d45 184d 8d45 cee8 8a45 ebc1 8645
000000e0: b1f2 8445 cf7a 8a45 004c 8845 5f54 8845
000000f0: 976f 8a45 c651 8a45 99d0 8845 64ec 8b45
00000100: f6a1 8a45 874f 8445 37f6 8245 e6ca 8845
00000110: c374 8a45 bd14 8c45 67bb 8c45 c6b8 8a45
00000120: d916 7e45 f300 7d45 120a 8445 37ca 8645
00000130: 1a0e 8c45 70ec 8b45 769f 8945 c898 8145
00000140: 47ef 7e45 1d5b 8145 16e1 8545 6f37 8b45
00000150: ff20 8c45 f0e0 8c45 21e3 8745 5731 8445
00000160: bb7a 8845 a944 8445 89df 8a45 f79d 8d45
00000170: 0efb 8b45 2ebf 8d45 37d5 8645 0425 8545
00000180: b583 8445 b025 8a45 529e 8f45 43ee 8b45
00000190: 31d5 8d45 9b06 8a45 231e 8645 5aac 8945
000001a0: 1380 8a45 3a59 8d45 d551 8f45 1b6d 8e45
000001b0: 35a0 8b45 bbf6 8a45 3ec6 8a45 33fd 8945
000001c0: 3bab 8445 0666 8a45 0142 8845 019a 8745
000001d0: fb1a 8a45 e37b 8a45 9b5d 8745 4e32 8c45
000001e0: 8eb4 8a45 d26f 8345 3f4e 8345 019b 8845
000001f0: bf97 8945 822d 8a45 bc4c 8d45 8cdf 8a45
00000200: 0678 8045 18fb 7945 d45e 8045 030c 8745
00000210: 4845 8c45 3988 8b45 903d 8945 9a65 7e45
00000220: 5e90 7f45 a4d4 8145 ef5d 8545 4155 8b45
00000230: 1c78 8b45 9fc2 8945 b617 8645 392d 8245
00000240: 6d2b 8845 199c 8445 e6bb 8b45 6377 8e45
00000250: 236a 8a45 2b4d 8e45 b8db 8645 66a2 8445
00000260: 5044 8445 9d03 8945 f4a5 9145 68b5 8c45
00000270: b823 8f45 6063 8945 eb95 8745 4cb7 8a45
00000280: 2453 8945 2804 8d45 3396 8d45 d041 8f45
00000290: 771e 8c45 3a18 8c45 887d 8a45 1d96 8845
000002a0: 95d6 d4bd 3729 f2bd 036f a6bd a3a6 b8bd
000002b0: ba70 c2bd ed89 a6bd 5c44 adbd a651 efbd
000002c0: e003 b4bd 5b4e cfbd 11e2 cabd 313d c6bd
000002d0: 8b9a f5bd 3feb a0bd 30d1 d8bd fb31 e3bd
000002e0: 4965 b9bd 97b5 ddbd ab17 be3a f896 a6bd
000002f0: be22 b4bd 5690 d0bd 498d ac3d bf32 c1bd
00000300: 3076 e0bd 6b75 e9bd cca1 d3bd ef60 b8bd
00000310: 6eb7 bfbd 4148 b0bd 86fd b9bd 84dc debd
00000320: 3a8e c3bd f425 abbd b308 d2bd f513 a4bd
00000330: 656f b5bd d58e b0bd dfeb d2bd edda fcbd
00000340: 505e a2bd 9f88 d9bd e70d d8bd a5cb d7bd
00000350: 3f0a b0bd 79fc bbbd 902d a8bd d80a e0bd
00000360: 8b00 b6bd 8d9e f8bd 8d50 e6bd 0480 a2bd
00000370: 6b5b a5bd 383b f4bd 2c12 aebd 15b3 bdbd
00000380: 684a d1bd 8a99 af3d 02b1 e8bd 28dd b1bd
00000390: a3c6 c6bd c191 ddbd 2ea4 d2bd aa64 a33d
000003a0: 9330 ab3d b36d 9dbd d7e4 c1bd 6bcd bfbd
000003b0: 5669 e5bd ff9a d7bd 2dc0 b0bd 5005 bfbd
000003c0: 6d66 c8bd 06d7 c7bd aef1 dabd 87e8 a0bd
000003d0: 1629 f0bd 811a bbbd f89b 9dbd f27f b5bd
000003e0: dd89 9cbd ef43 a7bd a7a9 ad3d 8872 a5bd
000003f0: 4165 9ebd 9179 e6bd dfa0 e4bd e86e b1bd
4171.468 4480.4053 4372.806 4325.5854 4392.9473 4432.224 4284.447 4327.479
4460.6094 4295.6655 4204.237 4322.869 4442.534 4410.773 4477.2617 4418.5796
4240.1553 4065.1033 4093.1802 4325.195 4465.15 4481.562 4417.395 4232.268
4007.8518 4036.8928 4262.61 4430.7744 4505.7886 4483.6187 4408.877 4149.243
4227.6616 4231.0786 4417.478 4504.3564 4442.4785 4336.528 4259.5815 4283.262
4265.2334 4420.739 4600.2544 4473.4272 4450.7783 4373.4287 4383.5786 4376.0405
4405.435 4538.355 4576.891 4518.8447 4531.8887 4521.6367 4445.1006 4312.2397
4254.3364 4431.351 4361.5 4362.5464 4429.9487 4426.2217 4378.0747 4477.549
4436.245 4233.941 4190.777 4377.3623 4430.595 4482.5923 4503.4253 4439.0967
4065.428 4048.0593 4225.259 4313.277 4481.7627 4477.5547 4403.9326 4147.0977
4078.9548 4139.389 4284.1357 4454.929 4484.1245 4508.117 4348.391 4230.1675
4367.3413 4232.5825 4443.942 4531.7456 4479.382 4535.8975 4314.652 4260.627
4240.4634 4420.711 4595.79 4477.7827 4538.649 4416.8257 4291.767 4405.544
4432.0093 4523.1533 4586.229 4557.638 4468.026 4446.8413 4440.7803 4415.65
4245.404 4428.753 4360.2505 4339.2505 4419.3726 4431.486 4331.7007 4486.288
4438.5693 4205.9775 4201.781 4371.3755 4402.9683 4421.6885 4521.592 4443.9434
4111.003 3999.6934 4107.8535 4321.5015 4488.66 4465.028 4391.6953 4070.35
4089.023 4154.58 4267.7417 4458.6567 4463.0137 4408.3276 4290.964 4165.653
4357.428 4243.512 4471.4873 4558.9233 4429.267 4553.646 4315.465 4244.3
4232.539 4384.4517 4660.744 4502.676 4580.465 4396.422 4338.7397 4438.912
4394.3926 4512.5195 4530.775 4584.2266 4483.808 4483.0283 4431.6914 4370.764
-0.10392491 -0.11824267 -0.081266426 -0.090161584 -0.09494157 -0.08131776 -0.08460304 -0.11685495
-0.087898016 -0.10122367 -0.099064 -0.0967964 -0.11992367 -0.0785737 -0.10586774 -0.110935174
-0.09052522 -0.10825651 0.0014502903 -0.08134264 -0.08795689 -0.1018378 0.084253855 -0.09433507
-0.109600425 -0.11399349 -0.10333595 -0.090028636 -0.09361158 -0.08607531 -0.09081559 -0.10881904
-0.09548612 -0.08356848 -0.102555655 -0.08011619 -0.088591374 -0.08620993 -0.10298895 -0.12346444
-0.07928145 -0.106217615 -0.10549527 -0.10536889 -0.08595704 -0.09179015 -0.08211815 -0.10939568
-0.08886822 -0.12139616 -0.112458326 -0.07934573 -0.08074077 -0.119253576 -0.0849956 -0.09262673
-0.1021927 0.08574207 -0.113618866 -0.0868476 -0.09705856 -0.10818816 -0.10285221 0.079781845
0.08358874 -0.07686939 -0.09467476 -0.09365352 -0.11201732 -0.1052761 -0.086304046 -0.09327185
-0.09785161 -0.09757809 -0.10690628 -0.07856851 -0.117265865 -0.091359146 -0.07695764 -0.08862294
-0.07643483 -0.08167254 0.08479624 -0.08078486 -0.077341564 -0.11253656 -0.11163496 -0.08663732

bias f4 [9]
00000000: ca5a 8145 3740 8145 37c9 8145 acf1 8045
00000010: 26d3 8045 0158 8145 3caf 7f45 7918 8d45
00000020: 9814 8245
4139.3486 4136.027 4153.152 4126.209 4122.3936 4139.0005 4090.9521 4515.059
4162.574
