dev/target_net.pth (torch_old, 530132 bytes, 20 tensors)

weight f4 [16, 4, 5, 5]
0	0xbdaa2d4a	-0.083094195
1	0xbdbe70d0	-0.09298861
2	0xbdb4cce2	-0.08828141
3	0x3da342d5	0.079717316
4	0xbd9dc10e	-0.07702838
5	0x3d53ba72	0.05169148
6	0xbdca15bf	-0.09867429
7	0x3d867a4b	0.06566294
8	0xbd6026dd	-0.054724563
9	0x3da09e51	0.078426965
10	0xbda96fcb	-0.08273276
11	0xbcdbb00c	-0.026817344
12	0xbdacc7e8	-0.084365666
13	0x3d9abdb1	0.07555712
14	0xbd604853	-0.054756474
15	0x3d4bac46	0.04972484
16	0x3d644432	0.0557291
17	0xbda7d640	-0.08195162
18	0xbda11e38	-0.07867092
19	0xbc2a4fd8	-0.010395013
20	0x3db3bbb5	0.08776037
21	0x3b8f71b0	0.0043775663
22	0x3d3b0302	0.045657165
23	0x3c00c168	0.007858612
24	0x3c97c6c0	0.018527389
25	0x3bca9cd0	0.0061832443
26	0xbdc79a9d	-0.09746287
27	0x3d7c3496	0.061573587
28	0xbdc59ca2	-0.09649016
29	0x3d5759ce	0.05257588
30	0x3d67244a	0.056431092
31	0xbd8caaf6	-0.06868546
32	0xbd00a504	-0.03140737
33	0x3d627ede	0.05529677
34	0x3d939d17	0.07207697
35	0xbd76832d	-0.060183693
36	0x3d9c2771	0.0762471
37	0x3d387e2a	0.045042194
38	0x3d902c0f	0.070396535
39	0x3d13732a	0.0359985
40	0x3d816d1f	0.06319641
41	0xbd635dc7	-0.055509355
42	0x3db35b17	0.087576084
43	0x3c9994f8	0.018747792
44	0x3d37b0a2	0.044846185
45	0xba195700	-0.0005849451
46	0x3daa0ca1	0.0830319
47	0x3da58ee9	0.080838986
48	0x3bd0e5e0	0.0063750595
49	0xbd6b9bb0	-0.057521522
50	0x3d47f54a	0.04881791
51	0x3d31fae2	0.04345215
52	0xbd0d4afc	-0.03449534
53	0x3dc2e9e1	0.09517265
54	0xbd9d37aa	-0.07676633
55	0x3da7af1d	0.08187697
56	0xbd83d9bc	-0.06438014
57	0xbb5479c0	-0.0032421201
58	0xbda8c282	-0.082402244
59	0xbd194eda	-0.037428714
60	0xbd026fb4	-0.03184481
61	0xbd26e13a	-0.040742137
62	0x3d4534da	0.048146106
63	0xbd93a47b	-0.072091065
64	0xbd5c4463	-0.053776156
65	0xbd50bb23	-0.050959717
66	0xbd937e06	-0.072017714
67	0x3d64bd36	0.055844508
68	0xbd81bc34	-0.06334725
69	0xbdad1b53	-0.08452477
70	0xbd36ebd7	-0.04465851
71	0xbdb42a3f	-0.0879712
72	0xbc1db618	-0.009625934
73	0x3cf5d924	0.030010767
74	0x3db31503	0.08744242
75	0xbf934582	-1.1505587
76	0xc0482c88	-3.127718
77	0x40838bb0	4.1108017
78	0x40af0729	5.469624
79	0xbf8d91a6	-1.1060073
80	0x3eb3ca74	0.35115397
81	0x3f59b184	0.8503649
82	0xbf506855	-0.814092
83	0xc009be28	-2.1522312
84	0xc0767759	-3.8510344
85	0xc0205ae6	-2.505548
86	0xbee1c991	-0.44099095
87	0xbf2eee0b	-0.68331975
88	0xbf8f8e77	-1.1215352
89	0x4084652d	4.1373506
90	0xbeb140b0	-0.34619665
91	0x40464de6	3.0985045
92	0xbfc646f4	-1.5490403
93	0x3f4bfa9c	0.79679275
94	0xbe0357b3	-0.12826423
95	0x406cb800	3.6987305
96	0xbef63000	-0.48083496
97	0xc00aa9bf	-2.1666105
98	0x4051d547	3.2786424
99	0x4043a25c	3.0567846
100	0xbd3125fd	-0.04324912
101	0xbd0541c4	-0.032533422
102	0x3c2f9690	0.010717049
103	0xbbf1bdb0	-0.007377349
104	0x3c392128	0.011299409
105	0xbd4ef18d	-0.05052333
106	0xbd15ca26	-0.036569737
107	0x3daf5ddb	0.085628234
108	0xbdbebd0a	-0.093134
109	0xbd4e024a	-0.05029515
110	0xbd7264e7	-0.05917826
111	0xbd4ffea3	-0.05077995
112	0xbd1003ec	-0.03515999
113	0x3d1e6212	0.038667746
114	0x3d6e9782	0.058249958
115	0xbdc9ef2b	-0.09860071
116	0xbd9e7bab	-0.077384315
117	0xbdbb2b48	-0.091391146
118	0x3dc4f3a3	0.096167825
119	0x3da88cc9	0.08229978
120	0xbd8421c2	-0.06451751
121	0x3d07de76	0.03317114
122	0x3d845d47	0.06463104
123	0xbbfadea0	-0.0076559335
124	0xbb058d00	-0.0020378232
125	0x3d8372c1	0.06418372
126	0xbd969848	-0.07353264
127	0xbb90eb20	-0.0044225603
128	0x3d48be1a	0.04900942
129	0xbd52bf13	-0.051451754
130	0xbd813865	-0.063095845
131	0x3cdb6924	0.026783533
132	0x3d8f2961	0.06990314
133	0xbcb722e0	-0.022355497
134	0x3d83e4ef	0.0644015
135	0xbd706cf7	-0.058697667
136	0xbc1f7ad8	-0.009733878
137	0xbda5c4bd	-0.080941655
138	0xbcf796ec	-0.030223332
139	0x3d9a1579	0.07523627
140	0xbd53fae0	-0.051752925
141	0xbbd27c80	-0.006423533
142	0xbd91af36	-0.07113497
143	0xbd8cd90e	-0.068773374
144	0xbdcc41fb	-0.09973522
145	0x3d9196a3	0.0710881
146	0x3c656500	0.014001131
147	0x3da85a55	0.082203545
148	0xbcf3dae0	-0.029767454
149	0xbc49a310	-0.012306944
150	0x3d8082ed	0.06274972
151	0x3d013a42	0.0315497
152	0xbdb4df3a	-0.088316396
153	0x3cb06e08	0.021536842
154	0xbd43e367	-0.04782429
155	0x3dc8a001	0.09796143
156	0xbd31872a	-0.043341793
157	0xbc7b14b0	-0.0153247565
158	0xbd7c03b3	-0.061526965
159	0xbcc48dd8	-0.023993418
160	0x3db97571	0.09055603
161	0xbdc77712	-0.09739508
162	0xbc4a8a98	-0.012362145
163	0xbd50cbed	-0.05097573
164	0x3d8ce14f	0.06878912
165	0xbd9d50da	-0.07681437
166	0xbd9bd558	-0.076090515
167	0xbd16c14c	-0.036805436
168	0x3cc76d14	0.024344005
169	0x3ca42a6c	0.02003976
170	0xbc96270c	-0.018329166
171	0x3da6c26f	0.08142554
172	0xbd2f2057	-0.04275545
173	0x3d799b3a	0.06093905
174	0xbc141718	-0.009038709
175	0xbf01c3e5	-0.50689536
176	0x3f81d839	1.0144111
177	0x3ec22bc8	0.37924027
178	0xbfe335ff	-1.7750853
179	0x401de483	2.4670722
180	0xc0382cf4	-2.8777437
181	0x409e8f9a	4.9550295
182	0x40486f64	3.1317987
183	0x3edc9017	0.43078682
184	0x400c5445	2.1926434
185	0xc0367f7e	-2.8515315
186	0x407e5824	3.9741297
187	0xbe2898c6	-0.16464528
188	0x3f01d4ff	0.5071563
189	0x3f678ebd	0.90452176
190	0x3f174026	0.5908226
191	0x40414873	3.020047
192	0x400eeab8	2.233076
193	0xc0a40e0b	-5.126714
194	0x3e3b0025	0.18261774
195	0x403f532b	2.9894512
196	0x4021a05a	2.525412
197	0xc07529ed	-3.830684
198	0xc0547bfd	-3.3200676
199	0x3feca720	1.8488503
200	0x3d370b62	0.04468859
201	0x3d9ce2d1	0.07660449
202	0x3cc76e54	0.0243446
203	0xbd1f97aa	-0.038962997
204	0x3cfaf494	0.030634202
205	0x3c61b8b0	0.013776943
206	0xbc00d4b0	-0.007863209
207	0x3d936b31	0.071981795
208	0xbd6f41a3	-0.058412205
209	0x3d611a9e	0.054957025
210	0xbd6c63aa	-0.057712235
211	0xbd1e8293	-0.038698744
212	0xbd14321c	-0.0361806
213	0xbd1ec01d	-0.038757432
214	0x3bd40a30	0.006470941
215	0x3d4df74e	0.050284676
216	0x3d9ac637	0.07557338
217	0x3d7a965e	0.061178558
218	0x3d742f8a	0.05961565
219	0x3d407de2	0.04699505
220	0xbd011a20	-0.031519055
221	0xbd9da578	-0.07697576
222	0xbd2662a0	-0.0406214
223	0x3db0047f	0.085946076
224	0x3da79021	0.08181787
225	0x3d2e7ed2	0.042601414
226	0xbdca26e2	-0.098706976
227	0x3dc4f76d	0.09617505
228	0x3da94651	0.08265365
229	0xbd1a381d	-0.03765117
230	0x3c556280	0.0130239725
231	0x3c2d78d8	0.010587893
232	0x3d0fa70e	0.035071425
233	0x3cb9c674	0.022677638
234	0xbd81517e	-0.063143715
235	0x3d3d1f0a	0.04617218
236	0x3d061582	0.032735355
237	0x3d993001	0.07479859
238	0x3cb1cce8	0.021704152
239	0xbbc8cc60	-0.006127879
240	0xbd4e7a7d	-0.050409783
241	0x3d57a23a	0.052644946
242	0xbdc346c5	-0.095349826
243	0xbcb98e8c	-0.02265098
244	0xbd38ff8a	-0.045165576
245	0xbda7caba	-0.08192964
246	0xbba73c50	-0.0051036254
247	0x3d8cc341	0.06873179
248	0xbd8ebcf6	-0.06969635
249	0x3cc30358	0.023805305
250	0xbcbeb898	-0.02328138
251	0xbd61d6da	-0.05513654
252	0xbdbd3d2a	-0.09240182
253	0xbdb189e7	-0.08668881
254	0x3d0362ea	0.032076754
255	0xbc120400	-0.0089120865

bias f4 [16]
0	0xbfcf532b	-1.6197256
1	0x4051ed07	3.280092
2	0x3d53aa32	0.051675983
3	0xbc7d8b63	-0.015475127
4	0xc02c9c1c	-2.6970282
5	0xbf78764e	-0.9705552
6	0x3e468ae2	0.19388917
7	0x4077c259	3.871237
8	0x40766b72	3.850308
9	0x40155aca	2.3336663
10	0x3f9f58f2	1.2449019
11	0x3f29754f	0.66194624
12	0x4026ed2b	2.6082256
13	0xc06abf6c	-3.6679335
14	0x3f61c6da	0.8819405
15	0xbf1f83c9	-0.62310463

weight f4 [16]
0	0x407f37e3	3.987786
1	0x40323b28	2.7848606
2	0x3c799c71	0.015235052
3	0x406b0f1a	3.6727967
4	0x3f950430	1.1641903
5	0x4032e292	2.7950788
6	0xbcc23ae6	-0.023709726
7	0x401058b4	2.255414
8	0x40403060	3.0029526
9	0x400d9b93	2.2126205
10	0x4003f4c8	2.0618153
11	0x3da4c0aa	0.0804456
12	0x4045c3ae	3.0900683
13	0x4035a9e3	2.838494
14	0x40127ab1	2.2887385
15	0x4050f917	3.2652032

bias f4 [16]
0	0xc0a37f94	-5.1093235
1	0xc033b37d	-2.80783
2	0xbe87fcf7	-0.26560184
3	0xc00f5072	-2.239285
4	0xbe48003e	-0.19531342
5	0xc04edee8	-3.232355
6	0xbe4cc36d	-0.19996424
7	0xc001e4d1	-2.0295908
8	0xbfc18b7d	-1.5120693
9	0xbf271169	-0.6526094
10	0xc005b040	-2.0888824
11	0xbe36647c	-0.17811769
12	0xc0901421	-4.502457
13	0xbf258f02	-0.6467134
14	0xbf23ff4a	-0.64061415
15	0xbe01ffa0	-0.1269517

running_mean f4 [16]
0	0x3ea84320	0.32863712
1	0x40da29f7	6.8176227
2	0xbf2500b3	-0.6445419
3	0xc012a238	-2.291151
4	0xc1115c3a	-9.085016
5	0x400bbf2b	2.183543
6	0x3db4a157	0.08819836
7	0x40f03748	7.506748
8	0x40601f01	3.5018923
9	0x3fa82342	1.313576
10	0x40c9b8e1	6.303818
11	0xc039e026	-2.904306
12	0x407a48d1	3.9106944
13	0xc0634836	-3.5512824
14	0xc120357d	-10.013059
15	0xc100482d	-8.017621

running_var f4 [16]
0	0x4048dd8f	3.1385229
1	0x40bd2cc0	5.9117126
2	0x3f1130e8	0.5671525
3	0x40961c36	4.6909437
4	0x419fa212	19.954136
5	0x4084d00b	4.150396
6	0x3d0fd5ad	0.035115886
7	0x413b9118	11.722923
8	0x4056f031	3.3584101
9	0x40663bae	3.5973926
10	0x4123386c	10.201275
11	0x40a9b1e2	5.302964
12	0x3ffad4cd	1.9596192
13	0x405ee4e6	3.4827209
14	0x422c7d25	43.12221
15	0x41ec47a6	29.534985

weight f4 [32, 16, 5, 5]
0	0xc0eaa10c	-7.332159
1	0x409a3ed2	4.8201685
2	0xc013b4e3	-2.3079154
3	0xbfc365fd	-1.5265499
4	0x3f2e32c2	0.680462
5	0xc04e3d06	-3.2224746
6	0xc0a0adad	-5.0212007
7	0xbd92620d	-0.07147608
8	0xc092337c	-4.5687847
9	0xbfe1d1e3	-1.7642177
10	0x3ee74490	0.45169497
11	0x3ea81746	0.32830256
12	0x3f6d444d	0.92682344
13	0xc0342f58	-2.8153896
14	0x3f60cf8e	0.87816703
15	0x3fb6ab50	1.427103
16	0x409ccc50	4.8999405
17	0xc096ef25	-4.7166924
18	0xbecb269d	-0.39677897
19	0x3f0964be	0.53669345
20	0xc02f9f94	-2.7441149
21	0x3e9cdd78	0.30637717
22	0x40a7cb37	5.2435565
23	0xbf9ea71b	-1.2394747
24	0xbeb37d5d	-0.35056582
25	0x401937d8	2.3940334
26	0xbfadeeee	-1.358854
27	0xbeb5d970	-0.35517454
28	0x400c73e0	2.1945724
29	0xbf1254af	-0.57160467
30	0x3ff936b6	1.9469821
31	0xc01003f3	-2.250241
32	0x3e118af3	0.14213161
33	0x3d3a11c2	0.04542709
34	0x408ab4de	4.3345785
35	0xc082ab77	-4.083431
36	0xbe46fdbe	-0.19432732
37	0x3fca251a	1.5792572
38	0xbf4a9823	-0.7913839
39	0x3fe51360	1.7896538
40	0xbf4475e3	-0.7674238
41	0x40809d88	4.01923
42	0x3f1a807c	0.603523
43	0xc0c4c07d	-6.148497
44	0x4087f923	4.249162
45	0x4006e884	2.1079416
46	0xbe7e226f	-0.24817823
47	0x3f9e9eef	1.2392253
48	0xbf9fca77	-1.2483662
49	0x405b7bb1	3.4294245
50	0xbe795798	-0.2434982
51	0xbf3d0e46	-0.73849905
52	0xbe01d9e1	-0.1268077
53	0xbf141bc1	-0.5785485
54	0xbf6823e1	-0.90679747
55	0xbe1e08d9	-0.15433063
56	0xbf4d1651	-0.8011218
57	0xbd664795	-0.05622061
58	0xbf3852f8	-0.720016
59	0xbf1655c9	-0.5872465
60	0xbd392961	-0.045205478
61	0xbf5bed96	-0.859094
62	0x3e314060	0.17309713
63	0x3efa57d2	0.48895127
64	0xbeb60e20	-0.35557652
65	0x3d8f7863	0.07005384
66	0xbeacdcbd	-0.3376216
67	0xbeea15e8	-0.45719838
68	0x3ef541d2	0.4790178
69	0xbec7e1d6	-0.39039487
70	0xbdcbdc31	-0.099541076
71	0xbea47ba2	-0.32125574
72	0xbf52c4ba	-0.8233143
73	0xbe33252c	-0.17494649
74	0x3eef7c1d	0.46774378
75	0x3fe5e659	1.7960922
76	0xc075e20a	-3.8419213
77	0x4083817c	4.109556
78	0xbfe6f453	-1.8043312
79	0x3fdfa02f	1.7470759
80	0x403b29e0	2.9244308
81	0x4020410f	2.5039709
82	0xc00b58d8	-2.1772976
83	0xbee2b904	-0.4428178
84	0xc0814fa0	-4.04097
85	0x3fba0485	1.4532629
86	0xc05a48dc	-3.410697
87	0x400ca8e5	2.1978085
88	0x3f19372a	0.598498
89	0x405b493b	3.4263446
90	0xbfcec478	-1.6153708
91	0xbff485ee	-1.9103372
92	0x3e044559	0.12917079
93	0x406d1baf	3.7048147
94	0x4027929a	2.6183228
95	0x40663355	3.596883
96	0x40426363	3.037316
97	0x3f883f00	1.0644226
98	0x3e565e4f	0.20934413
99	0x3fec7375	1.8472735
100	0x40418648	3.0238209
101	0xbfd1ed5a	-1.6400559
102	0xbfd94b92	-1.6976187
103	0x400ee6e1	2.2328417
104	0x3fc64b5c	1.5491748
105	0xbf69f35d	-0.9138697
106	0xbec2e74a	-0.38067085
107	0xbf1e808f	-0.61914915
108	0x3e8571c3	0.26063356
109	0x3fcd4e63	1.6039547
110	0x403d1802	2.9545903
111	0xbe0cd867	-0.13754426
112	0x4023c35c	2.5587988
113	0x3f884abf	1.0647811
114	0xc058741a	-3.3820863
115	0xbeddaf8c	-0.43297994
116	0x3b3f3732	0.0029177186
117	0x3eee7159	0.46570852
118	0xbfb72539	-1.4308234
119	0x3d97fb6a	0.07421
120	0xbe8760e0	-0.26441097
121	0xbfcfd941	-1.6238176
122	0x402bd3e2	2.6848073
123	0xc0a295f0	-5.080803
124	0xc0da30f5	-6.818476
125	0x3f2f403a	0.68457377
126	0x3e136007	0.143921
127	0x406bc37b	3.6838062
128	0x40977957	4.733562
129	0xbe3f4bf1	-0.18681313
130	0x3ef158a3	0.47137937
131	0xbfc3208c	-1.5244308
132	0xbfb69630	-1.4264584
133	0xbf57b0c7	-0.84254116
134	0x3f61fa16	0.88272226
135	0x4062195c	3.5327978
136	0x3f2256c1	0.63413626
137	0xc029fb8e	-2.6559787
138	0x40265d5d	2.5994484
139	0x4000b33f	2.0109403
140	0x3ed44fe4	0.41467202
141	0xc009a915	-2.150945
142	0x3e368674	0.17824727
143	0x3fd7f6ff	1.6872252
144	0x40845d57	4.136394
145	0x40b318ee	5.596793
146	0xbed514cf	-0.41617438
147	0x4098ac9c	4.7710705
148	0xbfd01325	-1.6255842
149	0xbfd67db1	-1.6757108
150	0x3ca9d311	0.020730527
151	0xbc05a83d	-0.008157787
152	0x3b898e53	0.0041978746
153	0xbd3eac43	-0.046551
154	0xbe48baff	-0.19602583
155	0x3d061f88	0.032744914
156	0xbc1a5503	-0.009419682
157	0xbcad69af	-0.021168558
158	0xbd30ad74	-0.043134168
159	0xbe3fa579	-0.18715467
160	0x3c0b01a8	0.008484282
161	0xbc91cdf0	-0.017798394
162	0x3ceffdf0	0.029295892
163	0xbc0c7ea6	-0.008575117
164	0x3d60f4dc	0.054921016
165	0x3d088966	0.03333416
166	0x3c008e42	0.007846417
167	0xbd2aef4f	-0.04173213
168	0x3c3fbb87	0.011702425
169	0x3c8970b6	0.016777378
170	0xbe3a4e97	-0.18194042
171	0xbe045e45	-0.12926586
172	0xbcc923ef	-0.024553267
173	0xbd5131a9	-0.05107275
174	0xbd374c53	-0.044750523
175	0xc00380ea	-2.0547433
176	0x3feabf74	1.8339677
177	0x3fe98b34	1.8245606
178	0x3ef4bc1a	0.4779976
179	0xbf1d9725	-0.61558753
180	0xbf608726	-0.8770622
181	0xbfe73dcf	-1.8065737
182	0x4099da0b	4.8078666
183	0x3ffc5014	1.9711938
184	0xbf0dddfa	-0.55416834
185	0x3fffcbc7	1.9984063
186	0x3fad4fca	1.3539975
187	0xbfc99f05	-1.5751654
188	0x3f05e213	0.52298087
189	0xbfb9dca3	-1.4520458
190	0x3fc16c75	1.5111223
191	0x400a0119	2.156317
192	0x3fb6b411	1.4273702
193	0x3fcf29bc	1.6184611
194	0xbed81026	-0.4219982
195	0xc0149132	-2.321362
196	0xbe2b94d2	-0.16755989
197	0xc0531aae	-3.2985034
198	0x40925eb7	4.574062
199	0xc06436a3	-3.5658348
200	0xbee7eabe	-0.45296282
201	0xbe9e9346	-0.30971736
202	0x3ece1718	0.40251994
203	0xbf920f9e	-1.1411016
204	0x3f36af55	0.71361285
205	0xbf34caa6	-0.70621717
206	0xc0ce665d	-6.4499955
207	0x403b8fb0	2.930645
208	0xbe7795a7	-0.24178182
209	0x3fe05dd3	1.7528633
210	0x40078964	2.1177607
211	0xbf074c3c	-0.528507
212	0x4090da2f	4.5266337
213	0xc09c62f9	-4.8870816
214	0x40d17039	6.544949
215	0xc05bf4ec	-3.4368238
216	0xc05c158b	-3.4388149
217	0x3fc6ccb1	1.5531217
218	0xbf822ded	-1.0170265
219	0xbf8d6e61	-1.104931
220	0xbfb1bd50	-1.3885899
221	0xbf89e52a	-1.077306
222	0x40620649	3.5316336
223	0xbfdf59b9	-1.7449256
224	0x3fa50dc2	1.2894824
225	0xbfe6e267	-1.8037843
226	0x3f335856	0.70056665
227	0x3f94febc	1.1640239
228	0x3fde08bc	1.7346416
229	0xbef56fb9	-0.479368
230	0x3fb71e08	1.430604
231	0x4000de07	2.0135515
232	0xbf80927b	-1.0044702
233	0xc0112250	-2.2677193
234	0xc0b474a0	-5.6392365
235	0x3ff50ec5	1.9145132
236	0x3efa563f	0.48893926
237	0x3fa486a7	1.2853593
238	0xbf3027ae	-0.68810546
239	0x3fe62425	1.797978
240	0xbf70eff0	-0.94116116
241	0xbf9a2a44	-1.2044148
242	0x3f713fbb	0.9423787
243	0x3e33c6f5	0.17556365
244	0x3f2ea7d2	0.68224823
245	0x400fedc5	2.2488873
246	0x405f1f4f	3.486286
247	0x3f8a757b	1.0817102
248	0xbe31fa97	-0.17380749
249	0x40d2cbb2	6.587365
250	0x3fe9f1ed	1.8276955
251	0x3e3e27b2	0.1856983
252	0x3f126caf	0.5719709
253	0x4084e29f	4.1526637
254	0x40a8878a	5.2665453
255	0x3f8e395b	1.1111253

bias f4 [32]
0	0xbc887044	-0.016655095
1	0xbdd343e5	-0.10315684
2	0x3f881470	1.0631237
3	0x3c000c7c	0.0078154765
4	0x3fa40195	1.2812983
5	0xbfac6302	-1.3467715
6	0x3c7accf6	0.015307656
7	0xbfa23796	-1.2673213
8	0x3ea07413	0.31338558
9	0xc02067bb	-2.5063312
10	0xbfc9e30e	-1.5772417
11	0x3cda03a6	0.026613068
12	0x3f0e5d10	0.5561075
13	0x3f646357	0.8921408
14	0xbf83f6f6	-1.0309741
15	0xbd44b0b9	-0.0480201
16	0x3ecb150e	0.396645
17	0xbe138d9b	-0.14409487
18	0xc0314c1b	-2.77027
19	0x40135fbc	2.3027182
20	0x3fd20fee	1.6411111
21	0xbf0ab2e7	-0.54179233
22	0x3d89883d	0.067154385
23	0x3ca22c3b	0.019796481
24	0x3d06198e	0.032739215
25	0xbcea6e18	-0.02861695
26	0xbe7422a6	-0.23841342
27	0x3ddb2662	0.1070068
28	0xbd83109f	-0.063996546
29	0xbf57c2d9	-0.8428169
30	0xbe771d10	-0.2413218
31	0x3d283ef5	0.041075666

weight f4 [32]
0	0x40356653	2.8343704
1	0xbca20c7a	-0.01978134
2	0x40330389	2.7970908
3	0x3cf3a3cb	0.029741189
4	0xc0047e1b	-2.0701969
5	0x4015cce7	2.3406312
6	0x3d19cf50	0.037551224
7	0x3fbbd0d8	1.4673109
8	0xbc9d9491	-0.019235881
9	0x403d8ca2	2.9617085
10	0x401e754c	2.4759092
11	0x3c660ff4	0.014041889
12	0x405759c1	3.3648531
13	0x4020509c	2.50492
14	0x401c4b2e	2.4420886
15	0xbc0cc8f1	-0.00859283
16	0x40250ab5	2.5787785
17	0x3ad3624c	0.0016127317
18	0x403a36f4	2.909604
19	0x40373518	2.8626156
20	0x4028493e	2.6294703
21	0x402a6784	2.662568
22	0x3c327aa8	0.010893501
23	0xbd8374b4	-0.06418744
24	0xbcd87ea6	-0.026427578
25	0x4009d84e	2.1538272
26	0x402a1731	2.6576655
27	0x40136dbc	2.3035727
28	0xbd3e56b1	-0.046469394
29	0x3ffcb26b	1.9741949
30	0x401b9ef7	2.4315774
31	0xbceaf0b0	-0.028679222

bias f4 [32]
0	0xc08ab31b	-4.3343635
1	0xbebd51e9	-0.36976555
2	0xc06a03e8	-3.6564884
3	0xbe7d2c00	-0.24723816
4	0xc00c9dc3	-2.197129
5	0xc02fe09a	-2.7480836
6	0xbeb3e757	-0.35137436
7	0xbf0a424c	-0.5400741
8	0xbe5580c5	-0.20849903
9	0xc09d4bbd	-4.9154954
10	0xc0713ab1	-3.7692072
11	0xbe6102d6	-0.21973738
12	0xc09f96d8	-4.9871635
13	0xc046c48c	-3.1057463
14	0xc01cb074	-2.4482698
15	0xbe5ec458	-0.21754587
16	0xc04ce2ff	-3.2013547
17	0xbd747908	-0.059685737
18	0x3f42c092	0.7607509
19	0xc0a8230a	-5.254277
20	0xc0456b59	-3.084677
21	0xc009df36	-2.1542487
22	0xbd8d9e00	-0.06914902
23	0xbe9965d3	-0.29960498
24	0xbe87af10	-0.2650075
25	0xbe985c71	-0.29758027
26	0x3fa6e07c	1.3037257
27	0xbe51cf8f	-0.20489334
28	0xbe3bffc7	-0.1835929
29	0x3f60cf6f	0.8781652
30	0xbfef3156	-1.8686931
31	0xbe209c6e	-0.15684673

running_mean f4 [32]
0	0x425a9e54	54.654617
1	0x402d4950	2.7075996
2	0xc26f2576	-59.786583
3	0x41148dec	9.284649
4	0x41f77280	30.930908
5	0x42142a42	37.041267
6	0xc08d1775	-4.4091134
7	0x408a59f1	4.323479
8	0xc1b6315e	-22.774105
9	0x4180bd08	16.0923
10	0x40fb9c9e	7.8628683
11	0xc1cace65	-25.350779
12	0xc17b79b1	-15.71721
13	0xc210859f	-36.13049
14	0xc2858496	-66.75896
15	0x400b9ba5	2.1813748
16	0xc2a4f887	-82.485405
17	0x4059d7e5	3.4038022
18	0xc22819e6	-42.02529
19	0x418543ca	16.6581
20	0x42582ce7	54.04385
21	0xc3187319	-152.4496
22	0x412f13fa	10.942377
23	0x4160ee2f	14.05815
24	0x3ff66037	1.9248112
25	0xc2e2a073	-113.31338
26	0xc181604c	-16.17202
27	0xc209a63a	-34.41233
28	0xc0e4bbfd	-7.147948
29	0xbff1982d	-1.8874565
30	0xc0b3f8e9	-5.6241345
31	0x40c8621d	6.2619767

running_var f4 [32]
0	0x45026674	2086.4033
1	0x42448aaa	49.135414
2	0x44c19fbe	1548.992
3	0x42ea4eef	117.15417
4	0x45155f23	2389.946
5	0x44a6f57f	1335.6718
6	0x43c17666	386.925
7	0x4575f6b8	3935.42
8	0x4401de2d	519.4715
9	0x44fccd01	2022.4064
10	0x44d2d43f	1686.6327
11	0x439b2184	310.26184
12	0x45323b0c	2851.6904
13	0x45089674	2185.4033
14	0x454bda7c	3261.6553
15	0x43219dd6	161.61655
16	0x45169098	2409.037
17	0x42b0d97d	88.42478
18	0x45a8e644	5404.783
19	0x44c80701	1600.2189
20	0x450dc614	2268.38
21	0x44f717d5	1976.7448
22	0x449c4098	1250.0186
23	0x4526443c	2660.2646
24	0x41d094d8	26.072678
25	0x45791fb5	3985.9817
26	0x4612ea2d	9402.544
27	0x45957750	4782.914
28	0x42bc00a4	94.00125
29	0x46122ab9	9354.681
30	0x45323dfe	2851.8745
31	0x443b5321	749.2989

weight f4 [32, 32, 5, 5]
0	0x3c23993c	0.009985264
1	0x3dd7fdb8	0.1054644
2	0xbe2bd0b6	-0.16778836
3	0x3cd7af66	0.026328754
4	0xbe153e26	-0.14574489
5	0xbc37af0e	-0.01121117
6	0x3cbe50f4	0.02323196
7	0x3e1de1a1	0.15418102
8	0xbe6e1122	-0.23248723
9	0x3e39d027	0.1814581
10	0x3e55caae	0.20878097
11	0x3d875bb1	0.066092856
12	0x3d893566	0.06699638
13	0xbd7d1d6d	-0.06179564
14	0x3db16a1e	0.08662818
15	0x3d741684	0.059591785
16	0x3d6a1849	0.057152066
17	0xbe771a52	-0.24131134
18	0x3db21ecc	0.0869728
19	0xbe84d6ba	-0.25945073
20	0x3e4a9f28	0.19787276
21	0x3d0d5c6b	0.034511965
22	0xbdaa725b	-0.08322593
23	0xbd6291d0	-0.05531484
24	0xbcfd1869	-0.030895429
25	0xbcb03dfd	-0.021513933
26	0x3e4a6feb	0.19769256
27	0xbcc0a5fa	-0.023516644
28	0x3dc4b728	0.09605247
29	0x3b6dc0cd	0.0036278248
30	0xbc91c933	-0.017796135
31	0x3c535ac5	0.012900059
32	0x3e2ff304	0.17182547
33	0xba1dff31	-0.0006027101
34	0x3cc47334	0.023980714
35	0x3e3d126c	0.18464059
36	0xbc9d1e10	-0.019179374
37	0x3e3b6b14	0.18302566
38	0xbca4c92d	-0.02011546
39	0x3e509796	0.20370325
40	0xbe4e045e	-0.20118853
41	0xbe5c66c2	-0.21523574
42	0x3ce06723	0.02739293
43	0x3cb51b74	0.022107817
44	0xbc02ce15	-0.007983704
45	0xbe5d9803	-0.21640019
46	0xbe483d9d	-0.19554754
47	0x3bd6eed4	0.0065592322
48	0xbca6598c	-0.020306371
49	0xbe323510	-0.17403054
50	0xbe1b57c9	-0.15170206
51	0xbe191135	-0.1494797
52	0x3e6ee69b	0.23330157
53	0xbc822ce7	-0.015890552
54	0x3e68df00	0.22741318
55	0x3e30ab43	0.17252831
56	0x3e2bb25f	0.16767262
57	0x3e53894f	0.20657848
58	0xb988f711	-0.0002612402
59	0xbc1ea1c7	-0.009682125
60	0xbe56c938	-0.20975196
61	0x3bebb914	0.007193694
62	0x3c8bb25e	0.017052826
63	0xbe7dd248	-0.24787247
64	0xbe16eb5c	-0.1473822
65	0xbd179385	-0.03700592
66	0xbd0378b5	-0.032097537
67	0x3e86a37a	0.26296598
68	0xbcf4b971	-0.029873582
69	0x3dd75b8e	0.105155095
70	0xbc2ff6b2	-0.010739969
71	0x3c8f57ce	0.017497923
72	0x3d114c7d	0.035473336
73	0x3e2ba1a7	0.16760884
74	0x3b2c499b	0.002628899
75	0xbe942f9e	-0.2894258
76	0xbe918ec6	-0.2842924
77	0x3e8b02bd	0.27150527
78	0xbc530051	-0.012878493
79	0xbd78f0a1	-0.060776357
80	0xbe8657c5	-0.26238838
81	0xbe72ca7c	-0.23710054
82	0xbe0d77c7	-0.13815223
83	0xbcf3ace6	-0.02974553
84	0xbe490e36	-0.19634327
85	0xbdd43d2e	-0.103632316
86	0xbe40d208	-0.1883012
87	0x3d1f72bd	0.038927782
88	0x3c9c324c	0.019066952
89	0xbe5639f5	-0.20920546
90	0xbd45745a	-0.048206665
91	0xbe4a07a1	-0.19729473
92	0x3db07d7c	0.08617684
93	0x3c0742e5	0.008255695
94	0xbe371ebf	-0.17882822
95	0xbc909155	-0.017647425
96	0x3d30c24e	0.043154053
97	0x3e8e824e	0.2783379
98	0x3e7222b9	0.23646058
99	0xbe05e308	-0.13074887
100	0x3cc90da6	0.02454264
101	0xbd6a05b8	-0.05713436
102	0xbdd971d5	-0.10617415
103	0xbe894620	-0.26811314
104	0xbe01d881	-0.12680246
105	0x3e545115	0.20734055
106	0xbd4bbc8e	-0.049740367
107	0x3dae3f8d	0.08508215
108	0x3cdec768	0.027194694
109	0x3e5a593e	0.21323106
110	0x3e235786	0.15951356
111	0xbcce7fac	-0.025207363
112	0x3d487a5f	0.048944827
113	0x3e874e20	0.26426792
114	0x3e56d04b	0.20977895
115	0xbe7db668	-0.24776614
116	0xbe8a13ae	-0.2696814
117	0x3d93ca85	0.07216362
118	0x3e9c24d1	0.3049684
119	0x3e54c3f7	0.2077788
120	0xbd02fab8	-0.031977385
121	0xbe51cdec	-0.20488709
122	0xbe5134ce	-0.204303
123	0xbe552fad	-0.20818968
124	0xbd219c1a	-0.03945551
125	0xbb7f5211	-0.0038958827
126	0x3d5c5496	0.053791605
127	0x3e274616	0.1633533
128	0x3c5ee92c	0.013605397
129	0xbeabb355	-0.33535257
130	0x3cbee68e	0.023303296
131	0x3e72508b	0.23663537
132	0x3e68d0a8	0.22735846
133	0x3c3a9340	0.011387646
134	0xbbac9cba	-0.0052677067
135	0xbcf3a9fd	-0.029744143
136	0x3e8970d6	0.268439
137	0x3e4ed6c2	0.20199111
138	0x3c176149	0.009239503
139	0xbd1cd670	-0.03829044
140	0x3d4447ad	0.047919918
141	0x3d378ac2	0.044810064
142	0xbabe5a65	-0.0014522789
143	0xbe2c377a	-0.16818038
144	0xbe3fb653	-0.18721895
145	0xbc97323e	-0.018456575
146	0xbe16f95b	-0.14743559
147	0xbd19c8c4	-0.03754498
148	0xbe12d4b3	-0.14338951
149	0x3c44af4a	0.012004683
150	0x3dab03a1	0.083503015
151	0xbbe7a3bb	-0.0070690787
152	0x3e208c2a	0.15678468
153	0xbccb55e2	-0.024821226
154	0x3cd9b554	0.026575722
155	0x3e5c9652	0.21541718
156	0x3e5e989d	0.21737905
157	0x3b766245	0.0037595194
158	0x3e2da5af	0.16957735
159	0x3e560c96	0.20903239
160	0x3e7b48a5	0.2453943
161	0xbea46f71	-0.32116273
162	0xbd390864	-0.045174018
163	0x3e22faec	0.15916032
164	0x3e37b87d	0.1794147
165	0xbe28d713	-0.16488294
166	0xbe3d0d4f	-0.18462108
167	0x3c6d9b9b	0.014502431
168	0xbe5da5a5	-0.2164522
169	0x3d160b28	0.036631733
170	0x3c50280a	0.012704859
171	0xbe57bb17	-0.21067463
172	0xbe644319	-0.2229122
173	0x3cdf061a	0.02722459
174	0xbdf34e31	-0.11880148
175	0x3e6e93d0	0.23298573
176	0x3d0baa76	0.03409811
177	0xbe1d8ccc	-0.15385741
178	0xbe64df39	-0.22350778
179	0x3cd0f9ab	0.025509676
180	0xbc39077b	-0.011293287
181	0x3e769b1b	0.24082606
182	0xbd8da3de	-0.06916021
183	0x3dd76817	0.105179004
184	0xbd6713fe	-0.05641555
185	0x3c9ccba1	0.019140067
186	0x3d909df1	0.07061375
187	0x3e393bf0	0.1808927
188	0xbcd4c2e3	-0.025971835
189	0xbdb99dca	-0.09063299
190	0x3ea94c9e	0.33066267
191	0xbe2acc46	-0.16679487
192	0xbbe05428	-0.0068459697
193	0xbe7500b0	-0.23926044
194	0xbd3f47a9	-0.0466992
195	0xbe0ca522	-0.13734868
196	0x3d18466d	0.03717654
197	0xbe5a2c53	-0.21305971
198	0x3c2470b6	0.010036638
199	0xbe1b6704	-0.15176016
200	0x3e394455	0.18092473
201	0x3bb0a84f	0.0053911577
202	0x3e4d8f2b	0.20074145
203	0xbe517ebc	-0.20458502
204	0x3e7f3a01	0.2492447
205	0x3e63af9d	0.2223496
206	0x3ce1e936	0.027577024
207	0x3e4b9f3b	0.1988496
208	0xbe192d0d	-0.14958592
209	0x3e374071	0.17895676
210	0x3e4d35aa	0.20040002
211	0xbe37e293	-0.17957525
212	0xbdb56625	-0.08857373
213	0x3d03c0ef	0.032166418
214	0xbdec3059	-0.11532659
215	0x3e750809	0.23928846
216	0x3d515cdb	0.051113945
217	0xbcf2d2a4	-0.029641457
218	0xbdaff34c	-0.08591327
219	0xbd6f6bbc	-0.058452353
220	0x3e51b321	0.20478489
221	0xbde5de40	-0.112240314
222	0xbe72a8f9	-0.2369727
223	0xbe89f63d	-0.26945677
224	0x3b8ce5c7	0.0042998525
225	0x3e53c984	0.20682341
226	0xbd8e032b	-0.06934198
227	0x3e5f4a65	0.21805723
228	0xbc75343b	-0.014966066
229	0x3e6123ef	0.21986364
230	0x3e3d1c86	0.18467912
231	0x3e68bffd	0.22729488
232	0xbc80cacb	-0.0157217
233	0xbc6bb454	-0.014386255
234	0x3cbbc0af	0.022919027
235	0xbcedebe9	-0.029043155
236	0x3e3bf675	0.18355735
237	0x3c8761c0	0.016526103
238	0x3e500e7f	0.2031803
239	0x3e3e4e4f	0.1858456
240	0x3d73bf22	0.05950845
241	0x3c87204f	0.016494898
242	0x3e116ace	0.14200899
243	0xbce12b68	-0.027486518
244	0x3e5c2896	0.21499857
245	0x3ae659df	0.0017574391
246	0xbc6e7c15	-0.014555951
247	0xbe6d226a	-0.23157659
248	0x3e0313ca	0.12800518
249	0x3e2df675	0.16988547
250	0xbe533ee8	-0.20629466
251	0xbe4bec1d	-0.19914289
252	0xbe47c495	-0.19508584
253	0xbe577eaf	-0.2104442
254	0xbc5cc9d0	-0.01347585
255	0xbcc364de	-0.023851808

bias f4 [32]
0	0x3dcee52c	0.10102305
1	0xbd96df50	-0.07366812
2	0x3c4d3e5e	0.0125270765
3	0xbd92e7a4	-0.07173088
4	0xbf973e79	-1.181594
5	0x3d872e99	0.06600685
6	0x3b94beee	0.004539362
7	0xbd6d84f5	-0.057988126
8	0xbdca5d70	-0.09881103
9	0xbf7ad364	-0.97978806
10	0x3d3ea087	0.04653981
11	0xbccbd3cf	-0.024881272
12	0x3c557b14	0.013029832
13	0xbc84918d	-0.016182685
14	0x3da022c6	0.078191325
15	0xbc7da53b	-0.015481289
16	0x3d28f174	0.041245893
17	0x3d767a2b	0.060175102
18	0x3dfb1685	0.12260155
19	0xbcbfdb4a	-0.023419995
20	0x3f1c771c	0.61119246
21	0x3e9bb2ef	0.30409953
22	0x3cbbd781	0.022929909
23	0x3d394d2d	0.045239616
24	0xbdc201d1	-0.09473003
25	0xbf64a076	-0.89307344
26	0xbd9d06e0	-0.07667327
27	0x3ca5523a	0.02018081
28	0x3fbbb9c3	1.4666065
29	0x3cf3b1d0	0.029747874
30	0x3da6eea0	0.08150983
31	0x3edfead3	0.43733844

weight f4 [32]
0	0xbabfae10	-0.0014624018
1	0x3dbc1b99	0.09184951
2	0x3b227676	0.0024789847
3	0xbd15aca3	-0.036541592
4	0x3f81693a	1.0110238
5	0xbccc56f8	-0.024943814
6	0xbcde461b	-0.027133038
7	0x3d43cd9b	0.047803503
8	0x3c6f0b83	0.014590147
9	0x3f10d1ae	0.56569946
10	0x3bd1a73c	0.0063981097
11	0xbbe9c11c	-0.007133616
12	0x3cc0de6f	0.023543565
13	0x3c338c21	0.010958702
14	0xbc9815ee	-0.018565144
15	0x3cf769d2	0.030201826
16	0xbd0d8855	-0.034553844
17	0x3e9e6904	0.30939496
18	0x3da45c9a	0.08025475
19	0x3d2c6e5b	0.04209743
20	0x3f3549c6	0.70815694
21	0x3f783aa2	0.96964467
22	0xbd5b28d8	-0.05350575
23	0x3ec570e8	0.38562703
24	0x3c92f09b	0.017936995
25	0x3fa5b6b7	1.2946385
26	0x3d36d9b9	0.04464123
27	0xbd10a7a2	-0.035316117
28	0x3f03f4d3	0.5154545
29	0xbc9e6e59	-0.019339727
30	0x3b6685f1	0.003517505
31	0x3f8cd331	1.100195

bias f4 [32]
0	0xbe44cf47	-0.19219695
1	0xbefd4062	-0.49463183
2	0xbf124565	-0.5713714
3	0xbe963edd	-0.29344836
4	0xbfb8c362	-1.4434626
5	0xbe5ac860	-0.213655
6	0xbebf2333	-0.37331542
7	0xbec89de2	-0.39182955
8	0xbef12a06	-0.47102374
9	0xbf50ef98	-0.8161559
10	0xbe0c7aa1	-0.13718654
11	0xbf090a7e	-0.53531635
12	0xbe771326	-0.24128398
13	0xbe8ae268	-0.2712586
14	0xbf0096d3	-0.5023014
15	0xbf3917cc	-0.72301936
16	0xbe932b4c	-0.2874397
17	0xbeab1e87	-0.33421728
18	0xbf2005ab	-0.6250865
19	0xbed11867	-0.4083893
20	0xbf6c1583	-0.92220324
21	0xbfb67563	-1.4254574
22	0xbedc9fd5	-0.43090692
23	0xbef6a152	-0.48169953
24	0xbe891482	-0.2677346
25	0xbfb1796f	-1.3865184
26	0xbefa6f8f	-0.48913237
27	0xbe97d06d	-0.29651204
28	0xbf17e64d	-0.59335786
29	0xbe791d33	-0.24327545
30	0xbe43a225	-0.19104822
31	0xbf9da4ab	-1.2315878

running_mean f4 [32]
0	0x3e967830	0.2938857
1	0xc01b60fc	-2.4277945
2	0xc03aba61	-2.9176257
3	0x4075b911	3.8394206
4	0xc292eff3	-73.46865
5	0xbdda4f61	-0.106596716
6	0xc069d4f0	-3.6536217
7	0x3f58942a	0.8460108
8	0xc0b9369f	-5.7879176
9	0xc2b30923	-89.517845
10	0x3effd14f	0.49964377
11	0x3f4f73ba	0.8103596
12	0xc079ea91	-3.9049418
13	0x40d4cbee	6.6498938
14	0x40e51e52	7.159951
15	0xc0e1c684	-7.055483
16	0xc000db74	-2.0133944
17	0xc2e80de1	-116.02711
18	0xc0101a35	-2.2515996
19	0xc00ad228	-2.169077
20	0xc2b2615e	-89.19017
21	0xc2fb5093	-125.65737
22	0xc0169a9b	-2.3531864
23	0xc2ebe450	-117.94592
24	0xbfda2692	-1.7043021
25	0xc222cbb2	-40.69892
26	0x3fc095a3	1.5045666
27	0xc0442d2a	-3.0652566
28	0x42358c5b	45.387066
29	0x4085ed31	4.185204
30	0x410f9421	8.973664
31	0xc2723449	-60.55106

running_var f4 [32]
0	0x4187ebc8	16.990128
1	0x41c43e29	24.530352
2	0x42b4932b	90.28744
3	0x428c0e53	70.02798
4	0x457c8e4d	4040.8938
5	0x41b0ce81	22.100832
6	0x42110fd4	36.265457
7	0x42102fab	36.04655
8	0x412bafb5	10.730397
9	0x4528526e	2693.1519
10	0x413df1c7	11.871528
11	0x428dad26	70.83818
12	0x41d33982	26.40308
13	0x430ec8d5	142.7845
14	0x432500f0	165.00366
15	0x434b97fb	203.59367
16	0x42b0fb1b	88.49044
17	0x45759f65	3929.9622
18	0x424e59de	51.58776
19	0x4308f72c	136.96552
20	0x45573ada	3443.6782
21	0x4561a2a5	3610.1653
22	0x4235772f	45.36639
23	0x453ba69d	3002.4133
24	0x41830156	16.375652
25	0x45c61f89	6339.942
26	0x42b985bd	92.76121
27	0x42488717	50.131924
28	0x45d20777	6720.933
29	0x42d94f17	108.65447
30	0x4203fc4f	32.996395
31	0x45b9cec7	5945.847

weight f4 [9, 9792]
0	0xbd8ae3fd	-0.067817666
1	0x3ddcd170	0.107821345
2	0x3c0a60a1	0.00844589
3	0xbddd86a7	-0.108166985
4	0xbe2d139d	-0.16902013
5	0xbd8482ac	-0.06470236
6	0xbdc010a6	-0.093781754
7	0xbdce9a9a	-0.10088082
8	0xbdc71c04	-0.097221404
9	0x3a75a035	0.0009369881
10	0x3c8662ec	0.016404592
11	0x3dae0f40	0.084990025
12	0xbaa63c0c	-0.001268269
13	0x3ddf70ad	0.10910163
14	0xbdc2c3e1	-0.09510017
15	0x3cb8f90d	0.022579694
16	0x3cf47e85	0.029845485
17	0xbbcd4cde	-0.006265267
18	0xbd8d25bc	-0.06891963
19	0x3d414f44	0.047194734
20	0xbdaafe47	-0.08349281
21	0x3c722c09	0.014781007
22	0xbc2d43c5	-0.01057524
23	0xbbfae084	-0.007656159
24	0x3dd3c63a	0.10340543
25	0x3db5c166	0.088747784
26	0x3dc45ab4	0.09587613
27	0xbb691c05	-0.003556968
28	0x3ceff2ab	0.029290518
29	0x3dbc8b9e	0.09206317
30	0xbdd66e6d	-0.10470281
31	0x3dbbb2df	0.09164976
32	0xbd8a0d37	-0.06740802
33	0x3c8a5812	0.016887698
34	0x3dafdc0e	0.08586894
35	0x3ca0d374	0.019632079
36	0x3d310286	0.043215297
37	0xbdc563d6	-0.09638183
38	0x3d8d9023	0.069122575
39	0x3d707d48	0.058713228
40	0x3b0bc4b4	0.002132696
41	0x3dd67662	0.104717985
42	0x3dcbeba6	0.09957056
43	0x3dcc3747	0.09971481
44	0x3c6f98c3	0.014623824
45	0x3d1e2fc7	0.038619783
46	0x3dbdbb74	0.092642695
47	0xbb7426c7	-0.0037254558
48	0x3d605220	0.05476582
49	0x3c111138	0.008854203
50	0x3cbd28bd	0.023090715
51	0xbd5e90cb	-0.054337304
52	0x3dd2e696	0.10297887
53	0xbd8486d3	-0.06471028
54	0x3c1f8d88	0.0097383335
55	0x3dd32d49	0.10311372
56	0xbd91cb0a	-0.07118805
57	0x3ce12d42	0.0274874
58	0xbdbb5897	-0.091477565
59	0x3c84ca02	0.016209606
60	0x3d5f854e	0.05457049
61	0x3da1847a	0.07886596
62	0x3c304d06	0.010760551
63	0x3ceabe13	0.028655088
64	0x3d0f739a	0.035022356
65	0xbaaa0087	-0.0012970128
66	0x3dc65428	0.0968402
67	0xbbcbf7f7	-0.006224628
68	0x3d7fd2eb	0.062457006
69	0xbdda8bab	-0.10671171
70	0xbe1651a6	-0.14679584
71	0xbc956dd4	-0.018240847
72	0xbd92b0f1	-0.07162655
73	0x3d239355	0.03993543
74	0xbc5cd319	-0.013478064
75	0xbc8387d3	-0.016055977
76	0x3dc39748	0.09550339
77	0xbc9b1519	-0.018930959
78	0x3d11d3d7	0.035602417
79	0x3dbf27c9	0.0933376
80	0xbd9ba478	-0.07599729
81	0xbe281c36	-0.16417012
82	0xbd05795a	-0.032586433
83	0x3dd08a77	0.1018266
84	0x3d914cdb	0.07094737
85	0x3d296cc3	0.04136349
86	0xbbf2ae3b	-0.007406024
87	0xbdd1825d	-0.10229943
88	0x3dc28bb7	0.09499305
89	0x3d9a908a	0.075471
90	0x3d387be1	0.045040015
91	0x3c030a6b	0.007998089
92	0x39b6f47e	0.00034895906
93	0x3ddbeb5d	0.10738251
94	0x3c1b9af8	0.009497397
95	0x3ce93156	0.028465908
96	0xbe220721	-0.15823032
97	0xbdccb38d	-0.09995184
98	0x3daa7d98	0.08324736
99	0x3c1c874e	0.0095537435
100	0x3dbb93c7	0.09159046
101	0xbe2bfeea	-0.16796461
102	0xbc5683b4	-0.013092924
103	0xbd9c989c	-0.076462954
104	0xbdb8cf14	-0.09023872
105	0xbd9d211b	-0.0767233
106	0x3e1909a6	0.14945087
107	0xbd71f7b6	-0.059074126
108	0xbb2b3414	-0.002612357
109	0x3d49a4f8	0.049229592
110	0x3df0b771	0.11753739
111	0x380573e3	3.18176e-05
112	0x3ddc5764	0.10758856
113	0x3c0cd686	0.008596068
114	0x3c6be4de	0.014397828
115	0x3c4d10b5	0.01251619
116	0xbb265538	-0.0025380384
117	0x3d246f98	0.040145487
118	0xbd915da7	-0.07097941
119	0x3c0f252b	0.008736889
120	0xbb413cea	-0.002948577
121	0xba18e9ce	-0.00058331795
122	0x3dbd2ad1	0.09236682
123	0x3dc070c8	0.09396511
124	0x3d73e1a7	0.05954137
125	0x3d36f301	0.04466534
126	0xbc1fa44e	-0.009743763
127	0x3e00ead1	0.12589575
128	0x3cf4494e	0.02982011
129	0x3ddfa6df	0.109205
130	0x3d8703ea	0.065925434
131	0xbb709c45	-0.0036714238
132	0x3a113fcf	0.0005540819
133	0xbc5eded6	-0.013602933
134	0x3cd17778	0.025569662
135	0x3dbd652f	0.09247815
136	0xbe3bca5b	-0.18338911
137	0x3ae4f460	0.0017467849
138	0x3dc6b8a3	0.097031854
139	0x3dbe9ca5	0.09307221
140	0x3dd7df29	0.10540611
141	0x3d2d367f	0.0422883
142	0xbb23288f	-0.0024896
143	0xbc017739	-0.00790196
144	0x3dbb0f9f	0.09133839
145	0x3ca0e8d2	0.019642267
146	0x3dba4af6	0.09096329
147	0xbe0f6fac	-0.14007443
148	0xbdd2b1ab	-0.10287794
149	0x3dc3602b	0.09539827
150	0x3c10370c	0.008802187
151	0x3ce8446c	0.028352939
152	0xbdb6c7a5	-0.08924798
153	0xbd168bda	-0.036754467
154	0xbd80d367	-0.06290322
155	0x3c4e97ee	0.012609465
156	0x3cbb813c	0.022888772
157	0x3e1881e3	0.14893298
158	0x3d4c29dc	0.049844608
159	0x3c0a7ee1	0.008453102
160	0xbdd44af4	-0.10365859
161	0xbc7b586c	-0.015340906
162	0x3c7648d5	0.015032013
163	0x3dc9686f	0.09834372
164	0xbdac3232	-0.084080115
165	0x3c41e90d	0.011835349
166	0x3c393e96	0.011306426
167	0x3c8c0d11	0.017096074
168	0x3dab707f	0.08371066
169	0x3ce89570	0.02839157
170	0x3d16f631	0.03685588
171	0x3b8ffe7b	0.00439435
172	0xbcb8ba00	-0.02254963
173	0x3db3f6e6	0.087873265
174	0x3ddca7c5	0.10774187
175	0x3cee8d8f	0.029120235
176	0xbd2e56f2	-0.042563386
177	0xbd825df5	-0.06365577
178	0x3e40d3af	0.18830751
179	0x3d4bb2ad	0.049730945
180	0x3bc861d8	0.0061151795
181	0x3daa7e34	0.083248526
182	0xbba723da	-0.0051007094
183	0xba261f21	-0.0006337036
184	0xbccb2446	-0.02479757
185	0x3d3e6ae0	0.046488643
186	0x3d8ec463	0.069710515
187	0x3cf9610c	0.030441783
188	0x3da21a0a	0.07915123
189	0xbc82468d	-0.015902782
190	0x3dd64f4d	0.10464344
191	0x3db327a4	0.08747795
192	0x3d93f3f5	0.072242655
193	0x3c8a4a28	0.016881064
194	0x3aade930	0.0013268348
195	0x3db596de	0.08866666
196	0xbd80b0f6	-0.062837526
197	0x3d09a7aa	0.033607163
198	0x3d87855c	0.06617233
199	0xbdcbfdf1	-0.09960545
200	0x3dc101bc	0.09424159
201	0xbdbb756f	-0.09153258
202	0x3db9cd54	0.09072366
203	0xbe2b7595	-0.16744073
204	0x3a3ec81b	0.0007277743
205	0x3b98feb9	0.004669037
206	0xbd13837b	-0.03601406
207	0x3dc73765	0.097273625
208	0xbd071b0b	-0.032984775
209	0x3d945ee6	0.07244663
210	0xbd1eac81	-0.03873873
211	0x3d3f1334	0.046649173
212	0xbc006444	-0.007836405
213	0x3d7902e9	0.06079379
214	0xbac1e3c1	-0.0014792607
215	0x3da0d770	0.078535914
216	0x3c193417	0.009350798
217	0x3dd6d291	0.10489381
218	0xba4a3018	-0.0007712855
219	0x3dde9592	0.10868372
220	0xbda6ddf6	-0.081478044
221	0x3ce8300a	0.02834322
222	0xbdb80e27	-0.08987074
223	0xbdca7ff6	-0.09887688
224	0xbddb264a	-0.107006624
225	0xbdfd05ee	-0.123546466
226	0xbdc406f1	-0.095716365
227	0xbe183ace	-0.14866182
228	0xbacc0161	-0.0015564376
229	0xbd5c1fe7	-0.053741362
230	0x3d2ca7e7	0.04215231
231	0xbc5c83d7	-0.013459167
232	0x3dda8391	0.106696256
233	0x3c3a5389	0.011372455
234	0x3dd57c29	0.10424072
235	0x3c9a060b	0.01880171
236	0xbdcbe144	-0.099550754
237	0x3dce127a	0.10062118
238	0x3de0bccd	0.10973511
239	0x3c993a23	0.01870448
240	0xbc814f10	-0.01578477
241	0x3a6814f7	0.00088532217
242	0xbe0dc5be	-0.13844964
243	0xbb09439f	-0.0020944846
244	0xbe1bd2f6	-0.15217194
245	0x3c0eb4bb	0.008710082
246	0xbb9e26e8	-0.0048264153
247	0x3d33676b	0.0437998
248	0x3d678416	0.05652245
249	0x3c89bcf4	0.016813733
250	0xbdc5a8b4	-0.09651318
251	0x3dbb3661	0.09141231
252	0xbdff54a8	-0.12467319
253	0x3c2a21ce	0.010384036
254	0x3cd420d2	0.025894556
255	0xbd62c62b	-0.05536477

bias f4 [9]
0	0x410862cb	8.524119
1	0x410ee33e	8.930479
2	0x41027fd3	8.156207
3	0x40fbb475	7.8657784
4	0x410390b1	8.222825
5	0x40f10068	7.5312996
6	0x4107b625	8.481969
7	0x410cd724	8.802525
8	0x41065069	8.394631
