dev/target_net_100.pth (torch_old, 529973 bytes, 20 tensors)

weight f4 [16, 4, 5, 5]
00000000: 0c99 913c 1d18 88bd a040 8c3c d028 99bb
00000010: 3393 5dbd 9a20 6b3d 7aa4 0bbd 5f2b 813d
00000020: f5f5 8a3d 2ac4 563d f7cd c3bd c9da 993d
00000030: 004b 25bd 344b fe3c 82b7 5e3d 79fe ac3d
00000040: 9009 66bc d081 a83b ce32 0a3d d78d b83d
00000050: dae2 3a3d 4cf8 93bc 4dcf a4bd 5870 a03c
00000060: de8c 94bd 7abc 6a3d 0081 33bc b525 bebd
00000070: 7a82 a2bd 9e10 a6bd a876 07bc a434 de3c
00000080: 36b7 4b3d e2af 473d 2311 92bd e879 d3bc
00000090: 0d9b 51bd d4eb 83bd ca3b 023d 5670 663d
000000a0: ba75 75bd b68a 03bd 6640 183d a605 413d
000000b0: fca5 d13c 84d0 84bd 7314 cbbd 106b a2bd
000000c0: 5424 893c 6724 873d d252 413d d018 3b3c
000000d0: 0268 523d ea6a 6bbd 1f8e ca3d 0ccf 02bd
000000e0: 80b4 e53b d810 1e3c d28a 243d 1fac bfbd
000000f0: 959c b23d 6353 97bd ccba b53c 286b 2b3c
00000100: 725f 013d a146 863d e200 96bd a882 f2bc
00000110: 2c64 afbc ba00 bcbd 019a ca3d 2616 7f3d
00000120: 9381 ac3d 8ed8 95bd 8240 203d 2408 c7bf
00000130: bd08 013f 4dbc 743d d2a8 a7bd 32c4 2dc0
00000140: 6999 04bf 7ed1 0c40 3bf9 e63f 5b1f 803f
00000150: 5a64 18bf 4e50 b0bf cc28 b4bf ba94 943f
00000160: 015e 9ec0 07e2 39c0 4214 b0be db65 edbf
00000170: c103 cdbe 9492 e33f 5f0b d140 0f37 1e3f
00000180: 4f26 9abe 987a 33c0 7ba1 4fc0 423c 7b40
00000190: 4579 ca3d 1abe 66bd 704b 3fbd e2ca 7a3d
000001a0: 50ed d53b 1172 8a3d fb5b 95bd f032 47bc
000001b0: 3d06 60bd 00a3 14bd 000b 3abb b5dd adbd
000001c0: 5431 943c 2883 373c 1358 c8bd 0048 46bd
000001d0: 9ab2 6f3d c892 bf3c 7762 7cbd d011 783c
000001e0: ccc9 ea3c db25 bebd 074b 813d e06e be3b
000001f0: 2966 823d a887 663c a6e8 5b3d c0b8 d1bc
00000200: 9822 0f3c 5f69 8f3d 26ff 7f3d eacf 5c3d
00000210: 3aa3 adbd adc2 3abd ceee 4d3d 731d 51bd
00000220: 7b07 bcbd 6953 b73d ccad d13c dee5 7f3d
00000230: 3375 a1bd d5b8 993d 5000 4c3c 08c4 c6bc
00000240: 516c c73d e85a 9dbd 0065 73ba a054 043b
00000250: 0099 bb3b 0091 94bb d84b 03bc 9ddb b0bd
00000260: f33e 1dbd d095 5abc bd7f aabd 4cb9 e63c
00000270: 219a b53d ab30 96bd 5a8f 213d e278 cabd
00000280: 82f9 2b3d c694 4b3d 3899 b1bc 404d 2d3b
00000290: 70f3 00bc 8388 813d 30b0 0b3c 92c5 4b3d
000002a0: 8bfc 9f3d c810 913c 42c5 543d 382c b7bc
000002b0: 3fc0 b2bd 506a 3e3c 99aa cb3d 4f45 8abe
000002c0: f808 92bd ace3 4dbe 43fd 953c ec05 1c3d
000002d0: 0ba6 6bbe e6a7 9ebd 314b 5dbe 42d4 80be
000002e0: 3c62 8fbe b307 82be a5ab 8abe 87d5 88bd
000002f0: 4a53 74be 9774 82bd d71e a6bd 5369 86be
00000300: 75fa cbbd cb76 23be c41d 45be 0400 77be
00000310: 4fac 04be 0eef 14bd 85d1 24be 2e1f 17be
00000320: e2cd 1a3d 7393 a63d 20f7 94bc 2698 203d
00000330: 0029 273a 01a2 c73d 404b 32bd cd6c c73d
00000340: ad2d 52bd 72b2 443d b075 413c 1ad5 b3bd
00000350: 5907 c63d 210e cc3d e251 2a3d 95a3 a3bd
00000360: b071 79bd 3a36 9bbd 5a90 203d 9e5f 3c3d
00000370: 80ed a9bc 1351 813d 6d0f c73d 7893 8cbc
00000380: 3933 aa3d 3901 863d 6109 913d 405f 51bc
00000390: aa93 1e3d 1aed 363d 6229 673d a622 a6bd
000003a0: e483 d83c e62e 5d3d ac96 01bd 4bab b43d
000003b0: 8209 173d 60cc c8bb 8ccd c93c f7cb 38bd
000003c0: ec74 b7bc bd6a 5ebd 6a3b 123d 14ec 8f3c
000003d0: 55f3 a83d 52ab 3d3d 0034 af3b ac61 c7bc
000003e0: d7fc b5bd 65ff acbd d8c6 9ebd 929e 383d
000003f0: f03d 5cbc b387 30bd d0b8 58bd 8999 b53d
0.017773174 -0.06645224 0.01712066 -0.0046740547 -0.05409546 0.05740414 -0.034092404 0.063071005
0.06785194 0.05243317 -0.09560769 0.07512433 -0.04035473 0.031041719 0.054374225 0.08446974
-0.014040366 0.005142428 0.033739857 0.09011429 0.0456265 -0.018062733 -0.08047352 0.01958482
-0.07253431 0.05730865 -0.010956049 -0.09284536 -0.07935043 -0.08108638 -0.008268036 0.02712471
0.04973527 0.04875172 -0.07132175 -0.025814965 -0.05117326 -0.06441465 0.0317953 0.056259476
-0.059926726 -0.032114707 0.03717079 0.047124527 0.025591843 -0.06485084 -0.0991601 -0.07930577
0.016740955 0.0659874 0.047198124 0.01141949 0.05136872 -0.057475008 0.09890389 -0.031935737
0.0070100427 0.009647571 0.040171452 -0.09359001 0.08721272 -0.07388952 0.022183798 0.01046256
0.031585164 0.0655644 -0.07324387 -0.029603317 -0.02141007 -0.09179826 0.09892655 0.06227698
0.08423152 -0.07316695 0.03912402 -1.5549359 0.5040396 0.05974989 -0.08186497 -2.7150998
-0.51796585 2.2002864 1.8044809 1.0009569 -0.59528124 -1.3774507 -1.407495 1.1607888
-4.948975 -2.9044206 -0.34390455 -1.8546709 -0.40041927 1.7779107 6.532638 0.6180276
-0.30107352 -2.8043575 -3.244231 3.9255528 0.098864116 -0.05633364 -0.046702802 0.06122864
0.006528534 0.06760038 -0.072929345 -0.012158141 -0.05469345 -0.03628826 -0.0028387904 -0.08489553
0.018089928 0.011200704 -0.09782424 -0.04840851 0.058519937 0.02338542 -0.06161734 0.015140966
0.028660677 -0.09284564 0.063131385 0.005811557 0.06367142 0.014070429 0.053688668 -0.025600791
0.008736275 0.0700252 0.062499188 0.05390922 -0.084783986 -0.045595814 0.05027657 -0.051053476
-0.09181114 0.08951456 0.025595568 0.062475078 -0.07883682 0.07505957 0.012451246 -0.024263397
0.097374566 -0.076833546 -0.00092847645 0.0020192042 0.005725026 -0.004533887 -0.008013688 -0.08635638
-0.03839011 -0.013341382 -0.083251454 0.028164528 0.088672884 -0.073335014 0.03944335 -0.09886338
0.041985996 0.04970243 -0.021679506 0.002644375 -0.00787054 0.06324866 0.008525893 0.049748965
0.078118406 0.017708197 0.051945932 -0.022359952 -0.08728074 0.011622027 0.09944648 -0.27006003
-0.07130617 -0.20106381 0.018309241 0.038091585 -0.23012559 -0.07746868 -0.21610714 -0.2516194
-0.28004634 -0.253965 -0.2708408 -0.06681352 -0.23859897 -0.06369894 -0.08111351 -0.2625223
-0.0995988 -0.15963285 -0.19249636 -0.241211 -0.12956356 -0.036360793 -0.1609555 -0.14757988
0.037794 0.081335925 -0.018184245 0.0392076 0.0006376654 0.09747697 -0.043528795 0.09737549
-0.05131309 0.04802174 0.011807844 -0.0878088 0.0966937 0.099636324 0.041581996 -0.07990185
-0.060899436 -0.07578702 0.039200164 0.045989625 -0.020743132 0.06314292 0.09719739 -0.017160162
0.08310551 0.06543202 0.07081867 -0.012779057 0.038715042 0.04465971 0.05643595 -0.081120774
0.026430078 0.053999804 -0.031637833 0.08821734 0.0368743 -0.006127879 0.024634145 -0.04511639
-0.02239462 -0.054301012 0.035701193 0.017568626 0.08249537 0.046305962 0.005346775 -0.024338566
-0.08886116 -0.0844715 -0.0775277 0.0450731 -0.013442501 -0.043098163 -0.052910626 0.08867175

bias f4 [16]
00000000: ed2c 4cbf 0d53 b13d 31af 06c0 3bc5 0d3d
00000010: bd0d 8dbc 401b 2b3e d758 32c0 1af9 47bf
00000020: 8cd9 8a40 007d 92c0 d3e2 1c40 7b44 cdbc
00000030: a99e 30c0 512a 7240 f291 4c3e 43b3 34bf
-0.7975605 0.08658419 -2.1044428 0.03461192 -0.017218465 0.16709614 -2.7866724 -0.78114474
4.339056 -4.577759 2.4513443 -0.025057068 -2.7596838 3.7838328 0.19977549 -0.7058603

weight f4 [16]
00000000: ea37 f53f c0c0 863e 9ce5 483f 5a0e c83e
00000010: 46be 183d 7b2e 4c3e b851 fb3f 43e5 76c0
00000020: 7715 3040 9440 0440 0f87 b540 6823 a03c
00000030: 907c c03f 5149 493f 9823 f340 0bda df3f
1.9157689 0.26318932 0.78475356 0.3907345 0.037290834 0.19939606 1.9634314 -3.857743
2.75131 2.0664415 5.6727366 0.019548133 1.5038013 0.78627497 7.598095 1.7488416

bias f4 [16]
00000000: 870d f6bf 9f7c 4cbe 8684 4140 a9ca ccbd
00000010: 63c9 4cbe 4d41 4cbe d3e7 8e40 e2cc 8040
00000020: 9cba 1340 184a 0940 3950 6640 7fcc 86be
00000030: be7c e33f ddac f63f 8ac0 ed3f fa12 d93f
-1.9222878 -0.19969414 3.0237136 -0.09999592 -0.19998698 -0.19946785 4.465799 4.02501
2.3082647 2.1451473 3.5986464 -0.26327893 1.7772443 1.9271504 1.8574383 1.6958916

running_mean f4 [16]
00000000: 164a 4cbf 6b29 9c3d d11f 06c0 9038 e23c
00000010: 5c02 d4bc 8c78 243e ad7e 30c0 4329 34bf
00000020: 7f0c 8940 ea1e 93c0 b995 1940 b6c4 06bd
00000030: 88e3 2dc0 5ddb 7240 93be f73d 6f9d 40bf
-0.79800546 0.07625087 -2.095692 0.027614862 -0.025880031 0.1606161 -2.7577317 -0.7037546
4.2827754 -4.5975237 2.3997633 -0.032902442 -2.7170124 3.7946389 0.12096896 -0.75240225

running_var f4 [16]
00000000: 652e f53d 1482 193c c733 b63d f716 8c3b
00000010: 10c2 df3b e536 703b 1f2c cd3d e99a 9f3e
00000020: 5364 133e a7e3 c73d fc0e 073f e2fc be3b
00000030: d0ad c53e 6e12 e93d 9f77 a53e a0f1 da3d
0.1197174 0.009369392 0.088965945 0.0042751986 0.006828554 0.0036653813 0.10018181 0.31172875
0.1439374 0.09760218 0.5275724 0.005828486 0.3860917 0.11380468 0.32317826 0.106906176

weight f4 [32, 16, 5, 5]
00000000: 4534 0f40 b258 d9bf a124 21c0 e8ce f1bf
00000010: d0e1 10c0 ff59 3f40 bc23 e0bf 3a47 833f
00000020: 4f8d bcc0 48a0 29c0 2b73 18c0 f907 8e3e
00000030: 4ebe 2b40 676c 06c0 884e 8dbf 407f 40c0
00000040: 1888 5040 7a13 1b40 834a bebf d0fd 0ec0
00000050: 72b6 80c0 e252 3340 a8a6 d4bf 252a 41bf
00000060: 6924 83bf 5f03 9ebd bf3c cfbd c367 82bd
00000070: 288d e63d 6e86 85bd 62ec 743d 51fc babd
00000080: f059 d8bd ce24 a2bd 77cc c1bd 7b96 d13c
00000090: 81c1 63be 3bd4 12bd 9994 d4bd d29f de3d
000000a0: d331 2c3b b8ce bb3d d8de 1e3e fc70 183e
000000b0: 69cf b2bd 7c1c bd3d f755 df3d 6f52 c3bc
000000c0: 1810 52bd 49d4 043e 90a9 fc3f b358 3940
000000d0: 5920 9cc0 5ec7 39c0 4373 df3f a918 3d40
000000e0: 1a10 e8bf f514 4840 1436 0940 6421 cabc
000000f0: 7aa6 813f 43d4 c7bf fc96 be3f c105 73c0
00000100: 157a 42c0 29d7 32be 54f5 be40 3390 dcbf
00000110: 8d77 b0bf 6f6c 9240 8c9d c4be b038 dd3f
00000120: 7835 71c0 b32a a6be 114c 3abe 89cf 073e
00000130: 41b5 843d 2870 113e ffda ed3d 233a f7bd
00000140: a6bf 9b3d 8e14 0d3e 2b36 d43d 7f01 f9bd
00000150: 7786 b6bd 3a08 193e 860e 99bd 8e1a 92bd
00000160: b03d a5bd adba 59bd a1cf aabd a7f6 ba3d
00000170: af9b ad3d a6c8 a3bd 6ddf d2bd 3134 7d3d
00000180: 953e 123e 05a0 f9bd 6b79 873d 1ab4 5abd
00000190: 53a6 23bc d903 1d3e 2d51 60bc 4b4f 2fbd
000001a0: 1396 d4ba 5ecf 003d e825 e13c 68dd 3c3e
000001b0: 14dd 213b 01e5 703b 8e28 563d c260 1d3e
000001c0: f710 2b3e c102 5c3e 8c32 3c3e 9f09 173e
000001d0: 3597 5f3e 4c79 cf3c 3a9c 453e 5dc4 243e
000001e0: ef62 1bbe f528 583b e7b1 8b3c 63c2 1c3d
000001f0: 5d9a d7bc 503d 543d e73e 19be a9d7 84bd
00000200: 3b41 6f3e 0f6d 14be 4a26 e93d 7295 e9bd
00000210: 725a 7bbd 1a25 b13d c41a b3bd 873a d03d
00000220: 9072 143e 34b2 803d fcca bfbd a0f0 10be
00000230: 76d0 c93d 1748 063e a663 5a3d 5a05 bbbd
00000240: d91e 1dbe 4bc1 ab3d b0ec dfbd 442d 733d
00000250: b3a2 ee3d 0a35 b0bd f8fe 02c0 ff33 5dbf
00000260: baf0 fabf dba5 bbc0 5cf9 29c0 6c5c e3bf
00000270: 0713 eb3f 9063 8a3d 6f6b 70c0 dfda 88bf
00000280: fd3c b0bf 5956 9bbf f199 8d40 61c6 1a40
00000290: 617b 86bf 9bfa 3940 a3fd 9bbf 6857 0440
000002a0: cc4e 7ebf 4582 b0c0 39fa d9c0 b99f 34c0
000002b0: c1a5 e13f ad26 3b3e 56d0 1040 36ce 65c0
000002c0: 8e77 0ac0 3f87 a9bf 5050 f1bd 890b fbbf
000002d0: b2d2 2ec0 a3e4 833e 8b2b 4140 8fc8 febe
000002e0: 8376 2640 d16b ffbf 1214 2040 5f9d 72c0
000002f0: ba47 59c0 a397 5440 27ef 13bf 33f8 26bf
00000300: eb09 af3f c472 7140 bc2d ab3f 0b27 5a3f
00000310: bd16 40bf dbda e0bf 7a01 0e40 7bbe 803f
00000320: 9e38 e8bf c78f 903f bc47 1940 0b19 7f3f
00000330: eb61 10bd 9f0e 6e40 5b1f 3240 52aa 913f
00000340: 5fd2 eebf d59c 0340 1b45 b7bf c87c a83f
00000350: b6d4 983f 8875 cf3f e11e 24c0 df61 59c0
00000360: 0665 a840 db65 7940 8c2b 88c0 ec75 82c0
00000370: 10c0 fcbf 3f2d 0c40 c7e9 763f 5f86 4fbe
00000380: 2846 533d 98c2 d73f 8ec2 e83f b592 8340
00000390: 517d 42bf 308e 89bf 1142 243f 6a58 8540
000003a0: e5e6 ae3f 8c5c 3fbf e295 e3bc 7983 e63f
000003b0: 5820 55bf 8743 78c0 9e06 a0be f7ca bdc0
000003c0: 20e8 38c0 b05e c03f 0b5b aa3f 134a 91c0
000003d0: 2058 e13f 72f3 8abf 1072 5f40 03ba 43bf
000003e0: fa9d 74c0 137b 3141 6060 8640 4fa9 30bf
000003f0: 902a f4bf e9e6 89be 2125 813f e4ec c3bf
2.2375653 -1.6980193 -2.5178607 -1.8891268 -2.2637825 2.989868 -1.7510905 1.0256112
-5.8922496 -2.6504078 -2.3820293 0.27740458 2.6834903 -2.1003664 -1.1039591 -3.0077667
3.2583065 2.4230638 -1.4866489 -2.2342415 -4.022271 2.8019338 -1.661336 -0.7545493
-1.0245486 -0.07715487 -0.10119008 -0.06367447 0.11257392 -0.06519781 0.059795745 -0.09130157
-0.10564029 -0.07917176 -0.09462827 0.02558445 -0.22241785 -0.03584693 -0.10379905 0.10870327
0.0026274815 0.09170288 0.15514696 0.1488685 -0.087309666 0.092339486 0.10905068 -0.023843018
-0.05128488 0.12971605 1.9739246 2.8960388 -4.8789487 -2.9027934 1.745705 2.9546301
-1.8129914 3.126279 2.1439257 -0.024674125 1.012893 -1.5611652 1.4889827 -3.7972262
-3.0387013 -0.1746489 5.9674473 -1.7231506 -1.3786484 4.5757365 -0.3840145 1.7282925
-3.7688885 -0.32454452 -0.1819308 0.13262762 0.06479884 0.1420294 0.11614036 -0.120716356
0.076049134 0.13777372 0.10361894 -0.121584885 -0.08912366 0.14944544 -0.07473473 -0.07133971
-0.080684066 -0.053156544 -0.08340383 0.091290765 0.0847696 -0.07997255 -0.10296521 0.06181735
0.14281686 -0.121887244 0.066149555 -0.053394414 -0.009988385 0.15333499 -0.013691229 -0.04280023
-0.0016219042 0.03144776 0.027483895 0.18443835 0.0024698423 0.003675759 0.05228477 0.15368941
0.1670569 0.21485426 0.18378657 0.14749764 0.21835025 0.025326394 0.19297877 0.16090532
-0.15174459 0.0032983397 0.017052604 0.03827132 -0.026318723 0.051816285 -0.14965402 -0.064864464
0.23364727 -0.14494728 0.11384256 -0.114054576 -0.061365552 0.08649655 -0.087453395 0.10167413
0.14496827 0.062839895 -0.09364888 -0.14154291 0.09854214 0.13113438 0.05331769 -0.0913188
-0.15343799 0.08386477 -0.109338164 0.05936934 0.11652126 -0.086038664 -2.046812 -0.86407465
-1.9604714 -5.863996 -2.6558447 -1.776258 1.8365182 0.06757271 -3.7565572 -1.0691794
-1.3768612 -1.2135726 4.4250417 2.418358 -1.0506402 2.9059207 -1.2186779 2.0678349
-0.99338984 -5.515902 -6.8117948 -2.8222487 1.7628709 0.18276472 2.2627158 -3.590711
-2.163547 -1.3244399 -0.117828965 -1.9612895 -2.7316098 0.25760373 3.0182827 -0.4976239
2.6009834 -1.9954778 2.501225 -3.7908552 -3.3950028 3.3217552 -0.5778679 -0.6522247
1.3674902 3.7726297 1.3373332 0.85215825 -0.75034696 -1.7566789 2.2188401 1.005813
-1.8142278 1.1293877 2.3950033 0.9964759 -0.03524963 3.7196424 2.7831638 1.1380103
-1.865795 2.0564473 -1.4317964 1.316308 1.1939914 1.6207743 -2.5643847 -3.3965986
5.262332 3.8968418 -4.255316 -4.0768948 -1.9746113 2.1902616 0.96450466 -0.20266102
0.051580578 1.685626 1.8184373 4.1116586 -0.7597247 -1.0746517 0.6416331 4.1670427
1.3664213 -0.7475059 -0.02778143 1.8008872 -0.8325248 -3.8791215 -0.3125505 -5.931026
-2.8891678 1.5028896 1.3309034 -4.5402923 1.7605019 -1.0855544 3.4913368 -0.76455706
-3.8221421 11.092547 4.1992645 -0.69008344 -1.9075489 -0.26933983 1.0089456 -1.5306668

bias f4 [32]
00000000: 500a e83e bd8a ac3d 7099 313e 8734 3f3d
00000010: 5ec0 573f 0c61 2440 120c 46bf a7c6 9abd
00000020: ba38 fbbc fd4e e23c 5c13 96bf 5b29 b13e
00000030: ba7c d83f 9018 1dbf 338a a43f 74c8 0d40
00000040: ab4f 0940 9c29 af3f aa33 53c0 e59e 903f
00000050: d776 c8bf 9acc d4bf d2ed debc 13e4 32bf
00000060: 8426 adc0 2040 7940 fd17 0540 d88d cc3f
00000070: fca0 d43f 48fc 4340 980b c13d a894 83bf
0.45320368 0.084249 0.17343688 0.046680953 0.84277904 2.5684233 -0.7736217 -0.07557421
-0.030666698 0.027625555 -1.1724658 0.34601864 1.6913064 -0.61365604 1.2854675 2.2153597
2.1454875 1.3684573 -3.3000283 1.1298491 -1.5661267 -1.662494 -0.027213011 -0.69879264
-5.4109516 3.8945389 2.0795891 1.5980787 1.6611629 3.062273 0.094260395 -1.0279741

weight f4 [32]
00000000: d048 e73f 6827 b73a 077a 4040 1c58 9d3b
00000010: ff2c e73f 9d43 a33f b32d 2e40 b8e6 1f3b
00000020: ee36 c23f 0447 6e3d 942b b93f 096f 1440
00000030: 8a97 bc3f b8b9 3440 9a94 c2bf 8264 7740
00000040: fdab 9a40 be82 4240 9641 3940 1ef7 2c40
00000050: 0a8f 3040 fe2e 1240 e844 a83d 4914 a840
00000060: 9019 4f40 3ab8 5b40 76e8 4540 d0df 0240
00000070: 3192 3d3f 3c50 5c40 ab19 dabb 0c04 8b40
1.8069096 0.0013973536 3.007448 0.004801763 1.8060607 1.2755009 2.7215393 0.0024398994
1.5173013 0.058173195 1.4466424 2.319277 1.4733746 2.8238354 -1.52016 3.8655095
4.8334947 3.0392299 2.894628 2.7025828 2.7587304 2.2841182 0.08216268 5.252476
3.2359352 3.4331193 3.0923133 2.0449104 0.74051195 3.442397 -0.006655892 4.344244

bias f4 [32]
00000000: e771 92c0 e5c7 4cbe 116d 1dc0 7375 08be
00000010: 5256 5c40 bc48 03c0 cc41 75c0 cb7b 58be
00000020: 92a4 e8bf 1317 fdbe afc0 d43f 350b ce3f
00000030: d41b ed3f c9e8 063f 13a3 3ac0 611f 67bf
00000040: c682 a3c0 0e82 2fc0 1ec8 723f 1dcd 6ac0
00000050: 21bd b63f f7f9 d43f d89a 57bf 04f8 11c0
00000060: 15c1 ec3f a52b 3ac0 124a 4d3f 9681 0340
00000070: aa18 b1bf 3884 98bf c9a8 d7be c81c 2e40
-4.576404 -0.19998129 -2.459782 -0.13326053 3.4427686 -2.0513144 -3.832141 -0.21140973
-1.8175223 -0.49431667 1.6621302 1.609717 1.8524117 0.5269895 -2.9162033 -0.90282255
-5.1097136 -2.742313 0.94836605 -3.6687691 1.4276468 1.6638783 -0.8422065 -2.2807627
1.8496424 -2.9089139 0.8019115 2.0547843 -1.3835652 -1.191535 -0.4212096 2.7205067

running_mean f4 [32]
00000000: d591 83c2 3575 2ac2 90f8 a7c3 067b dfc1
00000010: 86ba 2043 7582 9d43 5f9e 6ac3 0a31 2bc2
00000020: 786b 87c1 060b 82c2 c9dc abc3 a9bd 5cc3
00000030: 7e9c 20c3 5331 d5c3 1a55 a442 07e0 cdc3
00000040: b396 c8c3 3d0b cec3 7802 23c4 b79d 93c3
00000050: c58b eec3 3cf5 b7c3 9de4 c6c2 3605 fac3
00000060: 46ef cfc3 8efc f2c3 249f 89c3 5ba8 99c3
00000070: eb70 e443 69d4 ecc3 5208 e4c2 f7d9 7dc3
-65.78483 -42.61446 -335.9419 -27.93507 160.7286 315.0192 -234.61864 -42.79789
-16.927475 -65.02153 -343.72488 -220.74086 -160.6113 -426.38535 82.166214 -411.7502
-401.17734 -412.0878 -652.0386 -295.23215 -477.09195 -367.9159 -99.44651 -500.0407
-415.86932 -485.97308 -275.2433 -307.31528 456.88217 -473.65945 -114.01625 -253.85143

running_var f4 [32]
00000000: 282d 5145 4e56 4041 3885 5c45 7556 8e41
00000010: 68fd bc45 9151 8f45 21d1 3945 3cc7 8d42
00000020: e814 a745 af33 2c43 cbf7 2a45 7abc 8e45
00000030: fbf5 3345 4825 5b45 251b 4c45 cc5c 7e45
00000040: 85aa 7e45 5c0c 5e45 26da 5c45 c4c4 5545
00000050: 48c2 ac45 8dc8 6245 4972 d742 77f1 8845
00000060: 63b9 9345 ee5e 8645 24c0 4f45 d4f3 6a45
00000070: be2f c745 b6f5 8945 6306 9e43 ef6d f645
3346.8223 12.0210705 3528.3262 17.792215 6047.676 4586.196 2973.0706 70.88913
5346.6133 172.20189 2735.487 4567.5596 2879.3738 3506.33 3265.6965 4069.7998
4074.6575 3552.7725 3533.6343 3420.2979 5528.285 3628.5344 107.72321 4382.183
4727.1733 4299.866 3324.0088 3759.2393 6373.968 4414.714 316.0499 7885.7417

weight f4 [32, 32, 5, 5]
00000000: 0225 a73f 8b42 89c0 937f 0cc0 9367 1240
00000010: e415 70bf a950 49bf 9838 d13f 8c56 ba3f
00000020: 133c 57bf 4322 01c0 39bc 96c0 ab02 16bf
00000030: c52f 9a3f b412 50c0 2db1 95c0 7327 acc0
00000040: c3a0 223f 6ba6 a540 65e4 8bc0 fe4a 6bc0
00000050: 1fa8 7f40 1cbe 17c0 8b3e b140 6f93 dbbe
00000060: 4282 86c0 d9cd e1bc 2e1a 3d3e 224b 3c3b
00000070: 11e1 013d 44f2 3dbc 169a d6bc 8df2 60be
00000080: 3068 4dbe cf34 68be ac5c 663c ba2d b7bc
00000090: 6f8f 61be 958e 5cbe 8f6a 43be 71cd 62bc
000000a0: bd92 2ebb f00f 4bbe 7c4b 5cbe 7a77 a2bd
000000b0: 3fa1 843c bf9d 0cbd 8639 64bb f12e b13c
000000c0: 12b1 653c f451 db3c 01f6 a740 a800 acbf
000000d0: f724 b7bf 32f4 883d 88d9 02c0 7f6f 96bf
000000e0: e74e 17c0 9010 4540 0589 a6c0 2a8c 0a40
000000f0: 03bd 3cbf 8b70 933f ee27 4b40 e460 3fc0
00000100: 483e 4abf 8d3a d33f 777b 41bf 136c 37bf
00000110: 3027 91c0 b540 e0bf 5cd0 4e3f 977c 613e
00000120: faf1 1f3f bb62 5dc0 64ad 9dbf 12e8 75bd
00000130: 29b5 6a3e 1b8a 40bc a79b e53d 0cb5 44bd
00000140: cc19 20be 6a11 aebc 4395 4fbe 8186 2dbe
00000150: 09e0 a6bc 8522 30be 0ce2 43bc 1cce 37be
00000160: 6fd4 6bbd ff90 08be 5ac8 52bd 4c62 21bd
00000170: be50 ffbd 5baf 6ebd 92a3 12be c21d 05be
00000180: e6cb cdbd 10e4 0dbe 4782 debd 60fc e5bd
00000190: b823 463e 57d1 1dc0 ac29 f93f c3ff 0a40
000001a0: 068d 5bbf ea15 4740 c05f ee3f 8700 4840
000001b0: ea54 f43f d862 563f 3592 993f d496 0abe
000001c0: f70a c440 7797 26c0 ccab 2a40 b280 efbe
000001d0: 7bff d5bf 413c 72c0 f489 9fc0 eecc 0a40
000001e0: 609f 52c0 ef03 b2bf af94 6a3f e2d6 3d40
000001f0: e4d8 11c0 6c51 0dbe 0e6d ff3f b8f0 d63d
00000200: f708 a43f 4beb 01bc 40ea a4bc 6c18 53c0
00000210: 2ad0 aec0 e8d4 10c0 799d 483f c5d4 e93e
00000220: 7a1c 54c0 0628 99c0 8c25 b3c0 2fc0 bdc0
00000230: 3034 0bbf 9231 3ebf 94b9 61c0 891a a0c0
00000240: a9f9 56bf 6c7e 4140 d53f 203f cd07 b3bf
00000250: 86e5 87bf f279 26c0 38fd fdbf c268 9abe
00000260: 4c6a 7ac0 2f3d ea3f 0bf2 33c0 8421 c3bf
00000270: a806 2ebf 5855 b9bf f9a6 37bf 2279 97c0
00000280: 6546 c1c0 5dba c3bf 2531 34c0 4472 10c0
00000290: 9870 efbf d356 2040 b387 2ac0 272e d5bf
000002a0: 41ec 1340 a84c 9c3f 33ff 36c0 9022 8e40
000002b0: aa0f 9e40 2b7e e03f 0742 9140 20e2 b33e
000002c0: d72b 29be fb0c 09be d4f6 503d 729b 43be
000002d0: 8346 2e3d 0adc 2f3e fc36 fabd 9734 bcbe
000002e0: 5fb6 63be 27d1 cfbe 9a96 0dbe 6196 48be
000002f0: ef88 b43d 4163 21be cc99 24be 6335 2c3e
00000300: d7bc 8a3d 4a32 943d dc48 67bd 7d9f 563d
00000310: 38fe 053d baed 0dbe 9815 65be 0170 55be
00000320: 29d9 133e c765 7ebf 94aa cebe ee7a 13c0
00000330: a182 cfbf b9a6 33c0 fe8a f4bf d308 96c0
00000340: 5f07 3dc0 9b86 9e3f 9dee fabe 195b a9bf
00000350: a8fb 35c0 8153 eac0 fe08 29c0 dbbc f9bf
00000360: e7dd 17c0 cc1e 1fc0 9aed 56c0 de88 9240
00000370: b590 673f 832e 4540 61f8 b1c0 aad2 01c0
00000380: eedf 193f 8ff9 743e 3ebe 16bc 4514 b53d
00000390: ad04 b7bd f390 0fbe 0017 11be e39e a33d
000003a0: cece 393d da2e a73d c4ef 23be 97d1 5ebd
000003b0: 3301 6ebd dfa4 34be aee4 aa3d d26d a73d
000003c0: 95f9 00bd 3bf3 4e3d ad77 b13c 105c c03d
000003d0: 7bab 9b3d 0bbb b1be 4b0e f13c aa4f 823d
000003e0: ebb3 ab3d 8828 1ebe 7d67 3140 08be e140
000003f0: aa9d 55bf ba33 7cc0 3278 b23e 27e7 a03f
1.3058169 -4.289373 -2.1952865 2.2875717 -0.937834 -0.786387 1.6345396 1.4557662
-0.8407604 -2.0177162 -4.7104764 -0.5859782 1.2045828 -3.2511415 -4.677878 -5.3798156
0.6352655 5.1765647 -4.37163 -3.6764522 3.9946363 -2.3709784 5.5388846 -0.4288592
-4.2034006 -0.027563976 0.18467018 0.0028731306 0.03170878 -0.011593405 -0.02619652 -0.21967526
-0.20059276 -0.22676395 0.014060181 -0.022360671 -0.22027372 -0.21538766 -0.19083618 -0.013842926
-0.0026637756 -0.19830298 -0.2151317 -0.079329446 0.01619017 -0.034330126 -0.0034824326 0.021628829
0.014019268 0.026772477 5.24878 -1.34377 -1.4308156 0.066872016 -2.044527 -1.1752776
-2.3641908 3.079136 -5.204226 2.164805 -0.7372591 1.151872 3.174312 -2.9902887
-0.79001284 1.6502243 -0.7557902 -0.71649283 -4.5360336 -1.7519747 0.8078668 0.22020184
0.624786 -3.459151 -1.231854 -0.060035773 0.2292067 -0.011751677 0.11211329 -0.048024222
-0.1563484 -0.021248538 -0.20271783 -0.1694584 -0.0203705 -0.17200668 -0.011955749 -0.17949718
-0.05757564 -0.13336562 -0.0514606 -0.039400384 -0.12466572 -0.0582727 -0.1432021 -0.12999633
-0.10048656 -0.1385653 -0.10864692 -0.11229777 0.19349563 -2.465902 1.9465842 2.1718605
-0.8576206 3.1107125 1.862297 3.1250322 1.9088414 0.83744574 1.1997744 -0.13534099
6.1263385 -2.6029947 2.6667356 -0.46777874 -1.6718591 -3.7849276 -4.98559 2.168758
-3.2909775 -1.390745 0.91633123 2.9662404 -2.278863 -0.13800591 1.9955156 0.10495132
1.2815236 -0.007929633 -0.02013123 -3.2983656 -5.4629107 -2.2629948 0.78365284 0.45670143
-3.314238 -4.7861357 -5.5983334 -5.92971 -0.54376507 -0.7429439 -3.5269518 -5.003239
-0.839747 3.0233412 0.625974 -1.3986756 -1.061692 -2.601193 -1.9842901 -0.3015805
-3.9127378 1.8299922 -2.8116481 -1.5244603 -0.67978907 -1.447917 -0.71739155 -4.7335367
-6.039843 -1.5291249 -2.8154995 -2.2569742 -1.8706236 2.5052993 -2.6645324 -1.665471
2.3112948 1.2210894 -2.8593261 4.441719 4.939412 1.7538503 4.53931 0.35133457
-0.1652063 -0.13383858 0.051016644 -0.19102266 0.042547714 0.17173782 -0.12217519 -0.36758873
-0.22237538 -0.40589258 -0.13826981 -0.19588615 0.088151805 -0.15760519 -0.16074294 0.1681724
0.067742996 0.072361544 -0.05646597 0.052398194 0.032713145 -0.13860217 -0.22371519 -0.20843507
0.14438309 -0.9937405 -0.40364516 -2.304378 -1.621174 -2.807051 -1.9104917 -4.688577
-2.953575 1.2384828 -0.49010172 -1.3230926 -2.8434849 -7.3226933 -2.6411738 -1.9510759
-2.3729188 -2.4862547 -3.358252 4.5792074 0.9045518 3.0809639 -5.5615697 -2.028483
0.60107315 0.23923324 -0.009200631 0.08841757 -0.08936439 -0.14020137 -0.1416893 0.079892896
0.04536324 0.08163233 -0.16009432 -0.0543991 -0.058106612 -0.17641018 0.083443984 0.081752434
-0.03148802 0.05052493 0.021663511 0.093925595 0.07601067 -0.34713015 0.02942576 0.06362851
0.08383926 -0.15445149 2.7719414 7.054447 -0.834437 -3.9406571 0.34857327 1.2570542

bias f4 [32]
00000000: 6fcc 4bc0 177e 063d 4069 61bd f711 c8bd
00000010: 48c0 71bf 52bf 703f 3394 d8bf 0569 883e
00000020: 48ac a9be ace9 b53c a605 f1bc b766 0640
00000030: eddc 0dbe 5924 0c3c bb29 82bc da83 60bf
00000040: 2715 463f 9fcd 1e3d 6fa6 ef3d 3d32 853c
00000050: e413 a7bf 523b 3dbe a030 2340 43d8 c1bc
00000060: 058f eabe e920 253e 5e80 f73f 0774 af3c
00000070: eb17 1940 f2e6 31bb 519d cfbc fba1 38bd
-3.1843526 0.032835092 -0.055032015 -0.097690515 -0.9443402 0.9404193 -1.6920227 0.26642624
-0.33139253 0.02220615 -0.029421639 2.1000192 -0.13853808 0.008553588 -0.01588904 -0.8770119
0.77376026 0.038770314 0.117016666 0.016259307 -1.3052945 -0.1847966 2.5498428 -0.023662692
-0.4581224 0.16125835 1.933605 0.02141763 2.3920848 -0.002714571 -0.025343569 -0.04507635

weight f4 [32]
00000000: 4b5a 9e3f 4b56 283e e512 ff3b 9e59 993e
00000010: 78a2 b23f 21e5 a13f 3598 993f e76a b43f
00000020: 6cfb 9e3f 4108 1f3e 7094 023e dfeb 9f3f
00000030: 61c2 aa3f 5f67 cd3c 7d7a 2e3c 425f c73f
00000040: 639d 913f 292d 2abc 2b87 2e3c cc92 463e
00000050: 9978 573f 6b35 9c3f 9264 923f 8101 6e3d
00000060: 3ff7 9b3f 1975 b03f a63a 903f 3069 813c
00000070: ec9e 8b3f d34b e8bb 255c d33c eff6 823c
1.2371305 0.16439168 0.007784235 0.29951185 1.3955832 1.264805 1.1999575 1.4095124
1.2420478 0.15530492 0.12751937 1.2493857 1.334057 0.025073705 0.010649321 1.5575945
1.1376156 -0.010386744 0.010652344 0.19391936 0.8416839 1.2203802 1.1436942 0.058106903
1.2184829 1.3785735 1.1267898 0.015797228 1.0907874 -0.007089117 0.025800774 0.015986888

bias f4 [32]
00000000: cfd8 cfbe bbb3 9ebe 0a79 1bbe 1546 dcbe
00000010: 4172 d0be ed62 eebe d303 bdbe a2dd c8be
00000020: 4282 d5be 7207 d2be af15 fdbe 9d6b b6be
00000030: e51a cdbe 4b96 06be 7c25 b7bd c07f 2abf
00000040: d985 a2be 331c e5bd 0840 6ebe 7f59 02bf
00000050: 590a 82be 1187 83bf 2df9 9abe 6995 99be
00000060: 0084 2dbf c7b6 cdbe 6a22 b7be 9936 85be
00000070: 8a66 a0be 4f5e 30be 9e59 a5bd 7082 73be
-0.405951 -0.30996498 -0.15182891 -0.43022218 -0.4071217 -0.4655985 -0.3691698 -0.39231592
-0.4170094 -0.41021305 -0.49430606 -0.35628977 -0.4005958 -0.1314327 -0.089426965 -0.6660118
-0.31742743 -0.11187019 -0.23266613 -0.5091781 -0.2539852 -1.0275594 -0.3026823 -0.29996803
-0.6777954 -0.4017851 -0.35768443 -0.26018217 -0.3132823 -0.17223476 -0.08073734 -0.23780227

running_mean f4 [32]
00000000: 5a10 dbc2 de08 03c2 2fa8 7242 8fb6 4fc2
00000010: fd05 2ac3 0ef5 dac1 8d35 74c2 d6e2 17c3
00000020: 7d95 7242 d5a9 4ec2 e50f 59c2 1ae8 3f40
00000030: 7247 1742 b23b 6ec2 a048 24c2 c6ca 52c3
00000040: a04a aec2 a80f 3f42 2f45 2542 d6fe 91c2
00000050: d039 eec2 39a1 12c2 2c61 9bc3 13ff 97c2
00000060: 2c41 f6c1 eba0 63c2 d6a2 87c2 0b10 d340
00000070: 401b 60c2 091f 18c2 d8d1 44c2 e3aa 71c2
-109.53194 -32.75866 60.66424 -51.92828 -170.02339 -27.369656 -61.052296 -151.88608
60.645985 -51.66585 -54.265522 2.9985414 37.81977 -59.558296 -41.070923 -210.79208
-87.14575 47.76529 41.317562 -72.99773 -119.112915 -36.657444 -310.75916 -75.99819
-30.781822 -56.907146 -67.81804 6.5957084 -56.02661 -38.030308 -49.204926 -60.41688

running_var f4 [32]
00000000: bdcd 6346 f35c 9042 77fd 9942 ea25 6343
00000010: 67ae 4346 1d0e 0146 9e4a 5d46 b3b3 a846
00000020: 2dcc e245 284d 4743 25c0 8a43 b9d7 9546
00000030: 7f54 5046 f5c4 7842 248c 2a42 f856 9e46
00000040: 623e 0946 66b5 1e42 10b7 8542 c3e9 da43
00000050: 21f0 fd45 da29 0a44 7fd5 ae46 4a6d 3d43
00000060: a561 3146 e9ac ba45 d97e 2946 a6ef 0442
00000070: bac4 1e46 8fbc 3542 39c2 9843 ba06 0943
14579.435 72.18154 76.99505 227.1481 12523.601 8259.528 14162.654 21593.85
7257.522 199.30139 277.50113 19179.861 13333.124 62.19234 42.636856 20267.484
8783.596 39.677147 66.857544 437.82626 8126.016 552.65393 22378.748 189.42691
11352.411 5973.614 10847.712 33.23403 10161.182 45.43414 305.51736 137.02628

weight f4 [9, 9792]
00000000: 6df8 593f 9875 31bf a10e 1140 7839 b43f
00000010: ba84 07bf c66e 28c0 abfa 953f 37be 92c0
00000020: a186 94bf 9a99 43c0 c9bd 7f40 e167 98be
00000030: d255 14c0 c701 ccbe 4b05 42c0 212c b2bf
00000040: fbd2 0d40 d7d0 9d3f a085 893f c7bd 18bf
00000050: 91e4 8c3f 195b 86bf 591d ce3f a1ab e1be
00000060: a5eb c1bf 1f35 b83e 335f a6bc 57db 263e
00000070: e28f 96bf d7ff 4d3f 3224 96bf 91d7 023f
00000080: 1d0e 123e e450 f9bf c8ff 0040 1c82 8540
00000090: c3c3 58be 361f 0abe 3ab3 cfbe 2943 95be
000000a0: 304b c73c 4569 30bf f9e2 63bf 8cdf 6bbf
000000b0: a2b3 54c0 5a2a 8fc0 fb0e 5dbf b0ed 2dbe
000000c0: 5bdb ccc0 d5a8 15c0 4b55 893f 6c96 3e3f
000000d0: 281f 0340 f07c c1bf df34 54c0 e48b 16c0
000000e0: f283 c0bf ed57 38c0 cd9f b13e 6363 25bf
000000f0: 1015 fe3f e530 43c0 e3fa c93f 9dcf 1440
00000100: 31f7 333f 5c7d ecbf a083 673f 4ff8 4cbf
00000110: d1dc fa3f 1bfb 97bf cb8b 8d40 94f3 db3f
00000120: fd67 e7bf 9824 21c0 fbb0 6f40 275a 103f
00000130: 119f 57c0 3258 31c0 3fdd 4f3f 90cc 7c3f
00000140: a8cb 53bf 06ca 913d 4bc3 2e3f 1e41 0d3f
00000150: 07f4 3a3f 6d72 63bf 26e6 9e3f 6e4d 103f
00000160: 5dd5 0f3e 706f c6be 5156 babe aac1 40be
00000170: 5bba 11c0 d923 8f3f 80e0 093f afb3 8fbd
00000180: 1d88 f33e d96b f4bf 153e 4d3f e486 c1be
00000190: 9c42 503f e1bc 46c0 b5fd 4dbf 8019 223f
000001a0: 68b0 0540 00af a4be f483 6540 5eaf 4140
000001b0: a1f1 e63f 9afc 423f 3ab6 f53f a583 953f
000001c0: f186 8c3e 01cb d5be 3869 193f 1d84 06c0
000001d0: 1f57 6940 c6b0 b03f 789d f53f 5862 85bf
000001e0: 2dfe 5e3f 9b05 cbbf 5336 4a40 758d 05c0
000001f0: 47fe 0b3f a414 5840 e98e fabf bedd 8dbd
00000200: dd93 883f 4604 6fbf 2721 1b3d f400 493e
00000210: fe1d 873f ebe7 9fbf 04d9 85c0 c42f 8140
00000220: c73f 4d3f 4c60 b53e f860 f9bf b168 f3bf
00000230: d160 543f bf4a 5640 6e24 c83f 072a 5040
00000240: 044e 52c0 c04a e0bf 5978 0a3f d6d5 f9bf
00000250: eeb1 ca3f 72ec 24c0 94d1 2bbf d0bd ecbf
00000260: 4c74 aabf d6ae b13f dd4d 693f 89d5 6bc0
00000270: f937 60c0 b4d9 9240 06df cc3d 16fc cd40
00000280: e07a 96c0 8468 46be 9944 c73e 4560 ae3f
00000290: e1c0 a9bf 5221 4340 9710 edbf 77d8 62be
000002a0: 4f6f 86bf 4508 4040 8d0b 32be c222 22c0
000002b0: 28b2 c1bf be46 23c0 6e72 d8be 20d3 3f40
000002c0: 6a20 c3ba f073 a33f d785 b33f 89f8 35c0
000002d0: 5b2c 1340 1235 7fbf 3a71 0dbf 6848 0f3d
000002e0: d452 1dbf 8021 00be 0c58 ad3f 6199 c73f
000002f0: 246f 36c0 20c5 ed3f 76be 7bbd b5c9 233e
00000300: 8b3b 42bf 701f cb3f d573 52c0 2d05 7540
00000310: 1524 58c0 b924 0dc0 c7f8 c23f f9ad 6140
00000320: 5d66 8740 8c86 873f 8074 c8be 3745 d53f
00000330: 7e76 efc0 b8b2 5e3f 9252 3bc0 90ca 073e
00000340: a5e7 a5c0 2d9b 23bf 27d5 2f3f 7b10 8cbf
00000350: c5ab 8440 cead 9b3f e306 87bf b412 c0bf
00000360: 5961 96bf fec2 7f3e 5102 8bbe 743f d4bf
00000370: 832b 41bf 2725 0a3f 271d 1d3f 2816 5f40
00000380: d4c2 fa3f 65c2 1abf f13b 1040 d00d dabf
00000390: a900 8a40 56a0 88bf 9654 9b3f cee8 593f
000003a0: 3a1f 59c0 534b 383f 548d 913f 6e69 5fbe
000003b0: 25cd 68bf d678 37bf 94dd 58bf 51e9 943f
000003c0: 6256 bc3f 1c34 0bbf 10ab f93f 8ce4 b83f
000003d0: d86a 65c0 db71 043d b160 6940 0344 cb40
000003e0: 8bb6 e43f 1c98 1c40 6fd8 2a40 ef7d 0a3f
000003f0: ec43 c43e a190 0a40 d99e 6dbf 0ab9 9c3d
0.8514469 -0.6932006 2.2665179 1.4080038 -0.529369 -2.631761 1.1717123 -4.5857196
-1.1603585 -3.05625 3.9959586 -0.29766753 -2.317738 -0.39845106 -3.031573 -1.3919717
2.2160022 1.2329358 1.0743904 -0.5966458 1.1007253 -1.0496551 1.6102706 -0.44076255
-1.5150038 0.35978028 -0.020309066 0.16294609 -1.176266 0.80468506 -1.1729796 0.5111018
0.14263196 -1.9477811 2.0156116 4.1721325 -0.21168427 -0.13488469 -0.40566427 -0.29152802
0.024327844 -0.6891063 -0.8901821 -0.9213798 -3.323464 -4.47392 -0.86350983 -0.16985202
-6.401777 -2.3384297 1.0729154 0.74448276 2.0487766 -1.5116253 -3.315727 -2.3522882
-1.5040267 -2.8803666 0.3469223 -0.6460478 1.9850178 -3.0498593 1.577969 2.3251717
0.7029906 -1.8475757 0.9043522 -0.8006639 1.9598638 -1.1873506 4.4233146 1.7183709
-1.807861 -2.5178585 3.745177 0.5638756 -3.3690836 -2.771008 0.8119697 0.9874964
-0.8273263 0.07118611 0.68266743 0.55177486 0.73028606 -0.88846475 1.2413986 0.5636815
0.14046235 -0.38756895 -0.3639398 -0.18823877 -2.2769992 1.1182815 0.53858185 -0.07016694
0.47564784 -1.9095412 0.80172855 -0.37798226 0.8135164 -3.1052783 -0.8046525 0.6332016
2.088892 -0.32164764 3.5861788 3.0263286 1.8042489 0.7616669 1.9196236 1.16808
0.27446702 -0.41756442 0.59926176 -2.1018136 3.6459424 1.3803947 1.9188681 -1.0420637
0.8710659 -1.5861086 3.1595657 -2.0867589 0.5468487 3.3762598 -1.9574863 -0.069270596
1.0670124 -0.93365896 0.037873413 0.1962927 1.0556028 -1.2492651 -4.182741 4.037081
0.8017544 0.3542503 -1.9482718 -1.9016324 0.8296023 3.3483121 1.5636117 3.2525651
-3.2860117 -1.7522812 0.54089886 -1.9518383 1.583555 -2.5769315 -0.67116666 -1.8495426
-1.3316741 1.3881481 0.91134435 -3.6849082 -3.5034163 4.589075 0.10003476 6.437022
-4.7024994 -0.19375807 0.38919523 1.3623129 -1.3261987 3.0489087 -1.8520688 -0.22152887
-1.0502719 3.0005047 -0.17387219 -2.5333714 -1.5132494 -2.5511928 -0.42274803 2.997261
-0.001488698 1.2769756 1.402522 -2.8432944 2.2995822 -0.99690354 -0.55250895 0.03498116
-0.6145451 -0.12512779 1.3542495 1.5593683 -2.8505335 1.8575783 -0.061460935 0.15994914
-0.75872105 1.5868969 -3.2883198 3.828441 -3.3772023 -2.2053664 1.5232171 3.5262434
4.2312455 1.0587935 -0.39151382 1.6661748 -7.4832144 0.86991453 -2.9269147 0.13260865
-5.184527 -0.63908654 0.6868462 -1.094253 4.145968 1.2162416 -1.0548977 -1.5005708
-1.1748458 0.24976727 -0.27150205 -1.6581864 -0.7545702 0.5396294 0.6137261 3.4857273
1.9590707 -0.6045287 2.2536585 -1.7035465 4.3125806 -1.0673931 1.2135189 0.85120857
-3.392531 0.71989936 1.1371255 -0.21817562 -0.90938026 -0.71668756 -0.847131 1.1633703
1.4713862 -0.5437639 1.9505329 1.4444747 -3.5846462 0.032335144 3.6465266 6.352052
1.7868208 2.446784 2.66946 0.5409841 0.3833307 2.1650774 -0.9282051 0.07652481

bias f4 [9]
00000000: 3d5f 6541 5215 3641 0c2d 4841 1ad6 2941
00000010: 4025 5041 f1cf 6041 8d91 9841 e897 1541
00000020: c605 4e41
14.335752 11.380205 12.510998 10.614771 13.009094 14.050767 19.07107 9.3495865
12.87641
