dev/fetch/fetchpush_250.pth (torch_old, 230542 bytes, 20 tensors)

weight f4 [16, 3, 5, 5]
00000000: 575d 0c3e b4e2 0f3e 3155 12be f9d1 c63d
00000010: a3e2 efbc ea43 763e 55e2 5c3e 825e 0abe
00000020: 65b7 84bd 1680 093e 9009 78bd 57b5 023d
00000030: 4abc adbd 1f63 1cbc fc88 f83d 55f3 00be
00000040: ce36 df3d ba2b e6bd f57b b0bb 98d0 14bc
00000050: b220 16bd 398a 203e af72 023e 91cf b83d
00000060: 442a 9d3d 99b3 c03d a5d8 0b3e da1d 1ebe
00000070: 5c65 9dbd 0e83 0d3e 778b 133e 0ec6 fd3d
00000080: a676 163b 8c35 1f3c a8dc aa3e ac99 06bd
00000090: 00f3 063e fb67 89bc a609 2dbc 3d26 c73e
000000a0: cba9 96bd 1956 783e 48e8 cbbd 8a5b 103e
000000b0: 384b fe3e a7f6 64bd 1981 98bc 6048 3ebc
000000c0: 6fe1 87bd 0666 603e 4905 5e3c 9502 353d
000000d0: 8713 abbe c75d 42be b5cd dd3d c556 4d3d
000000e0: dbdd 1f3e 73a9 bcbd 381a 3fbe 7e1d b03b
000000f0: 1513 85be 5d1c 81bd f762 75be e8e6 163d
00000100: 89f1 953d c58f 90be 96cf 85bd 8eda 8fbd
00000110: e71b 183d 11c9 a23d 36e9 55be 5bf5 983d
00000120: 200c bfbd 6e7e e4bb dd0c 443e 9a85 083e
00000130: f731 1d3d c0a2 c4bc 5614 5fbd 4e68 f7bc
00000140: bbe1 c5bd e62f 34bc 7246 01be 3ab7 82be
00000150: 85af ddbe 8250 b8bc bf31 e03c ae57 9abb
00000160: 9074 8bbe 6f38 cbbe 39e4 553e 0abc febc
00000170: 02ab 4e3d 2be3 c2bd 8af1 8fbe d740 0bbd
00000180: 745b 943d 0285 45bd 0436 02be 2845 87bd
00000190: aa8c 693d 3002 293c cebb dd3d 7f68 613d
000001a0: cd90 543d f11e eabd efa6 1a3d 3674 cdbd
000001b0: 4d0f 15be c5be 5bbd 472d e2bc 72c7 f4bb
000001c0: dae7 c03d 54e9 35be d191 51be d849 92bd
000001d0: 1a31 c73d cf30 b23d 206f 1cbe d22c 6bbe
000001e0: 24aa 51bd 8c6d d1bc 03d9 373e e8de debc
000001f0: 09dc 9abd a2b4 103d f48a 243d 1d65 f03d
00000200: 7075 99bc 9ee1 00be 63d4 9d3d 80ab 37bc
00000210: aa60 c73d 49de 67bd 912a 19be 7bec e0bd
00000220: 1206 91bd a6b7 60bd e9de e2bd 933e 9abe
00000230: e9f9 523e 30f5 363e c698 aa3d 60d7 53be
00000240: 90d2 3cbc 22e4 dbbc 1260 433e d5e4 583e
00000250: f739 693b 34cb ae3d 2dd2 dbbc fbe1 1c3d
00000260: 0cf1 a03d ca66 f93d ab3d 043d 6694 95be
00000270: bbeb db3b 39fe 43be 54ac ffba e616 41be
00000280: e359 cbbd 0b9a 76bd 0706 4abe 4c33 19be
00000290: 3beb 23be db57 50be 9492 d93d 819d 913d
000002a0: af15 35bd 496c 13be 94b0 a33c 92eb 3a3e
000002b0: a4bc 9abd 2d71 fc3d 479d 87bd 8dcf 9bbd
000002c0: d34c 263e 3275 e73d 5b98 743d b3d8 103e
000002d0: f995 09be 005e 3a3e c7a7 e1bc bb18 f13d
000002e0: 09cc d6bd 4636 75be 7875 703d 7f6f 11bc
000002f0: dfe4 cfbd 4bee d3bd b5f7 5cbd 015c 833d
00000300: 9876 6cbd a0e6 b5bd b98f 14bd ac2a b5bd
00000310: a1a5 0bbc 1d5a 6c3e 9f3c bd3d 4011 fa3d
00000320: 3ae3 99bd 1b31 2e3d ee26 9cbd ed40 2e3d
00000330: bee3 703e 076c 50bd 0053 60bd b9e8 f13c
00000340: 698b b13d f341 543d f4ee 84be b5a4 b9bd
00000350: 3689 d1bd 0800 973c 67d5 033e 5364 7abd
00000360: 2f63 613d 425d 603e d88f 663e 8bd3 533e
00000370: 8250 2a3e 0d2e 813e 2031 633e 7d26 873e
00000380: 728b 383e 7439 8cbd 1ed5 0bbd f5db 5ebe
00000390: 454f bdbd 38e5 27be e709 633e 1fbf 853d
000003a0: 8f9a 0c3e 2fe8 bfba 2283 44bd 2304 4ebe
000003b0: 8c64 44bd 4e0d efbd 0543 46bc a257 06be
000003c0: fd29 fcbc 5ada 463d d21f 90b9 225d 483e
000003d0: 8ba1 17be b73b 643c 6875 3e3d 9c9d babb
000003e0: eee8 543d b672 87be 5757 9a3b 517d 903c
000003f0: 3706 4cbe 739c 9d3d 25fa 763e c03d 563e
0.13707481 0.14051324 -0.1429031 0.09708018 -0.029282873 0.24049345 0.21570714 -0.13512614
-0.06480292 0.13427767 -0.060555995 0.03191122 -0.08483179 -0.009545117 0.12135503 -0.12592824
0.10899125 -0.11238809 -0.0053858706 -0.009082936 -0.036652274 0.15677728 0.12739061 0.09023965
0.07674077 0.094092555 0.13656862 -0.15441075 -0.076853484 0.13819525 0.1440867 0.123912916
0.0022958904 0.009717356 0.33371472 -0.032861397 0.13178635 -0.016773215 -0.010561382 0.3889636
-0.07356604 0.24251594 -0.099564135 0.1409742 0.49666762 -0.05589929 -0.018616246 -0.011613935
-0.06634795 0.21913919 0.013551065 0.044191916 -0.33413336 -0.18981086 0.10830251 0.050131578
0.15611975 -0.092120074 -0.18662345 0.0053746095 -0.2599112 -0.06304238 -0.23963533 0.036841303
0.0732146 -0.28234687 -0.065337345 -0.07024108 0.037135985 0.079485066 -0.20889744 0.07468673
-0.093284845 -0.0069730794 0.19145532 0.13332215 0.03837773 -0.024003386 -0.054462753 -0.030201104
-0.09662195 -0.010997748 -0.12624529 -0.25530416 -0.43297973 -0.022499327 0.02736747 -0.0047101593
-0.27237368 -0.39691493 0.20887841 -0.031095523 0.050456055 -0.09515985 -0.28113967 -0.033997383
0.07244006 -0.04822255 -0.12715918 -0.066049874 0.057018913 0.010315463 0.108268365 0.055031296
0.051895905 -0.11431683 0.037756857 -0.10031931 -0.14556618 -0.05364873 -0.02760948 -0.007470065
0.09419222 -0.17764789 -0.20465781 -0.07142991 0.09726162 0.08700716 -0.15276766 -0.22966316
-0.05118765 -0.025564931 0.17953877 -0.0272059 -0.075614996 0.035328515 0.04017158 0.11738036
-0.018732756 -0.12586066 0.07706525 -0.011210322 0.09735234 -0.056608472 -0.14957644 -0.10982605
-0.07081236 -0.05486264 -0.11077673 -0.30125865 0.20603146 0.17866969 0.083299205 -0.20687628
-0.011524811 -0.02684218 0.19079617 0.21181042 0.0035587528 0.08534852 -0.026833618 0.03830145
0.07858476 0.121778086 0.032285374 -0.29214782 0.006711451 -0.19139947 -0.0019506314 -0.18856391
-0.09929254 -0.0602055 -0.19728862 -0.14960974 -0.16007702 -0.20346014 0.10623661 0.071101196
-0.044210132 -0.14396776 0.01998166 0.18253925 -0.075555116 0.12326274 -0.06621795 -0.076079465
0.16240244 0.1130165 0.05971561 0.14145164 -0.13436116 0.1819992 -0.027545823 0.11772295
-0.10488135 -0.23946485 0.058705777 -0.00887668 -0.101510756 -0.10348185 -0.05394717 0.06414033
-0.057730287 -0.08881879 -0.036269877 -0.0884603 -0.008523376 0.2308125 0.09240078 0.122103214
-0.07514043 0.0425273 -0.07624613 0.042542387 0.23524377 -0.050884273 -0.054766655 0.029529916
0.086691685 0.051820707 -0.25963557 -0.090646185 -0.10231249 0.018432632 0.12874375 -0.061130833
0.05502623 0.21910575 0.2251581 0.20686166 0.16632274 0.25230446 0.22186708 0.26396552
0.18021944 -0.06846896 -0.03413879 -0.21763594 -0.09243635 -0.16396034 0.22171746 0.06530594
0.13730834 -0.001464134 -0.04797662 -0.20118766 -0.04794745 -0.116724595 -0.01210094 -0.13119367
-0.03078174 0.04854808 -0.00027489528 0.19566777 -0.14807718 0.013930253 0.046498686 -0.005695058
0.05197995 -0.26454705 0.0047101188 0.01763788 -0.19924246 0.07695856 0.2411886 0.20921993

bias f4 [16]
00000000: a121 3b3d bcf1 243d d5a3 b83c 5d7b e43d
00000010: 7382 f23d f2d4 06be 3a44 3ebd 4cef 623d
00000020: 8755 c03d 5a0b 983c e087 04be 1bfc b4bd
00000030: 1538 9f3d 8f2a 50bd 616d 1d3d 1944 583d
0.045686368 0.0402696 0.022539059 0.11156342 0.118412875 -0.1316717 -0.046451785 0.055403993
0.09391313 0.0185601 -0.12942457 -0.08837148 0.07774369 -0.050821837 0.03843439 0.052799318

weight f4 [16]
00000000: ae7a 803f 57a5 173f 1680 3b3e 4daa 8a3e
00000010: b6ee fb3e 791f 613f b726 fa3e 26e4 453f
00000020: 95c8 5a3d f04b 243e 713e c33d 0aa8 4b3f
00000030: 3158 3f3f 7520 b23e 73cb a13e a4ec 8b3e
1.0037439 0.59236664 0.1831058 0.27083054 0.4920556 0.8793865 0.48857662 0.7730125
0.053413946 0.16044593 0.09533394 0.7955328 0.74743944 0.34790388 0.31600532 0.2732898

bias f4 [16]
00000000: ee39 ab3d cf85 75be 1a2d e3bc c2b9 13bd
00000010: b29b 33bd c55d 33bd 05cc e43d 0a0d e03d
00000020: 9e12 45bd 66fd 3f3d bf20 86ba d8df d4bd
00000030: bde9 edbd fe97 c4bd 313e 86bd 510e d63d
0.083606586 -0.23976825 -0.027731467 -0.036065824 -0.043849654 -0.043790597 0.11171726 0.10939987
-0.048113458 0.04687252 -0.0010233148 -0.10394257 -0.11616848 -0.09599303 -0.06554831 0.104519494

running_mean f4 [16]
00000000: 46a5 9b43 96ec cbc3 bcfb 2c43 36af 90c3
00000010: 0496 b343 aacb cf43 eaa0 a9c2 8079 f643
00000020: a1d6 ebc3 a7a5 18c3 043f 5cc4 f384 5944
00000030: 6765 34c2 e254 f0c3 ef53 d5c2 9c06 6743
311.2912 -407.84833 172.98334 -289.36884 359.172 415.59113 -84.814285 492.94922
-471.6768 -152.64708 -880.9846 870.07733 -45.099026 -480.66315 -106.66393 231.02582

running_var f4 [16]
00000000: f827 0546 bb29 9846 8486 9545 4faa 2946
00000010: 378c 6546 1c9d cb45 48e7 3446 3d64 5d46
00000020: 9a14 c346 f89a 2446 6175 e246 3ae1 bf46
00000030: 52e1 7a45 954a 8d46 c9bd bf45 6d64 de45
8521.992 19476.865 4784.8145 10858.577 14691.054 6515.6387 11577.82 14169.06
24970.3 10534.742 28986.69 24560.613 4014.0825 18085.291 6135.723 7116.553

weight f4 [32, 16, 5, 5]
00000000: f839 36be cca2 b6be aca9 35be 40a0 77be
00000010: 444c 55bd 2693 97be 89ce 73be b4b0 54bd
00000020: 6059 833c 07aa 903d a903 47be ca61 76be
00000030: 2ace 50be 3c7c a6bd 9fa8 273b 6b59 a9be
00000040: f321 88be 6f09 56be 3aed 523c 1d3e 623c
00000050: aab3 79be 3348 91be 99df acbe 34b5 13be
00000060: 5639 3fbd 5438 1b3d 4489 ca3d cefd d83b
00000070: b50a e1bd 8bd6 a8bd 9175 193d d7d5 3d3d
00000080: 16fd 553a 866d 173c f784 99bd 268f ae3c
00000090: 32f8 143e 3b95 39bd d1b0 9bbd b5f5 a2bd
000000a0: ee35 883d 7d31 ef3d d4c7 c7bc aac9 ecbc
000000b0: ee71 923d 2a92 033e b064 dc3d 5dd7 3dbd
000000c0: 8672 c2bd eb87 c8bd d12e 223d 8e95 0cbc
000000d0: 9ae3 fd3c fe6e 6f3c 51f9 afbb 888f 34be
000000e0: 9889 babc eefa 12bd 1d10 babd 3191 d53c
000000f0: cd60 fbbc 46a4 d63d 58f8 643d 3a49 d13d
00000100: 253a 3bbd 764e 0abc 60e2 b1bd 9c36 9e3c
00000110: 82ee 8bbd 14bf f83d 1fad da3d 75ff 163e
00000120: 3727 3b3d 16c0 133d 016c 06be ac48 173d
00000130: 33f6 42bb 9078 7ebd 3f15 1bbd f519 71bc
00000140: aabf 6c3e ad29 9e3d 2500 373d 5a4f c03c
00000150: 6d7b 813d 67d5 fc3d 1ebf 8ebd 794e 8d3c
00000160: 6cde 91bc e34c 013d 20cd 193c affb 363b
00000170: 1eb8 a5bd e828 34bd 0836 a9bd 4454 4c3d
00000180: 7091 8ebd 68ad 153d dedd c2bd 8b49 223c
00000190: 629c 6cbe cffe 82be 4e7d 49be 9f43 25be
000001a0: d85e d7bd e8ac 1dbe 5eb4 38be e369 8abd
000001b0: 381b 7abd 7f2e e1bb cf84 1dbe 0501 63be
000001c0: 780e eabd 1076 87bc 1091 8d3d cd3f 10be
000001d0: fc76 2fbe d20b 9bbd b3da 8cbd 96bf 973d
000001e0: 347e 33be 48a5 b4bd 1abe edbd c39a b4bd
000001f0: 3c43 8e3d e3eb aa3d ad7e 893d 4697 053d
00000200: 3c90 06bd dc01 84bd bc8d 053e 2894 3f3e
00000210: e05e 553d 5ab1 663d d705 3cbd 67c6 463d
00000220: 8eca bd3d 8b3b e63d 0b3d b7bc 37db cdbd
00000230: 60b8 013e c72f 523d 99cc 163e af2d 10bd
00000240: 84d9 a0bd e3d6 093e 4957 a63d c66d ab3d
00000250: 9737 2abd 1c49 03be 4237 02be 0e3f b3bd
00000260: 98a5 8d3d 2d67 c33d 1aa8 8b3d 1a82 b9be
00000270: 2a09 e1bc fa2b 6dbd fb54 6dbd 4fb4 413d
00000280: 6301 ccbd 081d d9bb 67af 433c 92d4 c73c
00000290: cba1 b7bc 9723 07bd c948 38bd 20b7 493d
000002a0: bfa5 323d b823 2c3d 8c57 06be d627 9b3c
000002b0: 9c68 393d 4e66 e5bd 5353 ebbc 13bc aabd
000002c0: fa00 17be 4df8 28be 858b 2b3d fa10 0c3c
000002d0: 7102 0bbe 3782 c6bd ff8b 92bc 2230 283c
000002e0: bac6 a4bc 364d a4be 4a5a 65be 5d56 71bd
000002f0: 2a8a 093e 3756 c33d e5b5 ecbd d2cb 18be
00000300: 53ad f6bd 96f8 c2bc 3feb 0fbe fdf0 e6be
00000310: 8d21 b7be b08a c0be 5330 31be 2a43 f9bc
00000320: 8b54 753c 8fd5 8a3d 1c4b b33d f2db 9f3b
00000330: 21c3 403a 676a 573d 4282 c93d b5d2 e03d
00000340: 1196 ba3d 3420 5f3c 7023 a03d f24e 873d
00000350: 234f f13d 602d 7bbd 2c08 aebc 47d1 a2ba
00000360: 81d1 093e ea59 6f3d b421 65bd a899 86bd
00000370: 592a f73c d832 f43d 3a90 9d3d 1710 afbd
00000380: e74c 1bbd 1964 803d 78fe dc3d f2e3 d33d
00000390: 0211 e93c d9b1 08bd a2ca 743e 41dd 9e3e
000003a0: 254a be3d 40be 773c 3733 b9bc be22 1c3e
000003b0: d26a 223e 6aff f6bc 39b2 87bd 8ad7 79bc
000003c0: 9559 133e a6eb 293e b7c8 1c3d 535b 74bb
000003d0: 1447 00be 7eed 263e 77f9 a83d 81ae 183d
000003e0: 6070 91bd 3f4f 90bc 7911 783d 7620 973d
000003f0: cc7f ee3d ffcf 8a3c 23fe 183d 5afb 493d
-0.17795551 -0.3567108 -0.17740506 -0.24182224 -0.052074686 -0.29604453 -0.23809256 -0.05192633
0.016033828 0.0706368 -0.1943499 -0.24060741 -0.20391145 -0.081291646 0.0025582684 -0.33076033
-0.265884 -0.20902036 0.012873942 0.013808754 -0.24384943 -0.28375396 -0.3376434 -0.14424592
-0.04668554 0.037895516 0.098894626 0.0066220528 -0.1098837 -0.08244046 0.037465636 0.04634651
0.0008163018 0.009242421 -0.07496064 0.021308493 0.14547804 -0.045308333 -0.076020844 -0.07957021
0.06650911 0.11679361 -0.024387278 -0.028904755 0.071506366 0.12848726 0.10761392 -0.046347965
-0.094945 -0.09791549 0.03959543 -0.0085805785 0.030992318 0.014613865 -0.005370297 -0.17632878
-0.022770688 -0.035883836 -0.090851046 0.02607021 -0.030685807 0.104805514 0.0559009 0.10219045
-0.045709748 -0.008441558 -0.08685756 0.01931315 -0.06832601 0.1214582 0.106775515 0.14745887
0.045691695 0.03607186 -0.13127138 0.03693454 -0.0029748797 -0.062126696 -0.03786206 -0.014715661
0.23119989 0.07722793 0.044677872 0.023475338 0.0632237 0.12345391 -0.069700465 0.017249333
-0.017806254 0.031567466 0.0093872845 0.0027921011 -0.08091758 -0.043984324 -0.08262259 0.04988505
-0.06961334 0.036542326 -0.09514974 0.009905229 -0.2310653 -0.2558503 -0.19676706 -0.16139077
-0.10516137 -0.1539799 -0.18037555 -0.067584775 -0.061061114 -0.006871998 -0.15382694 -0.22168358
-0.11428541 -0.016535789 0.06912434 -0.14086838 -0.17135233 -0.07570614 -0.06877651 0.07409589
-0.17528611 -0.088205874 -0.116085246 -0.08818581 0.06946418 0.08345773 0.067136146 0.03261497
-0.032852396 -0.06445667 0.13042349 0.18708861 0.052092433 0.05632148 -0.045904007 0.048529055
0.0926715 0.11241826 -0.022367975 -0.100515775 0.1266799 0.051315095 0.14726485 -0.035199817
-0.07853988 0.13460879 0.08122117 0.08370547 -0.04155692 -0.12820858 -0.12716392 -0.08752261
0.0691635 0.095411636 0.06819172 -0.36232072 -0.02747019 -0.057903267 -0.05794237 0.047291096
-0.09961202 -0.0066257752 0.011943675 0.024393354 -0.022416016 -0.032992925 -0.04499129 0.049246907
0.0436151 0.04202625 -0.13119334 0.018939894 0.04526578 -0.11201154 -0.028726256 -0.083366536
-0.14746466 -0.16500969 0.041881103 0.008548969 -0.1357515 -0.09692805 -0.017889021 0.010265382
-0.020114291 -0.32090157 -0.22397724 -0.058920253 0.13431612 0.095379286 -0.11558131 -0.14921501
-0.12044778 -0.023800176 -0.14054583 -0.45105734 -0.35767785 -0.3760581 -0.1730359 -0.030427534
0.01497377 0.06779014 0.0875456 0.0048785144 0.0007353295 0.052591708 0.09839298 0.10977689
0.09110654 0.013618518 0.07819259 0.066068545 0.11782672 -0.06132257 -0.021244131 -0.0012421989
0.13458826 0.058435358 -0.055940345 -0.06572276 0.03017156 0.1192376 0.07693525 -0.08547991
-0.037915137 0.06269092 0.107907236 0.103462115 0.028450493 -0.033372734 0.23905423 0.31028178
0.09291486 0.015121043 -0.022607429 0.15247628 0.15861061 -0.030151088 -0.0662579 -0.015249142
0.14389642 0.16593799 0.038277354 -0.0037285879 -0.12527114 0.16301534 0.08250707 0.037275795
-0.07101512 -0.017615912 0.06056354 0.07379238 0.11645469 0.016944883 0.03735174 0.049311973

bias f4 [32]
00000000: cb4b 1a3d a06b 9cbe 4bbd 05be fa40 6a3e
00000010: 0faf 07be 753e 723e 716c 2e3d 2f71 bf3d
00000020: 30eb ad3d 472c 1fbe 8114 e73d bd47 dd3d
00000030: c8d1 a63d cf4d 9cbc d1c2 6a3d 5702 193d
00000040: 9b41 6ebd 3512 38bd 6032 72bd 7808 743d
00000050: 851e f8bd 14a4 133e 0403 463d 7430 17be
00000060: d4e1 f2bc ff56 543b c181 453d 35b1 82bd
00000070: 2e38 bbbd 7e50 d4bd 5ae9 b73d 48e5 99bd
0.037669938 -0.3055086 -0.13060491 0.22876349 -0.13250373 0.23656638 0.042583887 0.0934776
0.08492124 -0.15544234 0.11283208 0.108046986 0.08145481 -0.01908007 0.057314698 0.037355747
-0.058168035 -0.04493924 -0.059130073 0.05957839 -0.12115196 0.1441806 0.04834272 -0.14764577
-0.029648699 0.0032400487 0.048219446 -0.06381456 -0.09141575 -0.10366915 0.08980055 -0.07514435

weight f4 [32]
00000000: 23de 0a3f 1d81 973e d5ae 403f daf4 a13e
00000010: 0680 393f 546b 623f a78b 013b c200 433f
00000020: 24a9 563f c214 413f b86b 6a3f 93c4 ce3e
00000030: 8569 743f 9550 473f 1dd8 e73e e44c 283f
00000040: 7b5a 5c3e a641 293f d272 643f 2241 fa3e
00000050: 696c 8d3e 24ef 7f3f c622 903d c8e2 493e
00000060: 7669 583e 3df1 ba3e 1989 203f 7455 2c3f
00000070: ce16 113f 719e 0d3e 13cc de3e f8a7 343f
0.54245204 0.29590693 0.7526677 0.3163212 0.72460973 0.8844502 0.0019767077 0.7617303
0.8385184 0.754223 0.91570616 0.4038435 0.9547351 0.77857333 0.4528207 0.65742326
0.2151889 0.66115797 0.892377 0.48877817 0.27621773 0.99974275 0.070378825 0.19715416
0.2113398 0.36512175 0.62709194 0.6731789 0.5667542 0.13829972 0.4351507 0.705688

bias f4 [32]
00000000: 0d98 433d 2973 19bd 57f5 58be 7604 81bd
00000010: 1c12 dabd b164 99be 4094 903c fd9b 14bd
00000020: 7e5e 69be 6d54 79be fb8d 033d 2fce 15be
00000030: b3bd bebd 8a52 15be d9a4 24be 1ee3 0ebe
00000040: 8b13 98bb 9875 fabd bea8 18be f23d 843d
00000050: 04e9 8fbd 72a8 2c3d ef86 063d a318 a6bb
00000060: 06db 903e e222 23be e3da 3ebe 67d5 133e
00000070: 3468 15be 308a 7dbc 6b37 1e3e f28c d93d
0.04775243 -0.03746334 -0.2118734 -0.06299679 -0.10647985 -0.29959634 0.017648816 -0.036281575
-0.22789952 -0.24348612 0.032117825 -0.14629434 -0.09313526 -0.14582267 -0.1607851 -0.13953826
-0.0046410016 -0.122294605 -0.1490812 0.06457128 -0.07026866 0.04215283 0.032843526 -0.005068855
0.28292102 -0.15931275 -0.18638186 0.14436875 -0.14590532 -0.015474841 0.15450828 0.10622586

running_mean f4 [32]
00000000: bdda 7cc0 962e dcbf e315 d33e f54a 78c0
00000010: d06a a43f 590a 9c3e 9903 72c0 76ef bfbe
00000020: 43bc fa3d 2907 85be 2f4a 58bf f2c0 3fbf
00000030: f122 85bf 5644 b73e 8f86 f43e f695 62bf
00000040: 2c76 66c0 7f49 9abc 616a 01be 8fd5 40c0
00000050: 1331 14bf 18ec 18bf 274b 68c0 4221 51bf
00000060: 8df3 0ac0 af6a 943e bdac c43f 648a 84bf
00000070: 295d b7be 09d6 4fc0 c1bd d5bf 9311 d4bf
-3.9508507 -1.7201717 0.41227636 -3.879575 1.2845097 0.30476645 -3.7814696 -0.37487382
0.12242939 -0.25982025 -0.84488195 -0.74903786 -1.0401288 0.35794324 0.4775891 -0.8851007
-3.6009626 -0.018833874 -0.12638237 -3.0130346 -0.5788738 -0.5973525 -3.629587 -0.8169137
-2.1711152 0.28987643 1.5365216 -1.0354733 -0.35813263 -3.2474387 -1.6698533 -1.6567863

running_var f4 [32]
00000000: ba79 0c41 2b70 3440 551e 953f 671d ec40
00000010: 417b 1f40 6a8d 813f 04c0 d640 e2e2 533f
00000020: fca7 9940 ce89 c93f 7b59 8940 3d0c 8c3f
00000030: edaf f43f dadf e13f 41ad 0f40 9a61 1f40
00000040: f21b 0141 c7a5 cd3f f72e c73f e338 1c41
00000050: b3ea 1740 df0f 8d3f 2d7a 0941 91e5 c23f
00000060: 42e9 e140 fd2e e63f 4b0c ba3f 0037 2040
00000070: 1426 1440 4036 8340 4eb0 e53f 11dd 6740
8.779718 2.8193462 1.1649882 7.378589 2.4918978 1.0121281 6.7109394 0.8276807
4.801756 1.574518 4.292173 1.0941235 1.9116188 1.7646439 2.2449496 2.4903321
8.069323 1.6066216 1.5561208 9.763888 2.3737 1.1020468 8.592328 1.5226308
7.059724 1.798309 1.4535002 2.503357 2.314824 4.1003723 1.7944429 3.6228678

weight f4 [32, 32, 5, 5]
00000000: 057a 093c d8db 43bc 4ffc 8e3d 6f30 b6bc
00000010: 1bf5 87bc 3513 173c d070 dcbc 6388 8439
00000020: 186d 8fbd a64c d2bd 779f 48bb c6f7 54bd
00000030: d97a a5bc 82a4 3ebd fb7b 9e3c dbda d8bd
00000040: 051d c1bd 3bc7 9cbd b8be cfbd 6388 173e
00000050: ab9d f7bd 8ced b9bd 2dfb 1ebe 18dc c3bd
00000060: a126 ef3d 4871 2abd f5e1 63bd b0a7 953d
00000070: a750 c73b a479 633c 28ae 6bbd 276c bc3b
00000080: 036c 0f3d 4071 b5bd ff4d e6bd d7dd c4bd
00000090: 9ca7 e5bd c014 43bd 2712 aebd 2551 73bc
000000a0: 5701 2ebe b952 28be e6f4 ebbd 72f5 1ebc
000000b0: bf4b 413e 003c 5bbe 93fb 2ebe 96f6 14be
000000c0: 0d01 d3bd 033c 92bd 08a0 8f3e 7f1d 073e
000000d0: a458 483e c9c1 1cbe 5b7b 5d3c 7142 fdbd
000000e0: 7210 10be 3de8 f8bc f1f4 4fbe e011 4dbd
000000f0: e096 81bd 26b0 883c 640e d93d 9c91 243d
00000100: e88e 803e 3790 ccbd a1a8 67be b6c4 833e
00000110: 6d99 ad3d 2fac 94bd c542 dbbd eb5a 92bd
00000120: 9ceb 8c3c cd5f 33bd 410c 4bbe 6e20 b03c
00000130: 72d2 b73c 38b6 963d 2d77 a83c 866b 2d3d
00000140: ef62 af3d 1918 ebbd cc19 8abd c68a 95bd
00000150: 958c 0cbc 8833 51bd 0ac0 98bd c4cd 44bd
00000160: 7732 26be 4d58 a5bc ad39 7dbd 7248 a7bd
00000170: 35fa e2bd fa7f b2bd 7a10 e53d 1270 d3bd
00000180: c4cf 2abe 4469 b3bd 1dc6 83ba f2af b63d
00000190: 0d73 c5bd 7915 973d e260 a43b 2953 443d
000001a0: dab6 04be af53 06bd 5caa a3bd 8579 503c
000001b0: e5b7 273e 5f18 f63c 22e9 35bb d86f 9c3d
000001c0: 7ea1 30bd f657 103e 51ae b8bd 8220 e13d
000001d0: 06bc 463e ee2c 053d 30e5 153d d0f7 4bbe
000001e0: 383e 29be 74d9 f53c b5fc 953d 917d 483e
000001f0: 06bf 0cbe 0cfd 173e 728e 223d 2586 103d
00000200: 02fb 093c d748 7b38 8c88 023d c0c5 e23d
00000210: fa77 b1bb 5bd3 213d 13bd e43b d33d 39bc
00000220: 7c2f 1fbc bd4e c7bc d6c7 09bd dd66 1fbe
00000230: 94f2 d139 5122 00be 0564 22be 43fc 46be
00000240: 01a6 acbe a6d7 b1be 192c ebbd 0dd0 68be
00000250: f3b0 cdbd 0bfb b5be 7791 bd3b 3990 6ebd
00000260: 2916 f03c d07a 16bd 3105 52bd 4563 0fbd
00000270: 9d90 64bd d2a1 ecbc 28ed 78bd bc54 c6bd
00000280: a95d 8ebd 6837 9fbd b5b9 a4bd 7edc 74bd
00000290: 7bd6 2e3c 78a8 e8bc df1e 09bd 29b4 ddbd
000002a0: 5f2e 533d b80c a03d c557 cebd 38f3 e1bd
000002b0: 33d6 efbd 84bc 64bd 9368 c93d 49be 17bd
000002c0: 32d2 b13d e184 c6bd 53a3 2ebd c6a5 5cbe
000002d0: d4ef acbc 7ee9 e73d f2b6 b3bd 492b 573d
000002e0: 84af 2a3e 7af5 5bbe 7af5 2ebd 3450 9b3d
000002f0: 6ba8 423e 3cd7 bc3d 0be8 6e3c 898e 883d
00000300: 9665 203e 2b73 4bbc a961 b9bd e24f 8bbd
00000310: 4e93 1f3d 9444 2abb 2648 a53d 8d7b debd
00000320: 1c9a cc3b eba4 2abd 1f88 00be 536c c23d
00000330: 86c3 fcbc f7c3 933b fad4 843d 8886 dc3d
00000340: f429 5f3e bc71 c83d 9351 da3d 58ba 143d
00000350: 0050 41bd 503b 2bbd ba2f e5bd 8b0f 52bd
00000360: 49ce 30bd 92f4 37be 8954 a1bd 9f3f 82be
00000370: 6b58 cdbd 6273 82bd f6c1 ac3c c504 b23d
00000380: 744a aebd 1359 08be 053d efbd e080 77bd
00000390: 91ed df3d 6c3d ae3d d227 b4bd ceae 753d
000003a0: 5fa7 2bbe 0d59 453c 9636 76be 2469 5fbd
000003b0: 37cc 98bd 617b 23be 1e84 d6bc 4bb4 fb3d
000003c0: 2724 21be 4f6c e43c 97ce 76be 2753 113c
000003d0: 064a 04be fbbd f7bd ed89 0f3d 5664 c6bd
000003e0: b9b2 403e ff83 903d 627c 50ba 0be9 42bd
000003f0: a14d 72bd 5d9e 83bd 9f83 d0bd d68f 84bd
0.008390908 -0.01195427 0.06981718 -0.022239892 -0.016596368 0.009220888 -0.026909262 0.00025278618
-0.0700323 -0.10268526 -0.0030612627 -0.051994108 -0.02020018 -0.046543606 0.019346228 -0.10588618
-0.09429363 -0.07655188 -0.101437986 0.14798121 -0.1209062 -0.090785116 -0.15525503 -0.09563464
0.1167729 -0.04161194 -0.05563541 0.073073745 0.0060826126 0.013883982 -0.057539135 0.0057501975
0.035015117 -0.08859491 -0.11245345 -0.09612625 -0.112136096 -0.04762721 -0.08499556 -0.014850889
-0.16992699 -0.16437806 -0.1152132 -0.009702073 0.18876551 -0.21409607 -0.17088155 -0.1454719
-0.10302935 -0.071403526 0.28051782 0.13194846 0.19565064 -0.15308298 0.01351818 -0.12366188
-0.14068773 -0.030384177 -0.20308281 -0.050065875 -0.06327605 0.016685557 0.10598448 0.040177926
0.2510903 -0.09988444 -0.2262292 0.25736016 0.08476529 -0.07259404 -0.10706095 -0.071462475
0.017202191 -0.043792535 -0.19828893 0.021499839 0.022439215 0.07358974 0.02056464 0.04233887
0.08563792 -0.11479206 -0.067432016 -0.073018596 -0.008578439 -0.051074535 -0.074585035 -0.048047796
-0.16230188 -0.020183707 -0.061822582 -0.08168115 -0.110828795 -0.08715816 0.11184783 -0.1032411
-0.16680819 -0.08760312 -0.0010053549 0.08920278 -0.09641085 0.073771425 0.005016432 0.04793087
-0.12960377 -0.03279465 -0.07991478 0.012724285 0.16378744 0.030040918 -0.0027757366 0.0763852
-0.04312276 0.14096054 -0.09017623 0.109925285 0.19407663 0.03251355 0.036595523 -0.19918752
-0.16527641 0.030010916 0.07323591 0.1957915 -0.13744745 0.14842623 0.039686628 0.03528418
0.008421661 5.99109e-05 0.031868502 0.11072874 -0.0054159136 0.039508205 0.006980547 -0.011306244
-0.009715911 -0.024329538 -0.033637844 -0.15566583 0.0004004432 -0.1251309 -0.15858467 -0.19432168
-0.337204 -0.3473484 -0.1148302 -0.22735615 -0.10043516 -0.35543093 0.005785163 -0.05824301
0.029307442 -0.036738217 -0.051274482 -0.03500678 -0.055801976 -0.028885756 -0.060773045 -0.096841305
-0.06951458 -0.0777424 -0.08043233 -0.05978059 0.010671253 -0.028400645 -0.033476707 -0.108253784
0.051557895 0.07814926 -0.100753345 -0.110327184 -0.11710777 -0.055843845 0.09834399 -0.037046704
0.0868267 -0.096933134 -0.042636227 -0.21547613 -0.021110453 0.11323832 -0.087751284 0.052531514
0.16668516 -0.2148036 -0.042714573 0.07583657 0.19009559 0.0922074 0.014581691 0.066678114
0.15663752 -0.012417595 -0.0905183 -0.06802346 0.03895884 -0.0025980817 0.08070402 -0.10863409
0.006243957 -0.041661184 -0.12551926 0.094933175 -0.030854952 0.004509445 0.064859346 0.10767847
0.21793348 0.09787318 0.1066009 0.036310524 -0.047195435 -0.04180461 -0.11190744 -0.051284354
-0.04316548 -0.1796439 -0.07877452 -0.25439164 -0.1002663 -0.06369664 0.021088582 0.08692316
-0.085102946 -0.13315229 -0.116815604 -0.06042564 0.10933984 0.08507809 -0.087966576 0.05998116
-0.16763066 0.012045157 -0.2404426 -0.05454363 -0.07460826 -0.15965034 -0.026186045 0.122902475
-0.15736447 0.027883677 -0.24102245 0.008869923 -0.12918863 -0.12096783 0.035043646 -0.09687106
0.18818177 0.07056426 -0.0007953105 -0.04758553 -0.059156064 -0.0642669 -0.10181355 -0.06472747

bias f4 [32]
00000000: 2e3c 053e b90a f83c fb66 1c3d 8bfb 023d
00000010: e66f a43d aa4f 2dbd c1c5 52bc cd3c 823d
00000020: 40d7 94bd 00cd b03d c36f 6cbd c0da 0a3d
00000030: eb46 19be 3396 d4bd 1882 bf3d 7ff3 23be
00000040: f62e 3c3d ab81 a43d d6a9 2c3d 80c3 fd3c
00000050: 7f78 c5bb c5a3 c23b 2624 05bc 2c70 493e
00000060: 8c75 663d d3d5 0dbe 4a56 d73d fcae 0a3e
00000070: ef92 9f3d 35fa f8bc 5322 c23d 4f33 88bd
0.13011238 0.03027855 0.038184147 0.03197817 0.080291554 -0.0423123 -0.012864531 0.06359253
-0.07267618 0.08632851 -0.05772377 0.033900023 -0.1496846 -0.10380211 0.09350985 -0.16010855
0.045943223 0.08032545 0.042154156 0.03097701 -0.006026327 0.005939933 -0.008126294 0.19671696
0.056264445 -0.13851099 0.10514505 0.13543314 0.07791697 -0.030392746 0.09479203 -0.06650411

weight f4 [32]
00000000: e360 063f c0ea 843f 531c f73e 662c 863e
00000010: 6461 aa3e a03d 4e3e 08bd 23be 124f 713e
00000020: 67ad 0b3f c96d 753f 7ed9 ae3e bb15 193f
00000030: 098e 883f 5424 063f 0127 5e3f ce70 1e3f
00000040: d52c 5c3f 1827 283f cf30 d33e 1bf5 263e
00000050: f99c 843f f495 2c3f cdec 303f 8b61 8e3f
00000060: ec89 3c3f 9701 863f cfc5 4c3f 564f 103f
00000070: 772f e13e 7a35 6c3f 3de1 883f 8914 c03e
0.5249159 1.038414 0.48263797 0.26205748 0.33277428 0.20140696 -0.15990078 0.23565319
0.54561466 0.95870644 0.34150308 0.59798783 1.0668346 0.5239918 0.86778265 0.61890876
0.8600591 0.6568465 0.41248176 0.16304438 1.0360404 0.6741631 0.6911133 1.1123518
0.7364795 1.0469235 0.7998933 0.5637106 0.43981525 0.922691 1.0693737 0.37515667

bias f4 [32]
00000000: 676d 103e 42ca 283e 37f1 0a3e 3320 1b3e
00000010: ffba 163e 5d8e 113e f93f 053e e0a2 023e
00000020: b682 243e db38 1f3e 1e19 163e b0bb 243e
00000030: 5f2c 263e d8e4 163e 0c73 1e3e fe83 283e
00000040: 0ca7 283e 76a7 313e e992 253e 4e86 ee3d
00000050: fb9a 2f3e 4415 1a3e ec0c 153e 1b00 173e
00000060: b120 1f3e 74d6 293e c240 2b3e 5b14 1a3e
00000070: 7149 223e 2b59 183e 63a7 233e 45cc 193e
0.14104234 0.16483405 0.13568579 0.15149002 0.14719771 0.14214464 0.13012685 0.12757444
0.16065487 0.15549032 0.14658019 0.16087222 0.16227864 0.14735734 0.15473574 0.16456601
0.16469973 0.17349038 0.16169323 0.1164671 0.17148964 0.15047175 0.1455571 0.14746134
0.15539815 0.16585714 0.16723922 0.15046827 0.15848328 0.14877765 0.15981822 0.15019329

running_mean f4 [32]
00000000: 0f08 74c0 4819 13c0 cf60 febf beb5 95c0
00000010: 011c b73d c0ec a2bf 7865 1840 2235 02c0
00000020: baa0 37bf 4c0b 5bc0 7811 d0bf bd2d 7dc0
00000030: cee3 81c0 bed3 34c0 b32e 09c0 f804 eabe
00000040: 1943 37c0 8bdc ffbf 72c1 1bc0 fb8e b83e
00000050: 233a a0bf c88d 90bf a0bb 5b3d 1831 563e
00000060: fc70 2cc0 b7e9 23c0 6553 4bc0 4ed6 d2be
00000070: 6d82 27c0 0816 adbf 7b7f 34c0 e44b e1bf
-3.8129919 -2.298418 -1.9873294 -4.6784353 0.08940888 -1.27285 2.3811932 -2.034493
-0.71729624 -3.4225645 -1.6255331 -3.9559166 -4.059058 -2.8254237 -2.1434753 -0.45706916
-2.8634703 -1.9989179 -2.433682 0.36046585 -1.2517742 -1.1293268 0.05364573 0.20917165
-2.694396 -2.5611398 -3.176965 -0.41179127 -2.6173356 -1.3522348 -2.8202808 -1.7601285

running_var f4 [32]
00000000: 1438 a940 845c 0e42 dc57 3e40 ad62 6041
00000010: 6844 6c40 1558 1341 4257 6841 b332 6040
00000020: 874c 8e40 7070 9341 0dda 5e41 6c87 8c41
00000030: 7152 fd40 562b d040 108a 4d41 1ceb 0741
00000040: 1aee b541 a5f0 5241 1662 bf40 8e23 f740
00000050: 9302 0041 0ffe 6141 4d31 4b41 1865 fd40
00000060: ce51 fd40 2393 cc40 92e0 8841 3546 1041
00000070: d4bc fb40 c2b4 2f41 46f8 ba41 8d2f 8541
5.2880955 35.590347 2.9741125 14.024091 3.6916752 9.209004 14.521303 3.5030944
4.4468417 18.429901 13.928235 17.566124 7.9163136 6.50529 12.846207 8.4949
22.74126 13.183751 5.9807234 7.72309 8.000628 14.124526 12.699536 7.9185905
7.916236 6.392961 17.109653 9.01714 7.8668003 10.98163 23.371227 16.648218

weight f4 [6, 2240]
00000000: 4d37 013e 19cc dc3d 1986 f63d 8073 063e
00000010: a5f1 0c3e ea55 143e ca5c 433e d2a4 593d
00000020: 0ed7 d03d a7c7 033e b117 e33d 2d2c a23d
00000030: b8c8 373e 03fe bebd d11c 393e 26f5 9b3d
00000040: 2fab 0a3e 38ee 0b3e 1c51 343e ebf2 1a3e
00000050: bd37 e73d 9d8e c03d 21e2 fe3d 1988 293e
00000060: a1dd 353e 35bc 9e3e 3db2 f33e b090 3e3e
00000070: 1145 683e 9ef5 a2bd b14a ad3d 059d da3d
00000080: 2436 fc3d c7dd ac3d 4474 663e 9b73 34bd
00000090: e5cd b4bc 9a0b 263e b21e 973c 3401 203e
000000a0: bd25 973d 0ec7 9e3e 5a99 09be eabd 3abe
000000b0: 3135 0b3e faad 213e a21e 083e bf6c d93c
000000c0: b363 833e 1d90 073e 3a21 0f3e 56af 313e
000000d0: 95a9 1b3e 7f0e 2f3e 76ca 133e ab3b c2bc
000000e0: 46fb f83d fb2f 1d3e 397b 023e c687 243e
000000f0: 4408 c63d 73c1 a93d 1582 0c3d 06f5 103e
00000100: d66b 263e 1d64 033e 85c9 113e edb3 013e
00000110: 7f24 093e dc54 803e 7007 01bd 18ff 66bd
00000120: 6f84 493d 98d5 c33c 9078 063d 7290 d23b
00000130: 462a 443d ada6 b53d 64fa f63b 32bd 3d3c
00000140: fc86 a3bc cf5c 8f3c 4d4a 903d fa6b bdbb
00000150: 4385 cf3d aba5 873d 7872 963d f259 323c
00000160: c3b6 833b 0b10 15bd 005a 8dbd 2372 d83d
00000170: a34a ea3d ba95 f73c 9767 6b3d a0c6 8d3d
00000180: b85f 98bc d392 b73d a5a2 fb3d 8a82 c23d
00000190: 147b f83d 580f fb3d b2b8 4d3e 2d9d 2d3c
000001a0: 48a2 8dbc 23e2 493e e4e8 5b3e bd3a 253e
000001b0: 15f0 253e e482 6d3e 07e3 87bd 2104 be3d
000001c0: 593f 053e 999d 2d3e c547 363e 3a02 333e
000001d0: 498b 343e 7284 3c3d b0db a33c bb79 b33d
000001e0: d6d2 283e 2988 2c3e 3830 d33d 10f2 12bd
000001f0: effe 333e 319d afbd 4e85 8c3d ba0e 233e
00000200: 4343 063e 1695 003d 5cc2 f53c 481e cdbe
00000210: 6e22 c43c 324a 2e3d 4bbe 923d 98c1 d03d
00000220: 2cec b53d c9a7 b43d 44c1 fe3c df83 cf3c
00000230: c72b ac3d 9c3a 0b3e a12b 383e 2e60 a03d
00000240: 44ee 1f3d 0c65 9ebd 1081 973d f93a 493d
00000250: 6738 a13d 8ed6 c93d dcdd bf3d 3496 553e
00000260: d998 373e 384e 8a3d 91be 54bd f606 603d
00000270: eb7b d63d e2e8 983d 8685 e33d b98d 4bbd
00000280: 27f0 0f3e e7df ecbc 2426 183d 55b4 7cbd
00000290: ad50 d33e 5bcf da3e 0494 163f 06a5 f33d
000002a0: 3a74 823d 9de9 dc3d 0bc7 dd3d 599c c6bd
000002b0: 0df0 943e 493c 2f3e 4331 0a3e 8aa0 c13d
000002c0: f181 503e 94d9 503e 09e8 8f3d e555 f03d
000002d0: 311b cb3d 977d 023e 00a0 6e3e 9f5a 413d
000002e0: f9df e33d be99 353e 21f5 22bc 99c4 8cbd
000002f0: caaf 2e3e 5538 053e eb38 b33d 3549 933d
00000300: 49c9 b83d ebc2 db3d 347a c03d 21ad 333e
00000310: e714 f53d 5763 933c b811 113e 07b6 763d
00000320: 1c27 ef3d 33d1 bd3d a560 9e3d c0c5 113d
00000330: d283 203d 4fcb 8cbc 0d7d 9d3b 497f c03d
00000340: 66ef 5abd c04a 0a3e 8adb 363e 139c 1f3e
00000350: 0d92 233e c176 1c3e 6ebb 263e 5b63 253e
00000360: d56f 333e c622 2e3e ee53 2b3e 6af0 1d3e
00000370: c759 263e 8540 1d3e c569 3c3e fa62 233e
00000380: dc03 2f3e f276 433e 2fde 173e 9720 033e
00000390: dafe 183e da52 183e a1e1 b93d d5d1 a63d
000003a0: 172f 343e d6e3 c23d 8174 f63d de3a 093e
000003b0: 0502 143e 255c 053e bf5a febb e571 5e3e
000003c0: bc29 b83e f85f 113e bf55 d93d 722b 003e
000003d0: f06b 663e 28eb 903e edac 24bc efcf ebbd
000003e0: e948 09bd 613d e03d 44d6 833e 0a92 3f3e
000003f0: d330 843e 5a57 713e ffbe 55be 8852 373e
0.12618752 0.10781116 0.12037296 0.13129997 0.13764055 0.14485899 0.19078365 0.0531357
0.101972684 0.1286913 0.11088503 0.07918582 0.17947662 -0.09325793 0.18077399 0.07615118
0.13541864 0.13665092 0.17609066 0.15131728 0.11289928 0.09402201 0.124454744 0.16555823
0.17760326 0.31002966 0.47596923 0.18609881 0.22682597 -0.07957004 0.08461512 0.1067448
0.12315014 0.08440738 0.2250529 -0.044055562 -0.022070834 0.16215363 0.018447254 0.15625459
0.07380245 0.31011242 -0.13437405 -0.18236509 0.1359451 0.15789023 0.13292935 0.026541112
0.25662002 0.13238569 0.13977519 0.17352042 0.15201409 0.17095374 0.14432701 -0.023710093
0.121573016 0.15350334 0.12742318 0.16067418 0.09669545 0.08288851 0.034303743 0.14155969
0.16252074 0.12831159 0.1423703 0.12666292 0.13392828 0.25064743 -0.031501234 -0.05639562
0.049198564 0.02390556 0.03282982 0.0064259106 0.047891878 0.088696815 0.007537173 0.011580752
-0.019961827 0.01750031 0.07045422 -0.005780694 0.101328395 0.066233955 0.07346052 0.010885702
0.0040195896 -0.036392253 -0.06901932 0.10568645 0.11440017 0.030222762 0.057471838 0.0692265
-0.01860033 0.08963551 0.12286881 0.094975546 0.1213285 0.12258786 0.20089987 0.010596556
-0.017289296 0.1971517 0.2147556 0.16135688 0.16204865 0.23194462 -0.06635099 0.09278131
0.13012446 0.1695465 0.17800815 0.17481318 0.17631258 0.046024747 0.020002216 0.087634526
0.16486678 0.16848816 0.10311931 -0.03587538 0.17577718 -0.08574904 0.06861363 0.15923586
0.13111596 0.03139218 0.029999904 -0.40062165 0.023942199 0.042551227 0.07165202 0.10193175
0.08882937 0.08821065 0.031098016 0.025331436 0.08406787 0.13596576 0.17985393 0.07830845
0.039045587 -0.07734117 0.073976636 0.049128506 0.07872086 0.09855376 0.09368488 0.20858079
0.179294 0.067532 -0.05193955 0.05469414 0.10472854 0.07466294 0.11109452 -0.049695704
0.14056455 -0.028915359 0.03714575 -0.061695416 0.41272488 0.42736325 0.58819604 0.1189671
0.06369825 0.10786746 0.1082898 -0.0969779 0.29089394 0.1711284 0.13495354 0.094544485
0.20362069 0.203955 0.07026679 0.11735133 0.09917296 0.12743221 0.23303223 0.047205564
0.11126704 0.17734429 -0.009946139 -0.068734355 0.17059246 0.1300977 0.087510906 0.071916975
0.09022767 0.10730537 0.093983084 0.17546512 0.119668774 0.017991705 0.14166915 0.06023219
0.116773814 0.09268417 0.07733277 0.03558898 0.039188214 -0.017186789 0.004806167 0.09399278
-0.053450964 0.13505077 0.17857185 0.15586881 0.15973683 0.15279676 0.16282436 0.16151182
0.1752313 0.17005453 0.16731235 0.15423742 0.16245185 0.15356643 0.18399723 0.15955725
0.17091316 0.19088343 0.1483085 0.12805401 0.14940968 0.14875355 0.090762384 0.08145491
0.17596088 0.095161125 0.1203394 0.13401362 0.14453895 0.13023432 -0.0077622826 0.21723135
0.3596934 0.14196765 0.10612058 0.12516573 0.22502112 0.2830441 -0.010050994 -0.115142696
-0.0335168 0.10949207 0.2574941 0.18708053 0.258185 0.23568478 -0.2087364 0.17902577

bias f4 [6]
00000000: 5bc9 063e 3480 f93d e2ba 153e 7cff 0b3e
00000010: e3d3 173e 75e5 1f3e
0.13162749 0.12182656 0.14622071 0.13671678 0.14826922 0.15614875
