dev/fetch/fetchpush_1000.pth (torch_old, 230584 bytes, 20 tensors)

weight f4 [16, 3, 5, 5]
-0.09148596 -0.0562156 1.9541496 1.1876355 0.69779295 0.8955784 1.124869 0.9830221
0.33890298 -0.25120613 0.91905016 0.8256468 -0.3179595 -0.3420077 0.3997138 1.1484119
0.5743851 -0.56652814 -0.5636827 0.43877262 0.3029267 -0.7143144 -1.7098314 -0.49782088
0.76374656 -0.63632387 -1.4867406 0.10138555 -0.20916645 -0.31044695 0.16357955 -0.25918218
-0.23301268 -0.19289649 -0.54174894 0.6958651 0.7517032 -0.25833425 -0.62496877 0.2321394
1.0260727 0.540216 -0.7776132 -0.97635406 -0.49481434 -0.01574802 0.050581627 -1.066089
-0.3612997 -0.2699808 -1.1915917 -2.107613 0.21212104 -0.48213533 -0.68732905 -0.73752004
-1.2870924 -0.6188275 -0.5405924 -0.9423804 0.11722246 0.25994056 -0.26152888 -0.28773886
0.06204088 0.74746513 0.541418 -0.21839468 -0.8017813 -1.2981806 -0.77942944 -0.85046107
-0.82495826 -0.5326468 -0.9736003 -0.096264124 0.871171 -0.20189714 -0.41007337 -1.0726193
0.25567967 1.5208993 0.90797293 -0.0073764026 -0.10687868 0.5658024 0.017757108 0.63137746
0.58320767 -0.3924126 0.018868437 0.46415693 1.5779952 1.6346747 -0.20760095 0.3657744
1.1268073 1.6263008 2.6574802 0.6297155 -0.77955073 0.36644003 0.02141189 0.063998
0.32830468 -0.35689113 0.5527549 0.19806053 -0.1921463 0.9009548 0.24437192 -0.11710467
0.14701034 0.1768127 0.25383168 -0.003933431 0.1434301 0.46516854 0.404782 0.41493088
-0.18243437 -0.08821556 0.7259346 0.62803394 0.12966594 -0.6079798 -0.36851835 -0.46596065
-0.13601291 -0.12667675 -0.8630545 -0.30800262 -0.4882288 -0.7288125 0.2400251 -0.4205038
-1.4243329 -0.88102037 -0.64231837 -0.7872739 -0.79707617 -0.98076546 -0.28465432 -0.63852483
-0.3632922 -0.71851754 -1.0030968 -0.16008118 -0.0218702 -0.08940131 -1.7948688 -2.5672128
0.17365278 1.7917254 1.3939968 -0.07738154 -0.6215479 0.5255989 0.3190674 1.0618097
0.009740907 -0.20202959 0.18657199 0.28772375 0.08697802 0.45934534 -0.31650987 -0.011484345
-0.5630039 -0.33393088 0.0030586321 0.33360443 0.5034568 0.4449164 0.3566779 -1.9368999
-2.6575816 -1.0913863 0.19548944 0.5044662 -0.3531855 -0.9929259 -0.39434204 -0.18952979
0.30585054 -0.6063909 -0.4609451 0.3033143 0.34999582 0.090717085 0.55641466 0.03058991
0.04514761 -0.2954888 0.023658806 0.27696273 0.030332249 0.34374008 0.3454322 0.5073153
-0.1182458 -2.2935262 -0.9525121 0.8942604 1.1043514 -0.5114238 -1.0310051 -1.0275648
-0.47439045 -0.30652645 -0.4850864 -0.21594095 -0.7415087 -0.5312521 -0.8450967 0.66682893
0.1729403 -0.398284 -0.8410143 -0.4583679 -0.039989144 -0.004714449 0.18103242 0.059129838
-0.35936666 -0.11306045 -1.4400883 -1.4363633 -0.898564 -0.67702883 -0.25240433 -0.56800014
-0.01745617 -0.60525477 -0.66137755 1.3674048 0.22083245 -0.21396995 0.49343303 -0.61086255
0.2886921 0.21017842 1.1393236 0.7632316 -0.5631415 0.60889155 0.27737638 -0.48464853
0.19679996 -0.68451786 0.23901609 -0.15860358 0.56436986 0.6941442 0.5499431 0.3531814
00000000: fe5c bbbd 5442 66bd 9321 fa3f 7104 983f
00000010: 8fa2 323f a044 653f b5fb 8f3f 56a7 7b3f
00000020: b184 ad3e 179e 80be df46 6b3f 975d 533f
00000030: 96cb a2be a21b afbe 4aa7 cc3e 29ff 923f
00000040: e70a 133f fd07 11bf 824d 10bf cea6 e03e
00000050: 3519 9b3e 4fdd 36bf c1db dabf 61e2 febe
00000060: e584 433f 1fe6 22bf 844d bebf 3aa3 cf3d
00000070: bb2f 56be e7f2 9ebe 6681 273e 87b3 84be
00000080: e09a 6ebe a886 45be 0fb0 0abf 3724 323f
00000090: 9f6f 403f 6344 84be f4fd 1fbf f3b5 6d3e
000000a0: 5a56 833f 994b 0a3f a911 47bf 57f2 79bf
000000b0: 4e58 fdbe fe01 81bc ae2e 4f3d 9b75 88bf
000000c0: 46fc b8be ec3a 8abe 1486 98bf 22e3 06c0
000000d0: 4236 593e 71da f6be ccf4 2fbf 1dce 3cbf
000000e0: 72bf a4bf 7b6b 1ebf 4364 0abf d83f 71bf
000000f0: 5412 f03d ee16 853e 1de7 85be 8252 93be
00000100: 941e 7e3d e059 3f3f 5f9a 0a3f dba2 5fbe
00000110: 8a41 4dbf c82a a6bf b088 47bf d1b7 59bf
00000120: 7730 53bf 8a5b 08bf df3d 79bf 2026 c5bd
00000130: 1005 5f3f 20be 4ebe 23f5 d1be 974b 89bf
00000140: 72e8 823e d4ac c23f ea70 683f c0b5 f1bb
00000150: 36e3 dabd 6dd8 103f 5b77 913c f4a1 213f
00000160: 194d 153f 4eea c8be fb91 9a3c faa5 ed3e
00000170: bffb c93f 053d d13f 5895 54be c846 bb3e
00000180: 393b 903f a02a d03f 2814 2a40 0935 213f
00000190: a390 47bf 079e bb3e fd67 af3c 6211 833d
000001a0: 8d17 a83e 6fba b6be 5881 0d3f 61d0 4a3e
000001b0: 00c2 44be f9a4 663f a23c 7a3e 93d4 efbd
000001c0: e189 163e 630e 353e 3af6 813e 03e4 80bb
000001d0: 57df 123e 922a ee3e 963f cf3e d271 d43e
000001e0: 13d0 3abe 5caa b4bd dad6 393f d5c6 203f
000001f0: 26c7 043e 90a4 1bbf 70ae bcbe 6592 eebe
00000200: f846 0bbe 8db7 01be 24f1 5cbf 85b2 9dbe
00000210: 20f9 f9be 7593 3abf 24c9 753e 464c d7be
00000220: 8a50 b6bf 8d8a 61bf fa6e 24bf c88a 49bf
00000230: 2f0d 4cbf 7213 7bbf 36be 91be 5d76 23bf
00000240: 6f01 babe c4f0 37bf 7a65 80bf 52ec 23be
00000250: 2229 b3bc 0918 b7bd 43be e5bf 374d 24c0
00000260: 09d2 313e 4257 e53f 7d6e b23f 367a 9ebd
00000270: c31d 1fbf a68d 063f cd5c a33e 61e9 873f
00000280: 5398 1f3c d8e0 4ebe ba0c 3f3e 8750 933e
00000290: 8821 b23d 502f eb3e 950d a2be d628 3cbc
000002a0: 0621 10bf fdf8 aabe 5573 483b 33ce aa3e
000002b0: 8be2 003f 15cc e33e 7c9e b63e 56ec f7bf
000002c0: d115 2ac0 8cb2 8bbf 622e 483e b224 013f
000002d0: bbd4 b4be 6430 7ebf 33e7 c9be 1914 42be
000002e0: 7198 9c3e 6f3c 1bbf ff00 ecbe 034c 9b3e
000002f0: a732 b33e e1c9 b93d 3171 0e3f b197 fa3c
00000300: b3ec 383d 4f4a 97be 1dd0 c13c 0fce 8d3e
00000310: 567b f83c b3fe af3e 7ddc b03e 6adf 013f
00000320: db2a f2bd 22c9 12c0 d5d7 73bf 40ee 643f
00000330: 635b 8d3f acec 02bf faf7 83bf 3e87 83bf
00000340: 4ee3 f2be 09f1 9cbe 3f5d f8be a01f 5dbe
00000350: 84d3 3dbf 2300 08bf 4258 58bf 4db5 2a3f
00000360: 4317 313e e1eb cbbe b74c 57bf 33af eabe
00000370: a8cb 23bd aa7b 9abb 9060 393e 2132 723d
00000380: e8fe b7be 3d8c e7bd d054 b8bf c1da b7bf
00000390: 4a08 66bf c351 2dbf 243b 81be 7568 11bf
000003a0: 3e00 8fbc faf1 1abf 0a50 29bf 1f07 af3f
000003b0: e721 623e f01a 5bbe 41a3 fc3e 7d61 1cbf
000003c0: 73cf 933e 0339 573e 5bd5 913f 2563 433f
000003d0: 0b2a 10bf 51e0 1b3f 4704 8e3e da23 f8be
000003e0: ee85 493e 903c 2fbf a2c0 743e fa68 22be
000003f0: 8b7a 103f 6fb3 313f 12c9 0c3f 31d4 b43e

bias f4 [16]
-0.34753165 -0.12131573 0.24171035 0.06802213 -1.0362487 0.6481437 -0.88370895 -0.6230681
0.013143495 0.29205984 -1.025003 -0.13240886 -0.107669845 -0.19368729 0.37688416 0.09242224
00000000: abef b1be 6274 f8bd eb82 773e 304f 8b3d
00000010: cca3 84bf bfec 253f c03a 62bf 6481 1fbf
00000020: d057 573c de88 953e 4c33 83bf 3096 07be
00000030: 0282 dcbd f655 46be f6f6 c03e df47 bd3d

weight f4 [16]
0.8151103 0.8545109 1.0161191 1.3508317 1.1410544 0.88981915 1.2342248 1.5735487
0.973261 0.83261955 0.9239426 1.2454778 0.9794316 0.5966869 0.6668037 0.059380706
00000000: 12ab 503f 3ac1 5a3f 3110 823f 0ee8 ac3f
00000010: 120e 923f 30cb 633f 14fb 9d3f 0b6a c93f
00000020: a227 793f 8e26 553f 8187 6c3f d16b 9f3f
00000030: 08bc 7a3f 79c0 183f a6b3 2a3f 2f39 733d

bias f4 [16]
-0.107280865 0.8328107 -0.53592396 -1.0269581 -0.8150656 -0.4247349 -0.56291175 -0.4590662
0.29773062 -0.31826055 -0.4172805 -0.9185694 -0.26183692 -0.54176986 -0.22709645 -0.10920667
00000000: 12b6 dbbd 1533 553f 5032 09bf 5d73 83bf
00000010: 24a8 50bf da76 d9be fc1a 10bf ba0a ebbe
00000020: 2670 983e 0cf3 a2be caa5 d5be 5d27 6bbf
00000030: 7d0f 86be 6eb1 0abf f98b 68be bfa7 dfbd

running_mean f4 [16]
-2270.0344 559.9214 -2267.7563 1901.9563 405.404 -84.14842 3121.805 3273.3525
-728.7487 -2751.2625 1152.7166 1188.4495 2452.6428 -1245.6973 1801.3052 931.6665
00000000: 8de0 0dc5 f8fa 0b44 1abc 0dc5 9abe ed44
00000010: b6b3 ca43 fe4b a8c2 e11c 4345 a495 4c45
00000020: eb2f 36c4 33f4 2bc5 ee16 9044 628e 9444
00000030: 494a 1945 50b6 9bc4 c429 e144 a8ea 6844

running_var f4 [16]
173144.25 278500.06 327869.16 236534.42 71874.1 240817.73 549615.6 324858.8
238373.45 370502.7 169111.11 96765.6 263936.0 152688.5 158534.5 38442.195
00000000: 1016 2948 82fc 8748 a517 a048 9bfd 6648
00000010: 0d61 8c47 6f2c 6b48 fa2e 0649 5a9f 9e48
00000020: 5dc9 6848 d6e8 b448 c725 2548 cdfe bc47
00000030: 00e0 8048 201c 1548 a0d1 1a48 322a 1647

weight f4 [32, 16, 5, 5]
0.21713819 1.0229995 -0.6122745 0.50949574 -0.18501346 -1.1468089 -0.5006031 0.41973427
-1.0954908 -0.7368201 -0.04333751 -0.44334134 -1.3873479 0.065658405 -0.255688 -1.0029249
-0.3322824 -1.9877509 -0.27778888 -0.01905028 0.2902941 1.190065 0.7215301 -0.24566029
-0.7249822 -1.2019157 -0.073221825 0.027625479 0.02922259 0.28733447 -1.1263843 0.2306973
0.10271844 -0.18939973 0.99020755 -0.44142163 -0.0056433557 -0.12357496 -0.1443968 -0.20738941
-0.45005387 0.6627252 -0.25979802 -0.53958166 0.5125304 0.22752911 0.71993536 -1.478413
-0.25906783 -0.4705726 1.0931711 1.5795841 -1.4146233 -0.8926726 -2.5921466 -0.11923978
0.8691445 -1.0737592 -1.1742678 -0.78169507 0.37843943 0.11060602 -0.07123901 -1.3109521
0.41003212 0.2663493 -0.073641986 -1.3027339 -0.78572094 0.3193917 1.8557413 -0.08201039
-0.023102842 -0.1695269 1.4230067 -0.24475026 -1.4666102 -2.0942366 -0.49064597 0.07660181
-0.7009896 -0.36598092 -0.59955114 -0.6570346 0.8038953 0.33529723 1.8992581 0.15306853
-0.56213266 0.039342526 -0.37748596 0.3441264 0.036983404 1.3986115 1.6092439 0.5881259
0.29450104 0.38056934 2.2306452 0.067766786 0.38929203 -0.18581523 0.4559492 1.405711
-1.7201432 -0.10288845 -1.0737971 0.1360579 1.7985573 -0.08047701 -0.36719352 -0.7127977
-0.7296378 -0.045314018 -1.5706626 -0.07572798 0.6674293 -1.2117354 -0.19911982 -0.6992654
0.3108718 0.3437475 -2.023421 -1.2375338 0.9331442 1.2978958 0.032075226 1.032902
1.161267 -0.50114846 0.39867517 0.6732123 -0.9103254 -0.6855814 0.7685647 -1.3816392
0.6866265 -0.6194418 -1.807919 -0.24870001 -0.12769414 -1.2249242 -0.52394956 -1.6801102
-0.61905503 -1.170591 0.07232534 -0.6999335 -0.054942455 2.0904262 -1.8525678 -1.2776542
-1.2849989 -1.4532136 -0.7096106 0.24008788 1.3900551 1.1742314 1.011199 0.71680915
0.8558306 0.61014223 1.0569785 1.2511152 -0.64425266 1.0740839 -1.182237 -0.9989204
-0.09606478 -1.2577907 -0.5365542 -0.025242534 -0.7701718 0.35728845 -1.2398913 -0.11580321
0.25507584 1.080194 0.020405157 0.5527367 0.19087034 -0.6397515 -0.17236921 0.20099089
0.9721722 0.3065875 0.18534918 0.8514585 -1.1280727 0.48875389 0.8821635 -0.18279654
-0.9841591 -1.5419875 -0.22647505 0.6281307 -0.7117373 -0.20050463 -0.83717495 -1.7042409
0.91678256 0.81513 -0.1516688 1.3610189 0.68564737 1.6324364 0.9485659 -0.15328799
-0.19312145 1.119589 -0.54887086 0.08911609 0.28585914 1.2446668 -0.39293706 -0.80414397
-1.0118372 0.4201568 -0.37804633 -0.14420861 -1.2094462 -1.0613178 1.4639142 -1.1466031
0.54542756 -0.21789716 0.8279731 -0.10275309 -0.46767214 0.77628446 0.058086332 -1.1154872
0.49155065 -0.20355001 0.42338437 0.965223 1.513594 -0.39168367 -0.7714266 -0.07679071
-2.3103707 0.7095875 0.8480629 2.1388953 1.1093049 -1.9096496 0.79059535 -0.7499165
0.6047776 0.25061464 -1.0759403 -1.4405298 0.25172642 -0.30285415 0.9775816 0.6600927
00000000: 7959 5e3e a6f1 823f 06be 1cbf 506e 023f
00000010: 2b74 3dbe a2ca 92bf 8627 00bf 69e7 d63e
00000020: 0b39 8cbf 3ea0 3cbf ac82 31bd a3fd e2be
00000030: 9e94 b1bf ea77 863d 8ae9 82be d85f 80bf
00000040: eb20 aabe 9f6e febf 583a 8ebe 550f 9cbc
00000050: 6ea1 943e 0d54 983f 32b6 383f 5f8e 7bbe
00000060: 6f98 39bf 60d8 99bf 53f5 95bd d44e e23c
00000070: 3764 ef3c 811d 933e 5c2d 90bf ea3b 6c3e
00000080: 0c5e d23d 01f2 41be 3e7e 7d3f 0402 e2be
00000090: e6eb b8bb de14 fdbd c1dc 13be e45d 54be
000000a0: 766d e6be 5ca8 293f 3f04 85be 0622 0abf
000000b0: 3135 033f 64fd 683e af4d 383f a33c bdbf
000000c0: 8aa4 84be e4ee f0be 08ed 8b3f d02f ca3f
000000d0: 6012 b5bf 3186 64bf bbe5 25c0 fc33 f4bd
000000e0: 4180 5e3f f170 89bf 684e 96bf 2b1d 48bf
000000f0: d0c2 c13e 6985 e23d c2e5 91bd 47cd a7bf
00000100: bbef d13e ef5e 883e 9cd1 96bd fcbf a6bf
00000110: 0225 49bf 4f87 a33e ee88 ed3f 10f5 a7bd
00000120: 2c42 bdbc 7698 2dbe 1525 b63f d09f 7abe
00000130: e2b9 bbbf f907 06c0 f335 fbbe 69e1 9c3d
00000140: 0e74 33bf da61 bbbe 2f7c 19bf 6b33 28bf
00000150: 15cc 4d3f 14ac ab3e e41a f33f ffbd 1c3e
00000160: ede7 0fbf a125 213d d745 c1be 5631 b03e
00000170: e97b 173d b405 b33f b4fb cd3f 6b8f 163f
00000180: d7c8 963e fcd9 c23e e4c2 0e40 50c9 8a3d
00000190: 4951 c73e 5946 3ebe 2c72 e93e 57ee b33f
000001a0: a72d dcbf 2eb7 d2bd 2f72 89bf c352 0b3e
000001b0: 2037 e63f 21d1 a4bd ca00 bcbe e979 36bf
000001c0: 8bc9 3abf 319b 39bd 790b c9bf 4517 9bbd
000001d0: a6dc 2a3f 251a 9bbf 11e6 4bbe 0f03 33bf
000001e0: 972a 9f3e acff af3e bb7f 01c0 8267 9ebf
000001f0: 8ae2 6e3f 7321 a63f 5061 033d 2236 843f
00000200: 66a4 943f 444b 00bf 271f cc3e a457 2c3f
00000210: 160b 69bf 4382 2fbf a8c0 443f 8ed9 b0bf
00000220: c1c6 2f3f bd93 1ebf e469 e7bf 37ab 7ebe
00000230: 41c2 02be 51ca 9cbf 8f21 06bf da0d d7bf
00000240: 647a 1ebf edd5 95bf 4f1f 943d d82e 33bf
00000250: 570b 61bd 8bc9 0540 f120 edbf 2c8a a3bf
00000260: d87a a4bf e702 babf 0aa9 35bf 99d9 753e
00000270: 53ed b13f 374d 963f f86e 813f ce80 373f
00000280: b717 5b3f 4832 1c3f 124b 873f 8b24 a03f
00000290: beed 24bf 957b 893f 8b53 97bf 3fb9 7fbf
000002a0: 9dbd c4bd 49ff a0bf 9e5b 09bf 6ec9 cebc
000002b0: fb29 45bf 83ee b63e c2b4 9ebf 3c2a edbd
000002c0: 4d99 823e cc43 8a3f b728 a73c 2780 0d3f
000002d0: 8473 433e c1c6 23bf 8e81 30be 8ed0 4d3e
000002e0: 47e0 783f 09f9 9c3e 2dcc 3d3e 2ff9 593f
000002f0: b064 90bf f33d fa3e 78d5 613f 042f 3bbe
00000300: daf1 7bbf d95f c5bf 13e9 67be 2ccd 203f
00000310: 6a34 36bf 1651 4dbe 1951 56bf 9124 dabf
00000320: 43b2 6a3f 5cac 503f 114f 1bbe de35 ae3f
00000330: 9686 2f3f adf3 d03f 37d5 723f 87f7 1cbe
00000340: a1c1 45be b14e 8f3f cd82 0cbf 7f82 b63d
00000350: 215c 923e 3e51 9f3f 0c2f c9be 61dc 4dbf
00000360: e283 81bf cb1e d73e 4a8f c1be 6cab 13be
00000370: 22cf 9abf 43d9 87bf 8a61 bb3f e4c3 92bf
00000380: 24a1 0b3f 6f20 5fbe 0cf6 533f 3670 d2bd
00000390: b972 efbe 94ba 463f efeb 6d3d 49c8 8ebf
000003a0: 87ac fb3e 6a6f 50be d6c5 d83e db18 773f
000003b0: 73bd c13f c38a c8be 377c 45bf 7344 9dbd
000003c0: 1ddd 13c0 87a7 353f a61a 593f a9e3 0840
000003d0: b4fd 8d3f 666f f4bf 7564 4a3f 87fa 3fbf
000003e0: b4d2 1a3f 9050 803e 69b8 89bf 4863 b8bf
000003f0: 49e2 803e b30f 9bbe ca42 7a3f d6fb 283f

bias f4 [32]
0.57971823 0.21186297 -1.1138164 0.6107888 -0.3047113 0.18750189 -0.82515246 2.268274
-0.59198236 0.15273063 -0.29232275 -0.87488496 0.21000062 0.13723166 0.079825856 -0.34049782
0.24983373 0.38008517 -1.0224744 0.7184099 1.2240654 1.5872239 2.1870556 0.69546837
-0.18478157 -0.43211043 0.6234305 -0.24317315 -0.7351173 -0.119754694 0.72705775 0.9328889
00000000: 6a68 143f 9bf2 583e 8991 8ebf a85c 1c3f
00000010: 1f03 9cbe 7f00 403e 313d 53bf 672b 1140
00000020: 288c 17bf 6b65 1c3e 54ab 95be 76f8 5fbf
00000030: 670a 573e 7586 0c3e bd7b a33d bb55 aebe
00000040: 6ad4 7f3e 869a c23e 71e0 82bf b6e9 373f
00000050: 2dae 9c3f 272a cb3f b8f8 0b40 370a 323f
00000060: 6137 3dbe 943d ddbe 2499 1f3f 6202 79be
00000070: a630 3cbf f341 f5bd 7520 3a3f cfd1 6e3f

weight f4 [32]
0.8877515 1.0985689 0.27035028 0.45254698 1.01798 0.478108 0.91520286 0.7512839
0.5848238 0.97407675 1.0134085 1.0928924 1.2106256 0.91226274 1.1256913 1.025324
0.7315822 1.1643445 1.3015652 0.5172801 0.60052496 1.4056793 1.1957965 1.0197581
1.4685172 1.1275905 0.79139245 1.3036224 0.42707756 1.2894173 0.9202655 0.7134369
00000000: af43 633f e89d 8c3f 5a6b 8a3e 3db4 e73e
00000010: 2b4d 823f 92ca f43e bc4a 6a3f 2454 403f
00000020: 03b7 153f 185d 793f 5fb7 813f e6e3 8b3f
00000030: c8f5 9a3f 0d8a 693f a716 903f d13d 833f
00000040: f948 3b3f 3e09 953f b099 a63f 786c 043f
00000050: 01bc 193f 4ded b33f dc0f 993f 6f87 823f
00000060: 5ff8 bb3f e354 903f b298 4a3f 19dd a63f
00000070: e9a9 da3e a00b a53f 8596 6b3f cda3 363f

bias f4 [32]
-0.8865677 -0.9784966 -0.114456765 0.039987616 -1.2060245 0.25103518 -0.8592566 -0.49558303
0.12529893 -0.84170866 -1.1459978 -0.59405285 -1.093472 -1.0123223 -0.9105021 -0.9024383
-0.3482254 -0.92335176 -1.2051799 -0.25913537 -0.46471673 -1.3762131 -1.0508236 -1.3434788
-1.2191525 -0.08915365 -1.419463 -1.6424171 -0.15826769 -1.0057312 -0.82778883 -0.33589575
00000000: 1af6 62bf c17e 7abf 4f68 eabd 0eca 233d
00000010: 035f 9abf af87 803e 3ef8 5bbf 0fbd fdbe
00000020: 5d4e 003e 387a 57bf 0eb0 92bf d913 18bf
00000030: e4f6 8bbf c793 81bf aa16 69bf 3206 67bf
00000040: 9a4a b2be c860 6cbf 5643 9abf 64ad 84be
00000050: 5aef edbe c027 b0bf 6381 86bf 1df7 abbf
00000060: 300d 9cbf 3096 b6bd f7b0 b5bf b93a d2bf
00000070: ed10 22be cdbb 80bf f8e9 53bf 87fa abbe

running_mean f4 [32]
-6.6543484 -7.9385285 5.754186 8.8062 -14.382357 -12.002271 -8.489342 -1.1035975
18.746473 -6.8322244 -9.408955 -5.4082923 -6.4566274 -8.829101 -2.372169 -0.6653059
-4.2806597 -4.762187 -20.081131 0.6395318 -9.101578 1.982289 -4.2432537 -8.317727
-10.615402 -20.395718 -1.0493882 -2.1577613 0.7716228 0.12190545 -6.314154 -47.99131
00000000: 6cf0 d4c0 6d08 fec0 4b22 b840 32e6 0c41
00000010: 221e 66c1 4d09 40c1 58d4 07c1 af42 8dbf
00000020: c7f8 9541 95a1 dac0 148b 16c1 bb10 adc0
00000030: b19c cec0 ff43 0dc1 9ed1 17c0 7d51 2abf
00000040: 2afb 88c0 d663 98c0 28a6 a0c1 5bb8 233f
00000050: 10a0 11c1 a5bb fd3f bcc8 87c0 6915 05c1
00000060: b0d8 29c1 6e2a a3c1 5a52 86bf c318 0ac0
00000070: 1289 453f 91a9 f93d 8d0d cac0 1af7 3fc2

running_var f4 [32]
151.66798 153.76007 173.74278 486.5049 561.7364 558.13043 90.85093 57.92991
315.97592 100.591576 97.37584 115.761566 131.13173 86.284256 120.99838 75.67847
177.34286 198.06653 213.44913 70.04059 78.315 191.99278 77.27689 89.7599
177.34537 438.6832 89.997894 121.10378 92.74733 111.87913 136.03082 427.4131
00000000: 01ab 1743 94c2 1943 27be 2d43 a140 f343
00000010: 216f 0c44 5988 0b44 adb3 b542 3ab8 6742
00000020: ebfc 9d43 e32e c942 6ec0 c242 ec85 e742
00000030: b921 0343 8a91 ac42 2cff f142 605b 9742
00000040: c657 3143 0811 4643 fa72 5543 c814 8c42
00000050: 48a1 9c42 27fe 3f43 c58d 9a42 1285 b342
00000060: 6a58 3143 7357 db43 ecfe b342 2335 f242
00000070: a27e b942 1dc2 df42 e407 0843 e0b4 d543

weight f4 [32, 32, 5, 5]
0.897459 0.77368724 -2.429855 1.4353064 -1.6192695 1.5297815 2.4393404 1.1959316
-2.1363049 -3.5457115 -0.6026685 -1.0835017 0.9027648 0.3448724 -1.2466003 -2.4733517
-0.052489903 -0.70429426 0.21498138 -0.44149265 0.67223984 -0.29001078 -0.7613992 0.9794911
0.17825729 -2.4808798 -1.6407567 2.6395347 -0.92768985 -0.39379174 -0.24227308 -0.36109963
-2.023448 -2.2135348 1.2841158 -0.41320744 -1.9855652 -0.72274137 -1.511149 1.8650565
0.3657327 -0.43304002 1.1431192 1.2730715 -3.8396816 0.25547042 1.4580146 -1.7592204
-0.52481097 1.2233182 0.3215101 0.56264734 0.43052676 0.29239485 0.41088635 -1.2655046
-0.25114766 -1.4936441 -0.42467916 0.91819257 -0.05453002 -0.31450334 0.44831046 -0.57316893
1.006086 0.894097 -0.7623847 -0.17350502 -0.6544381 -0.31840268 1.5927229 0.041293312
-1.1308191 0.3714598 0.7269508 0.3005045 -0.12024939 -0.87526095 -0.7420249 -0.018379707
0.02256107 -1.4582318 0.2174997 -1.0687693 0.21099478 -0.5668205 0.65006673 0.2495269
0.13373585 1.4630482 0.5290174 1.05334 2.1018057 -0.057294194 0.3461506 0.40105844
0.40153995 1.2018483 -0.041976012 0.30460507 1.8159524 -1.2602165 0.48760045 -2.5942101
0.48875797 3.2783256 -0.48916876 -1.0700735 -4.243865 0.42517012 -2.3309512 -1.2749853
0.47218457 0.25988963 1.7414975 -0.6252293 -0.6390002 -0.11260155 0.076833986 -1.9593763
-3.1520925 -2.7807589 -1.3911266 -1.2826316 0.350151 -0.43103305 0.3106658 0.80601907
-0.9477581 0.65565723 -0.026016563 -0.10424886 0.9964225 0.3297506 0.11178728 0.21404319
0.35651767 0.29243863 0.187762 -0.17781778 -0.55970067 -0.60835576 -0.052277315 -0.080314435
-0.56909114 0.17422684 1.0387272 0.88181823 0.55676746 0.69124544 -0.61190856 2.002976
-0.34857658 -1.1257325 2.875272 0.80816334 1.4707736 -0.4623064 -0.33261997 -4.1272383
-0.86124325 -2.8794944 0.054932274 -0.57682407 -2.4752667 0.7067948 -2.1826067 0.18893291
-1.1655893 -5.170903 -2.0063288 1.0196829 1.5440218 -0.98897004 0.9988832 -2.181948
-2.5797682 -2.9918807 -1.5723983 0.3744648 -2.600853 1.8138218 0.22220439 -3.9443126
0.49280083 0.01569006 -0.27771014 -1.4341576 0.22502847 -0.31351876 1.1620063 0.88250643
-2.672844 -0.67794234 1.0903004 1.486778 -0.44111696 1.1001167 1.0947044 -4.5892115
-0.13965476 -0.2963185 -0.14391743 0.031798072 0.03193234 0.890019 0.40118042 -0.099549145
0.06225972 0.53558075 -1.041117 -0.4859415 -0.54646283 -1.0077311 -0.06460588 0.3109881
-0.5358377 -0.0688869 0.8598134 -0.46563697 0.48135975 -0.18334432 1.2394218 0.29383075
0.75764084 0.7749353 0.44461045 1.4565675 -0.89245784 -2.6439054 1.9537791 2.0876725
-0.6707887 -1.3605833 -0.25843138 0.4571934 -0.3394911 -2.8564231 -0.3200238 -1.0054301
0.79367083 -0.2083874 -0.397774 1.3256481 1.0348927 1.1079633 3.5286658 -2.6386743
-2.5243847 -1.0586579 -0.89948994 -1.0819471 0.6510654 -3.0212185 -2.3236687 0.95963997
00000000: dfbf 653f 5e10 463f bf82 1bc0 1fb8 b73f
00000010: 3944 cfbf e1cf c33f 271e 1c40 4914 993f
00000020: 38b9 08c0 f0ec 62c0 7c48 1abf 2fb0 8abf
00000030: 981b 673f 1d93 b03e 9990 9fbf 654b 1ec0
00000040: a7ff 56bd a14c 34bf 1424 5c3e 530b e2be
00000050: e917 2c3f 4b7c 94be 0feb 42bf eebf 7a3f
00000060: 1489 363e bcc6 1ec0 5104 d2bf 23ee 2840
00000070: 157d 6dbf 129f c9be 6f16 78be 0de2 b8be
00000080: 2c80 01c0 8eaa 0dc0 e85d a43f ed8f d3be
00000090: 0027 febf 9405 39bf 556d c1bf 2cba ee3f
000000a0: 5141 bb3e 6cb7 ddbe bb51 923f 02f4 a23f
000000b0: 58bd 75c0 05cd 823e 39a0 ba3f 222e e1bf
000000c0: 035a 06bf b195 9c3f f99c a43e a809 103f
000000d0: 016e dc3e c7b4 953e b25f d23e 0efc a1bf
000000e0: 6d96 80be bb2f bfbf 8c6f d9be ab0e 6b3f
000000f0: df5a 5fbd 9506 a1be f388 e53e 33bb 12bf
00000100: 6dc7 803f 8ae3 643f a52b 43bf 4dab 31be
00000110: 4189 27bf ad05 a3be 58de cb3f 2d23 293d
00000120: aebe 90bf fb2f be3e 7319 3a3f badb 993e
00000130: 5045 f6bd 1a11 60bf 58f5 3dbf 0a91 96bc
00000140: fed1 b83c 57a7 babf 3eb8 5e3e 6fcd 88bf
00000150: 040f 583e 261b 11bf c66a 263f fb83 7f3e
00000160: 0df2 083e 2a45 bb3f af6d 073f d8d3 863f
00000170: fc83 0640 51ad 6abd a73a b13e 8857 cd3e
00000180: a596 cd3e 2ad6 993f 0aef 2bbd 32f5 9b3e
00000190: 2171 e83f c64e a1bf c4a6 f93e 8a07 26c0
000001a0: 7c3e fa3e 16d0 5140 5474 fabe 2bf8 88bf
000001b0: becd 87c0 e6af d93e 4e2e 15c0 b832 a3bf
000001c0: 2dc2 f13e 4110 853e 64e9 de3f 070f 20bf
000001d0: 8495 23bf a49b e6bd 235b 9d3d d8cc fabf
000001e0: e2bb 49c0 f4f7 31c0 7010 b2bf 462d a4bf
000001f0: fe46 b33e 5db0 dcbe 960f 9f3e 4457 4e3f
00000200: 46a0 72bf 27d9 273f b020 d5bc 6d80 d5bd
00000210: 8c15 7f3f 12d5 a83e bbf0 e43d 232e 5b3e
00000220: 7c89 b63e 84ba 953e af44 403e dd15 36be
00000230: 8b48 0fbf 34bd 1bbf bd20 56bd e57b a4bd
00000240: f5af 11bf 8568 323e 03f5 843f d7be 613f
00000250: 5088 0e3f 76f5 303f 0aa6 1cbf c230 0040
00000260: a178 b2be 0118 90bf 7504 3840 cbe3 4e3f
00000270: 4f42 bc3f 6db3 ecbe 2a4d aabe 5612 84c0
00000280: 707a 5cbf a349 38c0 aa00 613d beaa 13bf
00000290: c56a 1ec0 81f0 343f d4af 0bc0 a177 413e
000002a0: 0832 95bf 0a78 a5c0 b167 00c0 f884 823f
000002b0: 82a2 c53f 242d 7dbf cfb6 7f3f 09a5 0bc0
000002c0: ec1a 25c0 f97a 3fc0 5944 c9bf dab9 bf3e
000002d0: 6074 26c0 502b e83f 8c89 633e 9e6f 7cc0
000002e0: 6450 fc3e 7188 803c 0630 8ebe 7a92 b7bf
000002f0: dd6d 663e 8885 a0be 9fbc 943f f1eb 613f
00000300: e00f 2bc0 a18d 2dbf f78e 8b3f be4e be3f
00000310: 15da e1be a0d0 8c3f 461f 8c3f d2da 92c0
00000320: a801 0fbe 0fb7 97be 175f 13be b23e 023d
00000330: 7ccb 023d 49d8 633f 8567 cd3e 6ce0 cbbd
00000340: 0c04 7f3d d21b 093f 5243 85bf 53cd f8be
00000350: fde4 0bbf 55fd 80bf 1650 84bd d539 9f3e
00000360: a92c 09bf 9314 8dbd bb1c 5c3f f867 eebe
00000370: c974 f63e 9dbe 3bbe 60a5 9e3f fc70 963e
00000380: c0f4 413f 2962 463f fba3 e33e ce70 ba3f
00000390: 1e78 64bf bf35 29c0 6f15 fa3f 6d9c 0540
000003a0: cfb8 2bbf 9827 aebf 1e51 84be 4115 ea3e
000003b0: c7d1 adbe a3cf 36c0 29da a3be efb1 80bf
000003c0: 032e 4b3f 8263 55be 09a9 cbbe d6ae a93f
000003d0: 5d77 843f bed1 8d3f a9d5 6140 0ae0 28c0
000003e0: 858f 21c0 1a82 87bf f944 66bf 3e7d 8abf
000003f0: 39ac 263f a55b 41c0 fdb6 14c0 f7aa 753f

bias f4 [32]
0.4991579 0.23131502 0.38793862 1.7069173 0.77062625 1.2402354 -0.045432046 0.32896277
0.4508131 0.19161257 0.32470936 0.35318097 0.26535124 0.29625997 0.35694125 -0.31969205
-1.0931412 0.3355616 -0.47793093 -0.78729206 0.14182237 0.63010633 -0.2006464 -0.03969291
-0.43892232 0.2876967 0.8376703 0.23716737 -0.1903526 1.3968915 -0.11861776 0.47806746
00000000: a091 ff3e d8dd 6c3e e49f c63e 447c da3f
00000010: c347 453f 09c0 9e3f f416 3abd cf6d a83e
00000020: fad0 e63e 1636 443e 4e40 a63e 23d4 b43e
00000030: 1edc 873e 63af 973e 01c1 b63e adae a3be
00000040: 0dec 8bbf bbce ab3e 5db3 f4be f98b 49bf
00000050: e239 113e a64e 213f 4076 4dbe 0895 22bd
00000060: 6dba e0be fb4c 933e 9071 563f 01dc 723e
00000070: cbeb 42be 57cd b23f deed f2bd 42c5 f43e

weight f4 [32]
3.4251313 0.1539959 0.90324163 0.82507676 0.5401138 0.5740469 3.2821095 1.0073833
3.2677226 3.1866403 0.7332275 3.6290045 2.7404299 3.206876 3.3988123 3.1200175
3.1451273 3.7209315 2.4842439 1.1740681 3.0675354 0.54199356 1.1786773 0.28722677
0.97764736 0.9291284 0.30141312 0.93271554 0.23492244 0.5510621 1.0452274 3.4675612
00000000: 5a35 5b40 1ab1 1d3e d83a 673f 3b38 533f
00000010: e644 0a3f bdf4 123f 150e 5240 f0f1 803f
00000020: 5e22 5140 eaf1 4b40 ccb4 3b3f 9c41 6840
00000030: 3463 2f40 753d 4d40 2486 5940 5eae 4740
00000040: c449 4940 be23 6e40 dafd 1e40 dd47 963f
00000050: 8052 4440 17c0 0a3f e6de 963f 630f 933e
00000060: 1947 7a3f 5cdb 6d3f d252 9a3e 72c6 6e3f
00000070: 828f 703e 6812 0d3f 03ca 853f 86ec 5d40

bias f4 [32]
-5.7080255 0.6583968 0.6038051 0.525602 -0.06716266 0.55298287 -5.957593 0.4730625
-5.608232 -5.4035573 0.3829349 -5.5532837 -4.7764454 -5.3252187 -5.3712597 -5.105796
-4.4916587 -6.070376 -5.2625775 0.011182453 -5.0105 0.6394949 0.10425152 0.60882837
-0.06291213 0.28455496 0.62247837 0.44856519 0.6576814 -0.19375484 0.58641213 -5.3826137
00000000: 25a8 b6c0 b18c 283f f992 1a3f da8d 063f
00000010: 948c 89bd 4990 0d3f 9aa4 bec0 3f35 f23e
00000020: a376 b3c0 f1e9 acc0 0b10 c43e 80b4 b1c0
00000030: a4d8 98c0 3168 aac0 5ce1 abc0 ae62 a3c0
00000040: abbb 8fc0 8540 c2c0 0967 a8c0 9b36 373c
00000050: 0456 a0c0 f0b5 233f d281 d53d 2ddc 1b3f
00000060: 13d8 80bd 30b1 913e be5a 1f3f 56aa e53e
00000070: cf5d 283f ab67 46be 1b1f 163f 5f3e acc0

running_mean f4 [32]
2.854312 -7.2562714 3.051234 8.815504 -4.803409 -1.2112112 5.1856976 1.5135605
2.7409446 2.933688 -9.409195 -2.2342784 2.2200232 1.5258366 0.8420697 -1.8679075
-4.98969 0.38896433 -2.3205986 6.525736 0.23979683 -17.190954 9.398164 -4.2870455
3.0499926 -17.203333 -12.039457 -9.758278 -8.757652 5.5620112 -10.878324 -2.8410118
00000000: 0cad 3640 6033 e8c0 6b47 4340 4e0c 0d41
00000010: 87b5 99c0 f808 9bbf 3cf1 a540 5abc c13f
00000020: a36b 2f40 8bc1 3b40 108c 16c1 6bfe 0ec0
00000030: dc14 0e40 9d4e c33f e191 573f 9817 efbf
00000040: 8aab 9fc0 5526 c73e b084 14c0 d4d2 d040
00000050: 4d8d 753e 1387 89c1 e15e 1641 7a2f 89c0
00000060: 1433 4340 6da0 89c1 9ea1 40c1 e821 1cc1
00000070: 581f 0cc1 fffb b140 9d0d 2ec1 23d3 35c0

running_var f4 [32]
48.69812 63.76538 114.51807 80.16095 29.628778 47.125698 42.176632 55.041565
42.893494 45.43088 152.2948 41.763515 32.454323 49.503345 46.28622 43.567547
59.04831 51.54823 110.44641 103.71469 41.778435 198.11473 86.25727 72.86903
89.49253 163.54633 46.665913 79.826645 41.90154 48.923218 110.94733 43.050697
00000000: e0ca 4242 c00f 7f42 4009 e542 6852 a042
00000010: bd07 ed41 b780 3c42 dfb4 2842 902a 5c42
00000020: f092 2b42 39b9 3542 784b 1843 d70d 2742
00000030: 3ad1 0142 6d03 4642 1725 3942 2b45 2e42
00000040: 7831 6c42 6331 4e42 90e4 dc42 ec6d cf42
00000050: 1e1d 2742 5f1d 4643 b983 ac42 f2bc 9142
00000060: 2dfc b242 dc8b 2343 e5a9 3a42 3ea7 9f42
00000070: 2d9b 2742 60b1 4342 08e5 dd42 ea33 2c42

weight f4 [6, 2240]
0.51214945 1.1333355 2.5991092 0.4255351 0.43906903 -1.2880332 3.2966974 3.1104815
-2.6379583 2.227879 -0.92525786 2.8396258 -0.5037265 -3.045978 -0.43711656 1.6096737
0.00431895 1.9992895 0.35306564 -2.4379835 -2.5063384 -3.1937516 0.87391406 0.7276523
0.7016502 1.6580893 -2.937506 3.0121915 -1.2266035 -2.5759153 1.9238352 -2.7319152
2.609465 -0.52634656 1.6137791 2.6049466 -2.499893 1.772909 1.9212058 -2.6693265
1.1248827 3.1071458 1.1946672 -3.0893345 0.32198846 3.332175 -2.5740192 -2.14513
-1.4814277 -1.2245016 3.464865 -1.2268834 3.191536 2.8784168 3.0139961 -1.7435002
-1.596034 -1.7489479 0.5486259 2.5041487 0.31828004 4.547759 -1.1177207 3.827772
-0.30738202 -3.2121713 1.7013738 -3.0524087 -0.14610165 -0.09021796 1.0706009 1.1582278
1.2870765 1.1186804 1.2071365 1.6755643 1.2381634 1.3029507 1.870994 1.6810912
1.0365242 1.6253668 1.8143768 2.6686943 1.5270572 1.9008278 1.9146429 1.1975166
1.0427781 1.1819512 1.5215392 1.5159786 1.2830536 1.160815 0.9778861 1.2935398
1.3730121 2.027517 1.2903497 1.0313371 1.2530376 1.4114971 1.5923696 1.4074349
1.0556797 1.3859547 1.3524998 1.4720001 1.1688222 1.6062961 1.1522057 1.5235318
1.4532636 1.5948224 0.9709084 1.088353 1.3746079 1.1404222 1.6398641 1.3657687
1.6159676 1.0311607 1.3379399 1.1635809 1.5794752 1.8477945 1.07258 1.4415128
1.051376 1.0639007 1.6076741 1.4533288 0.92826706 1.1066955 1.1751912 1.201522
1.4688758 1.2161591 1.3874601 0.95104235 1.6086551 1.5140158 1.4435458 1.3798115
1.4161501 1.477751 0.03804072 1.2533205 1.4691386 1.5247568 1.3566687 1.4598101
1.3019726 3.2581916 0.9302688 1.5280735 1.4419467 0.9153133 0.9816589 0.8845142
3.3894026 0.96010166 1.7291595 1.3933213 0.93778044 0.9527242 1.8080373 5.350837
0.65403736 1.5283924 1.2418265 2.414922 6.2279186 0.87203413 4.771581 1.6106333
1.1585256 1.899609 0.94312644 0.3880679 1.6382704 2.624548 1.7415475 1.2281532
2.364982 2.3545458 -0.6492446 9.016874 3.0701807 2.0951612 1.1547198 1.2551912
0.82242 0.96681625 1.0847435 7.395115 1.6284236 1.4107459 1.3740709 1.6014363
1.5235481 1.8066506 -0.22053237 1.5987065 1.668241 1.5795918 1.6281121 1.5092819
1.5864801 0.9399579 1.7397034 1.5206486 1.5565418 1.6304935 1.5057911 1.4664927
1.4149091 1.4482172 1.4534808 1.458868 1.4247795 1.3253982 1.4213291 1.3054622
1.272577 1.0171692 1.1021138 0.9483364 1.1816849 1.3533732 1.5972257 1.4531957
0.9998883 1.2928623 0.91864574 1.1419437 1.6644003 1.6217633 1.8558505 1.9736179
1.130051 1.1715797 0.5857345 6.163699 2.5279095 2.1224763 2.0330448 3.0357215
-0.5845115 4.524954 5.53139 1.8685793 3.4473896 2.895906 2.9261932 2.7718668
00000000: 3a1c 033f 2311 913f ce57 2640 bddf d93e
00000010: a8cd e03e 46de a4bf 17fd 5240 2112 4740
00000020: 4fd4 28c0 9295 0e40 b3dd 6cbf 6ebc 3540
00000030: 38f4 00bf 4ef1 42c0 becd dfbe ca09 ce3f
00000040: fb85 8d3b b8e8 ff3f 05c5 b43e ec07 1cc0
00000050: d967 20c0 6d66 4cc0 d5b8 5f3f 6c47 3a3f
00000060: 599f 333f 453c d43f 1900 3cc0 bfc7 4040
00000070: 5801 9dbf ccdb 24c0 3b40 f63f b3d7 2ec0
00000080: 7901 2740 a6be 06bf 5090 ce3f 72b7 2640
00000090: 3ffe 1fc0 afee e23f 12ea f53f 3fd6 2ac0
000000a0: 28fc 8f3f 7adb 4640 dbea 983f a8b7 45c0
000000b0: acdb a43e 5b42 5540 bbbc 24c0 cf49 09c0
000000c0: 6c9f bdbf 78bc 9cbf 59c0 5d40 840a 9dbf
000000d0: 2042 4c40 fb37 3840 50e5 4040 042b dfbf
000000e0: d84a ccbf 86dd dfbf bf72 0c3f f943 2040
000000f0: 9af5 a23e 3e87 9140 7911 8fbf 37fa 7440
00000100: 2d61 9dbe 3794 4dc0 9ec6 d93f aa5a 43c0
00000110: ac9b 15be 32c4 b8bd 7309 893f cf40 943f
00000120: ecbe a43f eb30 8f3f 7383 9a3f e478 d63f
00000130: 237c 9e3f 17c7 a63f bb7c ef3f ff2d d73f
00000140: d3ac 843f 050c d03f 803d e83f e3cb 2a40
00000150: 9c76 c33f 534e f33f 0513 f53f 3948 993f
00000160: c179 853f 2d4a 973f ccc1 c23f 960b c23f
00000170: 1a3b a43f 9695 943f be56 7a3f b692 a53f
00000180: dcbe af3f d7c2 0140 2e2a a53f db02 843f
00000190: 8963 a03f f0ab b43f c4d2 cb3f d426 b43f
000001a0: 8320 873f f766 b13f b71e ad3f 806a bc3f
000001b0: f79b 953f 1c9b cd3f 7a7b 933f 1703 c33f
000001c0: 8b04 ba3f 2423 cc3f 748d 783f 274f 8b3f
000001d0: 27f3 af3f 5bf9 913f 11e7 d13f 82d1 ae3f
000001e0: 07d8 ce3f 13fd 833f 9d41 ab3f 38f0 943f
000001f0: 3e2c ca3f 8884 ec3f 4d4a 893f 7e83 b83f
00000200: 7d93 863f e62d 883f 44c8 cd3f ae06 ba3f
00000210: e9a2 6d3f 33a8 8d3f aa6c 963f 79cb 993f
00000220: 1f04 bc3f 1aab 9b3f 4b98 b13f 8377 733f
00000230: 69e8 cd3f 45cb c13f 1cc6 b83f aa9d b03f
00000240: 6844 b53f f226 bd3f 96d0 1b3d ce6c a03f
00000250: bc0c bc3f 3b2b c33f 52a7 ad3f 0fdb ba3f
00000260: 0aa7 a63f 3686 5040 1926 6e3f ea97 c33f
00000270: b691 b83f f951 6a3f ff4d 7b3f 866f 623f
00000280: f9eb 5840 39c9 753f 1955 dd3f 5a58 b23f
00000290: 6112 703f bce5 733f c46d e73f 0f3a ab40
000002a0: fe6e 273f 5da2 c33f 2cf4 9e3f 158e 1a40
000002b0: 1c4b c740 a13d 5f3f cbb0 9840 3b29 ce3f
000002c0: 914a 943f 6326 f33f bc70 713f d6b0 c63e
000002d0: d8b2 d13f 98f8 2740 07eb de3f 2034 9d3f
000002e0: dd5b 1740 e1b0 1640 e534 26bf 1e45 1041
000002f0: d77d 4440 1f17 0640 dccd 933f 1baa a03f
00000300: 1e8a 523f 4581 773f e0d8 8a3f c8a4 ec40
00000310: 2f70 d03f 5293 b43f 8ee1 af3f ddfb cc3f
00000320: a003 c33f 5440 e73f 3dd3 61be 6aa2 cc3f
00000330: ec88 d53f 1030 ca3f fa65 d03f 2630 c13f
00000340: c811 cb3f 15a1 703f 9aae de3f 9da4 c23f
00000350: c33c c73f 03b4 d03f c3bd c03f 08b6 bb3f
00000360: be1b b53f 2e5f b93f a90b ba3f 30bc ba3f
00000370: 2d5f b63f a6a6 a93f 1dee b53f 6319 a73f
00000380: cee3 a23f 9a32 823f 1112 8d3f 2dc6 723f
00000390: 7341 973f 553b ad3f e471 cc3f 5102 ba3f
000003a0: aef8 7f3f 837c a53f 5e2c 6b3f 362b 923f
000003b0: 120b d53f f195 cf3f 828c ed3f 839f fc3f
000003c0: 83a5 903f 53f6 953f b2f2 153f 063d c540
000003d0: 45c9 2140 a7d6 0740 681d 0240 4349 4240
000003e0: 8ca2 15bf 6ccc 9040 2601 b140 9b2d ef3f
000003f0: 08a2 5c40 8656 3940 c046 3b40 4466 3140

bias f4 [6]
1.8789529 1.8592414 1.8855573 1.8956033 1.8680112 1.8834441
00000000: 8781 f03f 9ffb ed3f f159 f13f 21a3 f23f
00000010: fe1a ef3f b214 f13f
