dev/pong/optimized/prefetched/pong_optimized_1000.pth (torch_old, 191804 bytes, 20 tensors)

weight f4 [16, 1, 5, 5]
0	0xbb4ec4f7	-0.0031550506
1	0x3cfede48	0.031111851
2	0xbe5a5015	-0.21319611
3	0x3e771f91	0.24133135
4	0x3b4d8be1	0.0031363892
5	0x3e2b1ccf	0.16710208
6	0x3d2479b5	0.04015513
7	0xbe8a06cd	-0.26958314
8	0xbe06043c	-0.13087553
9	0x3e776354	0.24158984
10	0xbe034a9a	-0.12821427
11	0xbdffeb82	-0.124960914
12	0xbd2cf4e2	-0.042225726
13	0x3cb6692b	0.022266945
14	0x3e3499f8	0.1763686
15	0xbe66a8f8	-0.22525394
16	0x3d6d46ff	0.057929035
17	0xbdca8fec	-0.09890732
18	0x3d5adf65	0.053435702
19	0xbe305d99	-0.17223205
20	0xbe33d5f3	-0.17562084
21	0x3de251be	0.11050747
22	0x3d446561	0.047948245
23	0x3d035d65	0.03207149
24	0x3d6f2177	0.058381524
25	0xbce2f623	-0.027705258
26	0x3d9cecad	0.0766233
27	0xbe0f4e04	-0.13994604
28	0xbe425980	-0.18979454
29	0xbcec5c1d	-0.028852517
30	0x3ca6fa60	0.02038306
31	0xbe475b42	-0.19468406
32	0x3dd0637f	0.101752274
33	0xbd093135	-0.033494193
34	0x3d22c8f8	0.03974244
35	0xbdd96b00	-0.10616112
36	0xbd356e52	-0.044294663
37	0x3dc4e9a4	0.09614876
38	0xbe2647a0	-0.1623826
39	0x3c7a0f17	0.015262387
40	0xbd85abb3	-0.0652689
41	0x3e866fca	0.26257163
42	0xbd6462fa	-0.055758454
43	0x3eadd847	0.3395407
44	0x3e1f4a34	0.1555565
45	0x3d6c1dac	0.057645485
46	0x3c7b09f1	0.015322194
47	0xbd0ec4a5	-0.034855504
48	0xbe23e38e	-0.16004774
49	0x3dd9e58a	0.10639484
50	0x3e1f4683	0.15554242
51	0x3e314e9f	0.17315148
52	0xbe4aa15c	-0.19788116
53	0xbe2c1593	-0.16805105
54	0x3da29721	0.07938982
55	0x3d692004	0.056915298
56	0x3e063eca	0.1310989
57	0x3e22233a	0.1583375
58	0xbe38f15d	-0.18060823
59	0xbe00d77a	-0.12582198
60	0xbdefb8ba	-0.11705156
61	0xbe032bc0	-0.12809658
62	0xbe04ff35	-0.12987979
63	0x3e12aff1	0.14324929
64	0xbcac6976	-0.021046381
65	0xbe59e31a	-0.21278039
66	0xbe823eb4	-0.25438464
67	0x3e61866e	0.22023937
68	0x3e6a5b27	0.22886334
69	0xbdc6a20c	-0.09698877
70	0xbd81370c	-0.063093275
71	0x3e525c28	0.20542967
72	0xbdbf5572	-0.09342469
73	0xbd3b6bc3	-0.045757066
74	0x3e58f44e	0.21186945
75	0x3d939d34	0.072077185
76	0xbd808880	-0.06276035
77	0xbe0c7939	-0.13718118
78	0xbda6a9c5	-0.0813785
79	0x3df3090c	0.1186696
80	0xbe579e85	-0.21056564
81	0xbe5f6bb9	-0.21818437
82	0x3e3ec4b1	0.1862972
83	0xbcfcd61e	-0.030863818
84	0xbdc2448a	-0.09485729
85	0x3cf5b236	0.029992204
86	0x3dd7528b	0.10513791
87	0x3dbf3ac2	0.09337379
88	0xbdb258f2	-0.08708371
89	0xbd789046	-0.060684465
90	0x3e5f4c7d	0.21806522
91	0xbcde1165	-0.027107904
92	0x3e5b35d2	0.2140725
93	0xbd57a11d	-0.052643884
94	0x3b642ee2	0.0034817983
95	0xbcf9f153	-0.03051058
96	0x3e3d48f1	0.18484856
97	0xbd2b7ba2	-0.041865952
98	0xbe848f4a	-0.2589057
99	0xbe01811e	-0.1264691
100	0x3e08fe71	0.13378312
101	0xbbbca267	-0.0057566646
102	0x3db570a5	0.08859376
103	0x3dc6c3cb	0.09705313
104	0x3e30312a	0.17206255
105	0xbe00b676	-0.12569603
106	0x3d82dcfe	0.06389807
107	0xbde0120a	-0.10940941
108	0xbe2dff76	-0.16991982
109	0x3de8cff0	0.11367786
110	0x3cae08ae	0.021244373
111	0xbc03565a	-0.008016193
112	0x3e237bcc	0.15965194
113	0xbe5e45ba	-0.21706286
114	0xbdc38be0	-0.095481634
115	0xbe249c8a	-0.1607534
116	0x3e5fecad	0.21867628
117	0x3e72064f	0.23635219
118	0xbe22b715	-0.15890153
119	0xbe0e569b	-0.13900225
120	0xbcc9b2fd	-0.024621481
121	0xbd6f5502	-0.05843068
122	0x3e64f7b8	0.22360122
123	0xbcab452f	-0.020907013
124	0xbd9a88cd	-0.07545624
125	0xbd1ac70e	-0.03778749
126	0xbd24bff1	-0.040222112
127	0x3c5ad416	0.013356229
128	0xbd42031a	-0.04736624
129	0xbc8f49c1	-0.017491223
130	0x3dac39ac	0.084094375
131	0xbdfe22e2	-0.12408997
132	0x3e086002	0.13317874
133	0x3d7492ff	0.0597105
134	0xbc91272f	-0.01771888
135	0xbe55742b	-0.20845096
136	0xbe4b1ccb	-0.19835202
137	0xbe4054c4	-0.18782336
138	0x3d4c0427	0.049808647
139	0xbe55a540	-0.20863819
140	0x3e9d56ce	0.3073029
141	0x3ea8f4e7	0.32999346
142	0x3dc62a84	0.09676078
143	0xbe2734fb	-0.16328804
144	0x3e27c412	0.16383389
145	0xbe3551d2	-0.17706993
146	0x3d8a446a	0.0675133
147	0x3e0b2d4f	0.13591503
148	0xbda8ee4d	-0.08248577
149	0x3d860c19	0.06545276
150	0xbc3df622	-0.011594327
151	0xbd017bae	-0.03161209
152	0x3e04bc8a	0.12962547
153	0x3e0f6d81	0.14006616
154	0x3d7a2cf8	0.06107804
155	0xbe431c04	-0.19053656
156	0xbdf8881c	-0.12135336
157	0xbe1edb1f	-0.15513276
158	0x3dcdbd5b	0.10045882
159	0xbddd4ac9	-0.1080528
160	0x3e1993b6	0.14997754
161	0xbdec0024	-0.11523464
162	0xbe5d78a9	-0.2162806
163	0xbd978832	-0.07399024
164	0xbc570526	-0.013123786
165	0xbdca6ff4	-0.098846346
166	0x3d9e46c7	0.077283435
167	0x3e5bf5bf	0.21480463
168	0x3d8c90b2	0.06863536
169	0xbe44e3fb	-0.19227593
170	0x3e02616b	0.12732475
171	0x3e194fcb	0.14971845
172	0xbe755fe3	-0.23962359
173	0x3e03c311	0.1286738
174	0xbdbf23b2	-0.0933298
175	0xbe02ae33	-0.12761764
176	0x3dfe40af	0.12414681
177	0x3e1512d4	0.14557964
178	0xbdb92fa0	-0.09042287
179	0x3d87260a	0.06599052
180	0xbda8debd	-0.08245609
181	0x3de90de0	0.113795996
182	0xbdb0d874	-0.08635035
183	0x3e0e6090	0.13904023
184	0xbe765e18	-0.24059331
185	0xbb89b741	-0.004202754
186	0x3e6fc6aa	0.23415628
187	0x3e05b307	0.13056575
188	0xbd1978e5	-0.03746881
189	0x3d0b7300	0.03404522
190	0x3e19ae61	0.15007927
191	0x3b80188b	0.0039091757
192	0xbe3fbea9	-0.18725075
193	0xbe80e12b	-0.2517179
194	0xbcdc17b9	-0.02686678
195	0xbe4db08d	-0.2008688
196	0xbe6fa124	-0.23401314
197	0x3e43569a	0.19076005
198	0xbde555aa	-0.1119798
199	0x3de1a74c	0.110182375
200	0xbd39b4bf	-0.04533839
201	0xbd27b29f	-0.04094183
202	0xbdeda768	-0.11604196
203	0xbdb9f834	-0.09080544
204	0x3de242cb	0.11047896
205	0x3dfff317	0.124975376
206	0xbdb14149	-0.0865503
207	0x3d2ab931	0.04168052
208	0x3e0e2cdf	0.13884304
209	0xbc9f06aa	-0.019412357
210	0xbd11c84a	-0.0355914
211	0xbcaccf7f	-0.021095036
212	0xbe4712b6	-0.19440731
213	0x3c51facc	0.012816142
214	0x3dd586cb	0.104261
215	0xbe6c2b82	-0.23063472
216	0xbe7ea70a	-0.24868408
217	0x3e1210d2	0.14264229
218	0x3e885cb2	0.2663322
219	0x3e40e593	0.18837576
220	0x3dc1a3b7	0.09455054
221	0x3e07ef89	0.13274969
222	0xbce9b345	-0.028527865
223	0x3d1759dd	0.036950935
224	0xbcc9b5a9	-0.024622755
225	0x3d0e207e	0.034698956
226	0xbd2d571c	-0.042319402
227	0xbe03df14	-0.12878066
228	0x3e025d78	0.12730968
229	0xbe617169	-0.22015919
230	0x3da16a9a	0.07881661
231	0xbd9604fe	-0.07325171
232	0x3e1ab2f8	0.15107334
233	0xbcbebdc6	-0.02328385
234	0x3d7d9247	0.06190708
235	0xbe459427	-0.19294797
236	0x3e458dd8	0.1929239
237	0xbd4255f9	-0.04744527
238	0xbd1a9fea	-0.037750162
239	0x3bbfb42f	0.005850337
240	0xbe19a64f	-0.15004848
241	0x3e10dc2a	0.14146486
242	0xbda20b4b	-0.0791231
243	0x3e68aab2	0.22721365
244	0xbcd37ead	-0.02581724
245	0xbdb1f2c8	-0.08688885
246	0x3dbca288	0.09210688
247	0xbe3cdd64	-0.18443829
248	0xb9848ae4	-0.00025280484
249	0xbd2664f6	-0.040623628
250	0x3d271138	0.040787905
251	0x3da40bc0	0.08010054
252	0xbe39155e	-0.18074557
253	0x3e929711	0.2863088
254	0x3e64fe7f	0.22362708
255	0x3d606f44	0.05479361

bias f4 [16]
0	0xbe2c50f9	-0.16827764
1	0x3d6fca69	0.058542643
2	0xbdb3a83a	-0.08772321
3	0x3d11406e	0.035461836
4	0x3d4d346c	0.05009882
5	0x3d6c6119	0.057709787
6	0x3e2218f9	0.15829839
7	0x3d1a0e78	0.037611455
8	0x3d3bc0a8	0.04583803
9	0x3dfe29f6	0.12410347
10	0x3d38a097	0.045075025
11	0x3e70a6d0	0.23501134
12	0xbda56de2	-0.08077599
13	0xbe4cfc39	-0.2001809
14	0xbd3285b2	-0.043584533
15	0x3e16ce38	0.14727104

running_mean f4 [16]
0	0xbe8c417e	-0.27393717
1	0x3d8cc0f1	0.06872738
2	0xbde53311	-0.11191381
3	0xbd9d1032	-0.07669105
4	0x3de310a0	0.11087155
5	0x3d6544eb	0.05597393
6	0x3d32825e	0.04358136
7	0xbd47984e	-0.048729233
8	0x3df9ae24	0.12191418
9	0x3d3876fc	0.045035347
10	0x3d831010	0.06399548
11	0x3d52cad0	0.05146295
12	0x3e96eca9	0.29477432
13	0xbeb3668e	-0.3503918
14	0xbe2926e4	-0.16518742
15	0xbe020ba9	-0.1269976

running_var f4 [16]
0	0x3ab3f88a	0.0013730687
1	0x3a9e89fc	0.0012095566
2	0x3a9e3068	0.001206887
3	0x3b169df5	0.0022982333
4	0x3a34bea8	0.0006894865
5	0x382435ee	3.9150873e-05
6	0x3acf7749	0.0015828396
7	0x3a120724	0.0005570522
8	0x39ecd28e	0.00045170303
9	0x39e1624e	0.00042988587
10	0x3a5eb8bf	0.0008496157
11	0x3ab90364	0.001411539
12	0x3bc3a745	0.005970868
13	0x3b0658df	0.0020499749
14	0x3b57c23f	0.0032922176
15	0x3b22ec10	0.0024859942

weight f4 [16]
0	0x3ec47b0f	0.38375136
1	0x3edd6936	0.43244332
2	0x3f5bcc0b	0.8585822
3	0x3f67dc17	0.90570205
4	0x3ea814f4	0.32828486
5	0x3e6ca1c9	0.23108591
6	0x3f00235e	0.50053966
7	0x3f52ba43	0.8231546
8	0x3f263cb6	0.6493639
9	0x3f042038	0.5161166
10	0x3e95e5fa	0.2927702
11	0x3eeafd18	0.4589622
12	0x3e6988af	0.22806047
13	0x3f600fdd	0.87524205
14	0x3f0ff544	0.5623362
15	0x3f6aa9a7	0.9166512

bias f4 [16]
0	0xbd9a14c9	-0.07523496
1	0x3bd92ac7	0.006627414
2	0xbe81a677	-0.25322315
3	0xbdeb9c67	-0.11504441
4	0xbdf7ad8c	-0.12093648
5	0xbe75ab21	-0.23991062
6	0x3d66a4fb	0.05630968
7	0xbdaf2bf2	-0.08553304
8	0xbe54716a	-0.20746389
9	0xbe14f7c1	-0.14547636
10	0x3cc49223	0.023995465
11	0xbde52c11	-0.111900456
12	0xbe190bec	-0.14945954
13	0xbdf07947	-0.11741882
14	0xbd661e72	-0.05618138
15	0x3d9e5938	0.07731861

weight f4 [32, 16, 5, 5]
0	0x3c4f1205	0.012638574
1	0x3dbcf00c	0.09225473
2	0xbe6a32d3	-0.2287095
3	0xbd7224a6	-0.059116982
4	0x3c664c7c	0.014056321
5	0xbdb89c8b	-0.09014233
6	0xbdb602c9	-0.0888725
7	0xbe059e9d	-0.13048787
8	0xbc2a56b8	-0.010396652
9	0x3d05aed9	0.03263745
10	0x3c7171cc	0.014736604
11	0xbbd9048c	-0.0066228565
12	0x3dde86c4	0.10865548
13	0x3df09936	0.11747973
14	0xbdc48a92	-0.09596743
15	0x3da017a1	0.07817007
16	0xbe862a5b	-0.2620419
17	0xbd024ce2	-0.031811602
18	0x3cd89afa	0.026441086
19	0xbd9b95a9	-0.07596905
20	0xbd0ac4a3	-0.033878934
21	0xbdb65113	-0.089021824
22	0xbd1320e3	-0.035920035
23	0xbdb6af60	-0.08920169
24	0xbdc5e395	-0.096625485
25	0xbd2f30fa	-0.042771317
26	0xbd3bf12d	-0.0458843
27	0x3cca4648	0.024691716
28	0x3d3961ae	0.04525917
29	0x3e4f47d5	0.20242245
30	0x3c23ac9d	0.009989885
31	0x3d308975	0.04309984
32	0x3ca5fc63	0.020261949
33	0x3cb0fe03	0.021605497
34	0xbcd605cf	-0.026125817
35	0x3d4a090e	0.04932504
36	0x3c2c1370	0.010502681
37	0xbd3e00f2	-0.04638762
38	0xbd4f01de	-0.05053889
39	0x3a85547d	0.0010172274
40	0x3c928f53	0.017890608
41	0x3c68727d	0.014187452
42	0x3dd668f1	0.10469235
43	0xbdae6401	-0.08515168
44	0x3ddb2dd3	0.107021
45	0xbd03bc65	-0.03216209
46	0x3c7fb26a	0.015606502
47	0xba685708	-0.00088630663
48	0xbdf6e3ac	-0.12055144
49	0x3c716f39	0.01473599
50	0x3d054aca	0.032542028
51	0x3e07d1c1	0.13263609
52	0xbd88c375	-0.066779055
53	0xbde81c07	-0.11333471
54	0xbc8d86df	-0.017276226
55	0xbd9dac93	-0.076989315
56	0x3d4e9591	0.050435606
57	0xbc746a60	-0.01491794
58	0xbd11ef3d	-0.035628546
59	0xbdf522df	-0.11969542
60	0xbd5a69c6	-0.05332353
61	0xbd85141b	-0.064979754
62	0x3dabe9f6	0.08394234
63	0x3cc5153e	0.02405798
64	0xbd49de3d	-0.04928421
65	0x3db7f4aa	0.08982213
66	0xbda79422	-0.08182551
67	0x3cd285e1	0.025698604
68	0xbcbb9ef6	-0.022902947
69	0xbe8ee307	-0.27907583
70	0xbd7663ad	-0.060153652
71	0xbdb34386	-0.087531134
72	0xbd9fb5b0	-0.07798326
73	0x3c1488be	0.009065805
74	0x3d325fb5	0.043548305
75	0x3cbb3527	0.022852493
76	0xbb806c97	-0.003919195
77	0xbcea5c2d	-0.028608406
78	0xbc71d10a	-0.014759311
79	0xbdfc97bf	-0.12333631
80	0xbc6a9cae	-0.014319582
81	0x3d43b2ae	0.047777824
82	0x3de56120	0.11200166
83	0x3d018e52	0.031629868
84	0xbd6f0902	-0.0583582
85	0xbc1b708d	-0.009487283
86	0xbc97a4d5	-0.018511215
87	0xbd827d5b	-0.06371566
88	0xbc1ec2ac	-0.009689968
89	0x3c8fb9e3	0.017544692
90	0x3d84312c	0.06454691
91	0x3c98b472	0.01864073
92	0xbd5006aa	-0.050787605
93	0xbc9fb5de	-0.0194959
94	0xbde6797d	-0.11253641
95	0xbd824f51	-0.06362785
96	0xbd0589f7	-0.032602277
97	0xbdcbb690	-0.099469304
98	0x3d99c0f7	0.07507508
99	0x3cefc804	0.02927018
100	0xbcff0a68	-0.031132892
101	0xbd0931a5	-0.03349461
102	0xbbd4fdbc	-0.006499974
103	0xbdb4d753	-0.08830132
104	0xbd813a07	-0.06309896
105	0xbde1ece1	-0.11031509
106	0xbd31c4fd	-0.043400753
107	0x3d88a09a	0.06671257
108	0xbdb0f361	-0.08640171
109	0x3d3caecd	0.04606514
110	0x3b9001e5	0.004394757
111	0xbd120047	-0.035644796
112	0xbd4e7455	-0.05040391
113	0xbd480219	-0.048830125
114	0xbe1676d5	-0.14693768
115	0xbb6ec762	-0.003643476
116	0xbd989308	-0.07449919
117	0x3d300546	0.04297378
118	0x3da1ec06	0.07906346
119	0xbd256a4f	-0.040384587
120	0xbd7a4b7c	-0.061107144
121	0xbd261704	-0.040549293
122	0x3dfe68f1	0.1242236
123	0x3dcda130	0.1004051
124	0xbdd17b08	-0.102285445
125	0xbd875e4b	-0.06609782
126	0xbccd2f9e	-0.02504712
127	0xbd575e11	-0.052579943
128	0xbe3ae6bf	-0.18252085
129	0x3dec4a31	0.115375884
130	0x3c424afc	0.011858698
131	0x3d291d06	0.041287445
132	0x3dc8cb3c	0.09804389
133	0x3d6bca32	0.057565875
134	0x3cacb267	0.021081163
135	0xbe1fd727	-0.15609418
136	0x3cd1ce6e	0.025611129
137	0x3cddc8cc	0.027073286
138	0xbd7f9b1a	-0.062403776
139	0x3a1e87f0	0.0006047478
140	0xbea5f546	-0.3241369
141	0xbddfcbdd	-0.10927556
142	0xbd0a6d9c	-0.033795938
143	0x3c5f9382	0.013646008
144	0xba00ecfb	-0.00049181253
145	0xbe43810e	-0.19092199
146	0xbd3c9fb8	-0.046050757
147	0xbdb48bea	-0.08815749
148	0xbdeff59a	-0.11716767
149	0x3db3d980	0.08781719
150	0xbd1f40ad	-0.03888004
151	0xbe0eb3d5	-0.13935788
152	0x3d871ba8	0.06597072
153	0xbdfe6055	-0.124207176
154	0x3c9dc980	0.019261122
155	0xbc346578	-0.01101052
156	0x3d673e25	0.05645575
157	0x3c24e99d	0.010065463
158	0xbe764984	-0.24051481
159	0xbce07624	-0.027400084
160	0x3c9f1b24	0.019422121
161	0x3db23ebd	0.08703373
162	0xbdf51d90	-0.11968529
163	0x3cc7f892	0.02441052
164	0xbd654bd8	-0.055980533
165	0x3d077a6a	0.033075728
166	0xbd25aefc	-0.04045008
167	0xbdac0fb6	-0.08401434
168	0x3d6cbd3d	0.05779766
169	0x3d5f4ff4	0.05451961
170	0xbc05505e	-0.008136837
171	0xbcd82564	-0.026385017
172	0xbdc45acf	-0.09587633
173	0xbd03736e	-0.032092504
174	0xbd217e52	-0.03942711
175	0x3df151e9	0.11783201
176	0x3be6909d	0.007036282
177	0xbd8efeb5	-0.06982175
178	0xbe23df7a	-0.16003218
179	0xbcad7ac4	-0.021176703
180	0xbd745e3e	-0.05966019
181	0xbdd498e1	-0.10380722
182	0x3d813c05	0.06310276
183	0xbe74aa62	-0.23893121
184	0xbd4933c2	-0.049121626
185	0xbdbdd116	-0.092683956
186	0xbd357f28	-0.04431072
187	0x3d9646c4	0.07337716
188	0x3c198d54	0.009372074
189	0x3b209e83	0.0024508543
190	0xbe190fe8	-0.14947474
191	0x3c563144	0.013073269
192	0x3ce7d43d	0.028299445
193	0x3d8c656e	0.06855284
194	0x3dc93ec4	0.09826425
195	0xbd958b10	-0.07301915
196	0xbdbe10f9	-0.09280581
197	0x3d23908a	0.039932765
198	0xbd78588d	-0.060631324
199	0x3ddc16d1	0.107465394
200	0xbcc3ff15	-0.023925344
201	0x3c1f24b9	0.009713345
202	0xbc53fc22	-0.012938531
203	0x3d72a94b	0.05924348
204	0x3e8152cd	0.25258484
205	0xbd05b08b	-0.032639068
206	0x3e08a1a4	0.13342911
207	0xbe071bfe	-0.13194272
208	0x3c2be8c3	0.010492506
209	0x3da5f3f2	0.081031695
210	0x3cf087ec	0.029361688
211	0xbce9fadd	-0.028562004
212	0xbd922000	-0.0713501
213	0x3d30a3b6	0.043124877
214	0xbd962ee0	-0.073331594
215	0xbd34aac8	-0.044108182
216	0x3d2176f5	0.039420087
217	0xbce4546a	-0.027872283
218	0x3ca87370	0.020562857
219	0xbe370a68	-0.17875063
220	0xbd58174a	-0.052756585
221	0xbd41fc4d	-0.047359753
222	0x3be145e2	0.0068747858
223	0xbd0f9650	-0.03505546
224	0xbe027239	-0.12738885
225	0xbd0f910e	-0.035050444
226	0x3d584b57	0.052806225
227	0x3d1566b8	0.036474913
228	0xbe00b6a3	-0.1256967
229	0xbc9a2db5	-0.018820623
230	0xbdeda9f2	-0.1160468
231	0x3da549f6	0.080707476
232	0xbdad91e1	-0.0847509
233	0xbd9b3169	-0.075777836
234	0x3d59eec1	0.05320621
235	0x3c5dbd99	0.013533973
236	0x3d188a30	0.03724116
237	0xbda2ab45	-0.07942823
238	0x3d2a52b2	0.04158277
239	0x3d8191d8	0.063266456
240	0xbe0cb094	-0.13739234
241	0xbc33e2a8	-0.010979332
242	0x3d339038	0.04383871
243	0x3c54bb29	0.012984076
244	0x3d9603b2	0.073249236
245	0xbe247de2	-0.16063645
246	0xbc102320	-0.008797437
247	0xbd76fb54	-0.06029828
248	0x3c0e1711	0.008672492
249	0x3d61f881	0.055168632
250	0x3d34f80f	0.04418188
251	0x3d71516e	0.058915548
252	0x3d0d2872	0.0344624
253	0xbd17c66b	-0.03705446
254	0xbdbe3e4c	-0.09289226
255	0xbd03dbf4	-0.032192186

bias f4 [32]
0	0xbbec2d32	-0.007207536
1	0xbc7df60b	-0.015500556
2	0x3d2e562d	0.042562652
3	0x3af5a7ae	0.0018741989
4	0x3ced493e	0.028965589
5	0x3d3d48c0	0.046211958
6	0xbc5470d5	-0.012966354
7	0xbcee19b0	-0.029064983
8	0x3b6fb333	0.0036575317
9	0xba1028d1	-0.0005499246
10	0x3ca4d31c	0.020120196
11	0xbcc37a1d	-0.02386194
12	0xbbf7ed03	-0.007566096
13	0x3d76bfef	0.060241636
14	0x3d593945	0.053033132
15	0x3cd83119	0.0263906
16	0x3c40c27a	0.011765117
17	0xbd8f01bc	-0.06982753
18	0x3afccf3a	0.0019287833
19	0x3d4786f7	0.048712697
20	0x3dec6706	0.11543088
21	0xbaa3383a	-0.001245267
22	0xbd9e13f2	-0.07718648
23	0x3cf76f3c	0.030204408
24	0x3ae40ac8	0.0017398233
25	0x3d5152c7	0.051104333
26	0xbc2a5ffb	-0.01039886
27	0xbc5862da	-0.013207162
28	0x3cd5a795	0.026080886
29	0x3d0da42c	0.034580395
30	0x3d5b8c66	0.05360069
31	0x3c93d5e7	0.018046333

running_mean f4 [32]
0	0xbeb2e808	-0.3494265
1	0x3e33c036	0.17553791
2	0xbe9370c7	-0.2879698
3	0x3d3a0996	0.045419298
4	0x3eb735dc	0.3578328
5	0xbf02339c	-0.5086
6	0x3f1f9434	0.62335515
7	0xbe2726f3	-0.16323452
8	0xbf4caf34	-0.7995484
9	0xbec2121d	-0.37904444
10	0x3d87f137	0.06637805
11	0x3d807f9d	0.0627434
12	0xbe142220	-0.14466143
13	0xbd9a260a	-0.075267866
14	0x3f1a4014	0.60254025
15	0x3f1d92e2	0.6155225
16	0xbe0bae50	-0.13640714
17	0xbcd7b4cc	-0.026331328
18	0xbe1e8007	-0.15478526
19	0xbe1742d8	-0.14771593
20	0x3db960e0	0.090516806
21	0xbd6e24fe	-0.058140747
22	0xbd86ea70	-0.06587684
23	0x3e2d3d6a	0.16917959
24	0xbf4b3a20	-0.79385567
25	0x3e1cd6fa	0.15316382
26	0x3d846064	0.064636976
27	0xbedc76df	-0.4305944
28	0x3ee0a5c5	0.43876472
29	0x3ea3b6c1	0.31975368
30	0x3e277626	0.16353664
31	0x3dd2da22	0.10295512

running_var f4 [32]
0	0x3e853959	0.26020315
1	0x3d2bf0d1	0.041977707
2	0x3ec15a7d	0.3776435
3	0x3ead99ba	0.33906347
4	0x3eda0c7c	0.4258765
5	0x3e90f6bf	0.28313252
6	0x3e8daed8	0.27672458
7	0x3e82581c	0.25457847
8	0x3f8b6922	1.0891459
9	0x3dafabc4	0.085776836
10	0x3efc694f	0.49299094
11	0x3e4a26c7	0.19741355
12	0x3de5fc90	0.11229813
13	0x3f4737f3	0.77819747
14	0x3f12c4b1	0.5733138
15	0x3dfd6bab	0.12374052
16	0x3d2b6d0e	0.04185205
17	0x3d00819a	0.031373598
18	0x3d09df0f	0.03365999
19	0x3e4af59c	0.19820255
20	0x3da95459	0.08268041
21	0x3ea092c9	0.31361988
22	0x3dea03fa	0.1142654
23	0x3ea02e35	0.31285253
24	0x3e46d176	0.1941584
25	0x3ef16282	0.47145468
26	0x3e311fb4	0.1729725
27	0x3e0aebd1	0.1356652
28	0x3e06e45f	0.13173054
29	0x3e13570c	0.14388674
30	0x3f3424d2	0.70368683
31	0x3f4505c3	0.76961917

weight f4 [32]
0	0x3e9fb350	0.31191492
1	0x3e268e53	0.1626523
2	0x3f1425b9	0.5787006
3	0x3f4e2a45	0.8053325
4	0x3f6ba648	0.920506
5	0x3f6345ba	0.8877827
6	0x3e3fa945	0.18716915
7	0x3ef2cde3	0.47422704
8	0x3f7804fb	0.968826
9	0x3f3966c0	0.7242241
10	0x3f34645c	0.70465636
11	0x3eb21d9e	0.3478822
12	0x3ed469a2	0.4148684
13	0x3f4fff38	0.8124881
14	0x3f14c249	0.58108956
15	0x3ddd99a8	0.10820323
16	0x3f851c51	1.0399266
17	0x3e7ec70e	0.24880621
18	0x3f03ca54	0.51480603
19	0x3f196239	0.599155
20	0x3e83c7a0	0.2573824
21	0x3f4d58e4	0.8021376
22	0x3e946500	0.28983307
23	0x3e620fe0	0.22076368
24	0x3f3bca0b	0.7335517
25	0x3f2cef15	0.6755231
26	0x3eabe33f	0.33571813
27	0x3f6bf26f	0.921668
28	0x3ecbdb3e	0.39815706
29	0x3e3f2153	0.18665056
30	0x3f355a59	0.70840985
31	0x3f3d04a5	0.7383521

bias f4 [32]
0	0x3d52cd79	0.051465485
1	0xbe0aef54	-0.13567859
2	0x3d23f770	0.040030897
3	0xbdb816e9	-0.08988745
4	0xbe377fef	-0.17919897
5	0x3dab8a50	0.083759904
6	0xbdf2df5d	-0.118590094
7	0xbd1535d3	-0.036428284
8	0x3e03da6b	0.12876289
9	0xbe06cbab	-0.1316363
10	0x3d615122	0.055009015
11	0xbdeeed96	-0.1166641
12	0xbd603e1e	-0.05474674
13	0x3d59a7e3	0.053138625
14	0xbe7ed921	-0.24887516
15	0xbd99d7d6	-0.075118706
16	0xbe7c21c7	-0.2462226
17	0xbe33ca3f	-0.1755762
18	0xbe916a52	-0.28401428
19	0xbe2962bc	-0.1654157
20	0xbd25f898	-0.04052028
21	0x3d5b0c9d	0.053478826
22	0xbd1bcfdb	-0.038040023
23	0x3b0b11f6	0.0021220422
24	0x3e06d914	0.13168746
25	0xbe15bffe	-0.1462402
26	0xbdab2c04	-0.08358005
27	0x3b1d28df	0.002398066
28	0xbd002193	-0.03128202
29	0xbe13b342	-0.1442385
30	0xbe89fa4a	-0.26948768
31	0xbd9f0b53	-0.07765832

weight f4 [32, 32, 5, 5]
0	0xbd890893	-0.066910885
1	0xbe1cc419	-0.1530918
2	0xbc8ae024	-0.016952582
3	0xbc26c707	-0.010179288
4	0xbcea72cc	-0.028619193
5	0x3e10e622	0.14150289
6	0xbdfa1ea3	-0.12212875
7	0x3b053af2	0.0020329324
8	0xbe0af6cb	-0.13570707
9	0x3cbb5063	0.02286548
10	0x3d37f5e6	0.04491224
11	0xbcac70dc	-0.02104991
12	0xbcb0a5c6	-0.021563422
13	0xbdcdb3ad	-0.10044036
14	0x3d4b3542	0.049611337
15	0xbdb4f8c5	-0.088365115
16	0x3e0f7f20	0.14013338
17	0xbd77366d	-0.06035464
18	0xbe0ee1b1	-0.13953282
19	0xbdd2ac3b	-0.102867566
20	0x3d84a30f	0.064764135
21	0xbbe7023b	-0.0070498264
22	0xbb087045	-0.002081887
23	0x3d8e4cbb	0.06948229
24	0xbd83d217	-0.06436556
25	0xbe526c26	-0.20549068
26	0xbd8fdf3c	-0.070250005
27	0xbdc9d4e5	-0.098550595
28	0xbca7167f	-0.02039647
29	0x3d7981e5	0.060914893
30	0xbd04eae4	-0.03245057
31	0xbd0df592	-0.034658022
32	0xbde5b63b	-0.11216398
33	0xba86ea65	-0.0010293244
34	0x3d18870f	0.037238177
35	0xbeb4da7a	-0.35322934
36	0x3d38ef7a	0.045150258
37	0xbc1b8eb9	-0.009494477
38	0xbaa6895b	-0.001270573
39	0x3de13fd2	0.10998501
40	0x3c7e0837	0.015504888
41	0x3da5ef8f	0.08102333
42	0xbd88dc48	-0.0668264
43	0x3d035b10	0.032069266
44	0x3dd2d884	0.10295203
45	0x3d697868	0.056999594
46	0xbd0e29a5	-0.034707684
47	0xbcd6cd78	-0.026221022
48	0xbc153897	-0.00910773
49	0x3e96d4f6	0.2945935
50	0x3c2cdce5	0.010550712
51	0xbde2c446	-0.110725924
52	0x3dc2573d	0.09489296
53	0x3c795d00	0.015219927
54	0x3e2c3874	0.1681841
55	0xbc56ca91	-0.013109819
56	0x3de08312	0.109625
57	0x3d9ac0ee	0.0755633
58	0xbd83454a	-0.064097
59	0x3cdf2b6f	0.02724239
60	0xbdc213e1	-0.09476448
61	0xbbaedd19	-0.0053364155
62	0x3d8c594c	0.068529695
63	0x3bcdca77	0.006280239
64	0xbdb86611	-0.090038426
65	0xbdc9ac0c	-0.098472685
66	0x3b8335ca	0.004004215
67	0x3d85bfcd	0.06530724
68	0x3d8889d4	0.06666914
69	0x3c384d83	0.011248949
70	0x3c2a1a9b	0.01038232
71	0x3cbb99e3	0.022900527
72	0x3d8e260a	0.06940849
73	0xbdc36441	-0.09540606
74	0xbcedd7fa	-0.02903365
75	0x3d5faa56	0.054605804
76	0x3de6dd94	0.112727314
77	0xbdb33ab5	-0.08751432
78	0x3dac1d3a	0.08404012
79	0xbc898218	-0.016785666
80	0x3c158ba6	0.009127533
81	0xbca20715	-0.019778768
82	0xbdd3baea	-0.103383854
83	0xbbf00c21	-0.0073256646
84	0x3cc720fd	0.024307722
85	0xbe367f5b	-0.1782202
86	0xbd93c324	-0.072149545
87	0x3c38e9de	0.011286227
88	0x3c8c325a	0.017113853
89	0xbd4e4d46	-0.050366662
90	0x3cf09f93	0.029372966
91	0x3d23bce3	0.03997506
92	0x3c012f3e	0.007884799
93	0x3d2ea96d	0.042642046
94	0x3caee487	0.021349205
95	0xbc08c1a9	-0.008346953
96	0xbd74a456	-0.059727035
97	0xbc20d6e6	-0.009816861
98	0xbdb0cf8c	-0.086333364
99	0xbc80aef9	-0.015708433
100	0xbdc2aa93	-0.09505191
101	0x3d33d929	0.043908272
102	0xbba9a3b3	-0.005176985
103	0x3d57ccf3	0.05268569
104	0x3d43dac2	0.047816046
105	0x3ca2f9d3	0.019894516
106	0xbc4c025a	-0.0124517325
107	0x3ba599e6	0.0050537465
108	0xbdce30bd	-0.1006789
109	0x3cf5ee76	0.030020934
110	0xbe2ce20b	-0.16883104
111	0xbe52f9e5	-0.2060314
112	0x3d0b8f48	0.03407219
113	0xbc12be31	-0.008956478
114	0x3cc8d549	0.024515765
115	0xbcca48a4	-0.02469284
116	0xbdf8c150	-0.121462464
117	0xbd12b997	-0.035821524
118	0x3d042fea	0.032272257
119	0x3e14dd92	0.14537647
120	0x3c2b3a52	0.010450916
121	0xbd5df0c3	-0.054184686
122	0x3b1f0da6	0.002426961
123	0xbd0be399	-0.0341526
124	0x3cf8efe0	0.030387819
125	0x3aa0c7f2	0.001226662
126	0xbdb8c6ca	-0.09022291
127	0xbdcadfbe	-0.09905957
128	0xbe3a28d4	-0.18179637
129	0xbdf87515	-0.121317066
130	0x3e4f878d	0.20266552
131	0x3a2c0d1a	0.00065632316
132	0xbd8d7234	-0.06906548
133	0xbe4285ef	-0.18996404
134	0xbe1b1f8f	-0.15148757
135	0xbbb6eb6e	-0.0055822646
136	0xbe08afab	-0.13348262
137	0xbd8a426c	-0.0675095
138	0xbc3f99b4	-0.0116943605
139	0xbdb664c6	-0.0890594
140	0x3da65b77	0.08122914
141	0x3d8e7d01	0.06957436
142	0xbd93618a	-0.071963385
143	0xbdfb0687	-0.12257104
144	0xbe52580a	-0.20541397
145	0xbc26590c	-0.010153066
146	0xbcf61527	-0.030039383
147	0xbd0ac241	-0.03387666
148	0xb8c093b9	-9.182789e-05
149	0x3bc7d004	0.0060977954
150	0xbe15f1b4	-0.14642984
151	0xbb8cefff	-0.0043010707
152	0xbd0eee70	-0.03489536
153	0xbd1ed35d	-0.03877579
154	0xbbf37d23	-0.007430689
155	0x3a0d1f42	0.0005383381
156	0xbdb6f081	-0.08932591
157	0xbd4f28ee	-0.050576143
158	0x3d512d65	0.051068682
159	0x3d6833b1	0.05668992
160	0xbdeece49	-0.116604395
161	0xbb864b52	-0.0040983343
162	0x3ca7648d	0.020433689
163	0xbd2cf659	-0.042227123
164	0x3e04ef52	0.12981918
165	0xbe4e3869	-0.20138706
166	0xbd8937f9	-0.06700129
167	0xbd65408d	-0.055969764
168	0x3d8f851c	0.070078105
169	0x3da7d1d2	0.08194317
170	0xbccbe3c9	-0.02488889
171	0xbd2d1de7	-0.042264845
172	0x3d22805a	0.039673187
173	0xbccf56dd	-0.025309974
174	0x3dcebef2	0.10095014
175	0xbd0c9f8e	-0.03433185
176	0xbb80efd4	-0.0039348397
177	0xbdc40dd3	-0.09572949
178	0x3d5001ae	0.050782852
179	0xbcb187b6	-0.021671157
180	0x3d969b55	0.07353846
181	0x3cb63fdc	0.022247247
182	0x3e1ae036	0.15124592
183	0x3da977df	0.08274817
184	0x3d4f9246	0.050676607
185	0xbd9c2d91	-0.076258786
186	0xbce34413	-0.027742421
187	0xbd07c2ec	-0.033144876
188	0x3df35df1	0.11883152
189	0x3e0d3401	0.13789369
190	0xbe64b340	-0.22334003
191	0xbaa00560	-0.0012208633
192	0xbcad71c6	-0.021172415
193	0x3d6a0696	0.057135187
194	0xbd8bf84a	-0.06834467
195	0x3cbc2b02	0.022969726
196	0x3d36ad8c	0.0445991
197	0x3de4ad3f	0.111658566
198	0x3d6440e3	0.055725943
199	0x3d30687c	0.043068394
200	0x3daa25ec	0.08308014
201	0xbd54d634	-0.051962093
202	0xbda096c9	-0.0784126
203	0xbdb5a973	-0.088702105
204	0xbe08d32e	-0.13361809
205	0xbda3e65b	-0.08002921
206	0xbd95aa82	-0.073079124
207	0xbc2013a3	-0.009770307
208	0xbd7ed9b0	-0.06221932
209	0xbdf0d845	-0.1176
210	0x3de9df94	0.11419597
211	0x3d3de03b	0.04635642
212	0xbc97d995	-0.018536368
213	0xbd63efc5	-0.055648584
214	0xbe31c312	-0.1735957
215	0x3d8f3438	0.06992382
216	0xbdaa5193	-0.0831634
217	0xbd92e62f	-0.0717281
218	0xbe2c3f71	-0.16821076
219	0xbe621e5b	-0.22081892
220	0xbcc74426	-0.024324488
221	0xbd9bfffc	-0.076171845
222	0xbd394e30	-0.04524058
223	0xbdf4be56	-0.11950366
224	0x3d3f45ac	0.046697304
225	0xbdc29523	-0.09501102
226	0x3d02efbd	0.031966913
227	0x3cbfb385	0.023401031
228	0x3c5ea403	0.013588908
229	0x3cbf1759	0.023326563
230	0xbe1e0290	-0.15430665
231	0xbd5381b0	-0.05163735
232	0xbc897ada	-0.016782213
233	0xbc9d5abb	-0.019208303
234	0xbcd9284d	-0.026508475
235	0x3c45c898	0.012071751
236	0x3d876a9d	0.06612132
237	0xbd93f93a	-0.072252706
238	0xbd7fc2da	-0.062441684
239	0x3d724204	0.05914499
240	0x3dc7d789	0.09757907
241	0xbd983888	-0.074326575
242	0x3d8eb63e	0.06968354
243	0x3d10c10d	0.035340358
244	0x3e13c086	0.1442891
245	0xbe2dbbe5	-0.16966207
246	0xbcf74d39	-0.03018819
247	0x3d0ccdcb	0.034375947
248	0x3dea27ca	0.114333704
249	0x3e42083f	0.18948458
250	0x3d494fc6	0.049148344
251	0xbd0aa937	-0.033852782
252	0xbcea82c6	-0.02862681
253	0xbccaa371	-0.024736138
254	0xbda0f9e8	-0.07860166
255	0xbdeadaae	-0.11467491

bias f4 [32]
0	0xbd798618	-0.060918897
1	0xb882b690	-6.232888e-05
2	0x3d621d9c	0.05520402
3	0xbb13014f	-0.00224312
4	0xbcc3df15	-0.023910085
5	0xbbedcb7e	-0.007256924
6	0x3cdee65d	0.027209455
7	0xbd0d0e20	-0.0344373
8	0x3ca54ed1	0.020179184
9	0xbc74c7b1	-0.014940188
10	0x3d2a85a4	0.041631356
11	0xbd015d34	-0.031583026
12	0x3d5c4af3	0.053782415
13	0xbc6786f6	-0.014131298
14	0x3cbf72f6	0.023370247
15	0x3cb04364	0.02151651
16	0xbc29e160	-0.010368675
17	0xbcac50ce	-0.021034624
18	0xbd18c247	-0.037294652
19	0xbc39433d	-0.011307535
20	0xbbf5cd65	-0.0075012916
21	0xbcf808b7	-0.030277593
22	0x3c1f985e	0.009740917
23	0x3c9773b3	0.018487787
24	0xbcc9ef9b	-0.024650386
25	0x3c34c56d	0.011033398
26	0x3c03f13e	0.008053122
27	0x3cf7d22b	0.030251583
28	0xbd2e7aee	-0.042597704
29	0x3ccbe56c	0.02488967
30	0xbd4c0b05	-0.049815197
31	0xbc834b71	-0.016027184

running_mean f4 [32]
0	0xbfe327df	-1.7746543
1	0xbf80dc30	-1.0067196
2	0xbf2e5951	-0.68105036
3	0xbfaf4d87	-1.3695534
4	0xbf1700ea	-0.5898577
5	0xbe96c113	-0.2944418
6	0x3fff7fcd	1.9960877
7	0xbf4a3b45	-0.7899669
8	0x3e04cb8d	0.12968273
9	0xc031f91c	-2.7808294
10	0xbf0f7c99	-0.56049496
11	0xbde0cc5d	-0.10976479
12	0xbf7a3061	-0.9773007
13	0xbc79fb8e	-0.015257729
14	0x3eadd844	0.3395406
15	0xbef6c590	-0.48197603
16	0xbf99b51b	-1.2008394
17	0xbf37eb4f	-0.7184343
18	0xbf244cb0	-0.64179516
19	0xbe32c926	-0.17459545
20	0x3e2038b3	0.15646629
21	0x3f8e7fb5	1.1132723
22	0xbfa16d31	-1.2611448
23	0x3d3bb2d6	0.045824848
24	0x3f80ccbf	1.0062484
25	0xbe6c40ef	-0.23071645
26	0xbf8620ef	-1.04788
27	0xbeaab8c3	-0.33344087
28	0xbeace342	-0.33767134
29	0x3e7c6a12	0.24649838
30	0xbde5d4f7	-0.112222604
31	0xbf9f9754	-1.2468057

running_var f4 [32]
0	0x3f44ecd8	0.76923895
1	0x40a76b0a	5.2318163
2	0x41070fe8	8.441383
3	0x3fba936d	1.4576241
4	0x3f3119da	0.6918007
5	0x40b7c13a	5.742337
6	0x409f4de1	4.9782567
7	0x409fe4ac	4.996664
8	0x4122c18e	10.172255
9	0x40e6857e	7.2037954
10	0x3efec544	0.49759877
11	0x3fcbb1cb	1.5913633
12	0x3fe3d353	1.7798866
13	0x3b0420bc	0.0020161113
14	0x40a43170	5.131035
15	0x3fa6ba2d	1.3025566
16	0x401f470a	2.4887109
17	0x405d11fc	3.4542227
18	0x405a0288	3.4064045
19	0x40a25bb5	5.0736947
20	0x401e537e	2.473846
21	0x3f39d0c1	0.7258416
22	0x409c9086	4.892642
23	0x3fb3b7e1	1.404049
24	0x412149dc	10.080532
25	0x4097e13e	4.7462454
26	0x401fe990	2.4986305
27	0x4083fa4c	4.124304
28	0x3fd5d6f2	1.6706221
29	0x3f0b472f	0.5440549
30	0x4009dd0a	2.1541162
31	0x40b4af35	5.6463876

weight f4 [32]
0	0x3ee21720	0.44158268
1	0x3ecc4a53	0.39900455
2	0x3eda6209	0.4265292
3	0x3ea07b53	0.3134409
4	0x3f35b7b6	0.70983446
5	0x3f3f690e	0.74769676
6	0x3f810e1c	1.0082431
7	0x3ec388a9	0.381902
8	0x3f87112a	1.0552113
9	0x3f4ce144	0.8003123
10	0x3e93593d	0.2877902
11	0x3ead3489	0.33829144
12	0x3f1e3512	0.6179973
13	0x37d7a0b0	2.5704823e-05
14	0x3f4d37bf	0.80163187
15	0x3e210b1e	0.15726897
16	0x3f1a938f	0.60381407
17	0x3e8ca5f8	0.27470374
18	0x3eef1bad	0.46700802
19	0x3f1b3c38	0.6063876
20	0x3ea4a34c	0.32155836
21	0x3f5eb158	0.86989355
22	0x3e5abb94	0.21360618
23	0x3e894a1a	0.26814348
24	0x3f75ccc9	0.960156
25	0x3f6fecba	0.9372059
26	0x3f29cfa1	0.6633244
27	0x3f14f0a3	0.5817968
28	0x3f7e9829	0.9945093
29	0x3e5b73a3	0.2143083
30	0x3f597b85	0.849541
31	0x3f172b7a	0.59050715

bias f4 [32]
0	0xbe902c05	-0.28158584
1	0x3c1c2109	0.009529361
2	0x3d0ad674	0.033895925
3	0x3d68bd1e	0.05682098
4	0xbea34a18	-0.31892467
5	0x3ce5b02d	0.028038109
6	0xbd1132a4	-0.035448685
7	0x3c8fd91d	0.017559582
8	0x3e1d0ee2	0.15337709
9	0xbd685269	-0.056719217
10	0x3d2f8232	0.042848773
11	0x3d5b98ef	0.053612646
12	0x3d584d0c	0.052807853
13	0xbad01740	-0.001587607
14	0x3d53bbcb	0.051692765
15	0x3c27b109	0.01023508
16	0xbe6ec5fa	-0.2331771
17	0x3d2f188a	0.04274801
18	0x3dafdc03	0.08586886
19	0x3dd9eb7e	0.1064062
20	0x3d1a97fd	0.037742604
21	0xbe1573a3	-0.14594893
22	0x3d35b577	0.04436251
23	0x3d29c972	0.04145188
24	0x3d5e9e0b	0.05434994
25	0x3cb05019	0.021522569
26	0xbe65ea47	-0.22452651
27	0xbe67e214	-0.22644836
28	0xbc957af9	-0.018247114
29	0xbd2085c5	-0.039190073
30	0xbc94e41a	-0.018175174
31	0xbe6d731d	-0.23188443

weight f4 [3, 1536]
0	0x3ce31a25	0.027722428
1	0x3ba8e387	0.0051540765
2	0xbcb381e8	-0.02191253
3	0x3d426e75	0.04746862
4	0xbd516e5f	-0.05113065
5	0xbc19ab78	-0.00937926
6	0x3cb9dd33	0.022688484
7	0xbc36b3c7	-0.011151261
8	0x3cf1a2cd	0.029496575
9	0xbd3bff12	-0.04589755
10	0xbcf317b5	-0.02967439
11	0xbc1a9993	-0.009436029
12	0x3de2788c	0.11058149
13	0x3af4bc7e	0.0018671898
14	0xbce1e7f0	-0.027576417
15	0xbc0b876e	-0.008516176
16	0xbcbd8590	-0.023134977
17	0xbb9c1d0f	-0.0047642062
18	0x3dd807bc	0.1054835
19	0x3c99ce44	0.018775113
20	0xbcf3624c	-0.029709958
21	0xbcc6aef3	-0.024253344
22	0x3c988544	0.018618234
23	0xbc4c8d98	-0.01248493
24	0xbd2892fd	-0.041155804
25	0x3bdc1ca1	0.00671728
26	0xbbb08e72	-0.0053880746
27	0x3b117910	0.0022197403
28	0x3cf17444	0.029474385
29	0x3d1e5438	0.038654536
30	0xbe0057f7	-0.12533556
31	0x3d7f05ff	0.062261578
32	0x3cc72b7a	0.024312723
33	0xbb8dfb17	-0.0043329108
34	0x3ce72472	0.02821562
35	0x3d06c83f	0.032905813
36	0x3d5048e0	0.05085075
37	0x3be3e0a6	0.0069542704
38	0xbd3a493b	-0.045479994
39	0x3d8cb102	0.06869699
40	0x3db6be11	0.08922971
41	0x3d1a1d2e	0.037625484
42	0x3e93f8f4	0.28900874
43	0x3d57280c	0.052528426
44	0x3e7c7d1a	0.24657097
45	0xbda36658	-0.07978505
46	0xbd20c332	-0.039248653
47	0x3e96b780	0.29436874
48	0xbe794dfa	-0.24346152
49	0x3e3110e2	0.17291597
50	0xbca2355e	-0.019800838
51	0xbd215a89	-0.03939298
52	0x3dd06f8d	0.101775266
53	0x3b99e3e8	0.004696358
54	0x3c1490fb	0.009067769
55	0xbc8b7f38	-0.017028436
56	0x3d06abf4	0.03287883
57	0xbd67d61c	-0.056600675
58	0x3dcacd83	0.099024795
59	0xbc7795aa	-0.015111366
60	0x3d282546	0.04105117
61	0x3d7f3895	0.06230982
62	0xbbd3abd5	-0.006459693
63	0x3d0a06b3	0.033697795
64	0x3cc895bc	0.024485461
65	0xbd8d96cf	-0.0691353
66	0xbdafa5b5	-0.08576528
67	0x3d2c1927	0.042016175
68	0x3d05927a	0.032610394
69	0x3d4869b8	0.048928946
70	0xbd25e830	-0.040504634
71	0x3ca1b836	0.019741159
72	0x3d4bf9de	0.04979884
73	0x3d7fa89e	0.062416665
74	0x3d373ab2	0.04473371
75	0x3c9a6929	0.018848972
76	0xbcf3e27a	-0.029771078
77	0x3df1ee6d	0.11813054
78	0x3d06822e	0.032838993
79	0x3d6a9ee7	0.057280447
80	0x3e3aa367	0.18226396
81	0x3e4d0bde	0.20024058
82	0xbdf12ca3	-0.11776092
83	0xbca89694	-0.020579614
84	0x3e149c6e	0.14512798
85	0x3d1a45c5	0.037664194
86	0x3d978ea5	0.07400254
87	0x3cb4e205	0.02208043
88	0x3dc03070	0.09384239
89	0xbdb44ef4	-0.088041216
90	0xbe30bfc4	-0.17260653
91	0x3e2a3f19	0.16625632
92	0xbd2033c9	-0.039111886
93	0x3de8e54b	0.11371859
94	0x3e0b8eed	0.1362874
95	0x3cf4ffd3	0.029907143
96	0x3d9aa605	0.07551197
97	0x3d3463bb	0.044040423
98	0xbc325733	-0.010885048
99	0x3cb4b749	0.022060053
100	0x3c6c5bf9	0.014426225
101	0x3d20eb84	0.039287105
102	0x3d3a269e	0.045446984
103	0x3dbe5b08	0.092947066
104	0x3cec63f4	0.028856255
105	0xbd1fb58b	-0.038991492
106	0xbc448035	-0.011993458
107	0xbd324b35	-0.043528754
108	0x3dd78c69	0.10524828
109	0x3d316c8b	0.043316405
110	0x3da56208	0.080753386
111	0xbb360db0	-0.0027779154
112	0xbb8bd1af	-0.0042669396
113	0xbdc65ed2	-0.09686054
114	0x3e04db9b	0.12974398
115	0x3db7c28a	0.08972652
116	0x3c8cb912	0.017178092
117	0x3d1308c7	0.035897043
118	0xbd9cdc09	-0.07659156
119	0xbd163e89	-0.036680732
120	0x3e47efe7	0.19525109
121	0xbbcd7e3e	-0.0062711528
122	0x3da42a25	0.08015851
123	0x3c577c4f	0.013152196
124	0xbcfe9589	-0.031077163
125	0xbd1a9e96	-0.037748896
126	0x3e0bc152	0.13647965
127	0x3d3b9e78	0.045805424
128	0x3d636053	0.055511784
129	0x3e0e018c	0.13867778
130	0xbd71406d	-0.05889933
131	0xbb3390d2	-0.0027399552
132	0x3e53f3b9	0.20698442
133	0x3da2fee8	0.07958776
134	0x3cd97f45	0.026549945
135	0x3d3faa84	0.046793476
136	0xbd631cd8	-0.05544743
137	0xbdd6a289	-0.1048022
138	0x3de3f4b7	0.1113066
139	0xbcb078e5	-0.021542022
140	0xbcbae23b	-0.022812953
141	0xbd1474b8	-0.036244124
142	0x3b95bcd3	0.0045696287
143	0xbc80e1b7	-0.01573263
144	0xbe1cc764	-0.15310436
145	0x3dcb1544	0.099161655
146	0x3d0a9231	0.033830825
147	0xbd58dc41	-0.052944425
148	0xbd571dc4	-0.05251862
149	0x3e4d6d3b	0.200612
150	0x3d30a41f	0.043125268
151	0xbc00ef00	-0.007869482
152	0x3dbe6d7b	0.092982255
153	0x3d00e81e	0.031471364
154	0x3cea7894	0.02862195
155	0xbddeabd4	-0.10872617
156	0x3e61d770	0.22054839
157	0x3d10164c	0.035177514
158	0x3cfcdfdc	0.030868463
159	0x3d0794da	0.03310094
160	0x3db477be	0.088119015
161	0xbd5d0bf1	-0.053966466
162	0x3d369b89	0.044581924
163	0x3d938661	0.07203365
164	0xbcd8f570	-0.026484221
165	0x3e1b5d72	0.15172365
166	0x3cc8c011	0.024505647
167	0x3ce0e54a	0.027453084
168	0x3e2dd61a	0.16976205
169	0xbd0dc8f3	-0.03461547
170	0x3c13028a	0.008972773
171	0x3e0cfd56	0.13768515
172	0xbc420f3b	-0.011844452
173	0x3bd69385	0.0065483474
174	0x3e129e92	0.14318302
175	0x3e1f318f	0.15546249
176	0x3e0d7aa0	0.13816309
177	0x3da6cdd8	0.0814473
178	0xbe78f7d8	-0.24313295
179	0x3d86a3a4	0.06574181
180	0x3e85ad08	0.26108575
181	0x3dd36fca	0.103240564
182	0xbd2f3dd2	-0.042783566
183	0x3d72448f	0.059147414
184	0x3c104198	0.008804701
185	0xbd639b44	-0.055567995
186	0x3e69765e	0.2279906
187	0x3d1a7b46	0.03771522
188	0x3d2bdc1f	0.04195797
189	0x3cecc7d5	0.028903881
190	0x3d30064c	0.042974755
191	0x3d8fe53d	0.070261456
192	0xbdb5dff0	-0.08880603
193	0x3c15ad03	0.0091354875
194	0x3d2b8731	0.041876975
195	0x3c408ba1	0.01175204
196	0xbd0898e8	-0.033348948
197	0x3d583f35	0.052794654
198	0xbbc1e065	-0.0059166425
199	0x3d64137a	0.055682637
200	0x3c86bf68	0.016448691
201	0xbac9e2d3	-0.0015402682
202	0x3c6aa11c	0.014320638
203	0xbd00a114	-0.031403616
204	0xbccb0922	-0.024784628
205	0xbd808be6	-0.062766835
206	0xbce3e3cd	-0.027818585
207	0xbd39b07a	-0.045334317
208	0x3d3445ce	0.044011883
209	0xbcf55f68	-0.02995272
210	0xbc90b660	-0.017665088
211	0x3cbcf34f	0.023065237
212	0xbcfb77ea	-0.030696828
213	0x3cc46997	0.02397613
214	0xbcac356d	-0.02102157
215	0xbcba9a5c	-0.022778682
216	0x3c9b9a40	0.01899445
217	0x3b2a2f56	0.0025968156
218	0x3d5101dd	0.051027168
219	0xbb8078ee	-0.003920666
220	0x3d266ad9	0.04062924
221	0xbd3e0a88	-0.046396762
222	0x3d8af92d	0.06785808
223	0xbdad9526	-0.084757134
224	0x3d80acef	0.062829845
225	0x3da95f06	0.082700774
226	0x3d3180c3	0.043335687
227	0xbd84d2a8	-0.06485492
228	0x3ddc7edc	0.10766384
229	0xbd85ed9c	-0.06539461
230	0xbd18b57d	-0.037282456
231	0xbca3db89	-0.020002143
232	0x3bfe0816	0.0077524288
233	0x3cec2fda	0.028831411
234	0x3d910e30	0.07082784
235	0x3d57c4ef	0.052678045
236	0xbe62809f	-0.22119378
237	0x3d81f366	0.06345253
238	0xbcf40292	-0.029786382
239	0xbc48a37f	-0.012246012
240	0x3e198f5a	0.1499609
241	0x3d18a294	0.03726442
242	0x3d57cb0e	0.052683882
243	0x3d3c31e8	0.04594603
244	0xbd0aa74a	-0.033850946
245	0xbdc4ef03	-0.096159
246	0x3ac15e89	0.0014752905
247	0x3d5f241d	0.0544778
248	0xbc85da67	-0.016339494
249	0xbd1cca07	-0.038278606
250	0xbcf01798	-0.029308125
251	0xbc950ebb	-0.0181955
252	0x3d5619e0	0.05227077
253	0xbc08f132	-0.008358287
254	0x3bf0724a	0.007337843
255	0xbd3de9b4	-0.046365455

bias f4 [3]
0	0x3d779b58	0.06045088
1	0x3d0d3297	0.034472074
2	0x3cbba680	0.022906542
