dev/pong/optimized/prefetched/pong_optimized_100.pth (torch_old, 191804 bytes, 20 tensors)

weight f4 [16, 1, 5, 5]
0	0x3d6478b5	0.055779178
1	0x3d48aeb1	0.048994724
2	0xbe51d057	-0.20489632
3	0x3e41833d	0.1889772
4	0xbc473347	-0.012158222
5	0x3e4b2573	0.19838504
6	0x3db054c3	0.08609917
7	0xbe5b9a68	-0.2144562
8	0xbdeb5c9d	-0.11492274
9	0x3e3873c3	0.1801291
10	0xbe112e9e	-0.1417794
11	0xbdd06d19	-0.10177059
12	0xbcae4473	-0.021272874
13	0x3d2d8513	0.042363238
14	0x3e356a8f	0.1771643
15	0xbe3b4437	-0.1828774
16	0x3dfdc044	0.123901874
17	0xbdaffe99	-0.085934825
18	0x3c996bd7	0.01872818
19	0xbddab252	-0.10678543
20	0xbe0a023a	-0.13477412
21	0x3e007aca	0.1254684
22	0x3d96c893	0.07362475
23	0x3d7bd3f5	0.061481435
24	0x3d88553c	0.06656882
25	0xbd528be1	-0.05140293
26	0x3d243781	0.040091995
27	0xbe085cea	-0.13316694
28	0xbe30b1a8	-0.1725527
29	0x3d29ceff	0.041457172
30	0x3c226832	0.009912537
31	0xbe480d95	-0.19536431
32	0x3dec2e68	0.11532289
33	0xbc7f7b4e	-0.015593363
34	0x3da50cf7	0.080591135
35	0xbd9ab1d8	-0.07553452
36	0x3d47ef1b	0.048812013
37	0x3cea6628	0.028613165
38	0xbddd4165	-0.10803489
39	0x3d9cc1b1	0.07654131
40	0xbcada412	-0.021196399
41	0x3e73c3fb	0.2380523
42	0xbd82753d	-0.06370018
43	0x3e0a6061	0.13513328
44	0x3e18b1ad	0.14911528
45	0x3d308ec7	0.043104913
46	0x3ced4ecd	0.02896824
47	0xbd0ad653	-0.0338958
48	0xbe21591a	-0.15756646
49	0x3df005d5	0.11719862
50	0x3e2241e7	0.15845452
51	0x3e2ef140	0.17084217
52	0xbe50460e	-0.20339224
53	0xbe2078a1	-0.15671016
54	0x3db28c9e	0.08718227
55	0x3d5a6b91	0.05332524
56	0x3de6f2ee	0.11276804
57	0x3e3139d9	0.17307223
58	0xbe1339fa	-0.14377585
59	0xbe277519	-0.16353263
60	0xbe24ccf9	-0.16093816
61	0xbe05e62d	-0.13076086
62	0xbe04d796	-0.12972865
63	0x3e2a299a	0.16617432
64	0xbd9692f3	-0.07352247
65	0xbe10b716	-0.14132342
66	0xbe35d5ed	-0.17757387
67	0x3e43aa4b	0.1910793
68	0x3e41125f	0.18854664
69	0xbd9c40b0	-0.07629526
70	0xbdb5680c	-0.08857736
71	0x3e336056	0.17517218
72	0xbdf6e34c	-0.12055072
73	0xbd1e142a	-0.03859345
74	0x3e282191	0.16419055
75	0x3db84203	0.08996966
76	0xbd89b99d	-0.06724856
77	0xbe0b3212	-0.13593319
78	0xbd8ac25a	-0.06775351
79	0x3dd49dd9	0.103816696
80	0xbe2784f0	-0.16359305
81	0xbe2dff0e	-0.16991827
82	0x3e4cf5df	0.20015667
83	0xbc9ef546	-0.019404065
84	0xbe039802	-0.12850955
85	0x3dc75c2a	0.09734376
86	0x3e152a06	0.14566812
87	0x3e134640	0.14382267
88	0xbd990ea1	-0.07473493
89	0xbe2a72c7	-0.16645347
90	0x3e567d59	0.20946254
91	0xbd8c652f	-0.06855237
92	0x3e118041	0.14209081
93	0xbcd063a3	-0.025438135
94	0xbda12e98	-0.07870215
95	0xbd880e5f	-0.06643366
96	0x3ddde6a5	0.108350076
97	0xbe002906	-0.12515649
98	0xbe47f9a2	-0.19528821
99	0xbd9201ed	-0.071292736
100	0x3dd7021e	0.10498451
101	0xbcdf9259	-0.027291464
102	0x3dbbcb7c	0.09169671
103	0x3da8b5a0	0.08237767
104	0x3df062ef	0.1173762
105	0xbe0c448a	-0.1369802
106	0x3d350dfe	0.044202797
107	0xbe015039	-0.12628259
108	0xbe3788d2	-0.17923287
109	0x3d9038ff	0.07042121
110	0x3d82e805	0.063919105
111	0x3d2cfbe7	0.04223242
112	0x3e39a82b	0.18130557
113	0xbe1ab90b	-0.15109651
114	0xbdc62348	-0.09674698
115	0xbe0a7e4a	-0.13524738
116	0x3e22c019	0.15893592
117	0x3e61ffa7	0.2207018
118	0xbd904ca6	-0.070458695
119	0xbe0056b1	-0.1253307
120	0xbd008bc4	-0.03138329
121	0xbd62ff98	-0.055419534
122	0x3e3c0df6	0.183647
123	0xbd0c5eb1	-0.034269992
124	0xbde5fd88	-0.11229998
125	0xbbf83f8a	-0.007575934
126	0xbc705a7a	-0.014670009
127	0x3d59d6f3	0.053183507
128	0xbd82274e	-0.06355153
129	0xbd7d4390	-0.06183201
130	0x3dd84ec7	0.105619006
131	0xbdff00d4	-0.1245133
132	0x3e2419b1	0.16025425
133	0x3d25663b	0.040380698
134	0xbd232d99	-0.039838407
135	0xbe2ac372	-0.16676119
136	0xbe27495f	-0.16336583
137	0xbe0728df	-0.13199185
138	0x3d05efd6	0.03269943
139	0xbe0e9f27	-0.139279
140	0x3e8901d0	0.26759195
141	0x3e790113	0.24316816
142	0x3dd14620	0.102184534
143	0xbe11a68a	-0.14223686
144	0x3e54fcaf	0.20799516
145	0xbe32332c	-0.17402333
146	0x3dc40190	0.095706105
147	0x3dfc2b78	0.123129785
148	0xbde5dc60	-0.11223674
149	0x3d9a5579	0.07535834
150	0xbcb79968	-0.022412017
151	0xbd3a02b4	-0.045412734
152	0x3e170adb	0.14750235
153	0x3e12b0a2	0.14325193
154	0x3d36577e	0.044517033
155	0xbe4b39f2	-0.19846323
156	0xbdd64ad7	-0.10463493
157	0xbe2418ad	-0.16025038
158	0x3dd3b412	0.1033708
159	0xbdc22cd6	-0.09481208
160	0x3de087a8	0.109633744
161	0xbd9cd512	-0.076578274
162	0xbe4288d6	-0.18997511
163	0xbd6bd09c	-0.057571992
164	0xbc1aab3d	-0.00944024
165	0xbde5b1ee	-0.11215578
166	0x3e1c1409	0.15242018
167	0x3e37cea6	0.17949924
168	0x3d01b8e7	0.031670477
169	0xbdc8271f	-0.09773087
170	0x3d9e337f	0.07724666
171	0x3e16f741	0.14742757
172	0xbe4def88	-0.20110905
173	0x3e076806	0.13223276
174	0xbd734c5e	-0.059399
175	0xbe089c33	-0.13340835
176	0x3dfc1e58	0.12310475
177	0x3e19b515	0.15010484
178	0xbdc520f5	-0.09625427
179	0x3dd2b472	0.102883235
180	0xbdfa83e5	-0.12232188
181	0x3e1a579d	0.15072484
182	0xbdcd5438	-0.10025829
183	0x3dd85125	0.10562352
184	0xbe50c38a	-0.20387092
185	0xbd669a73	-0.056299638
186	0x3e58462d	0.2112052
187	0x3e0888a2	0.13333371
188	0xbd1660dc	-0.036713466
189	0xbcdfb7f9	-0.027309405
190	0x3d9518bd	0.07280109
191	0xbd180cdc	-0.03712164
192	0xbe380f83	-0.17974667
193	0xbe43abaf	-0.19108461
194	0xbcd3e864	-0.025867648
195	0xbe2d2fe8	-0.16912806
196	0xbe4e7419	-0.20161475
197	0x3e2c6c01	0.16838075
198	0xbd9df9ad	-0.077136375
199	0x3dd6879d	0.10475085
200	0xbd808677	-0.06275647
201	0xbd15f062	-0.0366062
202	0xbdeb6e20	-0.11495614
203	0xbdf78902	-0.12086679
204	0x3e16ae61	0.14714958
205	0x3db220e6	0.08697681
206	0xbe0264dd	-0.12733789
207	0x3dad6842	0.08467151
208	0x3dd16d72	0.10225953
209	0xbc465df1	-0.012107358
210	0xbe223213	-0.15839414
211	0xbda8386a	-0.08213885
212	0xbe2f6d37	-0.17131506
213	0x3da3a7b4	0.07990971
214	0x3e001a4b	0.1251003
215	0xbdf9e279	-0.12201399
216	0xbe1f08b3	-0.15530662
217	0x3e2256c5	0.15853412
218	0x3e40e424	0.18837029
219	0x3e0a4225	0.13501795
220	0x3d2103ce	0.03931027
221	0x3da5b57c	0.08091256
222	0xbd915bad	-0.07097564
223	0xb9ffe031	-0.00048804426
224	0xbd8ce375	-0.068793215
225	0x3d0187ab	0.031623524
226	0xbd8778b8	-0.06614822
227	0xbe0f712d	-0.14008017
228	0x3dd78c56	0.10524814
229	0xbe4d8950	-0.20071912
230	0x3ddb43dc	0.107063025
231	0xbe2b108e	-0.16705534
232	0x3e1b2adc	0.15153068
233	0xbc2a171e	-0.010381488
234	0x3db63541	0.08896876
235	0xbe33d67e	-0.17562291
236	0x3e17fc90	0.14842439
237	0xbc920636	-0.017825227
238	0xbcd78be6	-0.026311826
239	0x3cafeda9	0.02147563
240	0xbe47406c	-0.19458169
241	0x3cb00890	0.021488458
242	0xbd328732	-0.043585964
243	0x3e2e87fb	0.1704406
244	0xbd63904d	-0.055557538
245	0xbd30ac57	-0.043133106
246	0x399b05dc	0.0002956827
247	0xbe23a4a5	-0.15980776
248	0xbd86a952	-0.06575264
249	0xbcffddab	-0.03123363
250	0x3d8f135b	0.06986114
251	0x3e0c31d7	0.13690887
252	0xbe208b45	-0.15678127
253	0x3e4c9fa5	0.19982775
254	0x3e1ea7f4	0.15493757
255	0x3d32a211	0.04361159

bias f4 [16]
0	0xbdef7904	-0.11693004
1	0x3cf5cac9	0.030003922
2	0xbddae9f4	-0.10689154
3	0x3d93686b	0.071976505
4	0x3e08a4b8	0.13344085
5	0x3ded792f	0.115953796
6	0x3d920bd7	0.071311645
7	0xbb30e032	-0.00269891
8	0x3d44ab02	0.04801465
9	0x3e016d6f	0.12639402
10	0x3d403a39	0.046930525
11	0x3e2f70b5	0.17132838
12	0xbe00d5b7	-0.12581526
13	0xbdead4b4	-0.11466351
14	0xbb860acf	-0.004090644
15	0x3de8eef6	0.11373703

running_mean f4 [16]
0	0xbd8ca6b3	-0.06867733
1	0x3d91ba1f	0.07115578
2	0xbe2792e6	-0.16364631
3	0xbd905eb6	-0.07049315
4	0x3e26a927	0.16275464
5	0x3e33f672	0.1757448
6	0x3c2e6c30	0.010645911
7	0xbdfc1271	-0.12308205
8	0x3c99b222	0.018761698
9	0xbd93f732	-0.07224883
10	0x3d263890	0.040581286
11	0x3d912e1b	0.07088872
12	0x3e32518e	0.17413923
13	0xbe21dcc8	-0.15806878
14	0x3d0d20f8	0.03445527
15	0xbddbb2a0	-0.107274294

running_var f4 [16]
0	0x3a4de1eb	0.0007853794
1	0x3a653992	0.00087442354
2	0x3a48d3cf	0.00076609565
3	0x3b079a9a	0.0020691515
4	0x3981c10b	0.00024748626
5	0x3993ff57	0.00028228268
6	0x3a7e3723	0.0009697547
7	0x3a09ff4e	0.00052641786
8	0x393bad5c	0.00017898291
9	0x3aaf2798	0.001336324
10	0x39aebb08	0.00033327215
11	0x3a32f945	0.0006827305
12	0x3b530b58	0.0032202806
13	0x39f8b820	0.0004743943
14	0x3a7cbe19	0.0009641364
15	0x3af42e6f	0.0018629561

weight f4 [16]
0	0x3edee765	0.43535915
1	0x3eadf045	0.33972374
2	0x3f57259d	0.8404177
3	0x3f6394ad	0.88898736
4	0x3eb09f26	0.3449642
5	0x3ddd765d	0.10813592
6	0x3ed4e5db	0.41581616
7	0x3f5c09df	0.8595256
8	0x3f18b14d	0.5964554
9	0x3f0220b9	0.5083118
10	0x3e9d59a5	0.30732456
11	0x3eb9c782	0.36285025
12	0x3eb28544	0.348673
13	0x3f684035	0.9072297
14	0x3f34e4ed	0.70661813
15	0x3f65265f	0.89511675

bias f4 [16]
0	0x3c88dd31	0.016707035
1	0xbc94613b	-0.01811277
2	0xbd52dd10	-0.051480353
3	0xbc9ab2bb	-0.018884053
4	0xbc5d3207	-0.013500697
5	0xbd6a6e87	-0.057234313
6	0x3cf01234	0.029305555
7	0xbd4e5a3d	-0.050379027
8	0xbd8abd89	-0.06774432
9	0x3bd781ed	0.0065767677
10	0xbb0231ec	-0.0019866182
11	0xbc894b12	-0.01675943
12	0xbd0b8c53	-0.03406937
13	0x3bfb2c47	0.0076651904
14	0xbcbf80bd	-0.023376817
15	0x3c4fca23	0.0126824705

weight f4 [32, 16, 5, 5]
0	0x3d7e403a	0.06207297
1	0x3dc2f2fd	0.095190026
2	0xbc018183	-0.007904413
3	0xbd180c5e	-0.03712117
4	0x3d46d938	0.048547
5	0xbd20c5ec	-0.039251253
6	0x3d1c48aa	0.038155235
7	0xbce093e5	-0.027414272
8	0xbb8e6858	-0.004345935
9	0xbcc9530a	-0.024575729
10	0xbc8179c4	-0.015805133
11	0x3cfcde3a	0.030867685
12	0x3c381824	0.011236224
13	0x3dbbf4f7	0.09177583
14	0x3aec1f38	0.0018014675
15	0x3d9eb1dd	0.077487685
16	0xbd7e2c09	-0.062053714
17	0xbaf0d875	-0.0018375056
18	0x3b998355	0.0046848455
19	0xbd59942c	-0.053119823
20	0xbb61e6cd	-0.0034469843
21	0xbc83c010	-0.016082793
22	0xbb20aa50	-0.0024515577
23	0xbcbf1706	-0.023326408
24	0xbd0b036f	-0.03393882
25	0xbc2b8e9e	-0.010471014
26	0xbd56af2c	-0.05241315
27	0xbb862de9	-0.0040948284
28	0x3ca1452f	0.01968631
29	0x3cd3ce6e	0.02585527
30	0xbc4cf583	-0.012509706
31	0x3cff4be6	0.03116412
32	0x3c8e80ed	0.017395461
33	0x3c879a1b	0.016552975
34	0x3cdf48f7	0.027256472
35	0x3d4cf089	0.05003408
36	0xbca9b710	-0.020717174
37	0x3a2d6772	0.0006614841
38	0xbc6220df	-0.013801782
39	0x3d8f512a	0.06997903
40	0x3d5b820e	0.053590827
41	0x3d2d2448	0.04227093
42	0xbbc31b0c	-0.005954152
43	0xbd47f1d4	-0.04881461
44	0x3d55c91f	0.052193757
45	0x3ce66ce3	0.028128093
46	0xbc508de3	-0.012729141
47	0xbb36b3f5	-0.002787826
48	0xbbfeb9d3	-0.007773617
49	0xbceae6ff	-0.0286746
50	0x3d74a6cc	0.059729382
51	0x3d83146b	0.06400379
52	0x3c73a668	0.014871217
53	0x3ca68bac	0.020330273
54	0xbc7accc2	-0.015307607
55	0xbcd69f6c	-0.026199065
56	0x3d0e727a	0.034777142
57	0x3cbfff64	0.02343721
58	0x3cb8306e	0.02248403
59	0xbd06f16d	-0.032945085
60	0x3cd39cba	0.025831569
61	0xbd08aacf	-0.03336602
62	0x3cd8d8b6	0.026470523
63	0x3c606612	0.01369621
64	0x3cdde084	0.027084596
65	0x3c5ab9a2	0.013349922
66	0xbbfa1755	-0.007632176
67	0x3cb7a204	0.022416122
68	0xbc3fc411	-0.011704461
69	0xbd502e11	-0.050825182
70	0xbce877e1	-0.028377475
71	0xbd897354	-0.0671145
72	0xbd2b1ff1	-0.04177851
73	0x3cfde89a	0.030994702
74	0x3b14ee50	0.0022725053
75	0xbc5503a1	-0.0130013535
76	0xbcf4affb	-0.02986907
77	0xbc90b6fc	-0.017665379
78	0x3d084636	0.033270083
79	0xbc8d3222	-0.01723582
80	0xbc2af921	-0.0104353735
81	0x3d265f73	0.04061837
82	0x3aeade31	0.0017919001
83	0xbccb66f2	-0.024829362
84	0xbc8d34bd	-0.017237062
85	0x3d56dad0	0.05245477
86	0xbcd8836d	-0.026429856
87	0x3cf99a3f	0.030469058
88	0xbc802855	-0.015644232
89	0xbd3aa972	-0.045571752
90	0x3d78a059	0.060699794
91	0x3cd059cc	0.025433443
92	0xbcdfa65b	-0.027301004
93	0x3cf478a0	0.029842675
94	0xbd192d68	-0.03739682
95	0xbc080e73	-0.008304226
96	0x3ad3b646	0.0016152344
97	0x3cf99751	0.030467661
98	0x3ce6f560	0.028193176
99	0xbc2c85a6	-0.010529911
100	0xb910a11f	-0.00013792932
101	0xbc50ba2c	-0.012739699
102	0xbd0fa3e4	-0.035068408
103	0x3d0f6beb	0.035015028
104	0x3b22cddc	0.002484194
105	0x3c4cdb54	0.012503464
106	0xbce9e1e4	-0.028550096
107	0x3d51c888	0.051216632
108	0x3b43abda	0.002985707
109	0x3c2cbdd9	0.01054331
110	0x3c74418a	0.014908204
111	0x3c0ed65c	0.008718099
112	0xbcbfb517	-0.02340178
113	0xbd6fcecb	-0.058546823
114	0xbc211b21	-0.009833128
115	0xbd2127e2	-0.039344676
116	0x3c1ec343	0.009690109
117	0x3ce5baf5	0.02804325
118	0xbc7848fc	-0.01515412
119	0xbd0e99ef	-0.03481477
120	0x3c16fbe0	0.009215325
121	0x3c645131	0.013935373
122	0x3d218ab5	0.039438922
123	0x3d3e98bd	0.04653238
124	0xbd1d47c0	-0.038398504
125	0xbbe73418	-0.0070557706
126	0xbd4ad808	-0.04952243
127	0xbd92c85d	-0.071671225
128	0xbce6294d	-0.028095866
129	0x3d85e572	0.06537904
130	0x3c622e16	0.013804933
131	0x3d628527	0.055302765
132	0x3dde2512	0.10846914
133	0x3d09cfba	0.03364537
134	0x3dc6cb39	0.097067304
135	0xbc444aa2	-0.0119806845
136	0x3ca0e267	0.019639207
137	0x3d175ea9	0.03695551
138	0xbc803552	-0.015650425
139	0x3d5af993	0.05346067
140	0xbdb410c7	-0.087922625
141	0x3c3a6e3a	0.011378819
142	0xbc440cca	-0.01196594
143	0x3c69b227	0.014263666
144	0x3c3607ef	0.01111029
145	0xbc49f90c	-0.012327444
146	0xbcbdfbd1	-0.023191364
147	0xbd83fa6d	-0.06444249
148	0xbcf91a35	-0.030408004
149	0x3cf09013	0.029365575
150	0xbda6b707	-0.081403784
151	0xbd37e5ed	-0.04489701
152	0x3d058ad9	0.03260312
153	0xbd2437fc	-0.040092453
154	0x3d204c5f	0.039135333
155	0x3d241730	0.040061176
156	0x3df2d5b1	0.11857165
157	0x3d081997	0.03322753
158	0x3baf7f85	0.0053557777
159	0x3cedc0cd	0.029022599
160	0xb84d6adb	-4.8975326e-05
161	0x3dcbb143	0.09945919
162	0xbc99b288	-0.018761888
163	0x3c455356	0.012043795
164	0xbdac090e	-0.084001645
165	0x3d99afb4	0.07504216
166	0xbcf97168	-0.030449584
167	0xbdb85475	-0.09000484
168	0xbc1819b3	-0.009283471
169	0x3aafc4d4	0.00134101
170	0xbd059dd2	-0.032621212
171	0xbcc149a8	-0.023594692
172	0xbc15e453	-0.009148675
173	0xbd01ab7d	-0.031657685
174	0x3c87530d	0.016519094
175	0x3d7c111f	0.061539765
176	0xbbf2362b	-0.007391711
177	0xbbaf74f6	-0.005354519
178	0xbb48e29f	-0.0030652655
179	0xbc74b1ab	-0.0149349375
180	0xbbb7c247	-0.0056078765
181	0xbc3bab16	-0.011454364
182	0x3ca136af	0.019679395
183	0xbd7115e8	-0.058858782
184	0xbc82f760	-0.015987098
185	0xbcc69f83	-0.024245983
186	0xbb8ddd43	-0.004329355
187	0x3d834df5	0.064113535
188	0x3d36d197	0.044633474
189	0xbbaa8bb0	-0.0052046403
190	0xbdbca9ff	-0.09212112
191	0x3d0a2e60	0.033735633
192	0x3d35fd4d	0.04443102
193	0xbc20fe33	-0.009826231
194	0x3c90600a	0.01762392
195	0xbc507dec	-0.012725335
196	0xbd916e84	-0.07101157
197	0xbc9f2d9f	-0.019430934
198	0xbd2811c1	-0.041032556
199	0x3bc6fd31	0.0060726632
200	0xbb362abe	-0.0027796472
201	0x3c9d7821	0.019222321
202	0xbb974d31	-0.004617356
203	0x3d3b313f	0.04570126
204	0x3db3cc42	0.087791935
205	0xbc427b9d	-0.011870292
206	0x3d890902	0.06691171
207	0xbd6d419b	-0.057923894
208	0xbd436817	-0.04770669
209	0x3d5f58a5	0.054527897
210	0x3d5b2f47	0.053511884
211	0x3c9340bd	0.017975206
212	0xbc9fffbe	-0.019531127
213	0xbd294fe9	-0.041335974
214	0xbba40f78	-0.005006727
215	0xbcab4b22	-0.02090985
216	0x3db1c0bb	0.086793385
217	0xbd6e9075	-0.058243234
218	0x3ced3978	0.028958067
219	0xbd19cf24	-0.03755106
220	0xbd845e44	-0.06463292
221	0xbd05b33c	-0.032641634
222	0x3c75a347	0.014992542
223	0x3cb02f91	0.021507056
224	0xbd8b9327	-0.068151765
225	0xbca01376	-0.01954053
226	0x3d185cbf	0.037197825
227	0xbc8f4ff4	-0.01749418
228	0xbd322ae3	-0.04349793
229	0x3d38d6cd	0.045126725
230	0xbd209ac8	-0.03921011
231	0x3ca862a6	0.020554852
232	0xbdd038af	-0.101670615
233	0x3d1a60b6	0.037689887
234	0x3d00179d	0.03127252
235	0xbb26639a	-0.0025388957
236	0xbbda4c67	-0.00666194
237	0xbbebde1b	-0.007198108
238	0x3c33025f	0.010925858
239	0x3c60d2ec	0.013722163
240	0x3c7e0252	0.015503483
241	0xbc19d0fd	-0.009388206
242	0xbd8670aa	-0.06564458
243	0x3d2888f5	0.041146237
244	0x3d1f9486	0.038960002
245	0x3d475466	0.048664473
246	0xbcc5cf7e	-0.024146792
247	0x3c04d00f	0.008106246
248	0x3b0951f1	0.0020953382
249	0x3d3167b1	0.04331178
250	0x3d877b77	0.06615346
251	0x3db92650	0.09040511
252	0x3d873fb4	0.06603947
253	0x3ceb56b8	0.028727874
254	0x3c27d8a0	0.0102445185
255	0x3c7e42a8	0.015518822

bias f4 [32]
0	0x3c4e22ab	0.012581508
1	0x3a02d38a	0.0004990628
2	0x3d48edf9	0.049055073
3	0x3bae3346	0.005316171
4	0x3d36b19d	0.04460298
5	0x3cb8efa8	0.022575215
6	0xbc8407ac	-0.01611694
7	0xbcab7b6f	-0.020932881
8	0x3b7d55b6	0.0038655824
9	0xbc940613	-0.018069303
10	0x3cf3452f	0.029696075
11	0xbc804cbf	-0.015661595
12	0x3cd4350b	0.0259042
13	0x3b14bb95	0.0022694815
14	0x3d29724d	0.04136877
15	0x3d11f65c	0.035635337
16	0xbb8dbaba	-0.004325238
17	0xbd258d33	-0.04041786
18	0x3cd2191d	0.02564674
19	0x3d08faa6	0.033442162
20	0x3d7344b2	0.059391685
21	0xbc75b48f	-0.014996662
22	0xbd669e15	-0.056303103
23	0x3cb19277	0.021676285
24	0x3c1cbabb	0.009566004
25	0x3d95399c	0.07286379
26	0xbbdf2a47	-0.00681046
27	0xbcc53928	-0.024075106
28	0x3c9d789c	0.01922255
29	0x3d0d66b1	0.034521762
30	0x3c9d03c4	0.019166835
31	0x3b2a716a	0.0026007541

running_mean f4 [32]
0	0x3d5775c8	0.05260256
1	0x3d55da12	0.05220992
2	0x3da13339	0.07871098
3	0xbdb82637	-0.08991664
4	0xbcd72678	-0.02626346
5	0xbea86ebf	-0.32896993
6	0x3e2e77a8	0.17037833
7	0xbdad796c	-0.08470425
8	0xbd43ec68	-0.047832876
9	0xbe4817f7	-0.19540392
10	0xbcab74bf	-0.020929692
11	0xbe31843c	-0.173356
12	0xbe0496cd	-0.12948151
13	0xbd70aef7	-0.05876061
14	0x38ec1699	0.00011257566
15	0x3de5d757	0.112227134
16	0xbca96507	-0.020678056
17	0x3d38e8bd	0.04514383
18	0xbd819d60	-0.06328845
19	0xbe494ecc	-0.19658965
20	0xbc6f96ee	-0.014623387
21	0xbe5cee2c	-0.2157523
22	0x3b609b73	0.0034272342
23	0x3db4bf9d	0.0882561
24	0xbe0b4dd1	-0.13603903
25	0x3e03737e	0.12837026
26	0x3e0e624f	0.13904689
27	0xbe89b021	-0.26892188
28	0xbd3d75f7	-0.04625508
29	0x3e4dda1e	0.20102736
30	0xbd9b8908	-0.07594496
31	0xbe16cdd1	-0.1472695

running_var f4 [32]
0	0x3d7050ff	0.058670994
1	0x3cf5f684	0.030024774
2	0x3e0607f4	0.13088971
3	0x3e010873	0.1260088
4	0x3dc80676	0.09766857
5	0x3d936f5d	0.07198975
6	0x3d9f8285	0.077885665
7	0x3d6c31b0	0.057664573
8	0x3d338a9c	0.04383336
9	0x3cb961a5	0.022629568
10	0x3dafb51d	0.085794665
11	0x3d49f639	0.04930708
12	0x3d872acb	0.06599959
13	0x3db0f958	0.086413085
14	0x3dea70f8	0.11447328
15	0x3d8fd61b	0.07023259
16	0x3d84b925	0.06480626
17	0x3d40572e	0.04695814
18	0x3cfe9011	0.031074556
19	0x3d526c15	0.051372606
20	0x3d268f97	0.04066428
21	0x3d4f6d75	0.050641496
22	0x3df332ee	0.118749484
23	0x3da190e2	0.07888962
24	0x3d931d6c	0.07183346
25	0x3e27b818	0.1637882
26	0x3da4a3df	0.080390684
27	0x3da0c303	0.078496955
28	0x3d336259	0.043794964
29	0x3ddbb4af	0.10727822
30	0x3e177f9e	0.14794776
31	0x3dd82d73	0.10555544

weight f4 [32]
0	0x3e745a4f	0.23862575
1	0x3e11af74	0.14227086
2	0x3f1599d4	0.5843785
3	0x3f54c7fe	0.83117664
4	0x3f7eb0fa	0.99488795
5	0x3f4cb1fa	0.7995907
6	0x3e7803fa	0.24220267
7	0x3efcf894	0.494084
8	0x3f65b0f3	0.8972313
9	0x3f33764b	0.70102376
10	0x3f304ae0	0.6886425
11	0x3ed3afd3	0.4134508
12	0x3ebdde0c	0.3708347
13	0x3f5379f1	0.8260794
14	0x3f33f484	0.70294976
15	0x3dbfa5e2	0.093578115
16	0x3f7d5bd0	0.9896822
17	0x3e2d711a	0.16937676
18	0x3f02b1d3	0.5105259
19	0x3f1b59b2	0.6068374
20	0x3e0efd7f	0.13963889
21	0x3f264b6e	0.64958847
22	0x3e8cfbcd	0.2753586
23	0x3e3db1b7	0.18524824
24	0x3f1c1c5a	0.6098076
25	0x3f334035	0.7001985
26	0x3e86c9da	0.26325876
27	0x3f62c06c	0.8857486
28	0x3e785dfe	0.24254605
29	0x3e52e061	0.20593406
30	0x3f5735d4	0.8406651
31	0x3f5b3a01	0.8563538

bias f4 [32]
0	0xbc02fca0	-0.007994801
1	0xbc2b95cf	-0.010472729
2	0xbca2c47d	-0.019869084
3	0xbce3c9e6	-0.027806234
4	0xbc638cba	-0.013888532
5	0xbc7e876d	-0.015535218
6	0x3d0cb209	0.034349475
7	0xbaed8954	-0.0018122592
8	0x3aa6eb83	0.0012734983
9	0xbd0f1221	-0.0349294
10	0xbb727529	-0.0036996102
11	0x3c0d869f	0.008638053
12	0xbcab478f	-0.020908145
13	0xbcb7d5f1	-0.022440882
14	0xbd1c72fa	-0.038195588
15	0x3c3745e0	0.011186093
16	0xbda91cdd	-0.08257458
17	0xbd804f88	-0.062651694
18	0xbd8bd6be	-0.06828068
19	0xbda7dc86	-0.081963584
20	0xbd112652	-0.035436936
21	0x3a484f0b	0.0007641173
22	0xbcdbb3a2	-0.026819054
23	0x3c9c9e69	0.019118505
24	0xbcb6704c	-0.022270344
25	0xbccf9c72	-0.025343154
26	0xbd8babf9	-0.068199106
27	0xbc61792e	-0.013761802
28	0xbd0c8c8a	-0.034313716
29	0xbd364bed	-0.044506002
30	0xbd2b56f5	-0.041830976
31	0x3c373bf2	0.011183726

weight f4 [32, 32, 5, 5]
0	0xbd958eca	-0.073026255
1	0xbd921bee	-0.071342334
2	0xbc78cac5	-0.015185063
3	0x3d0f1b32	0.034938045
4	0x3abac7f8	0.0014250269
5	0x3c118ea2	0.008884104
6	0x3c64ff3a	0.013976866
7	0x3bf08d16	0.0073410375
8	0x3be0a50a	0.0068556117
9	0x3d97ad03	0.07406046
10	0x3c8f0554	0.017458595
11	0xbd7edf6a	-0.062224783
12	0x3d070b82	0.03296996
13	0xbab8485c	-0.0014059651
14	0x3cbac66a	0.02279969
15	0xbcb6f181	-0.022331955
16	0x3d1382e7	0.03601351
17	0xbb345ba6	-0.0027520447
18	0xbb35ed9d	-0.0027760037
19	0xba2e721c	-0.0006654577
20	0x3d6d3e4c	0.05792074
21	0x3cc2feff	0.023803232
22	0xbcd4efe8	-0.025993302
23	0x3d1d88bd	0.038460482
24	0x3c3c4fdd	0.01149365
25	0xbb482e7b	-0.0030545283
26	0xbd660f32	-0.056166835
27	0xbb624017	-0.0034523064
28	0xbcc45856	-0.023967903
29	0x3bc5358d	0.0060183466
30	0xbccc201e	-0.024917658
31	0x3c51b9f4	0.012800682
32	0x3cbb9e31	0.02290258
33	0xbc21de56	-0.009879669
34	0xbd1f3b7d	-0.03887509
35	0xbd1e5650	-0.038656533
36	0xbbcc6a5a	-0.006238264
37	0x3cf46fb8	0.029838428
38	0xbc83edb5	-0.016104558
39	0xbb074d78	-0.002064554
40	0xb8d760ed	-0.00010270053
41	0x3cf4ae25	0.029868195
42	0xbc2ff35d	-0.010739175
43	0x3bca9d5c	0.0061833095
44	0xbd7109e2	-0.058847316
45	0x3d4417da	0.04787431
46	0xbbeb61d5	-0.0071832933
47	0x3d37e948	0.04490021
48	0x3c30c43a	0.010788972
49	0x3c8de1d9	0.017319607
50	0x3ca599b5	0.020214895
51	0xbc57a3be	-0.013161598
52	0x3d869d10	0.06572926
53	0x3d0221d0	0.031770527
54	0x3c9893c8	0.018625155
55	0xbd11c670	-0.035589635
56	0x3d04ffb6	0.032470427
57	0x3cd26918	0.025684878
58	0xbd28e607	-0.041234996
59	0x3b22b803	0.0024828918
60	0x3cbac438	0.022798643
61	0x3c423975	0.011854519
62	0xbd0175ac	-0.03160636
63	0x3cb2825a	0.021790672
64	0xbd1f2232	-0.03885097
65	0x3c1216df	0.008916586
66	0xbd2a86de	-0.041632526
67	0xbd44bc4e	-0.048031144
68	0xbc1a7260	-0.009426683
69	0x3cbeb201	0.023278238
70	0xbc431fb2	-0.011909412
71	0x3ca75dde	0.020430502
72	0x3cbd67f3	0.023120856
73	0xbd4a1d88	-0.04934457
74	0xbb0ff586	-0.0021966412
75	0xbcfd0de4	-0.030890413
76	0xbd4a5cc0	-0.04940486
77	0x3be5de60	0.0070150346
78	0xbd04fbad	-0.03246658
79	0x3c42e25b	0.011894788
80	0x3c04b4fa	0.008099789
81	0xbb05c196	-0.0020409576
82	0x3bfcbb4b	0.0077127567
83	0x3b311d63	0.0027025572
84	0xb9b6fb31	-0.00034900897
85	0x3d06c194	0.032899454
86	0x3c267dcd	0.010161829
87	0xbcdba82c	-0.026813589
88	0xbc92770a	-0.017879028
89	0xb95c9dd8	-0.00021039636
90	0x3b28d07f	0.002575904
91	0xbc6afad5	-0.01434203
92	0x3caa7a66	0.020810317
93	0xbd102447	-0.035190847
94	0xbc8ddf50	-0.017318398
95	0xbc9aa507	-0.01887752
96	0xbd07dae6	-0.033167742
97	0x3c9d4ddb	0.019202163
98	0xbd1f920f	-0.03895765
99	0x3bf74643	0.0075462176
100	0xbd28e713	-0.041235995
101	0xbd540e9e	-0.051771753
102	0x3c9b1360	0.018930137
103	0x3d60b830	0.054863155
104	0xb8c1374e	-9.2132585e-05
105	0xbd46a086	-0.04849293
106	0xbd167c94	-0.0367399
107	0x3c3ae4f3	0.011407125
108	0xbca1f923	-0.019772118
109	0xbca14747	-0.019687308
110	0x3cb936e8	0.02260919
111	0xbcc34328	-0.023835734
112	0xbbb10fec	-0.0054035094
113	0x3c0f0cf3	0.008731115
114	0x3c3d1dbc	0.011542734
115	0xbba99bc1	-0.005176038
116	0xbd30c6bf	-0.04315829
117	0xbcbdea12	-0.023182902
118	0x3b89088b	0.0041819266
119	0x3d1ed9f0	0.03878206
120	0x3c80dffd	0.015731806
121	0xbd9d9969	-0.07695276
122	0xbcb44c43	-0.02200902
123	0xbcbc73e7	-0.023004485
124	0xbd0721fa	-0.032991387
125	0xbc0d7124	-0.008632932
126	0xbc28f45a	-0.010312164
127	0x3aa6ce6b	0.0012726312
128	0x39ff0178	0.00048638484
129	0x3c474689	0.012162813
130	0x3d0a579f	0.03377497
131	0x3cba03df	0.022706924
132	0xbcac7919	-0.021053838
133	0xbd37e418	-0.04489526
134	0xbd87b68a	-0.066266134
135	0x3d6b152f	0.05739325
136	0x3b29c82b	0.0025906663
137	0x3ce2b57d	0.027674431
138	0x3d030fdc	0.031997547
139	0x3d1ffd10	0.0390597
140	0x3bd0044d	0.006348169
141	0xba8a1c68	-0.001053703
142	0xbd1276cc	-0.035757825
143	0x3d89cb3f	0.06728219
144	0xbbc74384	-0.0060810465
145	0xbc6dd064	-0.014515016
146	0xbcfbde00	-0.030745506
147	0xbbc44dd7	-0.0059907245
148	0x3d1b5ca1	0.037930135
149	0x3cc5191b	0.024059823
150	0xbd768023	-0.060180794
151	0xbc3d67f1	-0.011560426
152	0xbd4ff182	-0.05076743
153	0x3b238878	0.0024953168
154	0xbd21ef68	-0.039534956
155	0x3d399240	0.04530549
156	0xbb32266d	-0.0027183548
157	0xbbb935dd	-0.005652173
158	0x3bd70e51	0.006562986
159	0xbb8200ab	-0.003967365
160	0x3d6a2fd0	0.057174504
161	0x3c49de8d	0.012321127
162	0xbcc49e9e	-0.024001416
163	0x3c33134e	0.010929896
164	0xbc2916f1	-0.010320411
165	0x3d1bbeff	0.038023945
166	0xbbee961e	-0.007281079
167	0x3ca671b6	0.020317893
168	0xbb2744e8	-0.002552325
169	0xbb8a3c8b	-0.004218643
170	0xbb973207	-0.004614118
171	0xbd21db56	-0.039515816
172	0x3c9a738c	0.018853925
173	0xbd2f3d27	-0.04278293
174	0xbd072a38	-0.032999247
175	0xbd8e65c2	-0.069530025
176	0xbd61d7f3	-0.055137586
177	0xbd72456e	-0.059148245
178	0x3a5e3a03	0.00084772723
179	0x3c8a0f7f	0.016853092
180	0xbc360bed	-0.011111242
181	0x3d0f4e14	0.03498657
182	0x3bbbd9fb	0.0057327724
183	0x3d051a82	0.032495983
184	0xbcf4269a	-0.029803563
185	0xbd0f27eb	-0.034950178
186	0xbcdc7756	-0.026912373
187	0xb96bba7f	-0.00022480822
188	0xbcc31dfa	-0.023818005
189	0x3ccaf912	0.02477697
190	0xbd093edb	-0.03350721
191	0x3c04f74a	0.008115599
192	0xbd325289	-0.043535743
193	0x3cac0154	0.020996727
194	0xbd7afa5e	-0.061273925
195	0xbccd94ed	-0.025095427
196	0xbd127e98	-0.03576526
197	0x3d299ed3	0.041411232
198	0xbd864899	-0.06556816
199	0x3ced5f65	0.028976152
200	0x3cf3dc3c	0.029768102
201	0x3cbb30b7	0.022850377
202	0x3c4aae64	0.0123706795
203	0x3c196855	0.009363254
204	0xbbd75f93	-0.0065726726
205	0xbd82c6c7	-0.0638557
206	0xbcfd17c4	-0.030895121
207	0x3d8daf06	0.06918149
208	0x3c80d3f0	0.01572606
209	0xbc2f165e	-0.010686485
210	0xbcd5985a	-0.026073623
211	0xbce0c1e0	-0.027436197
212	0xbd2f9d4d	-0.042874623
213	0x3ced925f	0.02900046
214	0xbce62f46	-0.028098714
215	0xbd1dc6c7	-0.038519647
216	0xbc759312	-0.014988678
217	0xbbb13e0f	-0.0054090093
218	0xbd2738e9	-0.040825758
219	0xbda2fc0e	-0.07958232
220	0xbd142d9d	-0.036176313
221	0xbcbf608f	-0.023361472
222	0xbc0d1597	-0.008611104
223	0xbd07b7f8	-0.03313443
224	0xbcde5904	-0.027142055
225	0xbd1c92cb	-0.03822593
226	0xbce826f9	-0.028338896
227	0x3caef98a	0.021359224
228	0x3c17f61c	0.009274986
229	0x3d1e7116	0.038682066
230	0x3c81fac7	0.01586665
231	0x3bbd8bbd	0.0057844804
232	0xbcf751bb	-0.03019034
233	0x3c46ce60	0.012134165
234	0xbd8c8b5b	-0.068625174
235	0xbcd6ed69	-0.026236253
236	0xbc426657	-0.01186522
237	0xbd7f9218	-0.062395185
238	0x3c1325c1	0.008981169
239	0xbd1920bd	-0.037384737
240	0x3d9c6e1a	0.07638188
241	0x3d49c43b	0.049259406
242	0x3c0d0f5b	0.008609618
243	0xbcb0bfdb	-0.021575859
244	0x3d444ce5	0.047924895
245	0x3d0a474a	0.033759393
246	0x3ce72be8	0.028219178
247	0x3ccc1473	0.024912095
248	0x3d118629	0.035528336
249	0x39a4ce51	0.00031434235
250	0x3c13208f	0.008979931
251	0x3c8ab3b3	0.01693139
252	0x3cbf23c2	0.02333248
253	0x3c410f32	0.011783408
254	0xbc25d53d	-0.010121641
255	0xbd4f0430	-0.050541103

bias f4 [32]
0	0xbdd02c27	-0.101646714
1	0xbc7fac30	-0.015605018
2	0x3d00a46a	0.031406797
3	0xbca07ff4	-0.019592263
4	0xbd42c393	-0.047549795
5	0xbcf801de	-0.030274328
6	0x3d13ef47	0.036116865
7	0xbc552043	-0.01300818
8	0x3cd02c48	0.02541174
9	0xbd211dc7	-0.03933504
10	0x3cbb33a0	0.022851765
11	0xbd108286	-0.035280727
12	0x3d0d405c	0.034485206
13	0xbc6786f6	-0.014131298
14	0x3c844dba	0.016150344
15	0x3c882eee	0.01662394
16	0xbd3650bc	-0.044510588
17	0xbd1bfc94	-0.038082674
18	0xbd4ad94f	-0.049523648
19	0xbcb401cf	-0.021973519
20	0xbc865ea5	-0.016402552
21	0xbc6491e8	-0.013950802
22	0x3ab3c3c4	0.0013714959
23	0x3c822e6c	0.015891276
24	0xbd08e410	-0.033420622
25	0x3c4175da	0.011807883
26	0xbca244bb	-0.019808164
27	0x3d07b360	0.03313005
28	0xbd3c8e15	-0.046033937
29	0x3c7c29ec	0.015390854
30	0xbd7566d1	-0.059912506
31	0xbd10707d	-0.035263527

running_mean f4 [32]
0	0xbf3dc264	-0.7412474
1	0x3e334e17	0.17510258
2	0x3f19c289	0.6006246
3	0xbe1eec7f	-0.15519904
4	0xbf06722d	-0.5251797
5	0x3eb0f26c	0.34559953
6	0x3edcf10c	0.43152654
7	0x3e61376e	0.21993801
8	0x3e85476f	0.26031062
9	0xbf082fd1	-0.5319796
10	0x3bd115a3	0.006380753
11	0x3e8456d9	0.2584751
12	0x3f23f907	0.6405186
13	0xba88b5c0	-0.0010430142
14	0x3eb188c0	0.34674644
15	0x3ed2687e	0.41095346
16	0xbf1a00e2	-0.601576
17	0xbd2ae675	-0.041723687
18	0xbebc4ba7	-0.36776468
19	0xbe483d21	-0.19554569
20	0x3cbafeb7	0.022826536
21	0x3e62562b	0.22103183
22	0x3ce7a0e1	0.028274955
23	0x3f1cfc78	0.61322737
24	0x3d8139ac	0.06309828
25	0x3ed96e51	0.42466977
26	0x3eabcd11	0.3355489
27	0x3eafc8cd	0.34332886
28	0xbf0da0d4	-0.5532353
29	0x3ede9789	0.43474987
30	0xbe32843b	-0.17433254
31	0xbe8fd31e	-0.28090757

running_var f4 [32]
0	0x3e960917	0.2930381
1	0x3e155572	0.14583376
2	0x3f0e4109	0.55567986
3	0x3ec2140e	0.37905926
4	0x3e8ed8d8	0.27899814
5	0x3eda610d	0.4265217
6	0x3ebfb010	0.37439013
7	0x3eee27a4	0.46514618
8	0x3e1e72b6	0.15473446
9	0x3eb97eef	0.36229655
10	0x3ecb1551	0.396647
11	0x3ec974ee	0.39347023
12	0x3e8ab97a	0.27094632
13	0x3c5efd13	0.013610142
14	0x3ec3a999	0.3821533
15	0x3f01f762	0.507681
16	0x3e991eaa	0.29906207
17	0x3ebcf3d0	0.36904764
18	0x3e558e03	0.20854954
19	0x3e69491a	0.22781792
20	0x3f00b4aa	0.5027567
21	0x3eb59bc5	0.35470405
22	0x3ed1bbb1	0.4096351
23	0x3ed8615e	0.42261785
24	0x3e5cb8b0	0.21554828
25	0x3f038ea0	0.51389503
26	0x3e95143e	0.29117006
27	0x3e6fc6c2	0.23415664
28	0x3db155cb	0.08658942
29	0x3ef8b83c	0.4857806
30	0x3e93960e	0.2882542
31	0x3ea6d409	0.32583645

weight f4 [32]
0	0x3f59f018	0.8513198
1	0x3f03a6c8	0.51426363
2	0x3f0d99d5	0.55312854
3	0x3ed0638d	0.4070095
4	0x3f8bd9c1	1.0925828
5	0x3f5c3dc2	0.86031735
6	0x3f9054c3	1.1275867
7	0x3efa1912	0.48847252
8	0x3f820f47	1.0160912
9	0x3f7d32cc	0.98905635
10	0x3ec8216f	0.39088008
11	0x3f0181db	0.5058877
12	0x3f3c4673	0.73544997
13	0x37d7a0b0	2.5704823e-05
14	0x3f65bbdd	0.8973978
15	0x3ec44918	0.38337016
16	0x3f70c650	0.940526
17	0x3ed0d7e5	0.40789714
18	0x3f1cb5e9	0.6121507
19	0x3f2d8bec	0.6779163
20	0x3ed91771	0.42400697
21	0x3f91da2f	1.1394709
22	0x3ea1676d	0.3152422
23	0x3ebf4a79	0.37361506
24	0x3f854dcd	1.0414368
25	0x3f84a107	1.0361642
26	0x3f6bfb72	0.9218055
27	0x3f60080e	0.8751229
28	0x3f8c4ceb	1.0960974
29	0x3f1348a7	0.57532734
30	0x3f6bf9c7	0.92178005
31	0x3f82fbe7	1.0233124

bias f4 [32]
0	0x3dcad4cd	0.0990387
1	0x3e0a70e8	0.13519633
2	0x3e1fbbe7	0.15599023
3	0x3e10a306	0.14124689
4	0x3db50084	0.08837989
5	0x3e19b604	0.1501084
6	0x3e202e4b	0.1564266
7	0x3e0f63df	0.14002942
8	0x3e26d099	0.16290511
9	0x3d85c05f	0.065308325
10	0x3e1614f2	0.14656428
11	0x3e26e5b9	0.1629857
12	0x3e44b82b	0.1921088
13	0xbad01740	-0.001587607
14	0x3e200362	0.1562629
15	0x3e165612	0.1468127
16	0x3daf4435	0.08557931
17	0x3e23c135	0.15991671
18	0x3e11afe5	0.14227255
19	0x3e434451	0.1906903
20	0x3e049561	0.12947609
21	0x3e475dd6	0.1946939
22	0x3e1c30ff	0.15253066
23	0x3e0e411a	0.13892022
24	0x3e1ce215	0.15320618
25	0x3e0823c8	0.132949
26	0x3dfd89ea	0.12379821
27	0x3e01c979	0.12674512
28	0x3dd364ce	0.10321961
29	0x3e25463e	0.16140077
30	0x3de61e11	0.112362035
31	0x3db5210b	0.08844193

weight f4 [3, 1536]
0	0x3ce9d2f5	0.028542975
1	0x3cfdd90a	0.030987281
2	0x3bbae12b	0.0057031116
3	0x3d980bef	0.07424151
4	0xbcfc10e7	-0.030769778
5	0x3ca06477	0.019579155
6	0x3e291a40	0.1651392
7	0x3dd53829	0.10411102
8	0x3de1aa08	0.11018759
9	0x3dcef915	0.101061024
10	0x3e028d8d	0.1274931
11	0x3de34bc6	0.11098437
12	0x3dfe0d49	0.12404878
13	0x3dc74a37	0.09730952
14	0x3dff983f	0.124802105
15	0x3e0689db	0.13138525
16	0x3dc923dc	0.09821293
17	0x3de735c2	0.1128955
18	0x3e04e984	0.12979704
19	0x3dbd2b9b	0.09236833
20	0x3e0538b7	0.13009916
21	0x3de0e568	0.10981256
22	0x3deb56b7	0.11491149
23	0x3dfa3619	0.122173496
24	0x3dc993c7	0.098426394
25	0x3dfd75c5	0.123759784
26	0x3dc9f4cf	0.09861147
27	0x3df81e0b	0.12115105
28	0x3e12e8ec	0.14346665
29	0x3ddfa1f2	0.109195605
30	0x3df75da2	0.12078406
31	0x3e092e60	0.13396597
32	0x3e196ba6	0.14982471
33	0x3e09742f	0.13423227
34	0x3df64837	0.12025493
35	0x3e110ee2	0.14165834
36	0x3e138ba8	0.14408743
37	0x3e09a047	0.13440047
38	0x3db28b9d	0.08718035
39	0x3e0db580	0.13838768
40	0x3e2f4295	0.17115243
41	0x3e24e599	0.1610321
42	0x3dcec4a7	0.10096102
43	0xbc350036	-0.011047414
44	0x3d44b171	0.048020784
45	0xbc9a6dc5	-0.01885117
46	0xbcdee7f3	-0.027210211
47	0x3dabd553	0.08390298
48	0x3d145e3e	0.03622269
49	0x3e19b110	0.1500895
50	0x3d3c1c07	0.045925166
51	0xbdcdbbd4	-0.10045591
52	0x3c6835c2	0.014172973
53	0x3d6b1a5e	0.057398193
54	0x3d4f2ccf	0.050579842
55	0x3df18736	0.117933676
56	0x3dda892f	0.10670697
57	0x3c948bf4	0.018133141
58	0x3e27eef8	0.16399753
59	0x3d6fea4d	0.058573056
60	0x3db6bcbe	0.089227185
61	0x3e120354	0.14259082
62	0x3da71f6e	0.081602916
63	0x3dc9f6b0	0.09861505
64	0x3db1db05	0.08684353
65	0xbc0be736	-0.008539012
66	0xbd5491c8	-0.05189684
67	0x3e003ffe	0.12524411
68	0x3d8c94b2	0.06864299
69	0x3dbe842b	0.09302553
70	0x3cc6bc46	0.024259698
71	0x3d168a79	0.03675315
72	0x3d5cad96	0.053876482
73	0x3e06a877	0.13150202
74	0x3e0dcb44	0.13847071
75	0x3d6d3cb7	0.05791923
76	0x3c7f7ac6	0.015593236
77	0x3de8a336	0.11359255
78	0x3d869fe7	0.06573468
79	0x3db884f9	0.090097375
80	0x3e6e79a0	0.23288584
81	0x3e6af017	0.2294315
82	0xbdaeccf8	-0.085351884
83	0x3b23a642	0.0024970924
84	0x3e32cbb0	0.17460513
85	0x3d8e9f5e	0.06963991
86	0x3dd4f512	0.10398306
87	0x3d3b2e1e	0.045698278
88	0x3d87f879	0.06639189
89	0xbda4922f	-0.08035695
90	0xbcfa9dc2	-0.030592803
91	0x3e0db3d1	0.13838126
92	0x3e130dce	0.14360735
93	0x3e09b6e3	0.13448672
94	0x3e19bb4d	0.15012856
95	0x3e3586ea	0.17727247
96	0x3e197101	0.14984514
97	0x3e1ccbae	0.15312073
98	0x3e01cfe8	0.12676966
99	0x3e0596df	0.13045834
100	0x3e06a0d6	0.13147292
101	0x3df9252a	0.121652916
102	0x3dc654b9	0.09684128
103	0x3e1a068c	0.1504156
104	0x3db43f8c	0.08801183
105	0x3cd55fc2	0.026046637
106	0x3d221e26	0.039579533
107	0x3d126423	0.03574003
108	0x3e2b1158	0.16705835
109	0x3df77a67	0.12083893
110	0x3e0f1f21	0.13976718
111	0x3d670f47	0.056411054
112	0x3d8e261d	0.06940863
113	0xbccc9edf	-0.0249781
114	0x3e429f37	0.19006048
115	0x3e192c26	0.14958248
116	0x3dc57fc7	0.09643512
117	0x3db380dd	0.08764813
118	0x3c53cf02	0.0129277725
119	0x3d56867a	0.05237434
120	0x3e75c4e6	0.24000892
121	0x3d98cffb	0.07461544
122	0x3e166073	0.1468523
123	0x3dd0667a	0.10175796
124	0x3d4b674f	0.04965907
125	0x3d25ba49	0.04046086
126	0x3e2b909c	0.16754383
127	0x3dd9315e	0.10605119
128	0x3e068625	0.1313711
129	0x3e505ef0	0.20348716
130	0x3c859898	0.016308114
131	0x3d44ff11	0.048094813
132	0x3e7b0aa9	0.24515785
133	0x3e0cf07d	0.13763614
134	0x3de2748e	0.11057387
135	0x3e06cb56	0.13163504
136	0x3cdc73ae	0.02691063
137	0xbd7c6ea8	-0.061628968
138	0x3e3120d5	0.1729768
139	0x3d7d0f38	0.06178209
140	0x3d745b05	0.059657115
141	0x3d0d26ee	0.034460954
142	0x3d970baf	0.07375275
143	0x3d4056b8	0.0469577
144	0xbd2f77d9	-0.042838905
145	0x3e4dbe01	0.20092012
146	0x3e02e5bf	0.12782954
147	0x3d424312	0.047427244
148	0x3d3a3be7	0.045467284
149	0x3e35fd81	0.17772485
150	0x3e4a82c6	0.19776449
151	0x3e0b897a	0.13626662
152	0x3e009605	0.12557228
153	0x3d94e450	0.0727011
154	0x3d9a0d8a	0.075221136
155	0x3d7ac6e5	0.061224837
156	0x3e6f950a	0.23396698
157	0x3e13a997	0.14420162
158	0x3e0106e7	0.1260029
159	0x3dc38065	0.09545974
160	0x3e0defd8	0.13861024
161	0x3d6ba7ec	0.05753319
162	0x3e3de19c	0.18543094
163	0x3e390fe6	0.18072471
164	0x3d5c4968	0.053780943
165	0x3e621e05	0.22081764
166	0x3dbf8de1	0.09353233
167	0x3dedb61f	0.116070025
168	0x3e0a8b3d	0.13529678
169	0x3db61b0a	0.08891876
170	0x3c7848b5	0.015154053
171	0x3dd3eacd	0.10347519
172	0x3db3688e	0.087601766
173	0x3def70f6	0.116914675
174	0x3e41aa5b	0.18912642
175	0x3e06567c	0.13118929
176	0x3e311195	0.17291863
177	0x3c815043	0.015785342
178	0xbb4af79f	-0.0030970348
179	0x3dd076b9	0.101788945
180	0x3e72df29	0.23717941
181	0x3e079420	0.13240099
182	0x3e0f118f	0.13971542
183	0x3e32433f	0.17408465
184	0x3d2f997a	0.042870976
185	0x3b0bb14e	0.0021315399
186	0x3e451d72	0.19249514
187	0x3d5a00a7	0.05322328
188	0x3d610b00	0.05494213
189	0x3d2bddcb	0.041959565
190	0x3d6b71bc	0.057481512
191	0x3d31c19e	0.04339754
192	0x3afa7ac3	0.0019110072
193	0x3d93a19b	0.07208558
194	0x3dcb8d45	0.099390544
195	0x3d3327a4	0.043738976
196	0x3d183ccb	0.03716735
197	0x3d570565	0.05249538
198	0x3e00f6d4	0.12594157
199	0x3ddc233a	0.107489064
200	0x3db243d9	0.08704347
201	0x3dd2c3d0	0.102912545
202	0x3e03951e	0.12849852
203	0x3dc82e9f	0.09774517
204	0x3e2d0e2e	0.1689994
205	0x3dbe0566	0.092783734
206	0x3dbc5780	0.09196377
207	0x3dd22806	0.1026154
208	0x3e0699e0	0.13144636
209	0x3db21e98	0.086972415
210	0x3e0e1415	0.13874848
211	0x3de1171f	0.10990738
212	0x3ddf37ea	0.10899337
213	0x3dd1e513	0.102487706
214	0x3e050e53	0.12993746
215	0x3dd81845	0.10551504
216	0x3e0cd5b8	0.13753402
217	0x3dc68ae6	0.096944615
218	0x3e08ec01	0.13371278
219	0x3deaf340	0.114721775
220	0x3db95e5f	0.09051203
221	0x3dc8748c	0.097878546
222	0x3e219619	0.15779914
223	0x3dfb82b8	0.12280792
224	0x3dc263a7	0.094916634
225	0x3d82fdeb	0.06396087
226	0x3dcd5ee6	0.10027866
227	0x3dd4d1ae	0.10391556
228	0x3e4232ca	0.18964687
229	0x3dc8cc34	0.09804574
230	0x3e07ba9c	0.1325478
231	0x3df80c94	0.12111774
232	0x3dc1d4ed	0.094644405
233	0x3e0e9149	0.1392261
234	0x3db442dd	0.08801816
235	0xbc90e30e	-0.017686393
236	0x3ca0e5fe	0.019640919
237	0x3c630701	0.01385665
238	0x3d87c78b	0.06629857
239	0xbcc03028	-0.023460463
240	0x3e24000a	0.1601564
241	0x3e20d81e	0.15707442
242	0x3ddce075	0.10784999
243	0x3e18e754	0.14931995
244	0x3e0dcb0d	0.13846989
245	0x3ddf4eec	0.10903725
246	0x3d25b8fb	0.040459614
247	0x3e452086	0.19250688
248	0x3d59f4bc	0.053211913
249	0x3d736718	0.05942449
250	0xbc849cc5	-0.016188035
251	0x3c9a042b	0.018800816
252	0x3d8993e3	0.0671766
253	0x3de2b63b	0.11069914
254	0x3da37939	0.07982106
255	0xbca8cce9	-0.020605521

bias f4 [3]
0	0x3df52ae8	0.11971074
1	0x3dcaecc5	0.099084415
2	0x3da9c54e	0.08289586
