dev/pong/optimized/prefetched/pong_optimized_600.pth (torch_old, 191804 bytes, 20 tensors)

weight f4 [16, 1, 5, 5]
0	0x3cc64590	0.024203092
1	0x3d132f26	0.035933636
2	0xbe46abf0	-0.19401526
3	0x3e67ae1b	0.2262501
4	0x3cb701de	0.022339758
5	0x3e43866d	0.19094248
6	0x3d822c1a	0.06356068
7	0xbe6bafd5	-0.23016293
8	0xbdfafe27	-0.12255507
9	0x3e60a230	0.2193687
10	0xbe055eb9	-0.13024415
11	0xbe04b169	-0.12958302
12	0xbcc26d3d	-0.02373373
13	0x3caf2e4e	0.021384384
14	0x3e341bff	0.17588805
15	0xbe5b7bc5	-0.21433933
16	0x3db98dfe	0.09060286
17	0xbdbb2a4b	-0.09138926
18	0x3c9e9e62	0.019362632
19	0xbe130fb4	-0.14361459
20	0xbe1e4430	-0.15455699
21	0x3e022129	0.12707962
22	0x3d606949	0.054787908
23	0x3d116d21	0.035504464
24	0x3d8e491b	0.069475375
25	0xbd33c931	-0.043893043
26	0x3d25f47b	0.040516358
27	0xbe1141dc	-0.1418528
28	0xbe3c5be7	-0.18394433
29	0xbd1ce830	-0.03830737
30	0x3bc16130	0.005901478
31	0xbe4e0973	-0.20120792
32	0x3de4d80b	0.111740194
33	0xbcdb64f1	-0.026781531
34	0x3d373f16	0.044737898
35	0xbdb27891	-0.087144025
36	0xbba67390	-0.005079694
37	0x3d9b5d04	0.07586101
38	0xbdece4d9	-0.11567087
39	0x3cf8f699	0.030391024
40	0xbd878997	-0.0661804
41	0x3e76d0d6	0.24103102
42	0xbd284f07	-0.04109099
43	0x3e88b23d	0.26698485
44	0x3e14603c	0.14489836
45	0x3d57fe36	0.05273267
46	0x3c105217	0.008808634
47	0xbd0d396a	-0.034478582
48	0xbe22c48d	-0.1589529
49	0x3ddddf82	0.10833646
50	0x3e24c3f3	0.16090374
51	0x3e2f3206	0.17108926
52	0xbe498e1a	-0.19683114
53	0xbe22ec8d	-0.1591055
54	0x3d9ba055	0.0759894
55	0x3d820dfa	0.06350322
56	0x3df026e7	0.1172617
57	0x3e1d7dcf	0.15380023
58	0xbe36d7a2	-0.17855695
59	0xbe1412c0	-0.14460278
60	0xbdedace8	-0.11605245
61	0xbdd6b2ec	-0.104833454
62	0xbe132484	-0.14369398
63	0x3e14d8a7	0.14535771
64	0xbd1dfb51	-0.038569752
65	0xbe356cda	-0.17717305
66	0xbe6b2af3	-0.22965603
67	0x3e526275	0.20545371
68	0x3e5862c6	0.21131429
69	0xbdd0f39b	-0.10202714
70	0xbd461391	-0.048358504
71	0x3e50da5d	0.20395799
72	0xbda3dbe1	-0.08000923
73	0xbd0449c7	-0.032296922
74	0x3e4c918b	0.19977395
75	0x3d618d1a	0.055066206
76	0xbda297af	-0.079390876
77	0xbe0d52d6	-0.1380113
78	0xbd8c4bc4	-0.06850389
79	0x3e03300a	0.12811294
80	0xbe46a385	-0.19398315
81	0xbe4dc74b	-0.20095555
82	0x3e4c3444	0.19941813
83	0xbce0ca61	-0.027440252
84	0xbddba495	-0.10724751
85	0x3d40178e	0.046897464
86	0x3e02670f	0.12734626
87	0x3de1461b	0.109997
88	0xbd922018	-0.07135028
89	0xbe049a09	-0.12949385
90	0x3e57d540	0.21077442
91	0xbce41701	-0.027843
92	0x3e3d050f	0.18458961
93	0xbd0a0cf5	-0.033703763
94	0xbcc068be	-0.023487445
95	0xbd3b4043	-0.04571558
96	0x3e231424	0.15925652
97	0xbd9069c2	-0.07051422
98	0xbe7750ed	-0.24151964
99	0xbd99f62e	-0.07517658
100	0x3de0e9da	0.10982104
101	0xbb37f0f0	-0.0028067194
102	0x3dc3d284	0.09561637
103	0x3dceda39	0.101002164
104	0x3e182886	0.14859208
105	0xbe069635	-0.13143237
106	0x3d6eaf39	0.058272574
107	0xbde9a727	-0.11408835
108	0xbe27ae44	-0.16375071
109	0x3dbf7a8a	0.09349544
110	0x3d1e7466	0.038685225
111	0x3bd7441a	0.0065693976
112	0x3e159f82	0.14611629
113	0xbe39ce4a	-0.181451
114	0xbd9d7e17	-0.07690065
115	0xbe0d3f0c	-0.13793582
116	0x3e5b460d	0.21413441
117	0x3e745834	0.23861772
118	0xbdf4b643	-0.11948826
119	0xbdffba91	-0.124867566
120	0xbd12dcbd	-0.035855044
121	0xbd9ee636	-0.07758753
122	0x3e55b682	0.20870402
123	0xbcf1c96f	-0.029514996
124	0xbdbf112e	-0.09329449
125	0xbcb84d48	-0.022497788
126	0xbcd3c3ba	-0.025850166
127	0x3bd99c1e	0.006640925
128	0xbd60c8d6	-0.054879032
129	0xbd0e7b26	-0.034785412
130	0x3daf8aa9	0.08571369
131	0xbe06e56e	-0.13173458
132	0x3e05394e	0.13010141
133	0x3d6622bf	0.05618548
134	0xbcabddb5	-0.020979742
135	0xbe502724	-0.20327431
136	0xbe3f9e73	-0.18712787
137	0xbe236f5a	-0.15960446
138	0x3c93525f	0.017983614
139	0xbe26f4cd	-0.16304322
140	0x3e8f3f62	0.27978045
141	0x3e9cbaf5	0.30611387
142	0x3dc36e79	0.09542555
143	0xbe22a2c9	-0.1588241
144	0x3e3b3e03	0.18285374
145	0xbe2fe437	-0.17176901
146	0x3d9710d4	0.073762566
147	0x3e03d435	0.1287392
148	0xbdc205eb	-0.09473785
149	0x3d8b68ac	0.06807074
150	0xbd04d052	-0.032425232
151	0xbd62121d	-0.055193055
152	0x3e1c99de	0.1529307
153	0x3e0adb7f	0.13560294
154	0x3d50df26	0.05099406
155	0xbe42f222	-0.19037679
156	0xbdf31db2	-0.11870898
157	0xbe0b4451	-0.1360028
158	0x3dc543e2	0.09632088
159	0xbdf0016c	-0.11719021
160	0x3e15faa3	0.14646392
161	0xbdd47bd4	-0.10375181
162	0xbe6ee839	-0.23330773
163	0xbdade362	-0.084906355
164	0xbc59b5ad	-0.013287944
165	0xbdf9ab11	-0.121908315
166	0x3dbb3c0c	0.091423124
167	0x3e3ffce5	0.18748815
168	0x3d8a397c	0.067492455
169	0xbe2a3d1b	-0.16624872
170	0x3dc2c35e	0.095099196
171	0x3e03e9f7	0.1288222
172	0xbe5b99cc	-0.21445388
173	0x3df94f56	0.12173335
174	0xbdac8b3a	-0.08424993
175	0xbdf30a4a	-0.11867197
176	0x3e004bc4	0.12528902
177	0x3e21dfa0	0.15807962
178	0xbdb860cc	-0.090028375
179	0x3d9c0649	0.07618386
180	0xbdc3cfda	-0.09561129
181	0x3df6c255	0.12048785
182	0xbdb9579e	-0.09049915
183	0x3dedc44a	0.11609705
184	0xbe5f5d55	-0.21812947
185	0xbc998ce6	-0.018743943
186	0x3e5cd97f	0.21567343
187	0x3df2941c	0.11844656
188	0xbd289dfe	-0.041166298
189	0x3c83e434	0.016100027
190	0x3e08c6ce	0.13357088
191	0x3b939573	0.0045038997
192	0xbe3decdb	-0.18547384
193	0xbe752721	-0.23940708
194	0xbc2a953d	-0.010411558
195	0xbe4ffcd9	-0.20311297
196	0xbe720582	-0.23634914
197	0x3e455e65	0.1927429
198	0xbdcba042	-0.09942676
199	0x3dd767cf	0.10517847
200	0xbd566af7	-0.052348103
201	0xbd0db109	-0.034592662
202	0xbdd4c4ab	-0.10389074
203	0xbdb33383	-0.087500595
204	0x3df11c64	0.11772993
205	0x3ddeee81	0.10885335
206	0xbdb9fa06	-0.09080891
207	0x3d98182b	0.07426485
208	0x3de6a395	0.112616695
209	0xbc6afda2	-0.014342697
210	0xbd9710e8	-0.073762715
211	0xbca3bb3c	-0.019986741
212	0xbe2a12ca	-0.1660873
213	0x3ce67505	0.028131971
214	0x3dc42433	0.09577217
215	0xbe525847	-0.20541488
216	0xbe655a1a	-0.22397652
217	0x3e1b645c	0.15175003
218	0x3e7e8f91	0.24859454
219	0x3e323421	0.17402698
220	0x3dc6a4db	0.096994124
221	0x3e01093f	0.12601183
222	0xbcfdb220	-0.030968726
223	0x3cf6414c	0.030060433
224	0xbcc4f813	-0.024044072
225	0x3d24eacb	0.04026298
226	0xbd2c9e79	-0.04214332
227	0xbde1c96f	-0.110247485
228	0x3dfa99b9	0.122363515
229	0xbe458b89	-0.1929151
230	0x3de9d8f6	0.11418335
231	0xbde5d51d	-0.11222289
232	0x3e17ae82	0.14812663
233	0xbc638fa3	-0.013889226
234	0x3da78024	0.08178738
235	0xbe34bb08	-0.17649472
236	0x3e324d7a	0.17412367
237	0xbd21a0c1	-0.039459947
238	0xbd226c66	-0.039654158
239	0x3b0175ba	0.0019754008
240	0xbe1d6686	-0.15371141
241	0x3e0669d5	0.13126309
242	0xbd7fdd1e	-0.062466733
243	0x3e58ef4c	0.21185035
244	0xbd5ef3ce	-0.05443173
245	0xbd816a17	-0.06319063
246	0x3d92654c	0.07148227
247	0xbe3afc36	-0.18260273
248	0xbc96a011	-0.018386872
249	0xbd168866	-0.036751173
250	0x3d909c3e	0.07061051
251	0x3ddbdf9f	0.10736012
252	0xbe3cd4cf	-0.18440555
253	0x3e728bce	0.23686144
254	0x3e445196	0.19171748
255	0x3d122810	0.035682738

bias f4 [16]
0	0xbe24ee35	-0.16106494
1	0x3d4f6702	0.050635345
2	0xbd67e59a	-0.05661545
3	0x3d2eda2e	0.04268854
4	0x3db1e346	0.08685927
5	0x3dbb2aea	0.091390446
6	0x3d8d9497	0.06913107
7	0x3cd5287f	0.026020287
8	0x3d26c9c9	0.04071978
9	0x3df88f11	0.12136663
10	0x3dbd72b9	0.09250397
11	0x3e475790	0.19466996
12	0xbdfd6da4	-0.12374428
13	0xbe36c144	-0.17847162
14	0xbd485f89	-0.048919234
15	0x3e201233	0.15631942

running_mean f4 [16]
0	0xbe365814	-0.17807037
1	0x3d24bfae	0.040221862
2	0xbd927bff	-0.07152557
3	0xbd9952f7	-0.074865274
4	0x3e1aab50	0.15104413
5	0x3dbc660f	0.09199154
6	0xbd9bc20b	-0.0760537
7	0xbd8c57ff	-0.068527214
8	0x3e016bab	0.12638728
9	0x3d4ea0a1	0.050446156
10	0x3d9331a3	0.07187202
11	0xbbb6b82d	-0.0055761547
12	0x3e9cf3db	0.30654797
13	0xbeb11159	-0.34583548
14	0xbce57bb3	-0.028013086
15	0xbda7a864	-0.08186415

running_var f4 [16]
0	0x3a88468e	0.0010397003
1	0x3ad2b58f	0.0016075837
2	0x3aabd543	0.0013109822
3	0x3b0d2d08	0.0021541733
4	0x3a38fa16	0.00070563087
5	0x38a97732	8.08075e-05
6	0x3b06f9af	0.00205956
7	0x3a119d67	0.0005554766
8	0x39f339c6	0.00046391616
9	0x3a020970	0.0004960513
10	0x3aa37809	0.0012471686
11	0x3ab656b0	0.0013911333
12	0x3be57014	0.007001886
13	0x3afbd386	0.0019212819
14	0x3b39942c	0.0028317077
15	0x3b007a95	0.0019604315

weight f4 [16]
0	0x3ec9d8ef	0.3942332
1	0x3ebcbac7	0.3686125
2	0x3f5f5967	0.8724579
3	0x3f6342ee	0.88774
4	0x3ea9c20d	0.33155861
5	0x3e5ffaa8	0.21872962
6	0x3ee05b4a	0.43819648
7	0x3f575d31	0.84126574
8	0x3f23e0ad	0.64014703
9	0x3f03d505	0.51496917
10	0x3e940425	0.28909412
11	0x3ed5c11b	0.4174889
12	0x3e820019	0.253907
13	0x3f629705	0.8851169
14	0x3f15e0af	0.58545965
15	0x3f60d792	0.87828934

bias f4 [16]
0	0xbca16c67	-0.01970501
1	0x3c3196d7	0.010839186
2	0xbe33124c	-0.17487448
3	0xbd9716ed	-0.073774196
4	0xbdb01bd1	-0.085990556
5	0xbe40b9f2	-0.18820933
6	0x3d1c624a	0.038179673
7	0xbd98e557	-0.07465618
8	0xbded7c06	-0.11595921
9	0xbd2c593b	-0.042077284
10	0xbb5ef012	-0.0034017605
11	0xbd94af2a	-0.072599724
12	0xbe06bab4	-0.13157159
13	0xbdae4738	-0.08509678
14	0xbd9c8c8f	-0.07643997
15	0x3d69cdb2	0.057080932

weight f4 [32, 16, 5, 5]
0	0x3ca581bc	0.020203464
1	0x3d5ae30e	0.053439192
2	0xbe089d1e	-0.13341185
3	0xbd281dbb	-0.04104398
4	0x3d12693e	0.035744898
5	0xbdd4edb2	-0.10396899
6	0x3bb94812	0.0056543434
7	0xbde3ae0b	-0.111171804
8	0x3ab45c78	0.0013760468
9	0xbd0b4374	-0.033999875
10	0xbbe31239	-0.0069296625
11	0x3d3c6faf	0.046004947
12	0x3d51e5f6	0.0512447
13	0x3db06420	0.08612847
14	0xbd87c093	-0.066285275
15	0x3d2fa9a4	0.04288639
16	0xbe5596e3	-0.2085834
17	0xbcfce2b4	-0.03086982
18	0x3cffa831	0.03120813
19	0xbe1b4de6	-0.15166435
20	0xbcd17153	-0.025566733
21	0xbd6ed91b	-0.058312517
22	0xbcd1eb66	-0.025624942
23	0xbd0df0ca	-0.034653462
24	0xbd2c7681	-0.0421052
25	0xbd801d97	-0.06255644
26	0xbbb6edae	-0.005582533
27	0x3c9d3d91	0.019194396
28	0x3d5f4330	0.054507434
29	0x3db1be34	0.086788565
30	0xbcb7f270	-0.02245447
31	0x3d6a82e7	0.057253744
32	0x3c727108	0.014797457
33	0xbb15cdb5	-0.0022858207
34	0xbcd72bda	-0.026266027
35	0x3d0da8c5	0.03458478
36	0xbb1142f0	-0.0022165142
37	0xbc8cab19	-0.01717143
38	0xbd81b3f3	-0.06333151
39	0x3ba717a3	0.0050992533
40	0x3d20a797	0.039222326
41	0x3cb7d833	0.022441959
42	0x3d1a786e	0.037712507
43	0xbd8e6f64	-0.0695484
44	0x3df229c5	0.11824373
45	0x3c169526	0.009190833
46	0xbcb7b93f	-0.0224272
47	0xbbb0135a	-0.0053734006
48	0xbdc9c102	-0.098512664
49	0x3d324415	0.04352196
50	0x3da1136f	0.07865035
51	0x3df5d912	0.120042935
52	0xbd29d357	-0.041461315
53	0xbe03bbac	-0.1286456
54	0xbcc96ec1	-0.024588944
55	0xbd53cf27	-0.051711228
56	0x3b330261	0.002731465
57	0xbcbe98a9	-0.023266153
58	0xbdcb2393	-0.099188946
59	0xbdf8913d	-0.12137077
60	0xbc843040	-0.016136289
61	0xbc86479d	-0.01639157
62	0x3d13e80a	0.03610996
63	0x3cddabe7	0.027059508
64	0x3bce82de	0.0063022217
65	0x3d6125dc	0.054967746
66	0xbd901acd	-0.07036362
67	0x3ae42352	0.0017405546
68	0xbc8efa30	-0.017453283
69	0xbe4b1482	-0.19832042
70	0xbd25031a	-0.04028616
71	0xbdb755f1	-0.08951939
72	0xbdb4a2a0	-0.08820081
73	0x3d002195	0.031282026
74	0x3cdfbba6	0.027311157
75	0x3b67567c	0.0035299351
76	0xbd1e2c79	-0.03861663
77	0xbd02bc9d	-0.031918157
78	0x3d555980	0.052087307
79	0xbd179a6f	-0.037012514
80	0xbd475d9c	-0.048673257
81	0x3ceb9267	0.028756334
82	0x3d98ecf1	0.07467068
83	0x3ba0c2ae	0.00490602
84	0xbda6a24e	-0.08136426
85	0xbc19cb6f	-0.009386881
86	0xbaf6f470	-0.0018841159
87	0x3b2b12b2	0.0026103673
88	0xbcf94456	-0.030428093
89	0x3d00f5b0	0.031484306
90	0x3d834f44	0.06411603
91	0x3d9113bf	0.070838444
92	0xbd04b3cb	-0.032398026
93	0x3d1a51a9	0.037675533
94	0xbd890f17	-0.06692331
95	0xbd3e609e	-0.04647886
96	0xbd106b51	-0.035258595
97	0x3c5088f4	0.012727965
98	0x3dd352d2	0.10318531
99	0x3d740cd7	0.059582558
100	0xbd058526	-0.032597683
101	0xbd802816	-0.06257646
102	0xbc809cd5	-0.015699783
103	0xbceb8afd	-0.028752798
104	0xbcd81aa0	-0.026379883
105	0xbddb831f	-0.10718369
106	0xbd4add9d	-0.049527753
107	0x3d065c9a	0.032803155
108	0xbd35e9f5	-0.044412572
109	0x3b950d9d	0.004548742
110	0x3bd88f9f	0.006608918
111	0xbcf1615e	-0.029465374
112	0xbd6450d2	-0.05574114
113	0xbda830d7	-0.082124405
114	0xbda3d440	-0.07999468
115	0xbd4704ba	-0.048588492
116	0xbcdef419	-0.027216004
117	0x3d20528c	0.039141223
118	0x3d5a65dd	0.0533198
119	0xbd6efb7e	-0.05834531
120	0xbd609899	-0.05483303
121	0xbbaa0b5c	-0.0051893424
122	0x3d40d4d7	0.04707798
123	0x3db08202	0.08618547
124	0xbd913e3a	-0.07091947
125	0xbd451718	-0.048117727
126	0x3c93ef09	0.018058317
127	0xbd91e249	-0.071232386
128	0xbd6c3f39	-0.05767748
129	0x3da2e07a	0.07952972
130	0x3c600932	0.013674067
131	0x3d193906	0.037407897
132	0x3da8aef6	0.08236496
133	0x3d2774db	0.040882926
134	0x3d630a0b	0.0554295
135	0xbdce7bed	-0.10082231
136	0x3c95e72b	0.018298706
137	0x3b093651	0.0020936916
138	0xbdb956c0	-0.090497494
139	0xbbf0e407	-0.0073514017
140	0xbe4d233a	-0.20032969
141	0xbd27780e	-0.040885977
142	0xbd3ce15d	-0.04611336
143	0x3d0f1dde	0.034940593
144	0x3c2cd26c	0.010548215
145	0xbde870f6	-0.113496706
146	0xbd2f9c91	-0.042873923
147	0xbd3fd370	-0.046832502
148	0xbd6ef1a5	-0.05833592
149	0x3dca1c47	0.09868675
150	0xbd872ada	-0.0659997
151	0xbdfb9d27	-0.12285834
152	0x3d3e2c10	0.04642874
153	0xbdf6f9ca	-0.12059362
154	0x3ca4a4db	0.02009814
155	0xbd03a701	-0.03214169
156	0x3da6388c	0.08116254
157	0xbca367f0	-0.019947022
158	0xbe36703f	-0.17816256
159	0x3b9b3bfb	0.004737375
160	0xbcc01b4c	-0.023450516
161	0x3d87ef47	0.066374354
162	0xbd33ed9f	-0.043927785
163	0xba59db64	-0.0008310585
164	0xbd66f4d2	-0.056385823
165	0x3d876bb0	0.06612337
166	0xbd1de215	-0.038545687
167	0xbda5609a	-0.08075066
168	0xbd3c0392	-0.045901842
169	0x3c57ae5c	0.013164129
170	0xbcd90812	-0.026493106
171	0xbd3b4663	-0.045721423
172	0xbd127f5f	-0.035766
173	0xbc7c2903	-0.015390637
174	0xbb45717b	-0.0030127454
175	0x3db56d43	0.08858731
176	0x3be527f8	0.00699329
177	0xbdb1f1cd	-0.08688698
178	0xbe045183	-0.12921719
179	0xbd99fc44	-0.07518819
180	0xbd5ecdaf	-0.054395374
181	0xbdc86318	-0.09784526
182	0x3cbbaff9	0.022911059
183	0xbe8056a4	-0.25066102
184	0xbd21160c	-0.039327666
185	0xbe05bb9a	-0.13059846
186	0xbc67c432	-0.014145898
187	0x3d5952e2	0.05305756
188	0x3d7a11c6	0.061052106
189	0xbcea94ed	-0.028635466
190	0xbdb3efda	-0.087859824
191	0x3bd372d8	0.0064528994
192	0x3cc09e4b	0.02351298
193	0x3d629210	0.055315077
194	0x3d6b2be8	0.05741492
195	0xbdd11eaa	-0.10210927
196	0xbdfd61c5	-0.12372164
197	0xbc6aa97b	-0.014322634
198	0xbdbcc5ab	-0.0921739
199	0x3d96f1f1	0.073703654
200	0xbd673b7c	-0.056453213
201	0x3b9cb711	0.0047825654
202	0xbbad98d5	-0.00529776
203	0x3d8b0012	0.06787123
204	0x3e3add0a	0.18248382
205	0xbd2de649	-0.042455945
206	0x3d8cfeec	0.0688456
207	0xbdb30c56	-0.08742587
208	0xbd4ec91b	-0.050484758
209	0x3d2f8b26	0.04285731
210	0x3c155ab3	0.009115863
211	0xbc567a8e	-0.013090743
212	0xbe22a3c0	-0.15882778
213	0xbc690b6d	-0.0142239155
214	0xbd27fcb8	-0.041012496
215	0xbce643aa	-0.028108437
216	0x3d8dc104	0.069215804
217	0xbd569aba	-0.052393652
218	0xbc0bfc4b	-0.008544038
219	0xbdd69c05	-0.10478977
220	0xbd8b4959	-0.06801099
221	0xbd16fed2	-0.03686411
222	0x3b2eae6c	0.0026654257
223	0xbbc9c06f	-0.006156973
224	0xbdb59ec3	-0.08868172
225	0xbd26ed07	-0.04075339
226	0x3d127342	0.03575445
227	0x3d1f97bf	0.038963076
228	0xbe371527	-0.17879163
229	0x3c9f151d	0.019419247
230	0xbddf1f7e	-0.108946785
231	0x3d805e90	0.06268036
232	0xbdb12857	-0.08650272
233	0xbc81e490	-0.015856057
234	0x3d6c42ed	0.057681013
235	0x3d034c2e	0.032055072
236	0x3ca37535	0.01995335
237	0xbd6ab61b	-0.057302576
238	0xbc97810b	-0.01849415
239	0x3c4845e5	0.012223695
240	0xbc85c294	-0.016328134
241	0xbd36e9a9	-0.04465643
242	0xbbc22330	-0.005924605
243	0x3d005af6	0.031336747
244	0x3d07acc2	0.03312374
245	0x3cd0112a	0.02539881
246	0xbced83fd	-0.028993601
247	0xbcb96e8f	-0.022635726
248	0x3cfa9e13	0.030592954
249	0x3d779340	0.060443163
250	0x3d7f0d22	0.062268384
251	0x3da60420	0.081062555
252	0x3c9a75f8	0.01885508
253	0x3cb173a2	0.021661583
254	0xbd1e2391	-0.038608138
255	0xbc9f4d80	-0.019446135

bias f4 [32]
0	0x3c17d94e	0.009268118
1	0xbcbb24e1	-0.022844734
2	0x3d25d0c1	0.040482286
3	0x3c197193	0.009365457
4	0x3d697081	0.056992058
5	0x3d2c064a	0.041998185
6	0xbca1fa6b	-0.019772729
7	0xbd223ed9	-0.039610717
8	0x3cb239ee	0.021756139
9	0xbbe93d35	-0.007117892
10	0x3d0df9d7	0.034662094
11	0xbc356641	-0.0110717425
12	0xbb7394cd	-0.003716755
13	0x3cd1825d	0.025574857
14	0x3d17a3e7	0.037021544
15	0x3ce90335	0.028443912
16	0xbcbcb46f	-0.023035256
17	0xbd9ac370	-0.07556808
18	0xbba0fc2c	-0.0049128737
19	0x3d30f6fd	0.043204296
20	0x3db8b21c	0.09018347
21	0xbb43b25b	-0.0029860947
22	0xbd836d32	-0.06417312
23	0x3cc66eee	0.024222817
24	0xbab53223	-0.0013824146
25	0x3d904a8a	0.07045467
26	0xbc67fc12	-0.014159219
27	0xbcb4bb9e	-0.02206212
28	0x3c845ac6	0.016156565
29	0x3cb149f1	0.021641703
30	0x3d34a53c	0.044102892
31	0x3b853a6c	0.0040658023

running_mean f4 [32]
0	0xbea8bb3a	-0.32955343
1	0x3e0e3305	0.1388665
2	0xbe94af35	-0.29039922
3	0xbd6d976c	-0.058005735
4	0x3e3a7705	0.18209465
5	0xbf15228c	-0.5825584
6	0x3f0cb023	0.54956263
7	0xbe6abebc	-0.22924322
8	0xbee28e1b	-0.44249043
9	0xbee0db1a	-0.4391716
10	0xbdf8a3ec	-0.121406406
11	0x3d8d8786	0.06910615
12	0xbe6ca5be	-0.231101
13	0xbd590bcb	-0.052989762
14	0x3e6eece4	0.23332554
15	0x3ef37c41	0.47555736
16	0xbe7fa7b3	-0.24966316
17	0xbca2147d	-0.01978516
18	0xbe72e91a	-0.23721734
19	0xbeb1c027	-0.34716913
20	0x3e3e68a1	0.185946
21	0xbdd74885	-0.10511879
22	0xbcfca48f	-0.030840186
23	0x3e64c161	0.22339393
24	0xbf4eaa72	-0.8072883
25	0x3e2bf705	0.16793449
26	0xbc1a56f7	-0.009420148
27	0xbee5e647	-0.4490225
28	0x3e3038a4	0.17209107
29	0x3ea04a92	0.31306893
30	0x3d582114	0.05276592
31	0xbad75811	-0.0016429444

running_var f4 [32]
0	0x3e7e46e1	0.24831726
1	0x3d61ba1f	0.05510914
2	0x3eb09049	0.3448508
3	0x3ed03a19	0.40669325
4	0x3e9fdf70	0.31225157
5	0x3e9ad1a9	0.30238083
6	0x3eb210b7	0.34778377
7	0x3e7764ab	0.24159496
8	0x3f4ffcf5	0.81245357
9	0x3db10eb3	0.08645382
10	0x3ed3a223	0.41334638
11	0x3eca83c1	0.39553645
12	0x3e141a90	0.14463258
13	0x3f2212f5	0.63310176
14	0x3f181aa0	0.59415627
15	0x3e25a328	0.1617552
16	0x3d516b33	0.051127624
17	0x3d61c4b5	0.055119235
18	0x3d25efc5	0.040511865
19	0x3e598422	0.21241811
20	0x3e26ab6b	0.16276328
21	0x3ea4beb1	0.32176736
22	0x3de425cb	0.11140021
23	0x3e8be548	0.27323365
24	0x3e8fb366	0.28066558
25	0x3ec9e6c0	0.3943386
26	0x3e7732fc	0.24140543
27	0x3de72b16	0.11287515
28	0x3e5ce0a8	0.21570075
29	0x3e4c7eed	0.19970293
30	0x3f34dd8b	0.7065055
31	0x3f38a6fe	0.7212981

weight f4 [32]
0	0x3e8a9aea	0.27071315
1	0x3e12fff8	0.14355457
2	0x3f16296e	0.58656967
3	0x3f540766	0.8282379
4	0x3f7a4ecd	0.9777649
5	0x3f561a09	0.83633476
6	0x3e6c224f	0.23059963
7	0x3ef93058	0.48669696
8	0x3f6ac78c	0.91710734
9	0x3f34c21e	0.706087
10	0x3f344860	0.70422935
11	0x3ece260b	0.402634
12	0x3ebbb93b	0.36664757
13	0x3f4f6963	0.8102018
14	0x3f241123	0.6408865
15	0x3df17704	0.117902786
16	0x3f8110a2	1.0083201
17	0x3e571a35	0.21006091
18	0x3efce654	0.49394476
19	0x3f1919a0	0.59804726
20	0x3e551fd6	0.20812926
21	0x3f3dafee	0.7409657
22	0x3e8fdd85	0.28098693
23	0x3e79d2d9	0.24396838
24	0x3f24e9d5	0.644193
25	0x3f342182	0.7036363
26	0x3ea3176d	0.3185381
27	0x3f651700	0.8948822
28	0x3eae5233	0.34047088
29	0x3e4b2e12	0.19841793
30	0x3f4424cf	0.76618665
31	0x3f425c4e	0.75922096

bias f4 [32]
0	0x3d6021d2	0.054719754
1	0xbdcd73c9	-0.1003185
2	0x3d108995	0.03528746
3	0xbda085e8	-0.078380406
4	0xbdca337c	-0.09873101
5	0x3d076cb6	0.03306266
6	0xbd560855	-0.05225404
7	0xbc515980	-0.012777686
8	0x3d665865	0.056236643
9	0xbe121192	-0.14264515
10	0x3d426832	0.04746265
11	0xbd8e012b	-0.069338165
12	0xbd8fae32	-0.07015647
13	0x3d0d4594	0.034490183
14	0xbe2327d7	-0.15933166
15	0xbd1e3520	-0.038624883
16	0xbe58701c	-0.21136516
17	0xbe2156ec	-0.15755814
18	0xbe55283f	-0.20816134
19	0xbe16244f	-0.14662288
20	0xbd0e9de1	-0.034818534
21	0x3d5f8063	0.0545658
22	0xbd68b914	-0.05681713
23	0x3b6df4e1	0.003630929
24	0x3d2ce2c2	0.04220844
25	0xbdbc11b1	-0.09183062
26	0xbd90ab15	-0.07063881
27	0xbcfd9cfa	-0.030958641
28	0xbce7870f	-0.028262643
29	0xbd9cdb14	-0.07658973
30	0xbe2d820b	-0.16944139
31	0xbd5bdf44	-0.05367972

weight f4 [32, 32, 5, 5]
0	0xbe124fee	-0.14288303
1	0xbe39df7a	-0.18151656
2	0xbd5c9308	-0.053851157
3	0xbd6e2626	-0.05814185
4	0xbc6630a8	-0.0140496865
5	0x3e331936	0.17490086
6	0xbc812502	-0.015764717
7	0xbd9ec0ad	-0.07751594
8	0xbda085eb	-0.07838043
9	0x3c82cb68	0.015966132
10	0x3cd6a3a4	0.026201077
11	0xbd860a64	-0.065449506
12	0x3c23de74	0.010001767
13	0xbc134747	-0.008989162
14	0xbc6dcf53	-0.014514762
15	0xbda32965	-0.0796688
16	0x3c144324	0.009049211
17	0xbd0a8c11	-0.033824984
18	0xbd36becf	-0.044615563
19	0xbd3f0bfd	-0.046642292
20	0x3c9a3f68	0.018829063
21	0x3c36276f	0.0111178
22	0xbcadec81	-0.021230938
23	0x3da1de28	0.07903701
24	0xbd1a6e83	-0.03770305
25	0xbe065d4f	-0.13121532
26	0xbd0505a6	-0.03247609
27	0xbd73449f	-0.059391614
28	0xbcde43b5	-0.027131895
29	0x3ccc85a6	0.024966072
30	0x3ca18014	0.019714393
31	0xbd91dc1e	-0.07122062
32	0xbd82244d	-0.0635458
33	0x3c18d11f	0.009327202
34	0x3d09602c	0.033538982
35	0xbe54439d	-0.20728917
36	0x3b0c96f6	0.0021452284
37	0xbce9301b	-0.028465321
38	0x3ca025ff	0.019549368
39	0x3d4a09ff	0.04932594
40	0x3d368362	0.04455889
41	0x3c4359db	0.011923279
42	0x3da30a18	0.079609096
43	0x3d060b0a	0.03272537
44	0xbd2305a4	-0.0398003
45	0x3d3b8436	0.045780383
46	0x3be5156b	0.0069910786
47	0x3dc02ce4	0.09383562
48	0x3c8d871a	0.017276336
49	0x3e392beb	0.1808316
50	0xbd47e136	-0.048798762
51	0xbdd0c314	-0.10193458
52	0x3d590331	0.05298156
53	0xbcb40260	-0.021973789
54	0x3d5940b8	0.053040236
55	0xbc9b955e	-0.018992122
56	0x3d9d87d2	0.07691921
57	0x3db7ff40	0.08984232
58	0xbda15844	-0.078781635
59	0x3d49e929	0.049294624
60	0xbd2eee7d	-0.04270791
61	0x3d2230f6	0.039597474
62	0x3d7a3ef4	0.061095193
63	0x3ce91f02	0.028457168
64	0xbd9572dc	-0.07297298
65	0xbd4aa68a	-0.04947523
66	0x3bebc6d3	0.0071953326
67	0xbcb26352	-0.021775875
68	0x3d958e90	0.07302582
69	0xbcf6735e	-0.030084308
70	0xbc282e9e	-0.010265021
71	0xbce32435	-0.027727226
72	0x3d7305d1	0.05933172
73	0xbdb3fcea	-0.08788474
74	0xbd20cc63	-0.03925742
75	0xbc227aab	-0.009916942
76	0x3d839a47	0.064259104
77	0xbca2331b	-0.01979976
78	0x3d8d57aa	0.06901486
79	0x3d10cd73	0.03535218
80	0x3d06e9b4	0.03293772
81	0xbdcf5274	-0.101231486
82	0x3c9fc5f4	0.019503571
83	0xbc0e9e58	-0.008704744
84	0x3d085b51	0.03329021
85	0xbddadbee	-0.106864795
86	0x3d69b987	0.0570617
87	0x3ba1a565	0.0049330466
88	0x3d82f7f0	0.063949466
89	0xbc9518ec	-0.01820036
90	0x3d6fb3ef	0.058521207
91	0x3d0982ad	0.033571888
92	0x3d5b3a42	0.053522356
93	0x3ce39199	0.027779387
94	0x3aa6d9b1	0.0012729672
95	0x3b368757	0.0027851665
96	0xbd81c4f9	-0.06336398
97	0xbc22124f	-0.00989206
98	0xbd5371d3	-0.051622223
99	0x3c335d7f	0.010947584
100	0xbcd3c5b6	-0.025851112
101	0xbc8db231	-0.017296882
102	0x3d70c6f2	0.05878348
103	0x3d6aff12	0.05737216
104	0x3d44289d	0.047890294
105	0xbc951e5d	-0.018202955
106	0xbcb955e6	-0.022623967
107	0x3ad2b1b2	0.0016074686
108	0xbd956667	-0.07294922
109	0x3ceed3d2	0.029153738
110	0x3c65f424	0.014035258
111	0xbd086c31	-0.033306304
112	0x3c8012ee	0.015634026
113	0xbb1a81d7	-0.0023575926
114	0xbd0d0614	-0.034429625
115	0x3c64b6f2	0.013959633
116	0xbd1c3698	-0.038138002
117	0xbc462d0c	-0.012095701
118	0x3d214c09	0.039379153
119	0x3d8725ea	0.065990284
120	0xbadcb702	-0.0016839209
121	0xbd48b3c6	-0.04899957
122	0xbb11474c	-0.002216774
123	0xbc610626	-0.013734376
124	0x3cbda2b3	0.02314887
125	0xbd87f6ae	-0.06638847
126	0xbdcebd3d	-0.10094688
127	0xbe00f00a	-0.12591568
128	0xbe2edfe8	-0.17077601
129	0xbdd9dd35	-0.10637895
130	0x3e2118cf	0.1573212
131	0x3bc485bb	0.005997387
132	0xbd6226a1	-0.05521262
133	0xbe12c583	-0.14333157
134	0xbdd166a0	-0.10224652
135	0x3c939d24	0.018019266
136	0xbdd08a39	-0.10182614
137	0xbcd0f41b	-0.025507024
138	0x3c849c2c	0.01618775
139	0xbd047573	-0.03233857
140	0x3d372768	0.044715315
141	0x3c9cc11d	0.019135052
142	0xbd7aa87f	-0.061195847
143	0xbd2e25fa	-0.042516686
144	0xbdb1c250	-0.0867964
145	0xbbfe2a0a	-0.0077564763
146	0xbd688708	-0.0567694
147	0xbd2af3ef	-0.04173654
148	0xbb0299be	-0.0019928063
149	0x3c5ad2c1	0.013355912
150	0xbd892ee8	-0.066984
151	0xbd2732e5	-0.04082002
152	0xbd426ecf	-0.047468957
153	0xbac687a6	-0.0015146628
154	0xbc83b135	-0.01607571
155	0x3cd0fa95	0.025510112
156	0xbdad7839	-0.08470196
157	0xbd01c97e	-0.0316863
158	0x3d5421e4	0.051790133
159	0x3d5ba7c0	0.053626776
160	0xbc46ce38	-0.012134127
161	0x3d0f679c	0.03501092
162	0x3cc35a63	0.02384681
163	0x3c95ed96	0.018301766
164	0x3d9e04af	0.07715737
165	0xbd69ef4b	-0.057112973
166	0xbc3e5ec0	-0.01161927
167	0x3d122b47	0.035685804
168	0x3d730039	0.059326384
169	0x3c51e2d4	0.012810428
170	0xbc18260b	-0.009286414
171	0xbce11f17	-0.027480645
172	0x3d44a698	0.04801044
173	0x3b949900	0.0045348406
174	0x3d75c009	0.059997592
175	0xbd2d7a59	-0.042353008
176	0xbd628c6f	-0.05530971
177	0xbdbb6325	-0.0914977
178	0xbab090f8	-0.0013470938
179	0xbbeb47c1	-0.0071801846
180	0x3d36e307	0.044650104
181	0x3ca07224	0.019585676
182	0x3da7207a	0.08160491
183	0x3d8bb2e0	0.06821227
184	0xbd2bddf0	-0.041959703
185	0xbd9a7cf4	-0.07543364
186	0xbc2b3a7e	-0.010450957
187	0xbbc3931a	-0.0059684636
188	0x3dc2ab53	0.09505334
189	0x3d85676d	0.065138675
190	0xbdf25d77	-0.11834233
191	0xbbf27685	-0.0073993825
192	0xbc3c308d	-0.011486185
193	0x3cbdece6	0.023184251
194	0xbb4bab16	-0.0031077317
195	0x3cd1d705	0.025615225
196	0xbd7fe188	-0.062470943
197	0x3d4a0462	0.049320586
198	0x3c9427e0	0.01808542
199	0x3c6c0c9c	0.014407303
200	0x3bb0b360	0.005392477
201	0xbdd130c5	-0.1021438
202	0xbda19215	-0.07889191
203	0xbdb015c8	-0.085979044
204	0xbe28bf0b	-0.16479127
205	0xbda3a78a	-0.0799094
206	0xbd7b5475	-0.06135984
207	0x3d449991	0.047998015
208	0xba9bc763	-0.0011884983
209	0xbdafad7f	-0.08578014
210	0x3d546152	0.051850624
211	0x3be4a5cc	0.0069777723
212	0xbbc855cd	-0.006113744
213	0xbc5cd94b	-0.013479541
214	0xbdb8ef44	-0.09030011
215	0x3c5e5dd8	0.013572179
216	0xbd7d4a3e	-0.06183838
217	0xbd88e137	-0.06683581
218	0xbe007a49	-0.12546648
219	0xbde187af	-0.11012208
220	0xbc98fbfa	-0.01867484
221	0xbd8b6645	-0.06806616
222	0xbd2576c5	-0.04039647
223	0xbdc958aa	-0.098313645
224	0x3c18ede0	0.009334058
225	0xbdc2c7e2	-0.09510781
226	0x3cbd62fb	0.023118487
227	0xbcb27bc7	-0.021787537
228	0x3d0b83a0	0.034061074
229	0xbcf53a86	-0.029935133
230	0xbd9780be	-0.073976025
231	0xbc84def1	-0.016219588
232	0xbbfa8963	-0.0076457723
233	0x3c2bd7a2	0.010488423
234	0xbd03c34a	-0.032168664
235	0x3c1495e3	0.009068939
236	0x3d6919d6	0.056909405
237	0xbd523f57	-0.051329937
238	0xbd870552	-0.06592812
239	0xbba5c564	-0.005058931
240	0x3d3422e1	0.043978576
241	0xbd42c1b1	-0.047548
242	0x3d4ecd53	0.05048878
243	0x3d707214	0.058702543
244	0x3d8dbdc1	0.06920958
245	0xbcd69109	-0.026192205
246	0x3cc00e22	0.023444239
247	0x3c5ff080	0.0136681795
248	0x3d190818	0.037361234
249	0x3e1774e1	0.1479068
250	0x3b63f809	0.0034785292
251	0xbda6d25e	-0.08145593
252	0xbcb3cb40	-0.021947503
253	0xbd00b24e	-0.031420045
254	0xbe15ffc4	-0.14648348
255	0xbd2afabc	-0.041743025

bias f4 [32]
0	0xbd88b748	-0.06675583
1	0xbafd36f2	-0.0019318743
2	0x3d525a91	0.051355902
3	0xbc029e04	-0.007972244
4	0xbcfd9663	-0.030955499
5	0xbc43a76d	-0.011941773
6	0x3ce1f8a7	0.027584387
7	0xbd01b5be	-0.031667463
8	0x3cbc06e6	0.022952508
9	0xbc78ab3b	-0.015177543
10	0x3d393226	0.04521384
11	0xbd021abb	-0.031763773
12	0x3d3d530f	0.04622179
13	0xbc6786f6	-0.014131298
14	0x3cbe8de4	0.023261018
15	0x3c9a864b	0.018862864
16	0xbc9cfe4c	-0.019164227
17	0xbcb3b741	-0.021937968
18	0xbd0ddffa	-0.03463743
19	0xbba68055	-0.0050812163
20	0xbc1d2d2a	-0.0095932875
21	0xbcecbe2b	-0.028899273
22	0x3c688297	0.014191291
23	0x3c6e2cdb	0.014537062
24	0xbcc34853	-0.023838198
25	0x3c1d1944	0.009588543
26	0xbb3b0c50	-0.0028541274
27	0x3d126409	0.035739932
28	0xbce70115	-0.028198758
29	0x3ca2d5d4	0.019877352
30	0xbd2c073a	-0.04199908
31	0xbc63cbcb	-0.0139035685

running_mean f4 [32]
0	0xbf99fd02	-1.2030337
1	0xbf039d38	-0.5141177
2	0xbe9d12a7	-0.30678293
3	0xbf31a5c9	-0.69393593
4	0xbf43b3ef	-0.7644643
5	0xbd5e544e	-0.054279618
6	0x3f8ad11a	1.0845063
7	0xbe9e2b14	-0.3089224
8	0x3e6d5044	0.2317515
9	0xbfb422c4	-1.407311
10	0xbe5e3e73	-0.2170351
11	0x3eec6283	0.46168908
12	0xbe990f31	-0.29894403
13	0xbc9ac80c	-0.018894218
14	0x3e3f4d0e	0.18681738
15	0xbdaf2aca	-0.08553083
16	0xbf4ba4c6	-0.795483
17	0xbf565679	-0.83725697
18	0xbe31faeb	-0.17380874
19	0xbeb353f2	-0.35024983
20	0x3edf6524	0.43631852
21	0x3f571d39	0.84028965
22	0xbf46452b	-0.7744929
23	0x3ed314ce	0.4122681
24	0x3ef9242b	0.48660406
25	0x3decdc5c	0.11565468
26	0xbe5a7e21	-0.21337177
27	0xbe8d60ff	-0.27613065
28	0xbef00544	-0.46879017
29	0x3f12dd43	0.5736887
30	0xbe07826b	-0.13233344
31	0xbf63a835	-0.8892854

running_var f4 [32]
0	0x3f49805f	0.78711504
1	0x4017d341	2.372269
2	0x40cbf2f7	6.373409
3	0x3f797228	0.97439814
4	0x3f0a0cc9	0.5392576
5	0x4048787f	3.1323545
6	0x4097e288	4.7464027
7	0x3fec7991	1.8474599
8	0x408d0d46	4.4078703
9	0x40b00df4	5.5017033
10	0x3f264261	0.64945036
11	0x401bb79f	2.4330823
12	0x3f08733f	0.5330085
13	0x3b95f60c	0.00457645
14	0x4011e4dd	2.2795937
15	0x4002265e	2.0335917
16	0x3fe0c819	1.7561065
17	0x404bfbc2	3.187241
18	0x403a477e	2.9106135
19	0x4041a348	3.025591
20	0x402532f3	2.5812347
21	0x3f4bbe15	0.7958692
22	0x3fff839b	1.9962038
23	0x3f39be7c	0.7255628
24	0x409d4d82	4.9157114
25	0x404e0f8c	3.219699
26	0x3f4d9b9f	0.80315584
27	0x40b6657d	5.6998887
28	0x3f7de3a1	0.9917546
29	0x3fb29d01	1.3954164
30	0x3f70a48f	0.94001096
31	0x405b545d	3.4270241

weight f4 [32]
0	0x3f26d38b	0.6516654
1	0x3edfc341	0.43703654
2	0x3ee9b1fb	0.456436
3	0x3ea8a161	0.32935622
4	0x3f700e66	0.9377197
5	0x3f45d7fe	0.772827
6	0x3f89aa89	1.0755168
7	0x3ecee4bc	0.40408885
8	0x3f86c345	1.0528342
9	0x3f591ee3	0.84812754
10	0x3ea6c097	0.3256881
11	0x3ebeb77f	0.3724937
12	0x3f2c5583	0.6731798
13	0x37d7a0b0	2.5704823e-05
14	0x3f521059	0.82056195
15	0x3e84a10a	0.25904113
16	0x3f4356ee	0.7630452
17	0x3e9a6a67	0.30159304
18	0x3eff83e4	0.49905312
19	0x3f286220	0.65774727
20	0x3eb074fa	0.34464246
21	0x3f8594e1	1.0436059
22	0x3e6d15b5	0.23152812
23	0x3e96b657	0.2943599
24	0x3f80f4f2	1.0074751
25	0x3f751448	0.9573407
26	0x3f36c03a	0.71387064
27	0x3f416924	0.75551057
28	0x3f87f3ae	1.062124
29	0x3edb9f0a	0.42894775
30	0x3f649636	0.89291704
31	0x3f3405ad	0.7032116

bias f4 [32]
0	0xbe1d2cc6	-0.15349111
1	0x3d56c529	0.05243412
2	0x3d905aad	0.07048545
3	0x3d9909ca	0.0747257
4	0xbdcf7c16	-0.101310894
5	0x3d830c70	0.06398857
6	0x3d87c7d4	0.06629911
7	0x3d700f46	0.058608316
8	0x3e341ca5	0.17589052
9	0xbc52941f	-0.012852698
10	0x3daf919c	0.08572695
11	0x3db9e1ce	0.09076272
12	0x3dd13abb	0.1021628
13	0xbad01740	-0.001587607
14	0x3d96d80e	0.07365428
15	0x3d804453	0.06263032
16	0xbd43d4ea	-0.047810473
17	0x3d9c06d7	0.07618492
18	0x3dcdfdd4	0.100581795
19	0x3e14a7ab	0.14517085
20	0x3d50f850	0.05101806
21	0x3ce44677	0.027865632
22	0x3db3d29f	0.08780407
23	0x3d7e7ae4	0.062128916
24	0x3dd3ea64	0.10347441
25	0x3d401973	0.04689927
26	0xbe4c8fae	-0.19976684
27	0xbc0bc661	-0.008531184
28	0x3d1553a3	0.036456715
29	0x3d72e410	0.05929953
30	0x3d20660c	0.03915982
31	0xbe00752a	-0.12544695

weight f4 [3, 1536]
0	0x3c4a6c50	0.012354925
1	0x3a47aad4	0.0007616703
2	0xbcbecc21	-0.023290696
3	0x3d3ccafc	0.04609202
4	0xbd7e9fba	-0.062164046
5	0xbc052dcf	-0.008128597
6	0x3d59c42a	0.053165592
7	0x3cb226d0	0.021747023
8	0x3dbf24a6	0.09333162
9	0xbc691b18	-0.014227651
10	0x3c4367ad	0.011926574
11	0x3c0aedb8	0.008479528
12	0x3d92627a	0.07147689
13	0x3c1e6650	0.009667948
14	0x3bb2d3cc	0.005457377
15	0x3cbadc99	0.022810267
16	0xbc203266	-0.009777641
17	0xbcd30694	-0.025759973
18	0x3d7aecac	0.061260864
19	0x3d29b973	0.041436624
20	0xbb046262	-0.0020200242
21	0xbc797897	-0.015226505
22	0x3c1e7ef5	0.009673824
23	0xbc0ce503	-0.0085995225
24	0x3c9a3474	0.01882384
25	0x3b058ee7	0.0020379366
26	0x3cec907f	0.028877495
27	0x3bc89f20	0.006122485
28	0x3ccd02a2	0.02502567
29	0x3aec6b61	0.0018037373
30	0xbbb97c49	-0.005660568
31	0x3d9b273f	0.07575845
32	0x3da2c9ac	0.07948622
33	0x3ca0362d	0.019557083
34	0x3d41711b	0.047227006
35	0x3d980bf0	0.07424152
36	0x3d6c477f	0.05768537
37	0x3d88211f	0.06646942
38	0xbd373ec6	-0.0447376
39	0x3d402f18	0.046919912
40	0x3d8460b0	0.06463754
41	0x3d498119	0.049195383
42	0x3e39241c	0.18080181
43	0x3dfd4731	0.12367094
44	0x3deb171d	0.11479018
45	0xbd2dc707	-0.042426135
46	0x3b55b86c	0.0032611145
47	0x3e8f460d	0.27983132
48	0xbe1384a4	-0.14406067
49	0x3dba6785	0.09101776
50	0xbb681d01	-0.0035417678
51	0xbd9dc26a	-0.07703097
52	0x3ce4bcc2	0.027922038
53	0xbd56ac64	-0.0524105
54	0x3c87251f	0.016497193
55	0xbb9c0bdc	-0.004762156
56	0x3d4b8624	0.049688473
57	0xbd34faa6	-0.04418435
58	0x3de2208a	0.110413626
59	0xbc18b9be	-0.009321628
60	0x3cfc170b	0.030772706
61	0x3d8ca61c	0.0686762
62	0x3bc2c7af	0.0059442143
63	0x3d397501	0.0452776
64	0x3d0135e4	0.031545535
65	0xbd8d7e17	-0.06908815
66	0xbdae9362	-0.08524205
67	0x3d51d45a	0.051227905
68	0x3d26024b	0.04052953
69	0x3d685197	0.056718435
70	0xbd0a203b	-0.033722144
71	0x3cbf2560	0.023333251
72	0x3d743337	0.059619155
73	0x3d8e61b8	0.06952232
74	0x3d69f0f3	0.057114553
75	0x3cd25d2d	0.025679195
76	0xbc97ad25	-0.018515179
77	0x3dfcee64	0.12350157
78	0x3cec203f	0.02882397
79	0x3d8cd817	0.06877153
80	0x3e48269c	0.19545978
81	0x3e555f77	0.20837198
82	0xbddabf95	-0.106810726
83	0xbc3eb478	-0.011639707
84	0x3e13b9ba	0.14426318
85	0x3d34e933	0.04416771
86	0x3db27ed0	0.08715594
87	0x3d10bd30	0.035336673
88	0x3dd147cd	0.10218773
89	0xbdb31650	-0.0874449
90	0xbe003914	-0.12521774
91	0xbd1586d3	-0.03650553
92	0xbd5e7aea	-0.05431644
93	0x3e2d4f5b	0.16924803
94	0x3e12bb97	0.14329372
95	0x3d8fbf3c	0.07018897
96	0x3d9cdd05	0.07659344
97	0x3d426be2	0.047466166
98	0xbc08f88e	-0.008360041
99	0x3cf183b9	0.029481756
100	0x3c9c2f7e	0.019065615
101	0x3ce86129	0.028366642
102	0x3d2317cf	0.039817628
103	0x3dc82d22	0.097742334
104	0x3ce07abb	0.027402272
105	0xbd1a5e01	-0.037687305
106	0xbc344894	-0.011003632
107	0xbd2d27f6	-0.042274438
108	0x3dbd02c6	0.092290446
109	0x3d3d717c	0.046250805
110	0x3daed39d	0.08536456
111	0xbb20ab58	-0.0024516191
112	0x39811cad	0.00024626162
113	0xbdbca651	-0.0921141
114	0x3df6151f	0.12015747
115	0x3dba9a8a	0.09111507
116	0x3cb4e6bd	0.02208268
117	0x3d00de41	0.031461958
118	0xbd9b3b45	-0.07579664
119	0xbd11c805	-0.035591144
120	0x3e3d1657	0.18465553
121	0xbb0afe44	-0.0021208683
122	0x3d9cc33e	0.07654427
123	0x3c986cfd	0.018606657
124	0xbce09e70	-0.027419299
125	0xbd058bc7	-0.032604005
126	0x3dfbea10	0.12300503
127	0x3d4d289c	0.050087556
128	0x3d76212e	0.060090236
129	0x3e0dd731	0.1385162
130	0xbd8670a9	-0.06564457
131	0xbbbea151	-0.0058175703
132	0x3e47af15	0.19500382
133	0x3db52b05	0.08846096
134	0x3d0231db	0.031785827
135	0x3d4dc11a	0.050232984
136	0xbd5e5a9e	-0.054285638
137	0xbde3429c	-0.11096689
138	0x3de3f4b7	0.1113066
139	0xbcb078e5	-0.021542022
140	0xbcbae23b	-0.022812953
141	0xbd1474b8	-0.036244124
142	0x3b95bcd3	0.0045696287
143	0xbc80e1b7	-0.01573263
144	0xbde2c209	-0.110721655
145	0x3e00a23b	0.12561886
146	0x3d63e975	0.055642564
147	0xbccc6999	-0.024952697
148	0xbccc659f	-0.0249508
149	0x3e40714d	0.18793221
150	0x3d6ec404	0.058292404
151	0x3d32a94a	0.043618478
152	0x3e0307ef	0.12795995
153	0x3d780fa7	0.060561802
154	0x3cdeeaa2	0.027211491
155	0xbd7d8c4f	-0.061901387
156	0x3e14679b	0.14492647
157	0xbafd4086	-0.0019321598
158	0x3d959257	0.07303303
159	0x3d9c4028	0.07629424
160	0x3dbdb8db	0.09263774
161	0x39ede11b	0.0004537188
162	0x3de5a978	0.11213964
163	0x3d180a66	0.03711929
164	0x3c9c97b0	0.019115299
165	0x3e303de6	0.17211112
166	0x39e6b791	0.00044005786
167	0x3dcdc647	0.10047584
168	0x3e2c3388	0.16816533
169	0xbd5e78b8	-0.054314345
170	0xbd12e37d	-0.03586148
171	0x3d98f9d1	0.07469524
172	0xbc3abff4	-0.011398304
173	0x3ca1e8d5	0.019764343
174	0x3de9083f	0.11378526
175	0x3d91b832	0.071152106
176	0x3db32bf9	0.087486215
177	0xba1b2219	-0.00059178617
178	0xbe39a019	-0.18127479
179	0xbc496ce0	-0.012294024
180	0x3e3b65a4	0.18300492
181	0x3d777e13	0.060422968
182	0xbd130fad	-0.03590362
183	0x3d1f2ced	0.038861204
184	0xbc340bfe	-0.010989187
185	0xbdc3764a	-0.09544046
186	0x3e614333	0.2199829
187	0x3d1bae0c	0.03800778
188	0x3d31df61	0.04342592
189	0x3cf30538	0.029665574
190	0x3d3d3b6f	0.04619926
191	0x3d7ab2a2	0.061205514
192	0xbd73d020	-0.059524655
193	0x3c68e18f	0.014213934
194	0x3d2e0c95	0.042492468
195	0xbc554622	-0.013017209
196	0xbc37e114	-0.011223096
197	0x3c457423	0.012051615
198	0x3b6bbde1	0.003597133
199	0x3cc0d84c	0.023540638
200	0x3cd389bc	0.025822513
201	0xbc599b39	-0.013281637
202	0x3cc151ac	0.023598514
203	0x3c7dc1ba	0.015488083
204	0x3d8d7a70	0.06908119
205	0x3d4bf6d5	0.049795944
206	0x3b55733e	0.003256991
207	0xba7c6849	-0.0009628577
208	0x3bd8bc0c	0.006614214
209	0xbd1f282b	-0.038856667
210	0xbc91c6e3	-0.017795032
211	0xbd163710	-0.036673605
212	0x3cb206c7	0.021731747
213	0x3d652176	0.055940114
214	0xbc1f9b4c	-0.0097416155
215	0x3d515fb1	0.05111665
216	0x3dbc9aec	0.092092365
217	0x3bbbd480	0.005732119
218	0x3d9289c3	0.07155182
219	0x3cdc0ffb	0.026863089
220	0x3d3e1f54	0.046416596
221	0x3cf0cb8a	0.02939393
222	0x3d48dad6	0.049036823
223	0xbd0e0518	-0.034672827
224	0x3dae39fa	0.08507152
225	0x3ac57fee	0.0015068033
226	0x3bf368b3	0.0074282526
227	0x3bb15750	0.00541202
228	0x3dc98d79	0.09841437
229	0xbd2aa12f	-0.041657623
230	0xbc4c4067	-0.012466527
231	0xbd4b2700	-0.04959774
232	0xbc64c214	-0.013962287
233	0x3cecded5	0.028914848
234	0x3daecc39	0.08535046
235	0x3a3d778e	0.0007227593
236	0xbdb69a2a	-0.08916123
237	0x3d98154e	0.074259385
238	0xbcc5ed78	-0.024161085
239	0xbe1b74c5	-0.15181263
240	0x3e1b7b00	0.1518364
241	0x3d8cbcee	0.06871973
242	0x3da57bb2	0.08080234
243	0x3d93eace	0.0722252
244	0x3d1826cb	0.03714637
245	0x3c2b8eac	0.010471027
246	0xbce74d0f	-0.028234987
247	0x3d872946	0.06599669
248	0x3ccc09c3	0.024906999
249	0xbb89db88	-0.0042070784
250	0xbcd3d8fc	-0.025860302
251	0x3badb565	0.005301165
252	0x3d867343	0.06564953
253	0x3ca56569	0.020189958
254	0x3b6b6e6d	0.0035923973
255	0xbd656e47	-0.05601337

bias f4 [3]
0	0x3d67672a	0.05649487
1	0x3d0a7ace	0.033808522
2	0x3c99c8e1	0.018772544
