dev/pong/optimized/prefetched/pong_optimized_400.pth (torch_old, 191804 bytes, 20 tensors)

weight f4 [16, 1, 5, 5]
00000000: 6aec 103d 72c5 353d 2df8 45be ff64 5f3e
00000010: d4fa 933c bf90 513e b263 ad3d 4d07 5cbe
00000020: 548a efbd 2a8b 553e 310c 06be e98b ccbd
00000030: e84b 93bc 8282 df3c 0db3 3d3e 159d 4dbe
00000040: ec2f d23d 29b8 bcbd 9326 913c 675e 06be
00000050: a0fc 1bbe a5f3 023e 031f 643d a7e9 173d
00000060: 1dde 913d 36e2 4ebd 88c4 0f3c baca 08be
00000070: febb 35be 2d76 88bc 1b47 02bb aa79 54be
00000080: 2ce9 d73d 3037 c8bc 2c70 343d c56c a4bd
00000090: 6dfd f63b eb36 6b3d 435b c0bd afda 4e3d
000000a0: a1fc 60bd 87da 7f3e 3d37 d7bc ff66 7d3e
000000b0: 7ef7 003e 058a 4b3d 1dc7 173c 69ef 04bd
000000c0: 9df8 22be c888 e53d 46e6 213e 3170 2a3e
000000d0: 2e5a 4ebe 7be0 20be c99d aa3d 94bb 623d
000000e0: ceff cf3d c0b9 233e 9b35 2cbe 5f98 1dbe
000000f0: d66e 05be 7104 f2bd 2574 08be 880f 1c3e
00000100: 2655 44bd 714e 1fbe f18f 5bbe e717 513e
00000110: 512e 583e 0c56 d1bd 3dbc 54bd e26b 503e
00000120: a283 afbd 5f38 f9bc caa6 463e c73a 823d
00000130: 6e29 9abd 88c7 f8bd f6b3 8fbd ed03 f63d
00000140: 8bd8 43be 50d1 49be b55c 4c3e b8f4 a6bc
00000150: f6c8 ecbd 153f 893d 0038 103e 5a41 f03d
00000160: 3e32 7bbd 27e8 0abe 3137 553e e19a e1bc
00000170: 285a 363e 5cf0 cbbc 7897 01bd 1fd1 7fbd
00000180: 4131 0c3e a2d2 a7bd 7c9a 66be c595 97bd
00000190: d579 e13d 67ae 20bc 222d be3d d731 b53d
000001a0: 450e 0b3e 1abd 07be 8a3e 4f3d acfd f9bd
000001b0: 6817 2dbe 814a b03d 6227 613d bdf9 b43c
000001c0: 9f9f 163e 33f4 32be c7aa 8ebd 4599 09be
000001d0: 7633 5a3e 3dba 5b3e 9cd0 d4bd 3e92 e9bd
000001e0: 4f46 1abd d789 9cbd b018 573e 61ef b1bc
000001f0: 4b8c bfbd 4d88 a0bc 8090 c6bc 9ac6 8d3c
00000200: 83de 75bd 4224 21bd 6917 bb3d 3673 05be
00000210: ee6b 113e d105 563d a638 d3bc e2ae 41be
00000220: 24a0 3dbe dea8 12be 18ee cf3c a61a 13be
00000230: b6d1 853e 58ef 9a3e 8aae 993d 279b 1bbe
00000240: aac4 3b3e fc94 32be e45a 9b3d 2b7a 003e
00000250: 192a cfbd 606d 903d bcbc 08bd ca6e 68bd
00000260: 6a1c 1a3e fe02 0d3e 9160 653d 6f31 4fbe
00000270: 6d46 f4bd 2745 1dbe 47df d53d df21 d8bd
00000280: 4e95 053e f0b4 b7bd 69c4 5cbe 8397 a3bd
00000290: c2d9 4abc 4486 03be 2ada df3d 6c64 443e
000002a0: b1e2 6f3d c485 1bbe 0c1b b03d 0955 fd3d
000002b0: 7d34 4cbe ee42 f83d b052 9abd 9c81 f5bd
000002c0: 93b9 fa3d c10a 203e 050e b5bd b4fe ac3d
000002d0: 5785 d6bd 8c4a e13d bb32 b6bd 562d fe3d
000002e0: d9b5 52be c97c cdbc 6062 553e 745b 063e
000002f0: 6734 3bbd 02e7 b93b 9eb6 f03d 4aa2 093b
00000300: a6f8 31be c1df 58be 89b4 6ebc d8e7 51be
00000310: be1d 73be eb0a 473e 7874 a6bd 8963 d83d
00000320: 2cd5 7cbd 5977 84bc a46b eabd 5441 c7bd
00000330: 8f14 f93d 6c91 d13d d25b ebbd dab1 aa3d
00000340: f302 e53d a446 8cbc 5fe2 a7bd 8a17 32bd
00000350: dfc0 24be a91b 303d dc7b c73d 04d8 40be
00000360: 2e17 59be 16c9 133e 71f1 7d3e 7396 203e
00000370: b9a7 a93d 2335 f13d 73c0 05bd 2e31 d43c
00000380: e8fe b2bc 90dc 2c3d 8558 26bd 1103 02be
00000390: d300 dd3d 1e81 58be c52b e53d c30e 06be
000003a0: 6026 0d3e 7447 a0bc a8b8 8b3d e4b9 22be
000003b0: f396 3b3e 9cb5 12bd b22f 13bd f878 d03b
000003c0: dc43 2fbe 043d ef3d c178 48bd 23fe 4b3e
000003d0: 110d 40bd 36cc 31bd e272 683d 1a07 30be
000003e0: ce6d 9bbc eaf5 ebbc c2b2 943d 081b de3d
000003f0: e9f3 31be 8988 6a3e 2d6a 3e3e 0440 213d
0.035381712 0.04437775 -0.19332953 0.2181587 0.01806394 0.20465373 0.08466281 -0.2148716
-0.11696306 0.20853868 -0.13090588 -0.09987623 -0.01798053 0.02728391 0.18525334 -0.20079453
0.102630466 -0.09214813 0.017718589 -0.13121949 -0.15233088 0.12788256 0.055693638 0.037088063
0.07122443 -0.0505087 0.008774884 -0.13358584 -0.17747495 -0.016657913 -0.0019878808 -0.20749536
0.10542521 -0.024440378 0.044052288 -0.08028559 0.007537535 0.05742542 -0.09392407 0.05050152
-0.054928426 0.24985705 -0.026271457 0.24746321 0.12594411 0.049692173 0.009263781 -0.03245488
-0.15915151 0.112077296 0.15810499 0.1664436 -0.20151588 -0.15710633 0.083308764 0.05535467
0.10156213 0.15988827 -0.16817324 -0.15390156 -0.13030562 -0.118172534 -0.13325556 0.152403
-0.047932766 -0.15557267 -0.21441628 0.20419274 0.21111418 -0.1022149 -0.05193733 0.20353654
-0.08570029 -0.030422388 0.19399562 0.06358867 -0.07527433 -0.121474326 -0.07016747 0.120124675
-0.19125573 -0.19708753 0.1995724 -0.020380363 -0.11561768 0.06701485 0.14083862 0.11731215
-0.06132721 -0.13565122 0.20821835 -0.027539672 0.1780783 -0.024894886 -0.031638592 -0.062455293
0.13690664 -0.08194472 -0.22519869 -0.07401613 0.11009566 -0.009807206 0.09285952 0.08847397
0.13579662 -0.1325573 0.05059675 -0.12206587 -0.1690346 0.086079605 0.0549692 0.02209174
0.14709328 -0.17475967 -0.06966167 -0.13437374 0.21308693 0.21457763 -0.103913516 -0.114048466
-0.037664708 -0.07643478 0.21005511 -0.02172059 -0.09352931 -0.019596243 -0.024238825 0.017306615
-0.060026657 -0.03934122 0.091353245 -0.1303223 0.14201328 0.05225164 -0.025783848 -0.18914369
-0.1851812 -0.1432223 0.025382087 -0.14365634 0.2613656 0.3026073 0.07503994 -0.15195905
0.1833674 -0.17439646 0.075856954 0.12546603 -0.10115451 0.070521116 -0.033383116 -0.05674628
0.15049902 0.13770673 0.056000296 -0.20233701 -0.11927495 -0.15358411 0.104429774 -0.105533354
0.13045236 -0.08970058 -0.215593 -0.07987883 -0.012381019 -0.12844187 0.10930283 0.19178933
0.0585658 -0.15187746 0.08598909 0.12369735 -0.19941898 0.12122141 -0.07535303 -0.11987612
0.12242427 0.15629102 -0.08840565 0.08447018 -0.10474651 0.11000547 -0.08896395 0.12410991
-0.20577182 -0.025083916 0.20838308 0.13120824 -0.04570427 0.00567329 0.117535815 0.0021001273
-0.17380008 -0.21179105 -0.01456941 -0.20498598 -0.23741814 0.19437759 -0.081276834 0.1056586
-0.061726734 -0.01617019 -0.11446312 -0.09729257 0.12162124 0.10232815 -0.11492123 0.08334704
0.11182203 -0.017123528 -0.08197474 -0.04347948 -0.160892 0.04299513 0.09740421 -0.18832403
-0.21200249 0.14432177 0.24799134 0.15682392 0.08283944 0.11777713 -0.032654237 0.025902357
-0.021850064 0.042202532 -0.040611763 -0.12696482 0.10791173 -0.21143004 0.11189989 -0.13091569
0.1378417 -0.019565322 0.0682233 -0.15891224 0.18319301 -0.035817727 -0.035934158 0.006362077
-0.1711573 0.1168156 -0.048943285 0.19921164 -0.04688746 -0.04340764 0.056750186 -0.17190209
-0.018973257 -0.028803784 0.07260658 0.108449996 -0.173782 0.22903647 0.1859519 0.03936769

bias f4 [16]
00000000: cb29 09be d338 303d 068c d2bd 5796 b33d
00000010: 5d4d a73d 7505 c03d d366 453d 9e85 f93c
00000020: 4bcc 32bb 1b0e 0a3e 9b7e 653d bee6 5c3e
00000030: 2852 1bbe 0cf3 0dbe 625d 9cbc 390b fb3d
-0.13394849 0.04302294 -0.102806136 0.087689094 0.08169053 0.09376041 0.048193764 0.030459221
-0.0027282413 0.13481943 0.056028944 0.21572396 -0.15168059 -0.13862246 -0.019087497 0.12258

running_mean f4 [16]
00000000: ebb7 c9bd 6b45 223d f31a febd 69b8 9fbc
00000010: 0a48 123e 55ba d83d 9f48 a6bd 6134 65bd
00000020: 739c 713d 4b70 253d ffc3 cf3c 82ec 2e3d
00000030: 1c4e 813e 4e1e 80be 3e32 d33d bf0d 00be
-0.09849533 0.039616983 -0.12407484 -0.019497113 0.14285293 0.10582415 -0.0811932 -0.055958156
0.058987092 0.040390294 0.025362013 0.04270602 0.25254905 -0.2502312 0.10312317 -0.12505244

running_var f4 [16]
00000000: bce1 763a d554 e53a 016a a33a e077 0b3b
00000010: aa2a f239 d4f6 5238 73e0 ef3a 8d29 f339
00000020: 5755 c139 ead4 dd39 126c 893a e60a 953a
00000030: bb1b cf3b 01ae 9c3a 4f20 173b 9317 0b3b
0.00094177923 0.0017496595 0.0012467505 0.0021281168 0.00046189624 5.029778e-05 0.0018301144 0.0004637953
0.00036875412 0.00042311038 0.0010484478 0.0011371046 0.0063204444 0.0011953713 0.002306003 0.0021223768

weight f4 [16]
00000000: c783 d13e 723d ad3e 0307 5e3f 4a3f 613f
00000010: 2ced ac3e fede 453e 9b3b d93e c990 5b3f
00000020: 4fca 213f 5d7b 023f 91dd 933e bb46 c13e
00000030: 1290 953e 203f 633f 7af1 1d3f a9f5 5d3f
0.4092085 0.33835942 0.8672945 0.87987196 0.33774698 0.19323346 0.42428288 0.857678
0.63199323 0.5096949 0.2887998 0.37749276 0.2921148 0.88768196 0.6169659 0.8670297

bias f4 [16]
00000000: e090 1bbc 29ed 93bb 2633 11be 7d41 31bd
00000010: fcf1 8cbd 4285 1abe e523 373d 5196 a3bd
00000020: 6fba dbbd 56f8 d0bc 824a 63bc 09a8 54bd
00000030: ac64 dcbd f055 7abd 15e4 9ebd 194a 1f3d
-0.00949499 -0.0045143557 -0.14179668 -0.043275345 -0.06882092 -0.15089896 0.044711966 -0.07987655
-0.10728919 -0.02550904 -0.0138727445 -0.051918063 -0.10761389 -0.061117113 -0.07758347 0.038889024

weight f4 [32, 16, 5, 5]
00000000: 0d1d fb3c 4364 373d 7262 c0bd b383 2cbd
00000010: 8a45 0e3d c555 a8bd 6164 713c 50c9 b7bd
00000020: 8009 fcbb 029c 2bbd 0f37 b0bb d801 493d
00000030: 97d1 1e3d 00c6 a33d 0f60 46bd 1258 5d3d
00000040: 9311 39be 4bc6 94bc 0702 423d ccbc e9bd
00000050: d946 62ba 41e9 29bd 5e6d 1f3c 6c42 0cbd
00000060: c47c 69bd 0416 6abd 5e94 90ba c84f ef3c
00000070: ef98 373d c760 123d 8b97 bebc 8fcd 6f3d
00000080: 6b86 7abc a828 8f3b a78d 58bb e100 3d3d
00000090: 3355 ac3c 139a 2a3c 5ed3 2dbd 8c82 1d3d
000000a0: 6846 2a3d b697 5b3c 09af 373d 5726 c9bd
000000b0: a875 133e dd84 853c b861 41bd edd7 433d
000000c0: 099b d8bc 9d50 3fbc 6068 723d ef07 d23d
000000d0: 61d6 49bd 6430 cfbd d609 4fbd 09c1 e8bc
000000e0: 9067 5cba f21a 84bc dc4e 12bd b8f5 95bd
000000f0: 9272 c3bb dcfd 9dba 4c26 a23c b1fd d83c
00000100: 955b 0f3d 44fc 3b3d 5ca0 95bd 292d 0c3c
00000110: 88b2 a9bc 70ea 04be dcaa 70bc 99d5 90bd
00000120: 0543 90bd 86aa 013d f574 2abc 0e79 25bd
00000130: 4cc3 31bd c9a0 43bc 7976 353d b47f 283c
00000140: 7758 b3bc a61c 1a3d 47fc 3a3d 59b2 81bc
00000150: ab0b 4cbd 2d81 aebc 963f 39bc 9b06 123d
00000160: 56d1 3ebd 9005 db3c 5e6c c53d e882 963d
00000170: 10d0 f4bc 19ab 053c 5307 22bd 6384 82bd
00000180: c56c 39bd 8df3 0dbc b911 c43d 54e7 f63c
00000190: 28fe 20bd 8e76 2dbd 7221 c9bc d784 723b
000001a0: 2786 9ebb 8da1 82bd ba16 51bd 95d8 d63c
000001b0: 9531 37bd 0de2 aabb a9ee 21bc c1a5 a6bc
000001c0: 5993 42bd 5d3e d2bd 5be4 5cbd 6c9a 55bd
000001d0: ed8f b1bc ba29 793c 402f 573d 537c b7bd
000001e0: ea64 8fbb e1dd dcba 0ccd fbbb 126d 093e
000001f0: a392 abbd cf07 06bd 33ee 523c 916e 92bd
00000200: 672d 32bd 5f23 ca3d 5627 233c 243d 393c
00000210: 5a1c 873d 677f d63c 1852 8d3d d2d0 a2bd
00000220: 8972 f63c d425 153d 799e bcbd 16fd 4b3d
00000230: 3bca 26be f67c 06bd e669 a93b ebd5 9f3d
00000240: 760b 1a3d 364c aabd f15a 1abd 04a5 21bd
00000250: e3c5 42bd e9ce 253d 9954 b0bd 426b dcbd
00000260: bc48 4d3d b4be e8bd c4d1 433d 4612 31bd
00000270: 9ec0 d53d 6201 dcbc e126 06be 2383 553b
00000280: 9e80 b9ba eb62 913d 3b49 b2bc 7e23 68bc
00000290: 4d0d 77bd 582a 6a3d a341 0bbd 8850 b6bd
000002a0: d9ea 5cbd d0e8 f43c 4ccb 0abd ffce 08bd
000002b0: 7cec 77bd b4bd ecbc b6b2 42bc f685 983d
000002c0: 703b b63c 038d 83bd c100 f3bd 7b10 19bd
000002d0: c234 94bd e728 9bbd e24a 993c 9d64 59be
000002e0: 1b14 79bd bb54 16be 30be 7ebc a1f7 1a3d
000002f0: ced0 463c 6e4a 3abc 0d45 99bd 75d5 683b
00000300: 4784 583d 9813 533d 663d a03c 7e15 28bd
00000310: e5d2 93bd 847c 7bbb 3bc8 05be 8cd7 6b3d
00000320: 568e 1abd 7aed 563c 216d 8b3b 38f4 823d
00000330: dbca 123e 52a8 0abd dd1e 743d 685c 83bd
00000340: 6857 61bd dd9f 603d a446 d43c be00 583c
00000350: 6031 c5bd b80e 07bd 82c9 4abd 921d f6bc
00000360: 1669 ab3d 2a3d 9cbd 8aec bf3c 5637 1bbd
00000370: 4cae 6bbd 8c46 36bd 0bf4 143d 2361 f53b
00000380: 26db bdbd 8b73 90bd 6cbe 9c3c a76b 513d
00000390: 02c5 00be 9047 173d 8f4e 16bc 0755 4b3d
000003a0: a593 babd ba39 35bb aa40 b63d 6f1a 023d
000003b0: c3f0 073d 4630 babb fee7 b13c ecb9 2c3c
000003c0: b378 8c3c 0795 f2bc 5de6 86bd c1af 8d3c
000003d0: 6dee b23c 110e e63d a6d3 20bd 88f9 b43c
000003e0: 51db 933c 0629 6e3c 9a2a 6a3d 2295 6f3d
000003f0: 220e e13c bb8e 293c 6be8 423d 91a4 57bc
0.0306535 0.04477335 -0.09393777 -0.042117786 0.034734286 -0.08219484 0.014733405 -0.08973944
-0.007691562 -0.041896828 -0.0053776572 0.049074024 0.0387741 0.0799675 -0.048431452 0.05403907
-0.1807311 -0.01816096 0.047365215 -0.11412963 -0.0008631773 -0.041482214 0.009730665 -0.034243032
-0.05700375 -0.057149902 -0.0011030545 0.029212847 0.044823583 0.035736825 -0.02326562 0.058545645
-0.015290837 0.0043688603 -0.0033043416 0.046143416 0.02103672 0.010412711 -0.042437904 0.038454577
0.04157105 0.01340287 0.04484466 -0.09821766 0.14400351 0.016298706 -0.047212332 0.047813345
-0.026441114 -0.011676935 0.05918157 0.102554195 -0.049276713 -0.10116652 -0.05054649 -0.028412359
-0.0008407766 -0.01612613 -0.035719737 -0.07322258 -0.0059645856 -0.0012053805 0.019793652 0.026488157
0.03499945 0.045894876 -0.07305977 0.008555689 -0.020715013 -0.12980056 -0.014689174 -0.070719905
-0.07044033 0.031656764 -0.010403861 -0.04039865 -0.04339914 -0.01194019 0.044302437 0.010284353
-0.02189277 0.037624978 0.045650747 -0.015832113 -0.049815815 -0.02130183 -0.011306664 0.03565083
-0.046586357 0.02673605 0.0963981 0.07349187 -0.029884368 0.008158469 -0.039557766 -0.06372907
-0.045269746 -0.008664024 0.09573693 0.030139603 -0.039304882 -0.04234939 -0.02455208 0.0037005448
-0.0048377695 -0.063784696 -0.051047064 0.026226321 -0.04472502 -0.0052149356 -0.009883561 -0.02034271
-0.047503803 -0.10265801 -0.053928714 -0.05214922 -0.021675074 0.015207702 0.052535295 -0.0895926
-0.0043760436 -0.0016850793 -0.0076843556 0.13420513 -0.08377578 -0.03272229 0.012874174 -0.07149995
-0.04350033 0.09870028 0.009958109 0.011306081 0.065972045 0.026183797 0.06900424 -0.079499856
0.030083911 0.03641303 -0.09209914 0.04980191 -0.16288082 -0.032834016 0.005170095 0.078044735
0.037608586 -0.08315317 -0.037684385 -0.03946401 -0.047552 0.040480528 -0.08609886 -0.10762645
0.050118193 -0.11364499 0.04780747 -0.043230318 0.104371294 -0.026856128 -0.13100769 0.0032579384
-0.0014152711 0.07098945 -0.021763435 -0.014168618 -0.06031542 0.05716929 -0.033998143 -0.08902079
-0.053934906 0.02989617 -0.033885285 -0.03340053 -0.060528263 -0.028899051 -0.011883428 0.07447426
0.022245139 -0.0642338 -0.11865378 -0.037369233 -0.07236625 -0.07576161 0.018712465 -0.21229787
-0.06081019 -0.1468076 -0.015548274 0.037833814 0.012134744 -0.0113702845 -0.074838735 0.003552762
0.052860525 0.051532358 0.019560527 -0.04103612 -0.07217959 -0.0038373778 -0.13064663 0.05757861
-0.0377334 0.013118142 0.0042549525 0.06394237 0.14335196 -0.03385193 0.059599746 -0.064141095
-0.055014998 0.054839958 0.02591259 0.013183771 -0.09628558 -0.03297302 -0.04950858 -0.030043397
0.08369653 -0.076288536 0.02342822 -0.03789457 -0.05753927 -0.044500872 0.03636555 0.0074883862
-0.09270315 -0.07053288 0.019133769 0.051128056 -0.12575153 0.03693348 -0.009174003 0.049641635
-0.09110192 -0.0027652816 0.088990524 0.03176349 0.033188593 -0.005682024 0.021717068 0.010542374
0.017147398 -0.029612077 -0.06586907 0.01729572 0.021842206 0.11233152 -0.039264344 0.022091642
0.018048914 0.014536148 0.057169534 0.058491834 0.02747256 0.010348971 0.047584932 -0.013161794

bias f4 [32]
00000000: 5671 293c a4f2 87bc c5d7 2e3d ffc9 d2ba
00000010: 0716 183d eb73 753d 6830 49bc 6cc0 2ebd
00000020: 1bca 0b3d 230c 78bc 638b 273d 896b 5dbb
00000030: dc0c 38bb 1e9c 753c 14fa 003d 5615 1f3d
00000040: 0a7f d5bc a173 6ebd fea4 e73b 9c9d 203c
00000050: 8383 a93d 2d78 acbb c05b 73bd 6c72 bc3c
00000060: 1d6a babb 5c41 a93d d5b0 14bc 1e53 09bd
00000070: 8cd9 1d3d 8be5 da3c 5346 593c b895 4e3c
0.010341963 -0.016595192 0.042686243 -0.0016081928 0.037130382 0.059925 -0.012279607 -0.042663977
0.03412829 -0.015139612 0.040904414 -0.003378602 -0.0028083837 0.0149908345 0.031488493 0.038838707
-0.026061554 -0.05821574 0.007069229 0.009803202 0.08277037 -0.0052633495 -0.05941367 0.02300378
-0.005688919 0.082644194 -0.009075363 -0.033526532 0.038537547 0.026720783 0.0132613955 0.012608938

running_mean f4 [32]
00000000: 8c36 5dbe 54e1 483e 9305 6ebe 6df0 e53b
00000010: 6d97 883d 0c67 c1be 6671 d53e bae4 53be
00000020: c845 cfbe accc b2be cb91 efbd 2231 853d
00000030: 96df 9bbe a881 c7bc 7bb9 963d b5d5 da3e
00000040: 716d 4dbe 52d6 4c3c c98a 04be ea44 d1be
00000050: afbb 4c3e 89c8 e5bd 7b8f 80bd 4f00 273e
00000060: 8fca 38bf fd88 793e 429c 2d3d 66a8 d6be
00000070: df07 e03d 9b41 213e 3d17 83bc 6f50 7bbd
-0.21602839 0.19617206 -0.23244314 0.0070171864 0.06669507 -0.3777393 0.4168808 -0.20692721
-0.40482926 -0.34921777 -0.1169773 0.06503512 -0.3044402 -0.024353817 0.07359596 0.4274117
-0.2006128 0.01250227 -0.12943567 -0.4087289 0.1999347 -0.1121989 -0.06277367 0.16308711
-0.7218408 0.24368663 0.042385347 -0.41925353 0.10939001 0.15747683 -0.016002292 -0.061356004

running_var f4 [32]
00000000: 57a9 443e 2df2 263d 1400 c83e 645e 373e
00000010: b230 603e 0c47 1e3e 2e2f 723e 458d 263e
00000020: 578f 163f ab55 423d 57f4 a73e 5b90 d53e
00000030: d1c9 9e3d 38b5 e33e 7805 ce3e 3860 c83d
00000040: b75d 113d 9ade 353c bd51 d83c 022d 143e
00000050: 0a98 ba3d 3c51 1d3e 5380 8f3d 013a cd3d
00000060: e246 673e 2bef c53e 4fc3 c63d 5ff0 5f3d
00000070: de85 9d3d 70b8 1d3e a611 fc3e 3ff5 0c3f
0.19205223 0.0407583 0.3906256 0.17907101 0.21893576 0.1545679 0.2365081 0.16264828
0.5881247 0.04744498 0.32803604 0.41711697 0.07753337 0.44474196 0.40238547 0.09783977
0.035489764 0.011100436 0.026406163 0.14470294 0.091110304 0.1536302 0.07006898 0.10020829
0.22585633 0.38659033 0.09705221 0.054672595 0.07691549 0.15402389 0.49232215 0.55061716

weight f4 [32]
00000000: 616c 853e 7748 153e 8746 153f 8801 543f
00000010: e583 7b3f 820f 513f 6eae 7a3e 74b3 f93e
00000020: d4a5 673f 3350 393f 52db 323f 7cb1 cb3e
00000030: 02b9 bf3e 8794 4d3f 2c88 2a3f 7868 e13d
00000040: 47a1 7e3f 7d48 5b3e 2dc8 023f 715c 1a3f
00000050: 9acb 3c3e 7c75 323f 8d42 953e 5118 553e
00000060: 2f17 1d3f 475f 343f 3bc3 933e 35b9 633f
00000070: dd28 8b3e e30e 5e3e 331d 473f a827 463f
0.2605925 0.14578424 0.5831074 0.82814837 0.9824813 0.8166429 0.24480602 0.48769724
0.9048741 0.72388 0.69865906 0.39783847 0.37445837 0.8030476 0.6661403 0.11006254
0.9946484 0.21414371 0.51086694 0.60297304 0.18437043 0.69710517 0.29152337 0.20810057
0.613635 0.7045788 0.28859887 0.8895448 0.27179614 0.21685366 0.7777893 0.7740426

bias f4 [32]
00000000: 55ce 4a3d b1f3 a4bd 8cfe 943c e23a 9cbd
00000010: 2880 b0bd 0e9c 343c 5b18 d1bc 0d2b e5ba
00000020: 022a 263d 2285 a9bd db99 423d c2f6 5abd
00000030: c641 5bbd c617 a73b 58c0 ebbd e67a 01bd
00000040: b14b 41be f3b2 15be 2142 21be 063e 0dbe
00000050: 42df 43bd b212 e33c f1bb 8cbd f1d1 b6bc
00000060: 6125 663c c543 7cbd abf2 b3bd de0f 05bd
00000070: 564d 89bd a8f8 54bd 1461 02be 0f81 14bd
0.04951318 -0.08054293 0.018187784 -0.076284185 -0.08618194 0.011023534 -0.025524309 -0.0017484144
0.040567406 -0.08277346 0.04751001 -0.053457983 -0.053529523 0.0050992696 -0.11511296 -0.031611346
-0.1887653 -0.14619045 -0.15747882 -0.13793191 -0.047820337 0.027718876 -0.068717845 -0.022316905
0.014046998 -0.061588068 -0.087865196 -0.032485835 -0.06704204 -0.05199495 -0.12732345 -0.036255892

weight f4 [32, 32, 5, 5]
00000000: 363b 0dbe b3dd 2bbe ba82 94bd 0663 3dbd
00000010: ff33 64bd 3d13 073e 2909 2d3c 2197 1dbd
00000020: ffbb 1fbd 0706 5d3d 55d5 5c3d b79c 81bd
00000030: ed53 ab3c 1902 863c e7fc b3bc 8185 abbd
00000040: e705 00bc d06d 91bc c894 30bd 4c8d 91bb
00000050: 14bf b03c 9287 383c 2e3e febc 94a4 8b3d
00000060: d884 e2bc 5d9f 91bd 27ea 20bd a338 28bd
00000070: 0193 43bd d1bd 84bc 267f 66bd 0072 7d3c
00000080: db37 30bd a146 64bc c531 04bc f36c 01be
00000090: bb79 33bd 9362 4cbc 9606 053d a7dc eb3c
000000a0: 2f88 753c 1310 233d a26a 263d 8369 3f3d
000000b0: fa08 2ebd 631c d03c 916a b03b d4fa 9a3d
000000c0: df5b 353c a185 e03d 95fc 09bd 8dda b4bd
000000d0: 5f48 cd3c cb7b 05b9 32b7 1e3d eb53 dbbc
000000e0: 3960 9c3d 067b 593d c909 2bbd 802f ff3c
000000f0: 1e88 e13c 14cb 953d 206f 493d 1cb7 183d
00000100: e8d2 17bd 86bc db3b 7b9f f5bc 6f41 05bd
00000110: 946a 473d e9b5 a3bc 0e9d d43c a80d c8bc
00000120: bdaa 173d c56f 7dbd 35e1 20bb eb1a 28bd
00000130: 12cc 9a3c c1e5 c2ba 7b08 5d3d ef68 683c
00000140: 8a22 5a3d 5567 48bd 2a56 ad3c d22f 9cbc
00000150: 9779 e83c e808 14bc 1015 ef3c 7bb8 103d
00000160: 6673 133d d94c 14bd defe a73d cf2f 7f3c
00000170: 1af7 293d 633c 9e3c edac 4a3b e392 09bb
00000180: d91a 14bd f149 6abb 655d 68bd 64cd 7c3c
00000190: 8c9b 8ebd 6a15 0abd 58ed 3d3d 6082 a23d
000001a0: 9483 acbb b953 ae3c 0756 f43b 6e13 11bd
000001b0: 674d 4cbd 1e4a 653d 457d 55bc efc6 a73c
000001c0: 09b0 833c eea9 5d3c acc5 e0bb 1d0f 213c
000001d0: d647 83bc fee1 9bbc ef42 183d 98c4 9f3d
000001e0: 148a 9e3b 3707 8abd 6981 aebb 6024 76bc
000001f0: 1f55 5a3c f1cc 54bd 75f5 abbd 1bcf e5bd
00000200: d2b8 02be a2f1 86bd 6fa0 e93d 1c03 383c
00000210: a7cf 32bc 06ae d0bd f0d2 98bd a0e9 203d
00000220: 2073 35bd 2f89 d6bc 9e1b 593d 899b 77bb
00000230: 18c4 1b3c 1b05 5e3c fc87 3dbd 5fe1 ddbc
00000240: 4656 18bd 45b2 14bc 69ef 69bd 3d51 1ebd
00000250: 4509 6b3b 7fa9 053c 3c70 8bbd fe2e 13bd
00000260: 7fce 7dbd 0df1 5c3c b58d 28bd 5ee7 493d
00000270: c6f3 57bd e2d2 a2bc 83d5 213d 1c7f 073d
00000280: 9b30 63bc 6015 203d 07f4 6a3c 5628 6c3c
00000290: 7e50 7c3d c8bb 77bd 5653 473c de79 7e3d
000002a0: 835a 5e3d 1962 b13c e508 4cbc 909b f7bc
000002b0: f1d0 1f3d b6a8 be3a 4e96 4b3d 8e4a 41bd
000002c0: 6ea3 7dbd 9b0c b5bd 50f5 41bc 4a38 6aba
000002d0: ed08 0b3d 0b63 193d ad73 6a3d 6e73 ec3c
000002e0: 2094 0ebd bf5a d3bc 50c7 023c 2233 e8bc
000002f0: 4c90 963d 4731 923c 2c34 fcbc 6c36 043d
00000300: cc58 37bc 7c63 b03c 7261 cfbc a2a7 683c
00000310: febd c2bc 9f89 4f3d fb7a 1fbb a5de 32bb
00000320: e1ae 96b9 dd7c b4bd 2cb4 76bd da0c 91bd
00000330: b8fa 9fbd 4b43 adbd 8c2f 32bd 28a6 b03d
00000340: c1d0 e23c f9d1 4dbd 0d07 d4bb 6723 a2bc
00000350: 16ad f6bc a342 0a3d d177 7ebd 26ca 49bb
00000360: 42a7 bbbc 4139 13bd e93e b4bd 5c6a babd
00000370: 6dd2 c3bc f521 6cbd 2ce4 24bd 9d84 afbd
00000380: 8565 c3bb 4fc9 3fbc 36dd 923b e5e6 643b
00000390: e032 df3b 2d97 22bc a79c e7bc f337 e73c
000003a0: 3c1b 43bd e5da 9ebc 213e 88bd 7322 7bbc
000003b0: 84b7 263d 63cb 65bd dbd8 2cbd 9111 dbbc
000003c0: 4f39 453d 4c8c 20bc 0d62 c43c 30fd e73c
000003d0: 70db 7a3d 9222 6a3b a6f7 49ba 2f68 d8bb
000003e0: 884b 5d3d e875 ec3d 9a2f 71bc 5a46 acbd
000003f0: d415 6ebc dccb 82bc c229 d2bd 1c19 cfbc
-0.13792118 -0.1678379 -0.072514966 -0.046237014 -0.05571365 0.13190933 0.010561266 -0.038474206
-0.038997646 0.053960826 0.053914387 -0.06328719 0.020914042 0.016358422 -0.02197118 -0.08375073
-0.007813907 -0.017752558 -0.04311064 -0.0044418927 0.021575488 0.011262791 -0.031035509 0.068185
-0.027651235 -0.07110474 -0.039285805 -0.041069638 -0.047747616 -0.016203793 -0.056273602 0.015469074
-0.043022018 -0.013932855 -0.008068507 -0.12639217 -0.043817263 -0.012474674 0.032476984 0.028791739
0.014986082 0.03981025 0.040629037 0.046731483 -0.04248903 0.02540416 0.0053837975 0.07567373
0.011069267 0.10962988 -0.033688147 -0.08830748 0.025058923 -0.00012729985 0.038748927 -0.026773414
0.076355405 0.05309584 -0.04175738 0.03115058 0.027530726 0.07314125 0.049178243 0.037284
-0.03706637 0.0067058234 -0.029983273 -0.032533105 0.048685625 -0.019984202 0.025953796 -0.024420574
0.037028063 -0.06187417 -0.0024548296 -0.041041296 0.018896136 -0.0014869497 0.053963166 0.014185174
0.053255595 -0.04892667 0.02115925 -0.019065771 0.028378291 -0.009035327 0.029184848 0.035332184
0.035998724 -0.0362061 0.08202909 0.015575363 0.04149542 0.019315904 0.0030925826 -0.0020992092
-0.036158416 -0.003574964 -0.056729693 0.015429828 -0.06963262 -0.03371183 0.046368927 0.07935023
-0.005264709 0.021280156 0.0074565443 -0.03541892 -0.049878504 0.055978887 -0.013030355 0.020480601
0.016075151 0.013529284 -0.006859502 0.009830263 -0.016025465 -0.01902866 0.037173208 0.07801169
0.0048382375 -0.06739657 -0.0053254855 -0.015023321 0.0133259585 -0.05195326 -0.083964266 -0.11221143
-0.12765816 -0.065890566 0.114075534 0.01123121 -0.010913766 -0.10189442 -0.07462108 0.039285302
-0.044299245 -0.026188461 0.053004853 -0.0037781915 0.009507202 0.013551022 -0.046272263 -0.027085004
-0.03719165 -0.009075706 -0.057113085 -0.038651694 0.003586368 0.008158087 -0.068085164 -0.035933487
-0.06196451 0.013485205 -0.041150767 0.049292915 -0.052722715 -0.019875947 0.03951026 0.033080205
-0.013866569 0.039082885 0.014340407 0.014413914 0.0616002 -0.060481817 0.012165865 0.06212794
0.054285537 0.021653222 -0.0124532925 -0.030225545 0.03901762 0.0014546129 0.04970389 -0.04719024
-0.061923437 -0.08840295 -0.011838272 -0.00089347793 0.03394406 0.03744797 0.057239223 0.028863635
-0.03480923 -0.025800107 0.00798209 -0.028344695 0.07351741 0.017845763 -0.030786596 0.032278463
-0.011190604 0.021531813 -0.02531502 0.014200123 -0.023772236 0.050668355 -0.0024334777 -0.002729335
-0.00028740524 -0.08812878 -0.06023042 -0.07082529 -0.07811493 -0.08460101 -0.043502375 0.08625442
0.027687432 -0.050249074 -0.006470567 -0.019792272 -0.03011183 0.033754956 -0.062125985 -0.0030790656
-0.022906903 -0.035943273 -0.08801062 -0.09102318 -0.02390405 -0.05764957 -0.040256664 -0.08570216
-0.00596303 -0.011705711 0.004481937 0.0034927663 0.0068114847 -0.009923738 -0.02827294 0.02822492
-0.047633395 -0.019391486 -0.06652475 -0.015328038 0.040702358 -0.056102168 -0.042198997 -0.026741775
0.048150357 -0.009799074 0.023972536 0.028318971 0.06124443 0.0035726172 -0.0007704444 -0.0066042165
0.05402711 0.11545926 -0.014720822 -0.08411856 -0.014531571 -0.015966348 -0.10261871 -0.025280528

bias f4 [32]
00000000: 7ffb 96bd 0768 dfbb 104b 473d e533 4dbc
00000010: e1c0 08bd 1ba7 31bc d71e ea3c fc40 c0bc
00000020: a912 ed3c dd08 91bc 4772 263d 3296 02bd
00000030: 2eab 563d f686 67bc a651 b43c a26c 9e3c
00000040: 92b2 9cbc 444e b0bc 6d44 0dbd efea f6bb
00000050: 493c 2dbc 29e6 92bc d105 8c3c ab26 913c
00000060: 6e79 89bc ff31 543c 11d6 82bc 488c 0e3d
00000070: cb1f 13bd 755a 953c 1079 33bd 58b5 83bc
-0.07372188 -0.006817821 0.04865557 -0.01252458 -0.03338707 -0.010843064 0.028579159 -0.023468487
0.028939562 -0.017704422 0.040636327 -0.03188152 0.052409343 -0.014131298 0.02201159 0.01933891
-0.019128118 -0.021521695 -0.034489084 -0.0075353305 -0.010573455 -0.017932015 0.017092617 0.017718634
-0.016781535 0.012951373 -0.015971215 0.03480175 -0.035918992 0.01823161 -0.043816626 -0.016077682

running_mean f4 [32]
00000000: 06c1 38bf a653 23be f1d2 093d 988e 9abe
00000010: f902 08bf 55ab db3d 015b 3a3f b7a1 c3be
00000020: 72ad 9e3e dd8e 61bf 60d7 40be 2468 fe3e
00000030: 716d 31bd 872b 73bc b791 9a3e 5030 ef3d
00000040: cdad 28bf fa6f f9be ca3e 17be 3410 37be
00000050: 1c55 103f 8ff6 0f3f f529 d4be 32b5 cd3e
00000060: 7b81 b53e 4485 013f 1613 c0bd 6db5 84be
00000070: e0c5 98be 9388 ea3e 85ca c0bd 805e 04bf
-0.7216953 -0.15949878 0.033648435 -0.30186915 -0.53129536 0.10726038 0.7279511 -0.38209316
0.30991703 -0.8810862 -0.18832159 0.49688828 -0.043317262 -0.014841921 0.30189297 0.11679137
-0.658902 -0.48718244 -0.14770046 -0.17877275 0.56379867 0.56235594 -0.4143826 0.40177304
0.35450348 0.5059397 -0.0937864 -0.25919667 -0.29838467 0.45807323 -0.094136275 -0.51706696

running_var f4 [32]
00000000: da56 a73e e22f 373f 88a3 4840 4a40 a53e
00000010: f528 f83e 56a5 8d3f aae6 d43f 03c3 cb3f
00000020: e6b1 ce3f 4cdf 2a40 6725 aa3e 6c2e 0f40
00000030: 0e2c 0a3f 31fa ca3b 20b0 8d3f 8eb2 983f
00000040: 11dd a43f a91e 3140 d9cf 523f 874f 233f
00000050: 6a51 883f b1db cb3e 00b8 b93f 95be c73e
00000060: 7c89 8e3f ddba fe3f 63e0 0d3f 7de6 3440
00000070: 349e 9a3e ec84 5e3f 12e8 d33e 916c b43f
0.3268345 0.7155744 3.1349812 0.3227561 0.48468748 1.1066082 1.6632893 1.5918888
1.614804 2.669879 0.3323166 2.2372084 0.5397347 0.006194376 1.1069374 1.192949
1.2879964 2.7674963 0.823484 0.63793224 1.0649846 0.3981605 1.4509277 0.3901259
1.1135707 1.9900776 0.5542051 2.826568 0.30198824 0.8692157 0.41387993 1.4095632

weight f4 [32]
00000000: c399 483f 2e62 e73e ca62 f23e 3ce0 ac3e
00000010: 0049 803f 5e1a 493f 7f2d 8d3f acf0 d43e
00000020: c131 873f 40e3 5f3f 623e b53e d406 cb3e
00000030: a940 313f b0a0 d737 b75b 543f de03 963e
00000040: f653 533f 282b a33e 224a 043f 51b1 2d3f
00000050: ed37 b63e cffd 8a3f 9b8c 773e 50b4 9c3e
00000060: 65bc 833f 189b 773f c07e 543f 7af5 503f
00000070: 2169 8a3f 2dc7 ff3e 4a93 683f fb94 553f
0.7835962 0.45192093 0.47340995 0.33764827 1.0022278 0.7855586 1.1029509 0.41589868
1.0562059 0.8745613 0.35399157 0.39653647 0.6923929 2.5704823e-05 0.82952446 0.29299825
0.8254999 0.31868863 0.5167562 0.6784869 0.35589543 1.0858706 0.2417473 0.30606318
1.0291868 0.9672103 0.83005905 0.8162457 1.0813333 0.49956647 0.90849745 0.8343045

bias f4 [32]
00000000: 3e19 8ebd 99d5 8a3d ab61 b43d 6cd1 ac3d
00000010: aecb 39bc 6010 a23d 7487 c73d 8fa8 963d
00000020: 9861 393e 6ebd e83b 0196 d13d 79dd c33d
00000030: 26d1 f33d 4017 d0ba 920a aa3d cc23 a43d
00000040: 3872 343c 0db9 bf3d dbce e03d c047 203e
00000050: 1ca8 7f3d 0f39 bc3d ca80 d43d 7ac8 883d
00000060: d4c3 f23d 3046 703d 5325 033d 9924 7a3d
00000070: ce24 8b3d 3ba4 b43d cbd5 933d 7c60 2cbd
-0.06938408 0.06779022 0.08807691 0.084383816 -0.011340065 0.079132795 0.097426325 0.07356369
0.18103635 0.00710266 0.10233689 0.09563727 0.11905126 -0.001587607 0.083027974 0.0801464
0.01101356 0.093614675 0.109769545 0.1565237 0.06241618 0.091905706 0.10376127 0.06678863
0.118537575 0.058660686 0.032018017 0.06107006 0.06794129 0.08820387 0.07218512 -0.042084202

weight f4 [3, 1536]
00000000: e066 f03b 8ed1 82bb d63c e1bc a4d0 2a3d
00000010: f65b 87bd 57af 0bbc 81e8 773d 2888 d33c
00000020: e08f 903d e002 aebc 07de b33c 17bf b23c
00000030: 0528 ce3d 1ad6 0e3c 00c4 133c abe9 123d
00000040: 3ae9 8e3c 9c91 333b cb37 243d 15a3 2e3d
00000050: 30da c03c 3528 153d 00ff 0c3d 3ab9 01bd
00000060: 28d2 783c 8ee8 1e3d 0548 933c 4585 fe3c
00000070: d016 9f3d 4a44 1c3c 425e 493d 8469 633d
00000080: e575 9b3d 52b3 6e3d c476 943d e0c8 6c3d
00000090: 6336 3e3d bf08 ca3d 87d7 f23c 378a f33d
000000a0: d610 8f3d d93e 8b3d 05b1 d13d 1770 a63d
000000b0: 1cd2 143e 3fe5 853c 32e2 44bc 2b0f 293e
000000c0: 73af 78bd a5b3 8a3d 9559 8ebc d5a7 c9bd
000000d0: 6fde 993c ba0a f8bb 34ce cd3c d348 173b
000000e0: 6d1e 6f3d 9b28 10bd d315 f13d 0555 4ebb
000000f0: 703d 233d 93e2 953d 6ce6 363c d8ce 413d
00000100: 0ed2 1b3d 2794 59bd f229 9fbd 71ca 673d
00000110: 5ec0 373d aef7 7e3d ec9e e5bc 1322 dc3c
00000120: 04ac 933d 2fa7 993d 97ac 883d 4225 043d
00000130: b8f9 6abc 0dc4 003e 9102 0b3d 08ea 9d3d
00000140: 3f7b 4d3e 9bde 593e b8d7 cebd a7d2 fcbb
00000150: 5811 1b3e 1b8e 4f3d 3a35 c13d d11a 373d
00000160: 51bb d83d 031b b7bd dca7 d9bd e327 e6bc
00000170: d5b4 3f3b 3827 d03d 7c74 253e 70ed 143e
00000180: e73c 913d 7691 443d 28b4 83bb 3290 073d
00000190: 9511 bc3c cc76 d03c e1a2 133d eb65 cb3d
000001a0: e642 fc3c de21 02bd be68 d4bb 8a0a 22bd
000001b0: 4889 c53d 1242 523d 81ac b33d c341 753a
000001c0: fb2f 3b3b 7dfa bdbd 8dbc f73d 34b4 c13d
000001d0: 068d cc3c dea3 093d 4d47 91bd b2a3 f9bc
000001e0: 931c 423e 01bd 293b 8c08 a23d 392f b53c
000001f0: 85c7 bdbc e5d0 e8bc 301b 013e 4db1 653d
00000200: a6f6 863d b311 143e 3204 79bd f9e6 1fbb
00000210: ca6c 4e3e 1737 bf3d 004f 1a3d 4082 603d
00000220: 581c 47bd 7eb7 e4bd 2cbd fe3d e6ad 0abc
00000230: 9780 1fbc 88c7 bdbc 1c91 903c 12fe 2dbb
00000240: 7a46 c0bd a036 0f3e ea43 903d 8b64 6ebc
00000250: ecb0 81bc 4984 3d3e 6244 c33d 29af 683d
00000260: e744 b83d 785a 303d e879 1e3d da71 88bc
00000270: 485a 0e3e 44af 093d 9557 663d d084 693d
00000280: 6b8d a73d 343a a0bb ec3c d23d 2861 ab3d
00000290: 9e05 a3bc 2f8d 2e3e a552 143b 7d3f 5e3d
000002a0: 3d14 1c3e fb03 b9bb f273 94bd 542e 0e3d
000002b0: 3ca0 223c 1885 c33c 1d18 c33d 25d9 303d
000002c0: c732 cc3d ffca ecbc 344e 03be 65eb 163d
000002d0: 6d91 393e dc1c 0a3d fe19 133d 5b8b a03d
000002e0: 4acc 39bc c80e 92bd 20ef 5c3e 2ad7 253d
000002f0: b253 383d b501 fb3c 7eca 403d af9c 4d3d
00000300: fe23 63bd 3ea4 683c 2ab1 293d 6e88 4cbc
00000310: f46f 6fbc 38a6 023c dddf 0d3d b46e 8f3d
00000320: 79be 233d 7d73 fcbc b9a7 813c 6edc c53b
00000330: f7de 063e 905f 723d 97dd 583b e6b9 153d
00000340: 78da a53c 1dda 17bd b4b0 bd3b 6a27 1b3c
00000350: 3d8b a13d 9a33 753d 58ad be3b 1479 8ebc
00000360: 2c72 073e 4371 113d 31cf 993d dd07 0d3d
00000370: fe35 493d 9cee b63d 148f b53d fedc 3a3d
00000380: c7fb c53d ff47 473c 39b6 1c3d 6e0d 3d3b
00000390: b2aa 8f3d 5fc3 fdbc dccf 1c3c fea5 0f3c
000003a0: 89d1 623c f504 133d 10a5 563d 80e5 af3c
000003b0: 7bee 86bd bcbd 933d 2c0b 2a3c 81a8 87bd
000003c0: b19a 163e 3afa c83d 56fa c73d 2c6d e33d
000003d0: f0b3 9c3d d49a 3d3d 2769 1d3c a713 7b3d
000003e0: 608a 543c 0921 e4bc d8b8 b6bc 1562 30bc
000003f0: 5978 583d f709 bd3c 85df c2bb 0a1c 7ebd
0.0073364824 -0.003992266 -0.02749483 0.04170288 -0.06609337 -0.008525691 0.060524467 0.02582176
0.07058692 -0.021241605 0.021956457 0.021819634 0.10066227 0.008718038 0.009018898 0.035867374
0.017445195 0.0027400022 0.04009227 0.042635996 0.02354154 0.036415298 0.034422874 -0.031670786
0.015186824 0.038796 0.017978678 0.031069407 0.07768023 0.009537766 0.049162157 0.05552055
0.07590846 0.058276482 0.07249215 0.057808757 0.046438586 0.098649494 0.029643787 0.11891597
0.06985633 0.067990966 0.10238842 0.08126848 0.14533275 0.016344665 -0.01201682 0.16509692
-0.060714196 0.06772546 -0.0173767 -0.098464645 0.018782822 -0.007569638 0.02512274 0.0023084178
0.058378626 -0.035194974 0.11771741 -0.003148378 0.039853513 0.07318606 0.011163335 0.047316402
0.03804212 -0.053119805 -0.07771672 0.056589548 0.04486119 0.062247925 -0.028029881 0.026871717
0.07210544 0.07502591 0.06673544 0.032262094 -0.014341764 0.12574787 0.033937994 0.077106535
0.20066546 0.21276323 -0.10099739 -0.0077155414 0.15143335 0.05067263 0.0943398 0.04470331
0.10582603 -0.08940699 -0.1062772 -0.028095191 0.0029252071 0.101637304 0.16157717 0.145437
0.07091694 0.047990285 -0.004019279 0.0330965 0.022957603 0.025447272 0.036044005 0.09931549
0.030793618 -0.03177058 -0.006482213 -0.039560832 0.09645325 0.05133254 0.08773137 0.00093558076
0.0028562534 -0.092762925 0.1209651 0.09458199 0.024969589 0.03360354 -0.07093678 -0.030473564
0.18956213 0.0025900009 0.079117864 0.022117244 -0.023166427 -0.028419921 0.12608027 0.05607729
0.06590013 0.14459877 -0.060795017 -0.0024399145 0.20158687 0.093366794 0.037672997 0.054811716
-0.048611015 -0.11167811 0.124384254 -0.008464312 -0.009735248 -0.023166433 0.017647319 -0.0026549143
-0.09388442 0.13985682 0.070442036 -0.0145503385 -0.015831433 0.18507494 0.09534527 0.05680767
0.08997517 0.043055028 0.038690478 -0.016655851 0.13901627 0.033614412 0.05623587 0.057011425
0.0818127 -0.004889751 0.10265526 0.083681405 -0.01990014 0.17046045 0.0022632268 0.054259766
0.15242095 -0.0056462265 -0.07248677 0.03471215 0.009925898 0.023867175 0.095260836 0.043175835
0.099706225 -0.02890539 -0.12822801 0.036845583 0.18121882 0.03371893 0.03591346 0.0783908
-0.01134021 -0.071317255 0.21575594 0.0404884 0.045001693 0.030640462 0.04706811 0.050198253
-0.055454247 0.014199315 0.041428722 -0.012483699 -0.014614094 0.0079742 0.03463732 0.07003537
0.03997657 -0.030816788 0.015827047 0.00603824 0.13170992 0.059173167 0.0033091062 0.03655424
0.020245776 -0.037073243 0.005788887 0.009469846 0.07887886 0.059863664 0.005819004 -0.017391719
0.13227147 0.035508405 0.07510222 0.034431327 0.049123757 0.0893223 0.088651806 0.04562091
0.09667163 0.012163161 0.03825972 0.0028847116 0.070149794 -0.03097695 0.009571042 0.008767603
0.013843902 0.0358934 0.05240351 0.021471739 -0.06588455 0.07213923 0.01037864 -0.066239364
0.14707448 0.09813352 0.09764545 0.11104807 0.07651508 0.046290234 0.00960759 0.06129804
0.012972444 -0.027847784 -0.022304937 -0.010765572 0.052849147 0.02307604 -0.0059470558 -0.06203846

bias f4 [3]
00000000: 2205 6e3d e1f9 123d c1f0 9d3c
0.058110364 0.035882834 0.01927984
