dev/pong/optimized/regular/pong_optimized_400.pth (torch_old, 191816 bytes, 20 tensors)

weight f4 [16, 1, 5, 5]
00000000: a812 233c 786f 853a 18d6 6bbe 5d3e 663e
00000010: 7668 203b 8ce3 303e d002 163d 75fb 75be
00000020: 8352 06be bd28 453e d480 1ebe be88 14be
00000030: 356c b7bc a072 d6bb 7457 173e 39a2 59be
00000040: c4f3 933d bc05 c7bd 0bf2 4ebd 880d 21be
00000050: d655 22be d34f ec3d 8ea1 833d 0609 853d
00000060: 60c6 903c aabb 0cbd 5799 233d d13d bfbd
00000070: f20c 12be 3d28 dc3b ad8e ef3c 62e7 43be
00000080: 098a 163e 54d2 97bc 1cca 9f3d 6d5d c7bd
00000090: 1c27 773c 7649 813c 689d 00be 9268 123d
000000a0: b683 57bd 6b6f 763e b105 bdbd 6c21 703e
000000b0: 80cd e53d 6a26 423d bff0 313d 2445 bbbc
000000c0: 848e 23be 729b c63d 921c 1a3e 50f6 283e
000000d0: 6084 5dbe c4cd 23be 1ad5 793d e047 823d
000000e0: f9dd ee3d 959c 243e 7a7d 1fbe ab88 2abe
000000f0: c337 0dbe e1b3 d9bd 4116 09be f9fc 233e
00000100: fdd7 a3bd 92f5 2dbe 6b30 4bbe c0c5 3a3e
00000110: b856 423e bf4f cbbd 2ef5 98bd 2acb 3c3e
00000120: 6ec6 dabd ebe7 d0bc f938 3c3e 04a0 cd3d
00000130: 428a 8dbd a334 01be 4282 5dbd 3624 f63d
00000140: 2d95 22be 26b7 26be 65bb 5b3e f491 d03b
00000150: e7e7 e3bd 1bda cf3d f832 353e 3056 0a3e
00000160: 3d77 77bd a197 15be 562e 623e f1b5 c5bc
00000170: bea1 403e 9bf8 1f3b 2a3b 6fbd 4592 cebd
00000180: a3da f23d d19e c3bd 5f61 67be 7ea8 c7bd
00000190: dd33 d13d f8f9 a4bc cc36 da3d 29ba df3d
000001a0: fd57 013e 5daa 0ebe d4e0 883d dbc3 cbbd
000001b0: e236 26be f304 9c3d 0bfe e13c 4f71 a33b
000001c0: 4554 093e d65a 55be 7d4d e9bd 9488 25be
000001d0: d45f 4f3e cfd4 3e3e 13d8 0bbe bcac 09be
000001e0: f32d 47bd b4bc cbbc 69d8 513e 19ed 0fbd
000001f0: c32d d2bd 9807 c1bc ae09 fdbc 5fc3 9a3c
00000200: 34d0 9abd 3104 78bd 9964 bf3d 72fe febd
00000210: 78e9 243e 8921 573d c532 07bd 2cb7 36be
00000220: d044 38be 5d99 1ebe d76d ca3c 09d9 19be
00000230: 1626 9c3e 8913 6e3e d0ba d73d 57c3 20be
00000240: 9b3b 3c3e 0b3d 35be 68cd a83d c66a fd3d
00000250: 9845 d1bd 1163 8a3d 4257 d8ba 3888 f7bc
00000260: 2407 233e b71a 243e 9212 7a3d 8b90 37be
00000270: 188b aabd b1f4 11be 13f7 f13d 8c22 8cbd
00000280: 2971 173e 46a0 13bd c12b 25be c62b 1bbd
00000290: 9782 8c3c 613b a3bd e2ad 343e 6414 863e
000002a0: 65d0 873d f55a 91bd 7be1 943d de28 e13d
000002b0: 3360 6dbe 5664 093e c099 9fbd 6a65 02be
000002c0: c52f 103e 8b58 323e 82a3 96bd f66c 083e
000002d0: 3df1 e2bd f21f 123e 3a28 6abd 4d7b 113e
000002e0: 81d0 2abe 4e93 68bd 7657 7f3e 71df 463e
000002f0: 00a4 8abc 6c48 8bbb cf27 cd3d f590 9cbb
00000300: f1d3 21be 17b2 2fbe a1e6 bcba f08a f9bd
00000310: b99e 1ebe e053 423e 97f2 a5bc 8a3a f83d
00000320: 7ca6 5dbd 5d39 2fbc 0bae dbbd 669f a7bd
00000330: 73e0 083e e5b0 ba3d 4253 e6bd 0911 343d
00000340: 420d de3d 0362 03bc 8cf1 18be 3d51 9abd
00000350: cd2c 43be be02 b43d bb78 153e fd42 24be
00000360: ec4f 4dbe 6478 0f3e fead 413e e5d9 443e
00000370: d28f 9a3d c2e3 fe3d aaef 34bd 7179 9c3c
00000380: 4d3b 1cbd 3044 d13c 3610 68bd dce7 e3bd
00000390: 7ba6 713d b9fb 3dbe e41e 0f3e c747 0fbe
000003a0: 5e85 303e c27f a13b 4829 b53d 541b 18be
000003b0: 67ee 493e ef84 13bd b3da b8bc aa72 dcbc
000003c0: 8416 1ebe 331d a63d feec 28bd 3d6a 483e
000003d0: aa88 c5bd 9794 3abd 1c0e 713d 7cb2 36be
000003e0: 1217 a1bd bcf9 5fbd 86db 9c3d 9dba 063e
000003f0: f103 22be 65cf 513e 516d 133e 4bdd 793d
0.009953178 0.0010180315 -0.23030889 0.22484727 0.0024476326 0.17274302 0.036623776 -0.24021704
-0.13117413 0.19253822 -0.15478832 -0.14505288 -0.022390464 -0.006544426 0.14779454 -0.2125329
0.07224229 -0.097178906 -0.0505238 -0.15727818 -0.15853056 0.11538663 0.064272985 0.06495862
0.017672718 -0.034358658 0.03994116 -0.093379624 -0.1426275 0.006718664 0.029242838 -0.19131234
0.14701094 -0.01853291 0.07802221 -0.097346164 0.015085008 0.0157821 -0.12560046 0.035744257
-0.052615844 0.2406594 -0.09229601 0.2345025 0.11220837 0.047399916 0.043442484 -0.022860117
-0.15972334 0.096976176 0.15049961 0.16500211 -0.21632528 -0.15996462 0.060994245 0.06361365
0.11663432 0.16075356 -0.1557521 -0.16653697 -0.13790803 -0.10630012 -0.13387395 0.1601447
-0.08000181 -0.16988209 -0.19842689 0.18239498 0.18978393 -0.0992732 -0.07468639 0.18436876
-0.10682379 -0.025501212 0.18381108 0.10040286 -0.06911136 -0.12617736 -0.0540793 0.120186254
-0.15877219 -0.16280803 0.21458204 0.006365055 -0.11128216 0.10149022 0.17695224 0.1350944
-0.06041645 -0.14608623 0.22087988 -0.024134608 0.188117 0.0024409655 -0.058406033 -0.100864924
0.11858108 -0.09551776 -0.22595738 -0.09748934 0.1021497 -0.020138726 0.10654983 0.10924179
0.12631221 -0.13932176 0.066835076 -0.09949466 -0.16231874 0.076181315 0.027586957 0.0049878727
0.13411053 -0.20835432 -0.11391733 -0.16165382 0.202514 0.18635868 -0.13656645 -0.13444799
-0.048627805 -0.024870254 0.2049271 -0.035138223 -0.102626346 -0.023563191 -0.030888405 0.018891988
-0.07559243 -0.060550872 0.09345359 -0.12450875 0.16104686 0.052522216 -0.033007402 -0.17843312
-0.17995 -0.15488191 0.024710579 -0.15024199 0.30497807 0.2324964 0.105336785 -0.15699516
0.18382113 -0.17699067 0.08242303 0.12373881 -0.10218352 0.06757177 -0.0016505497 -0.030216321
0.15920693 0.16025816 0.061052866 -0.17926233 -0.08327311 -0.14253499 0.11814704 -0.06842527
0.14789261 -0.03604152 -0.16129972 -0.037883542 0.017152114 -0.0797031 0.17644456 0.26187432
0.06631545 -0.07097427 0.072695695 0.10994123 -0.23181228 0.13417181 -0.07792997 -0.12733999
0.14080723 0.17416589 -0.073554054 0.13322815 -0.11081169 0.14269999 -0.05716727 0.14207192
-0.166811 -0.056781106 0.24935707 0.19421174 -0.016923904 -0.0042505767 0.100173585 -0.0047780224
-0.15803505 -0.1715778 -0.0014411994 -0.12184703 -0.15490235 0.18977308 -0.020257277 0.121205404
-0.05411385 -0.010694829 -0.107265554 -0.081847 0.1336687 0.09115771 -0.11246349 0.04396156
0.108423725 -0.008018973 -0.14935893 -0.07535026 -0.19060059 0.087895855 0.14596836 -0.16041179
-0.20050019 0.14010769 0.18914029 0.19223745 0.07546963 0.12445785 -0.044173874 0.019100877
-0.03814249 0.02554521 -0.056656085 -0.11128208 0.05899666 -0.18553056 0.13976628 -0.13992225
0.17238376 0.00492856 0.088457644 -0.14854175 0.1971985 -0.036015447 -0.022565221 -0.026910145
-0.15438277 0.08111038 -0.04124164 0.19571777 -0.09645207 -0.045551863 0.058851346 -0.17841524
-0.078657284 -0.054681525 0.07659058 0.13157125 -0.15821816 0.20489271 0.1439717 0.061002057

bias f4 [16]
00000000: a6aa d0bd 0e87 9abc 69dd 37bd e01a bf3d
00000010: 0c81 f43d dcdd d93d edbc 0f3e c552 ccbc
00000020: 198f a43d daaf 0c3e 9504 c73c 9e1c 343e
00000030: 774b 2ebe d3b2 33be 0564 f83c db1e 333e
-0.101887986 -0.018863227 -0.044888888 0.09331298 0.11938676 0.106380194 0.14036913 -0.024941811
0.08035106 0.13738957 0.024294177 0.17589042 -0.17020975 -0.17548685 0.03032113 0.17492239

weight f4 [16]
00000000: 3e1a f53e 2c48 c53e 6252 603f bb01 583f
00000010: be9e b33e b1b8 403e 96bd d13e cddf 543f
00000020: 4da2 133f 21b3 fd3e e866 b13e 64e7 c23e
00000030: 90da 9b3e e138 673f 13dc 1b3f 0f76 6c3f
0.47871584 0.38531625 0.87625706 0.8437764 0.35082048 0.18820454 0.40964955 0.8315399
0.57669526 0.49550727 0.34648824 0.38067162 0.30440187 0.90321165 0.6088268 0.92367643

bias f4 [16]
00000000: 8e80 6ebd 879e bebd a5e0 92bc cf29 10bd
00000010: e931 08bd 3acc a6bd 1e2a 6abd 310e 11be
00000020: 5b8e 14be 6c74 003d 3317 433b d48a 36bd
00000030: 96b0 02be 5d91 86bd 6f1a 04be e7ed 80bc
-0.058228068 -0.093075804 -0.017929384 -0.03519612 -0.033250723 -0.08144422 -0.057169072 -0.1416557
-0.1450743 0.03136103 0.0029768466 -0.04456599 -0.12762675 -0.065706946 -0.12900709 -0.01573844

running_mean f4 [16]
00000000: fd59 8cbe 34bc 943c 77ce f6bd 00a4 543d
00000010: ec3b dc3d 705b db3d 496f 773e 0d56 cc3d
00000020: b093 fb3d d0e3 2d3c 94f4 023e 26aa 953d
00000030: ea82 0abd 836e f6bc 3f93 213e 79b6 95bd
-0.27412406 0.018156148 -0.12051099 0.051914215 0.10753617 0.107108 0.24163546 0.099773504
0.122840285 0.010613397 0.12788612 0.07307844 -0.033816256 -0.030081993 0.15778826 -0.073101945

running_var f4 [16]
00000000: 6a49 433b a4d4 d039 ad1f bb3a 4e51 263b
00000010: 8346 8c39 8e38 0138 6974 2d3a 8281 9b3a
00000020: 11d2 8039 bf8d 483a 71de 263a 551c 5e3a
00000030: d608 5a3a 5db4 dd3a 4bbd cd3a 65e6 003b
0.0029798397 0.0003983128 0.0014276408 0.0025378051 0.00026755416 3.0808667e-05 0.0006616773 0.0011864158
0.00024570574 0.00076505163 0.0006365544 0.000847285 0.00083173567 0.0016914714 0.0015696672 0.0019668576

weight f4 [32, 16, 5, 5]
00000000: 4d2c e13b 45f3 013d 0c48 a2bd 5d22 9ebb
00000010: 7c05 d2bd 83ce fdbc 1727 913d c04e bdbb
00000020: fc57 ad3c 7d5e 66bd 3437 923b 1152 ecbd
00000030: f38b 89bb 7bd4 763d 3dd4 86bd 90f0 ff3b
00000040: c51b d33c de06 c73c 5bf2 973d 1fe6 883c
00000050: c311 15bc 5e7c 393d 817f 463d 5405 4abc
00000060: 15ff fe3b e2cc f7bc 9b7a 62bd bb1e a9bc
00000070: 9fc9 c63c 6c81 4b3c 9570 99bc 5ecd 31bd
00000080: bace 3fbc 0a2b a13a a6fe b1bd 2c32 fd3c
00000090: c325 86bc 6876 e4bb 61c3 983c f1f9 54bd
000000a0: 1a93 103d f892 c03d 5954 173d e847 113a
000000b0: 30d8 58bc e99f 0c3d b79c d63d 9d23 e13d
000000c0: 2eb0 1b3e a249 b03b 8493 923c 7a4c 263d
000000d0: 3a63 e33d 4084 bdbd 41ce 2cbd 9d66 763c
000000e0: d7dc 083b 4990 123d 7895 983d 749d 5ebd
000000f0: ad1b 65bd dcec a8bc 6d24 e83c 4c25 74bd
00000100: 79ff 443d 0696 d53b 421d adbc 45f4 873d
00000110: 7e4a bc3c b03c 15bb 212f b1bd ae63 87bc
00000120: fa59 1e3c d407 723d e713 a53b 6098 c63b
00000130: 1efa f23b 6990 333c 32f0 aa3d 5a58 96bc
00000140: 863b 85bd 7191 993c 592c 133d 299b 29be
00000150: f804 0fbd cae4 3b3d dd1b 0cbd a07e 18bd
00000160: 7228 84bc 92bf b13d 8636 d53d 2091 59bc
00000170: f7ea 223c 7720 b93b 2fac 27bd 1b5e 44be
00000180: 4696 7dbc ff02 243d a752 2ebd a8fe 8d3d
00000190: 8e0a 88bd e6fd 533d 7abf 12bc a1b2 ec3c
000001a0: 6aec a7bc a99a 193c 9007 02bd cf63 12bd
000001b0: e716 69bc f453 603d 7229 91bb d607 74bd
000001c0: 2507 253d 4160 a8bd 6868 483d 62e0 d5bd
000001d0: 7ec2 1bbd b233 df3c 6d71 663c a29f 54ba
000001e0: 1b45 d7bc 1740 36bd 88d8 853d 5f0f 2e3d
000001f0: 20e8 913d 3c3d 15bd 516b 98bd 1c09 3cbd
00000200: 3dc2 fa3b 0f2b b93d e4c1 09bd 0e66 82bd
00000210: ba25 bd3d b6a4 a7bc e80a e23d 763c 90bd
00000220: a4d3 7f3d faef 8fbc bb88 93bb 32da 6d3d
00000230: 4fca a1bd c16c 503d 6460 843d 5595 203d
00000240: 38ca c03d e8de 263e cf72 2f3c 3cfa 15bc
00000250: c104 263d fa73 e53d 3d64 ebbd 4465 b2bc
00000260: 29fe 5c3d dc12 66bd 0699 30bd 781f 4bbd
00000270: 4037 0a3e 8f7d 023d afd5 0dbd 3cfd f23b
00000280: 8779 903c 9a74 f53c 6f45 73bd f050 4e3c
00000290: 01ce 56bd 7ee1 7f3d a1ee 88bc e3f7 6bbd
000002a0: ea7b ca3d aa2d 20bb 510a 2d3c 302d 33ba
000002b0: 5a90 0d3d 0e57 2fbc 3a47 333d 17c3 763d
000002c0: a1c7 173c 2a99 bd3c 1290 fd3c 09ae 133c
000002d0: 4876 8dbb 3d28 4cbc 71b5 073d e82d 15bd
000002e0: bf9c 5cbc 689f 49be e9ae d83b b568 87bc
000002f0: 92d7 e43c c8f3 5a3d 373d 00be 1f6f ee3b
00000300: bc6d 8c3d 706b 67bb 76a5 623d 70b7 7a3d
00000310: 0e6e 15bd 8384 043d 7ce1 713d f33f 373d
00000320: 0a28 803b 4ecd c93c 6d03 843c b648 9a3c
00000330: b13a ea3c c492 4c3c 576c 5c3c 3cf9 99bd
00000340: c646 c23c 01db 273c 92f8 503d 009d 863b
00000350: 399b d13c 46f7 013d dc9e 92bd f450 43ba
00000360: 5497 ad3d 6ce4 79bc 4f67 ab3d 32d2 c7bd
00000370: f5ac 12be 3dce 903c 8a44 9f3c 499b 753d
00000380: 6155 84bd 4b52 91bd d9c8 36bc 5b5a 1fbc
00000390: b306 8dbc 243c a0bc c753 11bd 7d9a 113d
000003a0: 0e0a f7bc 8854 be3c ea17 333d 367d 8dbd
000003b0: 5dd5 463a 4049 d93c 9204 bbbc 4d55 503d
000003c0: 99f5 623d 6ada 9a3d 53a0 353d 4e23 4e3d
000003d0: 34b7 30bc f983 90ba 1974 543c 32cb 693b
000003e0: ec5a 5fb9 0e32 c13d 438f afbc 199c f73c
000003f0: 9f2b 633d 82f5 443d 7095 d8bc e608 d33b
0.006871736 0.03172614 -0.07923898 -0.0048258738 -0.10254952 -0.030982262 0.07087534 -0.00577721
0.021160118 -0.056242455 0.004462147 -0.115390904 -0.0041975915 0.06026123 -0.0658345 0.0078106597
0.025770077 0.024295267 0.074192725 0.016711293 -0.009098473 0.04528462 0.04846144 -0.012330372
0.007781873 -0.030249063 -0.055292707 -0.020644536 0.024266062 0.012420993 -0.018730441 -0.043408744
-0.011707002 0.0012296152 -0.086911485 0.030907713 -0.016375428 -0.006972123 0.018647851 -0.051996175
0.035296537 0.09403032 0.036945675 0.0005542026 -0.013235137 0.03433219 0.1047911 0.10993121
0.15203926 0.0053798715 0.017892607 0.040600277 0.1110291 -0.0925374 -0.042188887 0.015039113
0.0020883584 0.035782132 0.07450384 -0.054349378 -0.055934597 -0.020620756 0.028337682 -0.05960588
0.0480952 0.0065181283 -0.021132115 0.066383876 0.02298474 -0.0022771768 -0.08651567 -0.016527023
0.009665007 0.059089497 0.005037773 0.006060645 0.00741507 0.010959723 0.08346595 -0.018352676
-0.06505494 0.01874611 0.035930965 -0.16563095 -0.034916848 0.045872487 -0.03420626 -0.037230134
-0.016132567 0.08679117 0.1041079 -0.013279229 0.009943715 0.005649622 -0.04093569 -0.19176523
-0.0154777225 0.04004192 -0.042559292 0.069333375 -0.06642638 0.05175581 -0.008956784 0.02889377
-0.020498473 0.009375253 -0.031745493 -0.035739716 -0.014226652 0.054767564 -0.0044299895 -0.059577785
0.040290017 -0.08221484 0.048927695 -0.10443188 -0.03802728 0.02724633 0.014065129 -0.00081109453
-0.02627807 -0.044494715 0.06535441 0.042495128 0.071243525 -0.03643535 -0.07442344 -0.045907125
0.0076525495 0.09041416 -0.033632174 -0.06367122 0.092357114 -0.020464282 0.110372365 -0.07042782
0.062457696 -0.017570484 -0.0045023835 0.058069415 -0.078999154 0.050884966 0.064636976 0.039204914
0.0941357 0.1629597 0.010708525 -0.009153899 0.040531877 0.112037614 -0.11493728 -0.021776803
0.053953324 -0.05617033 -0.043114685 -0.049590558 0.13497639 0.031858023 -0.034627613 0.007415442
0.017636074 0.029962827 -0.05939239 0.012592539 -0.052442554 0.062470905 -0.01671535 -0.05760945
0.09886916 -0.002444128 0.010561542 -0.00068350416 0.034561493 -0.010701908 0.0437691 0.060244646
0.009263904 0.023144323 0.030952487 0.009013661 -0.0043170787 -0.012460765 0.03313202 -0.036420733
-0.013465106 -0.19689715 0.006612648 -0.01652942 0.027934823 0.053455144 -0.12523352 0.0072764303
0.06856868 -0.003531184 0.055333577 0.061210096 -0.03648191 0.032352936 0.05905293 0.04473872
0.003911023 0.02463403 0.016114915 0.0188335 0.02859244 0.0124861635 0.013453565 -0.07518241
0.023715388 0.010245086 0.051018305 0.0041080713 0.025586711 0.03172996 -0.07159206 -0.00074507226
0.08476129 -0.015252214 0.08369314 -0.097568884 -0.1432379 0.017676467 0.019441862 0.059962545
-0.06461597 -0.07095774 -0.011156284 -0.009726132 -0.017215108 -0.019559927 -0.035480287 0.035547722
-0.030156162 0.023233667 0.043723978 -0.06908648 0.0007584894 0.026524186 -0.022829328 0.0508626
0.05541 0.075611904 0.04434235 0.050326638 -0.0107858665 -0.0011025659 0.012967133 0.0035674092
-0.00021300808 0.09433375 -0.021430617 0.0302258 0.055461522 0.048085697 -0.026438445 0.0064402698

bias f4 [32]
00000000: d183 c93c 72ae 72bc f19f 9b3d 6c9c 0abc
00000010: 4d84 933c 5fdf 803c c488 18bd 4704 c9bb
00000020: 4fad 0d3d 8732 e3bb 479b a73b 90df 22bd
00000030: 3c1a 4b3d b416 f73c 090d a6bb 41a4 373c
00000040: 5f53 c83c aa91 813c 3ca2 e5ba d83b 9a3d
00000050: 0000 a03c fcdd 1b3c ed4e f0bc 545e fdbb
00000060: 6c48 7b3c a1f1 423d 6837 9dbb 3c19 0dbc
00000070: fc18 9139 c224 e63c 36e5 18bb 96de 86bc
0.024598988 -0.014812099 0.07598866 -0.008460145 0.018007422 0.015731512 -0.037239805 -0.006134543
0.034589108 -0.0069335136 0.005114946 -0.039763987 0.049585566 0.030162193 -0.005067472 0.011208595
0.024453817 0.015816528 -0.0017519663 0.075309455 0.01953125 0.009513374 -0.02933451 -0.007732192
0.015337091 0.047593717 -0.0047978647 -0.008611973 0.0002767517 0.0280937 -0.002332998 -0.01646356

weight f4 [32]
00000000: 9840 853e 3fd4 5a3e 2299 1f3f 4c8b 4b3f
00000010: 4852 7a3f d073 493f 7b2c 813e 8e21 003f
00000020: e722 513f be0b 343f 9ed9 343f 2139 b43e
00000030: 194d dd3e 9e61 433f fb62 263f 7949 043e
00000040: 801b 813f 0eaf 753e 769f 0b3f 38d8 3b3f
00000050: 2c82 0a3e 00d8 203f 6dfa 9d3e c402 193e
00000060: 95e4 243f fb32 203f f7f9 6c3e 10c2 633f
00000070: df88 7c3e d589 3f3e 516b 493f 51c2 483f
0.26025844 0.21370028 0.6234304 0.79509425 0.977818 0.7869234 0.25229248 0.500512
0.8169388 0.7033042 0.7064456 0.35199836 0.43222883 0.76320827 0.6499478 0.12918653
1.0086517 0.2399256 0.54540193 0.733768 0.13526219 0.6282959 0.30855122 0.14942461
0.6441129 0.6257779 0.23142229 0.8896799 0.24661587 0.18704922 0.78679377 0.78421503

bias f4 [32]
00000000: cc9f d9bd 7637 d9bd c9d3 e3bd 4fd3 08be
00000010: 0e75 eabc b3b6 84bd 8fee bcbd 92f9 2bbc
00000020: 5934 e5bd 46b4 44bd 3fe9 bd3c 705b 20be
00000030: b45d 1f3d acaa f13b b93a 60bd cb84 4bbd
00000040: e7a6 7abd 27ae a5bd d5ad 08be 1d39 fa3c
00000050: d28a e1bd b3b4 82bd de72 a7bd 6c63 63bd
00000060: 1e3c ba3c 498d 01be 7308 aebd f3f2 dfbc
00000070: 17e4 b3bd 14e8 37bc 285e 4dbd 4535 fabd
-0.10626182 -0.106062815 -0.11124379 -0.13361858 -0.02862027 -0.064801596 -0.09225189 -0.010496514
-0.11191625 -0.048023485 0.02318251 -0.1565988 0.03890772 0.007375082 -0.054743502 -0.049687188
-0.061194327 -0.080898575 -0.13347562 0.030544812 -0.11012806 -0.06382122 -0.08176206 -0.055514738
0.022733744 -0.12651552 -0.08497705 -0.027337527 -0.08783739 -0.011224765 -0.050138623 -0.122171916

running_mean f4 [32]
00000000: 8e86 193e ea84 ce3d 8e85 de3e 6189 c83e
00000010: 4d89 e0be d97a 31be 8942 043f c45e aa3c
00000020: f43b 833e 8470 fdbe 12e7 cdbe 3ad9 6b3e
00000030: 4f7b 20bd 0a90 17bf 6d4c 523d 4f48 ef3e
00000040: 56d1 84be 19ee 43ba 5d4c 46be 0e3c 623c
00000050: 2e37 a23e ab47 5abe 3d9d 963e 4857 443e
00000060: 1495 a7be 3874 31be 01de a03d cd10 e8be
00000070: 055e 35bd edba 323d 4103 1fbe ceba 863c
0.14992735 0.10083945 0.4346127 0.39167312 -0.43854752 -0.17332019 0.51664025 0.02079714
0.25631678 -0.49499905 -0.40215355 0.23032084 -0.039180096 -0.5920416 0.051342417 0.46734855
-0.2594096 -0.0007474139 -0.19365068 0.0138082635 0.31682724 -0.21316402 0.29416838 0.1917392
-0.32730925 -0.1732949 0.07854844 -0.45325318 -0.044279117 0.043635298 -0.15528585 0.016446497

running_var f4 [32]
00000000: fd7e 6d3e 9934 833e 842f b73f b9fb a63f
00000010: 0c91 7c3e e0c5 3f3e 9506 9c3f 043e c03d
00000020: 89e5 d93e 504d 0d3f d305 123f a498 1d3f
00000030: 7f27 3f3e a953 433f 2f80 bb3d 71cf 833f
00000040: c99b 713e 24c1 5c3d 425b 863e f47b 0a3e
00000050: b951 6d3e 8579 ea3d 62ce a53e 06b9 4a3d
00000060: 857f 4b3e c6c9 e43e 3e69 2f3e c3be 713e
00000070: 66ae 0b3e 42a6 a83d 77dc fd3f 3afd 1d3f
0.23192973 0.25626066 1.4311376 1.304557 0.24664706 0.18727827 1.2189509 0.093868285
0.42557934 0.55196095 0.5704014 0.61561036 0.1866741 0.7629953 0.091553085 1.0297681
0.23594584 0.05389513 0.262415 0.13523847 0.23175706 0.11448959 0.3238402 0.04949286
0.19872864 0.4468519 0.1712999 0.23607926 0.13640746 0.08234836 1.9832906 0.6171452

weight f4 [32, 32, 5, 5]
00000000: 039d ef3b 309d 183d 4cb6 783c 5c25 e53c
00000010: f6db 2f3c eaa6 7f3d 5693 9abb 039d 4d3d
00000020: 66a8 fcbc ca9f cbbd f200 e4b9 8217 e2bc
00000030: 99cd b33b d59a 753d c296 07bd facc bfbc
00000040: dead 0e3d 3755 22bd 23ae c13d f981 063c
00000050: 0d07 32bc 93ef 2dbc 5827 0a3d 08c1 003d
00000060: 1297 43bd d8c7 983d f71b 21bd 37ef 153d
00000070: 42df 76bd 26b3 073d 7fc1 993d 39e7 e7bd
00000080: 0dc8 1f3d 68dd 4dbd 3b14 8bbd 2f1f 6fbd
00000090: 5c1f db3c 68df bf3d 4840 1e3c 0f75 44bd
000000a0: 5a92 ecbd 1e52 debc ce39 16bd 735a 0d3c
000000b0: 7413 f2bc 083b f13d 0fd1 9d3c 9012 18bd
000000c0: 0a8e 413c 0309 80bd a8e7 6e3d 03a2 b83c
000000d0: ef53 eb3c 4d4d e73c 9ef6 853c 13aa c4bc
000000e0: 5970 82bc 5cb1 803c ce6e 97bd 1b29 85bd
000000f0: 4dea 48bc 0098 db3c e30f 673a 2863 f0bc
00000100: 51a8 14bd a5af 4ebc f396 f7bc 7668 1a3c
00000110: 45b6 813c d55f 90bc 52a4 f1bc 7ddf ef3c
00000120: f108 9a3c 8109 fdbc bda7 67bd 532f b63c
00000130: 6e1c a13c f825 7c3d aee3 a53c 2eb2 103c
00000140: 914d 1b3d 62a3 563c 6260 993c fcb2 9bbd
00000150: 5cce b2bc 8b20 1c3b 9ad2 233d 4cbe febb
00000160: fee9 693d 2e15 94bd 3af8 afbd d78c 0ab9
00000170: 7d99 e6bc 3536 06bd 7d6d 2fbd 880e f23c
00000180: 8d32 08bc e4a4 8d3c f2c8 97bd c486 ffbc
00000190: 41a1 8bbc 8c28 46bc 16d1 2f3d bcb1 2e3d
000001a0: 3847 2b3c 0c0a 24be 4e09 dbbc 1512 343d
000001b0: 24e5 b9bc 55ac 483c bc29 dfbc ab09 7ebd
000001c0: 4d69 96bd b118 06bd b5ca 833c 0e37 e7bc
000001d0: caa6 0bbd 281f 7abc e166 9abc 5cf3 2e3c
000001e0: e128 b93b ecaf 22bd 2165 b7bc 43bc eab9
000001f0: 1139 70bd f260 673c 0d8b c73c 1679 f23c
00000200: 2d4b b33d cae6 933d e002 0f3d 600e 78bb
00000210: 1847 5a3d 6fe5 8abc e5c3 86bb cf2f f1bc
00000220: 474d 343d 7197 3cbb 7854 483a 00a6 913c
00000230: 5ed0 a03c b304 6abd eff1 153d f497 69bd
00000240: aa23 70bd 63fc d83d 5e6c 82bd c8d1 9dbc
00000250: af63 323d 2568 4cbc 5e7e 6b3b dd8f d33c
00000260: 52d5 863c 6cce 6d3d 037c b23b 77de 99ba
00000270: 364a 0dbc cc96 81bc 12e4 4abc 4cc5 0ebe
00000280: 41a6 7e3d 3825 33bc 4759 cdbc 3306 3ebc
00000290: 19bd 6dbc 49cc 2d3d ed61 3dbd 1501 513d
000002a0: 7c9a 853d 3b36 e2bc b668 a13d 2608 3fbc
000002b0: 4452 143d 2e8b 4bbc 2dd6 6dbd 4cd6 f1bc
000002c0: 8828 cabc a81a 03bd 403d 92bd bf4b 03bd
000002d0: f28c 1c3c f35f a33c eb81 03bd 4ece 17bd
000002e0: 9a3a e6bb 5fcf 493d b317 df3c 1c25 b93b
000002f0: 8103 01bd 23ad 02bd d24c d33c 69cd f83c
00000300: 979c 9dbc 2ab0 323c ce31 88bd 8835 5bbd
00000310: c9e2 42bd 7815 9d3c 0e01 b7bc 6b51 5b3d
00000320: 6200 783c c7db f53c c066 63ba f52c edbc
00000330: 2ecb a5bc 6fa2 39bd 0e4d 18bd 1339 733d
00000340: 1990 903d 2524 a93c 1180 b2bd d5ce d13c
00000350: 9d62 dcbc aa16 b63c 228a 023d ce93 253d
00000360: 0914 143d e711 663c d7ff 14bd c260 1abb
00000370: fec5 d03d bf81 873d 3698 1abd 60d2 a6bc
00000380: 1054 9c3c 47e0 e8bc 89e5 983b a1f6 053d
00000390: ee35 1d3d 9270 d03c db0c 37bd 7363 153d
000003a0: fd7f de3b 7190 e13c 694f b0bc a6fb ef3c
000003b0: fce7 6bbd fb9d 20bd 897e 1b3d 4042 28bc
000003c0: 5598 1b3d cdc8 953c c3ae cf3c 7e27 84bd
000003d0: 5b33 163d 0697 dc3d 0449 2c3d a7a2 a7bd
000003e0: 1163 f7bd 11d3 3bbd f151 99bc 9b37 28bd
000003f0: 4b41 833d fbd1 f73c 70b7 d8ba 3e37 a23d
0.0073124184 0.03725928 0.015180182 0.027971916 0.010733595 0.06241504 -0.004717271 0.050198566
-0.030842017 -0.09942587 -0.00043488253 -0.0275991 0.0054871556 0.059962112 -0.03310276 -0.02341317
0.03483378 -0.03963205 0.09457042 0.008209699 -0.010865939 -0.010616201 0.033728927 0.03143409
-0.047751494 0.07459992 -0.03933331 0.036605086 -0.06027151 0.033129834 0.075076096 -0.11323399
0.039009143 -0.050259978 -0.06790968 -0.05837935 0.026748352 0.09368783 0.0096588805 -0.0479632
-0.11551352 -0.027138766 -0.03667622 0.008627522 -0.029550292 0.117788374 0.019264726 -0.037127078
0.01181365 -0.06251719 0.058326393 0.02253819 0.028726546 0.028235102 0.016352948 -0.024006879
-0.015922712 0.015709572 -0.07394181 -0.06501981 -0.012262893 0.026805878 0.0008814318 -0.029344156
-0.03629333 -0.012615119 -0.030223345 0.0094243195 0.015833983 -0.017623821 -0.0294973 0.029281372
0.018803092 -0.03088832 -0.056556452 0.022239363 0.019666877 0.061559647 0.020250168 0.008831544
0.03791577 0.013100477 0.018722717 -0.07602498 -0.021826915 0.0023823108 0.039995767 -0.00777415
0.057107918 -0.07230602 -0.08592267 -0.00013213172 -0.02814936 -0.03276654 -0.042829026 0.029547945
-0.0083128335 0.01729054 -0.07411374 -0.031192191 -0.017044665 -0.012094628 0.04292401 0.04264997
0.010453992 -0.16019458 -0.026737835 0.043962557 -0.02269227 0.012248118 -0.02724158 -0.06202094
-0.07344303 -0.03273839 0.01608787 -0.028224494 -0.03409461 -0.015266217 -0.018847885 0.010678139
0.005650625 -0.039718553 -0.02238709 -0.00044772224 -0.058648173 0.014122235 0.024358297 0.029598754
0.08754573 0.07221754 0.03491485 -0.0037850365 0.053290457 -0.016955106 -0.004112708 -0.029441742
0.04401901 -0.002877679 0.00076419814 0.01777935 0.019630607 -0.057133388 0.03660768 -0.05702968
-0.058627762 0.10595014 -0.06368326 -0.01926507 0.043552097 -0.012476002 0.0035933475 0.025825435
0.01645914 0.058058187 0.0054469123 -0.0011739273 -0.00862365 -0.015818976 -0.012383478 -0.1394245
0.06217027 -0.010934167 -0.025066985 -0.011598158 -0.014510416 0.04243115 -0.046235967 0.051026423
0.06523606 -0.02761375 0.078813 -0.011659658 0.036211267 -0.01242332 -0.058065582 -0.02952113
-0.02467753 -0.032007843 -0.07140589 -0.03205466 0.009555088 0.019943213 -0.03210632 -0.03706198
-0.007026029 0.04927003 0.02723298 0.0056501757 -0.031497482 -0.031903397 0.025793467 0.030371385
-0.019239707 0.010906259 -0.066501245 -0.05351785 -0.04757956 0.019175276 -0.02233937 0.053544443
0.01513681 0.030012025 -0.0008674674 -0.028952101 -0.020238485 -0.045320924 -0.03718286 0.059380602
0.070587344 0.020647118 -0.08715833 0.02561132 -0.026902491 0.022227604 0.031870015 0.04042416
0.03615192 0.014042354 -0.0363768 -0.0023556207 0.10194014 0.06616544 -0.037742816 -0.020363986
0.019083053 -0.028427256 0.0046660346 0.032705907 0.03838151 0.025444303 -0.044689994 0.036471795
0.0067901597 0.027534695 -0.02152224 0.0292948 -0.057594284 -0.039213162 0.03796247 -0.0102697015
0.037987072 0.018284226 0.025351888 -0.06452845 0.03667007 0.10770993 0.04206182 -0.0818532
-0.12079442 -0.045855585 -0.01871583 -0.041068655 0.06408938 0.030251494 -0.0016534161 0.07920693

bias f4 [32]
00000000: 7e2b a1bd 2de8 e5bc f3a2 1c3d 1f8d e0bb
00000010: a62b 0c3b 5ef1 a5bc 7d10 8f3c 8f09 173c
00000020: 842b 453d d639 87bb 1281 893d fe47 32bd
00000030: ca80 2f3d 0c87 67bc a55e 053d 44bf e13c
00000040: c35e 073d fc42 5cbb f374 f6bb 8ab3 fa3c
00000050: 9d56 96bc e6bc c1ba 8de8 193c 842f e3ba
00000060: 5d67 9bbd bfc7 18bd f4b6 34bd d569 433d
00000070: 71e6 b93c 8c9f 03bc 4ab6 e1bc a6e3 3cbd
-0.078696236 -0.028064812 0.038241338 -0.0068527604 0.0021388321 -0.020256694 0.017463917 0.009218588
0.048137203 -0.0041267676 0.06714071 -0.04352569 0.042847432 -0.014131319 0.032560963 0.027557023
0.033049356 -0.0033609262 -0.0075212657 0.030603189 -0.018351847 -0.0014781028 0.009393823 -0.0017332886
-0.07588074 -0.037299868 -0.04411979 0.04770835 0.02269289 -0.008033644 -0.027552743 -0.04611554

weight f4 [32]
00000000: f1f2 5c3f c457 0d3f f62f 063f cdcd c53e
00000010: c29e 8a3f 67e9 613f bd62 893f 4fa3 e63e
00000020: c582 7d3f 287c 633f 0a7b 003f 2b3a f73e
00000030: 8bcf 293f c909 2438 03b7 7a3f b218 bb3e
00000040: 422c 8d3f 032e 043f c462 0b3f 0a96 283f
00000050: 465a 133f 29f4 8b3f 4a86 793e e3a7 8c3e
00000060: 7cd8 733f 3ca9 7e3f 3e4a 593f 8d3f 813f
00000070: 56a4 9c3f 798c 353f 686a 473f b6f7 903f
0.863082 0.55212045 0.5241693 0.38633576 1.0829699 0.8824677 1.0733258 0.4504647
0.99027663 0.8886132 0.5018774 0.48286566 0.6633231 3.910976e-05 0.97935504 0.3654228
1.1029131 0.5163271 0.5444758 0.6585394 0.5755962 1.0933887 0.24367633 0.27471837
0.95252204 0.9947698 0.8487891 1.0097519 1.2237651 0.7091747 0.7789674 1.1325595

bias f4 [32]
00000000: a5db aa3d 02d6 553d 4b63 7e3d c221 a13d
00000010: 763f 793d 9a48 393d 0d57 94bd 9d62 0b3e
00000020: 5f8d e03d b203 763d a281 053e e900 a13d
00000030: 3337 c23d d354 e3ba 28b4 083e cf09 b13d
00000040: 2d80 a93d 54e4 ca3d c758 093e 09d2 1f3e
00000050: f57c d43d 3a71 043e 1a28 863d c3c2 663d
00000060: ab69 833d b584 703c 5aa2 6c3d bf74 093e
00000070: fe51 1c3e f664 013e 73ed 873d d094 d43d
0.08342675 0.052206047 0.062106412 0.07867767 0.060851537 0.045235254 -0.07243166 0.13611837
0.109644644 0.060062118 0.13037732 0.07861502 0.09483185 -0.0017344005 0.13349974 0.08644449
0.08276401 0.099068314 0.13412772 0.15607466 0.10375396 0.12933818 0.065506175 0.056338083
0.06416639 0.014680077 0.057772018 0.13423441 0.15265653 0.1263617 0.06637087 0.10379946

running_mean f4 [32]
00000000: ef1e 713d 0950 0f3f f65b d03d 96e4 383c
00000010: 4372 fabc ed28 fc3e 980f e5be 7662 b43e
00000020: a4c7 8e3c a0b1 153e 4262 b83d 03f7 35be
00000030: bbc6 7a3d 0e59 2d3d e3da 3f3e 37b1 19bf
00000040: a92c 0bbf 0236 7b3e 5c66 053e 5897 153f
00000050: bbd9 0b3e 9d19 823e f23a 2abe 7606 29bd
00000060: 92b1 38be 3fdd a9bd 1406 4dbb 58b5 9abe
00000070: 359d f13e 1bea d93e 6534 c83d 306c 9cbc
0.05886739 0.559815 0.1017379 0.011284968 -0.030572062 0.49249974 -0.4473846 0.3523137
0.01742918 0.1461854 0.09003116 -0.17770009 0.06122468 0.042321257 0.18735842 -0.60036033
-0.5436502 0.24532321 0.13027328 0.5843406 0.13657276 0.25410166 -0.16624048 -0.041265927
-0.18036488 -0.082941525 -0.003128414 -0.3021648 0.47190252 0.4256142 0.097756185 -0.019094557

running_var f4 [32]
00000000: 6566 fa3e 0ac9 0d3e f3a9 dc3e e9b3 033e
00000010: bd06 4c40 4fc9 443e 201c 8240 1cb2 3e3f
00000020: 7dd0 803f 464a 243f f47d 8b3e 2c15 0640
00000030: cede 7e3f 9cc0 af3c e8c9 1c3f 018f a63f
00000040: 2d30 e03f 5af7 e83f 34b8 4d3e e573 f13e
00000050: 2a27 f63e a4a4 6b3f 107b 813e 0f6f d53e
00000060: dd2f 253f 692b 0c3f b4e9 bd3f 7b26 f83f
00000070: 6b6a 063f fba5 d73e e244 bd3e 7618 b63f
0.48906246 0.13846222 0.4309841 0.12861599 3.1879113 0.19217418 4.065933 0.74490523
1.0063626 0.6417583 0.27244532 2.0950422 0.9955872 0.021454148 0.61245584 1.3012391
1.7514702 1.8200486 0.20089799 0.47158733 0.48076755 0.92048097 0.25289202 0.41686293
0.6452616 0.5475374 1.4836946 1.9386743 0.5250613 0.4211882 0.36966616 1.4226215

weight f4 [3, 1536]
00000000: e899 e2ba c020 45bd a77d 48bd 8bae f0bc
00000010: ec7b e1bd 6db2 eebc 2994 fe3c e635 fc3c
00000020: 4680 143d 0e20 463d 1c52 0e3e fc57 efbc
00000030: d0e9 f83d 1b77 763c a129 663d a231 593c
00000040: d95b e23c ab34 f5bc b539 1c3d 0cb4 213c
00000050: 9979 79bd e13b 883d 863b 8b3d c613 223d
00000060: e82b 013e cb6a 9dbd 5773 adbc 0a47 14bc
00000070: 77cc d03d 3399 d73c 4b2e 793c 6d6e 9a3c
00000080: 12fd b13d cb47 1c3d 6049 953d ac35 933c
00000090: b93c 733e 3e13 1b3e 5619 f53b 3bf2 5fbc
000000a0: dca4 103e 28ed 433c a66f d53d 679b 13be
000000b0: 154b 82bc 52b3 9d3b 14f0 1e3e c1a6 713d
000000c0: bb18 b53d 1f95 173d 33dd 8f3a 867f 2cbd
000000d0: 6512 b23c 4f57 363c 382b 0f3c 1cbe ca3c
000000e0: 4258 acbc 12a1 0d3d 5961 333d 8680 95bc
000000f0: d553 983c a100 1f3d 2639 a7bb 4128 763d
00000100: 5856 523d 1bc0 4ebc 19f6 813d be3b 21bc
00000110: 5e5f 3d3d 2f51 a33d b8a3 0cbe ff1b 19bb
00000120: 9a7c 8b3d 85b1 553d 42dd df3d 4f73 333d
00000130: 4bd8 53bd b8ff 93ba 484a 5d3d cc1b 893d
00000140: 7790 d93d 29bd 063e 6146 fbbd a33f 32be
00000150: 7035 a13d 981a f33d c465 8abd 3f2c 243d
00000160: 00db 183e 66a8 26be 39d0 61be d83d 7f3d
00000170: 912b a03d f5ae eabc f54e 813d ef49 da3d
00000180: bf2b 9d3d f02c 9f3c d568 aeb9 7d48 febc
00000190: 0140 0ebb 566e 403d 457c ac3d 9357 ddbc
000001a0: 9b9f e23d 467b f03c c6ee 3f38 e949 3dbc
000001b0: 627e 823d e864 e3bc 9411 ecbc be1e a0bc
000001c0: 3eb2 e03a 9068 9cbd 836b f63d a0f2 413d
000001d0: 2eae 4f3d 9b0f 8e3d 9145 1a3d b89b 8e3b
000001e0: a337 4f3e 27d4 c73b 6496 043e 94b7 f9bc
000001f0: c8da 0f3d 810d 5cbd 8fda 433e 51cf 6d3d
00000200: aca7 6d3c 5eb2 3abd b3d2 8fbd 0517 81bd
00000210: 06bc 173e 8307 843c dfe3 063e b614 6f3d
00000220: 8e9e fbbd 908e 9cbd b304 e43b 904c 4bbb
00000230: dcb5 3e3e 855a 2c3e 7c27 38bc 5860 c5be
00000240: 2382 823c 419e 533d 0495 dc3b 299f 933c
00000250: 8989 fa3c e837 5e3d dde4 a13d a93f a83d
00000260: 4d16 d43d ffc8 a63d 3a19 d33c 28f0 713d
00000270: eb53 c23d f5e3 ba3d 790e c83c dfb6 8b3c
00000280: e4a1 333d 8810 cc3c 8eb6 e03d 92db 283d
00000290: 3d6c 0b3d e5cf a63d c0fe a53d 9e1f dfbc
000002a0: fa7d 913d 0304 673b 8336 da3b b2f9 07be
000002b0: dd9b bb3c bbad d7bc 24bd f63c 8a40 923d
000002c0: 5136 1b3e d837 25be 7c02 f2bd fca6 ddbd
000002d0: cfa3 3d3e fdf2 873d 4b5e 8e3d 0912 0a3e
000002e0: 6e94 99bd 2197 75be 4ad9 853d 52af b53d
000002f0: 7ffe dc3c f3ce dbbc 54d5 803d 7b3b 86be
00000300: 2d85 203e 95a4 ef3d 49c8 d53d 6a67 7f3d
00000310: 63af aa3d 2561 873d d4f9 33bd c2ec 973d
00000320: 4d88 c53d 6006 273c 14f6 ad3d 832f 343c
00000330: a540 86bc 0219 2cbd 1a2f 98bd a09d 083d
00000340: 3b69 d03a a522 133d e224 ba3d 8da0 083d
00000350: 0a02 34bd 74b0 b4bb ba59 3a3d 79c3 5abc
00000360: 2669 173e ca49 153d b92f 5c3b 474e e83c
00000370: 0101 da3c d141 aa3d f864 2a3e 5fe7 17bd
00000380: 2bb5 143d 39db c6bd 9bac f43c cba0 b63d
00000390: 6fdf 3f3d e694 63bd e612 973c 9a05 83bc
000003a0: 7921 9abd fb37 5b3e f905 7e3d d1d6 abbd
000003b0: e470 19bd 3b48 b43d ecc8 4dbc a088 5ebd
000003c0: 859e c13c a784 9d3c ee24 a6bc 3339 abbb
000003d0: 455c 4f3c fb2e 953b b630 0bbd afcc e73d
000003e0: bc77 11bb 4d65 703d 7ee7 7a3c 0ebe 7bbd
000003f0: c445 bfbd 33b8 f03c 0897 193d 5cf4 85bc
-0.0017288299 -0.048126936 -0.048947956 -0.029380104 -0.11009964 -0.029137814 0.031076508 0.03078742
0.036255144 0.048370413 0.1389851 -0.029216759 0.12153971 0.015043045 0.056192044 0.013256462
0.027631687 -0.02993234 0.03814097 0.009869587 -0.06090698 0.06652046 0.067984626 0.03956964
0.12614405 -0.07686385 -0.021173162 -0.00905014 0.101952486 0.026318168 0.015208791 0.018851483
0.086908475 0.038154405 0.07289386 0.017969929 0.23753633 0.15144059 0.007479827 -0.013668592
0.14125389 0.011958398 0.10421686 -0.1441475 -0.015904943 0.0048126364 0.1552127 0.05899692
0.088426076 0.037007447 0.0010975957 -0.042113803 0.021737287 0.011129214 0.0087383315 0.024748854
-0.021038178 0.034577437 0.04379401 -0.018249761 0.018594662 0.03881896 -0.005103248 0.060096983
0.051351875 -0.012619044 0.063457675 -0.009840904 0.046233527 0.07974469 -0.13734329 -0.0023362634
0.06810875 0.05217125 0.109308735 0.04381114 -0.051719945 -0.001129142 0.05402592 0.06694755
0.106232576 0.13158096 -0.12269283 -0.17407088 0.078715205 0.11870307 -0.067576915 0.04008126
0.14927292 -0.16275176 -0.22052087 0.06231484 0.0782081 -0.02864788 0.06313888 0.10658633
0.076743595 0.019430608 -0.00033265972 -0.031040424 -0.002170563 0.046980225 0.0842214 -0.027019298
0.110655986 0.029355656 4.5760324e-05 -0.011553266 0.06371762 -0.027758077 -0.028816976 -0.019545909
0.0017142964 -0.07637131 0.12032225 0.047350526 0.05070322 0.0693657 0.037664 0.004352059
0.20236067 0.0060982886 0.12947994 -0.030483045 0.035120755 -0.053723816 0.19126342 0.05805904
0.014505308 -0.04558026 -0.070226096 -0.06303219 0.14817819 0.016116863 0.13172863 0.05836936
-0.12286101 -0.07644379 0.006958568 -0.0031020977 0.18624061 0.16831405 -0.011239883 -0.38550067
0.015931195 0.051664595 0.0067316312 0.01802023 0.03058316 0.054252535 0.0790498 0.08215267
0.10355816 0.08143806 0.025768865 0.05906692 0.09488662 0.091255106 0.024420964 0.017054973
0.043855563 0.024910226 0.109723195 0.041225024 0.03403877 0.081451215 0.0810523 -0.027236756
0.07104106 0.0035250194 0.0066593303 -0.13278845 0.02290147 -0.026327958 0.030119486 0.07141216
0.15157439 -0.16134584 -0.1181688 -0.10822865 0.1851952 0.06638143 0.06951579 0.13483442
-0.07499014 -0.23983432 0.06535585 0.0887133 0.026976822 -0.02683208 0.06290689 -0.26217255
0.15675803 0.117013134 0.10438592 0.062354483 0.083342336 0.06610326 -0.043939427 0.07418205
0.09645138 0.010194391 0.08494201 0.010997656 -0.016388247 -0.042016037 -0.07430859 0.033353448
0.0015900502 0.03592171 0.09089066 0.03335624 -0.043947257 -0.005514199 0.045495726 -0.013352268
0.14786205 0.036447324 0.003359778 0.028357638 0.026611807 0.08313335 0.16640079 -0.037085887
0.036305588 -0.09709782 0.029867461 0.089173876 0.046843942 -0.055561922 0.018441629 -0.015993882
-0.07525916 0.21408074 0.062017415 -0.08390582 -0.037461177 0.08802839 -0.012560111 -0.054329515
0.023635158 0.019228293 -0.020281281 -0.0052253245 0.012656276 0.0045527196 -0.033982 0.11318337
-0.0022196611 0.058690358 0.015313981 -0.061460547 -0.093394786 0.029384708 0.03749755 -0.016351871

bias f4 [3]
00000000: ce9a 413d 5844 d53c b8d5 013c
0.047266774 0.026033565 0.00792449
