dev/pong/optimized/regular/pong_optimized_0.pth (torch_old, 191816 bytes, 20 tensors)

weight f4 [16, 1, 5, 5]
000000 3c c0 90 3d fa d2 7b 3d 38 dc 39 be 51 c6 36 3e
       0.07067916 0.0614805 -0.18150413 0.17849089
000010 e0 53 34 bb 92 72 4c 3e d4 c5 d4 3d 10 96 3f be
       -0.0027515814 0.1996558 0.10389295 -0.18709588
000020 69 08 b4 bd b3 57 3c 3e ed bb 3a be e2 bf 07 be
       -0.087906666 0.1839283 -0.1823575 -0.13256791
000030 cb d1 11 bd 1e 12 af 3c b9 c3 2c 3e 1c ea 3c be
       -0.035600465 0.021370944 0.16871537 -0.1844868
000040 2b f5 ed 3d f4 d9 8a bd e8 f7 4d 3c 3b b3 f0 bd
       0.11619028 -0.067798525 0.0125713125 -0.117529355
000050 a2 68 e3 bd 45 61 0b 3e 4a 47 d7 3d 4b 56 b3 3d
       -0.111039415 0.13611324 0.10511644 0.087566935
000060 ae c8 c8 3d bb c8 45 bd ba 10 20 3d 07 74 04 be
       0.098039016 -0.048287135 0.03907845 -0.12934886
000070 88 7e 2e be 3c 06 7d 3d 6a e2 9f 3c 43 6c 3f be
       -0.17040455 0.061773524 0.019517142 -0.18693642
000080 57 bc da 3d 42 9c 68 bc 13 c7 b3 3d 84 e9 5e bd
       0.10680454 -0.014197411 0.08778205 -0.054421917
000090 96 7e 8b 3d d7 ca 2a 3d 69 a9 b3 bd b0 b9 ff 3d
       0.06811254 0.04169735 -0.08772547 0.12486589
0000a0 13 ea 25 bd e8 db 46 3e 52 a9 8b bd 4b 95 f1 3d
       -0.040506434 0.19419825 -0.06819405 0.117960535
0000b0 3a ef 10 3e 56 b6 10 3d 31 e4 e2 3c eb dc 0b bd
       0.14153758 0.03533014 0.0276967 -0.03414623
0000c0 85 d3 21 be d7 c9 ed 3d 0a 51 2a 3e 8b 4f 28 3e
       -0.15803345 0.116107635 0.16632476 0.16436593
0000d0 e4 60 49 be 93 5e 18 be 77 d7 f7 3d 96 a7 9d 3d
       -0.19665867 -0.14879827 0.121016435 0.0769798
0000e0 d7 68 09 3e fb 6a 36 3e 1d ef 05 be 43 3b 21 be
       0.134189 0.17814247 -0.13079496 -0.15745263
0000f0 29 c6 38 be 78 70 13 be 5f 5a 0a be 03 f0 22 3e
       -0.18044342 -0.14398372 -0.13511036 0.1591187
000100 39 60 aa bd df 2c dd bd ec 06 1c be 9f de 15 3e
       -0.08319134 -0.10799574 -0.15237015 0.14635704
000110 ca 92 1b 3e eb 69 ae bd 3e 0c aa bd 90 8c 39 3e
       0.15192714 -0.08516296 -0.08303116 0.18120027
000120 26 2f c8 bd cb 5e 76 bc 9e 25 3e 3e f4 b2 ae 3d
       -0.09774618 -0.015037249 0.18569037 0.08530226
000130 0f 33 76 bd 2b b4 f6 bd 5c 93 57 bd c7 80 0b 3e
       -0.060107287 -0.12046083 -0.052630767 0.13623343
000140 0c 18 23 be 1e 00 27 be 97 22 46 3e e5 69 e7 ba
       -0.15927142 -0.16308638 0.19349132 -0.001765546
000150 b7 52 f3 bd 31 4a d1 3d 1b f2 0d 3e 8f 42 12 3e
       -0.11881011 0.10219229 0.13861887 0.14283203
000160 35 28 54 bd 9a a3 1c be 0a 93 34 3e e5 ee d0 bd
       -0.051796157 -0.15296784 0.17634216 -0.102018155
000170 0c 96 2b 3e e6 8c 18 bb eb 57 85 bd 65 63 1e be
       0.16756457 -0.0023277341 -0.0651091 -0.15467604
000180 e5 12 72 3d 34 e3 11 be 37 d8 4e be 45 bb a8 bd
       0.05910005 -0.14246827 -0.20199667 -0.08238844
000190 3b df a0 3d 73 70 3b bd b9 bf c7 3d 24 34 80 3d
       0.07855078 -0.045761537 0.09753365 0.06259945
0001a0 25 4a d6 3d 00 64 24 be d8 c8 9c 3c 43 4c 01 be
       0.10463361 -0.16053772 0.019138739 -0.12626748
0001b0 98 75 41 be 1a 11 4e 3d f9 92 cc 3c 50 6f 83 bb
       -0.18892515 0.050309278 0.024972426 -0.004011072
0001c0 04 48 29 3e 1e ca 28 be 11 8c db bd c4 47 32 be
       0.16531378 -0.16483352 -0.10720075 -0.17410189
0001d0 5f 0f 01 3e 02 c3 3e 3e a2 a9 b9 bd 0e 51 0b be
       0.1260352 0.18629077 -0.09065558 -0.13605139
0001e0 d8 57 b9 bd ec f9 af bd d8 d6 46 3e 9d 5e e4 bc
       -0.09049958 -0.08592591 0.19417894 -0.027877146
0001f0 97 67 cc bd 34 bb b4 bc 2d 09 0c bd 16 6a 89 3d
       -0.09980696 -0.022061922 -0.03418844 0.067096874
000200 e3 bb 64 bd 0a 95 ab bd 66 1b c6 3d 40 25 0e be
       -0.055843245 -0.08378036 0.096731946 -0.13881397
000210 5a 01 29 3e f4 6b 46 3d 84 63 55 bd 34 ab 39 be
       0.16504422 0.048442796 -0.05209686 -0.18131715
000220 75 8f 3c be f4 7a 04 be f4 88 df 3c 32 13 29 be
       -0.184141 -0.12937528 0.027286984 -0.16511229
000230 3d 8c 38 3e 0b 78 28 3e 59 1d ca 3d df a9 18 be
       0.18022247 0.16452043 0.09868879 -0.1490855
000240 63 57 3b 3e 83 f4 18 be 1f bf 10 3e 39 6f 20 3e
       0.18295054 -0.14937024 0.14135407 0.15667428
000250 7f 12 a4 bd e4 60 f4 3d 79 b9 fe bc 8c 31 5a bd
       -0.0801134 0.11932543 -0.0310943 -0.053269908
000260 fb 38 f0 3d bf 7d f0 3d b9 d0 b5 3c 4a 5c 49 be
       0.11729618 0.11742734 0.022194253 -0.19664112
000270 18 f2 cc bd 48 19 30 be 7f 15 db 3d 76 0f f6 bd
       -0.10007113 -0.17197144 0.106974594 -0.12014668
000280 34 36 e6 3d e7 43 57 bd 2a f9 44 be 61 cc 98 bd
       0.11240807 -0.05255499 -0.19235674 -0.07460857
000290 32 a7 e2 bc 51 41 ee bd 19 5b 1b 3e 15 94 12 3e
       -0.027667616 -0.11633552 0.1517147 0.14314301
0002a0 27 99 97 bc 21 e5 99 bd 4a 48 fa 3d 7f 74 3e 3e
       -0.018505646 -0.07514406 0.12220819 0.18599127
0002b0 f0 9e 13 be fc 80 45 3e d7 ed 19 3c bd 58 dd bd
       -0.14416099 0.19287485 0.009395084 -0.10807941
0002c0 80 53 07 3e 5b 1e 38 3e 5e c3 83 bd 1d 0e 17 3e
       0.13215446 0.1798033 -0.06433748 0.14751478
0002d0 dd b2 ce bd d9 9e 10 3e dd e1 a0 bd 70 45 07 3e
       -0.10092709 0.14123096 -0.0785558 0.13210082
0002e0 b5 60 35 be 24 09 4f bd 5d d8 44 3e da ce 26 3e
       -0.17712672 -0.050545827 0.19223161 0.16289845
0002f0 77 a9 16 bc e4 26 4d bc d5 02 92 3d 30 d3 2f bc
       -0.009195677 -0.012521479 0.071294464 -0.010731503
000300 7e 5d 28 be 4f 7f 24 be f9 05 d0 bb 72 e4 1a be
       -0.16441914 -0.1606419 -0.0063483682 -0.15126207
000310 84 60 3d be 2e 06 42 3e 40 ec 9c bc 02 8e 04 3e
       -0.18493849 0.1894767 -0.019155622 0.12944797
000320 f1 34 62 bd 4f b8 2d bd 1d 72 e8 bd 0d 1d f3 bd
       -0.05522627 -0.0424121 -0.113498904 -0.11870775
000330 f0 8e 45 3e 08 84 c0 3d c1 f2 05 be 66 b3 b9 3d
       0.19292808 0.09400183 -0.13080885 0.09067421
000340 fe 1c bc 3d cd 42 e6 3c 3e 0a fd bd 27 dc 37 bd
       0.09185217 0.028108025 -0.12355469 -0.044887688
000350 db b9 ed bd 0b 2e ea 3d 9e 23 49 3e 88 83 7d bd
       -0.11607715 0.11434563 0.19642493 -0.061893016
000360 14 23 c1 bd 5e 87 24 3e 86 a3 36 3e 6c 7d 0b 3e
       -0.09430519 0.16067263 0.17835817 0.13622063
000370 0c f9 3c 3d 78 7c b0 3d 8a 1a 69 bd 42 31 a8 3c
       0.046135947 0.086174905 -0.056910075 0.0205313
000380 f7 5a 4c bd 24 9a 8f 3a 62 2c 7e bd 44 8b 00 be
       -0.04989144 0.0010955972 -0.062054045 -0.12553126
000390 9a 50 ba 3c c7 4f 43 be fd ad 07 3e 5c 6c 21 be
       0.022743512 -0.19073401 0.13249965 -0.15763992
0003a0 b9 c5 29 3e 79 9a 4e 3c 22 70 cf 3d 3b b4 18 be
       0.16579331 0.012610071 0.101288095 -0.14912502
0003b0 2c e9 fb 3d 8a 78 fc bc 5b bf ba bc a8 59 21 bc
       0.123003334 -0.030819196 -0.022796324 -0.009848036
0003c0 c9 52 27 be 81 be b1 bc 50 c0 39 bc d8 9a 2a 3e
       -0.16340174 -0.021697285 -0.011337355 0.1666063
0003d0 09 d0 cc bd e6 46 e3 bc 79 f8 f6 3b 91 57 45 be
       -0.10000617 -0.027743768 0.0075369445 -0.19271685
0003e0 b5 b7 bc bd 8d be d0 bd ca de 7d 3d c3 40 03 3e
       -0.09214727 -0.10192595 0.061980046 0.12817673
0003f0 57 02 30 be c8 aa 2c 3e c7 b9 12 3e fa 2b fc 3c
       -0.17188393 0.16862023 0.14328681 0.030782688

bias f4 [16]
000000 25 09 e7 bd 70 27 9c 3c ad 0e bc bd e4 be d1 3d
       -0.11281041 0.019061774 -0.09182487 0.102414876
000010 3d 66 03 3e f8 c7 0a 3e 2a 4d 5b 3d 77 32 af bc
       0.1283197 0.13552845 0.053540386 -0.021386368
000020 b0 e6 89 3d 38 56 f2 3d c0 b9 da 3c 54 25 18 3e
       0.06733453 0.11832851 0.0266999 0.1485799
000030 52 7d 0d be 77 66 0d be d8 6b 01 3d 38 c5 0b 3e
       -0.13817337 -0.13808618 0.03159699 0.13649452

weight f4 [16]
000000 c8 7f e6 3e fa a8 93 3e 95 67 57 3f 7f c7 61 3f
       0.45019364 0.28839856 0.8414243 0.8819503
000010 eb ad af 3e a1 a3 5b 3c 1e 5f c6 3e 94 2b 6a 3f
       0.34312376 0.013405711 0.38744444 0.91472745
000020 d2 59 0c 3f 1d 9b dc 3e 61 5b 94 3e f2 79 b5 3e
       0.54824555 0.43087092 0.28975967 0.354446
000030 b8 ae ca 3e d9 fe 62 3f d7 a4 3c 3f a9 b8 67 3f
       0.39586425 0.88670117 0.73689026 0.90516144

bias f4 [16]
000000 7c 57 0a 3a c5 9f c1 ba ee 65 1e 3b 20 84 22 b9
       0.00052773184 -0.0014772346 0.0024169642 -0.00015498744
000010 22 93 c8 3a 92 2a 27 3b a4 e2 b6 3a 35 c7 32 bb
       0.0015302638 0.0025507552 0.0013953042 -0.0027279381
000020 fb 4b cc ba 37 f8 04 3b 20 92 a6 b9 0d 90 ca b8
       -0.0015586609 0.002028955 -0.0003177086 -9.658942e-05
000030 89 bc b6 3a 50 94 eb ba a5 f9 6b 39 5e 82 81 3a
       0.0013941686 -0.0017973278 0.00022504346 0.0009880771

running_mean f4 [16]
000000 cb c2 8a bc fd 9f aa 3d 33 1d de bd 68 4b 5f bd
       -0.016938588 0.083312966 -0.10845413 -0.054515272
000010 a0 84 5c bc a4 b3 12 3e 65 d1 84 3c f1 4e 3a 3d
       -0.013459355 0.1432634 0.016213128 0.04548544
000020 80 ac 62 3e bb 9a 11 be 89 88 b8 bc 81 aa 24 bc
       0.22136116 -0.14219181 -0.022526043 -0.010050417
000030 d1 ac 12 3e f4 e8 51 be 98 e7 74 3e 17 80 33 3a
       0.14323737 -0.20499021 0.23916471 0.0006847395

running_var f4 [16]
000000 20 89 ee 3a 6f 38 6f 3a 5a 35 8f 3a 74 dc 3a 3b
       0.0018198825 0.0009125536 0.0010925934 0.0028512748
000010 de 79 67 3a 35 9d 16 3a fa e6 6f 3b 6d 5f 45 3a
       0.00088301103 0.00057454716 0.0036606179 0.0007529173
000020 c3 91 ae 3a c9 31 11 3b ad 3a 9e 3a 52 d7 88 3a
       0.0013318587 0.0022154918 0.001207193 0.0010440147
000030 87 1f 3c 3b d5 fc a4 3a 81 2f 1f 3b 16 e5 0d 3b
       0.0028705315 0.0012587557 0.002428979 0.0021651438

weight f4 [32, 16, 5, 5]
000000 2a d4 99 3c 45 08 e6 3c 7e e3 a1 bc f6 29 f8 3b
       0.018777926 0.028080115 -0.019761797 0.0075733615
000010 cf 55 f0 3c 4b 3a 15 bd 91 a7 4f 3d bd 2c d0 bc
       0.029337792 -0.036432546 0.050696913 -0.025411958
000020 f7 5b 4f 3c ee b4 dc bc c9 35 cc bc 20 03 3d ba
       0.0126562035 -0.026941743 -0.02492799 -0.00072102435
000030 22 dd 2f bc c8 2c 4b 3d 22 56 02 bd 86 b0 19 3d
       -0.0107338745 0.049603254 -0.031820424 0.03752186
000040 56 07 f3 bb 18 f4 e1 3c 8b 14 51 3d 7c cc 1a bd
       -0.007416646 0.027582213 0.051044982 -0.037792668
000050 b5 0d 28 ba 81 1b f6 3b 2d bf 25 3b 36 02 8e bc
       -0.0006410734 0.007510603 0.0025290952 -0.017335039
000060 3d fb 10 bd cb 91 b7 bc 5a 23 0e bd 4f 65 82 bc
       -0.03539585 -0.022408387 -0.034701683 -0.015917448
000070 78 f4 3e 3d 25 1d 48 3c 86 19 8e bc 0a 2d 20 3d
       0.046619862 0.01221398 -0.017346155 0.039105453
000080 05 e4 0f 3c 69 14 0f 3d 8e 88 53 bc b7 33 95 3c
       0.008782391 0.034931574 -0.012910975 0.018213136
000090 8c 66 ce bc 2f 36 c3 3b 70 bd 37 3c fc 02 aa 3c
       -0.025195383 0.005957387 0.011214599 0.020753376
0000a0 44 78 ba 3c cc 25 be 3c e8 cc 85 ba fb a3 b4 bc
       0.022762425 0.023211382 -0.0010208162 -0.022050848
0000b0 01 23 9d 3c 7b 85 31 3d 31 ba 1a 3d 14 32 1c 3d
       0.01918173 0.043340188 0.037775222 0.038133696
0000c0 db 1c 64 3d aa 74 27 bc e4 1b 43 3d a4 63 14 3b
       0.05569158 -0.010220686 0.04763402 0.0022642398
0000d0 a1 67 d6 3c 33 9b a2 bc d6 6d a4 bc 09 e4 92 bc
       0.026172461 -0.019849395 -0.020071905 -0.017931001
0000e0 ea 0d ca 3c d1 b4 37 3c 5a 98 17 3d 4e 09 c6 bc
       0.024664838 0.011212544 0.03701053 -0.024174359
0000f0 bc 06 b2 3c 13 d9 c9 bc 29 e3 b4 3c 46 9e ef bb
       0.021731727 -0.024639642 0.022080975 -0.007312569
000100 9f 35 99 3c 51 00 38 3d d2 a5 9f bc 77 06 e1 3c
       0.018702326 0.044922177 -0.019488249 0.027468903
000110 4c 6f a6 bb 01 9a 2a bd bf 26 69 3c 70 be 00 bd
       -0.0050791856 -0.041650776 0.014230429 -0.031431615
000120 96 c4 16 bd 54 e6 1f 3d c9 0d 11 3c d8 d9 0f 3b
       -0.036808573 0.039038017 0.008853384 0.0021949913
000130 92 e1 28 3b 44 39 10 3b b8 a3 3e 3d 73 03 19 bd
       0.0025769216 0.002200679 0.046542853 -0.037356805
000140 ba 05 a6 3c 49 dc 2d 3d 71 e2 2d 3b b8 12 63 bd
       0.020266403 0.04244641 0.0026532675 -0.055437773
000150 e6 c6 12 bd d3 18 1c 3d 60 3b 22 bd 6f 14 1f 3d
       -0.035834216 0.03810961 -0.039607406 0.038837846
000160 bb af 2f 3b bb af d5 bc b6 41 38 3d 4c 7a 38 3d
       0.0026807624 -0.026084771 0.04498454 0.045038506
000170 c1 67 f9 bb 52 4f 15 3c df 53 2b bd c8 7a 6b 3b
       -0.0076112454 0.00911315 -0.041828033 0.0035931338
000180 3e 69 44 3c 6a 28 1d 3d 5b 8d a5 3c fd 09 92 bc
       0.011987982 0.03836862 0.020209005 -0.017827028
000190 ea dc b2 3c 25 42 35 3d cc bc 64 bc f2 94 d6 3c
       0.021833856 0.044252533 -0.013961028 0.02619407
0001a0 3b 49 1e bc 05 60 1c bc c1 2a 54 bd 99 5f ac 3a
       -0.009661014 -0.009544377 -0.051798586 0.0013151049
0001b0 6b 14 8c 3b d0 87 a9 bc 05 8f 74 bc 1c 1b ea bb
       0.004274895 -0.020694643 -0.014926677 -0.007144345
0001c0 73 a3 82 3c 7f 04 0d bc 4b 87 f7 3c 3c d5 3f bd
       0.01594708 -0.008607029 0.03021588 -0.046834216
0001d0 5b af b4 3c df ed 85 bb 74 fc 4e bd be be 74 bb
       0.022056272 -0.0040871943 -0.050533727 -0.0037345137
0001e0 2a f1 8f 3c 2a fb 48 3c a9 cb 32 3d ef be fa 3c
       0.01757105 0.012266913 0.043651257 0.030608622
0001f0 5c 20 05 3c 6c e1 89 3c f3 0b 3a 3b 33 d4 66 bd
       0.008125391 0.016831122 0.002838847 -0.056354713
000200 e0 69 12 3d 02 46 16 3d b9 be 32 3d 8f d3 43 3d
       0.0357455 0.03668786 0.04363892 0.04780918
000210 cf 72 19 3d 3c 40 ee bc ce e0 36 3d 70 5d 0e bd
       0.037463006 -0.029083364 0.044647984 -0.034757078
000220 e1 0f b2 3c e0 8a 9b bc c9 57 cb bb fa f0 00 3d
       0.021736087 -0.01898712 -0.006205533 0.031479813
000230 4f 00 24 bd b0 fb 15 bb e5 2a 4b bc 66 51 36 bb
       -0.040039357 -0.0022885613 -0.012400364 -0.0027819513
000240 1f a8 bd bc 96 c0 2f 3b ea 59 f1 ba 62 c9 e7 bb
       -0.023151455 0.002681767 -0.0018413637 -0.0070735672
000250 41 db f2 bc a3 0d f6 3c 53 ed 71 bd a6 36 58 bd
       -0.029645564 0.0300358 -0.05906422 -0.05278649
000260 ec fb 27 3d 6a 10 13 bd 28 c7 70 3c 7c 88 f2 3c
       0.041011736 -0.035904326 0.01469592 0.029606096
000270 f5 e6 54 3d e6 3f d9 3c 7f 95 07 bd 18 ee 89 bc
       0.05197807 0.026519727 -0.033101555 -0.016837165
000280 3e 62 57 bc 62 f6 07 3d 3d a4 c9 bc 14 ed de bc
       -0.013145981 0.033193953 -0.024614448 -0.027212657
000290 0c 4a 46 bd 7c e1 43 3d 88 a0 fb bc 92 98 64 bd
       -0.04841046 0.04782246 -0.030716196 -0.055809565
0002a0 eb e9 aa bb c8 74 42 bc aa ee 54 bc 49 2a 0f bd
       -0.0052158735 -0.011868663 -0.012996355 -0.034952436
0002b0 d8 96 e0 3c e3 ff 07 bd 70 56 84 3c f9 56 1c 3d
       0.027415678 -0.033203017 0.016154498 0.03816888
0002c0 12 8b ea bb 48 95 8b bc 75 6c d4 3b 38 7e 8b bb
       -0.0071576918 -0.017038956 0.0064826556 -0.00425699
0002d0 0a 8f 10 bc 33 59 dc bb 91 12 52 3c 3c f4 1e bd
       -0.008823166 -0.0067245006 0.012821809 -0.03880714
0002e0 b6 dc d1 bc a3 ae 26 bd 16 c6 2a 3c e3 0d 43 3d
       -0.025617938 -0.04069389 0.010423204 0.047620665
0002f0 3e 7d 4a 3d 83 39 f3 bc 8e c2 6f bd de ac 75 3c
       0.049435847 -0.02969051 -0.05853515 0.014994828
000300 d5 59 19 3d 2e b7 ae bc 7a 3e ac 3c 6d 6e f7 3c
       0.037439186 -0.021327581 0.021025885 0.030204022
000310 1e 21 1f bd 6f b1 0d bc 74 31 41 bc 0f 2d 1a bc
       -0.038849942 -0.0086482605 -0.011791576 -0.009410157
000320 52 82 78 bc 87 04 59 bc 19 7c b4 3b fa 03 29 3d
       -0.0151677895 -0.013245708 0.0055079577 0.041263558
000330 04 18 22 3d 5e 95 dd bc b0 62 85 3c ca 6f dd bc
       0.039573684 -0.027048763 0.01628241 -0.027030844
000340 6f 71 a5 bc 0b 0b 1a 3d 28 62 f7 3c a5 55 dc bc
       -0.02019569 0.037608188 0.030198172 -0.026896307
000350 a9 45 c3 3c 96 af ac bc 68 1d 65 3b 1d 3f ff bc
       0.023836927 -0.02107982 0.0034960154 -0.031158024
000360 08 1a 57 3d 6b 67 4f bd f0 46 56 3d f3 d1 67 bc
       0.05251506 -0.050635736 0.052313745 -0.014149177
000370 42 56 5c bd cc 04 02 bb 69 85 10 3c a0 95 44 3d
       -0.0537932 -0.0019839285 0.00882087 0.047994256
000380 4d 41 2c bd 33 db 63 bd 49 23 de bc 81 e1 a9 bb
       -0.042054463 -0.055628967 -0.027116435 -0.005184353
000390 b8 ed 2b 3a d1 d9 b4 3b 67 bb cb bc 77 66 8c 3c
       0.0006558555 0.00551913 -0.024869634 0.017138703
0003a0 be ba 3a bd f4 d5 14 3d c2 09 da bb 81 99 90 bb
       -0.045588247 0.036336854 -0.0066539953 -0.0044128303
0003b0 19 ba b7 bc d1 78 a4 3b 49 c8 3d bd 2d 4d 02 bd
       -0.022427605 0.0050192853 -0.046333585 -0.03181188
0003c0 de 71 c6 bc 01 8b bb 3c 59 50 ab bc 59 29 0e 3d
       -0.024224218 0.02289343 -0.020912336 0.0347074
0003d0 44 46 3a bc c5 f3 2c 3d 3a 3b 18 3a fe 97 4b 3c
       -0.011369292 0.042224664 0.0005807165 0.0124263745
0003e0 52 b8 8a 3c 72 a5 31 3d 59 0d 32 3c 9e ea 99 bc
       0.016933594 0.04337067 0.01086744 -0.018788632
0003f0 a7 7f 24 3d 1d bd 2a 3d 4a e3 2a 3d d5 43 85 3c
       0.0401608 0.04168426 0.041720666 0.016267696

bias f4 [32]
000000 c3 a0 c1 3c 55 b6 03 bc 28 a4 4b 3d 52 d6 d0 bb
       0.023636227 -0.008039077 0.0497171 -0.006373205
000010 15 50 54 3c 8c e8 5a 3c f1 67 35 bd c6 a3 8d bb
       0.012958546 0.013361108 -0.04428858 -0.004322502
000020 6a ae 0f 3d 5e 8e 50 bc 68 8a a9 3c 6c 71 3d bc
       0.035078444 -0.0127292555 0.02069588 -0.011562686
000030 30 13 18 3d f9 96 06 3d 34 28 6a 3c 10 d3 1e 3c
       0.037127674 0.032858822 0.014291812 0.009693876
000040 a0 c2 4b 3c 3c c6 08 bc 0c f0 1b 3d 7f 4b 05 3d
       0.012436539 -0.008348044 0.038070723 0.0325427
000050 23 3f db 3c 67 b9 32 bc bd d4 2d bd a0 c9 33 bb
       0.026763504 -0.010908461 -0.04243921 -0.002743341
000060 8c 7f c1 b9 2a 4f 2a 3d 69 c1 a4 bb 46 b9 d3 bc
       -0.00036906858 0.041579403 -0.005027939 -0.025845181
000070 15 b7 61 3c 14 be 0c 3d 64 21 ff 3b 1d ca 9d bc
       0.01377656 0.03436096 0.007785963 -0.019261414

weight f4 [32]
000000 4c b3 69 3e cc 2d 1b 3e 49 f3 14 3f a0 7f 5e 3f
       0.22822303 0.15154189 0.58183724 0.8691349
000010 c0 20 7c 3f f6 94 4a 3f ed 80 84 3e c5 7d f4 3e
       0.9848747 0.79133546 0.25879613 0.47752205
000020 eb 2e 6a 3f b3 2f 2c 3f 1a 2c 33 3f 91 00 c8 3e
       0.9147784 0.67260283 0.6998917 0.39062932
000030 06 dc b8 3e 4a 9c 4c 3f e0 56 3d 3f 52 1d 0f 3d
       0.36105365 0.7992598 0.73960686 0.03494007
000040 91 3d 71 3f d3 94 a0 3d 8c a3 e4 3e 36 d4 22 3f
       0.9423457 0.07840886 0.44656026 0.6360506
000050 3d f8 69 3d 0b d7 2a 3f e1 be 9b 3e db 9c 2f 3e
       0.057121504 0.6673438 0.30419067 0.1714968
000060 be b4 1d 3f e6 6c 3c 3f b6 56 86 3e 49 f6 5d 3f
       0.61603916 0.73603666 0.2623803 0.86703926
000070 8b 1a 77 3e ec 44 4c 3e 27 3d 5e 3f 3f e7 51 3f
       0.24131219 0.19948167 0.8681206 0.8199348

bias f4 [32]
000000 36 0a b1 3a 0b fb 03 bb 38 b1 b4 3a 53 85 52 3b
       0.0013507071 -0.0020138647 0.0013785725 0.0032122924
000010 36 88 a1 bb 08 1c 58 3b a9 63 8e 3b cf c5 06 3a
       -0.0049295677 0.0032975692 0.0043453765 0.000514117
000020 33 43 b0 3b 4f b5 25 3b 7e ee 65 39 ff 72 ee b9
       0.0053791045 0.002528507 0.00021927987 -0.00045480576
000030 f9 f7 e6 b9 c0 53 9f ba b7 e3 26 3b 47 ee a8 3b
       -0.00044053773 -0.0012155697 0.0025465318 0.005155358
000040 ab 07 af ba c0 0f 17 ba ff a1 30 bb 9f 80 57 3a
       -0.0013353726 -0.000576254 -0.0026952026 0.0008220765
000050 ec 3e 29 3a f9 7b a6 39 c6 94 18 3b bb ca 99 3a
       0.00064562145 0.00031754354 0.0023282035 0.0011733392
000060 71 b3 03 3b d0 f2 07 b9 83 08 44 3a af 46 da ba
       0.002009597 -0.00012965058 0.0007478075 -0.0016653145
000070 c6 ce 1c 3b 64 af 9a 39 ec a6 2e ba 45 97 7f 3b
       0.0023926958 0.00029503845 -0.00066624465 0.0039000076

running_mean f4 [32]
000000 7e 58 9c 3c 61 6c 5e bc c9 6c 13 3e 14 5b 8f 3d
       0.019085165 -0.013575644 0.14396967 0.06999794
000010 91 17 1e 3c be 14 83 bd c5 6f 46 bc a9 fa 4f 3d
       0.009649173 -0.06400441 -0.012111609 0.050776158
000020 ff ad e8 3d 33 8c 29 be ca 1c 94 bd b4 74 81 bc
       0.11361312 -0.16557388 -0.072320536 -0.015802719
000030 0c 10 b9 bc 61 4e 25 3d 7e 39 32 3d 92 bd 84 3d
       -0.02259066 0.04035795 0.04351186 0.0648147
000040 c3 77 2c 3d dd 2f 90 3c 9f 4f 7f bc 98 80 21 bd
       0.0421064 0.017600948 -0.015582948 -0.039429277
000050 94 7a 96 3d 26 cd 5f 3c 53 0c a2 3c 14 03 bf bd
       0.07347599 0.013659751 0.019781267 -0.09326759
000060 31 7f 72 bd 00 f1 ef 3d f1 12 2e 3d f6 a3 10 bd
       -0.05920333 0.11715889 0.042498533 -0.035312615
000070 ff b2 02 3d bf eb 2d bd ee c0 af 3d 2d af 1a be
       0.031908985 -0.042461153 0.0858172 -0.15105887

running_var f4 [32]
000000 24 a7 45 3b 9f d9 84 3c ba 83 44 3d db 38 12 3d
       0.0030159438 0.016217051 0.047977187 0.035698753
000010 a4 94 c8 3b a7 78 90 3c 6d 31 4a 3c 45 14 85 3c
       0.006121235 0.017635657 0.012340886 0.016245017
000020 13 da 43 3d 5f 7c 71 3d 6b 55 6d 3d 27 0c 4a 3b
       0.047815394 0.0589565 0.05794279 0.0030829997
000030 7d 66 9b 3c 43 e3 92 3c 5d 02 ae 3c 82 6e 3a 3d
       0.018969769 0.017930632 0.021241361 0.045515545
000040 35 4e f9 3c 2a b9 61 3b d6 f3 75 3b 87 06 85 3b
       0.0304328 0.0034442642 0.003752937 0.004059616
000050 17 2d 84 3b ff 26 e6 3b 28 e0 55 3c d0 f0 ee 3c
       0.0040336954 0.0070236917 0.013053931 0.029167563
000060 67 ac 03 3d 5e dd 8c 3c da 23 43 3c b9 10 12 3c
       0.032146838 0.0171954 0.011910403 0.00891512
000070 5b cb b7 3c ee 57 fd 3c 4c 67 a1 3c 2d 2f e0 3d
       0.022435835 0.030925717 0.019702576 0.10946498

weight f4 [32, 32, 5, 5]
000000 17 ce ab bc 16 8e 15 bd 2c 4a e5 bb 8a ce f1 3c
       -0.020972295 -0.036512457 -0.0069973674 0.02951743
000010 a6 49 78 b9 4c 4e b8 3c b1 e3 43 3c 32 59 9f 3c
       -0.00023678559 0.022498272 0.011956141 0.019451711
000020 09 07 10 bc f7 66 77 3c fe f5 bc 3c 15 ac 07 bd
       -0.00879074 0.015100232 0.023066517 -0.033123095
000030 ff 11 a8 bc 94 0e 12 3c 41 0a b1 3c 57 e3 57 bc
       -0.020516394 0.0089146085 0.021611335 -0.013176761
000040 1d 42 c2 3c f2 de 67 bb 5f 1d 9d bc a6 e7 10 3c
       0.023713166 -0.0035380688 -0.019179044 0.008844292
000050 26 34 c5 3c 76 42 a4 3c bb 63 c5 bc 9b e3 cc 3c
       0.024072718 0.020051222 -0.024095407 0.025010874
000060 94 98 87 3c 93 b4 04 3d e6 e7 18 bd 88 8e 0a 3c
       0.016552247 0.03239877 -0.03733053 0.008456834
000070 cc 14 d8 bc 6d 09 3f 3c 20 8a a9 bb 82 fd bd bb
       -0.026377104 0.011659962 -0.0051739365 -0.0057980428
000080 cd 4d ff 3b c7 e4 f2 bc 8d 15 f6 bc b9 19 0d bd
       0.007791257 -0.029650105 -0.030039573 -0.03444836
000090 b8 22 ef 3c b9 4e f6 3c 7a 54 40 3c d8 be 31 bb
       0.02919136 0.030066835 0.011738891 -0.0027121808
0000a0 5c 23 b8 bc 54 ec a8 39 a9 3b 90 bc 40 c9 9b 3c
       -0.022477798 0.00032219535 -0.017606573 0.019016862
0000b0 2f 7d ad bc 33 c2 77 3c dc 43 db bb 1a a3 f5 3c
       -0.021177856 0.015121984 -0.006691439 0.029985
0000c0 bd 7b 26 3c 88 74 b8 bb 89 ab 07 3d f8 aa 04 bd
       0.010161337 -0.005629126 0.033122573 -0.03238961
0000d0 08 f1 b1 3c 8b d0 ed bc cb 74 ab bb 1b aa 06 bd
       0.021721378 -0.029030105 -0.0052324287 -0.03287707
0000e0 43 a7 9b 3c 28 c8 4d 3c bd 42 dd bc 12 a6 2e 3b
       0.019000655 0.012559928 -0.027009362 0.0026649279
0000f0 3e 43 ef 3c c5 d8 4c 3c 65 6e 58 bc bc f6 ba bc
       0.029206868 0.012502854 -0.013209914 -0.02282273
000100 50 18 f5 bc c3 ca 19 3c 20 de c7 bc c7 f6 83 bc
       -0.02991882 0.009386721 -0.02439791 -0.016108884
000110 39 a9 07 3d 16 94 d2 3c 33 22 8b 3c 35 2f 9b 3c
       0.033120368 0.025705379 0.01698408 0.018943409
000120 6d 69 f7 3c a0 bf 0a bd 28 fc 8a ba 75 75 e7 bc
       0.030201638 -0.033874154 -0.0010603713 -0.02825425
000130 59 25 ac bc 20 1e 7e 3c 66 8b dd bc 9f 5a d5 3b
       -0.021013903 0.015510112 -0.02704401 0.006511047
000140 8f 27 41 bb e4 0d ad bc 26 f4 58 3b 31 ab 07 bd
       -0.0029473042 -0.021124788 0.0033104508 -0.033122245
000150 01 e3 c1 bb cc 27 b6 3b 3f b2 de 3b c8 d6 d6 bb
       -0.0059169536 0.0055589434 0.006796151 -0.0065563656
000160 46 99 9d bb 59 5d eb bc e9 1f d2 bb c9 74 95 bc
       -0.0048095314 -0.028731035 -0.0064124954 -0.018244164
000170 21 27 9c 3c f5 41 8d bc 33 94 05 bd be f5 bf bc
       0.019061627 -0.017243365 -0.032612037 -0.023432609
000180 bb 0f e6 bc ce 37 8c 3c f6 e1 c3 bc 8c 83 ae 3a
       -0.028083673 0.017116453 -0.023911458 0.001331435
000190 7b 77 dc bc bc 8c 72 bc 55 3f 02 bd 2b f7 9f 3b
       -0.026912441 -0.0148040615 -0.03179868 0.0048817596
0001a0 74 e0 ce bc a6 1a 6c bc 4c c9 72 3b 11 5c 32 3b
       -0.025253512 -0.01441065 0.0037046252 0.002721552
0001b0 a1 32 bd bb 01 fe 19 ba 8c 15 56 ba e3 f2 05 bd
       -0.0057738577 -0.00058743363 -0.0008166663 -0.032702338
0001c0 89 0c e1 bc 22 8e 93 bc 74 10 99 3b c6 70 05 bc
       -0.027471798 -0.01801211 0.004671151 -0.008144563
0001d0 44 b2 06 bd db 30 b4 bc e8 14 df bc 99 ce a2 3c
       -0.03288485 -0.021995952 -0.027231649 0.019873904
0001e0 00 61 47 3c 70 ea b5 3a b6 3d 97 bc 6d 1f a3 bc
       0.012169123 0.0013879072 -0.018462043 -0.019912446
0001f0 1c 48 37 bc 9e 7d 83 39 fd 5d 9d 3c 8b ff 80 3c
       -0.011186626 0.0002507986 0.019209856 0.015746852
000200 98 a9 e5 bc 60 47 fe 3c ba 3a f2 3c c6 c5 6e 3c
       -0.02803497 0.031039894 0.029569019 0.01457352
000210 8e 59 8e bc eb b9 f6 bc b7 65 ee bc 17 e0 d3 3a
       -0.017376687 -0.03011795 -0.029101236 0.0016164806
000220 22 68 e0 3b 66 b6 a6 3c 42 90 29 bc 7b f5 0b 3d
       0.006848351 0.020350646 -0.010349335 0.034169655
000230 39 26 a8 3c 1a 51 ab 3c cc 80 49 bc 38 f6 01 3c
       0.020526038 0.020912696 -0.012298774 0.007932238
000240 26 ac 68 3b 80 3c e1 3c 67 62 0c 3b ef 78 a1 bc
       0.0035503 0.027494669 0.0021420957 -0.019710986
000250 f3 0f 96 3c a9 52 89 3c 70 96 0e bd d1 89 55 3c
       0.018318152 0.016763048 -0.034811437 0.013033346
000260 da bb bf bc eb 56 a4 3c 18 1c e5 bc 96 03 4e 3c
       -0.023405004 0.020060977 -0.027967498 0.012574097
000270 24 d9 4c bb f4 fc 94 bc 1e 7d 95 bc 44 c3 02 bd
       -0.0031257356 -0.018187024 -0.018248137 -0.0319245
000280 b7 6e 07 3d aa 55 20 3c c2 b6 8f bb 7d a5 bb bc
       0.03306457 0.009786049 -0.0043858 -0.02290606
000290 66 74 02 3d cb d3 9f bb 3d 58 bb 3c 25 7b 7c 3b
       0.031849287 -0.0048775426 0.022869224 0.0038525548
0002a0 b4 b8 19 3c ae 38 8d 3b 1c 9a 13 bd 51 70 73 3b
       0.009382416 0.0043097353 -0.036035642 0.0037145803
0002b0 b2 1d 06 3d 03 a7 18 bd c8 f7 ea 3b bd 32 0d bd
       0.032743163 -0.03726865 0.007170651 -0.034472216
0002c0 9c 9e 8f 3c 0c 20 16 3b 8a 59 00 3d 94 dc d8 3c
       0.017531686 0.0022907285 0.03133539 0.026472367
0002d0 82 12 0e bc c0 97 fa 3c 75 50 aa 3b c2 d4 71 bc
       -0.008671405 0.030589938 0.0051975795 -0.014760198
0002e0 9c 69 13 bd f1 a0 9e bc 00 52 d2 bc 4c 9a ec bb
       -0.03598939 -0.019363852 -0.025673866 -0.007220542
0002f0 a4 f5 28 bc 8d 46 d6 bc 9a 2a c6 3c 00 43 14 3c
       -0.010312472 -0.026156688 0.024190236 0.009049177
000300 66 f7 08 bd 90 ba da 3c 0a f3 4c bc 6e c7 0e bd
       -0.033439063 0.026700288 -0.012509117 -0.03485816
000310 7d 50 71 ba 57 c4 3b 3c 3b 6f fa bc 35 71 92 3c
       -0.0009205414 0.011460385 -0.030570617 0.017876247
000320 49 74 9d bc ee b2 b4 3c b9 39 69 bc 05 af 1e bc
       -0.019220488 0.022057977 -0.014234954 -0.009685283
000330 46 26 b9 bc d3 b7 ec bc d2 18 a4 3b 4b 96 ec 3c
       -0.022601258 -0.028896248 0.0050078416 0.028880259
000340 42 57 73 3c cd 57 a7 bc 0d b7 0e bd 45 24 ac bc
       0.014852347 -0.020427609 -0.03484254 -0.021013388
000350 dd 08 df bc 27 c0 de 3b 57 47 1a bd 5c c5 5d bc
       -0.027225906 0.0067978087 -0.03766569 -0.013535824
000360 3a 77 45 3b 24 a6 f4 3b 73 18 b8 bc c8 9d 02 bd
       0.003013088 0.0074660946 -0.022472596 -0.031888753
000370 49 b9 21 bd ef fb 7f 3c ee 5c dc bc 06 ef b8 3b
       -0.039483342 0.0156240305 -0.026899781 0.005643728
000380 cf ba bd bc 13 a2 02 bd 55 ff 28 bc 32 b6 bb 3c
       -0.023160366 -0.031892847 -0.010314782 0.022914026
000390 8f d6 06 3c 16 74 ba 3b f1 a8 ba bc 49 cd 8d 3c
       0.008229866 0.005690108 -0.022785636 0.017309802
0003a0 bc 51 40 3b 89 8b 0b bd ce 17 62 3b 5d fb 93 bc
       0.0029345592 -0.034068618 0.0034499052 -0.018064195
0003b0 49 99 05 3c 00 a3 9d bc 0b d3 a0 3c 7d da 49 bc
       0.008154222 -0.019242764 0.019631883 -0.012320158
0003c0 6f c2 02 3c 80 e8 0b 3d 78 de f3 3c 29 d0 cd bc
       0.007980927 0.034157276 0.029769167 -0.025123673
0003d0 0b dd d2 3c 61 b0 2b bc 40 cb c0 3c 2b 05 85 3c
       0.025740167 -0.010479064 0.023534417 0.016237816
0003e0 b6 60 8d bc 88 65 4e bc 16 2e 01 3b d4 ea 41 bc
       -0.01725803 -0.012597449 0.0019711307 -0.011835773
0003f0 bf e7 fb 3c 5b 70 e1 3b 60 3d d7 bc a6 8e 13 bd
       0.030750154 0.006879849 -0.026274383 -0.036024712

bias f4 [32]
000000 a8 df 04 bd 37 4c b4 bc 85 1d 09 3d b9 a2 6c 3b
       -0.032439858 -0.022008998 0.033475418 0.0036107732
000010 6d e6 e8 3c 75 5e c5 bc 31 08 8e 3c d8 82 d7 ba
       0.028430188 -0.024092892 0.01733789 -0.0016442193
000020 25 40 a3 3c 50 56 b7 3b aa bd f7 3c 2b 17 e3 bc
       0.019928047 0.005595006 0.030241806 -0.027721008
000030 18 d2 07 3d 0c 87 67 bc b2 3e 81 3c f6 00 f3 3c
       0.033159345 -0.014131319 0.015776966 0.029663544
000040 78 63 b4 3c 41 5c ef bc c3 eb a8 bc 29 c4 97 ba
       0.022020087 -0.029218795 -0.020620232 -0.0011578846
000050 76 df 34 3b 64 19 a1 bb 37 61 da 3b ed 86 2e 3c
       0.0027599013 -0.004916357 0.006664421 0.010652286
000060 ae fc fa bc 75 a9 5a 3b 8b 31 fb bc a0 2c 00 3d
       -0.030638065 0.0033365164 -0.030663272 0.031292558
000070 3c 31 a0 3b 8e db c7 3b 23 93 57 bc 8e 5e 80 3a
       0.0048886817 0.006099171 -0.013157639 0.0009793804

weight f4 [32]
000000 04 68 3c 3f da c1 86 3e 91 13 d0 3e a4 a2 4a 3e
       0.73596215 0.26319772 0.40639928 0.19788605
000010 df d3 77 3f 15 31 32 3f 44 f6 74 3f c3 49 9b 3e
       0.96807665 0.69606143 0.9568827 0.30329713
000020 df dc 2d 3f c5 69 62 3f 6e a3 ed 3d 84 36 9d 3e
       0.6791515 0.8844264 0.11603437 0.30705655
000030 d4 93 01 3f c9 09 24 38 38 59 3a 3f ed 6a 6a 3e
       0.5061619 3.910976e-05 0.72792387 0.22892351
000040 e1 71 52 3f 68 ea 35 3e 4d e4 c8 3e db ea a5 3e
       0.82205015 0.177652 0.3923668 0.32405743
000050 9d f1 58 3e c9 7c 71 3f 7d 7b bd 3d 67 35 28 3e
       0.21185918 0.9433103 0.09252069 0.16426621
000060 cf bc 4a 3f 5b c5 65 3f 5f fa 43 3f 3c b3 36 3f
       0.7919435 0.89754266 0.7655391 0.7136724
000070 1f 44 79 3f 58 90 cb 3e be 75 42 3f 55 0a 69 3f
       0.9736957 0.39758563 0.7596091 0.9103139

bias f4 [32]
000000 ee ce 13 3a 11 66 39 bb f4 81 8f ba 8b 85 a4 ba
       0.000563844 -0.0028289596 -0.0010948763 -0.0012552006
000010 9d 58 68 bb 86 e6 fd ba 49 d0 9a bb f2 b1 83 ba
       -0.0035453208 -0.001937107 -0.0047245366 -0.0010047539
000020 42 e8 de ba 4b 7d a7 ba fa 8e b3 3a 18 06 c9 b9
       -0.0017006474 -0.0012778429 0.0013699227 -0.00038342248
000030 6b ee 72 bb d3 54 e3 ba f7 0b 26 ba b8 fb c2 b9
       -0.0037068378 -0.0017344005 -0.00063341804 -0.0003719011
000040 1d f6 4c bb 76 46 5f 3a a9 31 17 b8 d8 62 08 3a
       -0.0031274625 0.00085172744 -3.6047455e-05 0.0005202717
000050 7a b6 4a 39 d2 cc 4e bb b0 12 ca 3a d6 70 9f ba
       0.00019332199 -0.0031555188 0.0015416946 -0.0012164365
000060 db 81 24 bb 57 7a 01 bb 99 92 97 ba ae 3e 87 39
       -0.0025101814 -0.0019756758 -0.0011564075 0.00025795907
000070 90 4c 32 b9 2f 1f 33 ba 53 b2 8b 3a 10 e5 0a bb
       -0.00017003925 -0.0006832955 0.0010658003 -0.002119366

running_mean f4 [32]
000000 2d 85 25 be 38 fe 97 3c c3 db f4 bc b6 68 f7 3c
       -0.16164084 0.018553838 -0.029889947 0.030201297
000010 84 bc db bc dd 06 fa bc b1 c3 0c 3e 9a 2e f5 3d
       -0.02682329 -0.03052085 0.13746525 0.11971779
000020 04 dd 90 3d 77 eb 33 bd 7c f5 c5 3d 92 e6 d0 bd
       0.070734054 -0.04392573 0.09665963 -0.10200228
000030 7f 32 f9 3d 39 36 9c ba cf 59 3a bd ce 31 89 bd
       0.121678345 -0.0011918015 -0.045495804 -0.066989526
000040 61 dd 36 bd 92 1a e5 bb 4d 20 e9 3d 5a 76 3c bc
       -0.044644717 -0.006991693 0.11383114 -0.011502827
000050 c7 d0 33 bb d5 51 83 bd 85 a7 78 3d 63 3f d7 3d
       -0.0027437673 -0.064120926 0.060706634 0.10510137
000060 f2 92 71 be bc 1c be bd ea 72 45 3c eb a8 70 bc
       -0.23591211 -0.092828244 0.012051323 -0.014688711
000070 82 da d8 3d a2 cf d0 bd e6 63 55 3c b8 70 7d be
       0.10588552 -0.10195853 0.013024306 -0.2475003

running_var f4 [32]
000000 01 f8 2b 3d 03 63 03 3d 2e 74 2c 3d 9a 49 97 3c
       0.04198456 0.032076847 0.042102985 0.018467713
000010 35 86 48 3d 62 3c 79 3d 79 a4 83 3d dd 05 18 3c
       0.048956115 0.0608486 0.06427855 0.009278742
000020 e5 bd 1d 3c 89 bf 7e 3d 5b f4 4f 3c 51 fb 55 3d
       0.009627794 0.06219438 0.012692536 0.052241627
000030 46 76 21 3d 8f c9 35 3c 08 05 39 3c fb f2 37 3c
       0.039419435 0.011095419 0.011292703 0.011227365
000040 83 0f 07 3d e9 0a 2c 3d 70 a0 ff 3c e2 5a c4 3c
       0.032973778 0.042002592 0.031204432 0.023969118
000050 8b 62 86 3c e5 a2 3e 3d 4b 46 b5 3b 08 f6 9e 3c
       0.01640441 0.046542067 0.005532061 0.019404426
000060 c6 9e 2a 3e 96 93 08 3d 04 f2 d1 3c ea b9 8d 3c
       0.1666213 0.033343874 0.025628097 0.017300565
000070 69 95 99 3d bc 60 33 3c 15 07 82 3d 9b 0f 85 3d
       0.07499201 0.010948356 0.06349007 0.06497117

weight f4 [3, 1536]
000000 4f 7c bc 3c 34 f1 38 bc d4 d9 9a bb a0 f8 b1 3b
       0.023008494 -0.011287976 -0.004725674 0.0054312497
000010 a8 a9 09 bc 7b 20 8c 3c 98 56 0d 3c a1 db a0 bb
       -0.008402266 0.017105332 0.008626603 -0.0049089943
000020 ac 74 27 3b dd 88 89 bc c7 14 b3 3c 58 4a fa 3b
       0.002555172 -0.016788894 0.021860493 0.007638257
000030 6d dc 40 bc e1 2f 5d bc 5f fc c8 3c ad 6f 90 3c
       -0.011771304 -0.013500185 0.024534402 0.017631376
000040 00 e1 51 bc ea b7 87 b9 7e b7 73 3c c5 60 bc bc
       -0.012809992 -0.00025886233 0.014875291 -0.022995362
000050 96 eb a4 3c cc c6 96 bc 14 2a fc 3b d1 67 e4 3b
       0.020131867 -0.01840534 0.007695446 0.0069703837
000060 ea 5e 85 bc cd 08 91 3c c4 3f 13 bc 09 8e 12 3c
       -0.01628061 0.017704392 -0.008987371 0.008944997
000070 46 7e d1 3b 06 a6 f9 bb 57 39 0f bc 19 ae 6f 3c
       0.006393227 -0.0076186685 -0.008741698 0.01462891
000080 87 ae b3 3c d7 2e 1f 3c d4 a4 03 3c d8 0b 3a 3c
       0.021933807 0.009715757 0.008034904 0.011355363
000090 c7 93 24 3c 1c 9e b8 3c e3 0b bb bc be 97 ba 3b
       0.0100449985 0.02253633 -0.022832816 0.0056943586
0000a0 19 2e be 3c 53 f9 41 3b c4 14 30 bb 38 ae 47 bb
       0.02321534 0.0029598072 -0.0026867846 -0.0030468833
0000b0 ea 94 86 ba f5 d2 c8 bc b6 65 9e 3c 9a c1 c6 3c
       -0.0010267769 -0.024514655 0.019335609 0.024262238
0000c0 fa c7 0e bc 16 5e e4 bb f5 c0 a6 bc 56 97 1d bc
       -0.00871467 -0.0069692237 -0.020355681 -0.009618601
0000d0 c0 88 e6 bb aa b5 9b 3b f2 3b 59 bc ff 0e be 3c
       -0.007035345 0.0047518807 -0.013258921 0.02320051
0000e0 4e 7d 03 bb 8d 99 8c bc f8 31 ca 3b 1e 64 a7 3a
       -0.00200637 -0.017163062 0.0061705075 0.0012770926
0000f0 0f 42 65 bc 32 8a ec 3c e3 96 a9 bc 08 95 d5 3c
       -0.0139928 0.02887449 -0.020701831 0.02607204
000100 b2 34 cc 3c d0 cc be bc 29 5b 3e bc 1c 36 57 3c
       0.02492747 -0.023291022 -0.011618414 0.013135459
000110 3e ae 9f bc 81 09 34 3c 47 43 99 bc a8 17 8b bc
       -0.019492265 0.010988594 -0.018708838 -0.016979054
000120 35 7d 95 3c 8c 56 93 3c 96 d2 f8 b8 a1 aa be 3b
       0.01824818 0.017985605 -0.00011864786 0.0058186804
000130 94 02 ae 3c a2 64 b6 3c 5e 2c 9b 3b 67 21 16 bc
       0.021241464 0.022264782 0.0047355136 -0.009163237
000140 11 b3 66 3c 08 bf c2 3c bb ce bc bc 09 e8 d5 3c
       0.014080779 0.023772731 -0.023047796 0.02611162
000150 82 04 8a b9 e1 4a e9 3c cb 33 ae bc 9b c1 f4 3b
       -0.0002632477 0.028478088 -0.021264931 0.0074693686
000160 d2 95 0f bb 36 cf a7 bc 00 dc 6e bc 27 f0 09 bc
       -0.0021909368 -0.020484548 -0.014578819 -0.008419073
000170 bd de 3b 3c 25 3a 2f bc 55 0c 91 bc 39 c7 6c 3c
       0.011466679 -0.010695015 -0.017706076 0.014451795
000180 58 6e a6 3c b3 89 a7 bc 63 2e 02 bc f9 10 bd bc
       0.020316288 -0.020451402 -0.00794563 -0.023079382
000190 72 7a 81 bb a0 72 10 3c d5 c3 34 bc d0 8d a2 3a
       -0.003951364 0.008816391 -0.011033018 0.0012401883
0001a0 86 7c 96 3c 25 46 4d 3c e7 e3 c8 bb 2b 55 3c bb
       0.018369924 0.012528931 -0.0061306837 -0.0028737288
0001b0 ff da 12 bc 93 4d 80 bc 2b 19 87 3b 4d 4e ae bc
       -0.008963346 -0.01566199 0.0041228733 -0.021277571
0001c0 c2 b7 88 bc 75 f9 99 bc 56 6d 50 3c 8a 93 bd bc
       -0.016689185 -0.018795708 0.01272138 -0.023141641
0001d0 ca 7f 9f 3c 48 40 57 ba 25 60 c3 3c 27 5e 57 3b
       0.019470114 -0.0008211178 0.023849556 0.0032862516
0001e0 36 2b c9 3c 5e 8a 64 bc 20 c9 c4 3c 62 4f 89 3c
       0.024556737 -0.013949005 0.024021685 0.016761485
0001f0 75 ef 9b 3c 12 54 55 3c 29 b8 95 bc c4 8c 4b 3b
       0.01903508 0.013020532 -0.018276291 0.0031059245
000200 67 f2 85 bc d1 3d ca 3c 39 32 b1 3c 94 87 a2 3c
       -0.016350938 0.02468768 0.021630393 0.01984004
000210 df 14 4f 3c a6 24 d2 3c 2a ea b5 bc 16 a9 aa bc
       0.012639253 0.025652241 -0.022206385 -0.02083258
000220 c1 eb 61 bc bd a5 27 3c 67 02 5d bb d6 c1 80 bc
       -0.013789118 0.010232386 -0.0033723356 -0.015717428
000230 65 f0 2d 3c 71 7c 4f bc 5f 0c 43 3c 60 6e 4c 3a
       0.010616397 -0.0126639465 0.011904805 0.00077984296
000240 bd 99 a7 3c 81 c4 f8 b8 db ee 80 bb f9 17 91 3b
       0.02045905 -0.00011862163 -0.003934724 0.0044279066
000250 b8 1b 85 3c 51 51 b6 3c 60 bf d6 3c ed 40 12 bc
       0.016248569 0.022255572 0.026214302 -0.008926612
000260 0e bb aa bc 44 95 e6 3a 61 13 51 bb 96 5e ab bc
       -0.020841148 0.0017592092 -0.003190242 -0.020919126
000270 26 08 ed 3c 93 41 8a bc 7e e7 4c 3c 0d 31 8b bc
       0.02893455 -0.016876971 0.012506364 -0.016991163
000280 11 0b 7f ba 88 c0 3c 3c 00 fd 98 3a d2 cd 9a 3c
       -0.0009729127 0.011520512 0.001167208 0.01889697
000290 d0 4d 53 3b ce de dc b8 c6 24 8c 3c e2 5d 74 3c
       0.0032242425 -0.00010531918 0.017107379 0.0149149615
0002a0 4b 8c 23 bc cf 34 23 bc d2 18 d2 bb 4a 6f b1 bb
       -0.009982179 -0.009961321 -0.00641165 -0.005414878
0002b0 06 84 b2 bb e4 0f 25 3c a6 3f 9c 3c d4 9b 45 3c
       -0.0054478673 0.010074589 0.019073319 0.012061078
0002c0 b1 7c 4b bc 09 11 9a bc 34 f5 44 bc 2e 50 ba 3c
       -0.0124198655 -0.018806951 -0.012021352 0.02274331
0002d0 f7 1c bb 3b 87 60 af bc 94 12 ae bc 6c 52 54 3c
       0.00571024 -0.021408333 -0.021249093 0.012959104
0002e0 20 d0 52 bc 96 c9 7a 3b 01 c1 8c 3c f8 1c 9c bc
       -0.012867004 0.0038267127 0.017181875 -0.019056782
0002f0 89 12 ee ba b8 a5 50 bc 3c e6 ed 3b 3b 36 53 3c
       -0.0018163483 -0.012734823 0.007260112 0.0128913475
000300 74 3c aa 3c 84 31 6a bc 46 c9 81 3c 2c c3 87 3c
       0.02078078 -0.014294032 0.015843045 0.016572557
000310 65 c2 c0 3c e4 8b 1d bc 58 ed 32 bc 77 ce f1 bb
       0.023530195 -0.009615872 -0.010920845 -0.007379349
000320 fd aa 98 bc fe d0 43 bc 17 42 84 3c a0 b0 1f bc
       -0.018636221 -0.011951683 0.016144795 -0.0097467005
000330 d5 53 44 3c 77 ce bd bc d7 6f 46 bc 43 af 1d bb
       0.011982878 -0.02316974 -0.012111626 -0.0024060763
000340 c7 6e be 3c b4 e7 8f bc 12 af 96 bc 51 93 a1 3b
       0.023246182 -0.01756654 -0.018394027 0.0049308916
000350 d0 dd 12 3c 73 30 81 bc d5 3d d2 3c cd f3 52 3c
       0.008964017 -0.015770173 0.02566425 0.012875509
000360 9c 2e 48 3b e9 7c 68 bc ef 50 64 3c 61 f9 46 bb
       0.003054536 -0.014189937 0.013935312 -0.0030361044
000370 9d 6a b4 bc 25 96 38 bc 52 fa 37 3c 42 b8 60 3c
       -0.022023493 -0.011266266 0.011229115 0.0137158055
000380 4d 9b 63 bc 8c 27 73 bc 15 e6 bc bc 1a dd 22 bc
       -0.013892007 -0.014840972 -0.02305893 -0.00994041
000390 8a e1 54 3c 94 d4 6a bc 2c 26 4c 3c 58 19 99 ba
       0.012993226 -0.014332909 0.012460273 -0.0011680527
0003a0 b0 40 0a bc cf 8f 62 3c 65 7e fe 3b fa fd a9 bc
       -0.008438274 0.013828232 0.0077665322 -0.020750988
0003b0 82 20 a0 3c 9e f1 ac bb 70 3c b6 3c 2a f2 a3 bb
       0.019546751 -0.0052778265 0.022245616 -0.0050032334
0003c0 2a 3f 8a bb 76 48 a4 ba 17 a3 c3 bc 2b f8 86 3c
       -0.0042189555 -0.0012533802 -0.023881478 0.016475758
0003d0 85 25 9e ba 02 7f 24 bb 8d 10 d5 bb da a4 36 3c
       -0.0012065625 -0.0025100117 -0.006502217 0.011147702
0003e0 98 5d b4 bc c0 7b dc 3c 5e 78 98 bc a5 49 6a bc
       -0.022017285 0.026914477 -0.018612083 -0.014299785
0003f0 d8 57 be bc c2 08 5e 3c 04 be 82 3c 0f 35 bf bb
       -0.023235247 0.013551893 0.015959747 -0.0058351825

bias f4 [3]
000000 e9 6a 43 3c d4 b4 fa bb 72 06 c8 bc
       0.011927345 -0.007650951 -0.024417136
