dev/pong/pong_0.pth (torch_old, 191738 bytes, 20 tensors)

weight f4 [16, 1, 5, 5]
0	0x3d8b53a7	0.06803065
1	0x3d780923	0.06055559
2	0xbe3c7d7f	-0.18407248
3	0x3e356fdd	0.17718454
4	0xbbc30f4b	-0.005952751
5	0x3e4b61cc	0.19861525
6	0x3dd3be8f	0.103390805
7	0xbe420e1a	-0.18950692
8	0xbdb80b20	-0.08986497
9	0x3e37f018	0.17962682
10	0xbe38bf3d	-0.18041702
11	0xbe05ff8f	-0.13085769
12	0xbd00d0fc	-0.031449303
13	0x3cc9f3a9	0.024652319
14	0x3e2d937d	0.16950794
15	0xbe432c78	-0.19059932
16	0x3de42ffe	0.11141966
17	0xbd8bf263	-0.06833341
18	0x3c584ff8	0.01320266
19	0xbde9cd72	-0.11416139
20	0xbddf7fd6	-0.10913055
21	0x3e0d6361	0.13807441
22	0x3ddc4acb	0.10756453
23	0x3dbabc62	0.091179624
24	0x3dc65943	0.09684994
25	0xbd469c65	-0.048488993
26	0x3d209489	0.039204154
27	0xbe04cba5	-0.12968309
28	0xbe2ed964	-0.17075115
29	0x3d7af47c	0.061268315
30	0x3c9c14b4	0.01905284
31	0xbe3fe975	-0.187414
32	0x3dd97d77	0.10619634
33	0xbc72d5d6	-0.01482149
34	0x3daf5e37	0.08562892
35	0xbd5bab2a	-0.05363003
36	0x3d89df86	0.06732087
37	0x3d2a47ce	0.041572385
38	0xbdb4946d	-0.088173725
39	0x3dfcd95c	0.123461455
40	0xbd1e34e7	-0.03862467
41	0x3e481415	0.1953891
42	0xbd885c34	-0.06658211
43	0x3df40cb5	0.11916486
44	0x3e1232c3	0.14277177
45	0x3d28eee6	0.041243456
46	0x3d0ac9e8	0.03388396
47	0xbcdd39d5	-0.027005116
48	0xbe1ae06c	-0.15124673
49	0x3df3a3ba	0.11896463
50	0x3e296946	0.16544065
51	0x3e2719da	0.16318455
52	0xbe4806c8	-0.19533837
53	0xbe16f823	-0.14743094
54	0x3df5ad4e	0.11995946
55	0x3d9e4e41	0.077297695
56	0x3e092ae9	0.13395275
57	0x3e3626f5	0.17788298
58	0xbe050672	-0.1299074
59	0xbe20e706	-0.15713128
60	0xbe365a49	-0.17807879
61	0xbe10fdf4	-0.14159375
62	0xbe061b6c	-0.13096398
63	0x3e27cd0a	0.1638681
64	0xbda31014	-0.07962051
65	0xbdddc9ff	-0.10829543
66	0xbe1c88a7	-0.15286504
67	0x3e1e36c9	0.15450586
68	0x3e22563b	0.15853207
69	0xbdac1e8d	-0.084042646
70	0xbd9c3daf	-0.07628953
71	0x3e3fbd1c	0.18724483
72	0xbdbed777	-0.093184404
73	0xbc2ba526	-0.010476386
74	0x3e407d14	0.18797714
75	0x3daddbca	0.08489187
76	0xbd75bd57	-0.05999502
77	0xbdf41007	-0.119171195
78	0xbd4fef58	-0.050765365
79	0x3e0b2827	0.13589536
80	0xbe22c1c1	-0.15894224
81	0xbe26ac9f	-0.16276787
82	0x3e46a50e	0.19398901
83	0xba51ebd6	-0.00080078596
84	0xbdedea72	-0.116169825
85	0x3dd112d7	0.102086715
86	0x3e0f39ea	0.13986936
87	0x3e136a8d	0.14396115
88	0xbd4783fc	-0.048709854
89	0xbe19692c	-0.14981526
90	0x3e34fa16	0.17673525
91	0xbdca4354	-0.09876123
92	0x3e2bf3b9	0.16792192
93	0x3a2c7620	0.00065788813
94	0xbd7dc262	-0.061952956
95	0xbe1e6800	-0.1546936
96	0x3d72a582	0.05923987
97	0xbe17af01	-0.14812852
98	0xbe52f4f6	-0.20601258
99	0xbdaebaba	-0.08531709
100	0x3d9b712d	0.07589946
101	0xbd4bf4ea	-0.049794115
102	0x3db6ee0b	0.08932122
103	0x3d6808e0	0.05664909
104	0x3dcdf37e	0.10056208
105	0xbe2915f6	-0.16512284
106	0x3c78d6e8	0.015187956
107	0xbe070ae8	-0.13187754
108	0xbe4789c7	-0.19486152
109	0x3d3eeb03	0.046610843
110	0x3ca6c563	0.020357793
111	0xbc07aa52	-0.008280354
112	0x3e2458a1	0.16049434
113	0xbe2f2c11	-0.17106654
114	0xbde6163c	-0.112347096
115	0xbe36fef9	-0.17870702
116	0x3df825b3	0.121165656
117	0x3e3910a4	0.18072754
118	0xbdc76e83	-0.09737875
119	0xbe1006b0	-0.14065051
120	0xbdc28112	-0.094972745
121	0xbdb747e5	-0.0894926
122	0x3e3fe4ae	0.18739578
123	0xbd0b01a1	-0.0339371
124	0xbdd5b197	-0.10434263
125	0xbca2aed4	-0.019858755
126	0xbd044a4a	-0.03229741
127	0x3d8b30c8	0.06796414
128	0xbd60f223	-0.05491842
129	0xbda7d437	-0.08194774
130	0x3dc9efb9	0.098601766
131	0xbe0c9804	-0.13729864
132	0x3e294df2	0.1653364
133	0x3d468a8c	0.048471972
134	0xbd5094bb	-0.05092309
135	0xbe35c7ce	-0.17752
136	0xbe37e894	-0.17959815
137	0xbe02bc1f	-0.12767075
138	0x3ce64062	0.028106872
139	0xbe28372b	-0.16427295
140	0x3e3e4fab	0.18585078
141	0x3e2f1b5f	0.17100285
142	0x3dd2873d	0.10279701
143	0xbe15a8c6	-0.14615163
144	0x3e3d4568	0.18483508
145	0xbe1af4aa	-0.15132394
146	0x3e0e9770	0.13924956
147	0x3e1d60f6	0.15369019
148	0xbdaa1485	-0.08304695
149	0x3df37254	0.11887041
150	0xbceae117	-0.028671784
151	0xbd50417d	-0.050843704
152	0x3dfa63d1	0.1222607
153	0x3df74189	0.12073047
154	0x3ccca19f	0.02497941
155	0xbe46175b	-0.19344847
156	0xbdc67658	-0.09690541
157	0xbe2c2881	-0.16812326
158	0x3ddeddc2	0.10882141
159	0xbdecc4b8	-0.115609586
160	0x3de520be	0.11187886
161	0xbd497f45	-0.04919364
162	0xbe3c1e28	-0.18370879
163	0xbd876b41	-0.06612254
164	0xbce86fae	-0.028373566
165	0xbdf8c96d	-0.12147794
166	0x3e194dce	0.14971086
167	0x3e205165	0.1565605
168	0xba0caa83	-0.00053659844
169	0xbda43d81	-0.080195434
170	0x3dfc276a	0.12312205
171	0x3e404007	0.18774424
172	0xbe14e017	-0.14538608
173	0x3e43915b	0.19098417
174	0x3b9d8c43	0.0048079803
175	0xbdd37dcf	-0.103267305
176	0x3e0a816c	0.13525933
177	0x3e3a2577	0.18178354
178	0xbd808bc7	-0.062766604
179	0x3e19cb02	0.15018848
180	0xbdc55b77	-0.09636586
181	0x3e136c23	0.1439672
182	0xbd9d4cc6	-0.07680659
183	0x3e09bdde	0.13451335
184	0xbe31e22a	-0.17371431
185	0xbd3fd07a	-0.046829678
186	0x3e478817	0.19485508
187	0x3e2862ab	0.16443889
188	0xbbfa61ca	-0.007641052
189	0xbc2487d7	-0.010042152
190	0x3d9a8b08	0.07546049
191	0xbc060946	-0.008180922
192	0xbe261788	-0.16219914
193	0xbe225da2	-0.1585603
194	0xbb7d9610	-0.003869418
195	0xbe1bdf0b	-0.15221803
196	0xbe3fa5e1	-0.18715622
197	0x3e3f26fd	0.18667217
198	0xbca7e57e	-0.020495173
199	0x3e03cfac	0.1287219
200	0xbd6d20cf	-0.057892617
201	0xbd38ed0b	-0.045147937
202	0xbdee0972	-0.11622895
203	0xbdf8af40	-0.12142801
204	0x3e41fbad	0.18943663
205	0x3dbae7fd	0.091262795
206	0xbe08c45e	-0.13356158
207	0x3db3943b	0.08768507
208	0x3db602fa	0.088872865
209	0x3cbe45dc	0.02322667
210	0xbe051ea8	-0.12999976
211	0xbd518ef6	-0.05116173
212	0xbdfb2b9a	-0.12264176
213	0x3dd9e05f	0.106384985
214	0x3e3ecf0f	0.18633674
215	0xbd8bd8dd	-0.06828473
216	0xbdce058d	-0.100596525
217	0x3e2049f1	0.15653206
218	0x3e324d70	0.17412353
219	0x3e0ae23f	0.13562869
220	0x3d608899	0.05481777
221	0x3dc16891	0.094437726
222	0xbd4facfe	-0.050702088
223	0x3cded6e5	0.02720208
224	0xbd34ab2a	-0.044108547
225	0x3a38af14	0.00070451316
226	0xbd8b246a	-0.06794055
227	0xbe064052	-0.13110474
228	0x3c9d906c	0.019233905
229	0xbe48c74a	-0.19607273
230	0x3e08aff0	0.13348365
231	0xbe27417e	-0.16333577
232	0x3e23dbdc	0.16001838
233	0x3c2d6f86	0.010585671
234	0x3dcf335b	0.10117217
235	0xbe18f9a0	-0.14938974
236	0x3dfc0dda	0.123073295
237	0xbd14c822	-0.036323674
238	0xbce7e622	-0.028307978
239	0xbc0e2366	-0.008675432
240	0xbe2d06ed	-0.16897173
241	0xbcb22e16	-0.021750491
242	0xbc6e4ff7	-0.014545432
243	0x3e23e5ef	0.16005681
244	0xbdd80900	-0.105485916
245	0xbd099616	-0.0335904
246	0x3b86ec7b	0.004117546
247	0xbe4565ec	-0.19277161
248	0xbdc2734a	-0.09494646
249	0xbdd97cb8	-0.10619491
250	0x3d82de0e	0.0639001
251	0x3e05de67	0.13073121
252	0xbe2e0b33	-0.1699646
253	0x3e2fcfe1	0.17169143
254	0x3e12e254	0.1434415
255	0x3cff3283	0.031152016

bias f4 [16]
0	0xbde3472c	-0.11097559
1	0x3c9df2bd	0.019280786
2	0xbdba2196	-0.09088437
3	0x3dce8f74	0.10085955
4	0x3e0325e5	0.12807424
5	0x3e0b201b	0.13586466
6	0x3d58824b	0.052858632
7	0xbccaba02	-0.024746899
8	0x3d839d53	0.064264916
9	0x3df36b2c	0.11885676
10	0x3cce3063	0.025169557
11	0x3e180a12	0.14847592
12	0xbe0fb645	-0.14034374
13	0xbe0a8bd5	-0.13529904
14	0x3cf402cb	0.029786488
15	0x3e0ae979	0.13565625

weight f4 [16]
0	0x3ee81aaa	0.45332843
1	0x3e93e021	0.28881934
2	0x3f585408	0.8450322
3	0x3f60e796	0.8785337
4	0x3eacf3ab	0.33779654
5	0x3c8040ae	0.015655842
6	0x3ec8a958	0.391917
7	0x3f69acb3	0.91279143
8	0x3f0d236e	0.55132186
9	0x3edbb3b7	0.4291055
10	0x3e9534b4	0.29141772
11	0x3eb57bd0	0.35446024
12	0x3ecac4cb	0.39603266
13	0x3f623bbf	0.88372415
14	0x3f3c63a4	0.7358954
15	0x3f676183	0.90383166

bias f4 [16]
0	0x3b8895bd	0.004168241
1	0xbb65f64e	-0.0035089436
2	0x3b9fc96a	0.0048763053
3	0xb9adcc36	-0.0003314928
4	0x3b5697ac	0.0032744212
5	0x3b481d46	0.0030535026
6	0x3bd3feb7	0.0064695734
7	0xbb7d215d	-0.0038624622
8	0x3ac86e8a	0.0015291732
9	0x3b6e34d8	0.0036347415
10	0xbb2bed31	-0.0026233906
11	0x3a0e17e2	0.0005420429
12	0x38588390	5.162094e-05
13	0x360ec7fa	2.127605e-06
14	0xba314683	-0.0006762521
15	0xba7f42f4	-0.0009737455

running_mean f4 [16]
0	0xbc996d70	-0.018728942
1	0x3dc0fa08	0.0942269
2	0xbdb0da5d	-0.086353995
3	0xbd5610b4	-0.052262023
4	0xbd71c648	-0.059026986
5	0x3e200858	0.15628183
6	0x3d1ba05e	0.037994735
7	0x3d739dd4	0.05947669
8	0x3e4a3dad	0.1975009
9	0xbe2f9764	-0.17147595
10	0xbbfa9451	-0.007647075
11	0xbc485370	-0.012226924
12	0x3e19160e	0.1494982
13	0xbe5be21b	-0.21472971
14	0x3e7b5356	0.24543509
15	0xbac84d02	-0.0015281739

running_var f4 [16]
0	0x3ae8eb51	0.0017770325
1	0x3a725e85	0.0009245652
2	0x3a89274d	0.0010463983
3	0x3b440b04	0.0029913792
4	0x3acd9525	0.0015684707
5	0x39e758c8	0.000441259
6	0x3b45c3a4	0.0030176425
7	0x3a8ce2de	0.0010748764
8	0x3a6087ad	0.0008565139
9	0x3b34872c	0.002754639
10	0x3a811832	0.000984913
11	0x3a862371	0.0010233951
12	0x3b47e75a	0.0030502887
13	0x3aafc9d5	0.0013411591
14	0x3b29267a	0.0025810287
15	0x3b12a8f1	0.002237853

weight f4 [32, 16, 5, 5]
0	0x3cb280fe	0.021790024
1	0x3d02e282	0.031954296
2	0xbcd59b14	-0.026074924
3	0x3be8a3e2	0.0070996145
4	0x3d02c066	0.031921767
5	0xbd196a06	-0.037454627
6	0x3d4b86c1	0.04968906
7	0xbcd57135	-0.026054958
8	0x3c4de25c	0.012566175
9	0xbcdecbae	-0.027196731
10	0xbcb832c7	-0.02248515
11	0xbb066ce2	-0.0020511677
12	0xbbba7f7c	-0.005691467
13	0x3d43c50e	0.047795348
14	0xbcc6a27a	-0.024247397
15	0x3d0bcbcb	0.0341299
16	0xbcbb4d04	-0.022863872
17	0x3c94b1e5	0.018151233
18	0x3d4024d2	0.046910115
19	0xbcec4e2c	-0.028845869
20	0xb967e4bf	-0.00022115091
21	0x3c1befed	0.009517652
22	0x3be5fe8a	0.007018869
23	0xbc7f3be5	-0.015578245
24	0xbd07bf41	-0.03314138
25	0xbcabfa01	-0.020993235
26	0xbd1054e0	-0.035237193
27	0xbc895293	-0.016763007
28	0x3d3b9b41	0.04580236
29	0x3c59c627	0.013291872
30	0xbc85e8d7	-0.016346378
31	0x3d248bed	0.040172506
32	0x3c014923	0.007890972
33	0x3d00d92b	0.031457108
34	0xbbe1b8dc	-0.006888492
35	0x3cae2d06	0.021261703
36	0xbce66aa2	-0.028127018
37	0x3bb950d1	0.005655386
38	0x3bbd11c1	0.0057699387
39	0x3ce9d1a6	0.028542351
40	0x3ce4daad	0.027936304
41	0x3ca30742	0.019900922
42	0x3a5a9f07	0.0008339737
43	0xbcddeefd	-0.027091498
44	0x3cc21bf2	0.023694966
45	0x3d4479a9	0.047967587
46	0x3d050df4	0.03248401
47	0x3ca3788f	0.019954948
48	0x3d532168	0.05154553
49	0xbc65abba	-0.014017994
50	0x3d5403df	0.051761504
51	0xb5210ee5	-5.999885e-07
52	0x3cd5915b	0.026070287
53	0xbcaa55bd	-0.020792836
54	0xbc9bdc88	-0.019026056
55	0xbc976a34	-0.018483259
56	0x3cda0bb5	0.02661691
57	0x3c500f9f	0.012699037
58	0x3d1ac458	0.037784904
59	0xbcc573e7	-0.024103118
60	0x3c905bdb	0.017621925
61	0xbca760d1	-0.020431908
62	0x3cc58ae3	0.024114078
63	0xbc4e028d	-0.01257385
64	0x3c4acc4d	0.012377811
65	0x3d07d291	0.033159796
66	0xbcae700e	-0.021293666
67	0x3c7444bb	0.014908965
68	0x3aa2bcd2	0.0012415892
69	0xbd2ac24a	-0.041689195
70	0x3c39a8eb	0.011331777
71	0xbd09fe5b	-0.033689838
72	0xbcf6f68d	-0.030146861
73	0x3d27a30f	0.04092699
74	0x3c33fb9f	0.010985284
75	0x3b9687be	0.0045938184
76	0x3ba1161e	0.0049159667
77	0x3bb35faa	0.0054740505
78	0x3d3d3f4a	0.046202935
79	0xbd167e8d	-0.036741782
80	0x3cc05f62	0.023482982
81	0x3d4cc754	0.04999478
82	0x3ac6cea2	0.0015167783
83	0xbd69ff30	-0.05712813
84	0xbd064119	-0.032776926
85	0x3d1f7514	0.038930014
86	0xbd2224aa	-0.039585747
87	0x3d1e8b44	0.038707033
88	0xbaa72003	-0.0012750629
89	0xbd00bc1b	-0.03142939
90	0x3d2fc38b	0.042911094
91	0x3d2e9737	0.04262468
92	0xbc34fb5d	-0.011046258
93	0x3c43abb5	0.011942794
94	0xbd2a3043	-0.041549932
95	0xbbc66e51	-0.006055631
96	0x3bf8bce4	0.007590877
97	0x3d090875	0.03345533
98	0x3cb75fa5	0.022384474
99	0xbc2d3515	-0.010571738
100	0x3ca41c86	0.020033132
101	0x3d454969	0.048165713
102	0xbca480c2	-0.020080928
103	0x3ccb6698	0.024829194
104	0xbbb7fdd8	-0.0056149773
105	0xbc11ba9a	-0.008894587
106	0xbd3f5512	-0.04671199
107	0x3bfcb48c	0.0077119526
108	0x3bbe6439	0.0058102873
109	0xbcdc62d2	-0.02690259
110	0xbc3e0f25	-0.01160029
111	0xbc80d2f6	-0.015725594
112	0x3c2a4f52	0.010394888
113	0xbc2a3004	-0.010387424
114	0x3cf19b31	0.029492946
115	0xbd5ce713	-0.053931307
116	0x3c800059	0.015625166
117	0xbb8e3635	-0.004339958
118	0xbd22bab1	-0.039728824
119	0x3b1c0a0d	0.0023809702
120	0x3c766384	0.015038375
121	0x3c7675a5	0.015042697
122	0x3d30cd2c	0.043164417
123	0x3cd8175a	0.026378322
124	0x3bfcb3ab	0.007711848
125	0x3c8d1884	0.017223604
126	0xbb073b58	-0.0020634737
127	0xbd859882	-0.06523229
128	0x3cd418e2	0.025890771
129	0x3d370c8a	0.044689693
130	0x3d5e2492	0.054234095
131	0x3d3e72c8	0.046496183
132	0x3d44d02b	0.048050087
133	0xbcf71d24	-0.030165263
134	0x3d27480f	0.040840205
135	0xbcfca830	-0.030841917
136	0x3cd2ffe9	0.025756793
137	0xbcb4247b	-0.021990051
138	0xbc25f04a	-0.01012809
139	0x3cdfc090	0.0273135
140	0xbd3dc4d9	-0.046330307
141	0xbc53d012	-0.012928026
142	0xbc186038	-0.009300284
143	0x3b9126d5	0.004429678
144	0xbc5ba4ce	-0.013405992
145	0x3ba27e33	0.004958892
146	0x3b5fca1f	0.0034147573
147	0xbc022b53	-0.0079449
148	0xbce463ea	-0.027879674
149	0x3d014c77	0.031567063
150	0xbd6a7232	-0.05723781
151	0xbd6a8ff8	-0.057266206
152	0x3d0d64d6	0.034519993
153	0xbd1919f6	-0.037378274
154	0x3c851773	0.016246533
155	0x3cf8f34a	0.030389447
156	0x3d68c5a6	0.056829117
157	0x3d14e277	0.036348786
158	0xbcd8a762	-0.026447002
159	0xbcc6af3c	-0.02425348
160	0xbc51dbd9	-0.012808763
161	0x3cfcaf53	0.03084532
162	0xbcb03d57	-0.021513624
163	0xbcd70a0e	-0.026249912
164	0xbd3d12f4	-0.046160653
165	0x3d7eb759	0.062186573
166	0xbd087558	-0.033315033
167	0xbd8b675e	-0.06806825
168	0x390f2878	0.00013652619
169	0xbb13e827	-0.0022568794
170	0xbc1ea8b9	-0.009683781
171	0xbd0609de	-0.032724254
172	0x3cebd11c	0.028786235
173	0xbcfeeba4	-0.031118222
174	0x3c9556c6	0.018229853
175	0x3d1dd7fc	0.038536057
176	0xbbf25ac7	-0.0073960754
177	0xbc7bc6ac	-0.015367191
178	0x3be9230a	0.0071147727
179	0xbb9f1067	-0.0048542502
180	0xbbfecb12	-0.0077756727
181	0xbc01625b	-0.007896985
182	0x3c576ef9	0.013149017
183	0xbd18e54b	-0.037328046
184	0xbccdf937	-0.025143249
185	0xbd4c4fa0	-0.049880624
186	0x3bd93e6a	0.006629755
187	0x3d220087	0.039551284
188	0x3d4147f5	0.047187764
189	0xbcf321e9	-0.029679256
190	0xbd83df99	-0.06439132
191	0x3bc018d6	0.0058623357
192	0x3d11d313	0.035601687
193	0xbc777a2e	-0.0151048135
194	0x3cb22556	0.021746319
195	0x3d172879	0.036903832
196	0xbd169ab7	-0.03676864
197	0xbc8244c0	-0.015901923
198	0xbc6ad078	-0.014331929
199	0xbc12c8ed	-0.008959037
200	0xbc613599	-0.013745689
201	0xbc6781d8	-0.014130078
202	0x3bb861e3	0.0056269034
203	0x3d23d419	0.039997194
204	0x3d1d727c	0.03843926
205	0xbcd197c1	-0.025585057
206	0x3c9292a0	0.017892182
207	0xbce0a64e	-0.02742305
208	0xbcb7756b	-0.022394856
209	0x3d21a9a6	0.03946843
210	0x3ce7d32e	0.02829894
211	0xbcc41c51	-0.023939284
212	0x3c8fc464	0.017549701
213	0xbcd9b927	-0.026577545
214	0x3b2ae478	0.002607612
215	0xbcc3a3db	-0.023881843
216	0x3d6fdd30	0.05856055
217	0xbd714484	-0.058903232
218	0x3d440a1c	0.047861204
219	0xbc931ff7	-0.017959578
220	0xbd813d70	-0.063105464
221	0xbc6305fd	-0.013856408
222	0x3c9a88cd	0.01886406
223	0x3d4b93fa	0.04970167
224	0xbd2ca8f5	-0.042153317
225	0xbd546a6a	-0.051859297
226	0xbcd0dc4e	-0.025495674
227	0x3ad1875e	0.0015985777
228	0x3be3ece3	0.0069557293
229	0x3b7ae638	0.0038284194
230	0xbcb61461	-0.022226514
231	0x3cadf976	0.021237116
232	0xbd56871d	-0.052374948
233	0x3d056900	0.03257084
234	0xbb9eb7f0	-0.0048437044
235	0xbadca322	-0.0016833285
236	0xbcb23979	-0.02175592
237	0x3be303c3	0.0069279387
238	0xbd2adfdf	-0.041717406
239	0xbce99571	-0.028513642
240	0xbc597c2d	-0.013274235
241	0x3cc4d0f8	0.024025425
242	0xbcc7a24f	-0.024369387
243	0x3d06a56d	0.032872606
244	0xbc67f4c4	-0.014157478
245	0x3d258901	0.04041386
246	0xbba3bf5d	-0.0049971775
247	0x3be0e7ca	0.006863569
248	0x3c96f9fe	0.018429752
249	0x3d37e442	0.044895418
250	0x3bac7ad6	0.0052636666
251	0xbcbcabf1	-0.023031207
252	0x3d1bfa41	0.038080458
253	0x3d2ee94f	0.04270297
254	0x3d0f1ed9	0.034941528
255	0x3b9a83d3	0.0047154217

bias f4 [32]
0	0x3cc76964	0.024342246
1	0xbc0631f5	-0.008190622
2	0x3d49f95d	0.049310077
3	0xbbb4a6fa	-0.005513069
4	0x3c5b0edb	0.013370241
5	0x3c627c85	0.013823633
6	0xbd38a74a	-0.045081414
7	0xbba7de3d	-0.0051229284
8	0x3d1310e8	0.035904795
9	0xbc58b9b1	-0.013227866
10	0x3cac0e48	0.021002904
11	0xbc316f82	-0.010829808
12	0x3d14bf3d	0.03631519
13	0x3d075782	0.03304244
14	0x3c61b99b	0.013777162
15	0x3c1fca53	0.009752828
16	0x3c53ca0a	0.012926588
17	0xbc1039ba	-0.008802826
18	0x3d272218	0.040804
19	0x3cf6e2f6	0.03013752
20	0x3cd96ea9	0.026542025
21	0xbc338f5a	-0.010959471
22	0xbd2cc2e5	-0.042178053
23	0xbb44e9b8	-0.0030046534
24	0xba27ac99	-0.00063962635
25	0x3d299f81	0.04141188
26	0xbb9e148d	-0.004824227
27	0xbcdc8b70	-0.026921958
28	0x3c5fe33d	0.013665018
29	0x3d0e1ac7	0.034693506
30	0x3c06b652	0.0082221795
31	0xbca42f62	-0.020042125

weight f4 [32]
0	0x3e6b6be9	0.22990383
1	0x3e1a9cdb	0.15098898
2	0x3f1299e0	0.57266045
3	0x3f5dfcbf	0.86713785
4	0x3f7bc0bb	0.9834096
5	0x3f49ca2f	0.7882413
6	0x3e8317b6	0.25604028
7	0x3ef6c96f	0.48200557
8	0x3f695020	0.91137886
9	0x3f2bcd27	0.6710991
10	0x3f32d09b	0.69849557
11	0x3ec7d46a	0.39029247
12	0x3eb87c99	0.3603256
13	0x3f4c59ad	0.79824334
14	0x3f3cd4d4	0.7376225
15	0x3d140486	0.036137126
16	0x3f71ba4f	0.9442491
17	0x3db64b9c	0.0890114
18	0x3eeab726	0.45842856
19	0x3f238030	0.63867474
20	0x3d8330ba	0.06405778
21	0x3f2b353e	0.66878116
22	0x3e9a7d34	0.30173647
23	0x3e346773	0.17617588
24	0x3f1d07f4	0.6134026
25	0x3f3c26f1	0.7349692
26	0x3e8576b8	0.26067138
27	0x3f5d9737	0.8655886
28	0x3e75577c	0.23959154
29	0x3e4e2cc3	0.20134263
30	0x3f5e7faf	0.8691358
31	0x3f51ea9f	0.8199863

bias f4 [32]
0	0x3ad38e33	0.0016140401
1	0xba4bbb47	-0.0007771742
2	0xbb81e035	-0.003963495
3	0x3b809a82	0.0039246688
4	0xbbe504b2	-0.006989085
5	0x3a99ea49	0.0011742796
6	0x3ae1d89a	0.001723069
7	0x3b45a04c	0.003015536
8	0x3bbd2b5d	0.0057729916
9	0x3b0c575a	0.002141437
10	0xb9ec70c1	-0.00045097436
11	0x3a5994f5	0.00083000894
12	0xba6e746e	-0.0009096329
13	0xbb2f0323	-0.002670475
14	0x3ab7acbf	0.0014013274
15	0x3ad79bac	0.0016449592
16	0xbb978992	-0.004624554
17	0x3b14d61e	0.0022710632
18	0xbc349521	-0.011021883
19	0x3b24ef0c	0.0025166897
20	0x3bb2a6e6	0.0054520248
21	0x3b126cb8	0.0022342633
22	0xba3c20aa	-0.0007176498
23	0x3b015626	0.0019735186
24	0xbb5407ab	-0.0032353203
25	0x399aede8	0.00029550423
26	0xbb231e6c	-0.002488996
27	0xbace279d	-0.0015728358
28	0xbaa236b9	-0.0012375928
29	0x3a973e96	0.0011539038
30	0xbb813d24	-0.003944056
31	0x3b011cde	0.0019701044

running_mean f4 [32]
0	0x3ccdface	0.025144007
1	0xbc8bf2f9	-0.017083632
2	0x3de371dc	0.11105701
3	0x3d333c7b	0.04375885
4	0x3a646850	0.00087130535
5	0xbd981c0a	-0.07427223
6	0xbcddc02a	-0.02706917
7	0x3d0fa62e	0.03507059
8	0x3dead5dc	0.11466572
9	0xbe36f2fd	-0.1786613
10	0xbdb7d17c	-0.08975503
11	0xbb864d8d	-0.0040986002
12	0xbd0aad9e	-0.03385698
13	0x3d3bba3e	0.04583191
14	0x3d97f376	0.07419483
15	0x3dbfc058	0.093628585
16	0x3d1f7d10	0.03893763
17	0xbbabab62	-0.0052389363
18	0xbcd0bdb0	-0.025481075
19	0xbd38642d	-0.04501741
20	0x3d9e620d	0.077335455
21	0x3ca97053	0.020683443
22	0x3b844657	0.0040367055
23	0xbce29cbb	-0.027662626
24	0xbd9264f9	-0.07148165
25	0x3df6218e	0.12018119
26	0x3cef428e	0.02920654
27	0xbd7693bf	-0.060199495
28	0x3cc07203	0.023491865
29	0xbd59d2ad	-0.05317943
30	0x3de56412	0.112007275
31	0xbe0cb592	-0.13741139

running_var f4 [32]
0	0x3b6654a3	0.0035145662
1	0x3c4b99b4	0.012426782
2	0x3d8e8462	0.06958844
3	0x3d6d25e3	0.05789746
4	0x3c92d6a6	0.017924618
5	0x3cf1e22b	0.02952679
6	0x3c875dae	0.016524162
7	0x3c1b92ce	0.00949545
8	0x3d926f5f	0.071501486
9	0x3da0680b	0.078323446
10	0x3d9b5217	0.07584017
11	0x3ba3ab83	0.004994811
12	0x3cf99f73	0.03047154
13	0x3d029c6c	0.031887457
14	0x3cef53a7	0.029214693
15	0x3cb99699	0.022654818
16	0x3c8f559e	0.01749688
17	0x3b39f2b6	0.0028373427
18	0x3acc95f9	0.001560866
19	0x3bc84163	0.0061113103
20	0x3b8216f8	0.0039700232
21	0x3c754c55	0.014971812
22	0x3c73982c	0.014867824
23	0x3bd0be24	0.006370323
24	0x3d32cc37	0.043651786
25	0x3cb585a1	0.022158446
26	0x3c8b41ed	0.01699921
27	0x3c9d90cd	0.019234085
28	0x3ca5e578	0.02025102
29	0x3ce8a26e	0.028397765
30	0x3d16b529	0.03679386
31	0x3db850ae	0.089997634

weight f4 [32, 32, 5, 5]
0	0xbc8f8da8	-0.017523602
1	0xbd0a5f89	-0.033782516
2	0xbc83683e	-0.016040917
3	0x3d0b2dd6	0.03397926
4	0x39cb948c	0.00038829853
5	0x3cb119fc	0.021618836
6	0x3c9b7287	0.01897551
7	0x3cd56a82	0.026051763
8	0xbc41b7bf	-0.011823594
9	0x3c8f3399	0.017480658
10	0x3cad4aa3	0.021153754
11	0xbcdc627a	-0.026902426
12	0xbc87c460	-0.016573131
13	0x3c7896ef	0.015172704
14	0x3c4ea1e8	0.012611844
15	0xbcba4f5b	-0.022742918
16	0x3cb8c26f	0.02255365
17	0xbae50fc0	-0.0017476007
18	0xbc862395	-0.016374389
19	0x3bb72b8d	0.0055899085
20	0x3ca232b9	0.019799577
21	0x3c9b3a87	0.018948806
22	0xbca4eb1e	-0.020131644
23	0x3cbb8c8b	0.022894165
24	0x3c73b445	0.014874523
25	0x3d102684	0.03519298
26	0xbd39218c	-0.04519801
27	0x3c39eba1	0.011347682
28	0xbceab322	-0.02864987
29	0x3c5cc1cc	0.013473939
30	0xbc0e5eab	-0.008689563
31	0xbbc83c8d	-0.006110734
32	0x3bf5daef	0.0075029056
33	0xbd05a570	-0.032628477
34	0xbcee539e	-0.029092606
35	0xbd02bd5d	-0.031918872
36	0x3cea747e	0.02862
37	0x3d04df95	0.032439787
38	0x3c871a36	0.01649199
39	0xbb418cbd	-0.002953335
40	0xbcb5d047	-0.022194041
41	0x3b881a54	0.004153529
42	0xbc690900	-0.014223337
43	0x3c8bdbd7	0.017072601
44	0xbc49818d	-0.012298954
45	0x3c78eb52	0.0151928235
46	0xbc0a9ebb	-0.008460696
47	0x3cf58a54	0.029973187
48	0x3c320a33	0.0108666895
49	0xbbf5b742	-0.0074986527
50	0x3d130257	0.035890903
51	0xbd078f05	-0.03309538
52	0x3ca2f906	0.019894134
53	0xbcf676e9	-0.030085998
54	0xbbaf1e44	-0.005344184
55	0xbd02d6b2	-0.03194303
56	0x3ca2bcb8	0.019865379
57	0x3c605bf3	0.013693797
58	0xbccbd617	-0.02488236
59	0x3b56e2e4	0.0032789046
60	0x3cf97495	0.030451098
61	0x3c6ec572	0.014573442
62	0xbc174321	-0.009232313
63	0xbca14d0c	-0.01969006
64	0xbd009c14	-0.031398848
65	0x3bcbfc24	0.006225126
66	0xbca9db51	-0.020734461
67	0xbc4f188e	-0.012640132
68	0x3d07f665	0.033193965
69	0x3cc9bb46	0.024625432
70	0x3c80bd31	0.015715213
71	0x3ca39f81	0.019973518
72	0x3cee144e	0.029062416
73	0xbd0c6e76	-0.03428503
74	0xbb706f09	-0.0036687276
75	0xbcfd9510	-0.030954868
76	0xbc8e4fc3	-0.017372018
77	0x3c1e6173	0.009666788
78	0xbcea5962	-0.028607074
79	0x3c16cb4e	0.009203745
80	0x3a888e12	0.0010418317
81	0xbca3b025	-0.019981453
82	0x3bbd8714	0.005783925
83	0xbce976e2	-0.02849907
84	0xbb9ac2f0	-0.0047229454
85	0x3be55628	0.006998796
86	0x3be56a0d	0.0070011676
87	0xbb6726f4	-0.003527102
88	0xbb9cdca2	-0.0047870437
89	0xbcdce6ce	-0.026965525
90	0xbaf4c8e9	-0.0018675599
91	0xbc979432	-0.018503282
92	0x3cb0a888	0.021564737
93	0xbc80f3be	-0.015741225
94	0xbd13a790	-0.036048472
95	0xbcc724b0	-0.024309486
96	0xbce9d273	-0.028542733
97	0x3c87fac5	0.016599068
98	0xbcbaaa77	-0.022786362
99	0x3a0ef008	0.00054526376
100	0xbcce7f9b	-0.025207331
101	0xbc71fbc6	-0.0147695
102	0xbcf82eb9	-0.030295717
103	0x3b85f1e8	0.0040876754
104	0xbcdec2c2	-0.027192477
105	0xbc4a9ce1	-0.012366504
106	0x3bd466ac	0.006481966
107	0x3b3dcf49	0.0028962663
108	0xbb5592ea	-0.0032588788
109	0x3b5c9906	0.0033660545
110	0x3b1992b2	0.0023433384
111	0xbd07306f	-0.033005174
112	0xbcdb779f	-0.026790438
113	0xbc7d74b4	-0.015469719
114	0x3bd3a431	0.006458782
115	0xbbf2f58e	-0.0074145263
116	0xbd0dd04b	-0.03462247
117	0xbca6cdf4	-0.020361878
118	0xbcd6261c	-0.026141219
119	0x3caa04ac	0.02075418
120	0x3c5330eb	0.012890081
121	0xba87dacc	-0.0010364889
122	0xbc77c7e7	-0.015123344
123	0xbc7cf187	-0.015438444
124	0xbc317da7	-0.0108331805
125	0xba3c0448	-0.0007172269
126	0x3cb59cfc	0.022169583
127	0x3ca91ce1	0.020643653
128	0xbd01341b	-0.031543832
129	0x3ce94668	0.028475955
130	0x3d08e294	0.033419207
131	0x3c6e8c47	0.014559812
132	0xbca79f86	-0.020461809
133	0xbd022181	-0.031770233
134	0xbd072919	-0.03299818
135	0x3b169e8e	0.002298269
136	0x3c0ca942	0.008585276
137	0x3cba8d63	0.022772497
138	0xbbe85b84	-0.0070909876
139	0x3d0b0d8a	0.03394846
140	0x3cbc6a3e	0.022999879
141	0x3c947bd6	0.018125456
142	0xbc2f5629	-0.0107016945
143	0x3be3f447	0.0069566104
144	0x3c1ce0d9	0.009575092
145	0x3cfb4534	0.030672647
146	0x3a938caa	0.0011257131
147	0xbc9ec6cf	-0.019381909
148	0x3c9217a7	0.017833544
149	0x3c83bc61	0.016081037
150	0xbd117fff	-0.035522457
151	0x3c097f24	0.008392129
152	0xbcd50684	-0.026004083
153	0x3c959c0f	0.018262891
154	0xbcfba303	-0.030717378
155	0x3b735e1e	0.0037134956
156	0xbbad8512	-0.0052954042
157	0xbcad5de5	-0.021162936
158	0xbc8b1494	-0.016977586
159	0xbceb09af	-0.028691141
160	0x3cf924fa	0.03041314
161	0x3c43634b	0.011925529
162	0xbb2ceb0d	-0.0026385218
163	0xbcab5185	-0.020912895
164	0x3d0fcf78	0.035109967
165	0xbc2d443c	-0.01057535
166	0x3cbfca70	0.02341196
167	0x3b893404	0.004187109
168	0x3c31007b	0.010803337
169	0x3c071107	0.008243806
170	0xbd1b1ab0	-0.037867248
171	0xb9908cf8	-0.0002757085
172	0x3d02fdda	0.031980373
173	0xbd0f999f	-0.035058614
174	0x3bd5a614	0.006520042
175	0xbd228eb3	-0.03968687
176	0x3c95779f	0.018245516
177	0x3b31ea9f	0.0027147902
178	0x3cfdc1ea	0.030976254
179	0x3cb057f2	0.02152631
180	0xbc06bf3c	-0.008224305
181	0x3cf76da5	0.03020365
182	0x3bdaeccb	0.00668106
183	0xbc6f38cc	-0.014600944
184	0xbd0e2ff8	-0.034713715
185	0xbcb4d67d	-0.022074932
186	0xbcd0f804	-0.025508888
187	0xbbc45652	-0.0059917355
188	0xbc2234b7	-0.0099002635
189	0xbcd94046	-0.026519906
190	0x3cf0688b	0.029346725
191	0x3c14894b	0.009065936
192	0xbd0d739e	-0.03453409
193	0x3ce7bfce	0.028289702
194	0xbc6cc013	-0.014450091
195	0xbd11f0b9	-0.03562996
196	0xb92b0137	-0.00016308283
197	0x3c3662eb	0.011131982
198	0xbcf2fbe4	-0.029661126
199	0x3c91b85a	0.017788101
200	0xbca37b16	-0.019956153
201	0x3ca3220f	0.019913701
202	0xbc78634c	-0.015160393
203	0xbc2eb2ee	-0.010662777
204	0xbcb9a0dd	-0.022659713
205	0xbd005787	-0.031333473
206	0x3af657a4	0.001879443
207	0x3ce983f0	0.028505296
208	0x3c853b26	0.016263556
209	0xbc99f10d	-0.0187917
210	0xbd1808c6	-0.037117742
211	0xbc959bb1	-0.018262716
212	0xbcc85568	-0.024454787
213	0x3bbea487	0.005817953
214	0xbd069c6e	-0.032864027
215	0xbc498d8f	-0.012301817
216	0x3bcbe053	0.00622181
217	0x3c0a0f2d	0.00842647
218	0xbcaac28c	-0.02084472
219	0xbd079a36	-0.03310605
220	0xbd253265	-0.040331263
221	0x3c54b08b	0.012981544
222	0xbcbb09b7	-0.02283178
223	0x3bfd3d3b	0.0077282465
224	0xbcbaed83	-0.022818333
225	0xbd004ec2	-0.03132511
226	0xbc725514	-0.014790792
227	0x3cd7b59d	0.026331717
228	0x3c059962	0.008154245
229	0x3b5a8a36	0.003334654
230	0xbcb4cff6	-0.02207182
231	0x3cafd916	0.02146582
232	0x3bbf2151	0.005832829
233	0xbd11f02f	-0.035629448
234	0x3b8a0066	0.0042114733
235	0xbc6df06b	-0.014522652
236	0x3ba6c43c	0.005089311
237	0xbc70ffe0	-0.014709443
238	0x3c9eff80	0.019408941
239	0xbc10899e	-0.008821873
240	0x3c4d827a	0.012543315
241	0x3d0f15c4	0.034932867
242	0x3cf5c393	0.030000484
243	0xbcf3423b	-0.029694667
244	0x3cc3bd32	0.023893926
245	0xbbbcaeda	-0.0057581486
246	0x3cb6a83d	0.02229702
247	0x3c80f3be	0.015741225
248	0xbc42f09e	-0.011898188
249	0xbc61f0f8	-0.013790362
250	0x3b95dc17	0.004573356
251	0xbc64e466	-0.01397047
252	0x3cdf3b21	0.027249875
253	0x3c0a343d	0.008435306
254	0xbcc4f5b9	-0.024042951
255	0xbd0a8b51	-0.03382427

bias f4 [32]
0	0xbd060f8f	-0.03272968
1	0xbcb3a16e	-0.021927562
2	0x3d07e848	0.033180505
3	0x3b67f3b5	0.0035393063
4	0x3ce9fe5b	0.028563669
5	0xbcc4054f	-0.023928313
6	0x3c8e294c	0.017353676
7	0xbabf8e4d	-0.0014614552
8	0x3ca48668	0.020083621
9	0x3bb9823b	0.0056612766
10	0x3cf7134e	0.030160572
11	0xbce1fbc5	-0.027585873
12	0x3d071c4e	0.032985978
13	0xbc66bbe8	-0.014082886
14	0x3c8193d5	0.015817562
15	0x3cf377e9	0.029720264
16	0x3cb2a3bc	0.02180659
17	0xbcefcdd9	-0.02927296
18	0xbca61e82	-0.02027822
19	0xbac2864c	-0.0014841049
20	0x3b41614e	0.002950746
21	0xbbaf09b7	-0.0053417343
22	0x3bdf1b24	0.0068086553
23	0x3c2f1fdc	0.010688748
24	0xbcfa413a	-0.03054868
25	0x3b604154	0.0034218626
26	0xbcfc0a96	-0.030766767
27	0x3cfcbff3	0.030853247
28	0x3b99008f	0.004669256
29	0x3bc3de4e	0.0059774285
30	0xbc537e53	-0.012908536
31	0x3ab27f21	0.001361821

weight f4 [32]
0	0x3f3bf30e	0.7341775
1	0x3e86bcda	0.26315957
2	0x3ed12bd7	0.4085376
3	0x3e524eb7	0.2053784
4	0x3f777180	0.9665756
5	0x3f31ba2a	0.6942469
6	0x3f740526	0.95320356
7	0x3e985eee	0.29759926
8	0x3f2f4847	0.6846966
9	0x3f618c6f	0.8810491
10	0x3df144a5	0.11780671
11	0x3e9e29c0	0.30891228
12	0x3f01192d	0.5042904
13	0x3d2750a4	0.04084839
14	0x3f3a2526	0.72712934
15	0x3e659b2f	0.22422479
16	0x3f514feb	0.8176257
17	0x3e36151b	0.17781489
18	0x3ecdc751	0.4019113
19	0x3ea697a5	0.3253757
20	0x3e5b3e30	0.21410441
21	0x3f71c10b	0.94435185
22	0x3dce31b6	0.10068075
23	0x3e283f30	0.16430354
24	0x3f4a5bf2	0.7904655
25	0x3f648eb1	0.8928023
26	0x3f4342b5	0.7627366
27	0x3f35a0fd	0.70948774
28	0x3f78d40a	0.97198546
29	0x3ecb248c	0.3967632
30	0x3f41fd40	0.75777054
31	0x3f68a63c	0.90878654

bias f4 [32]
0	0xba3af291	-0.0007131482
1	0xbb9a05bf	-0.004700392
2	0xbb19e00f	-0.0023479497
3	0x3b04eb67	0.0020281912
4	0xbb818a0b	-0.0039532236
5	0xbb6af482	-0.0035851304
6	0xbbd67db1	-0.0065457453
7	0xbba1682a	-0.0049257474
8	0xbb0b7390	-0.0021278597
9	0xbb40cd95	-0.0029419411
10	0x380ad03c	3.3095697e-05
11	0x3b45a237	0.0030156502
12	0xbbc84cab	-0.006112655
13	0x3bda622b	0.0066645346
14	0xb9b247c6	-0.0003400428
15	0xbb925077	-0.0044651586
16	0xbbc7f5f3	-0.0061023175
17	0x3b475496	0.0030415407
18	0x3bac6005	0.00526047
19	0xba7f5619	-0.00097403076
20	0xba14bf0a	-0.0005674219
21	0xbb4c34f1	-0.0031159485
22	0x3bbb298b	0.0057117394
23	0xbb45c7b4	-0.0030178847
24	0xbb39a16c	-0.0028324975
25	0xbbfd4e9d	-0.0077303187
26	0xbb86807a	-0.004104671
27	0xbb96a189	-0.004596893
28	0x3a596a9c	0.0008293779
29	0xbb392c39	-0.0028255119
30	0x3b08c670	0.002087023
31	0xbb2699dc	-0.0025421297

running_mean f4 [32]
0	0xbe10acb5	-0.14128383
1	0x3d79062e	0.06079691
2	0x3d52c1d6	0.051454388
3	0x3d5ba5f7	0.053625073
4	0xbd8c8a98	-0.06862372
5	0xbb165dff	-0.002294421
6	0x3d6e2586	0.058141254
7	0x3da65fd2	0.08123745
8	0x3d15247f	0.03641176
9	0xbd895b5e	-0.0670688
10	0x3e0a4ed6	0.13506636
11	0xbe0085b8	-0.1255101
12	0x3dc0fb29	0.09422905
13	0x3e39381d	0.18087812
14	0xbc90beea	-0.01766916
15	0xbe0d9bd9	-0.13828982
16	0xbdca48a1	-0.09877134
17	0xbc8cadb8	-0.01717268
18	0x3decbc83	0.11559393
19	0x3c4f2bac	0.0126446895
20	0x3d5934f6	0.053029023
21	0xbd4e71eb	-0.05040161
22	0x3dbcc2d1	0.09216846
23	0x3e31d66f	0.17366956
24	0xbe8ccdf8	-0.27500892
25	0xbe1b30a4	-0.15155274
26	0x3cfd4270	0.030915469
27	0xbd16c818	-0.036811918
28	0x3dca4f24	0.09878376
29	0xbd836ecf	-0.064176194
30	0x39257f67	0.00015783087
31	0xbeacddf6	-0.33763093

running_var f4 [32]
0	0x3d5abb17	0.05340108
1	0x3d4b4168	0.049622923
2	0x3ce805a0	0.028322995
3	0x3cb0d9f2	0.0215883
4	0x3dddc79c	0.10829088
5	0x3d7f3be2	0.062312968
6	0x3d4cc760	0.049994826
7	0x3d3e5fe5	0.04647817
8	0x3b3ba742	0.002863363
9	0x3dbf2d46	0.09334807
10	0x3ba027f4	0.0048875753
11	0x3ca21e35	0.019789794
12	0x3d554cc4	0.052075163
13	0x3ca24a2e	0.019810762
14	0x3c977196	0.01848678
15	0x3d3c4279	0.04596183
16	0x3dc5e000	0.09661865
17	0x3d07933b	0.033099394
18	0x3cc46a6b	0.023976525
19	0x3ca85721	0.020549359
20	0x3c8ace04	0.016943939
21	0x3d203f21	0.039122704
22	0x3c08e8af	0.008356257
23	0x3be95886	0.0071211485
24	0x3e81944e	0.2530846
25	0x3d934b80	0.07192135
26	0x3cff1949	0.031139987
27	0x3ca6bbf6	0.020353299
28	0x3d57010c	0.052491233
29	0x3c9e0dfd	0.01929378
30	0x3d7949b6	0.06086131
31	0x3dbed7fe	0.09318541

weight f4 [3, 1536]
0	0x3cb801aa	0.022461731
1	0xbc3e707c	-0.011623498
2	0xbbfb04d7	-0.007660489
3	0x3aaece2e	0.0013336593
4	0xbc231251	-0.009953097
5	0x3c8058e6	0.01566739
6	0x3bb7c6d9	0.0056084213
7	0xbbba770c	-0.005690461
8	0x3b2b0f76	0.0026101745
9	0xbc8a7111	-0.016899617
10	0x3cb9351a	0.022608329
11	0x3bc10821	0.0058908616
12	0xbc5c728e	-0.013455046
13	0xbc600d9e	-0.013675122
14	0x3cc6a2b5	0.024247507
15	0x3c8ba79d	0.017047698
16	0xbc511e98	-0.012763642
17	0xba5afbf0	-0.00083535817
18	0x3c4f1b38	0.012640767
19	0xbcc01d46	-0.023451459
20	0x3c9f1e35	0.019423584
21	0xbc91035c	-0.017701797
22	0x3be07772	0.0068501765
23	0x3c123537	0.00892382
24	0xbc93f801	-0.018062593
25	0x3c90a892	0.017658506
26	0xbc1783e8	-0.0092477575
27	0x3c05d5e8	0.008168675
28	0x3bdd8137	0.0067597884
29	0xbbed2e6b	-0.0072381995
30	0xbc386247	-0.0112539
31	0x3c67e477	0.014153591
32	0x3cb08c17	0.021551175
33	0x3c1f966b	0.009740452
34	0x3c076bf6	0.008265486
35	0x3c4403ed	0.011963827
36	0x3c0c9b3f	0.008581935
37	0x3cb15dc0	0.021651149
38	0xbcbb2226	-0.022843432
39	0x3bbb55e0	0.005717024
40	0x3cb9bb0d	0.0226722
41	0x3bb3521d	0.005472435
42	0xbb1bffee	-0.002380367
43	0xbbad9cdc	-0.00529824
44	0xbad8f832	-0.001655346
45	0xbccde701	-0.025134565
46	0x3c9ae8d6	0.018909853
47	0x3cc9e4f2	0.024645302
48	0xbc1b2178	-0.009468429
49	0xbbddda70	-0.0067704245
50	0xbca5ed40	-0.020254731
51	0xbc1bde00	-0.009513378
52	0xbbe01c0b	-0.0068392805
53	0x3b92e9c2	0.0044834325
54	0xbc53b31b	-0.01292112
55	0x3cbd9988	0.023144498
56	0xba03883e	-0.0005017555
57	0xbc87ecbb	-0.016592374
58	0x3b75c754	0.0037502842
59	0x3a20b5de	0.0006130616
60	0xbc71ebc7	-0.014765686
61	0x3ceea904	0.029133327
62	0xbca3584a	-0.01993956
63	0x3ce6c0a8	0.028168038
64	0x3cd3c451	0.025850447
65	0xbcb6fa15	-0.022336045
66	0xbc40c733	-0.011766243
67	0x3c5ff991	0.013670341
68	0xbc883c4c	-0.016630314
69	0x3c3669cb	0.011133621
70	0xbc9c0af8	-0.019048199
71	0xbca1c660	-0.019747913
72	0x3c9b6769	0.018970208
73	0x3c972dc4	0.01845444
74	0xbb479ec9	-0.0030459634
75	0x3bd3b42d	0.0064606876
76	0x3cb05d1b	0.021528771
77	0x3cab69e2	0.020924512
78	0x3b96af0d	0.0045985044
79	0xbc50b621	-0.012738735
80	0x3c564bbc	0.01307958
81	0x3cc0a0db	0.023514202
82	0xbcac7245	-0.021050582
83	0x3ccc6808	0.02495195
84	0x39ace91b	0.00032980074
85	0x3ce2d3fc	0.027688973
86	0xbca99aae	-0.02070364
87	0x3c156bbf	0.009119927
88	0xbb898cfc	-0.004197715
89	0xbcb9588e	-0.022625234
90	0xbc49f621	-0.012326748
91	0xbc0685e5	-0.008210634
92	0x3c6d96fe	0.014501331
93	0xbc0d877c	-0.008638259
94	0xbc83f3a1	-0.016107382
95	0x3c7cef70	0.015437946
96	0x3c97eaf8	0.018544659
97	0xbcf2908b	-0.02960994
98	0xbbf1f168	-0.007383514
99	0xbcc716eb	-0.02430292
100	0xbb87ab8b	-0.0041403226
101	0x3c3c10fa	0.011478657
102	0xbbb375d1	-0.0054766913
103	0x3b6e0e44	0.003632442
104	0x3ca61a16	0.02027611
105	0x3c44fb6d	0.012022835
106	0xbbb946e5	-0.0056542032
107	0xbb3a148c	-0.0028393595
108	0xbaaf34ba	-0.0013367154
109	0xbc4cf416	-0.0125093665
110	0x3b44a405	0.003000499
111	0xbca70ed7	-0.020392818
112	0xbc7eda4b	-0.015554975
113	0xbc94e1ed	-0.018174136
114	0x3c93d5f2	0.018046353
115	0xbcbba34b	-0.022905013
116	0x3ca26f30	0.019828409
117	0xba00e5a1	-0.000491703
118	0x3cc8eec8	0.024527922
119	0x3b7f26b4	0.003893298
120	0x3ce4d690	0.027934343
121	0xbc5afa49	-0.013365337
122	0x3cb7f5a0	0.02245599
123	0x3c7077f0	0.014677033
124	0x3c86cdcf	0.016455559
125	0x3c4302ac	0.0119024925
126	0xbc665920	-0.014059335
127	0x3b5742b5	0.0032846157
128	0xbc7109bc	-0.0147117935
129	0x3cc74e15	0.024329225
130	0x3ca30aef	0.019902674
131	0x3ca64bb6	0.020299774
132	0x3c9e36b3	0.019313192
133	0x3cd5ad8b	0.026083728
134	0xbcbf30d1	-0.023338707
135	0xbcb2e2c9	-0.021836655
136	0xbc6586d7	-0.014009199
137	0x3c3f0870	0.0116597265
138	0x3c911969	0.017712312
139	0xbc8700a7	-0.016479803
140	0x3c22cc3e	0.00993639
141	0xbc3700ea	-0.0111696515
142	0x3c742754	0.014901955
143	0x3aec5077	0.0018029351
144	0x3ca5cdda	0.02023976
145	0x3b0b7295	0.0021278013
146	0xbac1d19a	-0.0014787198
147	0x3b8d810a	0.004318361
148	0x3c0f5afd	0.008749721
149	0x3ccca416	0.024980586
150	0x3d030ce6	0.031994723
151	0xbc4abd22	-0.012374194
152	0xbca090e8	-0.019600347
153	0x3b112c5f	0.0022151691
154	0xbb563853	-0.003268738
155	0xbc8509e4	-0.016240068
156	0x3d100174	0.035157636
157	0xbc718112	-0.014740245
158	0x3c2f9731	0.010717199
159	0xbc841931	-0.016125293
160	0xb895fe01	-7.1521856e-05
161	0x3c4845ca	0.01222367
162	0x3c035ac9	0.00801725
163	0x3cb44a0e	0.022007968
164	0x3b8675fe	0.0041034212
165	0xb9a8a9bf	-0.00032169928
166	0x3c965024	0.01834876
167	0x3c810d06	0.01575328
168	0xbbc94fec	-0.0061435606
169	0xbc4fc533	-0.012681293
170	0xbc03dd3d	-0.008048353
171	0xbbcf3370	-0.0063232705
172	0xbb8de290	-0.004329987
173	0x3c18bf5c	0.009322967
174	0x3cceddf1	0.025252314
175	0x3c30b4fb	0.010785337
176	0xbc643d63	-0.013930651
177	0xbca5b5fc	-0.020228378
178	0xbc47ec5a	-0.012202347
179	0x3cb4d2ac	0.022073112
180	0x3c18de18	0.009330295
181	0xbc8e2f04	-0.017356403
182	0xbc94f339	-0.018182384
183	0x3c5bbfee	0.013412459
184	0xbc5cb9f7	-0.013472072
185	0x3bde857a	0.006790814
186	0x3ccd28b4	0.025043823
187	0xbc9a4c5d	-0.018835241
188	0xbb2c5a1c	-0.0026298827
189	0xbc4ff2a8	-0.012692131
190	0x3bd692ea	0.0065482752
191	0x3c584752	0.013200598
192	0x3cafc27b	0.02145504
193	0xbc84aeae	-0.016196575
194	0x3c707717	0.014676831
195	0x3c81d46b	0.01584836
196	0x3cc22816	0.023700755
197	0xbc18ff35	-0.00933819
198	0xbc30caf9	-0.01079058
199	0xbc0150f6	-0.007892838
200	0xbc990c46	-0.01868261
201	0xbc4c33ba	-0.012463504
202	0x3c841f4c	0.016128205
203	0xbc41d88c	-0.011831414
204	0x3c463e2a	0.012099782
205	0xbcb5a6f1	-0.02217433
206	0xbc4a36ad	-0.012342137
207	0xbafb1db7	-0.0019158636
208	0x3cc5a923	0.024128502
209	0xbca28a36	-0.019841295
210	0xbca6bbb0	-0.020353168
211	0x3b8c52ad	0.0042823167
212	0x3c0afaaa	0.0084826145
213	0xbc806d11	-0.015677007
214	0x3cd2addd	0.02571767
215	0x3c3a9d19	0.011389994
216	0x3ad57b23	0.0016287308
217	0xbc5773cc	-0.013150167
218	0x3c4fd4ad	0.012684983
219	0xbb67bfc0	-0.0035362095
220	0xbcb83d0f	-0.022490053
221	0xbc0a150b	-0.008427869
222	0x3c090ced	0.008364898
223	0x3c5cfe4d	0.013488364
224	0xbc69ec57	-0.014277539
225	0xbc7c0d43	-0.015384021
226	0xbcbf81ce	-0.023377325
227	0xbc146e99	-0.009059572
228	0x3c3d88bc	0.011568245
229	0xbc6abd9c	-0.014327433
230	0x3c38c8b0	0.011278316
231	0xbae57230	-0.0017505344
232	0xbc0ec6bb	-0.008714373
233	0x3c6df688	0.01452411
234	0x3c1a2436	0.009408047
235	0xbca2d644	-0.01987756
236	0x3c8cfa4d	0.017209196
237	0xbb82c07b	-0.0039902306
238	0x3cbe0f70	0.02320072
239	0xbbad668f	-0.005291767
240	0xbba66b76	-0.0050787283
241	0xbab2e5d1	-0.0013648813
242	0xbcc52733	-0.024066543
243	0x3c85688f	0.016285209
244	0xba9693dd	-0.0011488158
245	0xbb20ada2	-0.0024517556
246	0xbc044cbf	-0.008074938
247	0x3c454005	0.012039189
248	0xbca34c6c	-0.019933902
249	0x3cb41fdf	0.021987854
250	0xbc9af1d5	-0.018914143
251	0xbc38d7d6	-0.011281928
252	0xbcb4dbb4	-0.022077419
253	0x3c773e22	0.015090497
254	0x3c8c5cdb	0.01713412
255	0xbb5b36b5	-0.0033449356

bias f4 [3]
0	0x3c4028fd	0.011728522
1	0xbc018e7d	-0.007907507
2	0xbcc90266	-0.024537276
